trained_models/102E:5B5E:C956:FD77.pt (torch, 191259 bytes, 40 tensors)

encoder.encoder.0.0.weight f4 [36, 36, 7]
000000 38 c3 0d bd d2 d9 d0 bb 25 7e fb bc 8d bc af 3c
       -0.034610003 -0.0063736225 -0.030699799 0.021452213
000010 1a bf 7d bd 47 8b 9d 3d fb cd 58 3c c2 80 86 bd
       -0.061949827 0.07692581 0.013232703 -0.06567527
000020 9b 54 63 3b 2c e6 75 bc a9 f4 8d bc e9 0b 5b bd
       0.003468788 -0.0150084905 -0.017328577 -0.053478155
000030 1f ef 89 3d ae 8e a0 3d fe 47 5d bd a7 79 82 bd
       0.06735062 0.07839714 -0.054023735 -0.063708596
000040 aa 25 47 bc c4 59 40 bd 05 87 1a bd 4a cb 8f 3c
       -0.012154976 -0.046960607 -0.03772642 0.01755299
000050 63 ed 55 bd 03 32 b7 3c 48 6f ec bb 0a 82 e1 3c
       -0.052228343 0.022362715 -0.007215414 0.027527828
000060 b8 de fb 3c 24 4c 88 bd 1f 35 56 3d 3c e1 c4 3c
       0.030745849 -0.06655148 0.052296754 0.024033181
000070 2c ae c1 bd f5 3b e3 3b 5c bc e0 bc 64 90 a9 3d
       -0.09457049 0.0069346377 -0.027433567 0.082794935
000080 d8 0c 4e bd 05 14 65 bc 2d 7c 1d 3d 0d 5f 91 3c
       -0.050305218 -0.013981824 0.0384485 0.017745519
000090 fe 8f a0 3b 02 84 12 bd 48 15 16 3d 69 96 09 3d
       0.0048999777 -0.035770424 0.03664139 0.033590708
0000a0 64 4b c2 3d bc 3a de 3c 0e 4e cb bb ec 59 3b bd
       0.09487036 0.027127616 -0.006204373 -0.045740053
0000b0 c2 52 55 3d 3d 08 3f 3d 27 54 3f 3c 32 46 d9 3d
       0.052080877 0.046638716 0.011677778 0.10609092
0000c0 d9 5a 94 3b 92 51 91 3a 63 fa bc 3c 1f 98 5f 3d
       0.0045274314 0.0011086932 0.023068612 0.054588433
0000d0 53 06 71 3d 7f 9f 40 3b a8 6c 96 3d 87 3b dd 3d
       0.058843922 0.0029391942 0.07344943 0.108023696
0000e0 45 39 91 3c 2a 43 1d bd a0 37 f3 bb e9 20 ea 3b
       0.017727504 -0.03839413 -0.0074224025 0.0071450365
0000f0 2a 6e 69 3a 9a db d0 3d 39 75 f9 bb a8 c7 b3 ba
       0.00089046604 0.10198136 -0.007612851 -0.0013716118
000100 a8 b7 0f bd b4 7d ed 3a f3 e0 a0 3c 28 86 6c 3d
       -0.035087258 0.0018119127 0.019638514 0.05774513
000110 91 bd d8 3c 10 d4 9f 3d f1 6b d8 bc 71 50 4d bd
       0.02645758 0.078041196 -0.026418658 -0.050125543
000120 c7 4c 40 3d 12 80 c7 bc 49 a9 f9 bc 5b 32 06 3d
       0.04694822 -0.02435306 -0.03047623 0.032762866
000130 bb 2b 3e 3d 7e 73 05 3c b9 d1 8e bd a6 a8 22 3c
       0.046428423 0.008145211 -0.06973595 0.009927904
000140 14 09 f8 bb c7 a3 e2 3b ef a6 8d 3d 82 e4 7f 3d
       -0.0075694416 0.0069164964 0.06916606 0.06247378
000150 65 af d7 bc 4b 2d 2e bd de e2 3a 3d 57 f4 98 bc
       -0.026328752 -0.042523663 0.045626514 -0.018671198
000160 8a 8c d7 bc 5a 71 da 3c 78 71 db 3d 99 a3 ba 3c
       -0.026312131 0.026665378 0.10715002 0.022783088
000170 b2 f7 62 bd 2c 75 cf bb 0e 86 8c 3c b6 9f cf bc
       -0.055412002 -0.0063311066 0.017153766 -0.02534471
000180 9b 47 e6 3c cb 77 9a 3d 6e 24 c5 bc 9b f6 86 3c
       0.028110316 0.0754238 -0.024065223 0.016475013
000190 70 bf 80 bc 5a f5 36 3c 1b b7 5c bd f3 e4 0b bd
       -0.015716285 0.011166895 -0.05388556 -0.03415389
0001a0 14 b0 a0 bd 9a 82 60 bd aa 55 47 bd b9 f4 c4 bc
       -0.07846084 -0.05481205 -0.04866568 -0.024042474
0001b0 ff f3 89 bd 31 4a b9 bc b3 dc 9c bc 7a 8b ca bd
       -0.06735992 -0.022618385 -0.019148206 -0.09889884
0001c0 23 19 ec bd e9 26 81 bd b3 0c 17 bd a0 e3 86 bc
       -0.11528232 -0.0630625 -0.036877345 -0.016465962
0001d0 4e fd 57 bd 88 9c 2a bd 11 b0 91 bd c7 83 d6 ba
       -0.052731805 -0.041653186 -0.0711366 -0.0016366177
0001e0 24 c0 f1 3b 57 ea be 3c 3d 3d 41 3c ad a6 2f bc
       0.0073776413 0.023305101 0.0117943855 -0.010720891
0001f0 ea 3b 82 bd 55 bb 2b bd d2 33 23 3c e3 14 57 bd
       -0.06359084 -0.0419267 0.009961085 -0.052510154
000200 ea 0c a4 3b 83 4a 64 3b f1 8a c8 bd 91 9a 38 3d
       0.0050064223 0.0034834452 -0.09792126 0.04506928
000210 71 3f 6b bc f2 7b 0c bd 51 f7 3a bc ae 88 08 bd
       -0.014358387 -0.03429789 -0.011411504 -0.033333473
000220 26 e5 e6 bc 6a c7 22 3c f7 0f 98 bc 69 59 e5 3c
       -0.028185438 0.009935239 -0.0185623 0.027996736
000230 70 a3 b2 bd f6 ca 49 bb 3f cc 16 3d 6a b2 21 3d
       -0.087225795 -0.003079114 0.036815878 0.03947679
000240 c5 65 49 bd f1 41 97 3d c4 34 27 bb c5 59 34 bd
       -0.04916932 0.07385624 -0.0025513628 -0.044030923
000250 5f 85 8a 3c cb 7b 61 3d 86 9d 0f 3d 0d e6 4d 3d
       0.0169093 0.0550497 0.035062335 0.05026822
000260 59 8f 1c 3d 48 42 c0 3d 0b c4 95 3c 2f e6 0c bd
       0.038222644 0.09387642 0.018281957 -0.034399208
000270 d5 68 95 3d bc 96 4b 3d 01 c9 fd bc 5c 9e 1b 3c
       0.07295386 0.0497043 -0.030979635 0.009498205
000280 2c e1 a8 3d 68 64 55 3d be 18 03 bd 20 8b 41 3d
       0.08246073 0.052097708 -0.032006018 0.04725182
000290 5a 05 97 bc 22 2b cb bc c9 c8 0b 3d 00 15 c8 3b
       -0.018435169 -0.02480084 0.03412703 0.006106019
0002a0 0c 26 85 3c 9d 9f 5f bc 84 c4 3c bc aa 05 c9 bc
       0.016253494 -0.013648895 -0.011521462 -0.024538834
0002b0 15 0a 10 3d 7d cb 74 3a 80 63 c3 3d 88 7e 0b 3d
       0.035165865 0.00093381834 0.095404625 0.034056216
0002c0 98 14 a8 bc 27 36 ba 3c 7e c4 9c 3d 68 eb 58 3d
       -0.020517632 0.0227309 0.076546654 0.052958876
0002d0 84 e9 ca 3d d6 20 20 3d 20 dd 22 bb 53 0a 81 3d
       0.09907821 0.039093815 -0.002485104 0.06300797
0002e0 49 2f 17 3d 8f 4e 8e 3d d4 bd 87 3c e6 fc b1 3d
       0.03691033 0.069485776 0.01657001 0.08690815
0002f0 df 9d b7 3d 19 f1 8a 3d 45 d4 3f bc c4 35 c3 3d
       0.089656584 0.06784267 -0.011708324 0.09531739
000300 79 c9 f4 3b 18 77 f9 bc 5d c2 8b 3c 2f 5f e3 3c
       0.0074703065 -0.030452296 0.017060453 0.027755348
000310 21 91 38 3d b5 12 b0 3d 2f 67 b9 bb dd 7b 5c bc
       0.04506028 0.08597318 -0.0056580524 -0.013457266
000320 32 5d 80 3a 39 4e 19 bc 21 ac dd 3d 17 d4 f6 bc
       0.0009793399 -0.009357029 0.108238466 -0.03013043
000330 fc 7b c8 3d 06 c3 a1 3c 32 b5 11 3d 9a 83 6a bc
       0.09789273 0.019746315 0.035573192 -0.014313603
000340 3b 56 86 3d 46 3b 1e 3c b7 b5 fe bc 7b 97 17 bc
       0.06559416 0.009657687 -0.031092508 -0.009252424
000350 d8 74 17 3d 07 f5 ca 3c eb 2d 9c bc 7e ad c8 3c
       0.036976665 0.024775041 -0.019064864 0.02449679
000360 8f d1 00 3d da b7 5b bd 22 16 55 3d 6f 2d a3 3d
       0.03144985 -0.05364213 0.05202306 0.0796765
000370 87 6b b8 3c 9c ab 89 3c 16 37 2d 3d bf 5a 85 3d
       0.02251221 0.016805463 0.042288862 0.06511449
000380 6a 19 66 3b 03 09 0b 3d 7e ec e8 3c 9d ee 8e bc
       0.0035110363 0.03394414 0.02843308 -0.017447764
000390 d4 ee 1d bd 24 a2 2b 3d 1b 85 90 3d cd ac 02 3d
       -0.038557842 0.041902676 0.07056638 0.031903077
0003a0 98 85 57 3d 68 b9 1e 3c fb a2 b8 3b a5 f3 03 3d
       0.05261764 0.009687759 0.005634663 0.03221478
0003b0 de cd c2 3d 3c 23 fa bb b3 28 20 bc 55 87 4b 3c
       0.09511922 -0.007633595 -0.009775328 0.012422402
0003c0 87 6b 26 3c 63 a4 dd bc de fe 34 bc b6 26 81 bc
       0.010157472 -0.027055925 -0.011047093 -0.01576553
0003d0 48 d0 b4 3d 4f d3 8e bd f3 df e7 bd 62 ff dc 3d
       0.08828789 -0.06973898 -0.11322012 0.10790898
0003e0 ab 23 b9 bd be bd a2 bd cd 58 7b bc 7e a2 e5 bc
       -0.09040006 -0.07946347 -0.015340996 -0.028031584
0003f0 38 45 8f 3c 26 eb c4 bd 58 92 21 bd e5 bc b8 bc
       0.01748906 -0.096151635 -0.039446205 -0.02255101

encoder.encoder.0.0.bias f4 [36]
000000 47 eb a7 bd 2e 09 75 3d 74 9a 17 bd 92 1b a4 3c
       -0.081991725 0.059823208 -0.037012532 0.020032678
000010 4b 16 26 bd f9 ad 58 3d 73 2e 89 3d bd 84 6a 3d
       -0.040548604 0.05290029 0.066983126 0.057255495
000020 45 b1 65 3d 5b 61 dc 3c dd c3 3a 3c b1 74 b3 3c
       0.05607726 0.026901891 0.0113992365 0.021906229
000030 37 74 1b 3c ab 4f 8a bd 97 56 50 bd ca b5 77 bd
       0.009488157 -0.06753477 -0.05086383 -0.060476102
000040 20 d1 36 bd 37 fa 17 3d 09 26 6b 3c 87 a0 66 bd
       -0.04463303 0.037103858 0.01435233 -0.056305435
000050 41 cc ea bc b5 8d 26 3d eb 87 d9 3b 69 b9 52 bc
       -0.028661849 0.040662486 0.006638517 -0.012861588
000060 b9 17 e5 3b c5 1b 70 bd e1 fb 4c bc 11 bf 88 bd
       0.0069913534 -0.058620233 -0.0125112245 -0.06677068
000070 8e 42 fc 3c 9a 55 0e ba 9a 95 34 bd ec e9 da bd
       0.030793454 -0.0005429626 -0.044087984 -0.10689148
000080 6a 13 68 bd af 08 0f bd 69 cf b4 ba c8 09 4b 3c
       -0.05665914 -0.03492039 -0.0013794723 0.012392469

encoder.encoder.0.1.weight f4 [36]
000000 7b 2b 1e 3f 21 93 d5 3e c9 c9 37 3f 53 4e 63 3f
       0.61785096 0.41713813 0.71792275 0.8879139
000010 97 61 37 3f 72 fa 09 3f 1d 2c 21 3f 8c 95 60 3f
       0.71633285 0.53897774 0.62957937 0.8772819
000020 7f a3 71 3f e7 8d 27 3f 15 87 40 3f 66 aa 7f 3f
       0.943901 0.654509 0.7520612 0.9986938
000030 e5 13 80 3f db 6e 7b 3f d4 23 81 3f ab e2 1d 3f
       1.0006071 0.9821603 1.0089059 0.6167399
000040 e8 42 10 3f 7e 08 5e 3f 01 01 80 3f d4 da 80 3f
       0.5635209 0.8673171 1.0000306 1.0066781
000050 4d 22 d9 3e f8 22 4a 3f d3 2c 48 3f 23 a6 54 3f
       0.42408982 0.7895961 0.78193396 0.83066005
000060 91 b0 06 3f da 67 7e 3f ac d2 03 3f 6f 4c 67 3f
       0.5261317 0.99377215 0.51493335 0.90351003
000070 5b 34 60 3f f9 5b 6b 3f 53 55 55 3f 21 34 77 3f
       0.8757989 0.91937214 0.8333332 0.9656392
000080 c3 51 7f 3f b0 d9 24 3f 20 16 7a 3f c6 a9 58 3f
       0.99734133 0.64394665 0.9769001 0.84634054

encoder.encoder.0.1.bias f4 [36]
000000 d9 47 22 bd 48 fb 22 3c 15 63 1b bc 6d 88 7e bc
       -0.0396193 0.009947605 -0.009484072 -0.015535456
000010 5d cc bf bb 5a 71 16 bc 86 62 b6 bb fc 16 3d bc
       -0.0058532194 -0.009182299 -0.005565944 -0.011541124
000020 72 77 fa bb 13 58 19 bd df 56 3a bc 23 19 e6 bc
       -0.0076436335 -0.03743751 -0.011373251 -0.028088158
000030 c2 9e 00 bd c3 0a 33 bc c9 6f c5 bc e0 25 27 bc
       -0.031401403 -0.010927859 -0.024101155 -0.010201901
000040 7b 50 61 3b e9 f6 d7 bc e2 24 4b bd 26 1b 6b bd
       0.0034380245 -0.026362853 -0.04959572 -0.057398938
000050 2c 58 f2 3b 4e 49 0e bb 59 84 54 bc f2 e0 b3 bc
       0.007395765 -0.0021711173 -0.012971007 -0.021957848
000060 d0 4c 53 bc 85 4f c4 bc a8 5a 38 bc 4b 7d 04 bc
       -0.0128967315 -0.0239637 -0.011252083 -0.008086513
000070 27 fa 1d bd e1 95 aa bc 3b 53 ae bc d4 66 90 bd
       -0.038568642 -0.020823421 -0.021279922 -0.07050863
000080 18 ff a6 bc c9 65 b4 bc f4 64 a3 bc 6f f4 bb bb
       -0.02038531 -0.022021191 -0.0199456 -0.005735926

encoder.encoder.0.1.running_mean f4 [36]
000000 78 76 06 bf 0f d2 95 3e 75 01 95 be 73 2a 51 bf
       -0.5252452 0.29261824 -0.29102674 -0.817054
000010 a8 71 0c bf e4 54 04 3e b2 0e 15 3e 11 e2 1d 3e
       -0.54860926 0.12923008 0.14556387 0.15418269
000020 02 1e 6a bf 00 63 2a bf b7 b6 4a bf 53 e9 bb be
       -0.9145204 -0.6655731 -0.7918505 -0.3670145
000030 0b 08 20 bf cf 33 29 3f 52 f4 01 be 04 d3 08 bf
       -0.6251227 0.6609468 -0.12690857 -0.53446984
000040 80 ef 97 3f ec 34 81 be f5 59 15 bf 03 4b be be
       1.1869965 -0.2523569 -0.5834039 -0.37166604
000050 82 71 ca 3e ff 1c 26 bf 4f 8e b1 3c bf 5f 25 3e
       0.39539725 -0.64887995 0.021674303 0.16149805
000060 ba 6b 9f 3e ed 9c df bd 0b d5 ba be af 1f 88 3f
       0.31136876 -0.10918603 -0.36490664 1.0634669
000070 49 cb b5 be a4 b7 32 bf 52 fe 6b 3f 55 3c 25 bf
       -0.35506657 -0.69811463 0.92184937 -0.64545184
000080 cc 49 13 3f 1f ae 34 bf b9 e1 4a 3f d1 cd 1f bf
       0.5753448 -0.7057819 0.79250675 -0.62423426

encoder.encoder.0.1.running_var f4 [36]
000000 3d b5 a7 3a 50 3f 41 3a f8 25 b9 3a a1 10 9a 3a
       0.0012795102 0.00073718 0.0014125695 0.0011754223
000010 df 63 b2 3a 15 31 30 3a ce b0 db 3a 05 15 9e 3a
       0.0013610086 0.0006721181 0.0016761066 0.0012060708
000020 e6 80 ed 3a a9 b7 c0 3a dc 5b 06 3b fe da df 3a
       0.001812008 0.0014703172 0.002050153 0.0017078815
000030 57 4a 9a 3a 88 03 90 3a b9 78 91 3a 6e 2a 28 3a
       0.0011771423 0.001098738 0.00110986 0.0006415014
000040 f7 5c f1 3a 7a be 96 3a 25 fa cd 3a 4c 4c 0e 3b
       0.0018414547 0.0011500858 0.0015714808 0.0021712957
000050 fb a0 12 3b 08 e3 0a 3b cc 58 14 3a 72 1d a9 3a
       0.0022373784 0.002119245 0.0005658984 0.0012902452
000060 3f 21 4c 3a 93 0d 17 3a 76 f2 88 3a 57 77 f6 3a
       0.00077869365 0.00057622156 0.0010448236 0.0018803877
000070 14 f4 3a 3a 85 47 03 3b 2b 41 0d 3b 6d d5 d1 3a
       0.00071317074 0.0020031643 0.0021553736 0.001600904
000080 b8 5d a9 3a 1d 8d af 3a a4 d8 9b 3a 20 4f 9b 3a
       0.0012921607 0.0013393495 0.0011890125 0.0011849143

encoder.encoder.1.backbone.0.0.weight f4 [36, 36, 3]
000000 0e bf 88 3b ee 5b 8b 3d b8 c7 4e bd 15 64 bb bc
       0.004173166 0.068046436 -0.050483435 -0.022874871
000010 f6 b1 0b bd 26 71 88 bc 64 d0 8f bd 1e 8b b9 bb
       -0.034105264 -0.016655516 -0.07022169 -0.005662336
000020 b9 0d c4 bd 12 e0 6a 3c 83 5f 03 3d cc 4e c1 bc
       -0.0957293 0.014335649 0.03207351 -0.023597144
000030 77 7a df bd 3f d8 db bd 93 68 f8 ba 62 e4 c1 bd
       -0.1091203 -0.10734605 -0.0018952064 -0.09467389
000040 2b 41 5a bd fe 62 3a 3d a1 e6 0b 3c 08 58 0b 3d
       -0.053284805 0.045504563 0.008538873 0.0340195
000050 99 9a af bd 9d 54 b6 bd fe 1b b3 bd 51 1d 3e 3d
       -0.08574409 -0.089028575 -0.087455735 0.046414677
000060 2c d3 18 bd 2e 33 ed 3b 2a e8 01 3c 78 1a 6b 3d
       -0.037310764 0.007238767 0.007928887 0.05739829
000070 d4 b5 b3 bd 28 60 64 bd fd 3c bf bb 24 c8 4f bd
       -0.08774915 -0.055755764 -0.005836128 -0.05072798
000080 62 dc 5b 3d d5 38 68 bd 91 61 24 bc 81 bd 8f bc
       0.05367697 -0.056694824 -0.010033027 -0.017546417
000090 7f 0a d4 ba 52 f0 60 3a 7a 7f 39 bd a3 e4 83 bd
       -0.0016177444 0.00085807324 -0.045287587 -0.06440093
0000a0 70 b8 e8 3c ba 9a 77 3d cc 41 01 3d 26 a3 cd ba
       0.02840826 0.060450293 0.03155689 -0.0015688881
0000b0 08 39 de bd 5f 3e 3a 3d e7 37 ef bc 3a d1 0b 3c
       -0.108507216 0.045469638 -0.029201461 0.00853377
0000c0 b2 dd 16 bc 10 26 dc 3d e3 5b a0 bc 5d a7 61 bc
       -0.00920813 0.10749447 -0.019575065 -0.013772813
0000d0 5f 93 af bb 89 2b 77 3d 93 ac 37 3d bc 8f 04 bb
       -0.005358144 0.060344253 0.044842314 -0.0020227274
0000e0 6f c2 95 3b c5 63 a0 3d 44 ca 56 bd 53 aa ec bc
       0.0045702974 0.078315295 -0.05243899 -0.02888981
0000f0 a7 45 b6 bd ec 71 87 3c dc 57 97 3d 93 d0 2f 3d
       -0.08900004 0.016533814 0.07389805 0.04292352
000100 ad df 4b 3d 96 b4 a4 bd 62 9d a5 bd f7 07 3a 3d
       0.04977386 -0.080422565 -0.08086659 0.045417752
000110 b8 1a 89 3d cb 13 86 bd 05 e0 c5 3d 67 a1 9d bd
       0.06694549 -0.06546744 0.09661869 -0.07696801
000120 e5 4d 4f 3d dc b7 4c bc c4 6c 14 3d 91 5c 38 3d
       0.050611395 -0.012495007 0.03623654 0.045010153
000130 a9 ca 41 3c 8d d2 a1 bc 8f ea bc bc e0 0d 41 3d
       0.011828103 -0.019753719 -0.023061065 0.047132373
000140 e9 d2 0b bd 49 11 4d bd 57 f8 92 bd b5 c2 e5 3d
       -0.034136686 -0.050065313 -0.07176273 0.11218778
000150 25 41 d2 bc bc 5c 2a bc 82 de a5 bd a9 49 fc 3c
       -0.025665829 -0.010398086 -0.080990806 0.030796843
000160 e3 90 97 bd aa c8 92 3b ba 95 4b 3d b8 1f a0 3a
       -0.07400682 0.0044794874 0.049703337 0.0012216484
000170 df 5f 20 3d f3 18 5c 3c b1 46 32 bd 0c c6 83 3d
       0.03915393 0.013433683 -0.043524448 0.06434259
000180 b7 ee a5 3d 18 21 60 bd e6 ae a1 3d 7e fa 57 3d
       0.08102172 -0.05471906 0.07894687 0.052729122
000190 e2 02 72 bd de 0e ca bd da 67 de bb 95 4d ba 3d
       -0.05908478 -0.09866117 -0.0067872824 0.09096829
0001a0 01 d3 86 3b 21 fa be bd 38 cd 85 3d c9 ba 9e bd
       0.004114509 -0.09325052 0.06533283 -0.0775047
0001b0 e9 64 ac 3d f6 13 19 bd d9 5a e0 3b c2 fd 1c 3d
       0.084176846 -0.03737255 0.0068467674 0.03832794
0001c0 ac 5e 70 bd 77 60 9c bd 62 0b 7c bd 4d d1 d7 3c
       -0.058684036 -0.07635587 -0.061534293 0.02634492
0001d0 ed b1 ef 3c 06 9d 23 3d 31 13 0b bd bd 6c 67 bd
       0.029259646 0.03994467 -0.03395385 -0.056500185
0001e0 bb ef 5d 3d 56 6c 4b 3b 5b e0 ad bc 17 59 97 3d
       0.054183703 0.0031039915 -0.021225145 0.073900394
0001f0 cb 5f a8 bd e2 da da bc bc 53 15 bb b7 59 de 3d
       -0.08221396 -0.0267157 -0.0022785505 0.108569555
000200 bb 45 4d bd 7a 55 4f bd ff b6 19 3d 2a 58 9a bd
       -0.05011533 -0.050618626 0.037528034 -0.07536347
000210 50 d0 84 3d 4d 46 51 bc 83 d1 13 bd 4c f2 8e bc
       0.06485045 -0.012773109 -0.036088478 -0.01744952
000220 58 23 a1 3d d8 2f 02 be ed 2a 67 3d 06 22 81 3d
       0.078680694 -0.12713563 0.05643742 0.063053176
000230 ab bc ff 3c 38 3b 0d 3c 53 a9 6f bd 82 30 c2 3d
       0.031217894 0.008620076 -0.05851109 0.094819084
000240 2b db 3a 3d 5b 90 37 3d 90 4e 9c bc 0d d0 69 3d
       0.04561917 0.044815402 -0.01908043 0.05708318
000250 37 6a 50 3d bd 91 63 bd 46 d5 79 bc 91 a1 b2 3d
       0.050882544 -0.05555891 -0.015248602 0.087222226
000260 2b fa 48 3d 41 df d6 3d 08 35 6f bd f7 08 4b bc
       0.049066704 0.10491801 -0.058400184 -0.012392274
000270 21 7e 0b bd db f7 5c 3d 74 c4 67 3c 13 ad cb 3d
       -0.034055833 0.05394731 0.014145959 0.09945121
000280 62 bf 90 3d a3 21 3b 3d 2e 91 c5 bc 51 79 c0 bb
       0.070677534 0.045686375 -0.024117079 -0.005873837
000290 6c ff b0 3d 60 ff b3 bc de 51 9f 3c 5e 62 ae 3d
       0.08642468 -0.021972358 0.019448217 0.08514856
0002a0 9d 5a 98 bd 68 6e d2 bd 77 d6 22 bd 98 9f a7 bd
       -0.07439158 -0.102749646 -0.03975531 -0.08184737
0002b0 e2 eb 8b 3d 0f 0c 4f bc 13 b4 75 3d c9 e7 cc 3d
       0.068321005 -0.012637152 0.059986185 0.10005147
0002c0 69 1d 83 bd 7f b5 5f bd ff cc a4 3a 4b 14 0b 3d
       -0.06402094 -0.054616448 0.0012573301 0.0339549
0002d0 d2 a5 d1 3d ce 33 32 3d 6a 87 bc 3c a2 1d 5f bb
       0.10236706 0.043506436 0.02301379 -0.0034044762
0002e0 fd c3 51 bd e6 4f a4 bd 1f e9 c2 3d 04 b5 80 bd
       -0.0512123 -0.08023052 0.095171206 -0.06284526
0002f0 17 4e c8 bc b4 f3 aa bd 96 db c4 bc 3f 8a ad 3d
       -0.024451299 -0.08347264 -0.024030488 0.08473634
000300 d6 9b 77 bd 20 af 5d bc 4d 60 6d bd de b8 b3 bd
       -0.06045135 -0.013530523 -0.057953168 -0.08775495
000310 8f a2 2d bd ab bc 30 3d 48 eb 91 bd cf ef a5 3c
       -0.042391356 0.043148678 -0.071249545 0.020255951
000320 d8 cb de 3d 03 da 28 bb d7 06 f4 bc 22 af c8 bc
       0.10878724 -0.002576471 -0.029788418 -0.024497572
000330 3d fd fb bc b5 e5 a2 bd 1f 04 fc 3c 78 dc 8e 3d
       -0.030760402 -0.079539694 0.030763684 0.06975645
000340 a3 41 a4 3c e4 99 54 3d c3 8b 9d 3d 40 4d 80 bd
       0.02005083 0.051904574 0.07692673 -0.06264734
000350 9f 61 1c bd 8c d3 60 bd f9 23 87 3d 6f f6 5e 3d
       -0.038179036 -0.054889247 0.06598658 0.054434236
000360 34 66 e5 3d 43 45 8d 3d 8b cd 41 bc f4 d4 ce bc
       0.11201134 0.06897976 -0.01182879 -0.025248028
000370 bc f9 09 bc e6 e2 3b 3d b2 9f c2 bd b7 15 70 3d
       -0.008421358 0.045870684 -0.09503116 0.05861446
000380 c6 85 84 3d 16 0a ae bc 04 ee 9b 3c 9c 5a a4 bc
       0.06470828 -0.021245044 0.019034393 -0.020062737
000390 f4 67 12 3c 80 48 a6 bc 14 f1 a2 3d c3 03 d2 3d
       0.008935917 -0.020298243 0.07956138 0.10254624
0003a0 0c f5 45 3d e7 2d bf bd b9 06 13 bd 87 bc 04 3c
       0.048329398 -0.09334927 -0.035895083 0.008101589
0003b0 61 1d f1 3d 12 70 bf 3d 64 f9 43 3d e3 57 c1 3d
       0.11773182 0.093475476 0.04784526 0.09440591
0003c0 1e f0 08 3c ff ad 85 bd f0 9e 65 bd 36 9c a3 3d
       0.00835803 -0.06527328 -0.056059778 0.07988779
0003d0 d1 3a c0 3d 6f a8 d7 3d a8 3d ab 3d dc 8d 42 bc
       0.09386218 0.10530173 0.08361369 -0.011874642
0003e0 60 a9 22 bc ef 89 28 bd 37 c3 c7 3a 83 04 8b 3c
       -0.009928077 -0.04114717 0.0015240674 0.016969925
0003f0 24 ea a0 3d 6a 28 c2 3d e0 da 69 39 41 06 7c 3d
       0.07857159 0.094803646 0.00022302149 0.0615294

encoder.encoder.1.backbone.0.0.bias f4 [36]
000000 d0 0a 8d bc 0b 90 1b bc cb e0 68 3c b8 d6 ca 3d
       -0.01721707 -0.009494792 0.014213751 0.099042356
000010 64 68 ce bd 17 82 22 3c 54 67 ca bb ab 90 99 bd
       -0.10078505 0.009918711 -0.0061768685 -0.07498296
000020 a4 80 3d 3c 7c b0 be bc 5f 9e 54 bd 6e ea d6 3c
       0.011566315 -0.023277514 -0.051908847 0.026234832
000030 59 2b 6e 3d 41 43 3d bd 22 f1 ba 3d e4 30 23 bd
       0.05814681 -0.046206716 0.09128024 -0.039841548
000040 df 79 d8 bd 0c d3 3e 3d a7 d4 55 3d 4f 44 56 bc
       -0.1057012 0.04658799 0.052204754 -0.0130778095
000050 cd 4e a2 bd a7 65 86 3d d1 55 f0 3c 55 e0 62 3d
       -0.07925186 0.065623574 0.029337795 0.05538972
000060 17 d8 b3 3d a7 39 f9 bb 43 42 27 3d 7e 71 75 bd
       0.0878145 -0.0076057496 0.040834676 -0.059922688
000070 03 a2 45 bc 77 bd 87 3c 7b 0d 68 bd 79 1b b6 3c
       -0.012062552 0.016569836 -0.05665348 0.022229897
000080 f9 75 b1 bd 0a 3e af bd 04 92 d8 bc 63 27 94 3c
       -0.086650796 -0.08556755 -0.026436813 0.018085187

encoder.encoder.1.backbone.0.1.weight f4 [36]
000000 a8 26 55 3f f0 b4 5c 3f 77 d7 79 3f 84 b4 5b 3f
       0.8326211 0.8621359 0.975944 0.8582232
000010 a4 84 81 3f 03 5e 70 3f d7 81 55 3f 89 1c 79 3f
       1.0118604 0.9389345 0.83401245 0.97309166
000020 93 57 59 3f dc 6a 67 3f 50 6e 6d 3f af 0c 74 3f
       0.8489925 0.9039743 0.9274645 0.95331854
000030 96 cf 7e 3f 05 0b 69 3f 4d b6 7c 3f 7c 4e 69 3f
       0.995355 0.9103244 0.9871567 0.9113538
000040 22 e7 8f 3f 0c be 68 3f e4 0c 84 3f f2 31 6f 3f
       1.1242411 0.9091499 1.0316434 0.93435585
000050 2d e8 46 3f 2c 25 59 3f 92 74 42 3f 9b de 68 3f
       0.7769802 0.84822345 0.7595912 0.9096467
000060 1e 3c 5c 3f b0 59 4b 3f e2 04 66 3f 51 3b 60 3f
       0.8602923 0.7943373 0.898512 0.8759051
000070 13 8b 6b 3f 58 d2 6e 3f fd 0f 67 3f dc 10 67 3f
       0.92009085 0.9328971 0.9025877 0.902601
000080 73 a4 79 3f d7 b9 85 3f c1 f9 6a 3f 78 dd 57 3f
       0.97516555 1.0447339 0.91787344 0.8432231

encoder.encoder.1.backbone.0.1.bias f4 [36]
000000 96 97 d7 bb 0d a9 80 bc d2 ab 58 bd 88 23 1f bc
       -0.0065793497 -0.01570561 -0.052898236 -0.009713061
000010 89 b4 62 bd 0e 01 3e bb 67 bc 14 3c 14 81 e4 bc
       -0.055347953 -0.0028992328 0.009078122 -0.02789358
000020 db 49 34 bd eb e1 9f bb 5a 55 b5 3b ac 6d 15 bd
       -0.044015747 -0.0048792264 0.0055338563 -0.036481544
000030 55 ab fd bb 60 4a 22 bc 82 cd 27 bc 1a 8b d2 bc
       -0.0077413716 -0.009905428 -0.010241868 -0.025701094
000040 91 bf 0e bd fd f9 95 bc 45 48 1d bd a2 c8 3e bd
       -0.03485066 -0.01830768 -0.038399 -0.046578057
000050 41 f0 3e bc 28 a8 ff bb b0 25 d3 bc 45 18 ca bc
       -0.011653961 -0.007802028 -0.025774807 -0.024669776
000060 7f 62 68 bb 95 a4 bf bb f3 bd cd 3b 77 ed 8b bb
       -0.00354591 -0.005848477 0.006278747 -0.0042702514
000070 7b 48 93 3a 2f 48 cf bc 69 c0 0a bd cc 39 d3 ba
       0.0011236811 -0.025302975 -0.033874903 -0.0016115247
000080 9c 3e 39 bc 37 51 81 bd d1 46 0e bc a4 7c b1 bc
       -0.011306431 -0.063143186 -0.008683876 -0.021665879

encoder.encoder.1.backbone.0.1.running_mean f4 [36]
000000 66 bf 8a bd 50 a0 da bd ce fc cc 3c 70 07 9b 3d
       -0.067747876 -0.106751084 0.02502289 0.07569778
000010 2d 5e 5b bd 17 fe d0 3c 88 59 6b bc c3 76 b2 bd
       -0.05355661 0.025511784 -0.014364608 -0.08714058
000020 e4 f0 85 3c a1 0f 4f 3c 04 fd ab bd 4c 36 a0 3d
       0.016350217 0.012638004 -0.08397868 0.07822856
000030 f5 39 ab 3c e8 12 7a 3d 20 7d 05 3e 9c 73 81 3d
       0.02090166 0.061053187 0.13036013 0.06320879
000040 de c6 ba bd 88 c2 9a 3d 03 84 9d 3d ea aa 13 ba
       -0.09119962 0.07556635 0.07691195 -0.0005633073
000050 f2 4b b2 bd 6c b8 20 3d ea f6 50 3d 27 ee af 3d
       -0.08705892 0.03923838 0.051016726 0.08590346
000060 fb d4 b9 3d 07 c0 1c 3d 49 0d 52 3d af d1 0e bd
       0.09073826 0.03826907 0.0512822 -0.03486794
000070 11 27 84 bd e0 c7 60 3d d1 00 6e 3d e2 36 8c 3d
       -0.06452764 0.054878116 0.058106247 0.068464056
000080 0f 65 dc bd 60 bf 4f bd ec a3 01 bd 04 c8 ca 3b
       -0.10761463 -0.05071962 -0.03165047 0.0061883945

encoder.encoder.1.backbone.0.1.running_var f4 [36]
000000 82 60 13 3e 1c 57 bb 3e 59 36 89 3e 2e 14 6e 3e
       0.14392284 0.36589897 0.26799276 0.23249885
000010 d5 40 1b 3f 67 90 c1 3e 57 eb c0 3d 5d 07 e6 3e
       0.606458 0.37805483 0.094198875 0.44927493
000020 fc 53 61 3e ed 87 a0 3e 67 a3 8a 3e 3d 53 a6 3e
       0.22004694 0.31353703 0.2707779 0.3248538
000030 fc 69 9f 3e 95 6e c4 3e 2c 44 42 3e c2 03 a1 3e
       0.31135547 0.38365617 0.18971318 0.3144818
000040 db df 4f 3e 40 a4 ca 3e 77 24 90 3e 15 23 e8 3e
       0.20300238 0.39578438 0.2815282 0.45339265
000050 25 a4 30 3e 09 20 d4 3d 07 3d 96 3e ce 57 05 3f
       0.17250116 0.10357673 0.29343435 0.52087104
000060 73 7c 52 3e 5a a2 a8 3e 4e c3 d4 3e 8f 3d aa 3e
       0.20555286 0.32936364 0.41555256 0.3325009
000070 62 e6 09 3f 1a 24 0f 3f 00 fb f3 3d 44 84 c7 3e
       0.5386716 0.5591446 0.11913109 0.38968098
000080 9e d1 d9 3e 9d 53 67 3e 8d 66 c0 3e c2 37 10 3e
       0.42542738 0.2259049 0.3757824 0.1408377

encoder.encoder.1.backbone.1.0.weight f4 [36, 36, 3]
000000 11 ee d8 3c cf 15 08 bc 8d e4 95 3c 89 3d 4a bd
       0.026480706 -0.008305981 0.018297458 -0.04937509
000010 51 3a 0b ba 82 34 8c 3c 79 80 4c bd bd e6 45 bd
       -0.0005311119 0.017114881 -0.04992721 -0.048315752
000020 ff 78 0f bd 67 4a 9f 3c 08 73 98 bd 55 dd 95 bc
       -0.0350275 0.019444657 -0.074438155 -0.018294016
000030 45 50 ee 3c 2d 5f 3f 3d 80 cf 13 3d df ae 34 3d
       0.02909101 0.046721626 0.03608656 0.044112083
000040 fc 16 2c bd d5 29 38 bc 64 05 c1 3b 04 38 ed 3b
       -0.042014107 -0.011240442 0.005890535 0.0072393436
000050 4d b7 94 bd 01 42 56 3d 3c f7 14 3d 1c 74 a0 3c
       -0.07261524 0.05230904 0.036368594 0.019586615
000060 1b 89 d6 bd c8 a2 e0 bd 50 ad 1a 3d ae 3c 93 3c
       -0.104753695 -0.10968548 0.03776294 0.01797327
000070 54 d6 ed 3d 96 7c 55 bd 43 0b 1d 3b 27 bd d6 bb
       0.116131455 -0.052120768 0.0023963011 -0.0065533104
000080 e3 ca 53 3b a1 7a e1 bd 22 23 39 bd 5a 69 1c 3d
       0.0032316975 -0.11009718 -0.04519952 0.03818641
000090 b1 30 02 be 73 bc 32 bd 57 c2 fc 3c bd 44 e9 3d
       -0.12713887 -0.04363675 0.030854387 0.11390064
0000a0 2b 9f 31 bd d8 c7 d2 3d 0e 12 3b 3d e6 f7 d7 bb
       -0.043364685 0.102920234 0.045671515 -0.006590831
0000b0 4c 47 63 bc 9f b5 30 bc c2 a5 4f 3d 40 cd de bc
       -0.013871979 -0.010785489 0.05069519 -0.02719748
0000c0 f5 2b e7 3c bc e8 ce bc 20 35 d8 bd 60 b6 87 3c
       0.028219203 -0.02525746 -0.10557008 0.016566455
0000d0 1d 2d 6c 3d da 89 27 bb 73 39 a9 bc 54 4b 82 bd
       0.05766021 -0.0025564344 -0.020657277 -0.06362024
0000e0 9c 02 64 bd de 2a 88 3d 78 2d 7a 3d e2 f7 c4 bd
       -0.05566655 0.06648801 0.06107852 -0.096175924
0000f0 cc a8 3d bc 56 31 a4 bd 17 10 82 3d 4e 36 be bb
       -0.011575889 -0.080172226 0.06350725 -0.0058048135
000100 c3 17 c1 3b 01 6c 9a bd 24 0c 01 3d 56 de a9 bd
       0.005892725 -0.07540131 0.03150572 -0.0829436
000110 7d 9f 1d 3d 21 3e 08 be d6 2d 22 3d f6 70 77 bd
       0.038482178 -0.1330495 0.039594494 -0.060410462
000120 14 45 02 bd aa d5 93 3d ba 26 89 3c 98 59 af bc
       -0.03180416 0.072184876 0.0167421 -0.021405026
000130 c7 8a 81 bd c8 5a 14 3c c4 39 bb 3a 85 2a 46 3c
       -0.06325298 0.009054847 0.0014284183 0.012095098
000140 80 30 62 3d df ba 9a bc 2c d3 2a bd a2 60 33 3d
       0.055222034 -0.018887935 -0.041705295 0.043793328
000150 62 55 ad bc ce 43 72 3d a9 d8 0e 3c e7 17 c0 bd
       -0.021158878 0.059146695 0.008718648 -0.09379559
000160 9f f8 ef 3c 8c 3d 40 bd 92 04 bc 3b a2 04 84 bd
       0.029293356 -0.046933696 0.0057378495 -0.06446196
000170 02 03 7b 3c 38 6d 08 bd ac eb a8 3b 38 a7 da 39
       0.015320541 -0.033307284 0.0051550474 0.00041704788
000180 e4 bb 46 bd d8 0b 8c bc 8d 5b f6 bd 63 ae 9d 3c
       -0.04851903 -0.017095491 -0.12029181 0.019248193
000190 d2 19 69 3d 7f 89 a1 bc cf c7 a2 bd 0d 9c 41 3d
       0.05690939 -0.019718884 -0.07948267 0.047267962
0001a0 74 33 f3 bc 11 3e a4 bd ab 6e 22 3d a7 72 d5 bd
       -0.02968762 -0.08019651 0.039656322 -0.10422259
0001b0 11 b5 1d 3b 66 b2 3c 3d 16 05 31 3d 29 77 2e 3c
       0.0024064223 0.04606857 0.04321774 0.010648527
0001c0 9e 63 c3 3c 9c a4 9a bd 45 74 30 bb 7f a2 f5 3c
       0.023851212 -0.07550928 -0.002692477 0.02998471
0001d0 07 2c 87 bd c9 fc 79 bd 6e 60 07 bc 9d aa 0a 3c
       -0.066001944 -0.06103209 -0.008262737 0.008463529
0001e0 75 73 b5 bc 27 83 6a 3d 7e 50 b1 bc 65 9d b4 bd
       -0.02214978 0.057253983 -0.021644827 -0.08819083
0001f0 4e 5f 65 bd 2c f5 cb bb f7 d7 de 3c 6c 26 18 3d
       -0.055999093 -0.006224295 0.02720259 0.037146017
000200 a2 fe 11 3d 4f cb 8f bd 87 cb 2e 3d 86 b4 c4 bc
       0.035643227 -0.070212 0.042674568 -0.024011862
000210 48 97 6c 3d cc 95 a2 bc c3 08 49 bc 1d 3f 92 3d
       0.05776146 -0.01984682 -0.012270155 0.07140944
000220 60 49 25 3d 6a 44 7c bc 85 fc cc 3d 82 34 00 be
       0.04035318 -0.015397171 0.10009102 -0.1252003
000230 5b b0 51 bc 2d d7 bd 3d 6a 58 85 3c c3 b0 e1 3d
       -0.012798394 0.09269557 0.01627751 0.11020043
000240 03 e9 91 bd 69 c4 3a 3d d4 19 8a 3d 5b f3 0e bc
       -0.071245216 0.045597468 0.067432076 -0.008725013
000250 c9 20 90 3d eb 94 a1 bd 24 04 65 3d 70 ac 2d 3d
       0.07037503 -0.07889732 0.055912152 0.042400777
000260 b4 dd 9a bd 9f a6 7a bd ed 03 5f 3d 65 90 a2 3d
       -0.07561818 -0.06119406 0.054447103 0.07937697
000270 b6 cc 4e bd b1 3b 1a bd 8a 7f 45 bd 4a 3a c0 bc
       -0.050488196 -0.037654582 -0.048217334 -0.023465294
000280 ec 15 a7 bd e7 f4 d8 3c 30 03 a9 3d f0 a9 b8 3d
       -0.08158478 0.026483966 0.08252561 0.09016788
000290 28 78 7c 3d 65 0f 19 3d da ed 66 3d 5d b2 75 3d
       0.061638027 0.037368197 0.056379177 0.059984554
0002a0 08 95 51 3d f3 0d 92 3b d8 6a e7 bc da ae 29 3d
       0.051167518 0.0044572293 -0.02824919 0.041426517
0002b0 ef 85 76 bd 1e 9f 27 3c de a1 12 bd c6 3b d1 bd
       -0.060186323 0.010230808 -0.0357989 -0.10216479
0002c0 a7 7e 8b 3d 27 b5 19 3d 0f 1c 98 3c 92 64 74 bd
       0.068112664 0.037526276 0.018568067 -0.059666224
0002d0 86 ea 00 3d e9 3d 55 bd 7d c9 42 bd df 6a c5 3c
       0.03147366 -0.052060995 -0.047555435 0.024098812
0002e0 4e 46 85 bc 46 55 36 3d d8 0e 66 3c 71 39 86 bd
       -0.016268875 0.044514917 0.014041625 -0.06553925
0002f0 77 86 b1 3d 05 a3 93 bc 34 53 60 3a 1f 5a 81 3d
       0.08668225 -0.01802207 0.000855732 0.06316017
000300 3f af b2 3b f7 af 8a 3d 09 d4 5e bd f2 0e 33 bd
       0.00545302 0.06771844 -0.05440143 -0.043715425
000310 a1 2c e9 3c e9 ce cf 3d 6e c5 01 bd 73 68 46 3d
       0.028463664 0.10146887 -0.031682424 0.048439454
000320 21 38 8f bd e8 65 1b bb 02 92 98 bc 6c 7f 53 bd
       -0.069931276 -0.0023711864 -0.01862431 -0.05163519
000330 1b d1 12 3d f0 f9 ff 3c 37 c2 e1 bc ed 17 ac 3c
       0.03584395 0.03124711 -0.02755843 0.021007502
000340 47 9d 9b 3d 2f 5f 37 ba 33 30 30 bd 1e 69 77 3d
       0.07598358 -0.00069950795 -0.043014716 0.060402982
000350 e0 96 86 bd fb 6b 89 bb 4c af b2 3c 3c 09 2f 3c
       -0.06571746 -0.0041937805 0.021812104 0.010683354
000360 0d 86 1a 3d 21 b7 f2 bb 81 f9 3c bd b5 c6 d7 bc
       0.037725497 -0.0074070846 -0.046136383 -0.026339868
000370 4f 4e ff bc 71 5f 33 3d b3 c9 cf 3d a2 22 0c 3e
       -0.03116527 0.043792192 0.10145893 0.13685086
000380 03 7e c7 3d 9c a9 b1 bc d3 57 b4 3c 2a 25 d8 3c
       0.09740832 -0.021687321 0.022014534 0.026384909
000390 09 f0 85 3d 6d 60 c5 3d cd fe 12 3e 75 4c cf bd
       0.06539924 0.096375324 0.14355011 -0.10122005
0003a0 08 4b 11 be 66 a6 aa bc b5 11 24 3d 9e 55 9f bc
       -0.14188778 -0.020831298 0.04005595 -0.019450005
0003b0 4f 42 d9 3c d3 1a 01 bd 9b 6b 35 be 09 8a 01 be
       0.026520876 -0.031519722 -0.1771683 -0.12650312
0003c0 40 43 c5 3d 8c a1 a6 bd 21 dc 61 bd 6d 31 a0 3c
       0.096319675 -0.08136281 -0.055141572 0.019554818
0003d0 a0 fb ce 3d 9d 77 d7 ba 3d f2 1f 3d 3f 39 ad 3d
       0.101065874 -0.0016438846 0.039049376 0.084581845
0003e0 82 ea 5f 3d 51 81 25 3a 59 4d a9 bc 4a 55 50 3d
       0.054667003 0.000631352 -0.020666765 0.050862588
0003f0 c6 39 cd bd d7 3f 91 3d 04 d8 2a 3d 00 fa 4a 3d
       -0.10020785 0.070922546 0.041709915 0.049554825

encoder.encoder.1.backbone.1.0.bias f4 [36]
000000 ff fd b7 3d 82 2b 5a 3d a0 41 c3 3b f7 12 2d bd
       0.08983993 0.05326415 0.005958751 -0.042254414
000010 3d b0 c5 3d 18 7f e5 bd e9 53 c3 3c 75 38 3e 3d
       0.096527554 -0.11205882 0.023843722 0.04644056
000020 07 08 9a 3b f6 ec 16 3d 4e cb 91 3d 14 e7 96 3d
       0.004700664 0.036847077 0.071188554 0.073682934
000030 d5 68 4a 3d 62 d5 d7 3b bc b6 fb 3b 2a 6e 8e 3c
       0.049416382 0.0065867165 0.0076816957 0.017386515
000040 39 1a d5 bb 5d ad c2 3d 44 8f 0d bd 2c 47 a2 bd
       -0.00650337 0.09505723 -0.034560457 -0.07923731
000050 69 da cc bc 3c 63 22 3d d5 3e 93 3d f7 fe 76 bd
       -0.02500649 0.03964542 0.07189719 -0.060301747
000060 a6 7f b9 bd 85 61 af 3b 96 b6 cd bd d4 35 47 3d
       -0.0905755 0.0053522014 -0.10044591 0.04863532
000070 14 eb c5 3d 77 05 59 bd 65 e5 e4 bd d0 e4 79 bd
       0.09663978 -0.052983727 -0.11176566 -0.06100923
000080 6b 1d 99 3d 32 ae 5d 3d db df 2a bd ec fb 23 bd
       0.07476314 0.054121204 -0.04171739 -0.040035173

encoder.encoder.1.backbone.1.1.weight f4 [36]
000000 cb 59 62 3f e8 68 73 3f 77 fa 81 3f be b9 58 3f
       0.88418263 0.9508195 1.0154561 0.8465842
000010 69 b4 67 3f b8 e0 92 3f af 7c 54 3f b9 93 6a 3f
       0.9050966 1.1474829 0.8300275 0.91631657
000020 28 e5 60 3f de 9a 64 3f 91 29 60 3f d5 8d 78 3f
       0.87849665 0.8929881 0.87563425 0.9709142
000030 fe b4 74 3f 54 c5 7a 3f 63 92 79 3f 1f a3 54 3f
       0.9558867 0.9795735 0.97488993 0.83061403
000040 72 af 5f 3f 8e b0 74 3f 53 d0 74 3f 73 eb 6f 3f
       0.87377083 0.955819 0.9563038 0.9371864
000050 47 16 76 3f b4 6c 5a 3f 2c 05 6a 3f cc d5 7f 3f
       0.9612774 0.8532212 0.9141414 0.99935603
000060 64 81 84 3f 2b b7 78 3f d1 26 71 3f 93 5d 7b 3f
       1.0351987 0.9715449 0.94199854 0.9818966
000070 bd d9 64 3f d7 c4 76 3f f0 48 82 3f 53 99 70 3f
       0.8939474 0.96394104 1.0178509 0.93983954
000080 26 fc 65 3f cd 91 7e 3f bd a3 74 3f 68 d5 72 3f
       0.89837873 0.99441224 0.95562345 0.9485688

encoder.encoder.1.backbone.1.1.bias f4 [36]
000000 35 5b cd 3c f9 58 6c bc c3 b1 75 bd ab 93 42 bc
       0.025067905 -0.01442551 -0.05998398 -0.011876027
000010 09 41 fe 3c 1f 53 aa bd 18 67 eb 3b c0 ce 8b bc
       0.03103687 -0.08316635 0.0071839206 -0.01706636
000020 2f 9d 72 3c c3 60 22 bc 36 3a 04 bc 8e e5 19 3c
       0.014807983 -0.009910765 -0.008070519 0.009393109
000030 a0 09 20 3c 98 b4 c4 3c 79 df aa 3c 83 b9 b3 bc
       0.00976792 0.024011895 0.020858513 -0.021939045
000040 18 16 ea bc 8f 7a a6 3c 6d 73 ac bc 4c 22 80 ba
       -0.028574988 0.020322112 -0.021051133 -0.0009775846
000050 f7 61 a6 3c 79 56 8d b9 5b 9a ef 3c 83 a0 2b bd
       0.020310385 -0.00026958043 0.029248407 -0.041901123
000060 74 cd 8e bd 60 84 5c bb 9d 3c 6a bd 61 a0 42 bd
       -0.06972781 -0.0033648238 -0.05718671 -0.04751623
000070 a2 16 dd 3c 3a 9d be bc ca 4d 4d bd c0 0c 74 3c
       0.026988331 -0.02326833 -0.050123014 0.014895618
000080 2d 24 51 3c 10 0a ae 3c 96 f6 51 bd 0f f3 1e 3c
       0.012764973 0.021245033 -0.051260553 0.009701504

encoder.encoder.1.backbone.1.1.running_mean f4 [36]
000000 94 e0 04 3d 7d e2 a8 3d 4a 63 66 3d 96 eb 83 bd
       0.032440737 0.08246324 0.056247033 -0.06441419
000010 dd 2c f9 3c 17 e9 4f 3d c7 1d 71 3c 29 93 32 bc
       0.0304169 0.0507594 0.014716572 -0.0108993435
000020 e2 e8 1a bd 7c dd 3a 3d d6 ef cd 3d b3 1e 8a 3d
       -0.03781975 0.04562138 0.10055511 0.06744137
000030 41 c2 62 3b 73 70 93 bc 0a 86 11 3d 6f 44 48 3d
       0.0034600648 -0.017997956 0.03552822 0.04889339
000040 de 67 56 3d d9 7c eb 3d 04 db 12 bd ba 60 40 bd
       0.05234515 0.11498422 -0.0358534 -0.046967246
000050 02 8b 2f bd e7 08 de 3d aa d2 a0 3d 26 9b f2 bc
       -0.042857178 0.10841542 0.07852681 -0.029614996
000060 25 e2 a8 bc ed 70 00 3d 00 d3 d9 b8 72 b3 22 3d
       -0.020615647 0.031357694 -0.00010386668 0.039721914
000070 86 94 95 3d 2f 83 08 3c 2b 73 04 be 69 60 f6 bd
       0.07303719 0.008332058 -0.12934558 -0.120301075
000080 8a 0e 4e 3d 6c ba 62 b9 a3 61 48 bc 8b b2 8e bd
       0.050306834 -0.00021622487 -0.01223031 -0.06967648

encoder.encoder.1.backbone.1.1.running_var f4 [36]
000000 fb e7 fb 3e 51 5e b3 3e 38 8c 7a 3e 59 d0 d5 3d
       0.49200425 0.35032895 0.24467552 0.1044013
000010 7f ae 28 3f d9 15 d1 3e ab 38 62 3e 8b d5 5a 3e
       0.6589126 0.4083698 0.2209193 0.21370523
000020 bd 1c bc 3e 2f 1c 05 3f 3b 56 51 3e b4 03 ba 3e
       0.36740676 0.5199613 0.2044305 0.3633095
000030 76 13 92 3e c8 47 f7 3e 9e de 01 3f 52 df 52 3e
       0.28530473 0.48296952 0.5073031 0.20593002
000040 ec b2 67 3e 55 61 a7 3e b0 93 96 3e 54 40 90 3e
       0.22626847 0.32691446 0.29409552 0.28174078
000050 50 a7 bb 3e ec 6f ef 3e 11 7f 80 3e 9e 1e ee 3d
       0.36651087 0.46765077 0.25096944 0.116269335
000060 b7 0c 6f 3e 56 6d bb 3e 19 9f 1d 3f 99 d9 fa 3e
       0.23344694 0.36606854 0.6157089 0.4899414
000070 ab 02 fc 3e ed c9 33 3f 38 56 e4 3e c6 8c 05 3f
       0.49220785 0.7022999 0.4459703 0.5216793
000080 34 5f 0b 3f cc 6a 17 3f aa d1 ca 3d 78 48 bc 3e
       0.54442143 0.59147334 0.099032715 0.3677404

encoder.encoder.1.downsampling.weight f4 [36, 36, 7]
000000 c6 a9 ae 3a ae 79 83 3c 49 af 5d bc 88 a4 bc 3c
       0.0013325743 0.016049232 -0.013530561 0.023027673
000010 c8 bf 80 3d 3e 19 c1 bb a3 79 0d 3d 8d e2 ce bc
       0.06286579 -0.0058929017 0.03453983 -0.025254512
000020 e4 ac bb bc 1e 7d 88 3a 1c a9 45 3d 95 04 18 3d
       -0.02290959 0.0010413264 0.04825698 0.037113745
000030 63 2c d0 3c 77 da f2 bc 36 97 e9 bb 6e 9b 27 3d
       0.02541179 -0.029645188 -0.0071286215 0.040919714
000040 8b 47 54 bd 49 c9 31 3d 63 57 13 3c 1f e0 1e bd
       -0.05182604 0.04340485 0.008993003 -0.038787957
000050 88 88 8f 3c 89 19 4e bb f6 9a 33 3d 64 f5 14 3b
       0.017521158 -0.0031448326 0.043848954 0.0022729272
000060 25 a6 df 3c 49 06 81 bd 1d e6 f1 3b 37 32 c8 bc
       0.027300904 -0.06300027 0.007382168 -0.024438007
000070 17 56 62 bd 70 d7 8a bd b1 1b 60 3c ad ca cf bc
       -0.055257883 -0.06779373 0.013678477 -0.025365198
000080 9e d8 6f 3d 76 2a 06 3c 98 5b 95 bc f9 9b eb 3c
       0.05855619 0.008188834 -0.018232152 0.028760897
000090 eb fc 81 3a 3a ab 03 bc bb 49 25 bd 8c 65 34 bd
       0.0009917294 -0.008036429 -0.040353518 -0.044042155
0000a0 a8 dc 10 3c e4 60 53 bb be 13 9b 3c a9 51 3e 3c
       0.008841671 -0.0032253796 0.018930312 0.011616149
0000b0 81 ee bc bc ef 59 2d 3c 6d 2a 61 bc 00 5b f5 bb
       -0.023062946 0.010580524 -0.013743025 -0.0074876547
0000c0 f7 66 68 3c d0 da fc bc ae 7b cd 3c b7 19 e3 3c
       0.014184705 -0.030866057 0.02508339 0.027722223
0000d0 54 78 f1 bc 75 fc 81 bb af 20 2d bd 71 34 e7 bc
       -0.029476322 -0.003966863 -0.042267498 -0.028223248
0000e0 d6 3b 49 3c ff bb b1 bb fc d7 46 bd 5e c7 6b bd
       0.012282332 -0.005424022 -0.048545823 -0.05756318
0000f0 58 85 ae bd a8 dc 49 bc dd 2d 95 bd f5 e2 16 bc
       -0.08521527 -0.012320675 -0.07284138 -0.009209384
000100 ab 76 0a bd cf 67 c2 3a de 45 20 bd c3 ac e2 ba
       -0.033804577 0.0014831963 -0.03912913 -0.0017293919
000110 ef 8f ce 3b 04 c5 cb 3c d7 a8 62 3c 88 b9 4a 3b
       0.0063037793 0.024874218 0.0138342 0.003093334
000120 f9 4c 62 bd 9f bc 3d bd 40 17 2f 3c 73 52 64 3c
       -0.055249188 -0.04632246 0.010686696 0.013935673
000130 85 92 22 bc 4d 94 f8 3b ba 5d 77 3d 46 00 d5 3c
       -0.009922628 0.007586038 0.06039212 0.026001107
000140 f6 e8 fa bb 62 87 8b bd be 20 cc 3b ef de 23 bd
       -0.0076571656 -0.068129316 0.006229489 -0.040007528
000150 49 e6 e5 3b 26 27 82 bd e0 6b 99 3c 35 3b e7 3c
       0.0070159775 -0.06355123 0.018728197 0.028226474
000160 14 9c a1 bc 54 8d c9 bc 79 54 bb 3c f0 ba 99 39
       -0.019727744 -0.024603523 0.022867428 0.00029321713
000170 55 cb 20 bc 7a bb 79 bd 2a 7b 33 3d e0 3b 26 3d
       -0.009814103 -0.060969807 0.04381863 0.040584445
000180 88 1e 6c 3b 6f ef 1d 3b a8 a0 64 bd 3e dc 97 3c
       0.003602894 0.0024099012 -0.055817276 0.018537637
000190 2d f2 51 bc 81 4c 0a 3d 67 0c 3b 3d 32 47 f2 3b
       -0.012814087 0.033764366 0.045666125 0.007393741
0001a0 60 24 57 3b 21 8a 10 3c f0 1e 6b 3c 73 5b 83 3c
       0.0032828078 0.008821995 0.014350638 0.016034817
0001b0 6d 58 40 3d 5f d5 8c 3d 9a 38 ac bc 98 3c 42 3c
       0.04695933 0.06876635 -0.021023083 0.011855267
0001c0 75 81 a9 bb 94 7a cf bc 06 d6 08 3c 67 11 79 3d
       -0.005172903 -0.025327004 0.008351808 0.06080761
0001d0 c1 f7 00 bd 28 3c 63 3c bb 89 02 bc 57 2a 81 b9
       -0.031486277 0.013869323 -0.007967408 -0.00024636343
0001e0 8f 1a 3b 3d 20 7f 31 bd 2f 4d a7 ba 88 b6 95 bc
       0.045679625 -0.043334126 -0.0012764091 -0.018275514
0001f0 e5 77 51 bb f0 80 7a 3c 30 f2 35 bd 48 4e 3a bd
       -0.0031962332 0.01528953 -0.04442042 -0.04548481
000200 b4 1f 6b bc c5 d1 60 3d b2 61 a0 3c 36 97 86 3c
       -0.01435082 0.05488755 0.019577835 0.016429525
000210 1e 98 16 bc 29 b5 88 bb f2 2e f3 bc 7a 8f 10 bc
       -0.009191541 -0.0041719866 -0.029685471 -0.00882327
000220 2f 34 3b 3d 89 19 6d 3d ed 3a 14 bd 67 94 64 3b
       0.045704063 0.05788568 -0.03618901 0.0034878494
000230 f0 62 25 bd 0d d9 8d bd 85 30 e9 bc f4 7f 9e 3d
       -0.040377557 -0.06926165 -0.028465519 0.07739249
000240 05 d6 d1 3d 53 b6 4e 3a ec 28 44 3c 0f 48 bf 3c
       0.10245899 0.0007885445 0.011972647 0.02334979
000250 15 13 b9 3b 5d 9e 12 bd cf 31 d0 3c ea 2d b3 3c
       0.0056480267 -0.03579556 0.025414376 0.02187248
000260 b6 29 90 bc ac 1b 4a bc 93 08 06 3d 62 15 d6 bc
       -0.017598014 -0.012335699 0.03272302 -0.026133243
000270 6c 76 40 3c a5 8a bb bc 0e d9 61 bc 05 3a 1e 3d
       0.011746984 -0.02289326 -0.01378466 0.03862955
000280 4e bd f4 bb 62 3d 2d 3d 50 01 3a 3d 04 49 79 bc
       -0.007468856 0.042294867 0.045411408 -0.015215162
000290 33 4b 16 3d 5a 16 48 3d 40 2d 1a bd 07 96 2d 3c
       0.03669281 0.04884944 -0.03764081 0.010594851
0002a0 25 c4 2e 3c 12 39 2e 3d 74 82 09 bd 5c 7c 5c bd
       0.010666882 0.042534895 -0.033571675 -0.053829536
0002b0 89 9a 37 3b b4 e3 73 3c 99 7d a6 3c 0b 5a ed 3b
       0.0028015694 0.014885832 0.020323562 0.0072434
0002c0 aa 0c d0 bc 59 5a 04 3d d4 ed 24 3d f3 d9 c8 3b
       -0.025396664 0.032312725 0.040265873 0.006129497
0002d0 e4 4b cb 3c 16 a9 06 bd f5 ae 86 bc 0a 7e 02 3d
       0.02481646 -0.032876097 -0.016440848 0.03185848
0002e0 c6 f4 53 ba 93 bf bc bc 86 45 4b 3d 53 39 98 3b
       -0.00080854853 -0.023040568 0.04962685 0.0046455055
0002f0 b0 43 98 bc f7 09 50 3d 57 3c a6 3d 17 d7 38 bc
       -0.018586963 0.050790753 0.08116978 -0.01128175
000300 66 e2 9b 3d 66 fb 9c 3d 8d c7 f9 3c 1e ed 94 3d
       0.076115415 0.07665138 0.030490661 0.07271789
000310 23 a3 a3 ba 4c 5b 8a b9 d3 d7 92 3b ac df 9f 3d
       -0.0012484532 -0.00026389433 0.0044812947 0.07806334
000320 76 04 39 bc f7 85 d1 3b 77 a4 b0 bc 04 7b 3a 3d
       -0.0112925675 0.0063941437 -0.021562798 0.045527473
000330 cf 86 cd bc 0e 4b c7 3c 61 1d 45 3c 53 cf 1a bd
       -0.025088696 0.024327781 0.01203093 -0.037795376
000340 28 24 96 bc c6 70 2d bd 09 a7 65 bd 58 04 15 3d
       -0.018327788 -0.042343877 -0.0560675 0.036381096
000350 1a d6 08 3d d1 d9 0f bc 13 f9 39 3d 74 42 4d 3a
       0.03340731 -0.008779959 0.04540355 0.00078300317
000360 4f 3b a7 bc 5e 43 6a 3c 66 59 9e 3c cf d7 0e bd
       -0.020414023 0.014298288 0.019329738 -0.03487378
000370 35 62 bb 3d 42 b7 8c bc 1a c4 8b 3c a0 9c 6c bc
       0.09149591 -0.017177228 0.017061282 -0.014441639
000380 46 ff 1c bd 79 12 14 3d 0b d0 d2 3c dc ff 36 3d
       -0.038329385 0.03615043 0.025733968 0.0446776
000390 3a 49 36 3c fc f2 80 bd 01 bb 34 bd 5c 5b 0d bd
       0.011125857 -0.062963456 -0.044123653 -0.034510955
0003a0 0e 9d ed bc e5 51 3c 3d 36 69 a1 bc 07 ad 82 3b
       -0.029005554 0.04597654 -0.019703489 0.0039879116
0003b0 83 e9 20 bc 82 07 4d bd 1a b2 87 bc 90 69 99 3c
       -0.0098212985 -0.050055988 -0.016564418 0.018727094
0003c0 77 0e ea 3a 07 2b 6e 3d 43 77 94 bc a0 05 da bc
       0.0017857094 0.058146503 -0.018123275 -0.02661401
0003d0 c4 67 18 bd 5d 9d 66 bd fc d0 0e 3d 0c c1 47 bc
       -0.037208334 -0.056302417 0.03486727 -0.012192022
0003e0 3d 4d 7a 3d 53 c8 7e bd 19 4c e8 3c c0 df a5 bb
       0.061108816 -0.062202763 0.028356599 -0.0050620735
0003f0 3c 3c f1 3c 3e 83 66 3d 4f 8a 97 3b 24 3e f8 bb
       0.029447667 0.056277506 0.004624642 -0.007575767

encoder.encoder.1.downsampling.bias f4 [36]
000000 e3 3d c5 bc d6 a1 16 bd 1e e2 79 3c 8e 01 64 bd
       -0.024077361 -0.036775433 0.015251664 -0.055665545
000010 e7 fb 04 bd 4d 7e ca bc f4 0d f8 3c 6d 60 f0 bc
       -0.032466795 -0.024718428 0.03028009 -0.029342854
000020 8e 70 85 3d a2 f3 d8 3c a5 70 16 bd 66 96 3c 3c
       0.06515609 0.02648336 -0.03672852 0.011510467
000030 4d 19 da bb fd f4 d5 bb 2c 45 35 3d c7 bb e8 3c
       -0.006655848 -0.006529449 0.04425542 0.028409852
000040 57 07 40 3d 7f a7 0e bc 2a 11 63 bd 9d 9b d2 3c
       0.046882 -0.008706926 -0.05543629 0.025708968
000050 f0 62 69 bd 07 2f d8 3c 5c d6 09 3d b1 d1 d7 bc
       -0.05697912 0.026389612 0.033651695 -0.026345106
000060 bb e2 40 bd fd d6 20 3c 0b f0 53 3c 9b 49 79 bd
       -0.047091227 0.009816882 0.012935649 -0.06086121
000070 6d 64 1f 3d 15 73 4a 3b 52 0c f0 bc 83 8b 4e 3d
       0.038914133 0.0030891348 -0.02930275 0.050426017
000080 86 14 53 bd e5 60 03 3d 1e d6 8e bc 40 c8 08 bd
       -0.051533245 0.032074828 -0.017436083 -0.0333941
