trained_models/150B:64C8:A060:5337.pt (torch, 57915 bytes, 12 tensors)

encoder.0.weight f4 [36, 36, 7]
000000 fb d1 25 3b 81 11 bf 3b 11 bb ba 3c 8e 53 1b 3e
       0.002530216 0.005830944 0.022794278 0.15168592
000010 4c 64 97 bd aa 1a eb 3c 4b c6 1d 3c 2f be 29 3c
       -0.07392177 0.028699238 0.009629796 0.010360285
000020 22 79 b8 bc 53 aa 44 3e 76 47 22 be 5b 91 20 be
       -0.022518698 0.19205599 -0.15847573 -0.15680449
000030 2e 9b 1a bc ce 75 6d bc 33 ed a8 3c 96 97 41 3c
       -0.009436412 -0.014493419 0.020620918 0.011815926
000040 23 58 82 3d 51 4c dd 3d 15 fe fc 3d 29 d9 5d 3d
       0.06364467 0.10805572 0.1235315 0.05416218
000050 82 13 4e 3a 29 74 65 bc 52 59 f9 bb 19 ea 4d bd
       0.0007861183 -0.0140047455 -0.0076095248 -0.05027208
000060 3a a1 8f bd ce 98 12 3d 3c b9 65 bc cc 70 9e 3b
       -0.070131734 0.035790257 -0.014021214 0.004835224
000070 63 24 49 bc eb d2 44 3b fc 65 56 bd 52 8e 68 bc
       -0.012276742 0.0030032943 -0.052343354 -0.014194088
000080 3b 8d db bc 21 02 72 bc 05 48 da 3c 6e ab 22 bc
       -0.026800742 -0.014771015 0.02664567 -0.009928567
000090 c6 06 b4 bb 1e 79 f9 3b 55 a5 0c bd 00 89 15 3d
       -0.0054939715 0.0076133152 -0.03433736 0.036507607
0000a0 e6 8a 7a bc a5 db 4e bc 5c 01 8c 3a 4c 52 8f bc
       -0.015291905 -0.0126256095 0.0010681557 -0.017495297
0000b0 95 7b 87 bd 92 db 01 bd cd 42 65 3d f1 c8 b2 bc
       -0.06615368 -0.03170354 0.05597191 -0.021824332
0000c0 d6 7f 97 3c ec b5 90 bb 8c 5d 96 bc db e3 2a 3d
       0.018493574 -0.004416218 -0.018355154 0.041721206
0000d0 6b cf 6d bc e8 e2 4d bd ee 46 bf bb 9e 91 e5 bc
       -0.014514784 -0.050265223 -0.005837313 -0.028023537
0000e0 8a 55 d1 3b c2 44 0f bd 2a 4e 87 3d 1a e9 6f bd
       0.006388371 -0.034977682 0.066067055 -0.058571912
0000f0 d7 c5 8e bd 8d 73 1d bc 16 32 c2 bc 05 af fd bc
       -0.06971329 -0.009610069 -0.023705523 -0.030967245
000100 67 d7 87 bc fb 1d c7 bd 2a 7f 22 bd 29 73 ea b9
       -0.016582204 -0.09722515 -0.039672054 -0.0004471776
000110 df fb 4a bd 39 e1 ca bc 3a 9d 8a bc e2 e1 f4 bc
       -0.04955661 -0.024765598 -0.016920675 -0.029892866
000120 0d 19 5e bd a6 70 5f bd 53 6d 5e bd a4 a1 32 bd
       -0.05422311 -0.05455079 -0.05430348 -0.043611184
000130 66 98 27 bd eb 7f d1 3b 19 d9 95 bc f3 c0 73 3d
       -0.040916823 0.006393423 -0.018291997 0.059510183
000140 97 b1 8e bd 05 5f 51 3c 57 67 94 ba 2c 08 ff ba
       -0.06967466 0.012779002 -0.0011322302 -0.0019457391
000150 8a 54 f5 bc 13 f1 0c bd 7d 38 a8 bc d8 07 4c bc
       -0.029947538 -0.034409594 -0.020534748 -0.012453042
000160 00 08 03 be 72 21 c6 bc b0 a6 27 bc 6a 89 b7 bc
       -0.1279602 -0.02418587 -0.0102326125 -0.022404391
000170 41 2a 9e bc fe 92 af bd d4 38 39 3d c6 d6 44 3d
       -0.019307258 -0.085729584 0.04522021 0.048056386
000180 11 71 92 bb 79 c1 d5 bc a9 df d1 3d 57 fd f6 3d
       -0.004469045 -0.026093232 0.10247738 0.120600395
000190 9a d7 19 3e 57 10 50 3e 82 a1 38 3e 58 86 8e 3d
       0.15023652 0.20318733 0.1803036 0.06959218
0001a0 56 eb 7c 3d 55 43 73 3d ad eb 83 3d b3 a5 48 bb
       0.06174787 0.059390385 0.06441436 -0.0030616343
0001b0 ec 1f ab bb 31 66 92 3d 7f 01 71 3d c8 0e 83 3d
       -0.0052223112 0.07148398 0.058839317 0.06399304
0001c0 d7 f3 14 3d b3 2b 8c 3d 7b 8f db bc 51 f4 5d 3e
       0.036365356 0.068442725 -0.026801815 0.2167523
0001d0 21 23 01 3e 31 4c 03 3d 49 31 24 bc 56 d0 4c bc
       0.12611057 0.032055084 -0.010021516 -0.012500843
0001e0 fc 3c 68 3d 8b c4 46 3d 6f 8f b2 3b b7 56 34 3d
       0.056698784 0.04852728 0.0054492275 0.04402801
0001f0 da e9 f2 3c 6d f1 30 bb cb 77 59 3c 41 2f 02 3d
       0.029652525 -0.002699937 0.01327319 0.031783346
000200 0c 42 ba 3d ba d8 42 be e9 9e ec bc d7 54 4c bc
       0.09094629 -0.19027987 -0.028884368 -0.012471399
000210 0a 94 87 bc 0a 6a c6 bc b0 19 9d 3c 6f c9 be bd
       -0.016550083 -0.024220485 0.019177288 -0.09315764
000220 28 5a 99 bc 63 a6 93 3d b6 b6 98 3b 58 1d 98 ba
       -0.018719748 0.0720947 0.0046604527 -0.0011605425
000230 03 bc 81 3c 40 a4 c6 3b 2c 94 ae 3c 69 da 7c bd
       0.015836721 0.0060620606 0.021310888 -0.06173173
000240 fc 8a f6 3b b5 bd 94 3b ef 3e fe 3c c8 d7 be bc
       0.0075238924 0.0045392164 0.031035868 -0.023296252
000250 50 09 c8 bb 8a 0d 85 bc a5 cd 7a bd 72 6a 05 3d
       -0.0061046258 -0.016241807 -0.061231274 0.032572217
000260 38 c6 1b ba 0d 9c 08 bb 3b 5f ee bc aa 7d 7a bd
       -0.00059423177 -0.0020844967 -0.029098144 -0.061155
000270 33 63 99 bc 2f e3 dd bc d7 cc 63 3d 70 8f 8a bc
       -0.01872406 -0.027085869 0.055615272 -0.0169141
000280 ae 16 eb 3a 45 33 0b bd ae bd 00 bd d8 9d 9d bd
       0.0017935836 -0.03398444 -0.031430893 -0.07696122
000290 5c 40 dc bc d2 43 29 bb 3b f2 33 bd ec 82 ee bc
       -0.026886158 -0.0025827778 -0.04393218 -0.029115163
0002a0 2e 85 a8 bc d0 44 32 bd 97 10 a8 bc f4 79 0e bd
       -0.020571318 -0.043522656 -0.020515723 -0.034784272
0002b0 85 dd 98 bc 5b c5 1a bd 8a d6 7a 3b ce 93 aa bc
       -0.018660316 -0.03778587 0.0038274848 -0.020822432
0002c0 fe 40 df bc 05 c5 b4 bd 92 5a 2d bd a6 22 54 bd
       -0.02725267 -0.08826641 -0.042322703 -0.051790856
0002d0 6d 85 de bc 79 27 20 3c 80 8a 1c bd 42 74 13 bd
       -0.027163232 0.009775036 -0.03821802 -0.035999544
0002e0 f0 8f dc 3c d0 2b 34 3c 40 02 43 bd c4 c3 03 3b
       0.026924103 0.010996774 -0.047609568 0.00201057
0002f0 1e b9 bb 3b 7a 9c 14 bd 97 0f cc ba 74 05 e0 bd
       0.005728855 -0.03628204 -0.0015568611 -0.1093854
000300 df 4a 97 3c 7d 18 14 3d 95 1f 41 bb d6 ae ea bc
       0.018468319 0.036156166 -0.0029468287 -0.028647821
000310 00 0a 38 bd 01 32 bf ba 60 88 12 3c 2a 14 28 3c
       -0.04493141 -0.0014587046 0.008943647 0.010258714
000320 50 df 89 3c 22 33 c3 bc af f6 41 bc 28 e7 7b bc
       0.016830117 -0.023828093 -0.011838599 -0.015374936
000330 3a c7 bd 3a b4 c8 c4 bd bd b8 e7 3c 73 c8 8f 3d
       0.001447893 -0.096085936 0.028286332 0.070206545
000340 14 1b 84 3c 17 15 3e 3c e9 26 9f bc 8d 11 65 bc
       0.016126193 0.011601708 -0.019427733 -0.013981235
000350 18 c7 43 bd 55 9c e1 ba a7 26 91 3c 69 4a 76 3c
       -0.047797292 -0.0017212728 0.017718626 0.015032389
000360 63 9d e5 ba fc 12 09 bc af 70 ba 3b 97 2a 22 3d
       -0.0017518218 -0.008366343 0.0056897025 0.039591398
000370 0a 64 9b 3d 16 88 e2 3a e0 2c fa 3b b4 56 a2 bb
       0.0758744 0.0017282988 0.007634744 -0.0049541835
000380 fd 11 ff 3b 73 bf d3 3b 65 a6 23 bd 1c 97 88 3d
       0.007784127 0.0064620315 -0.039953608 0.06669447
000390 f1 45 b2 3d 4f db 2b 3a 7e b9 00 3d 64 6f e0 bc
       0.087047465 0.0006555812 0.0314269 -0.027396865
0003a0 d7 11 76 3c 12 79 2a be 9c 0d ad 3d 73 e7 98 3d
       0.015018902 -0.16647747 0.084498614 0.074660204
0003b0 90 fe 00 bc 06 5c 57 3c 92 31 a4 bc c7 72 23 3a
       -0.007873192 0.013144499 -0.020043168 0.00062350597
0003c0 c2 6c 08 be 38 52 b8 bd c2 98 01 be e8 8a bd 3c
       -0.13322738 -0.09000057 -0.12655929 0.023137525
0003d0 bd b5 a2 bc 3c 60 dc 3b d2 aa 8b bd cf 15 00 3e
       -0.01986205 0.006725339 -0.06819691 0.1250832
0003e0 7a 7c 11 bd bb 7b 0f 3e f5 21 ba bc 1d 50 43 3c
       -0.0355191 0.14012043 -0.02272127 0.011920956
0003f0 bc d0 ac 3c 69 97 d5 3c 9c 2e 6c bc 4a 82 c2 3d
       0.021095626 0.026073175 -0.014415409 0.09497507

encoder.0.bias f4 [36]
000000 89 14 a8 3d a9 26 d8 bd af 54 00 bd 91 1c 5a bd
       0.08207042 -0.10554249 -0.03133076 -0.0532499
000010 dc d0 78 bd be 74 c6 bd 0b b1 e9 bd 85 88 75 bc
       -0.06074606 -0.096902356 -0.114107214 -0.014986162
000020 56 88 1a 3d 6a a5 3a 3d cf 1d b1 3c 74 d3 a5 3d
       0.037727676 0.045567907 0.02162066 0.08096972
000030 f0 4c f8 3c a4 e8 8c 3d e5 c8 87 3d 8a 0b cb 3d
       0.030310124 0.0688031 0.066301145 0.0991431
000040 c6 00 4b bd 5b be f9 3c 54 de be bd fc b4 b0 bd
       -0.049561284 0.030486276 -0.093197495 -0.0862827
000050 26 8b 97 bb 68 e3 ca bd 93 6c 89 3c 9a bd 91 3d
       -0.004624742 -0.099066556 0.016775405 0.07116242
000060 b1 ea 19 be 38 2d ea bc 6e d2 c6 bc f6 84 ac bd
       -0.15030934 -0.028586015 -0.024270263 -0.08423798
000070 c0 3f 0f 3d 59 4f 15 bc 50 3d cc bc 95 a2 7c 3d
       0.034972906 -0.009113156 -0.02493158 0.061678488
000080 3c 3b b9 bd e3 af 29 3d 92 99 80 bd dc c3 ae bd
       -0.09044501 0.041427504 -0.06279291 -0.08533451

encoder.1.weight f4 [36]
000000 c3 97 03 3f 6f c1 82 3f 67 3a 18 3f e7 b8 7e 3f
       0.51403445 1.0215281 0.59464115 0.9950089
000010 9a 6f 80 3f 9b a1 c9 3e 0a f6 0d 3f 64 a0 6b 3f
       1.0034058 0.39381108 0.5545355 0.9204161
000020 ff 69 4d 3f de d9 45 3f 31 84 32 3f fd 32 6e 3f
       0.8023986 0.77285564 0.6973296 0.9304655
000030 90 33 39 3f ee 5c 00 3f 75 86 29 3f 6f c9 42 3f
       0.72344303 0.501418 0.6622079 0.76088613
000040 dc bd 36 3f 2c ce e1 3e 73 3e 5a 3f 45 af 84 3f
       0.7138345 0.4410261 0.8525154 1.0365988
000050 cb 37 b9 3e 19 68 d7 3e 12 6c 71 3f b1 81 0c 3f
       0.3617538 0.42071608 0.9430553 0.54885393
000060 e7 7c 7a 3f a2 d0 84 3f bb 69 07 3f 04 82 08 3f
       0.97846836 1.037617 0.52895707 0.5332339
000070 69 45 0b 3f 53 7c 84 3f b2 c0 c9 3e 5d c2 11 3f
       0.54402786 1.0350441 0.39404827 0.569372
000080 08 c1 21 3f f4 c2 1d 3f e0 92 4b 3f f8 83 88 3f
       0.6318517 0.616256 0.7952099 1.0665274

encoder.1.bias f4 [36]
000000 72 b1 9d 3d 80 fd 8a bd 9a 17 2e bd 01 da 4b bd
       0.07699861 -0.067866325 -0.042502977 -0.04976845
000010 d0 ac 9b bd 6c 92 01 be 2e 10 f7 bd 73 2d 04 bd
       -0.07601321 -0.12653512 -0.12063633 -0.032269906
000020 09 a6 0b bd f3 c3 67 bd f3 1f 31 bd 4f e6 e4 bc
       -0.03409389 -0.056583356 -0.04324336 -0.027941851
000030 c7 db 28 bd 07 38 19 3d c0 06 22 bd 02 85 d0 3c
       -0.04122522 0.037406947 -0.03955722 0.025454048
000040 a2 c7 2d 3d 61 3f d3 3c fd 63 a7 bd 43 ad 8e bd
       0.042426713 0.025787057 -0.08173368 -0.06966641
000050 a4 2f 71 bd cc b2 b2 bd f4 19 5f bd 41 e9 68 bb
       -0.058883324 -0.08725509 -0.05446811 -0.003553942
000060 a0 bc bd bd cd b8 9c bd 44 e6 51 bd e4 7b 87 bd
       -0.09264493 -0.076524355 -0.05124499 -0.06615427
000070 66 f1 50 bd e0 13 94 bd 92 98 05 be 2a c0 52 bd
       -0.051011465 -0.07230353 -0.13046482 -0.051452793
000080 a3 70 a7 bd 31 d1 4b bd b7 e5 19 bd 03 db 92 bd
       -0.081757806 -0.049760047 -0.03757259 -0.071706794

encoder.1.running_mean f4 [36]
000000 77 0f 0b 40 fa 02 77 bf 18 41 87 bf 4b c8 ec 3d
       2.172819 -0.96488917 -1.056674 0.1156164
000010 63 14 96 bf 82 a9 9d bf 7f 7e b3 bf 4c b9 e4 be
       -1.1724972 -1.2317355 -1.4022979 -0.4467262
000020 4d 8f 43 bf b4 02 59 3e d5 98 8c 3e 9e f6 ed be
       -0.76390535 0.21192437 0.27460352 -0.46477216
000030 e4 ec 3f bf b7 e9 f0 3f fe 63 ee be e0 aa 05 40
       -0.7497084 1.8821324 -0.46560663 2.0885544
000040 6f f1 04 40 8e 93 9a 3f 1c 29 d5 bf e8 9d 66 be
       2.077236 1.207628 -1.665317 -0.22521174
000050 41 39 19 bf 9b 58 9e bf 86 3d b5 3e f4 a6 c4 3f
       -0.5985299 -1.237079 0.353985 1.536345
000060 3f fd 00 c0 9f bf f8 be fc b8 00 3e 3d ec cd bf
       -2.015457 -0.48583695 0.12570566 -1.6087719
000070 45 ec 21 bf 0a 9c 55 bf 78 0c 84 bf 43 17 14 bf
       -0.63251144 -0.8344122 -1.0316305 -0.57847995
000080 2d b4 c8 bf 59 91 78 bf 1c 61 8d bf 0a 0c 27 bf
       -1.5679985 -0.9709678 -1.104526 -0.65252745

encoder.1.running_var f4 [36]
000000 6a 3b 04 3c 8d 0b a0 3b bc d5 b5 3b d8 e7 5c 3b
       0.008070806 0.0048841895 0.0055491608 0.0033707526
000010 0f 85 98 3b aa 53 ac 3b 7e c9 dd 3b d3 2a b5 3b
       0.0046545337 0.005258997 0.0067684045 0.0055287867
000020 0c b7 76 3b 26 1b ba 3b b6 62 9d 3b 2b 12 89 3b
       0.0037645726 0.005679506 0.004803027 0.004183074
000030 15 74 9b 3b c8 a4 e5 3b db f0 98 3b 3a f3 18 3c
       0.0047440627 0.007008169 0.004667384 0.0093353335
000040 ba 3a f4 3b 4c 62 b2 3b cd 5b 8c 3b 35 09 91 3b
       0.00745329 0.005443847 0.0042834044 0.0044261464
000050 fe 2d 30 3b 68 fc b6 3b ec 43 75 3b 86 29 c2 3b
       0.0026882882 0.0055842884 0.0037424518 0.00592536
000060 af c0 a3 3b 62 16 8b 3b 72 38 b0 3b 81 7a e7 3b
       0.004997335 0.0042446116 0.0053778226 0.007064164
000070 c6 43 8e 3b 00 cf a8 3b d1 08 8e 3b 42 7f 87 3b
       0.0043415753 0.0051516294 0.004334547 0.0041350434
000080 c1 7e a9 3b de 12 b1 3b cb 16 ba 3b 07 e1 68 3b
       0.005172581 0.0054038605 0.0056789867 0.0035534517

decoder.0.weight f4 [36, 36, 3]
000000 52 36 af bc 0a c1 a3 3d 3e f3 0b bd 26 99 97 3d
       -0.021388207 0.07995804 -0.03416752 0.074022576
000010 54 61 bc bd 36 0c ad bd bd 3c 6f 3c fa 98 6f 3d
       -0.09198251 -0.08449595 0.0146018835 0.0584955
000020 b2 0e 27 3d e1 3a 7e bd 7e 8e 63 bd 52 7e 68 bc
       0.0407855 -0.06206787 -0.055555813 -0.014190273
000030 af 57 fb bc e4 a1 de bc 7d 18 f5 bc 15 49 16 3b
       -0.03068146 -0.027176805 -0.029918903 0.0022931744
000040 1e 94 04 bd 3a 9b 91 3c 12 d5 3e bd a5 ae c8 bc
       -0.032367818 0.017774213 -0.04658992 -0.02449734
000050 c9 37 29 3d 81 e5 57 3d 62 9e 75 bb a2 fe 4e bd
       0.041312966 0.052709106 -0.0037478437 -0.050535806
000060 de 39 71 3d 8f 0e dc bc 45 f9 92 bd 91 ab 8a bd
       0.058893077 -0.02686241 -0.07176451 -0.06771005
000070 7b 08 63 bd c7 27 a1 3b db 76 e2 ba 9f 2a de bc
       -0.05542801 0.004918072 -0.0017277853 -0.027119933
000080 46 5b c8 bc 9e cf 85 3d 4f f1 09 bd 82 72 ba bb
       -0.024457585 0.065337405 -0.033677395 -0.00568992
000090 49 b8 02 3d b0 d1 94 3c c5 3e ac bd ac a8 a4 bd
       0.03191403 0.018166393 -0.0841041 -0.08039984
0000a0 98 f1 3f 3d e2 fd 81 3d 88 19 21 3c 4e 61 46 3d
       0.04686126 0.063472524 0.009832747 0.04843264
0000b0 89 56 63 3d 12 14 20 bd 31 f9 5a bc a3 df 2b 3c
       0.05550245 -0.03908164 -0.013365076 0.010490331
0000c0 3e ad b5 bd d6 8f cb 3d b8 ed fe 3b cc 7d 17 b9
       -0.08870934 0.09939544 0.007779803 -0.00014447345
0000d0 b2 3c 99 bc af be e5 bc 52 9f 07 3d 93 ea f3 bd
       -0.0187057 -0.028045027 0.033110924 -0.11909976
0000e0 9e d5 00 bd 38 1c ac bd 63 97 11 ba c0 63 83 3d
       -0.03145372 -0.0840382 -0.00055538694 0.0641551
0000f0 94 bc c0 3c 26 8c cc bc 41 bc 55 3d 72 32 39 bd
       0.023527421 -0.024969172 0.052181486 -0.045214124
000100 25 68 4a bd 7a 4c 66 3d 95 96 8d 3c cb 22 81 3c
       -0.049415726 0.056225277 0.017283717 0.01576366
000110 f1 24 5e 3d bf 29 21 bc c1 49 72 bc 73 6d f9 3a
       0.05423445 -0.009836613 -0.014788092 0.0019029811
000120 c9 56 22 3d f4 ed 0d 3c fd a9 22 3c b7 62 3a bc
       0.039633546 0.0086626895 0.009928224 -0.0113760745
000130 0f f8 b5 ba 60 a7 58 bb d5 f4 99 3d fe bd 2e 3d
       -0.0013883131 -0.0033058748 0.07517401 0.04266166
000140 20 e0 47 bc 1a 30 82 bd 76 bb 71 3c f7 fe c1 3d
       -0.012199432 -0.06356831 0.014754167 0.09472459
000150 1e 25 9f 3c 3c 9b 5b 3c 19 1f e9 3c 4b 50 8c bd
       0.019426879 0.01340371 0.028457211 -0.06851252
000160 7e 41 f9 3c 0c 2e af 3d 45 65 1c bd aa d1 6e 3c
       0.030426737 0.085537046 -0.038182516 0.014576355
000170 d5 bf f9 3c 47 f1 47 3d 18 f5 5f 3d 2b dc a1 39
       0.03048698 0.048814084 0.0546771 0.0003087235
000180 0a 3a 0e bd 6b ab 88 3d b5 69 a8 3d 75 f3 bf bd
       -0.03472332 0.066733204 0.08223287 -0.093726076
000190 ef 5c 48 3d 9f ee 98 3d 5b 32 8f bd 2e 4d 22 bd
       0.048916753 0.07467388 -0.069920264 -0.039624386
0001a0 54 cc 15 be 9a 1f 71 3d 78 a2 af 3c 55 5c 9c 3d
       -0.14628726 0.05886803 0.021439776 0.076347984
0001b0 2d 8f 02 3d d8 be bf 3b d8 3f 38 3d 18 db 88 bd
       0.031874824 0.005851608 0.04498276 -0.06682414
0001c0 a1 09 ab 3d a8 b1 8b 3d 7f 35 16 bd 0c 3b 6c bd
       0.08351446 0.068209946 -0.03667211 -0.0576735
0001d0 81 ea 92 3d bb 39 86 bd 24 03 e3 3b 52 6a 21 3c
       0.07173634 -0.0655398 0.0069278646 0.009852009
0001e0 37 5d 74 3b e7 31 0a 3b a1 9a af bd 82 46 84 3d
       0.0037287006 0.0021086873 -0.08574415 0.06458761
0001f0 c4 bc 66 3d a9 a3 91 bd 67 33 54 3d 20 2e 5d 3d
       0.056332365 -0.07111294 0.051806834 0.053999066
000200 16 06 b2 bd a6 7b dc 3c 7e 51 0c bd d2 46 1a 3d
       -0.08692567 0.026914429 -0.034257405 0.037665196
000210 30 f2 2d bd 21 37 9f 3c f6 ad 71 3d 28 81 26 bd
       -0.042467296 0.019435467 0.059003793 -0.040650517
000220 0f 77 c7 3c 95 1b 92 bd b2 f4 62 3d 13 d0 0e bd
       0.024348764 -0.07134167 0.05540914 -0.034866404
000230 03 3e 5f bd 63 45 34 3d fc 2f 84 3d 7b 74 e2 bc
       -0.0545025 0.044011485 0.06454465 -0.027643433
000240 51 d6 69 bd 38 5b f3 3c 80 39 6a 3d 02 04 d3 bb
       -0.057089154 0.029706582 0.057183743 -0.0064396868
000250 60 eb a2 3b e7 45 9f 3d 61 57 dd 3b 29 78 23 be
       0.0049719065 0.07777005 0.006754801 -0.15963806
000260 38 62 63 bd 8c c3 c9 3d bb cd fb bc 40 a1 b0 bc
       -0.05551359 0.09851751 -0.030737748 -0.021561265
000270 85 7f 69 3d db 03 7f bc 9f b9 3e bd ca 25 1c bd
       0.057006378 -0.015564884 -0.04656374 -0.038121976
000280 f9 3c 65 bd b5 11 33 3d 0d f5 31 3d 6c 95 5f ba
       -0.05596635 0.04371806 0.04344659 -0.00085290405
000290 2e 0a e0 3b 1a 69 17 3c 10 65 2a 3d 1c 72 23 bd
       0.006837151 0.009241367 0.041600287 -0.039903745
0002a0 37 c3 b6 bd 4b 68 08 bd d5 0d 86 3d 23 e2 ac bd
       -0.08923953 -0.033302587 0.06545607 -0.0844157
0002b0 40 5a a8 bc a6 93 a0 3c 23 51 84 bb 19 13 1e bc
       -0.020550847 0.019601654 -0.0040379926 -0.009648108
0002c0 97 e6 c5 bc 3b c9 05 3d e7 39 7c 3d 80 35 3b 3d
       -0.024157805 0.03266261 0.061578657 0.04570532
0002d0 44 fa 30 3d 7c 0d 94 bd d5 d9 63 3d cd 69 05 bd
       0.043207422 -0.072291344 0.055627663 -0.032571603
0002e0 b8 9f 3d 3d 5b ba d8 bc 01 0a 8f bd 7e 3d 43 3d
       0.046294898 -0.026456049 -0.0698433 0.047666065
0002f0 38 1d 9d bc 0a 8a 2c bd 24 b0 d7 bc ab 96 82 3d
       -0.019178972 -0.04212383 -0.026329108 0.06376394
000300 92 08 f8 b9 b3 2a a7 3d f3 f2 be 3d 12 42 64 3d
       -0.00047308631 0.08162441 0.09323683 0.055727072
000310 12 5c 8c 3d 7a 2a 9f 3c d3 65 29 bd 8a 60 8d b9
       0.068534985 0.019429434 -0.041356873 -0.00026965543
000320 fd f1 00 3a 7e 4d ca 3c 80 4a 3f bd 4d 9d b0 3c
       0.00049188716 0.024695154 -0.046701908 0.021559382
000330 c2 aa d3 3b 96 f5 9a bc 18 02 8e 3c b3 32 23 3d
       0.006459565 -0.018915933 0.017334983 0.039843272
000340 d0 c3 0d bd c4 84 3c 3d 37 e9 1d 3d fe 74 e5 3c
       -0.03461057 0.046025053 0.03855249 0.028009888
000350 18 27 1b 3c 6a 86 cf 3b ff b5 bd bc 9f b7 66 3b
       0.00946977 0.006333162 -0.023158072 0.0035204662
000360 1b 24 ca 3a ba c3 63 bd dd 7d 0d 3d 9d 97 07 3d
       0.0015422137 -0.05560658 0.03454386 0.033103574
000370 70 6b bf 3c f5 9d 8a bc 4c c8 f9 3c 0b 6f 16 3c
       0.02336666 -0.016921023 0.030491017 0.009181748
000380 6c 7f 34 bd 46 34 46 3d 14 15 1e 3d 87 45 a2 bd
       -0.04406683 0.048389696 0.03859432 -0.079234175
000390 8a 0c 59 bd 3e 6f 09 3d ee 25 27 3c 6b 9f 87 bc
       -0.052990474 0.033553354 0.010201914 -0.016555509
0003a0 06 6c de 3c ae 0d 60 3c b2 21 52 bd ee 4d fc 3c
       0.027151119 0.0136751365 -0.051301666 0.030798879
0003b0 b2 dc ab bc 8b a2 93 3a 31 86 21 3d 83 0c c1 3c
       -0.02097926 0.0011263652 0.039434616 0.023565536
0003c0 a7 2c c7 bc 0f 6b 8c 3c a3 81 26 bc d8 10 95 bd
       -0.024313284 0.017140893 -0.010162744 -0.07278603
0003d0 c7 4e 78 3d a4 bc 36 bd 35 1b 77 bc 05 c6 4b bd
       0.060622003 -0.044613495 -0.01508217 -0.049749393
0003e0 a0 7b 50 bb 87 f4 50 bd e8 81 9c 3c f6 f8 ad bc
       -0.0031811967 -0.05101445 0.019104913 -0.021236878
0003f0 58 bc f1 bb 4e d9 03 bd 73 08 80 bd 9c a6 88 3d
       -0.0073771887 -0.03218966 -0.062516116 0.06672403

decoder.0.bias f4 [36]
000000 13 2e 60 3d e3 b2 00 be db ec ef 3c 08 9a 1c bd
       0.05473144 -0.1256824 0.029287746 -0.038232833
000010 88 89 1b bc 8e df 32 bc 39 b0 7b bd 89 f2 91 bb
       -0.009493239 -0.010917557 -0.061447356 -0.0044539613
000020 a7 a4 54 bd 05 d0 89 bd dc f7 81 bd 85 5c 56 bd
       -0.051914837 -0.0672913 -0.063461035 -0.052334327
000030 b8 39 ae bd da 25 24 bd 3f fa 8c 3d e0 5e 9b 3c
       -0.08507103 -0.04007516 0.06883668 0.018966138
000040 41 c1 79 3d c0 8a 0c 3d 53 65 22 bd b9 1e b8 bc
       0.060975317 0.03431201 -0.03964741 -0.022475587
000050 5c 1a b0 bd b1 01 28 bd d1 ab 27 bd 23 ba a3 3c
       -0.08598778 -0.041017238 -0.04093534 0.019986218
000060 4a 80 15 3d 4b db d0 bd 77 3a f1 3c 40 1b fa bd
       0.0364993 -0.10198077 0.029446824 -0.12212229
000070 c4 e4 81 bd e7 a1 57 bd ac 7d 48 3c c6 9c 31 bd
       -0.06342462 -0.052644636 0.012236994 -0.0433624
000080 e7 be a1 bc 13 a2 fb 3b 65 f4 df bc d5 e9 fd bb
       -0.01974435 0.007679233 -0.027338216 -0.007748822

decoder.1.weight f4 [36]
000000 9e 83 07 3f 58 88 0c 3f e7 f6 ef 3e 5f 5a 1c 3f
       0.52935207 0.54895544 0.4686806 0.61075395
000010 11 d5 1f 3f 1f 6b 33 3f ce 5c 26 3f 95 65 1d 3f
       0.6243449 0.7008533 0.6498536 0.61483127
000020 25 82 37 3f b4 b8 38 3f 97 55 42 3f 40 c6 36 3f
       0.7168296 0.72156835 0.7591185 0.71396255
000030 1b 29 49 3f 98 c0 2d 3f 62 de 29 3f 7b 5f 5f 3f
       0.78578347 0.67872 0.66354954 0.87255067
000040 1d fd 8b 3e bb 63 8d 3e 1a 54 07 3f 66 95 05 3f
       0.27341548 0.2761515 0.52862704 0.5218109
000050 47 77 16 3f 78 e0 10 3f 10 b7 37 3f 6c a1 1c 3f
       0.5877575 0.5659251 0.71763706 0.6118381
000060 7e f0 3f 3f 98 e8 46 3f 9f 8f 3a 3f e3 1c 43 3f
       0.74976337 0.7769866 0.728754 0.7621595
000070 29 46 18 3f 3b a4 36 3f 2c b6 36 3f 87 d6 31 3f
       0.59482056 0.71344346 0.7137172 0.6946797
000080 f0 0d 34 3f 40 d0 1f 3f 38 4b 1d 3f 18 2d 03 3f
       0.70333767 0.6242714 0.614429 0.5124068

decoder.1.bias f4 [36]
000000 57 b4 bf bd a2 4c eb bd 76 6f a5 bd 9f ec c1 bd
       -0.09360569 -0.11489226 -0.080779 -0.0946896
000010 fc 30 aa bd cc 1f c7 bd 7d 77 ce bd 0c 85 f1 bd
       -0.08310124 -0.09722862 -0.10081384 -0.11792955
000020 bf 51 c9 bd 3d 9b 03 be e0 ce cd bd 7e 8e eb bd
       -0.09830045 -0.12852187 -0.10049224 -0.115017876
000030 66 1f db bd 2f 79 d5 bd f6 8b f3 3d f4 53 fa 3d
       -0.10699348 -0.104235046 0.1189193 0.12223044
000040 84 03 b8 3d 64 fc 8f bd 7e d9 e9 bd 84 8a ea bd
       0.089850456 -0.070305616 -0.114184365 -0.11452201
000050 62 26 d0 bd 40 34 05 be 54 36 08 be e2 23 df bd
       -0.10163571 -0.13008213 -0.13301975 -0.10895516
000060 ba 8d ee bd 7a 85 18 be 6f a9 df bd 45 0e 14 be
       -0.11648126 -0.14894667 -0.10920989 -0.14458568
000070 88 4e be bd b7 da dc bd 03 11 bc bd 1e c4 c4 bd
       -0.092923224 -0.10783904 -0.09182932 -0.09607719
000080 60 40 c6 bd ca ce ed bd 80 03 f7 bd 45 4b b4 bd
       -0.09680247 -0.116117075 -0.120612144 -0.08803419

decoder.1.running_mean f4 [36]
000000 03 a6 82 3d c1 d5 c9 bd 02 b4 d3 3c e2 bf 72 bc
       0.063793205 -0.098552234 0.02584267 -0.014816256
000010 11 9c ed 3b 4d 0e 77 3c 01 c6 15 bd 13 fc 5a 3d
       0.0072512706 0.015079093 -0.036565784 0.053463053
000020 46 eb 11 bd 6c 9d b2 bc 51 7a 2b bd f6 c3 83 bc
       -0.035624765 -0.02180358 -0.041864697 -0.016084652
000030 28 44 65 bd 25 45 c1 bb 26 2f 0b 3d 81 ca c9 bc
       -0.055973202 -0.0058981352 0.03398051 -0.024632694
000040 00 36 6b 3c e6 3b d5 3c b2 bf b1 bb e1 0a 9b 3c
       0.014356136 0.026029538 -0.005424463 0.018926086
000050 bc 71 7a bd 93 c2 a4 3c 0e bc b2 3c dc 96 45 3d
       -0.06114362 0.020112311 0.021818187 0.048239574
000060 e7 3c 95 3d af cb 3b bc cd e8 9a 3d 3d dc 5b bd
       0.07287007 -0.011462136 0.075639345 -0.053676832
000070 a0 56 3d bd ef 08 05 bd d4 6f e9 3c fa 09 ad bc
       -0.04622519 -0.032479223 0.028495707 -0.021122921
000080 db e1 23 3b ac 5a 47 3d b4 ae 1a 3c ba 11 f6 3b
       0.0025006447 0.048670456 0.0094410665 0.0075094374

decoder.1.running_var f4 [36]
000000 f7 66 28 3f 56 e4 48 3f a6 67 09 3f 79 26 6c 3f
       0.6578211 0.78473413 0.5367378 0.92246205
000010 3f 3d 4e 3f d2 6a 96 3f 65 3a 48 3f fa 69 c7 3e
       0.80562204 1.1751349 0.78214103 0.3894804
000020 e8 77 4d 3f 9e 14 3e 3f 73 d1 3c 3f 2e 71 18 3f
       0.8026109 0.7425021 0.73757094 0.595477
000030 18 d4 40 3f 69 3e 81 3f 3f 4f 02 3f de 1c 0d 3f
       0.7532363 1.0097171 0.5090217 0.5512217
000040 55 b0 ea 3e fc 20 57 3f 44 b9 5c 3f 86 ad 3e 3f
       0.45837656 0.84034705 0.8622019 0.74483526
000050 72 86 89 3f 82 b9 5e 3f d6 ea 2b 3f f2 67 65 3e
       1.0744154 0.8700181 0.67155206 0.22402933
000060 ad 2d 45 3f fb 15 2f 3f 2e 0c 05 3f 9f f9 3a 3f
       0.7702282 0.68392915 0.5197171 0.7303714
000070 e4 fd 9d 3e 19 48 43 3f 4a 05 56 3f db 56 45 3f
       0.30857766 0.7628189 0.8360182 0.77085656
000080 a9 12 97 3f b4 ac 0e 3f 7e ca 71 3f 7f 58 16 3f
       1.180257 0.55732274 0.94449604 0.58728784
