trained_models/28B3:ECCA:08AD:3A02.pt (torch, 51703 bytes, 36 tensors)

encoder.0.weight f4 [18, 36, 5]
00000000: 3a3b 2c3c 4b93 0b3b 8f7a 43bb 46d1 c03a
00000010: 9ae9 61bd 1397 19bc 9bb4 3f3b 8ba9 abbc
00000020: d9c5 b4bc b9db 0abd 7740 66bc 723c 2ebc
00000030: 3275 98bc ce04 f13c a25d b4bb 82d5 42bb
00000040: cfd8 5b3b 0cda 3d3c 12f4 27bc 35b1 4dbd
00000050: e23f 043b 5072 f8bc 30b5 a33c e8d8 81bd
00000060: b2cd 35bd 45b5 0ebc b33d bb3c 377a 84bc
00000070: 6f7a 80bc 1d4b 86bd 968d 1dbc 315a d8bb
00000080: 62c6 b73b 40de 1bbd d861 82bd 33d7 123c
00000090: e2fb aebc 246f 4e3d 2f0d 56bd 67b2 78bd
000000a0: 4459 92bc bacb 003c f6dd 3c3c 2054 18bd
000000b0: 7b45 41bd 41b4 cf3b 848b 8fbc da63 cf3c
000000c0: 97e0 8abd 4ed1 7fbd 9b56 603b eca7 0dbd
000000d0: 1929 93bc 857e 1ebd e71f 7bbc e17e 26bc
000000e0: a581 523b 55b1 9ebc 48bb 0abd ffeb 94bd
000000f0: 55ad 163d da4d 793c 78a8 b03c 1aea 38bd
00000100: b2c1 b4bd 5fa2 7c3c b418 d43b dc63 15bc
00000110: d3ea bdbd 9170 85bd c267 943c b882 153e
00000120: b3ae 3c3d dcf7 5e3e 694b 953e c081 613c
00000130: 69bf 4f3e 9083 b23d 8093 8c3e 8586 c3bb
00000140: 3465 543c f819 87bb 9ec6 99bc 1cdf 773d
00000150: 2b7d ae3b f035 bdbc 1bd5 73bb a538 0b3d
00000160: 3146 5a3d 792f dd3c 1273 1dbc 00c1 c3ba
00000170: f5ee 4d3c 2846 5a3d a92c 31bb 39fd 7c3c
00000180: 9589 073b cb4b 17bc daed e23c 6673 d7bb
00000190: d146 0e3c 7fd0 d039 fb21 033c d3e2 3b3c
000001a0: 7040 fbbb 077f 2a3c f703 963c e04c 083b
000001b0: e5a3 9a3c 61e5 a0bc 0c37 f93b 13a1 493a
000001c0: 6688 c2bc 4473 85bc 6689 bd3b 7622 ea3c
000001d0: 18bb c63b 23f9 04bd 1b4f 293b 09d5 9c3c
000001e0: 09c2 ef3b 1e1e 483c 370a 58bd 9e7f b6bc
000001f0: 3e2b f4bc d0ee b93c a90c d2bb c86d a33b
00000200: 7837 63bd 0d96 483c da94 9a3b 75d4 be3c
00000210: 65ee d6bb 3dd2 abbc 442f 23bd 4173 583c
00000220: 7489 9a3c a2a8 71bc 6bdd 98bd 8902 38bd
00000230: 03cc ef3c 1e88 d13c 4433 8cbc 46d1 c43b
00000240: 9444 15bd da43 333c 9a77 493c 9b94 cabc
00000250: b357 6bbd 0c9d dbbc 1c50 bc3c 9a2a bb3c
00000260: 0a4c 0abd d01a 69bd 7455 7fbc 8bc4 063d
00000270: cdd5 1a3c 98f6 f33a 2b14 31bd 705a 763b
00000280: 900e 313d d128 30bc ef31 aebc 4948 87bc
00000290: 66d6 8abc 8035 0c3d 90a0 23bb 2ef8 46bc
000002a0: 9231 3abd 4655 c9bb 4afc 5abb 4c04 823c
000002b0: de67 efbb d09f a3bc 66e4 1bbd 18f3 d03c
000002c0: 8fba 32bd 6683 a33c b665 72bd 9340 83bd
000002d0: 3610 81bc ec23 b4bb f31d 02bd 398b 9dbd
000002e0: 9fce 3bbd 7f83 16bc 5791 d13b f6d6 46bc
000002f0: 4a14 17bd 3d81 c0bc 1ff2 9d3b 76e8 843c
00000300: 997d 553c cd9d 86bc dd88 0c3d f4e9 893c
00000310: a595 a03c 3e24 d83c 3596 d4bb a2b5 843d
00000320: 8735 7e3c 4da6 c23c 9b52 7e3d d111 7d3b
00000330: 0f30 2a3d d3b4 8f3c b679 a63b 80bb 5e3d
00000340: e87b 19bb 2c7e 5e3d 556e 8d3c 2c36 1f3d
00000350: e831 303d 2e1c 673c c250 393d 890d b23c
00000360: 3847 f23c ca26 303d 6502 1c3c 788b 193d
00000370: 6d7d 733c aede 8d3c 101f e5ba f51b 84bb
00000380: f54b 643d 2bc8 6f3b a4a0 803c 29ea c73c
00000390: 74a4 96bb eb38 693d 311a 80bc 0673 813c
000003a0: b06c b33a 04f6 8bbc feb5 e03c 165b 973a
000003b0: b341 a33b d78b 97bc eb48 26bc 5d49 c63c
000003c0: bdbf 10bc 3b7a 83bb be23 1dbd a653 29bb
000003d0: 5556 84bc ba35 493a 78d9 1abd 0818 253d
000003e0: ae48 aabb 3c3d 9cbb a30d 87bd a51a 94bd
000003f0: 70c1 30be 4549 053d 7fab 9a3d 00b9 8f3d
0.010512168 0.002129751 -0.002982769 0.0014710806 -0.05515442 -0.009374398 0.0029251936 -0.020954868
-0.022066997 -0.03390095 -0.014053456 -0.0106345285 -0.01861057 0.029421236 -0.005504326 -0.0029729311
0.0033545976 0.011587631 -0.010251062 -0.050217826 0.0020179679 -0.030327946 0.019983858 -0.063402
-0.04438562 -0.00871021 0.022856569 -0.016171558 -0.01568338 -0.065572955 -0.009616276 -0.0066025485
0.005608366 -0.03805375 -0.063663185 0.00896244 -0.021360341 0.05039896 -0.052258667 -0.060717013
-0.01786483 0.007861072 0.011527529 -0.037189603 -0.047185402 0.0063386266 -0.01752258 0.025316168
-0.06781118 -0.062455468 0.0034231308 -0.03458397 -0.017963933 -0.038694877 -0.01532743 -0.010162086
0.0032120731 -0.019371668 -0.03387001 -0.07271575 0.036786396 0.015216315 0.021564707 -0.04514513
-0.08826007 0.015419572 0.0064726714 -0.009118047 -0.09273305 -0.06515611 0.018115882 0.14600646
0.046065044 0.21774238 0.29159096 0.013763845 0.20287861 0.087165 0.27456284 -0.0059669637
0.012963582 -0.0041229688 -0.018771466 0.060515508 0.00532498 -0.023097008 -0.0037205878 0.033989567
0.053289596 0.027000176 -0.009609954 -0.0014934838 0.012569179 0.053289562 -0.0027034676 0.015441232
0.002068137 -0.009234379 0.027701307 -0.006575036 0.008683876 0.00039828193 0.008003707 0.011467653
-0.0076675937 0.010406262 0.018312437 0.0020797774 0.01887698 -0.019640626 0.007605439 0.00076915434
-0.02374668 -0.016290314 0.0057842014 0.028580885 0.006064784 -0.032464158 0.0025834504 0.019144552
0.007316832 0.012214212 -0.052744117 -0.02227765 -0.029805776 0.022696882 -0.0064102006 0.004987452
-0.05547282 0.012242806 0.0047174515 0.023294667 -0.0065591806 -0.020974273 -0.039839998 0.013211072
0.01886437 -0.014749678 -0.07464107 -0.044924293 0.029272085 0.025577601 -0.01711429 0.0060063927
-0.036442354 0.01094147 0.012296582 -0.024729064 -0.057456683 -0.026808284 0.022987418 0.022847462
-0.033763923 -0.056910336 -0.015584338 0.03290228 0.009450388 0.0018612919 -0.043232124 0.0037590526
0.04322678 -0.010751919 -0.021264045 -0.01651396 -0.016947936 0.03423071 -0.002496753 -0.012144132
-0.04545743 -0.0061441986 -0.0033414536 0.01587119 -0.007306083 -0.019973665 -0.038059615 0.025506541
-0.043634947 0.019960117 -0.05917903 -0.06408801 -0.0157548 -0.0054974463 -0.031766843 -0.0769257
-0.045851346 -0.009186625 0.0063954997 -0.012136212 -0.036884584 -0.023499126 0.004820123 0.016224127
0.013030433 -0.016432667 0.03431021 0.01683519 0.019602606 0.02638447 -0.0064876326 0.06479956
0.015515692 0.023760939 0.062090497 0.0038615356 0.04154974 0.017542278 0.005080427 0.054378033
-0.00234198 0.054319546 0.017264524 0.03887002 0.043016344 0.01410584 0.045243032 0.02173497
0.029574975 0.043005742 0.009522055 0.037486523 0.014861447 0.017318096 -0.0017480571 -0.004031653
0.0557365 0.0036587815 0.0157016 0.024403648 -0.004597241 0.056939047 -0.015637489 0.015801918
0.0013689008 -0.017085083 0.02743053 0.0011547531 0.004982197 -0.018499298 -0.010149221 0.024204904
-0.0088347765 -0.0040123737 -0.038364165 -0.0025837212 -0.016154448 0.00076755474 -0.03780505 0.04030612
-0.0051966524 -0.004768042 -0.06594398 -0.072316445 -0.1726129 0.03254058 0.075522415 0.07017708

encoder.0.bias f4 [18]
00000000: 2d57 eabc b8fa f9bc 69ec 923b b984 64bd
00000010: 175b 4b3e 864b f03d 46a2 ddbd b21a 64be
00000020: 797a aa3c b3a0 8f3d a023 06bd 86d5 e3bb
00000030: e1b9 4ebc 8b45 20bd 9adc 563d bb31 49be
00000040: 6d13 5dbd fbdd bf3b
-0.028606022 -0.03051506 0.0044837487 -0.055790637 0.19858967 0.11733155 -0.10821967 -0.22275808
0.020810353 0.07013073 -0.03274882 -0.006952944 -0.012617559 -0.03912882 0.052456476 -0.19647877
-0.053973604 0.0058553196

encoder.1.weight f4 [18]
00000000: 6cc6 3f3f 2d7a 6d3f 8ebd 5a3f 53ba 393f
00000010: 4e77 483f 575c a33e 1f5f 393f 0b8f 0540
00000020: 6952 4e3f 3afe 473f cda1 483f 55d4 013f
00000030: d88f 273f 43fa 183f 45a2 cd3e cc27 813f
00000040: 56ae 8d3f a55c 303f
0.7491214 0.9276455 0.8544549 0.72549933 0.78307045 0.31906387 0.7241077 2.0868556
0.805945 0.78122294 0.7837189 0.5071462 0.65453863 0.5975687 0.40162864 1.009027
1.1068828 0.68891364

encoder.1.bias f4 [18]
00000000: dea7 333d 70af e4bd b5c7 12bd 1fa2 8bbc
00000010: acc7 a93d 04f7 8bbd 5f38 27be ed6c a9be
00000020: e225 84bd 78f3 9dbd 6d5c cfbd 78b0 52bd
00000030: d054 2ebe a995 7aba 3b8a 643d 6d00 8abe
00000040: 3179 3cbe 92cd b1bd
0.043861263 -0.111662745 -0.035834987 -0.017045079 0.082900375 -0.06834224 -0.16330098 -0.33090916
-0.06452538 -0.077124536 -0.10125051 -0.051437825 -0.17024541 -0.0009559044 0.05579589 -0.2695345
-0.18405606 -0.086817876

encoder.1.running_mean f4 [18]
00000000: c844 c83f 8f5e 9dbf d90a b6bf 6167 85bd
00000010: bf3c d83d 694a 39bf 3b69 d7be 0ef5 cbbf
00000020: 97f5 19bf 5eac bfbe 028c d3be 0fb0 edbd
00000030: 9709 92bf f784 7f3f 425d 3d3f 6b13 bfbf
00000040: 418d 58bf b66f 91bf
1.564599 -1.2294482 -1.422206 -0.065138586 0.105584614 -0.72379166 -0.42072472 -1.593416
-0.60140365 -0.37436193 -0.41317755 -0.11605846 -1.1409177 0.99812263 0.73970425 -1.4927801
-0.84590536 -1.1362216

encoder.1.running_var f4 [18]
00000000: 0ec8 503c 3b29 093c 167b 053c de1d aa3b
00000010: a16e a83b 6a3c 033c 1eb4 903b dad9 2c3c
00000020: 55e0 a83b 1d26 e73b 5b7c b93b c1d9 8a3b
00000030: 1689 113c d9da 0a3c 7580 fa3b b51b 133c
00000040: a088 053c 05f2 0c3c
0.012743009 0.0083716465 0.008147022 0.0051915487 0.005140141 0.008010009 0.004416003 0.010549987
0.0051536956 0.007054104 0.0056605763 0.004237384 0.0088827815 0.008475029 0.007644708 0.008978774
0.00815025 0.008602624

encoder.3.weight f4 [9, 18, 5]
00000000: 4b77 bfbd 1fa1 3f3e 24ae 4d3d 639a bebd
00000010: a512 01bc b3f7 24bc baae 983d febf 6c3c
00000020: 47de e1bd 732f e1bc 5ad8 803d 83db 09bd
00000030: 1197 b93d 93f9 e6ba 817b 1f3d dd30 77bd
00000040: e60b 623c b62a 8d3c 1001 b3bd 24a8 f13c
00000050: 3b57 35bd f778 ad3d 52fe 0fbe 2bdd ff3c
00000060: 68a4 533d a459 513d 1504 ffbc 6905 50bd
00000070: 26ea c43d 2425 9e3c eeea 443d e9b9 a33d
00000080: 1b57 c6bd b72e 01be 5c67 9a3d 6e07 573c
00000090: 31d7 e1bc 09b5 803d efed 8abc e449 fabc
000000a0: 9082 ed3d e84f 053e 7bdb e6bd a0cd ba3d
000000b0: 1d00 8c3d 5510 e5bc 4134 52bc 23e4 533d
000000c0: 2f6a 22be 2bd0 e43d 7fec 803d cd34 a43d
000000d0: 88bf 2abd a028 513e 70a6 eebd 7235 ef3b
000000e0: 19c3 34bd e27f 4c3d 8305 4c3d 4047 c23c
000000f0: 2bb9 233d 3b1e b2bd 74c4 01bd f971 a53d
00000100: 56c8 993c de77 bb3d 7054 d83d 0f1e 0b3e
00000110: 8f9d 1f3e 6fff 473d 939d fdbc 9c83 783c
00000120: c48c e23c f22c d03d 10e0 5a3c 7be8 b93b
00000130: 05df be3d f583 733e 9df2 06be 10d5 0bbb
00000140: 1072 723d ca87 573d b89e 553d 0a28 2f3d
00000150: d534 753d dbbe 28bb 4f59 273e a93f 45be
00000160: 9ea3 933c 2521 74bc 6e61 593c 1041 073a
00000170: 2355 c9bc 60e5 b93b 0432 3c3c 80da 813c
00000180: 3e1c ebbc d6ee a2bc 7f87 a43d 9d91 523d
00000190: 5221 1c3c 4a8c 513d 6da2 563b 4e74 503d
000001a0: 3463 f13c ea5c d53c cb48 75bc f395 aabb
000001b0: 7fe3 ed3c 4833 0f3d 2726 43bb 2742 0a3d
000001c0: eee0 5cbd c824 013b 4f53 093d 757a a5bc
000001d0: 07a2 03bb 55f5 5ebc c085 453d 9832 993c
000001e0: b85c f93b 657b 653d b73b 2a3c 77af 473d
000001f0: 998e 90bc f9c1 413d 1b0c 9a3d 1cc9 0e3d
00000200: 31f4 ca3d 3c6a 24bd b90e 37bd 3658 03bd
00000210: 5eb8 593d 9508 dbbc 1473 f63b a41c dd3c
00000220: 4325 a03c b75d 62bb 8a5a 403c 79ab 903c
00000230: 5846 debb 8dc9 c53b 9558 523d 2e55 083d
00000240: 05a8 953b 06b2 d83b b413 113d f0e5 90bc
00000250: 323b b13c a723 993c 1f3c b4bc 8954 ae3c
00000260: 33c4 90bd f745 08bd f8c0 313d 684e 0fbd
00000270: 999a 4fbc c828 b93c f4bd 123a c481 adbb
00000280: a98b 153d 2e5d 5f3d 37ae cc3b 1743 3abd
00000290: c3b0 1abc 5a0c 36bc e7b7 a3bc 76d7 fdbb
000002a0: 50f5 d23b dec4 8fbc c49c efbb 82ba 1abd
000002b0: 7e86 ce3d 0a90 7b3d 4ce6 3cbd 45b2 1bbd
000002c0: f62b 5ebd dbc7 8fbc a117 9cbd 2390 633d
000002d0: a51d ddbd d633 28bd 2929 a83d b1a2 b1bb
000002e0: ef33 cdbd 0ae2 693d af64 4a3d f933 e13d
000002f0: 58a8 543d a3a5 a1bd 574d 17bd c08a d0bd
00000300: 195e 79bc 23f6 b8bd e76c 58bd e520 60bc
00000310: 9e17 063e c8bb 283c 8e91 06bd b7ac 673d
00000320: 177a 56bd 061b 403d b2a8 a13c 0afb 90bd
00000330: 30ce 853d 7bca 98bb 6a1d 93bc 0d30 34bb
00000340: 983c fe3c f9a4 b63d 736f a9bd 1767 e3bd
00000350: 3a17 e8bd 1f87 143d 13c0 893b 45fe 79bd
00000360: 9c2d 02ba 40f0 ee3c a641 6dba 14a2 6fbd
00000370: d2a9 e63d a8ad 4abd 3c7c 803b f77c f83c
00000380: 5272 a93d 24ef 11bd bc68 a33d 2696 ce3c
00000390: 09c7 0abd 711e 8e3d 5599 aebb df0c 59bd
000003a0: 242b 813d f88b 0e3e 26a2 723d 2153 45bd
000003b0: fe63 913d 6576 ab3c be4e 483c d1af 8d3d
000003c0: eeef 37bd c944 72bd 6ca9 d5bd b673 7d3c
000003d0: fafa 213d b87f 59bd b37f c2bd bc56 d53c
000003e0: a7c5 9b3d dbed e13d cc59 30bd 279c 893d
000003f0: 62ac c13d fe6e a2bc 439f 063d f56f b63d
-0.09348925 0.18713807 0.0502149 -0.09306791 -0.00787798 -0.010068822 0.074552014 0.014450071
-0.11028724 -0.027488446 0.06291266 -0.03365661 0.09062017 -0.0017621986 0.038936142 -0.060349334
0.013796782 0.01723228 -0.08740437 0.029499121 -0.044272643 0.08470338 -0.14061859 0.03123339
0.051670462 0.05111088 -0.031129876 -0.05078641 0.09614973 0.01930482 0.04807561 0.07994444
-0.09684583 -0.12615477 0.075392455 0.01312433 -0.027568432 0.0628453 -0.016959159 -0.030552812
0.115971684 0.13018763 -0.11272331 0.09121251 0.06835959 -0.02796189 -0.012829841 0.05173124
-0.15860818 0.111725174 0.06295108 0.080178834 -0.041686565 0.20425653 -0.11652839 0.0073000723
-0.044131372 0.049926646 0.049809944 0.023715615 0.03997151 -0.08697172 -0.031681493 0.08078379
0.018772285 0.09153722 0.1056298 0.13585685 0.15587448 0.048827585 -0.030958926 0.015168097
0.027655013 0.10164823 0.013359085 0.005673466 0.09319881 0.23780806 -0.13178487 -0.0021336712
0.05919081 0.052619733 0.05215332 0.042762794 0.059864838 -0.0025748524 0.16342662 -0.19262566
0.018022355 -0.01490048 0.013267858 0.00051595364 -0.02457673 0.0056730956 0.011486534 0.01585126
-0.02869999 -0.019889276 0.08033656 0.0514084 0.009529429 0.05115918 0.0032750622 0.050892167
0.029466249 0.026045281 -0.0149709685 -0.0052058636 0.029039143 0.034961015 -0.002977738 0.033754494
-0.053925447 0.0019705761 0.033526715 -0.020199994 -0.002008559 -0.013608296 0.048223257 0.018700883
0.00760993 0.05602588 0.010390214 0.04875132 -0.01764612 0.047304127 0.0752184 0.03485976
0.09909857 -0.040140375 -0.044691775 -0.032066546 0.053154342 -0.02673749 0.0075210426 0.026991196
0.019549018 -0.0034540722 0.011740336 0.01765989 -0.006783288 0.0060359896 0.05135401 0.03328436
0.0045671486 0.006613019 0.03541918 -0.017687768 0.021634672 0.018693758 -0.022001324 0.021280544
-0.07068672 -0.03326985 0.04339692 -0.034986883 -0.012671136 0.022602454 0.0005597763 -0.0052950103
0.036510143 0.054532222 0.006246354 -0.045474138 -0.009441557 -0.011111343 -0.019985152 -0.007746632
0.006437935 -0.017549928 -0.007312389 -0.037775524 0.10084246 0.061416663 -0.046118066 -0.038011808
-0.054241143 -0.017551353 -0.07621694 0.05555738 -0.1079667 -0.04106506 0.08210976 -0.0054210057
-0.10019671 0.057100333 0.049412426 0.10996241 0.051918358 -0.07892921 -0.03693899 -0.101827145
-0.015220189 -0.09031322 -0.052838232 -0.013679718 0.13094947 0.010298677 -0.032853656 0.056561198
-0.052362528 0.04690077 0.01973376 -0.07079132 0.06533468 -0.0046628094 -0.017958362 -0.002749446
0.031034753 0.08918185 -0.082732104 -0.11103647 -0.11332555 0.036261674 0.0042038052 -0.061033506
-0.0004965903 0.029167295 -0.0009050615 -0.05850418 0.112628594 -0.049482018 0.00392106 0.030333025
0.08273758 -0.035628453 0.07978961 0.02521808 -0.03388122 0.069394 -0.005328337 -0.05299079
0.063070565 0.13920581 0.059236668 -0.04817498 0.0709915 0.020930478 0.012225805 0.069183
-0.04490655 -0.05914763 -0.10432705 0.015469482 0.03954599 -0.053100318 -0.09497013 0.026042335
0.076060586 0.110316955 -0.043054387 0.06719237 0.094567075 -0.019828316 0.032866728 0.08908073

encoder.3.bias f4 [9]
00000000: 0b0b ba3d e96d bc3d a54b 093e 0660 993c
00000010: 25fb d83d 402f 9e3d 0337 543d ccd7 e73d
00000020: a44f adbd
0.090841375 0.09200651 0.13407762 0.018722545 0.10594777 0.07723856 0.051810276 0.11320457
-0.08462456

encoder.4.weight f4 [9]
00000000: 883c 2d3f 9a1f 2e3f f5fc 463f 0bc3 dd3e
00000010: fa19 183f e856 1e3f 1634 283f 207a 3a3f
00000020: 0a6d 323f
0.6767049 0.6801697 0.7772973 0.43312868 0.5941464 0.6185136 0.65704477 0.728426
0.6969763

encoder.4.bias f4 [9]
00000000: 4a0d a8bd 132c 49bd f7f1 42bd c367 be3d
00000010: b78c 6cbd 2d8a d4bd 6906 733b e4d9 6cbd
00000020: dc71 d1bd
-0.0820566 -0.049114298 -0.047594037 0.09297135 -0.057751384 -0.103779174 0.0037082678 -0.057824984
-0.10226795

encoder.4.running_mean f4 [9]
00000000: 6a68 babd c47d 9abb 0c07 9cbc 091d 8f3d
00000010: 23db a13d 7952 9a3c 9d79 c6bc e4f3 103e
00000020: 00c9 0bbe
-0.09101947 -0.0047146995 -0.019046329 0.0698796 0.07903125 0.018838154 -0.024227912 0.14155537
-0.13650894

encoder.4.running_var f4 [9]
00000000: 849e 8e3f ceda 143f 5220 4f3f 769b 883f
00000010: 0b11 493f ba5e 293f 203c d53e 22d5 4e3f
00000020: c082 5a3f
1.1142125 0.5814637 0.8090869 1.0672443 0.7854163 0.66160166 0.41647434 0.80793965
0.8535576

encoder.6.weight f4 [9, 9, 7]
00000000: 4d65 68bd d89d 953d e153 79be 8d4c c53e
00000010: 8b9b bc39 585f 15bd 0701 033c 5645 8c3d
00000020: 923f ba3d c7ca 323e c553 883d 65d5 88bd
00000030: 73f2 7fbd cc15 f7bc 9abf f73d f93f 203d
00000040: b8f1 11be 9bae c8bc 33b5 eb3d 0930 853d
00000050: b179 a038 4fc4 e73d bd0d a6bd 71f2 aa3d
00000060: 1026 eabd a192 2e3d f46c d7bc 6487 b93d
00000070: d333 02be ef6b 093e fc87 22bd 3d2f 8b3c
00000080: d482 d3bb a7a0 8f3d 1e87 1e3c a867 73bd
00000090: 8e64 283e 553e 30bd c656 95bd ef3b aa3c
000000a0: 7005 e7bb 8d8a 43bd 64bb 73bd cd73 013e
000000b0: b90a 05be 5441 573b 643a 013d af78 35bd
000000c0: 3d1f 27bc 0e00 f9bd f50b 27be 2792 18bd
000000d0: 4ff9 9839 dfc2 703e d9f5 8cbb c5fe 2a3c
000000e0: 50af 913c ffa3 273c 03f4 87bc 137a b5ba
000000f0: 2651 26be fc19 d5bc 7669 6a3c 7553 153c
00000100: 729b b7bd 07d3 e83d f5e5 dcbd 12fd 0a3e
00000110: e2cd 063d e114 d2bb 981b b7bc 32a9 083d
00000120: 377d ca3c 4882 c83d 535b ca3d a802 b7bd
00000130: 3a00 2fbb 2d56 73bc 13bc 8fbc c508 82bd
00000140: d055 88bc 55cd 393c fe70 023e f83c 20bc
00000150: d57d 2e3d 76f6 c03d a6c1 ecbd 3114 4a3d
00000160: 4c2d 033c 9bfa 51bd 6f86 e6bb 811d 1ebc
00000170: a2e8 39bd 0137 1b3d e227 74bd b346 363e
00000180: 81ba 1c3e cba0 0bbd 8ed9 bd3a 67d8 dabc
00000190: 56dc 693d 8f6d c1bc a09e 3abe 81fb 88bd
000001a0: df87 073b 7dd0 10bd 5e08 41bc d7de 633d
000001b0: c861 453d 87e6 f13c 1186 5bbd b07e 8b3c
000001c0: ddc3 a33c a453 9f3d f8f3 2cbd 92b9 193e
000001d0: afbd f1bc 94eb b2bd 2223 063d 4447 083d
000001e0: 6369 29be 1b86 37bd d759 313e e8d5 b9bd
000001f0: 2a63 023c 8309 92bc 7295 6d3b c8f2 6cbd
00000200: 5597 933d 50cf 72be 1606 a73e 5d39 0f3d
00000210: 6801 323e b47c 1ebc 9091 ba3d f559 76bb
00000220: 0656 be3d 36cc b63d fda2 1bbc 5e39 b1bd
00000230: c044 4dbb 0143 513d 8c4c c73c 4203 ed3d
00000240: 7c1c a03d 51bd a4bd 0f27 f6bd 03a6 b7bb
00000250: 5328 68bb 6842 5b3c 9f77 f23c a7bb 883c
00000260: 70d1 a03c a361 e43d 1005 643c 0c0b f83c
00000270: ede6 72bd f535 9bbb ce71 583b d385 8a3d
00000280: 6247 06be 08b7 b13c 0261 72bb 9601 5fbc
00000290: 368c e9bd cfa5 2c3e 0720 1a3d 884b 6b3d
000002a0: f174 313d 8016 613c 7b7f 17be efad 2c3e
000002b0: 3c22 0d3c eafe f5bd 241e a73d d383 3abd
000002c0: a983 eebd 1aaa 49bd 0336 37be cca1 7abe
000002d0: 2742 b3bb 4f6f 8f3d f9c4 8a3c eeed 4ebd
000002e0: 62be 853e 3a59 28be c132 583d 740c 24be
000002f0: 1f48 e9bc 68b2 d43c 5177 b8bb e7b4 3a3d
00000300: f57c ac3d 7109 0bbe bf5f dcbd 7c74 003d
00000310: f883 083c 4f32 91bd a2cb b43b c5c3 5ebc
00000320: 4bb4 46be d006 aabd 6614 5ebd 53a5 97bc
00000330: 96c1 9cbd 5862 46bd e077 563c 0902 2cba
00000340: 5306 8ebc 79d0 233d 4619 033d 77f2 a0bd
00000350: eee1 273e ce1b 55bd a2c7 c0bb 5ad8 29bd
00000360: 0a54 70bc b755 febc 29ef 673d 8220 683d
00000370: 8499 553e a1ed 55bd 069c eabd 2ccc 7fbd
00000380: b238 ee3a d496 debd 4e16 e53d 1c01 e4bd
00000390: 05dc c9bd 6484 153e 99fb b23b 2a7d babd
000003a0: 415c 293e 375b 9b3d 6a34 c43c 9b8d 10bc
000003b0: ae90 9b3d aae7 073d 5db4 893d bf1d c43d
000003c0: 5d10 c33d 1389 32bd b5b5 40be 8934 05be
000003d0: 5e81 6f3d 276e 4b3d 5a80 9dbe 2990 673e
000003e0: c69d 303d c4d8 d7bd b7e8 a03d a64d 8a3c
000003f0: f22a f9bc 39b7 62bd 6f10 b4bd 0638 1d3e
-0.056737233 0.07305497 -0.24348404 0.38534966 0.00035974043 -0.03646788 0.00799585 0.06849162
0.09094156 0.17460166 0.06656603 -0.06681327 -0.062487077 -0.03016176 0.12097092 0.03912351
-0.14252365 -0.02449732 0.115091704 0.065033026 7.652061e-05 0.1131674 -0.08108089 0.08347023
-0.11433041 0.042620305 -0.02629707 0.09059027 -0.12715082 0.1342008 -0.039680466 0.016990298
-0.006454805 0.07013064 0.009675769 -0.059425026 0.16444609 -0.043028194 -0.07291941 0.020780532
-0.0070502087 -0.047739554 -0.05950488 0.1264183 -0.12992372 0.0032845335 0.031549826 -0.044304546
-0.010200319 -0.121582136 -0.16313155 -0.037248757 0.0002917745 0.23511837 -0.0043017683 0.010436718
0.01778379 0.010231971 -0.016595846 -0.0013845585 -0.16241893 -0.026013367 0.01430737 0.009114136
-0.08965196 0.11368375 -0.10786048 0.13573101 0.03291119 -0.0064111804 -0.022352025 0.033364482
0.02471791 0.09790474 0.098807 -0.089360535 -0.0026703016 -0.014852089 -0.017545735 -0.06349329
-0.016642481 0.011340459 0.12738416 -0.009780161 0.04260047 0.09422009 -0.11560373 0.049335662
0.008006405 -0.051264387 -0.0070350687 -0.009650589 -0.04538787 0.037894253 -0.059608348 0.17800407
0.1530552 -0.03408889 0.0014484392 -0.026714517 0.057094894 -0.023611812 -0.18224573 -0.066885956
0.002068035 -0.03535508 -0.01178178 0.05563244 0.048188955 0.02952887 -0.053594653 0.017028183
0.019990856 0.07779625 -0.042224854 0.15012196 -0.029509393 -0.08736339 0.03274835 0.03327109
-0.16544108 -0.044805627 0.17319427 -0.090740025 0.007958213 -0.017826801 0.0036252406 -0.05784872
0.07206599 -0.23711896 0.3262183 0.034966815 0.17383349 -0.009673286 0.09109795 -0.003759024
0.092937514 0.08925669 -0.009499309 -0.0865352 -0.0031321496 0.05108929 0.024328493 0.11572887
0.07817933 -0.08043922 -0.120191686 -0.005604507 -0.0035424426 0.013382532 0.029598055 0.016691042
0.019631118 0.11151435 0.013917223 0.030278705 -0.05930226 -0.004736657 0.0033026817 0.06763806
-0.13113168 0.021693721 -0.003698409 -0.013611218 -0.11403696 0.16860126 0.0376282 0.05744508
0.043324415 0.013738275 -0.14794724 0.16863225 0.008614119 -0.120115116 0.08160046 -0.045535874
-0.11646206 -0.049234487 -0.17891698 -0.24475783 -0.0054705325 0.07003652 0.016939627 -0.050519876
0.26121813 -0.16440287 0.052782778 -0.16020375 -0.028476773 0.025963977 -0.005629458 0.04558268
0.08422271 -0.1357782 -0.107604496 0.03136109 0.008332245 -0.07089674 0.005517439 -0.01359648
-0.19404714 -0.08302081 -0.054218672 -0.01851145 -0.07654111 -0.04843363 0.013090104 -0.00065615826
-0.017337 0.039993737 0.032006525 -0.078587465 0.16394779 -0.05202847 -0.005883173 -0.041466095
-0.014668474 -0.031046731 0.056624565 0.056671627 0.20859343 -0.052228574 -0.1145554 -0.062450573
0.0018174856 -0.10868612 0.11185895 -0.11133024 -0.098564185 0.14601284 0.0054621217 -0.091059044
0.16539098 0.07585757 0.023950774 -0.008822824 0.07595955 0.033179916 0.06723855 0.09575986
0.095246054 -0.043587755 -0.18819316 -0.13008322 0.058472984 0.049665596 -0.30761987 0.22613586
0.043119214 -0.10539392 0.07856887 0.016882729 -0.030415986 -0.055350516 -0.08792197 0.15353402

encoder.6.bias f4 [9]
00000000: 08a9 bcbd 05e9 473b 2d48 44bd ce69 5d3e
00000010: c375 a5bd 9d7f 8cbd 31c3 b5bd ce80 b9bd
00000020: 0553 09be
-0.09211928 0.003050388 -0.047920395 0.21622393 -0.08079102 -0.06860278 -0.088751204 -0.09057771
-0.13410576

encoder.7.weight f4 [9]
00000000: 4832 2a3f da2c ac3e 3e77 eb3e f372 c83e
00000010: d0d5 e83e ee95 c93e 1df1 aa3e eb37 483f
00000020: 0480 363f
0.66482973 0.3362797 0.45989412 0.391502 0.45475626 0.393722 0.3338708 0.78210324
0.71289086

encoder.7.bias f4 [9]
00000000: 7a76 b2bd c77a 0a3d 6770 f2bd b731 c43d
00000010: 4f16 31bc bdd1 2cbc 614a 53bd ed04 6dbc
00000020: 64fb 3cbe
-0.08714004 0.033808496 -0.11837845 0.09579795 -0.010808541 -0.010548052 -0.051584605 -0.014466506
-0.18455273

encoder.7.running_mean f4 [9]
00000000: e541 8dbd d1f2 df3c c986 b2bd 11ea d03d
00000010: 755f 9ebd eb13 1dbe 8633 3ebe c4c1 21be
00000020: f9ae 1dbe
-0.06897334 0.027337464 -0.087171145 0.102008946 -0.07733051 -0.1533963 -0.18574342 -0.15796572
-0.15398778

encoder.7.running_var f4 [9]
00000000: 36f1 803f 6747 fe3e f66c 823f 1962 1f3f
00000010: 74d0 6d3f 389e e43e 6265 bb3e 71a7 873f
00000020: 0a58 693f
1.0073612 0.4966385 1.0189502 0.6225906 0.928962 0.4465196 0.36600786 1.0597974
0.9114996

decoder.0.weight f4 [9, 9, 7]
00000000: bd14 e5bc 4cd0 313d a1c4 45bd 3471 b2b9
00000010: 4b3f 1c3c b016 55bc 525c a93b 78a9 9e3d
00000020: b442 c9bd f41e a4bb 754b 7f3d 6c96 903c
00000030: 5460 5e3c b6b9 453c fd5e 443d e6f5 493b
00000040: 4ee2 11bb 61a0 4b3d 60d0 c5bd 01d7 50bc
00000050: e77c 81bc 0879 693c 04de 7b3c 8a67 babd
00000060: 2824 863d ef29 9a3d f234 8ebc 44d9 413c
00000070: f258 693c 28e6 dd3c 8183 bb3d 20ed efbd
00000080: e554 fd3d 74bf aebd 9c82 66bb 03f2 23bb
00000090: efc4 303b 812c fabd c20c 1abd f120 2f3e
000000a0: 7465 edbc 2498 703d cb70 c5bc a489 d23d
000000b0: e23a eebd 59a8 163d f2d2 fb3d d2c8 e2bc
000000c0: 2a53 90bd 6829 fbbc ce37 dd3c f31d 023e
000000d0: 312b e1ba cf5f f9bd f680 f83b b367 a2bc
000000e0: 1bcc adbc 0bb1 be3c 6353 a1bc 37d3 243d
000000f0: 2c28 bb3c ee49 07bc 1f40 b53b 58fc c93b
00000100: 9f22 dd3d 92eb 143d dfdd f0bd 6fb6 19bd
00000110: 0cc0 0d3e 82ca 35bc 76e2 283d 4a67 a93a
00000120: 3a3e c63b c28c 063e 7a06 e4bd bdf7 2c3e
00000130: a09c 843d 0e1d 82ba d537 3f3d f307 073d
00000140: b2ff 93bd 8098 023e 8688 15be cb20 d3bd
00000150: ca51 e63c 1e25 2f3d 1239 12bd 3540 033d
00000160: c57a ba3d 4fe6 82bd a208 34bc 4d40 a5bc
00000170: a872 ca3d f620 933d a299 513d 6828 e8bc
00000180: 6921 8abd 2309 efbc 5ade 86bc 6cc0 17be
00000190: aa20 11bc 6942 a1bd 6292 d6bd 8cea bf3d
000001a0: 4fb7 b8bb ccd5 c5bd 8efd 263d 294a 543d
000001b0: a062 abbd 6071 b3bc fd7e 953d 7423 b93d
000001c0: bf74 cb39 fcb5 a03d 0231 d43d 1088 4b3e
000001d0: 2ffd 73bc d1c3 d7bc 66f3 663d c58b 293c
000001e0: 5ae9 553c 64e1 afbd 38cd 813d 6609 fd3c
000001f0: 76a9 5f3d 4355 94bb e001 18bb 3b55 b43b
00000200: 21d6 8fbd 20d7 b0bd 400a 9b3d e7b7 0b3d
00000210: 9b91 36bd 2926 b13c 8c73 7dbd 8c79 5ebd
00000220: 354c df3a f943 88bc d24a 4a3d 3f81 d13d
00000230: 190f 483c 548f f6bb c8c6 19bd 72ab 57bc
00000240: ca30 15be f1ab 763d 42ab c73d f558 a1bc
00000250: d22c bbbc 0e51 573d 684a df3c 3488 a5bc
00000260: 4c9c bebd f440 adbc cd92 40bc f704 babb
00000270: 818e 50bc 6b18 b93d bc4a a8bc f6cc b33d
00000280: c6f5 aebd d7f1 0c3c c0f3 b03c ea29 23bd
00000290: e051 92bd 18a1 a63d 15b5 803d 7c45 53bd
000002a0: 0a28 253c 6871 2ebb 6560 e83b 28d2 fb3d
000002b0: ed9d 0a3d 3baf 5cbb 8317 753c 2fe9 2abb
000002c0: 677e 9e3b 577c 37bc ae56 0dbe cff0 d4bd
000002d0: 8287 2a3e c9c6 063c 70ed 0bba 4d98 933b
000002e0: 68d7 9ebd f54c 283d 1fd3 3138 6596 9f3c
000002f0: 70c6 fa3b b03a df3b 82db 7f3d 2bbd 87bd
00000300: 9ff2 7ebc a726 dd3d 9553 01bd 7a98 c53c
00000310: 92bf 2abd 4413 2b3c f7e5 d33d 985d febd
00000320: daac 873d 4bae e13c fca2 443d 2aa7 a9bd
00000330: f1be 4f3d 54ae c53c a7bd 3f3d 0909 a33c
00000340: 33e5 873c 12b2 043d 9e97 0f3d a14a ce3c
00000350: d225 e9ba 74cf 473d de0c d6bd 35d5 42bd
00000360: 8ad0 1e3d 8cfc 43bd 60fd 803d 9eee 97bd
00000370: 4724 d7bd f2d4 5e3d aa23 9f3c 910a 233d
00000380: b75c c3bd 82cc b1bd 30c8 b43d 0bff 8bbd
00000390: d564 02bc af95 9738 053e 5c3d 419e a5bd
000003a0: d736 8e3d a0ef 46bc 2a52 323d 8a9a 9a3c
000003b0: 9cd6 0ebb bccd da3d 280c 673c 84a8 bd3d
000003c0: 9e7d 9a3c 92d5 7c3d 60a1 52bc cbf9 e73d
000003d0: 377d 1d3c 62dd 513c fc74 55bb 7b44 f3bc
000003e0: cc19 703d 89e7 a9bd 96b2 583b 3f0c 063d
000003f0: cced a6bb 6df9 403d 5076 8b3c 3f98 823d
-0.02796399 0.043411538 -0.048283223 -0.0003403515 0.009536575 -0.013005897 0.005168476 0.07747167
-0.09827176 -0.0050085727 0.06232782 0.017649852 0.013572771 0.012068203 0.04794215 0.0030816733
-0.0022260132 0.049713496 -0.09658885 -0.012746573 -0.015806628 0.0142500475 0.015372757 -0.0910178
0.06549865 0.075275294 -0.01735923 0.011831585 0.014242398 0.027087286 0.09155942 -0.1171515
0.12369708 -0.085326105 -0.0035173064 -0.0025016076 0.002697285 -0.1221552 -0.037609823 0.1710241
-0.02897904 0.058738843 -0.024101635 0.10280159 -0.11632325 0.036781643 0.12296094 -0.02768365
-0.07047112 -0.030659392 0.027004149 0.12706737 -0.001717901 -0.12176477 0.0075837327 -0.019824838
-0.02121549 0.02327778 -0.019693082 0.040240493 0.022846304 -0.008257372 0.0055313255 0.006164115
0.10797619 0.03635747 -0.117610686 -0.037527498 0.13842791 -0.011095645 0.041231595 0.0012924459
0.0060498985 0.13139632 -0.11134048 0.1689138 0.06475186 -0.0009926872 0.046684105 0.032966565
-0.072265044 0.12753487 -0.14602861 -0.10308989 0.028115172 0.042760007 -0.035698958 0.032043654
0.09105448 -0.06391584 -0.010988386 -0.020172263 0.0988515 0.07184021 0.051171906 -0.02833958
-0.06744654 -0.029179161 -0.016463447 -0.14819497 -0.008857885 -0.07873995 -0.10477139 0.09370908
-0.0056370865 -0.09659919 0.040769152 0.051828537 -0.083684206 -0.021904647 0.07299612 0.09039965
0.0003880616 0.07847211 0.1036091 0.19876122 -0.014891907 -0.02633849 0.056384467 0.010348265
0.013056124 -0.08587912 0.063379705 0.03088827 0.05460497 -0.0045267656 -0.0023194477 0.0055033243
-0.07023264 -0.08634782 0.075703144 0.03411093 -0.044572454 0.021624641 -0.061877772 -0.054315135
0.0017036261 -0.016633974 0.04938776 0.1022973 0.012210631 -0.0075244103 -0.03754309 -0.013163434
-0.14569393 0.06022257 0.09749462 -0.019695738 -0.02284852 0.052567534 0.02725716 -0.020206548
-0.09307155 -0.021149136 -0.01175375 -0.0056768614 -0.012729288 0.090378605 -0.020543449 0.087793276
-0.08542971 0.008602581 0.021600604 -0.039834894 -0.07144523 0.08136195 0.06284539 -0.051579937
0.010080347 -0.0026617888 0.0070915692 0.122959435 0.033842016 -0.0033673781 0.014959219 -0.002607893
0.0048368457 -0.0111990785 -0.13802597 -0.10397493 0.16653255 0.008226105 -0.000533781 0.0045042397
-0.07755929 0.041089017 4.239671e-05 0.019480893 0.00765305 0.006812416 0.0624652 -0.06627878
-0.015560775 0.10798388 -0.03157385 0.024120558 -0.041686602 0.010441605 0.10346597 -0.12420195
0.06624766 0.02754893 0.048006997 -0.08283837 0.050719205 0.024130978 0.046811726 0.01990177
0.016588783 0.032396384 0.035056703 0.02518207 -0.0017787761 0.048781827 -0.10451673 -0.04756661
0.038773097 -0.04784827 0.062983274 -0.074185595 -0.10504966 0.0544023 0.019426186 0.039805
-0.09539168 -0.08681585 0.08827245 -0.06835755 -0.007958611 7.228122e-05 0.053770084 -0.08086825
0.069440536 -0.012142092 0.04353539 0.018872518 -0.0021795398 0.10683772 0.014102019 0.092606574
0.018858727 0.061727114 -0.012855858 0.11326941 0.009612373 0.012809129 -0.0032570949 -0.02969574
0.05861835 -0.08296115 0.003306543 0.032726523 -0.0050942656 0.04711287 0.01702419 0.06376695

decoder.0.bias f4 [9]
00000000: bc67 fc3d ff51 a4bd d635 3c3c 2bf3 40bc
00000010: 2d1e a2bd 0d35 253d 089b 91bd 392b 1dbd
00000020: ed9c d93d
0.12324473 -0.08023452 0.011487445 -0.011776726 -0.07915912 0.040333796 -0.07109648 -0.0383713
0.10625634

decoder.1.weight f4 [9]
00000000: 6bf2 513f 9e77 783f 024a 553f e658 423f
00000010: f471 293f 0c8b 163f 55bd 6a3f 3f12 3f3f
00000020: a29f 813f
0.82010525 0.9705752 0.8331605 0.759169 0.66189504 0.5880592 0.9169515 0.74637216
1.0126841

decoder.1.bias f4 [9]
00000000: d405 59bd 4294 8bbd 7a34 a0bd 8a7a 3bbd
00000010: c6a4 92bd 2b62 b9bc 4c55 4cbd f5b9 78bd
00000020: 94a0 8abd
-0.052984074 -0.06815387 -0.07822509 -0.04577116 -0.07160334 -0.022629818 -0.049886033 -0.060724217
-0.06768909

decoder.1.running_mean f4 [9]
00000000: 5b46 a93d ec54 fcbd 925c 23bd eca5 48bd
00000010: cae6 fbbd 1e57 9f3c 17f9 b8bd edfa c9bd
00000020: a220 953d
0.08265372 -0.12320885 -0.039883204 -0.04898636 -0.12299879 0.01945072 -0.09031885 -0.098623134
0.07281615

decoder.1.running_var f4 [9]
00000000: 7050 b13e 6825 c33e 1bee be3e 1252 913e
00000010: e59d 573e d78b a03e 1792 fb3e c5f5 f13e
00000020: cc59 d03e
0.3463168 0.38114476 0.37291035 0.28382927 0.21056326 0.3135669 0.49134895 0.4725782
0.4069351

decoder.3.weight f4 [9, 18, 5]
00000000: 32b3 eb3c f749 d43d 8dbd 203e 8778 bcbc
00000010: c8cd 07ba 03f5 523d 17f9 75bd 3645 7e3d
00000020: fdb5 d93d 11fb a03d 6467 1dbd 98d7 febd
00000030: 65c7 c3bc 29e0 843d 13fc 4abe 72cf 89bd
00000040: 2695 afbd f84b 4c3d 2a40 00bd 56c2 84bd
00000050: 52d0 76bd 4285 b43c 553e a43d e696 a8bc
00000060: 392f 503c 9354 6b3d 1c21 0d3d 718f 2a3c
00000070: 5a15 9a3c 1c46 713d 9fca 223d 160f e0bc
00000080: fbf0 33bd e5e4 063d 8637 413c 6dba 16bc
00000090: 7d76 d2bd b246 8e3d f675 07ba e0b8 1cbd
000000a0: f23f 0d3a 68b5 4bbc 45ba 4b3c b33d a33d
000000b0: 4e6e 05bd e57f 96bd caee 72bd 8f72 1c3e
000000c0: b00a 41bc cbe7 3cbd f11a 503d ed05 3c3c
000000d0: 1f53 9c3c fded 733d 3003 eebc 18f3 4dbd
000000e0: f3ab 483d dbf5 60bd a40b 2d3d 8dd2 933d
000000f0: 2d90 3b3c 2ab4 d7bd 1317 083c 08cb d33d
00000100: 8f37 5abd 06cd c6bd cc45 b2bd 9609 473d
00000110: 1114 0ebe 7317 88bd 74c9 9ebd e641 0bbd
00000120: ac29 c63d d8af 50bd 0b9d c53d 8c24 173e
00000130: 0fbf 06be 832c 993c 12cd 8f3d 8d30 1fbd
00000140: 315c 4a3d 60f8 eebc b727 703d b378 343d
00000150: 334c 83bc a800 45bd 52e5 dc3d 3d4a 4cbc
00000160: 1dae ac3c 3289 203d 612e 5a3d 2b04 8d3c
00000170: 6505 22be 6410 fc3c 8455 693d 61b4 0a3d
00000180: 3ac2 f23d 2755 8a3c a4d4 313c 1c17 343d
00000190: ea19 8dbb 81f1 e33d 4bef 243e 2ac3 8cbd
000001a0: ab7f e0bd fac0 00bc 3f2b ff3d 2bd9 bdbb
000001b0: c470 95bd 3102 edbc 054e 16bd 4e79 d53c
000001c0: a35c e1bc e8a3 eb3d ceab 0f3e 85a1 013d
000001d0: 8838 733d 6ba7 b63d 9c06 593d 5a9c 61bc
000001e0: 05b3 5ebc 1c34 d43c 5032 143e b2f1 6f39
000001f0: 756b 29bd 32ff db3d 004c dabc 69a5 bb3c
00000200: a187 683d 4310 acbc edcb 9abd e4cd 3cbd
00000210: a6a3 24be 1d8b 433d 8412 b2bc 6cdb af3d
00000220: 1d21 413d 2de4 10be d51c 46be d7c0 4bbe
00000230: c674 0bbd bde1 14be 2fed 713d dff0 1f3d
00000240: 5f43 c8bc c6da 843d 46d2 a53c 3801 1dbe
00000250: e6b8 d2bd 92ba 1ebd b952 7abd 3440 71be
00000260: 79cc aabd d90d 03be acdd 80be e05a 3e3c
00000270: 252f ee3c 491f cc3c ccec 0a3c 9425 d0bd
00000280: 9f22 b33d ccfd 9cbc a37e 493d 9793 993c
00000290: fac3 12bd 2d17 103d a7bb c1bc f821 1c3c
000002a0: 7887 f2bc 39c6 ab3c da84 003e 0df6 553e
000002b0: a54c 733e 5919 6a3e ddab 7f3d 7db3 d7bc
000002c0: ad5f bfbc 1d24 f33c 3be1 95bd 10bc 80bd
000002d0: b13f 463d d89a a13c c50a a43d 091c 563e
000002e0: 1684 d9b9 7c8b 63bd 0781 ba3d 7078 963e
000002f0: 305f 84bc c362 6f3c 9f21 f8bb 945f b0be
00000300: d11b a8bd 1b2b 963d e1d4 32be 7ece 12be
00000310: e5be aabd 5507 f3bd 77a7 4bbd a97c 39bd
00000320: a716 01bb ca31 233e 3427 e03d 1413 dd3d
00000330: 86f0 f9bd 9cc7 b1bd c992 e2bc 73a2 053d
00000340: f458 4d3e c9b7 f83d 01ce 11bd adce ab3d
00000350: 24b1 46ba c13c 903e 2a12 163c be86 e5bd
00000360: 1e5e 373d ceb8 2fbe 21c6 c23c cbe0 b03d
00000370: 6287 42bd 726a ae3c 1078 d93c e41b 9e3d
00000380: 50ef a2be c62d 4ebe 31db be3d 6651 5dbd
00000390: 21a2 1ebc aaa2 953d a87d 183d 8654 ac3d
000003a0: eb78 d5bd 76b9 c4bc d6b6 dcbd 0424 b2bd
000003b0: 3dce b73e f9f8 47be da6e cfbd 278c f53c
000003c0: 0ac4 22bd 948c a33d dc4d 113e a78e a33d
000003d0: 1f31 2b3d 2683 66bd 5e70 833d e491 403d
000003e0: 9b55 433e a9af 643e 1565 21bd 4a3b 2e3d
000003f0: 197d babd 8702 fe3d 71c4 90be fe52 73bd
0.02877197 0.1036567 0.15697308 -0.02300669 -0.0005180505 0.051503193 -0.060052004 0.062077723
0.10630415 0.07860387 -0.03842868 -0.12443465 -0.02389879 0.06488068 -0.19822721 -0.0672902
-0.0857337 0.049877137 -0.03131119 -0.06482379 -0.060257263 0.022036199 0.080197014 -0.020579766
0.012706571 0.057453703 0.034455404 0.010410176 0.01880901 0.058904752 0.039744016 -0.027350944
-0.04393099 0.032933135 0.011793023 -0.009199721 -0.10276506 0.06947078 -0.0005167419 -0.038262248
0.0005388252 -0.012433387 0.012434547 0.079707526 -0.032575898 -0.07348613 -0.05930976 0.15278076
-0.011782333 -0.046119493 0.050806943 0.011476022 0.019082604 0.059553135 -0.029054254 -0.05028066
0.04899211 -0.054921966 0.04224743 0.07217894 0.011447948 -0.105324104 0.008306283 0.103414595
-0.05327564 -0.09707074 -0.08704719 0.048593126 -0.13874842 -0.066450976 -0.07753268 -0.033998393
0.09675917 -0.050948948 0.09649094 0.14760035 -0.1315882 0.018697983 0.07021536 -0.03886466
0.049404327 -0.029171169 0.058631625 0.04406042 -0.016027546 -0.04809633 0.10785927 -0.012468872
0.021079117 0.03919334 0.053266887 0.017213902 -0.1582237 0.030769534 0.05696632 0.03386343
0.11853452 0.016886307 0.01085392 0.04396735 -0.0043060677 0.111300476 0.16106908 -0.06873162
-0.10961851 -0.007858509 0.124594204 -0.0057937107 -0.07296899 -0.028931709 -0.0366955 0.02605882
-0.027509993 0.11505872 0.14030382 0.031648178 0.059380084 0.08918651 0.05298482 -0.013770187
-0.013592486 0.025903754 0.14472318 0.00022882855 -0.041362245 0.10742034 -0.026647568 0.022906022
0.05676997 -0.021003848 -0.07558427 -0.04609479 -0.16078052 0.04774009 -0.021737345 0.08586773
0.04715072 -0.14149542 -0.19346936 -0.19897781 -0.03404691 -0.14539237 0.059064087 0.039048072
-0.024446188 0.0648704 0.020241868 -0.15332496 -0.10289173 -0.038752146 -0.061114047 -0.23559648
-0.08339781 -0.12798251 -0.25169122 0.011618346 0.029075215 0.024917262 0.008479308 -0.101634175
0.08746838 -0.019163989 0.049193036 0.018747134 -0.03583143 0.035178352 -0.02364905 0.009529583
-0.029605612 0.020968543 0.12550679 0.20894642 0.23759706 0.22861232 0.06241976 -0.026330704
-0.023361051 0.029680306 -0.0731835 -0.0628587 0.048400585 0.019727156 0.080098666 0.20909132
-0.00041487877 -0.055552945 0.09106641 0.29388762 -0.01615867 0.014610949 -0.0075723673 -0.3444792
-0.082084306 0.073324405 -0.1746402 -0.14336583 -0.083371915 -0.11866633 -0.049720254 -0.0452849
-0.001969734 0.15936962 0.109449774 0.107946545 -0.12204079 -0.086806506 -0.027657883 0.032625627
0.20053464 0.12144429 -0.03559685 0.0838903 -0.00075794966 0.28171352 0.009159604 -0.11207341
0.04476749 -0.17160341 0.023776116 0.08636626 -0.047492392 0.021290991 0.026546508 0.077201635
-0.31823206 -0.20134649 0.09319151 -0.054032706 -0.009682209 0.07306416 0.03722921 0.08414559
-0.10423454 -0.024014216 -0.10777061 -0.08698276 0.35899535 -0.1952857 -0.10128565 0.029974056
-0.03973774 0.079857975 0.14189857 0.07986193 0.041794892 -0.056277417 0.06417917 0.047014132
0.19075625 0.22332634 -0.03940304 0.04253701 -0.09105892 0.12402826 -0.28274873 -0.05940532

decoder.3.bias f4 [18]
00000000: d72a 68bd f84d b73d 6b04 b73c 2860 db3d
00000010: 669d 08bc 4b18 793d c83b 6d3c 203b a6bb
00000020: 6b57 ac3d cff1 33bd c252 80bd fd28 bf3d
00000030: b935 a43c 24fb 96bc bb6d ecbd f86e 3c3d
00000040: 2bcb b3bd 4659 ca3d
-0.05668148 0.08950418 0.022340974 0.107117 -0.008338308 0.060814183 0.014479585 -0.005072966
0.08415111 -0.04393178 -0.06265785 0.0933399 0.020045148 -0.0184303 -0.11544367 0.046004266
-0.087789856 0.09880309

decoder.4.weight f4 [18]
00000000: 2d46 4b3f 8289 b03f 815f 3a3f 688d 383f
00000010: 7711 583f 0fb4 ce3e c749 453f 2bea 723f
00000020: 8da0 803f 3526 833f b045 8a3f 2063 843f
00000030: 0e2b 463f 9bf9 803f 716f 7d3f cc9a 433f
00000040: 7ccb 963f 752d 923f
0.79403955 1.3791964 0.7280198 0.7209077 0.8440165 0.4037175 0.770657 0.9488856
1.0048996 1.0246035 1.0802517 1.034275 0.77409446 1.0076174 0.9899817 0.76408076
1.1780849 1.1420122

decoder.4.bias f4 [18]
00000000: 6ae1 b5bd dbb4 30bd 0353 85bd 840c 7bbd
00000010: 68f1 c0bc 102e 9bbd 4423 96bd fa27 a7bd
00000020: 89ce f0bd 903a 24bd ca9d bfbd a926 b4bd
00000030: 9cbe 7fbd 29b9 f4bd 2d3b c8bd a26d 22bd
00000040: 377e b5bd 716c 21bb
-0.08880885 -0.043141227 -0.06509974 -0.061291233 -0.023552611 -0.07577145 -0.07330945 -0.08161922
-0.117581435 -0.040094912 -0.09356268 -0.08796436 -0.06243764 -0.11949379 -0.09776912 -0.039655335
-0.08861964 -0.0024631287

decoder.4.running_mean f4 [18]
00000000: 9321 b5bd 3745 383d 462b 31bd 7405 883d
00000010: 2768 cfbc 4193 823c 410f 37bd cd83 1bbd
00000020: bf6b 013d 2536 e1bd 815e ebbd e43e 753d
00000030: 808e 18bd b534 e7bc 0742 3fbe a69a 2bbc
00000040: 278b d5bd 8ea9 723d
-0.088442944 0.044987883 -0.04325416 0.06641665 -0.025318218 0.015939357 -0.04469228 -0.037967492
0.031596895 -0.109966554 -0.114926346 0.05987443 -0.037245274 -0.028223375 -0.18677531 -0.010473883
-0.10426932 0.05924373

decoder.4.running_var f4 [18]
00000000: abf7 3d3e 869f 5a3e 040a 1a3f a2ca 483e
00000010: f36e 4d3e 085c e63e 8512 a53e 6614 5a3e
00000020: 6356 d83e aaa6 433e 3acd 953e fc10 2f3e
00000030: c3ea a63e a509 1b3e a677 dc3e 6ccb 953e
00000040: 9044 623e 22ed 8f3e
0.18551509 0.21349916 0.6017153 0.19608548 0.20061855 0.4499209 0.32240692 0.21296844
0.42253408 0.19106546 0.29258138 0.17096323 0.32600984 0.15140398 0.43060035 0.2925676
0.22096467 0.28110605

decoder.6.weight f4 [18, 36, 5]
00000000: db9a 1f3c f0cb 943e 8cf6 ac3e df1e bdbc
00000010: b761 b9bb 8308 f0bc 1305 e63d 5e13 6e3e
00000020: a265 1a3e e7ed 073d 6c3e be3d ea86 ed3d
00000030: 009e 2a3e e391 0d3d 8fad b63c 3a47 94bd
00000040: 2cc0 acbd 16af efbd 1426 91be e463 b6be
00000050: 9dd2 58bd e2e2 723d 1db1 d8bc d07a c3bd
00000060: 8f05 19be 10a2 08bf 6028 c1be 9655 9ebe
00000070: 8bb7 e2be f1f6 08bf 693e 0abe 16d5 d73b
00000080: 29e2 9bbd 4560 6ebe 50b9 45be 2f77 4dbe
00000090: c2b6 2ebe 9d51 a4be 35be e9be 93d5 e9be
000000a0: 3b5f 2e39 73d4 c7bc 6716 bcbd 3636 47be
000000b0: de39 44be 0fc2 0bbf cfb4 6fbe 6f3b 0dbf
000000c0: 8949 36bf f92e 2abf 01d3 1bbf 0ff3 d3be
000000d0: 1335 21bf 6337 54bf 9b38 16bf b2d8 47bd
000000e0: d459 cfbd 9c39 03be 1731 cdbe 0da3 b5be
000000f0: 8b94 36be 0646 533e 83c8 0bbe 6e4e 9cbe
00000100: 84f4 68be a280 4cbe 5815 ba3b b154 85be
00000110: 50bc adbe bf49 dbbd 388b 28bd 54de 0f3d
00000120: 4b5d 99bd 8979 263d 815e 2ebe 0013 00bd
00000130: 1cad fd3c 574b 3abd 0794 4dbc 1699 133d
00000140: 980a 203e 1ec5 04be 4dc4 573e 5811 9cbe
00000150: 9a39 08bf 3c6c c03c 513a 77be e435 cd3d
00000160: 0d41 bdbd 662b 9ebe 344d 1d3d 4859 1cbe
00000170: 4697 c13d 2194 aa3d 5392 3abe 3f89 8bbd
00000180: 8dc6 12be a0ac c03d c8b9 94ba 15a0 8dbe
00000190: d5ba 91bd 8528 29bd 2c22 703d e3fe ecba
000001a0: c433 cabd 7336 b0bd 8f65 553c 574a 443e
000001b0: 7790 cabd 096b 4bbc fe14 a43c e493 89bd
000001c0: 0169 313e d586 ec3c 1c53 d4bd 7623 c0bc
000001d0: 6fa2 63bd 7e1c 393d 96a1 25bd 9655 04bd
000001e0: 7c0f 8d3d ff2e c3bd 4610 543e 7a0b eabc
000001f0: 245a 49be 8be5 e0bc 2327 e2bd 3cca 0b3e
00000200: b53c d3bc 27b4 4dbe 7dcb 0cbd d11b 11be
00000210: c3e8 453e 0d2e 4d3d 96ac 9abe 102b 8ebd
00000220: 5616 6e3c e4ae c63d 6bb2 48bd 141a 81bd
00000230: bbae 3dbc ba11 91bd 9b8d e43d 6a4c 1cbd
00000240: 0e9e dfbd cd1c 783d d048 a5bd ac6b 4a3d
00000250: 2f46 bfbc c5ca f5bd 5d28 d03d 146b babd
00000260: b1b3 4dbd 06dd 26be 4fbc aebe 5c66 b3bd
00000270: 9e05 32be 24ef 29be db2a 2dbe 9ddf a6be
00000280: d462 60bd d0cf 34bd 83e9 32bd 11d5 a8bd
00000290: d61e e0bd 9c1d 15be 0e9b e7bd 6b54 f9bd
000002a0: bbd8 6bbe 8bcf 7ebe 5fa1 d4be f2a4 d9bd
000002b0: e0bc 40be a9e3 053e 57e7 083e 8485 12bf
000002c0: 6870 1cbe ebf6 6b3e 7f78 b43e e5f5 d83e
000002d0: 28e5 70bd d272 49be 0074 b1be 1c75 b6be
000002e0: 10f2 6dbe 7fb5 a139 e79d e9bd 871c 1dbe
000002f0: 2667 4bbe 2a4e 8abd 6662 30be 964a 34be
00000300: 1d06 4cbe 2911 27be 0460 e0bd e06a f1bd
00000310: 8730 5dbe 5504 82be b191 b0bd e312 f1bd
00000320: 73d6 e8bd 8531 44be 7860 82be 884f 1ebe
00000330: 47e1 1fbd 46c4 3cbc 032f afbd 6505 61bb
00000340: a853 b63d bd15 73ba 980e c4bd 5aa9 90be
00000350: 7a4e 87be 8531 14be 0846 72bd a955 8bbd
00000360: 420e 87be 47b0 02be 1d81 453b 35c6 b13b
00000370: 8efb 53bd 094b 2fbe 3d9c e3bd 996e 91bd
00000380: cc8f 0fbd 35f6 33be ce71 d5be 5b94 d2be
00000390: bff7 9abe 7323 68be f661 a9bd 1f1d f93a
000003a0: 5258 283d 11c6 40bc 9494 20be c259 6ebd
000003b0: 4aa9 2bbe 3cf9 febd 2644 41be 7d3a 01bd
000003c0: 20b0 59be 80fc 88be c05e b8be 309a babe
000003d0: 9a34 09be a5a4 58be 7543 20be dfa3 85bd
000003e0: 4e63 9cbd 8b66 fbbb 9d5b 32bd 5589 e2bd
000003f0: d99e 58bd 7495 6ebc 9dab 073d 4034 15bd
0.00974151 0.29061842 0.3378185 -0.02308601 -0.0056574005 -0.029300934 0.112314366 0.23249575
0.15077832 0.033185866 0.0928925 0.115979984 0.16661835 0.034562957 0.022299556 -0.07240148
-0.084350914 -0.11703317 -0.28349364 -0.35623085 -0.05293523 0.059298404 -0.026451642 -0.09544909
-0.14943527 -0.5337229 -0.37726116 -0.30924672 -0.44280657 -0.535018 -0.1350037 0.006586681
-0.07611496 -0.23278911 -0.19308972 -0.20064996 -0.17061904 -0.32093516 -0.4565293 -0.45670757
0.00016629409 -0.024393296 -0.091839604 -0.19454274 -0.191627 -0.54592985 -0.23408817 -0.55168813
-0.71205956 -0.66477925 -0.6086884 -0.41396376 -0.6297161 -0.82897013 -0.58680123 -0.04879064
-0.10124555 -0.12814945 -0.40076515 -0.3547596 -0.17830102 0.2063218 -0.13650708 -0.30528587
-0.22749525 -0.19970945 0.005678814 -0.26041177 -0.33932734 -0.10707425 -0.041148394 0.035124138
-0.07488497 0.04064325 -0.17028238 -0.03126812 0.030966334 -0.045482006 -0.0125474995 0.036034666
0.15629041 -0.12965819 0.21070977 -0.30481982 -0.53212893 0.02348911 -0.2414334 0.100200444
-0.09240923 -0.30892485 0.038403705 -0.15268433 0.09452681 0.083290346 -0.18219881 -0.06813287
-0.14333554 0.094079256 -0.0011346871 -0.27661195 -0.071157135 -0.041298408 0.05862634 -0.0018081333
-0.09873155 -0.08604135 0.013024702 0.19168983 -0.09890836 -0.012415656 0.020029541 -0.06717661
0.17325212 0.028872887 -0.10367414 -0.02345441 -0.05557483 0.045193188 -0.040437303 -0.032308184
0.06887719 -0.09530448 0.20709333 -0.028569926 -0.19663292 -0.027453205 -0.11042621 0.13651365
-0.025785783 -0.20088254 -0.03437375 -0.14170767 0.19327073 0.050092746 -0.30209798 -0.06941807
0.0145316925 0.097013265 -0.048998278 -0.06303802 -0.0115773035 -0.07083459 0.111598216 -0.03815881
-0.109188184 0.06057434 -0.080705285 0.04941909 -0.023348896 -0.12001566 0.10163949 -0.09102455
-0.050220195 -0.16295251 -0.34128043 -0.08759758 -0.17384955 -0.16595131 -0.1691088 -0.32592478
-0.05478175 -0.044143498 -0.043679725 -0.08243764 -0.109433815 -0.14562076 -0.11308871 -0.121743046
-0.23031895 -0.24883859 -0.41529366 -0.10627164 -0.1882205 0.13075127 0.13369499 -0.5723498
-0.15277255 0.2304341 0.3524818 0.42375103 -0.05881229 -0.19672707 -0.34658813 -0.35636222
-0.23236871 0.00030843538 -0.114070706 -0.15342914 -0.19863567 -0.0675319 -0.17225036 -0.17606577
-0.19924207 -0.1631514 -0.109558135 -0.11787963 -0.21600543 -0.2539393 -0.086215384 -0.117711805
-0.11369028 -0.19159515 -0.25464225 -0.15460026 -0.0390332 -0.011521405 -0.08553889 -0.003433549
0.08902675 -0.00092729536 -0.09573096 -0.28254205 -0.2642706 -0.14472015 -0.05914882 -0.06803448
-0.26378065 -0.12762557 0.0030136772 0.0054252394 -0.051753573 -0.17118467 -0.111137845 -0.07101173
-0.035049245 -0.1757439 -0.4168839 -0.4112881 -0.3026714 -0.22669773 -0.08270638 0.0019005871
0.041099854 -0.011765973 -0.15681678 -0.05819107 -0.16763797 -0.124498814 -0.18873653 -0.03154992
-0.21258593 -0.26755142 -0.3600979 -0.3644576 -0.13398972 -0.21156557 -0.15650733 -0.065253966
-0.07636128 -0.007672136 -0.0435444 -0.1106135 -0.052885864 -0.014562 0.033122648 -0.036426783

decoder.6.bias f4 [36]
00000000: deca bdbc 2d9c 4f3c a253 b73d 0ae9 94bd
00000010: ddef d3bd 90ab 95be d662 fcbd 619f 7fbe
00000020: d412 6ebd 34fe c7be 9a6b f7be 7e35 66be
00000030: d6d8 97be 9746 b9bd b243 283e 302a 023e
00000040: c7c8 8a3e 4bce a93a a962 a4bd 7863 aebd
00000050: 7dad 8dbd 7199 bfbd f8b9 0fbe 5918 6bbe
00000060: 3f26 92be 37df a9be aa7f c8be 546a 98be
00000070: ed28 2dbe 3062 3ebe 54bd 87be 5cb0 15be
00000080: b517 a1bd 0ac6 56be 4635 82be 780a f4bd
-0.023168024 0.012671513 0.089514986 -0.07271011 -0.10348485 -0.29232454 -0.12323539 -0.24963142
-0.058123425 -0.3906113 -0.4832428 -0.22481343 -0.2965762 -0.09046667 0.16432074 0.12711406
0.27106306 0.0012955157 -0.080266304 -0.08515066 -0.06917856 -0.093554385 -0.14035785 -0.22958507
-0.28544804 -0.33178112 -0.391599 -0.29768622 -0.16910143 -0.18592143 -0.26511633 -0.14618057
-0.0786585 -0.20973983 -0.2543127 -0.11916059

decoder.7.weight f4 [36]
00000000: 74ce b03e 7801 e43e faeb 0e3f 70b1 a63e
00000010: 31ed 4e3f 1c1d 683e c28a 023f 4e17 0b3f
00000020: d6f7 543f 5d8b 903e 99e2 5c3e 8825 123f
00000030: 53e7 e23e 9d05 173f 7465 433f c14f 593f
00000040: 91a9 993e e876 693e 3d63 243f 5f06 173f
00000050: 68ed 993e f5cb 123f 7b61 4b3f e93f 773e
00000060: 4702 2b3f 0c8a 3a3f 36cd 033f 9022 2d3f
00000070: 92e0 353f 293c 1c3f 3578 103f 83a4 063f
00000080: d229 003f 9710 283f cda5 c73e 288d 583e
0.3453251 0.4453237 0.5582882 0.3255725 0.80830675 0.22667354 0.5099298 0.54332435
0.8319067 0.28231326 0.21570815 0.5708852 0.4431711 0.5899294 0.7632668 0.8488732
0.3001218 0.22799265 0.64213926 0.58994097 0.3006394 0.57342464 0.7944562 0.24145474
0.6680035 0.7286689 0.51485 0.67630863 0.7104579 0.610293 0.5643342 0.52594775
0.5006381 0.65650314 0.38993683 0.21147597

decoder.7.bias f4 [36]
00000000: 5652 c8bd 8182 34be 6c97 35bd 64aa 32be
00000010: 5a04 19be c96f d8be f628 41be cb79 a6be
00000020: 57c7 6dbe 3c41 eabe 9f8a 0cbf 730b a6be
00000030: 4b99 cebe f969 80be 749d 7f3e 2dc9 9a3e
00000040: c0a0 ab3e f6df 8bbd e2b3 1ebe 6520 5cbe
00000050: cb4a 72be d064 59be 49ba 96be 1ceb 85be
00000060: f947 dcbe 2491 e2be 07c1 ebbe 2dbd c3be
00000070: 03c6 afbe 467e a7be e384 98be c3c9 92be
00000080: 98c8 f7bd 6a7b a2be 1b1c a7be f0e7 85be
-0.09781329 -0.17627908 -0.04433386 -0.17447811 -0.14943066 -0.42272785 -0.18863282 -0.32514796
-0.23220573 -0.45752895 -0.5489902 -0.3243061 -0.40351328 -0.2508085 0.24962407 0.3023161
0.3352108 -0.068298265 -0.15498307 -0.21496733 -0.23661344 -0.21229863 -0.29439 -0.26155937
-0.4302366 -0.44251359 -0.46045706 -0.38230267 -0.34330758 -0.32713526 -0.29788885 -0.28669557
-0.12098807 -0.31734782 -0.3263863 -0.26153517

decoder.7.running_mean f4 [36]
00000000: 1d81 32bd 0e12 233d 73d4 21bc f666 7cbd
00000010: ef50 ffbd 154e 64bc 0b49 d6bd 4d8e 4bbd
00000020: 4980 d23c 66ea aebd ed7c bcbd 54c5 2fbd
00000030: 8f82 92bd 8537 d13c df31 bd3d 45df c73c
00000040: 9c69 f23c 60bb a0bd 380b 87bd 6619 a5bb
00000050: 82b5 d1bb db0e 93bc f044 c73b 4f9d 11be
00000060: d117 443c 610a 51bd da50 90bd 29d3 70bd
00000070: bdaa 723c 88dc a23a e074 f7bd cd5f 6ebc
00000080: 5de4 c4bd af4b a1bd 182c c6bd 3b1b 84bc
-0.043580163 0.03981214 -0.009877312 -0.06162163 -0.12466609 -0.013934632 -0.104631506 -0.049696255
0.025695937 -0.08540802 -0.09203515 -0.042912796 -0.07153808 0.02553917 0.09238028 0.024398455
0.029591374 -0.07848239 -0.06593937 -0.005038428 -0.0063998112 -0.01795142 0.006081216 -0.14220165
0.011968569 -0.05103529 -0.07046671 -0.058795128 0.014811215 0.0012425343 -0.12082839 -0.014549208
-0.09613869 -0.078757636 -0.09676379 -0.016126266

decoder.7.running_var f4 [36]
00000000: 9aad be3e 4a7d be3e 18e8 a93e f84d 6b3e
00000010: 497e 033f 4f4e 833e c053 7d3e fa65 273f
00000020: f295 c03e 2340 a33e 2aab 8a3e 4461 f63e
00000030: 2e75 893e 3956 b43e bd1c c03c 509a 8e3c
00000040: 72a7 263f 40a6 5c3e 25f8 0a3f 07a2 213f
00000050: 0437 913d bf99 c03e 10a4 dd3e b2ad 463b
00000060: 6a94 f93e 9841 9a3e f984 b93e 63c8 4d3e
00000070: f044 ab3e 334c 9d3e 9684 d03e 9f52 d33e
00000080: 3e77 583e 2bcd 053f 0e45 093f 5727 903e
0.37241822 0.37204963 0.33184886 0.22978961 0.5136457 0.25645682 0.2473898 0.6538998
0.376144 0.3188487 0.27083713 0.48121083 0.26847214 0.35222033 0.023451203 0.017407566
0.6509925 0.21547794 0.5428489 0.6313786 0.070905715 0.376173 0.43289232 0.0030315933
0.48746043 0.3012817 0.36234263 0.20095973 0.33451033 0.30722198 0.40726155 0.41273972
0.21139237 0.52266186 0.53620994 0.28155014
