trained_models/2CB3:B8BF:D0BF:15B2.pt (torch, 57915 bytes, 12 tensors)

encoder.0.weight f4 [36, 36, 7]
00000000: df30 2abd a826 e4bc 1df5 e4bd 553f 05bc
00000010: 681e 033c f24a 6c3c 52f2 c33c 9bc0 24bb
00000020: 26d0 903c 8b5a 903d 30a8 71bd 5510 8f3d
00000030: 1c20 803c f2a9 ae3b b4b5 f1bb 5a23 2f3c
00000040: 1412 393d 80f3 8d3b 5ba0 91bd 2035 8abb
00000050: f843 483a eca4 283b 1be0 15bc 11c0 da3c
00000060: 92ef 12bd 2e94 95bc 00a0 ea3b dcdd e33c
00000070: 99ec 943c b2d2 2a3c 9705 4bbb 8eaf 05bd
00000080: 64a9 4f3d 1803 0a3d bccf e93c 56c4 c13c
00000090: 663a 763c f6fb 30bd 2c26 593c 4be3 2c3d
000000a0: be1d 693d cb76 bd3c 562d 083c 6e79 16bc
000000b0: e66e fa3b 2253 90ba df08 893b e19e 163d
000000c0: e8b7 98bb c737 bfbb 11e9 80bc 85b9 46bd
000000d0: 0c63 fb3b fcb9 a33c 7ec8 983c f496 8eba
000000e0: 6dad 0e3d a390 063d 044d 673d 31f4 763c
000000f0: 12ea 38bc 6739 153d f512 2f3d 66c2 c4bc
00000100: 886f 1b3c b57b 85bd 4240 d7bc 022d 90bc
00000110: 9eec 2d3d f1bd 833c ea22 7a3c cd1d c13c
00000120: acf0 293d 053b d8bc a41d cdbc 7107 c03c
00000130: bf92 703d afd3 84bc 4731 39bc c008 8d3b
00000140: d282 02bd a30a 013c a7ae 7d3c 828b 4f3d
00000150: 0210 b3bb d086 e2bc c6a6 4bbc 2620 8abd
00000160: f032 d03a 15e6 b43c 6501 e93c 594d 773c
00000170: e9ab a3bb e588 1b3d 4d5f 9a3b badd 43bd
00000180: b97a 353d 6918 fe3c c6b6 4abd 86d0 0bbd
00000190: 16dc 5bbd 1aee 20bd e79b 97bb 9cc2 2abd
000001a0: b79c 0cbd cb65 db3c 011e 143c d114 91bd
000001b0: 5db9 693c 5d31 0e3d abcb 82bd 4e41 abbc
000001c0: e63f cebb 0934 283d 163c 76bd ca3f 6c3d
000001d0: 2e55 0f3c 166e 3dbd 9d4b f6bc 963a 9dbc
000001e0: c3e1 923c 9c5b a9bd 6212 6abc 4e28 cc3c
000001f0: 7375 48bd fc39 83bd fbf4 973b 48c8 103c
00000200: cdd8 a33c cd88 f9bc e50a 2b3d ba26 37bb
00000210: 7f4f 08bd 2368 9e3c 21a3 ef3c 1b95 bebb
00000220: 2e53 d6bc 22d2 0b3b 3f1d 22bc 143e fb3a
00000230: 20ca 453c 590d a83c 27ea 883b cb9f 56bd
00000240: 1b0a 41bd 0b01 0aba deb3 a73c 20dc 4a3a
00000250: c9a2 803c 5e6b 443b d190 363c 8f34 143d
00000260: 826f 503c 5071 1e3d 0241 823c 05bf 33bb
00000270: 3460 0e3d 9f8b 0b3c 713d 9ebb 19c2 a33c
00000280: 5efd 533d e6e3 1c3d 39a6 a83b c365 383d
00000290: 991a de3c a18a 84bd 78f5 583d ab23 a13c
000002a0: 6861 e43b 36ea 5a3c 0ca0 11bd bd1f 27bd
000002b0: 5dcf 57bd f0ad fb3c 9c43 9a3b ce11 31bc
000002c0: 9d92 4a3c 7cdd e3bc 55ce e73a af8b 2dbd
000002d0: b452 393d b110 e73c 937e acbc f3b2 833b
000002e0: e765 3bbd dbee d6bc 36a7 58bd b891 543c
000002f0: eb9f 1e3d 1bb4 843c fc28 21bb 3d38 28bd
00000300: a7bd 1dbd 144f 95bd 697c 373d d14b 203d
00000310: e706 9639 7ef4 5fbc 61a3 a23c 8d28 913c
00000320: fc10 1a3b 2e90 233d b919 043d f7db 50bb
00000330: 6fcc 19bc 8dba 91bb a335 e5bc e14c 5dbd
00000340: 4c56 cf3b f614 a13c 1553 32bc 056f 8a3b
00000350: d277 c03c 8114 4ebd 547e 26bd 291d b9bb
00000360: 6bc4 e83c 11ac a13c 708f 09bb b0ce 67bd
00000370: 94ed 76bc 191a 17bd 3591 e83c 9dd5 343d
00000380: 4119 b3bc 637d 383b 9c1b 28bd dfec 08bd
00000390: 5f1a 88bc 1f8e 963b 28a3 d13c 76dd b5bc
000003a0: 4730 a93c 2fd0 b2bd e618 6fbc a79a 81bc
000003b0: bec8 453d 6c6b 073d 681d e1ba ed6e f03c
000003c0: 4ddf 50bc 9492 d4bd 8495 233d b7fe 1d3b
000003d0: c7d6 3bbc ff6c 9b39 383f 8a3c a37d 153d
000003e0: cf62 7fbd 51f5 8d3d fcee b9bc 75b9 c33c
000003f0: 642d 86bc 5e4b 2ebc cf3b e03d 4bef 05be
-0.041550513 -0.027850464 -0.11179564 -0.008132775 0.008002855 0.014422165 0.023919258 -0.0025139216
0.017677378 0.0704852 -0.058998287 0.06985537 0.015640311 0.0053303177 -0.007376397 0.010689581
0.045183256 0.004332006 -0.071106635 -0.004217759 0.00076395227 0.0025733067 -0.009147669 0.026702913
-0.035873003 -0.018259134 0.007160187 0.027815752 0.018179225 0.01042621 -0.0030978674 -0.032638125
0.050698653 0.033694357 0.028541438 0.02365319 0.015028572 -0.04320904 0.01325373 0.04220895
0.05691313 0.023127934 0.00831159 -0.0091842245 0.0076426147 -0.0011011104 0.0041819657 0.036772612
-0.004660595 -0.0058355066 -0.015736135 -0.04851677 0.0076717194 0.019986145 0.01865029 -0.0010878728
0.03483336 0.03285278 0.056469932 0.015072868 -0.011286275 0.036431696 0.04274269 -0.024018478
0.00948704 -0.06517736 -0.026275758 -0.017599586 0.042461984 0.016081782 0.015267113 0.02357378
0.04148929 -0.02639533 -0.025038548 0.023441048 0.058733698 -0.01621422 -0.011303253 0.0043040216
-0.03186304 0.007876071 0.015483535 0.050670154 -0.0054645548 -0.027652174 -0.012429899 -0.06744413
0.0015884321 0.022082368 0.028443048 0.015094125 -0.0049948585 0.03797235 0.004711068 -0.047818877
0.04430649 0.031017499 -0.049490713 -0.03413441 -0.053676687 -0.03928957 -0.0046267393 -0.0416895
-0.034329142 0.026781937 0.009040357 -0.070840485 0.014265385 0.034715045 -0.06386503 -0.020905163
-0.0062942384 0.04106525 -0.060115896 0.05767802 0.008748336 -0.046247564 -0.030065352 -0.019192975
0.017929917 -0.08269426 -0.014286609 0.024921563 -0.048940133 -0.06407544 0.0046373582 0.008836813
0.02000084 -0.03046074 0.041758437 -0.0027946667 -0.03327894 0.019336766 0.02925259 -0.0058161146
-0.02616271 0.0021334966 -0.009894668 0.0019168281 0.012072116 0.020514177 0.0041783038 -0.052398484
-0.047128778 -0.00052644376 0.02047151 0.00077384897 0.015702622 0.0029971222 0.011142925 0.036182936
0.012721898 0.038682282 0.015900139 -0.002742709 0.034759715 0.008517175 -0.0048291017 0.019990014
0.0517553 0.03830328 0.0051467684 0.045018923 0.027112292 -0.06471754 0.052968472 0.019670328
0.0069696195 0.013361504 -0.035553023 -0.040801752 -0.05268799 0.030722588 0.0047077667 -0.010807468
0.012364057 -0.027815573 0.0017685393 -0.04236954 0.045244887 0.028206201 -0.021056449 0.004019135
-0.04575148 -0.026236942 -0.05289384 0.012974195 0.03872673 0.016199162 -0.002459108 -0.041069258
-0.038510945 -0.072904736 0.04479638 0.039134804 0.00028615372 -0.013669131 0.019853296 0.017719531
0.0023508659 0.039932422 0.032251094 -0.003186939 -0.00938712 -0.0044472874 -0.027979678 -0.054028396
0.006327426 0.019663315 -0.010884066 0.0042246603 0.023494635 -0.050312523 -0.04064782 -0.005649228
0.028413972 0.019735368 -0.0020990036 -0.056593597 -0.0150712915 -0.036890123 0.028389553 0.04414903
-0.021862628 0.0028150908 -0.041041955 -0.033429023 -0.016614137 0.004594579 0.025590494 -0.022200327
0.020652903 -0.08731114 -0.014593339 -0.015820814 0.048287146 0.03306143 -0.0017174901 0.029349769
-0.012748552 -0.1037952 0.03993751 0.002410812 -0.011464781 0.00029645112 0.016875848 0.03649677
-0.06235009 0.06931556 -0.022696964 0.023892144 -0.016379066 -0.010638086 0.109489076 -0.13079564

encoder.0.bias f4 [36]
00000000: 805d 793b c27c f93c 9aed efbd 5e53 80bd
00000010: d669 3c3d 68ce d03b b2ad c13d 0d8a c73a
00000020: 2b7d f5bc e8e5 913d 7bcd 143d 7840 e83c
00000030: 3d17 97bb a35b 1dbd 9332 3cbd c3fe 0abe
00000040: a145 9fbd a5c6 fabc 1952 cbbc 686e 293b
00000050: 6c29 6e3d 847c 12ba a130 123d 1370 b73c
00000060: 5f92 af3d b29f 0b3d 6e12 6e3d a5e0 2f3d
00000070: 472c c1bc acb3 ca3d 9cda 03bb 402a a03b
00000080: e176 6c3d 9d97 df39 e9c3 b33c c692 e3bb
0.0038050115 0.030454997 -0.11715241 -0.06265901 0.04599937 0.006372262 0.09456958 0.0015223637
-0.029966911 0.07123929 0.036328774 0.028351054 -0.0046109245 -0.03841747 -0.04594667 -0.13573746
-0.077769525 -0.0306123 -0.02481942 0.002585316 0.05814497 -0.0005588012 0.035690907 0.022392308
0.0857284 0.034087844 0.058123045 0.042938847 -0.023580683 0.09897551 -0.0020119315 0.004887849
0.05773056 0.00042646835 0.021944003 -0.006944987

encoder.1.weight f4 [36]
00000000: 1fc0 5d3f 5dca 483f 0e85 793f 6817 833f
00000010: 4a76 5c3f d1bc 833f d68d 1d3f f52b 1f3f
00000020: 1949 333f 5508 1e3f d297 2b3f 824b 003f
00000030: 3397 103f 1437 0f3f d856 693f bea0 043f
00000040: c48c 6c3f 5d73 523f 5b60 2f3f 5bed 353f
00000050: 9c05 413f 5c71 e63e 67b5 d33e b961 143f
00000060: e062 1f3f 808c f03e 0ebb 213f 46f0 433f
00000070: 45fb 083f a81e 0c3f 8396 b73e 421f 813f
00000080: 3f04 5a3f c5e5 173f 30f7 f33e dc1e 113f
0.8662128 0.7843378 0.9746865 1.0241518 0.86117995 1.0291997 0.6154455 0.6217645
0.70033413 0.61731464 0.67028534 0.50115216 0.5648071 0.5594342 0.9114814 0.51807773
0.9240229 0.8220728 0.685064 0.710653 0.75399184 0.4500836 0.41349337 0.5796161
0.62260246 0.46982193 0.6317605 0.76538503 0.53508407 0.5473428 0.3585702 1.0087664
0.8516273 0.59334975 0.47649527 0.5668771

encoder.1.bias f4 [36]
00000000: 56f6 43bd a40f 85bd 1e92 f8bd 7376 edbd
00000010: fff7 78bc 3a03 95bd 461c ef3b ced4 b3bd
00000020: a69b acbd 6c5b 103d db76 60ba 6a9e 6439
00000030: 06c1 0cbd 82e2 87bd b31c b8bd a599 fdbd
00000040: 5384 edbd e488 b8bd f698 91bd f4e3 69bd
00000050: 694f 50bd 14c5 b7bd 58a0 cb3c c2dc a2bd
00000060: 248e e33c 22aa 973c 97bd 653c 3429 90bd
00000070: 03dd abbc a090 e03c d129 f0bd c5a1 d0bd
00000080: 2cf5 213d dba6 1abd 3276 64bd 04d8 b3bd
-0.047842346 -0.06497124 -0.12137245 -0.11594858 -0.015195846 -0.07276006 0.0072970716 -0.08780824
-0.08428125 0.035243437 -0.0008562633 0.00021802788 -0.03436377 -0.06635 -0.08989849 -0.12382821
-0.115975045 -0.09010485 -0.07109253 -0.05710216 -0.05085698 -0.089731365 0.024856731 -0.079522625
0.027777739 0.018513743 0.0140222525 -0.07039109 -0.02097941 0.027412713 -0.11726726 -0.10187105
0.039540455 -0.037756782 -0.055776782 -0.08781436

encoder.1.running_mean f4 [36]
00000000: 7672 e5be e0fe cabf af0e c6bf 7ae5 51bf
00000010: 8838 4b3f a3e5 81be 4a2b 1140 8132 f9bf
00000020: 2cc4 1ac0 40b8 2640 8593 e03f 8c79 0240
00000030: 9001 5ebe 5d46 3bbf c91a 0cbf 9375 b5bf
00000040: 40f6 78bf 3f96 02bf 4402 87bf 1ea9 70be
00000050: c5a2 23bf 5c93 7bbf bcf9 2c40 4f77 f0bf
00000060: 1dcd 0940 d304 0440 7823 0840 17eb 9bbf
00000070: 13d8 e43e ce01 3340 6ca4 85bf df5d 83bf
00000080: 22be 623f 0349 91be 70b5 2cbe ab48 cfbf
-0.4481389 -1.5859032 -1.5473231 -0.8199078 0.79383135 -0.2537051 2.2682672 -1.9468538
-2.4182234 2.6049957 1.7545019 2.0386686 -0.21680284 -0.7315424 -0.5472837 -1.4176506
-0.9725075 -0.5101051 -1.0547566 -0.23502013 -0.6392024 -0.9827173 2.7027426 -1.878641
2.1531441 2.0627944 2.1271648 -1.2181119 0.44696102 2.7969851 -1.0440803 -1.0263022
0.8857137 -0.28376016 -0.16866088 -1.6194052

encoder.1.running_var f4 [36]
00000000: c9a7 2f3b 4b04 b63b 4cc0 b13b e954 b23b
00000010: 3717 dc3b a90a 8a3b 68e5 f33b eba2 e13b
00000020: f702 d13b a284 053c 8401 d53b f268 e23b
00000030: 7391 763b 3076 4d3b 301b 193b 72ff f33b
00000040: 00ea 553b 1bc9 1b3b ec50 753b 00e2 5c3b
00000050: e9ce ca3b f692 b13b 5579 cb3b bf83 ce3b
00000060: 200a 133c d49b c63b a371 e53b 4e7b 8b3b
00000070: ef7f d33b c846 033c 1389 7a3b 8b2d 893b
00000080: b538 a23b 283f 9a3b 8aba 543b 9fa8 bd3b
0.0026802889 0.005554711 0.005424535 0.005442251 0.0067166346 0.0042126966 0.007443119 0.0068858764
0.0063785273 0.008149298 0.006500425 0.006909483 0.0037623316 0.0031350963 0.0023362152 0.007446223
0.0032640696 0.0023770991 0.0037432266 0.0033704042 0.0061892164 0.0054191304 0.0062095323 0.0063023265
0.008974582 0.0060610566 0.007002072 0.0042566424 0.00645446 0.008012481 0.0038228675 0.0041863373
0.0049506077 0.004707236 0.0032459819 0.0057879235

decoder.0.weight f4 [36, 36, 3]
00000000: dc78 8abd b956 94bc 86c3 083d 0c60 cf3c
00000010: 1a1e 8bbc ab46 3c3d e1e5 4c3c d3ba ea3a
00000020: df36 2dbd e2ab 6cbc 83e0 c8bc 87f5 b4ba
00000030: 8ff9 f6bc 9dc7 42bc feed 623d 2312 92bc
00000040: 0922 3e3c 7f87 00bb dba5 b83a 5d4a a3bb
00000050: 6415 28bb 744d 2ebd 4436 b13b ec21 233d
00000060: 6e5f f23c 01e9 1e3b 160f ccba 1bae 58bd
00000070: ec2e 76bc 2ef9 5a3c 760b 493b 6de0 11bd
00000080: c6e9 c2bc 3e00 41bc 5237 8ebc 7cf7 d6bb
00000090: 187b 04bd 7015 4fbd f29d 7c39 322c ac3c
000000a0: 23fb bebc 6307 9ebc c3cd f8bb 2fa8 393b
000000b0: 72ff 50bb 49b0 adbc 5ede 003c 45a2 083d
000000c0: feb8 75bd 14f1 3c3d 52c9 243d b65e 9fbc
000000d0: 5916 babb 9a71 c43c de4c 09bb 7553 56bb
000000e0: 2a73 ec3c b1d9 c7bc cc1f 2cbc 4a30 25bb
000000f0: 1750 c7bb 3a63 13bd 368a b5bc 7e01 1d3b
00000100: 5ce2 9a3b e6b5 a13c ac1e bfba 05a3 0a3c
00000110: 4691 c53c f46d ecbb 34cd 273c e483 cabc
00000120: c1a7 ffbc ee17 c9bc 2157 a4bc 80de 9ebd
00000130: e720 76bc 22a7 edbb 9c1c abbd 2eb6 26bd
00000140: 7612 b5bc 3f62 1cbd 47a5 8ebc bb05 28bd
00000150: bd36 05bd eeb5 f53a 7e51 e63b bf34 02bc
00000160: 81aa c2bb 3a15 07bc faa5 d53b 4d05 90bc
00000170: a2e0 4fbd a7b0 59bd 7398 2b3b 0c4a b2bc
00000180: b134 f3bc 24cd 82bc 547f 15ba 7a41 66bd
00000190: f4e3 493c 0fe9 143c a33b 5bbc 38db 98bd
000001a0: 6127 a93c 86b6 df3b cfb0 a0bc d7b1 263d
000001b0: 3f64 4c3d 07a2 80bd ebeb 263c caa7 eebb
000001c0: 27bc 81bd 76d4 18bd ee99 1cbd afc8 edbc
000001d0: c455 85bc 1428 083d 6350 2f3b da49 64bc
000001e0: 9141 56bd fdba adbc 579a 2f3d eaac debc
000001f0: 5dbc bdbc 657d 56bd d154 2dbd fe47 913c
00000200: 5da8 ac3b bdb3 42bd c2b4 a7bc 9e4b 2e3c
00000210: b848 b7bb a8d3 16bd 94c4 06bd fd79 26bd
00000220: 87b9 29bc 7358 ba3c 45a8 813b 9164 b1bd
00000230: e2bd 7abd cb59 963c e1d3 5abc b778 93bc
00000240: 4f18 5b3b 0722 55bd 28e5 f5bc e107 1fbc
00000250: b742 3ebd 816b 18bd 956e 723c 3496 c63c
00000260: c816 17bd 6b1e bbbc 0689 023b 0869 2f3b
00000270: 1a9c 713c a2f7 4abc 111b 08bd 4e05 9f3d
00000280: baf1 1a3d e9b2 03bd 186e 27bc c9e9 673d
00000290: 0883 acbb 1beb 35bd 7418 c23b 05f9 acbc
000002a0: 1df6 2e3d 9438 263d a2fa f93c 0f22 5a3d
000002b0: 6088 533c f611 72bc 6e3c e53b 4f21 a73c
000002c0: 0637 abbc 242e c63c 26be 0cbd 8f2c 58bc
000002d0: 801f d93b 2331 8f3c fdc1 2ebd d390 fc3c
000002e0: 29cd a8bc db8f cb3c 245a f1bc 2e16 f03c
000002f0: 7661 103a 0fbe 353d 2a16 9dbb c8c8 06bd
00000300: e9d7 563c 427d b43c 4044 60bb 3747 cabc
00000310: 7421 3b3d 8822 643c 943a 053c af40 45bd
00000320: 63da 3dbd b98f 06bd 9be1 65bc c73f b1bb
00000330: 5700 143d af95 20bc 5a9b eebb 88df a3ba
00000340: 9923 b9bc 56d8 10bd 1750 0d3d 2d4f 603d
00000350: bc3a 5bbc c662 a03d 675a 413d 3e50 f43c
00000360: 24b0 3cbd 0d40 c5bc 2e86 59bd a6b0 823d
00000370: 0a63 f43c 990b 8e3d 7d41 cf3c 0a63 a53d
00000380: f657 30bd 75bd c6bd 8e94 88bc c9eb 48bc
00000390: da65 c23d 29ad 8e3d c0f8 323d cb30 a53c
000003a0: ab06 973d f373 2ebd 5b8c b7bc ebb1 e13c
000003b0: d945 2a3d 1600 37bd 4364 b73d 8c19 3a3d
000003c0: 45e5 7fbd 2bd4 f9bb dfcf c53b 31be 673d
000003d0: 7cd6 813a c401 963d a14a c9bc 8e03 1e3d
000003e0: fb3b b6bc a289 e43c a5a1 44bd 7e1c 883d
000003f0: 254a 303c fc98 d9ba a1a4 e53d 2212 77bc
-0.06761333 -0.018107759 0.03338959 0.025314353 -0.016982127 0.04596583 0.012505979 0.0017908461
-0.042288657 -0.014445277 -0.024521118 -0.0013806083 -0.030148296 -0.011888412 0.05540275 -0.017830914
0.011604794 -0.0019612012 0.0014087515 -0.00498323 -0.0025647515 -0.042554334 0.0054080803 0.039827272
0.02958652 0.0024247768 -0.0015568461 -0.052900415 -0.0150258355 0.013365073 0.0030676997 -0.03561442
-0.023793112 -0.011779843 -0.017360363 -0.006560264 -0.032343954 -0.050557554 0.00024091432 0.021017168
-0.02331311 -0.019290632 -0.007592888 0.0028329005 -0.0031890539 -0.021202223 0.0078655165 0.033357877
-0.059990875 0.046128348 0.040231057 -0.019454341 -0.0056789336 0.02397995 -0.0020950357 -0.0032703553
0.028863508 -0.024395796 -0.010505628 -0.0025205784 -0.0060825455 -0.0359833 -0.02216063 0.0023957188
0.004726691 0.019740056 -0.0014581284 0.008461718 0.024117123 -0.007215256 0.010241795 -0.024721093
-0.031207921 -0.024547543 -0.020061078 -0.07757282 -0.015022493 -0.00725259 -0.08355066 -0.040701084
-0.02210353 -0.038179632 -0.017412795 -0.04102109 -0.032522906 0.0018746236 0.0070287576 -0.007947146
-0.005940736 -0.008244807 0.00652003 -0.017580653 -0.050751336 -0.053146984 0.0026183396 -0.021763824
-0.029688211 -0.01596696 -0.00057028723 -0.056214787 0.012322415 0.009088769 -0.013380918 -0.07463688
0.02064866 0.0068271784 -0.019615559 0.040696945 0.04990029 -0.06280904 0.010188083 -0.0072831856
-0.06334715 -0.037311994 -0.038232736 -0.029026357 -0.016276248 0.033241346 0.0026750795 -0.013933623
-0.052308623 -0.021207327 0.0428718 -0.027182061 -0.023161108 -0.05236568 -0.042317215 0.017734524
0.005269094 -0.047534693 -0.020471934 0.010638146 -0.0055933855 -0.036822945 -0.032902315 -0.04064368
-0.010359175 0.022747254 0.003956827 -0.0866176 -0.061216243 0.018353363 -0.01335618 -0.018001897
0.0033431237 -0.052034404 -0.030016497 -0.009706468 -0.046450343 -0.0372119 0.014796873 0.024241544
-0.03688696 -0.022841653 0.0019918098 0.0026765484 0.01474669 -0.012388142 -0.033228938 0.07764684
0.037828185 -0.032153044 -0.0102191195 0.05661944 -0.0052646436 -0.044413667 0.005923325 -0.021114836
0.04271518 0.0405813 0.030515019 0.053255137 0.012910932 -0.01477479 0.006995729 0.020401625
-0.02090026 0.024191923 -0.034361027 -0.013194217 0.0066260695 0.017479485 -0.04266547 0.030830776
-0.02060564 0.02484887 -0.029461928 0.029307451 0.0005507687 0.044370707 -0.004793902 -0.032906324
0.013113 0.022032384 -0.0034220368 -0.024692161 0.0456862 0.0139242485 0.008131642 -0.04815739
-0.046350848 -0.03285191 -0.014030839 -0.005409214 0.036133137 -0.009801312 -0.007281703 -0.0012502531
-0.022599982 -0.035362564 0.034500208 0.054763008 -0.013380703 0.078313395 0.047205355 0.029823419
-0.04606642 -0.024078393 -0.05310648 0.06381349 0.029832382 0.06935806 0.025299782 0.08075531
-0.043052636 -0.09704105 -0.016672399 -0.012263247 0.09492083 0.069666214 0.043694258 0.020164868
0.07374319 -0.042591047 -0.022405794 0.027550658 0.04157052 -0.044677816 0.0895467 0.04543452
-0.062474508 -0.0076241693 0.006036743 0.056577865 0.000990584 0.073245555 -0.024571719 0.03857761
-0.022245398 0.02789766 -0.04800572 0.066460595 0.010759865 -0.0016601379 0.11213041 -0.015080007

decoder.0.bias f4 [36]
00000000: 0635 f1bc 45ab 95bd 8c91 82bc 9291 bbbd
00000010: 25cf 8fbd c5cd 063c 99bd 39bd 8358 19be
00000020: 5461 1cbd 30df 11be 1328 15bd 1994 1bbe
00000030: 3679 32bd 2175 423c e02a 773d 6205 be3d
00000040: b710 ed3d a879 c53d 0789 17bd 8671 f6bd
00000050: 7f3f 5abd d6a1 efbd 98e5 12be b5f0 15bd
00000060: a9ad d2bd 1fe4 05be a944 1abe cd33 83bc
00000070: d630 04be 495c a5bd 1095 8fbd de60 8ebd
00000080: 32dc 793d 687a 01be c2ac febd 5998 08bd
-0.029444229 -0.07308058 -0.015938543 -0.09158625 -0.070219316 0.00822777 -0.04534683 -0.14975171
-0.038178757 -0.14245296 -0.03641517 -0.15193214 -0.043572627 0.011868746 0.060343623 0.092783704
0.11575454 0.09642345 -0.036995914 -0.120333716 -0.05328321 -0.1170079 -0.14345396 -0.03660651
-0.10287029 -0.13075303 -0.15065254 -0.016015911 -0.12909254 -0.080742426 -0.07010853 -0.0695207
0.06100101 -0.1264435 -0.12435295 -0.033348415

decoder.1.weight f4 [36]
00000000: 9d61 dd3e 0198 cc3e 3171 ea3e 88c5 f03e
00000010: e315 1b3f ccb4 203f 636b 223f 1ac9 153f
00000020: c554 1e3f 90ea 373f ab16 313f c31f 323f
00000030: c073 3b3f d12d 163f 3f88 2e3f e8d2 5c3f
00000040: 869a 983e 2f4b 843e 2c2c df3e 1cbd b83e
00000050: 95a7 f93e 34c1 083f ca65 1d3f 5f04 3a3f
00000060: f7f5 2e3f a0db 393f fefc 3e3f 4715 2d3f
00000070: 3d0e 353f dc7a 1a3f 5005 1c3f edce 203f
00000080: e327 193f b1d5 1b3f 570f ee3e a45c e83e
0.43238536 0.3995972 0.45789483 0.47025704 0.6058027 0.62775874 0.6344511 0.5850998
0.618481 0.7184229 0.69175214 0.69579715 0.73223495 0.5866366 0.68176645 0.8625932
0.29805392 0.2583861 0.43588388 0.3608178 0.48760667 0.53419805 0.6148344 0.7266292
0.6834406 0.72600746 0.74604785 0.6761059 0.7072485 0.6034372 0.60945606 0.62815744
0.5982649 0.6087294 0.46496078 0.4538318

decoder.1.bias f4 [36]
00000000: 051f 9ebd 0142 efbd 1347 95bd 06fa dfbd
00000010: 6ab9 b8bd 6918 ffbd 3033 d9bd 45dc 01be
00000020: c413 cbbd f9b5 03be 8e7c f2bd d3f8 dfbd
00000030: 5948 06be ccf1 e2bd 40e3 dc3d 1cac e53d
00000040: 813c ce3d 0472 56bd 3e0a 96bd 5bdb c4bd
00000050: f537 d8bd 1cdb 00be 883d dbbd 06a8 fabd
00000060: fc9f 05be 6a61 e7bd e316 ffbd 7335 04be
00000070: a432 13be ec6e 02be 4a33 0bbe 7de3 fabd
00000080: e989 9ebd f147 04be 6181 d2bd 2e03 cfbd
-0.0772076 -0.11682511 -0.07288947 -0.1093636 -0.0901974 -0.12455828 -0.10605466 -0.12681682
-0.09915879 -0.12862386 -0.11840163 -0.10936131 -0.13113536 -0.11081275 0.10785532 0.11214468
0.10070134 -0.052354828 -0.07326172 -0.09612151 -0.10557548 -0.12583584 -0.107050955 -0.12239079
-0.1304931 -0.11297877 -0.12455537 -0.12911014 -0.14374787 -0.12737626 -0.13593784 -0.12250421
-0.07741148 -0.12918068 -0.10278583 -0.10108028

decoder.1.running_mean f4 [36]
00000000: e020 b8bc ac9e 0dbd 983a 8dbc 94a8 8cbd
00000010: 9146 6ebd b4f0 5c3d 00bb 1fbc c269 c9bd
00000020: e135 34bc 36b2 b4bd 73a4 153c d62c dfbd
00000030: 45f6 803c 57d8 483d 0fcc 263d b2c9 9e3d
00000040: 5276 943d 38d6 973d 2133 2cbd fb30 d2bd
00000050: a3b1 fabc 93d7 87bd 14ca dbbd 5e7c 303c
00000060: 9c55 32bd 9a46 b5bd f3aa cabd c27e 2a3d
00000070: 96e3 76bd e83a c8bc d548 12bc b84b 80bc
00000080: 6cc2 883d d1e4 90bd cc32 d9bd 5585 82bc
-0.022476614 -0.03457515 -0.017239854 -0.06868091 -0.058172766 0.05394049 -0.009749174 -0.09834625
-0.010999174 -0.088230535 0.009133446 -0.10897224 0.01574243 0.049034443 0.04072195 0.07753314
0.0724913 0.07413906 -0.042040948 -0.102632485 -0.030602282 -0.066329144 -0.10731903 0.010771839
-0.043538675 -0.08851357 -0.09895887 0.041624792 -0.060275637 -0.024442151 -0.008928497 -0.015661106
0.06677708 -0.07074893 -0.10605392 -0.015932718

decoder.1.running_var f4 [36]
00000000: 3e48 af3e 43ce 963e 66f2 d53e 76c1 c23e
00000010: 2630 ea3e 01de d43e d710 033f 8c9f ea3e
00000020: 29ec 923e a652 d83e d01b 1f3f 9671 df3e
00000030: 86cb f53e 7205 f83e ecf6 b43e a242 c03e
00000040: 1ca8 fc3e 3c4c ad3e e4b8 c63e 2a7a 953e
00000050: d23d 043f 0c00 a33e 826f ac3e 9557 253f
00000060: 4d4f ba3e 2342 113f 531c 233f b96c e93e
00000070: bc2b f43e 115a 8b3e 900b d73e 0175 f73e
00000080: 5061 e83e ce7b b83e 653e c83e 6104 823e
0.34234804 0.2945424 0.41786498 0.38038224 0.4573986 0.41575626 0.5119757 0.4582485
0.286958 0.42250556 0.62151814 0.43641347 0.4800684 0.48441654 0.35344636 0.37550837
0.49347007 0.33847225 0.38812935 0.29194766 0.5165683 0.31835973 0.33678824 0.64586765
0.36388627 0.5674154 0.63715094 0.4559076 0.47689617 0.27217153 0.4200101 0.48331454
0.45386744 0.36031955 0.39110103 0.25393966
