trained_models/2E52:4794:1474:A2B2.pt (torch, 254297 bytes, 52 tensors)

encoder.encoder.0.0.weight f4 [36, 36, 7]
000000 b3 43 df 3b 36 fa 5b bd 83 a2 01 bd dd 90 0a bd
       0.0068134903 -0.053705417 -0.031649124 -0.03382956
000010 18 be e1 3c 5b af 15 3c 04 a8 34 3d 62 ca 10 3d
       0.027556464 0.009136046 0.044105545 0.035349257
000020 8b 30 f8 3c 70 9e d6 bc 4a 06 7e 3c 3e e2 fc 3b
       0.030296585 -0.026198596 0.015504429 0.0077174
000030 dd 90 7a 3d 3a 03 30 bd df 24 8d 3c 02 63 7e b9
       0.06117331 -0.042971827 0.017229496 -0.00024260211
000040 ee 16 62 3d 5e d6 09 bc 3e 2d de 3c 3e 91 99 bb
       0.05519765 -0.0084129255 0.027121183 -0.0046865037
000050 2b 67 12 3b 2a 9b 97 bb 29 a1 52 bc 77 7b 58 3d
       0.0022339325 -0.0046266513 -0.012855806 0.05285212
000060 07 54 4c bc 88 e8 3b 3c a9 f3 f6 bc ed cf 2f bd
       -0.012471206 0.011469014 -0.030145483 -0.042922903
000070 27 fe 02 bd a9 1b 6f ba ad 40 8e 3b 02 e7 24 3d
       -0.03198066 -0.0009121248 0.004341206 0.04025937
000080 ac eb 51 3d cf da de bb 61 3c 3e 3d 66 c0 8f 3d
       0.051250145 -0.0068009864 0.0464443 0.07019119
000090 c8 ea 16 3d 47 e0 4e 3d 40 18 2e bc c8 5e 95 3c
       0.036845 0.050506856 -0.010625899 0.018233672
0000a0 53 8f c6 3c 0b 2a c0 3c e9 3d 39 3d 38 fe 0b bd
       0.024238264 0.023457548 0.045225058 -0.03417799
0000b0 f6 73 21 bd 0d e2 84 3c 88 b4 9f bc 06 77 51 bc
       -0.03941723 0.01622107 -0.019495264 -0.012784725
0000c0 42 fd c6 3c f0 84 39 bc b8 70 72 3d 61 76 cd bb
       0.024290685 -0.011323199 0.05918953 -0.0062702154
0000d0 75 ce 5b 3d 0e 70 58 bd ed 54 51 bd 92 b6 a4 3c
       0.05366369 -0.05284124 -0.051106382 0.020106588
0000e0 7b 48 b7 3c 5c 3c 91 3d e8 49 48 bd 97 99 99 bc
       0.022373429 0.07091591 -0.048898607 -0.018749995
0000f0 27 18 8a 3c cf f4 e3 3b e5 97 07 bd f8 5a 01 bd
       0.01685722 0.0069566737 -0.033103842 -0.031580895
000100 2b b7 c7 bc 38 f4 d0 3c a1 95 e2 bc fa 80 2e bd
       -0.024379333 0.025507078 -0.02765924 -0.04260347
000110 94 23 64 3c 58 66 12 3d 36 9d 2f 3d b8 49 10 3d
       0.013924498 0.035742134 0.042874537 0.035226554
000120 d1 f7 f4 3a f4 83 75 bc 1d 87 f2 3c 2f 18 25 3d
       0.0018689578 -0.014985073 0.029605443 0.040306266
000130 cf 75 96 bc b7 40 87 3d 12 29 85 3d a1 e3 44 bd
       -0.018366722 0.0660414 0.06501974 -0.048068646
000140 67 0b 2e 3d c4 d2 26 bd 96 54 17 3d e4 e4 16 bc
       0.042491343 -0.040728346 0.0369459 -0.009209845
000150 e8 c8 cc 3c 07 5f 20 3d c1 4e 93 3d b6 b2 5c 3d
       0.024998143 0.039153125 0.071927555 0.05388137
000160 7c 24 92 3a 6c cc 5a bd f2 cb a4 3c 1a cc 06 bd
       0.0011149789 -0.05341761 0.02011678 -0.03290949
000170 2b fe ae bc 4e 4d f8 3b 72 9e 1f bd c5 0f 4b 3b
       -0.021361431 0.007577575 -0.038969465 0.0030984741
000180 eb d9 f5 3c 5a cc 65 3d a9 83 9d bc 0f d1 2c bd
       0.030011138 0.056103088 -0.01922782 -0.04219156
000190 f5 4b 0c bc 0b 48 10 3d 77 70 c6 3c be c8 20 3d
       -0.008563031 0.035224956 0.02422355 0.039253943
0001a0 ae 99 50 3d 00 82 4e bd f4 57 ed bc 19 8f 39 3d
       0.05092781 -0.050416946 -0.028972603 0.045302484
0001b0 80 bd a4 3c be 94 03 bd ab ee b0 bc fc ff ab 3c
       0.020109892 -0.032124273 -0.02159818 0.020996086
0001c0 2a 98 b9 bc 0e 63 bd 3b b8 65 45 3d f2 bd 40 3d
       -0.022655565 0.0057796305 0.04819271 0.047056146
0001d0 b5 6e 96 bb 9b 12 94 bc 3a c1 9c bc b3 82 d8 3c
       -0.004590834 -0.018075278 -0.019135106 0.02642951
0001e0 43 98 63 3c b1 09 40 3d c1 9a a0 bc 97 59 03 bc
       0.0138912825 0.046884242 -0.019605042 -0.008016965
0001f0 c3 66 e4 bc f8 83 ab 39 c8 c3 0d 3d 14 ad b0 bc
       -0.027881032 0.00032713986 0.03461054 -0.021566905
000200 29 32 ef bc 4e 9f c5 3c c9 00 67 3d e5 cf d7 3c
       -0.029198723 0.024123814 0.056397233 0.026344249
000210 7b 1d a4 bb c1 f8 70 3d d4 17 2b bd 43 ba 43 3d
       -0.005008397 0.05883098 -0.04177077 0.047785055
000220 80 5e e1 bb 8b b3 bd 3c 08 a2 14 bd 92 ca 99 3c
       -0.0068777204 0.023156902 -0.036287338 0.01877335
000230 d8 97 e9 3c be 41 34 3b 1d 46 64 3d c1 bf 4d bb
       0.028514788 0.0027505006 0.055730928 -0.0031394812
000240 63 93 01 bd 22 34 cf bc ee 1d d1 3c 91 e8 44 3c
       -0.0316347 -0.025293414 0.025526967 0.012018339
000250 27 84 5d 3d 7f dc 1b bd 6d c4 04 bd 5d 05 53 3c
       0.05408111 -0.03805208 -0.03241389 0.012879697
000260 7a 0a 3e bd 50 9c 8b bb fd 93 ca bc ef a9 23 3d
       -0.04639671 -0.0042605773 -0.02472877 0.039956983
000270 7f ef 3a bd 46 fe cc bc 70 7d 3a 3c 15 2d a8 3c
       -0.045638558 -0.02502359 0.011382446 0.02052931
000280 45 8f 8d b9 a3 b5 7a 3c 2f a1 37 bc ba fd ae 3c
       -0.0002700036 0.015302095 -0.011207863 0.02136122
000290 6e 34 2f 3d d0 ea d0 3c fc 1d 5d 3d 17 a5 51 bd
       0.04277461 0.025502592 0.053983673 -0.051182833
0002a0 fe f3 3f bd 2d 81 78 3d 3b 31 06 bd 89 02 57 3d
       -0.04686355 0.060670067 -0.032761794 0.052492652
0002b0 37 80 04 bd c2 c9 20 3d 3f a3 b6 3c ac 01 e2 bc
       -0.032348838 0.03925491 0.022294639 -0.027588688
0002c0 d8 5e ba 3c 84 2a 35 3d 21 03 4e bd c1 2f 6b 3d
       0.022750303 0.04423 -0.050295953 0.05741859
0002d0 96 c3 15 3d 31 f0 f5 3c f7 cb 8d 3c 52 89 3b 3d
       0.03656348 0.030021759 0.017309172 0.045785256
0002e0 92 ab 28 3d 02 7d 0e bd da 97 8b bc 55 fe 81 bc
       0.041179247 -0.034787185 -0.017040182 -0.015868345
0002f0 71 9b 66 3d 79 20 87 3d a8 84 9c 3c 1f 51 13 3d
       0.056300584 0.065979905 0.019106224 0.035966035
000300 17 00 3a 3d 13 50 c0 3c 34 fa 68 3d 4f b2 31 bd
       0.045410242 0.023475682 0.056879237 -0.04338294
000310 c3 17 71 3d ba ae 1a bd 36 a4 30 bd d6 cf c8 bb
       0.05886055 -0.03776429 -0.043125354 -0.0061282916
000320 fd 4f 68 3d d6 fd 5f bd 2d e5 0c bd b3 88 6a 3c
       0.056716908 -0.054685436 -0.034398247 0.014314818
000330 85 61 5a bc 55 ea 44 bd 0c 98 26 3d ee d8 bd 3c
       -0.0133289145 -0.04807504 0.040672347 0.02317473
000340 fe a9 4e 3c cd a7 46 3d 52 da 37 3d 31 72 37 bd
       0.0126137715 0.04849987 0.04488594 -0.044786636
000350 e5 8d 6e 3d d9 85 c3 ba c4 c8 78 bd 57 27 0c 3d
       0.05824079 -0.0014917209 -0.06073834 0.034217205
000360 d7 78 5c 3d 9e 05 70 3d 46 c4 3c 3c 0e 8f 85 bc
       0.05382618 0.058599107 0.011521405 -0.016303565
000370 f4 92 41 3d e0 dc 85 bc a6 1d cd bc fa fc 65 bc
       0.047259286 -0.016340673 -0.025038552 -0.014037365
000380 a5 a9 65 3a ef 5c 7c 3d 8a 5e 04 bd 6f 6a 6a 3d
       0.0008760936 0.061612066 -0.032316722 0.05723041
000390 ba 0d 5a 3d a1 d2 5d bc b7 62 c1 3c 5e a6 96 bc
       0.053235747 -0.013538987 0.023606641 -0.018389877
0003a0 90 da 2c 3d 42 8b 18 3d ca 81 54 bd bb cd 2e bc
       0.042200625 0.03724218 -0.05188159 -0.010669167
0003b0 b2 be 18 bd 38 f5 99 bc 95 b1 2a 3c 69 ea 01 bd
       -0.037291236 -0.018793687 0.010418315 -0.03171769
0003c0 de 48 e2 bc cc e8 e9 3c 69 30 44 3d 66 5b d5 3c
       -0.027622636 0.028553389 0.04789773 0.026044559
0003d0 ee f7 42 3d 72 ed 24 bb 2d d9 41 3c 6e 18 54 bc
       0.047599725 -0.0025165942 0.011831564 -0.012945278
0003e0 c5 16 11 3d 6a 3c 3f bd 15 1d 1b 3d 3b f5 07 bd
       0.035422105 -0.046688475 0.03786953 -0.033192854
0003f0 8c d3 be bc 6e 2a 88 bd 75 0d 95 3c 64 4d 3d bd
       -0.023294233 -0.06648718 0.018194893 -0.046216384

encoder.encoder.0.0.bias f4 [36]
000000 1b af bf 3c 3a 47 19 3d 6b 93 85 bd 11 43 48 bd
       0.023398926 0.037421443 -0.06522258 -0.048892085
000010 3c 44 0c bd 94 13 50 3c b4 5b ec bb 0c 6a 6f bc
       -0.03424476 0.01269998 -0.0072130803 -0.014612686
000020 d7 41 da bb 99 a9 dd 3c b3 eb bc bc 0c d9 2a bd
       -0.0066606808 0.02705841 -0.023061609 -0.0417109
000030 e3 5c 80 bd 24 a0 15 bd c9 21 80 3c f2 3f 11 bd
       -0.06267717 -0.036529675 0.01564111 -0.035461374
000040 22 8c 92 3c 6e 51 72 bd 91 7a e1 3c 60 81 8b bd
       0.017889086 -0.05915969 0.027524265 -0.06811786
000050 7c 65 de 3c 8b cd 1f bb 54 c8 98 bc 31 cd 6f 3d
       0.027148 -0.0024383988 -0.018650211 0.058545295
000060 9c e6 53 3d e0 84 eb 3b ba de f8 3c 24 d0 42 3d
       0.051733598 0.007187471 0.030379642 0.04756178
000070 ca 91 53 3c 93 47 21 3d c0 8e e0 bb de 38 d5 bc
       0.012913177 0.0393749 -0.0068529546 -0.026028093
000080 c7 50 47 3d 73 b7 7e bd 2c 6d 07 bd 73 51 75 bd
       0.04866102 -0.06218667 -0.0330631 -0.05989213

encoder.encoder.0.1.weight f4 [36]
000000 b2 cc 7d 3f 51 05 79 3f 77 10 80 3f 93 2c 7a 3f
       0.99140465 0.9727374 1.0005025 0.97724265
000010 09 42 79 3f e6 5f 80 3f 70 05 81 3f 64 ac 7e 3f
       0.97366387 1.0029266 1.0079784 0.994818
000020 03 bf 7e 3f 67 57 81 3f 70 1f 7a 3f bf 69 81 3f
       0.9951021 1.0104798 0.9770422 1.0110396
000030 67 b6 7d 3f 45 24 83 3f f7 56 82 3f 16 30 84 3f
       0.9910645 1.0245444 1.018279 1.0327175
000040 eb 5f 76 3f ef 05 7b 3f 17 e1 79 3f 67 bd 7d 3f
       0.9624011 0.9805593 0.97609085 0.9911713
000050 33 e6 84 3f c2 4d 7b 3f 0f a9 7c 3f 3b 35 70 3f
       1.0382751 0.98165524 0.9869546 0.93831223
000060 29 90 7a 3f 87 76 86 3f 03 48 72 3f 42 a7 7b 3f
       0.9787622 1.0504922 0.9464113 0.9830209
000070 fe 9c 7f 3f 43 df 76 3f 94 92 8b 3f ca 02 7c 3f
       0.99848926 0.9643442 1.0904107 0.98441756
000080 80 50 74 3f e9 72 81 3f 90 93 7a 3f 3c 09 81 3f
       0.95435333 1.0113193 0.9788141 1.0080943

encoder.encoder.0.1.bias f4 [36]
000000 f8 ae 9c bc d8 31 81 bc 60 b1 16 bd 3f 7f b8 bb
       -0.0191264 -0.015770838 -0.03679025 -0.0056304033
000010 fb 72 3a bc 46 5d ae bc 71 86 21 bd 04 f3 a0 bb
       -0.011379953 -0.02128471 -0.039434854 -0.004911782
000020 a7 c9 94 37 86 9e 2c bd d9 8f 3c bc ba 60 9e bc
       1.7736877e-05 -0.042143367 -0.011508905 -0.019333232
000030 8e 24 23 bc 0d 67 05 bd 91 25 a4 bc af 6b 3c bc
       -0.009957446 -0.03256898 -0.020037444 -0.011500283
000040 4f 57 56 bc 68 97 e0 bc ee 44 b7 bc 15 07 4a bc
       -0.013082339 -0.027415946 -0.022371735 -0.01233079
000050 a6 c8 8f bc 15 f1 b3 bc a5 1b 8c bc 23 3e 78 bc
       -0.017551731 -0.021965543 -0.017103026 -0.015151533
000060 54 29 ce bc 6f 3a 96 bc 98 93 46 bc 19 35 2a bc
       -0.025166191 -0.01833841 -0.01212015 -0.010388636
000070 7f c0 d3 bc aa c3 3c bc 38 62 3c bc d4 a2 83 bc
       -0.025848625 -0.011521259 -0.011498027 -0.016068853
000080 ab 20 89 bc af 2d 2b bd c2 a8 8a bc 42 6a 2a bd
       -0.01673921 -0.041791614 -0.016926173 -0.04160524

encoder.encoder.0.1.running_mean f4 [36]
000000 1d bb 2f bf 91 9e 81 bd 7a 75 0b bf ea 3a 0e bf
       -0.6864489 -0.06329072 -0.5447613 -0.55558646
000010 d4 25 ad bd 1c 43 95 bd 60 c0 85 be df 02 78 bf
       -0.08454481 -0.07288191 -0.26123333 -0.9687938
000020 80 9f 57 be 7a fe f5 be 1a d7 3c 3f 97 36 31 bf
       -0.21056938 -0.48045713 0.7376572 -0.6922392
000030 b0 93 5a be 14 98 af be 16 f9 fc be 83 01 35 3f
       -0.21345401 -0.34295714 -0.49408787 0.7070543
000040 36 41 32 3f 13 35 6e bf f1 79 27 bf 88 e7 3c 3e
       0.69630754 -0.93049735 -0.6542044 0.18447697
000050 f9 f0 06 bf 46 e0 10 bf ec 0d 29 bf 6e 1e 48 be
       -0.52711445 -0.56592214 -0.6603687 -0.19542858
000060 9c 2f 92 be e0 93 81 be d6 79 95 be 7e 71 61 3f
       -0.28551948 -0.25308132 -0.29194516 0.880638
000070 75 e6 0a be d7 a5 75 3e 7b 59 6d 3e 07 3f cc 3e
       -0.13564475 0.23989044 0.23178665 0.39891836
000080 76 f0 0e bf 34 aa d5 be 12 21 f3 3d 3f 60 bb be
       -0.55835664 -0.41731417 0.11871542 -0.36596867

encoder.encoder.0.1.running_var f4 [36]
000000 83 13 91 3a bb 6a e7 39 5b e9 5c 3a 21 bb 87 3a
       0.0011068437 0.00044139274 0.00084271067 0.0010355451
000010 01 97 1e 3a 4a 86 6a 3a b1 f7 95 3a ed fd b2 3a
       0.0006049723 0.0008946402 0.0011441616 0.0013655998
000020 03 e9 5f 3a 68 f7 8e 3a 41 4c 9d 3a f1 fa 82 3a
       0.00085414964 0.0010907473 0.0012000875 0.0009992999
000030 b1 77 0a 3a 67 03 83 3a 91 ab 65 3a 59 06 91 3a
       0.00052821176 0.0009995521 0.0008761222 0.0011064514
000040 80 4c 7a 3a 45 c7 9a 3a 31 31 b5 3a fa db 09 3a
       0.00095481426 0.0011808655 0.0013823864 0.00052589143
000050 8a f8 5a 3a d4 23 92 3a 46 72 87 3a 24 cb 1c 3a
       0.0008353075 0.0011149594 0.0010333739 0.0005981198
000060 41 b0 32 3a 82 34 05 3a 74 a0 85 3a 19 b9 9f 3a
       0.0006816425 0.00050813716 0.0010194913 0.0012185901
000070 92 20 8d 3a c8 00 8c 3a 42 1f 89 3a 24 31 54 3a
       0.0010767153 0.0010681385 0.0010461586 0.0008094481
000080 28 70 6e 3a d1 66 45 3a a8 ae 18 3a 52 b9 c2 3a
       0.0009095692 0.00075302745 0.00058243657 0.0014856255

encoder.encoder.1.backbone.0.0.weight f4 [36, 36, 3]
000000 90 b2 ad 3d 96 3e 19 bd 8c f1 c3 bd f7 c5 8a 3d
       0.08481324 -0.037413202 -0.09567556 0.0677604
000010 00 12 96 3d 31 10 bd bc 10 7d 25 bd 61 37 71 bd
       0.07327652 -0.02307901 -0.040402472 -0.058890704
000020 8b 19 15 bd c3 41 c7 3c bc 1f 8b bd 92 86 8e 3d
       -0.036401313 0.02432335 -0.06793162 0.06959261
000030 c9 42 a6 3d 79 8a 9d 3d cb 10 bf bd 03 66 38 bc
       0.08118207 0.07692427 -0.09329375 -0.01125479
000040 a6 83 95 3d 79 0e a7 3d 7b 49 85 bc 68 0f 85 3d
       0.073005006 0.08157057 -0.01627039 0.06497079
000050 c5 8a 06 bd 8b 7c 10 3d 9a 5c 0b bd 2a d8 45 bd
       -0.032847185 0.035275023 -0.03402386 -0.048301853
000060 ee f7 93 3c f3 73 33 bd 17 d4 4d 3d c4 dd 88 3d
       0.018062558 -0.04381175 0.050251093 0.066829234
000070 c1 82 5b 3d b1 58 38 3c e1 d7 32 3d 2c ca 1f bb
       0.053591494 0.011251614 0.04366291 -0.0024381978
000080 2c 77 52 bd 46 07 ca 3d e0 09 94 3d 89 9a 9f 3c
       -0.051383182 0.098646685 0.07228446 0.019482868
000090 e5 fe 6d bb 2e 9a 84 bd 00 48 35 3d 56 2e 9b 3c
       -0.003631526 -0.0647472 0.044258118 0.018942993
0000a0 4b b5 65 bb 1e 3a 86 3d 42 38 09 bd 6c d8 71 3d
       -0.0035050686 0.06554054 -0.033500917 0.059044287
0000b0 ec 71 0a 3d 8f fb 35 bd 53 b7 72 3d b4 2d 03 bd
       0.03380005 -0.044429358 0.059256863 -0.032026008
0000c0 82 15 09 3d 7e 2c a5 3c 5b 31 96 3b 38 1b aa 3c
       0.033467777 0.020162817 0.0045835203 0.020764932
0000d0 16 70 6d 3b 3a 02 af bc 80 0b dd bc 71 0c b1 3c
       0.0036230139 -0.021363366 -0.026983023 0.021612378
0000e0 18 11 6c 3c 29 ee d2 3c bc df 50 bc 84 ba 89 3c
       0.014408372 0.02574833 -0.012748655 0.01681257
0000f0 8f dd 99 bd 73 33 46 bd 58 35 35 3d c9 86 5a 3d
       -0.07512962 -0.04838891 0.044240326 0.053351197
000100 84 48 ba bd 3c a8 3e 3d 91 97 3f bc 4b de a2 3d
       -0.090958625 0.04654716 -0.011693851 0.07952555
000110 c5 61 29 3c d1 c4 b4 3b ed 6f 0f 3d 24 ec 99 bd
       0.0103382515 0.0055166264 0.03501885 -0.075157434
000120 76 f1 ba 3d 19 70 c5 bc b6 8b c8 bc 62 65 a1 3d
       0.09128086 -0.024101304 -0.024480682 0.07880665
000130 d1 a3 8c bd 49 b6 76 3c 8e bc 0a bd 21 d3 af 3d
       -0.06867183 0.015058109 -0.033871226 0.085851915
000140 60 75 bb bd df f2 7c 3d ef 7e 50 3c 6c c2 83 3d
       -0.09153247 0.061755057 0.012725576 0.064335674
000150 ac 37 36 bd cc ac 56 bd aa ac a1 bd 85 d8 8b bc
       -0.044486687 -0.052410886 -0.07894261 -0.017071018
000160 59 8b 77 3b 43 0d 8f 3c be d2 92 bc 27 cd 99 3d
       0.0037772267 0.017462378 -0.017922755 0.07509833
000170 ae 2c dd 3d e1 cf 5d bd 5e 72 8d 3c 78 cf 02 3d
       0.107995376 -0.054153327 0.017266449 0.03193614
000180 76 2f 3f 3d 8b 66 15 3a a2 b1 85 bd 0b d9 bb 3c
       0.04667612 0.0005699179 -0.065280214 0.022930643
000190 5f 78 8f bd ac 14 b0 3b 5f 76 82 3d 7b 08 1c 3c
       -0.07005381 0.005373558 0.06370234 0.009523506
0001a0 8b c9 74 bd 62 e9 13 bd 6a 23 0d bd fc a7 61 bd
       -0.05976252 -0.036111243 -0.0344576 -0.055091843
0001b0 c7 18 14 3d 0c 75 aa 3c ea 52 88 3d bf 0c 9a bd
       0.036156442 0.020807765 0.066564396 -0.075219624
0001c0 3f 4f b0 bd 22 bb bb bd 63 1e 36 bb 87 d1 dd b9
       -0.08608865 -0.09166552 -0.0027789108 -0.00042308515
0001d0 5c d6 97 bc e2 a8 a2 3c 9e 48 b2 3d e2 a5 d1 3c
       -0.018534832 0.01985592 0.08705257 0.025591794
0001e0 a8 8e 2e 3c 64 9c 75 3d 20 93 9c 3b fb b7 a1 3d
       0.010654129 0.0599636 0.004778281 0.078964196
0001f0 f8 64 13 3c 7d c1 af bd 26 9c 87 bd 18 7a 12 3d
       0.008996241 -0.08581827 -0.0662158 0.03576097
000200 24 97 92 3d 52 cf 8c 3d 6c de 35 3d d9 47 47 bc
       0.07157734 0.06875481 0.04440157 -0.012163126
000210 e1 39 5b bd c5 ec 49 bc 3c 48 7b 3d 07 ca ea bc
       -0.053521995 -0.012324517 0.061348185 -0.028660787
000220 f6 0b 2d bd a4 ba 99 3d f9 77 ab 3d 0f b6 00 bc
       -0.042247735 0.07506302 0.08372492 -0.007855906
000230 11 4b 81 bd c8 67 4f 3d 4c 88 6c 3d 15 e3 a4 bd
       -0.06313146 0.050636083 0.05774717 -0.08051125
000240 76 e0 26 bd 9a 79 0d bd 8a eb 8b bc 60 d4 3f 3c
       -0.040741406 -0.034539796 -0.017080087 0.011708349
000250 e1 b6 de 3d eb 2a 1d 3d ca db a1 bc 7f ce e6 bc
       0.10874725 0.038371008 -0.019758124 -0.028174637
000260 5b 00 74 3d c8 9d e2 3b a4 5e 8a 3d 1d 16 23 3d
       0.05957065 0.0069157816 0.067563325 0.03981601
000270 99 63 09 3d 11 c9 1c 3d 04 8a b3 bd b5 3b 25 3d
       0.03354225 0.03827769 -0.08766559 0.040340144
000280 a4 eb 9b 3c db 73 a1 3d 96 84 f0 3a 41 d5 76 bd
       0.01903326 0.07883426 0.001835006 -0.06026197
000290 93 60 44 bd e3 bc 73 bd f6 bc 0e bd 54 af 89 3d
       -0.047943663 -0.05950631 -0.034848176 0.06722894
0002a0 33 d4 38 3d 07 21 a8 bd 20 05 70 3d 1c bb 2d 3d
       0.045124244 -0.082094245 0.058598638 0.04241477
0002b0 ba a8 9f 3d c5 79 8e bd be 4e 25 bc 53 44 d8 3c
       0.07795854 -0.069568194 -0.010089574 0.026399767
0002c0 7a 16 e2 3b 73 c8 20 3c 7a c9 90 3d ba cb 4f 3d
       0.006899652 0.009813416 0.070696786 0.0507314
0002d0 97 89 22 3d 3a db 01 3d 80 e1 82 bc b4 23 b3 bd
       0.039681997 0.03170321 -0.015976667 -0.08747044
0002e0 a4 fd 07 bb 56 f2 e3 bc 57 51 c0 3c 59 ed 35 3d
       -0.0020750547 -0.027825516 0.023476286 0.044415805
0002f0 db ac cc bc dd 84 25 bd 6d d8 56 bc ef 3a 34 3c
       -0.024984768 -0.04040991 -0.013113123 0.011000379
000300 49 35 a0 bd e8 d6 e9 bc 93 7d 31 3c a6 13 e2 3b
       -0.07822663 -0.028544858 0.010833162 0.006899315
000310 2b 1d 0b bd 84 e2 47 bd 69 58 c7 bd 9d bc 7a 3c
       -0.033963364 -0.048800007 -0.0973366 0.015303758
000320 6f 11 7c bd c8 ae cf 3d ac 2a c3 bd b2 87 8c 3d
       -0.061540063 0.10140759 -0.095296234 0.06861819
000330 0f b7 2c 3c d9 ae 23 bd 82 63 31 3d 19 91 d7 bc
       0.010541691 -0.03996167 0.04330779 -0.026314305
000340 50 23 9f bd 94 85 a1 bd b5 b0 74 bd 56 36 44 3d
       -0.07770407 -0.07886806 -0.059738833 0.04790338
000350 3e a4 0c bd 1a 7a 6f 3d b0 f7 19 bd f9 9b 3f bd
       -0.03433632 0.058466054 -0.03758973 -0.046779606
000360 4f 1c d6 bb b5 e0 3e bd 2e 1f 51 bc 47 ae 53 3d
       -0.0065341364 -0.046601016 -0.0127637815 0.051679876
000370 05 75 3c 3d fd cc 05 bc e2 a5 09 3d ef 4e 87 3c
       0.046010036 -0.008166549 0.033605464 0.01651713
000380 36 e5 5d 3d 1e 10 a5 bd cf d7 75 bd b6 f6 8f bd
       0.05417367 -0.08059715 -0.060020264 -0.07029478
000390 29 43 56 bd 36 ca 91 bc f1 64 42 3d 85 22 82 3d
       -0.052310143 -0.017796617 0.047459546 0.0635424
0003a0 28 32 86 b9 ab 97 c7 3d cd 7b 37 3c 78 aa 8b bd
       -0.0002559584 0.09745725 0.01119895 -0.06819624
0003b0 55 ae 1a bd 78 bc 98 bc 11 a7 1c bd b4 bb d3 bc
       -0.037763912 -0.018644556 -0.038245264 -0.02584634
0003c0 6b 70 44 3d df 78 9d 3d 92 fa 30 3d e0 9b 80 bc
       0.047958773 0.0768907 0.043207712 -0.015699327
0003d0 8b de 0b bc fc 94 55 bd 43 c7 54 3c 1a 31 72 bc
       -0.008536945 -0.052144036 0.012986961 -0.014782215
0003e0 dc 5e bb 3d 6d 48 27 3c 04 80 39 3d e2 aa 2e 3c
       0.09148952 0.010210139 0.0452881 0.010660859
0003f0 de e0 85 bd 0d e2 53 bc ea 77 07 bd d7 78 5c bd
       -0.06537031 -0.012932313 -0.033073343 -0.05382618

encoder.encoder.1.backbone.0.0.bias f4 [36]
000000 df 61 24 bd 84 3c 12 3d 75 96 17 bd 2e 12 a7 bd
       -0.0401324 0.035702243 -0.03700872 -0.081577644
000010 45 d3 a0 3c ae b4 8e 3d 7d 7f 4c 3d 0e 39 7b 3d
       0.019631991 0.06968056 0.04992627 0.06133371
000020 d7 42 74 bd 2c a4 76 bd d9 5b 6f bd 3c bf a6 3d
       -0.059634056 -0.06021516 -0.058437202 0.08141944
000030 a0 0d a0 bd 27 86 10 bd 5a 8b 33 3c 4b eb c0 bc
       -0.07815099 -0.035284188 0.010958517 -0.023549696
000040 54 3d 1b bd 1f 0f c3 3d d3 a9 94 bd a3 e1 d7 bd
       -0.037900284 0.095243685 -0.07258954 -0.10541084
000050 a2 ce 8d 3d 11 11 b3 bd ed 20 69 3d df 1b ac 3d
       0.06924178 -0.087434895 0.056916166 0.084037535
000060 9d f2 86 bd be 5e 20 3d cd a9 8c 3b d0 2a 1b bd
       -0.065892436 0.039152853 0.004292703 -0.037882626
000070 19 29 c2 3c 19 49 a6 3d 01 90 ac 3c a1 c5 0e 3d
       0.023701238 0.08119411 0.02106476 0.034856442
000080 a8 de 2a bd 80 3d 65 3d b9 b6 9e bd 8e 66 77 3d
       -0.041716248 0.055966854 -0.07749695 0.06040054

encoder.encoder.1.backbone.0.1.weight f4 [36]
000000 ca bc 7e 3f cc f1 79 3f 43 96 7a 3f c5 63 7a 3f
       0.9950682 0.9763458 0.9788553 0.97808486
000010 5c 0c 7d 3f 01 78 7b 3f f4 4f 7d 3f 14 bc 7d 3f
       0.98846984 0.98229986 0.98950124 0.9911511
000020 61 29 7b 3f 5d 82 78 3f 71 d3 77 3f e4 88 80 3f
       0.98110014 0.9707392 0.9680701 1.0041776
000030 1f b0 80 3f 64 86 7d 3f f1 79 7b 3f 9f 01 78 3f
       1.0053748 0.9903319 0.9823294 0.96877474
000040 1e 9d 80 3f 85 07 7b 3f 71 d1 7a 3f 03 1b 81 3f
       1.0047948 0.9805835 0.9797583 1.0086368
000050 0c 1d 75 3f 1c e6 80 3f d7 7d 7c 3f 89 bc 7e 3f
       0.95747447 1.0070224 0.98629516 0.9950643
000060 21 4a 7b 3f ac d1 7d 3f 26 c0 7c 3f fc 0c 7c 3f
       0.98159987 0.9914806 0.98730695 0.9845731
000070 28 ec 7d 3f f8 54 80 3f fb 8a 7a 3f c9 a8 7e 3f
       0.9918847 1.002593 0.9786832 0.99476296
000080 d5 65 81 3f 00 20 7b 3f 78 45 7c 3f d2 02 78 3f
       1.0109202 0.98095703 0.985435 0.96879303

encoder.encoder.1.backbone.0.1.bias f4 [36]
000000 be a3 ac bb 95 e7 6c bc 9c 44 af bc 21 d1 03 bc
       -0.005268543 -0.01445951 -0.02139502 -0.008045466
000010 de 3e 81 bc b3 e2 c7 3b 69 1c 3e bc 23 8c 58 bc
       -0.015777048 0.0061000227 -0.011603453 -0.013217005
000020 c2 10 12 bb c9 a9 94 bc db 79 70 bc 02 d3 e2 bc
       -0.002228782 -0.018147366 -0.01467749 -0.027688507
000030 2d 3a ca bb 91 37 dd bb a0 d1 ad b8 f1 8c 92 bc
       -0.006171486 -0.006751009 -8.2883285e-05 -0.017889472
000040 5e 8e 81 bc 74 5f af bb da b0 20 bc 51 b3 ca bc
       -0.015814956 -0.005351955 -0.00980779 -0.024743708
000050 8e 36 bc bb 5c a9 c6 bc ef 1a 03 bc 69 e0 64 bc
       -0.005743808 -0.024250679 -0.008002027 -0.013969519
000060 cc 14 8f bc 99 ac 02 bc df 69 85 bc 44 d3 a5 bc
       -0.017465971 -0.007975721 -0.016285835 -0.02024234
000070 fd 69 47 3c ec ee d4 3a 5f d3 b3 ba c2 64 39 bc
       0.012171266 0.0016245521 -0.001371961 -0.011315526
000080 58 25 03 bd 49 3f 5d bc ee d8 da bb f3 e1 14 bc
       -0.032018036 -0.013503858 -0.006678692 -0.009087074

encoder.encoder.1.backbone.0.1.running_mean f4 [36]
000000 f5 18 01 3d 36 29 3d 3c cc c1 19 bd 1f d0 34 bd
       0.03151794 0.01154547 -0.037538335 -0.044143792
000010 39 0b ae 3d cc 82 5b 3d d7 93 20 3d 66 be 0f 3d
       0.08498234 0.053591534 0.03920349 0.035093687
000020 d7 4d a7 bd 51 4c 92 bd 71 8f f6 bc 11 25 f5 3d
       -0.08169144 -0.071434624 -0.030097695 0.119699605
000030 c6 d4 b1 bd c4 24 94 bc 8d e7 09 bd 96 a2 76 bb
       -0.086831614 -0.018083937 -0.03366809 -0.003763353
000040 12 da 1e bd 89 91 49 3d 48 a3 7f bd ff 44 b7 bd
       -0.038782187 0.04921106 -0.062411577 -0.08948707
000050 d3 93 de 3d bf 36 d1 bc 9e 51 05 3e 4f 38 c9 3d
       0.10868039 -0.0255388 0.13019416 0.09825193
000060 1e 76 a1 bd 9d b7 fd 3d 60 f5 b6 3b c8 e1 93 bd
       -0.07883857 0.12388537 0.00558345 -0.07220799
000070 f1 2d e3 bc 04 36 00 3e b8 0a d0 3c b3 dd b1 3c
       -0.027731868 0.12520605 0.025395736 0.02171216
000080 61 00 39 bc 33 82 97 3c d5 1d f0 bd 5d 89 a7 3d
       -0.011291594 0.018494701 -0.1172444 0.08180497

encoder.encoder.1.backbone.0.1.running_var f4 [36]
000000 42 b2 9d 3e 9b 81 88 3d bd 60 c1 3e 43 f5 c5 3e
       0.30800062 0.06665345 0.37769118 0.38663682
000010 a2 eb 81 3e ba 69 31 3e fc bc a5 3e 72 a7 46 3e
       0.25375086 0.17325488 0.32370746 0.19399813
000020 5c 3b 9c 3e 76 31 06 3e 9c 81 ab 3e 69 e8 bf 3e
       0.30514038 0.13104805 0.33497322 0.37482002
000030 3f 67 7a 3e d7 00 72 3d 95 2a 8c 3e e7 75 6b 3e
       0.24453448 0.059082832 0.27376238 0.22994195
000040 2f 49 89 3e 86 76 9f 3e 1b 12 27 3e ca c3 ca 3e
       0.26813647 0.31145114 0.163155 0.396025
000050 a2 f0 62 3e b2 71 c9 3e 2a 0a 0e 3e 36 4d b9 3e
       0.22162107 0.39344555 0.13871065 0.3619172
000060 ab 04 f8 3d a5 a9 6e 3e 3e 0a f9 3e fd 6c 37 3e
       0.12110265 0.23306902 0.48640627 0.1791267
000070 36 d8 c2 3d de 5d f9 3e f1 3a fa 3d 10 46 67 3e
       0.09513895 0.48704427 0.122182734 0.2258532
000080 60 1f ab 3e e4 81 45 3f d8 14 8f 3e d2 e5 6e 3e
       0.33422375 0.7715132 0.2794559 0.23329857

encoder.encoder.1.backbone.1.0.weight f4 [36, 36, 3]
000000 64 92 02 3d b5 bf 80 3c dc 86 af 3d 8e f3 17 bd
       0.03187789 0.015716413 0.08570644 -0.037097506
000010 7e de ad bb 1f 15 9d bd 86 36 9f 3d b0 dd 56 3d
       -0.005306064 -0.07670044 0.077740714 0.05245751
000020 0b 6f 8c bc ad 98 77 bd a8 9f 9d bc ec 9d 41 bd
       -0.017142793 -0.060448337 -0.01924117 -0.047269747
000030 3f d7 b1 3c a9 f0 39 bd 1f b6 05 bd 37 4f 35 bc
       0.021709083 -0.045395527 -0.032644387 -0.01106625
000040 ef 69 88 bd 5c f7 6c 3d 95 1d f7 bc df 1b 1b bd
       -0.0666083 0.057853088 -0.030165473 -0.037868377
000050 6f a3 b6 bd 22 24 96 3d 9b 13 c9 3c ab a3 93 3d
       -0.08917891 0.073311105 0.024545481 0.072089516
000060 dd e4 69 bc 77 22 7f 3d 2b 2e 7a bb ab 20 1d bb
       -0.014275757 0.062288728 -0.003817449 -0.002397577
000070 7d 6e af bd d0 eb 65 3d 70 5f 84 bd 0b 39 a7 bd
       -0.08565996 0.05613309 -0.06463516 -0.08165177
000080 3d 72 a1 3d 58 c4 8c bd 21 d5 87 bc 19 30 80 3d
       0.07883117 -0.06873387 -0.01658112 0.06259174
000090 04 61 ee bb 12 0b 36 3d e4 94 62 3d 2f 63 91 bd
       -0.0072747488 0.04444415 0.055317774 -0.07098996
0000a0 28 46 a2 3d 62 0b b3 bd 26 95 6e bd 8f a3 a1 bd
       0.079235375 -0.087424055 -0.058247708 -0.078925245
0000b0 d1 86 e1 3c f1 f3 39 3d ac 63 05 bd 3f ff 2d 3c
       0.027530106 0.045398656 -0.032565758 0.010619937
0000c0 94 a1 8d 3d 34 83 6c bd d7 04 9a 3d 46 10 fd bc
       0.06915584 -0.057742313 0.075204544 -0.030891549
0000d0 fc e1 b3 3d aa 46 40 3d 37 99 67 3d ed 0f 44 3d
       0.087833375 0.04694239 0.0565426 0.04786675
0000e0 12 72 aa 3d e5 5e a7 bd fa 22 f6 bb 17 8e f8 3c
       0.083225384 -0.081723966 -0.0075114937 0.030341191
0000f0 d0 f3 a1 bb a9 c8 43 3b 14 c0 3c 3d ff 5f 86 3d
       -0.004942395 0.0029874241 0.046081617 0.065612786
000100 f9 7d 80 bd be 8a 40 3b c3 c9 9a b9 5e 88 45 bc
       -0.062740274 0.0029379572 -0.00029523493 -0.012056438
000110 63 68 66 bd 99 0e af 3d 26 07 d1 3c eb 25 11 3d
       -0.056251895 0.08547706 0.025516104 0.035436552
000120 19 a1 a7 3d fa 38 8a bc 82 63 07 3d f5 7b 4a bc
       0.08185024 -0.016872872 0.033053882 -0.012358655
000130 9c 44 d4 3d 37 8a a4 bd 6d 17 90 bd 10 44 01 3d
       0.10364649 -0.08034175 -0.07035718 0.03155905
000140 cc 5c 1f 3d f5 64 41 bd bb 12 9a 3d 15 cc 7b 3d
       0.038906857 -0.04721542 0.07523104 0.061473925
000150 5f 68 2d bd b9 84 82 bb 58 f1 34 bd 6d 2b 38 3d
       -0.042335864 -0.003983107 -0.044175476 0.04496329
000160 97 5c ac 3d 10 89 b0 3d 03 f4 34 bd f6 b7 c3 3c
       0.084160976 0.086198926 -0.04417802 0.02389143
000170 bb 82 4b 3c 5b d3 8c 3d 86 1e f6 3c 3b 60 9e bd
       0.012421305 0.0687625 0.030043852 -0.07733198
000180 fc 5a 72 bc b8 95 dc 3d 33 ee 54 bd 3b b1 ae 3d
       -0.0147922 0.10770744 -0.051984977 0.08529898
000190 e2 46 7f 3c 07 84 b1 3b 55 39 02 bd aa 09 71 3d
       0.015580865 0.00541735 -0.031792957 0.058847107
0001a0 81 c5 88 3d e4 c7 a7 3d 36 a3 ef bc 9e 9a b6 3d
       0.06678296 0.08192423 -0.02925263 0.0891621
0001b0 44 f6 a2 3d 6c 5f 9a bd c0 08 8f bd 5e c5 98 3d
       0.07957128 -0.075377315 -0.06984091 0.0745952
0001c0 65 51 42 bd b0 1c 8a 3d f6 c8 b6 3d 94 fa 1d bd
       -0.047440905 0.06743753 0.08925049 -0.038569048
0001d0 b5 9f 0f bc 3e b4 88 3c 6b 8d c4 bd 82 bd 8a 3d
       -0.0087661045 0.016687509 -0.09597286 0.06774427
0001e0 0f ce a2 3d 6f da c7 bd 67 6d 37 3c ac 53 79 3d
       0.07949459 -0.0975846 0.011195517 0.06087081
0001f0 1a bd 8a bb 66 a5 97 3c 1c 92 cf bd f4 44 5b bd
       -0.0042339684 0.018511485 -0.1013529 -0.053532556
000200 04 88 90 bd a7 ac ab 3d 41 4b 53 bc 37 4d a3 3d
       -0.07057193 0.0838254 -0.01289636 0.07973712
000210 5d 96 a5 3d b8 67 82 3d 9d 17 42 3d 13 5e 81 bc
       0.0808532 0.06367439 0.0473858 -0.015791928
000220 f9 46 e0 bc c9 04 d2 3d 29 22 47 3c 82 32 44 3d
       -0.027377592 0.10254819 0.0121541405 0.04789973
000230 93 6b 81 bd b5 7b 60 bd b8 0b 3b 3d c3 12 51 bd
       -0.06319346 -0.054805476 0.045665473 -0.051043283
000240 e2 cc 58 3d 14 9c ac 3d 20 1d ad 3d 25 f8 aa bd
       0.052929766 0.08428207 0.08452821 -0.08348111
000250 87 6d f6 bc 56 d8 3c 3d 19 27 97 3d 86 30 06 bc
       -0.030081524 0.04610475 0.07380504 -0.00819028
000260 3a 71 82 3c 69 de 24 3d 61 d6 db 3c 7d c2 40 bd
       0.015923131 0.04025117 0.026835622 -0.04706048
000270 fd b0 6b bc 44 b1 33 bd 6f 35 8c 3d 82 1b 92 bd
       -0.014385459 -0.043870226 0.06846129 -0.07134153
000280 33 32 79 3d bf c5 7c bd c7 c3 2a 3d 98 c0 4c bd
       0.06083889 -0.061712023 0.041690614 -0.04998836
000290 15 56 00 3d 73 24 cb bd 02 f7 c4 3b 25 94 a9 bd
       0.031332094 -0.099190615 0.006010891 -0.082802095
0002a0 d1 5e d6 bc 59 c9 97 3b 79 58 b7 3d 2a 4b 7f 3d
       -0.026168259 0.004632157 0.08952422 0.06232754
0002b0 6c f1 c4 3c 6a 17 9d 3d 3c 2b 83 3d 9d 72 b2 bd
       0.0240409 0.076704815 0.06404731 -0.08713267
0002c0 af 21 28 3c 67 09 0c bd be f2 01 3d 28 e8 a2 3d
       0.010261937 -0.034188654 0.031725638 0.079544365
0002d0 f1 87 b6 bc c3 da d5 3d f6 ac f6 3c c7 c7 e1 3c
       -0.022281619 0.10442116 0.030111771 0.027561082
0002e0 d0 28 09 3d 63 79 30 bb 81 3c b1 bd 46 78 9a bd
       0.033486187 -0.002692782 -0.08654118 -0.075424716
0002f0 70 49 3e bd ce 80 2a bd 15 d0 2d 3d e5 24 9a bc
       -0.046456754 -0.041626744 0.04243477 -0.01881642
000300 af db a1 bc e9 86 1c bc e2 5a 81 3d 41 91 96 bd
       -0.019758074 -0.009553649 0.06316163 -0.07351924
000310 6c 93 dd bd 13 c3 da 3c 37 9a 96 3d 37 83 b1 3c
       -0.10819134 0.026704347 0.07353633 0.021669013
000320 75 4e 6e bc 98 05 0f 3d 74 a8 45 bc 4b 43 99 3c
       -0.014545073 0.034917444 -0.012064088 0.018708846
000330 72 9b 4e bd 5e c4 90 bd 10 71 4f 3d 5e 24 6a 3d
       -0.050441213 -0.07068704 0.050644934 0.05716359
000340 2e 71 83 bb 51 b3 72 3d fc 15 8c 3c e7 2b 4c bd
       -0.004011295 0.05925304 0.017100327 -0.049846556
000350 27 95 a6 b9 5f 4a c0 bd e5 05 1b bd 30 75 8a bd
       -0.00031773114 -0.09389185 -0.03784742 -0.06760633
000360 95 8d fa 3c 8b 4e ad bd dc 8b 71 3d e0 8c 90 bd
       0.03058509 -0.084622465 0.05897127 -0.0705812
000370 b9 4e 9c bd 9a 67 9a bd c4 27 9d bd 80 9f 8b bc
       -0.07632203 -0.07539292 -0.076736 -0.017043829
000380 99 25 64 bd 6f 19 54 3d 2a 4e 5d 3c 6d 6c 7c 3d
       -0.05569992 0.051782068 0.013507405 0.06162684
000390 9f 0e 5b 3d e2 8f a3 3b d1 dc 90 3c f4 dc 53 3d
       0.05348074 0.0049915174 0.017683418 0.05172439
0003a0 4a b4 bc 3d 73 c5 f0 3b 98 04 c2 bd 24 27 83 3d
       0.09214075 0.0073477565 -0.094735324 0.0640395
0003b0 3a a8 80 bd d1 b8 bf 3d 0e 71 59 bc 3f d4 ec bc
       -0.06282087 0.09361423 -0.013271583 -0.0289098
0003c0 a8 35 42 3b aa 3c 50 3d 88 09 20 bd ae 44 0c bd
       0.0029634032 0.050839104 -0.03907159 -0.034245186
0003d0 13 13 97 bd b8 3f 2e 3c 4a f7 fd bc f8 5e 31 bd
       -0.07376685 0.010635309 -0.031001706 -0.04330346
0003e0 0e 7f 1d bd 3d 93 6b 3d 17 62 cd bc aa 03 c6 3c
       -0.038451247 0.057513464 -0.025071187 0.024171669
0003f0 9a 1d 85 3d 29 9e 78 3d 9f 27 1c 3a 8a a3 82 bd
       0.06499787 0.06069771 0.0005956832 -0.06378849

encoder.encoder.1.backbone.1.0.bias f4 [36]
000000 6a 72 0d 3c 2c ad 78 3d e9 f5 a7 3d 7c c1 25 3d
       0.0086332355 0.060712025 0.082012005 0.040467724
000010 7e f0 4e 3d e4 2f c3 3d 6b 04 a6 3c d2 70 5e bd
       0.05052232 0.09530619 0.020265779 -0.054306813
000020 72 c1 25 bd 5b 82 9a bd 66 6c 1c 3c c9 03 54 3d
       -0.040467687 -0.075443946 0.009547329 0.051761422
000030 56 6d bb bd 1b 7b 48 bc 08 7d 73 bd 7b 7b 90 bc
       -0.091517136 -0.012236382 -0.05944541 -0.017637005
000040 08 93 ab 3d 24 6f a9 bd 64 b2 9c bd 31 f4 39 bd
       0.08377653 -0.082731515 -0.07651213 -0.045398895
000050 c1 81 9e 3d 21 e4 a3 3d cc ec 94 3c a2 b5 31 3d
       0.07739592 0.080024965 0.01817932 0.04338611
000060 77 6f 40 bd 1b 29 2f bc 0b 79 79 bb 14 57 c3 bd
       -0.0469813 -0.010690953 -0.0038066532 -0.09538093
000070 b9 9d 3d bd c0 29 8a bb 6b 7f 2e 3d 52 69 d4 3c
       -0.046292994 -0.004216403 0.042601984 0.025929127
000080 34 9f 4a bd 2b 79 2c bd 99 e5 e9 bc 04 ac 02 3d
       -0.049468234 -0.042107742 -0.028551864 0.031902328

encoder.encoder.1.backbone.1.1.weight f4 [36]
000000 ea d3 7d 3f 84 90 7d 3f 25 e4 7e 3f be c7 7f 3f
       0.9915148 0.9904864 0.9956687 0.9991416
000010 8d 17 80 3f d5 fc 80 3f cd 16 7e 3f 9e 03 80 3f
       1.0007187 1.0077158 0.9925354 1.0001104
000020 8e f2 7b 3f 9e b0 77 3f 82 62 7e 3f 0f be 7c 3f
       0.98416984 0.9675387 0.9936906 0.98727506
000030 40 51 7c 3f bf 00 7b 3f d2 26 80 3f 39 25 7d 3f
       0.9856148 0.98048013 1.0011847 0.9888492
000040 98 ef 7d 3f fc ff 7b 3f aa e1 80 3f 64 92 7a 3f
       0.99193716 0.98437476 1.0068867 0.97879624
000050 e6 db 74 3f 5b 7a 80 3f 35 1f 7b 3f 0e cb 7d 3f
       0.9564804 1.003734 0.98094493 0.9913796
000060 3c 9d 7f 3f 5e 12 78 3f 08 e3 7c 3f 94 a5 7d 3f
       0.99849296 0.96903026 0.9878392 0.9908078
000070 9d 49 72 3f 39 b7 79 3f a4 db 7c 3f 80 c8 7b 3f
       0.94643575 0.975452 0.98772645 0.98352814
000080 3f 55 80 3f 2f 24 7f 3f 74 63 79 3f 89 cd 7f 3f
       1.0026015 0.99664587 0.9741738 0.99922997

encoder.encoder.1.backbone.1.1.bias f4 [36]
000000 11 72 32 bc 6a 54 0f 39 43 35 b5 bb e0 d0 16 bc
       -0.010891453 0.0001366899 -0.005530031 -0.009205073
000010 60 4c 82 bc 0e a8 6f 3b 10 fb 3f bc 27 55 6c bc
       -0.015905559 0.0036568674 -0.011717573 -0.014424599
000020 c1 da 3d bc 06 d0 5e bb 3e 5f 77 bb 08 3d 48 bc
       -0.0115877995 -0.0033998503 -0.0037745978 -0.012221582
000030 25 9c bf bc e9 a8 2d bc 0b 2f 5e bc bc 04 8c bc
       -0.023389885 -0.010599353 -0.013561021 -0.017092101
000040 11 33 19 bc 53 11 0c bc 6a 63 3a bc 17 a4 37 bc
       -0.009350554 -0.008549052 -0.011376241 -0.011208556
000050 45 a4 7e bc 59 3e 5b bc f1 a8 7a b9 68 32 0d bc
       -0.015542095 -0.013381564 -0.00023904793 -0.008617975
000060 b2 49 cb 3b 3c 55 70 bc 6c 68 9f bb 5b a8 17 bc
       0.0062038535 -0.014668759 -0.004864743 -0.009256448
000070 c7 1c 86 bc e0 fe 0f bc 08 b8 0c bc ff 73 8e bb
       -0.016371144 -0.008788794 -0.008588798 -0.004347324
000080 e9 fc 05 bc 13 95 24 bc f8 a6 ab ba 85 54 3e bb
       -0.008177974 -0.010045308 -0.0013096025 -0.0029042077

encoder.encoder.1.backbone.1.1.running_mean f4 [36]
000000 3e 6f 69 3d fa b9 22 3e c7 e0 b6 3c 53 ef 72 3c
       0.056990854 0.15891257 0.022323979 0.014827567
000010 b4 be 38 3d b3 74 f4 3d 0f c2 48 3d e5 3b be bb
       0.045103744 0.11936321 0.049013194 -0.00580548
000020 3a 4e f8 bc 7a 89 29 bd 20 3b 29 bd 3e f0 8f bc
       -0.030310739 -0.041390873 -0.04131615 -0.017570611
000030 8c 02 c8 bd b9 6c 5f 3c cf 45 12 be ee 10 65 3d
       -0.09766111 0.013636761 -0.14284442 0.05592435
000040 dc 51 2a 3d 42 65 11 be 5e e7 62 bd 8c a9 c3 bd
       0.041581973 -0.14198783 -0.05539643 -0.09553823
000050 df 5d b6 3d 8d f2 ba 3c 83 90 1e 3d 0f 4e 3e 3d
       0.08904623 0.022820735 0.038712036 0.04646116
000060 36 b9 07 be bf b2 35 3d 8e 01 a5 bc 24 ae b2 bc
       -0.13254246 0.04435992 -0.020142343 -0.021811552
000070 0d 1b 62 3d 75 f8 d6 3d 5b fc 38 3c 3d c5 25 3c
       0.05520158 0.10496608 0.011290635 0.010117826
000080 e3 2e 27 bd 41 53 1a bd 6e cb 85 bd 57 93 98 3c
       -0.0408162 -0.037677053 -0.06532942 0.018624945

encoder.encoder.1.backbone.1.1.running_var f4 [36]
000000 35 ac a0 3e ce 65 a1 3e 06 3a 1b 3e 63 13 f3 3d
       0.31381384 0.31522983 0.15158853 0.11868932
000010 25 4c d6 3e d9 8d b4 3e c7 7b 1f 3f 7a 4f fb 3e
       0.4185497 0.3526447 0.62298244 0.49084073
000020 b9 4d b2 3e 43 25 22 3e ee 65 d6 3d 5b 14 57 3e
       0.34824923 0.15834527 0.1046866 0.21003859
000030 32 ce 42 3e b0 76 e1 3e c6 a4 fc 3e 6d 25 f0 3e
       0.1902397 0.44035864 0.49344462 0.46903554
000040 fd fd 8d 3e 0e 8c 88 3e 07 40 89 3e 77 40 75 3e
       0.2773284 0.26669353 0.2680666 0.23950373
000050 cb 6e fd 3d bd 7e 9e 3e 43 75 f1 3e 28 8c 39 3f
       0.12374648 0.3095607 0.47159776 0.72479486
000060 fe 57 7e 3e 88 5c 76 3e 64 ab fb 3e 75 7e 9e 3e
       0.24838254 0.24058735 0.49154198 0.30955854
000070 05 5d 61 3e 58 d6 7b 3e de 3d f4 3d ad bc 65 3e
       0.2200814 0.24593484 0.11925863 0.22435255
000080 de a4 9b 3e ec ae a4 3e 85 a9 b3 3e 77 5b a4 3e
       0.3039922 0.32164705 0.3509027 0.32101032

encoder.encoder.1.downsampling.weight f4 [36, 36, 7]
000000 2c 0a cf 3b 1b e4 df 3c e5 51 da 3c 2d 1f 40 bd
       0.0063183513 0.027330449 0.026650378 -0.04690473
000010 95 38 a7 bb 88 23 31 3c 75 30 81 3d 94 f9 3b bd
       -0.0051031807 0.010811694 0.063080706 -0.045892313
000020 45 e3 3e 3c 87 77 6e bd 0f 7c ea 3b 29 bf 73 bd
       0.011650865 -0.05821946 0.007155902 -0.059508476
000030 27 38 d2 3c 22 43 1b 3d f9 4e 18 3d b4 98 06 3d
       0.025661541 0.03790582 0.03718469 0.032860473
000040 86 26 42 bd 4d cc 74 bd 40 0e 13 bd fa 07 49 3c
       -0.04740002 -0.05976515 -0.03590226 0.012269968
000050 00 42 4f bd bb 19 c9 bc 25 ac 33 3d bd 23 37 3d
       -0.050600052 -0.024548402 0.04386534 0.044711817
000060 f4 9a b9 bb 53 c6 10 3d 40 0b e2 bc 7b dc 80 3c
       -0.005664224 0.035345387 -0.027593255 0.015730133
000070 41 2a ca 3b 5c c8 4f bc 29 e0 87 bd 95 36 e5 bc
       0.006169588 -0.012682047 -0.06634552 -0.027980128
000080 d3 ec 1f 3d 90 3b 9a 3c 7d eb c8 bc 43 f1 29 bc
       0.039044213 0.01882723 -0.024526352 -0.010372463
000090 19 a9 80 bc 28 68 f2 bc 97 fc 15 bd b9 c0 73 bc
       -0.015705632 -0.029590681 -0.03661784 -0.014877492
0000a0 29 f3 66 3d 03 b6 7d 3b 1f 9f 4e 3d e3 d9 1e bd
       0.05638424 0.0038713224 0.05044472 -0.03878201
0000b0 b9 88 be 3c 09 ff e2 bc 52 aa 3b 3b e5 70 3a 3d
       0.023258554 -0.0277095 0.0028635454 0.04551782
0000c0 60 ba 0d 3d 66 89 ae 3c 94 37 25 3d ec d9 61 3c
       0.03460157 0.021305751 0.040336207 0.013784867
0000d0 d1 cd 7e 3c 4c 48 7d 3b e2 1b 01 3b 23 08 2a ba
       0.015552 0.0038647829 0.0019700457 -0.0006486198
0000e0 ee 58 1f bd 77 89 49 3d 1d 13 2c 3d 34 e3 f1 3c
       -0.03890317 0.049203362 0.042010415 0.029527284
0000f0 45 9e 95 3c 57 a7 88 bc 61 54 30 3c ae b7 b4 bc
       0.018263945 -0.016681356 0.010762305 -0.022060242
000100 9e 82 a7 3c 9b 56 f1 39 0c fb af bc 72 01 35 bd
       0.020448025 0.00046031628 -0.021482013 -0.04419083
000110 29 fa 53 3c db a6 2c 3d d8 29 f8 bc 87 fc ca bb
       0.012938061 0.042151313 -0.03029339 -0.0061946544
000120 aa 98 db 3c 7d ac 7b 3d fb 55 ab 3c d1 5d 22 bd
       0.026806194 0.061443795 0.020915022 -0.03964025
000130 64 57 5b 3c 90 dc 0d 3d d6 4a af ba 16 4e 36 bd
       0.013387535 0.034634173 -0.0013373743 -0.044508062
000140 4f d5 07 3d 92 b0 36 bc 02 f2 80 3c 91 62 18 bd
       0.03316241 -0.011150496 0.015740398 -0.037203375
000150 ca 66 19 3b 23 ca 18 3b 96 da 74 3b 90 6c 67 bd
       0.0023407214 0.0023313842 0.0037361733 -0.056500018
000160 b4 4a 72 3d f5 ee 0f 3d ed 3c 07 3c 20 e4 4f 3d
       0.059153274 0.035139997 0.008254272 0.050754666
000170 0b af 00 3d 27 cc 94 bc ed df 4c bc 91 71 30 bd
       0.031416934 -0.018163754 -0.01250456 -0.043077055
000180 c2 09 06 bd 01 f2 4c bd ae b0 0c 3c 42 7a 74 bd
       -0.03272415 -0.05003548 0.008587046 -0.059686907
000190 b0 e4 09 3d 70 65 80 bc 29 ab a3 bc cd a0 0e bd
       0.03366536 -0.01567337 -0.019979076 -0.03482132
0001a0 91 e5 89 bc eb 33 9a bc 0f 8d c3 bb 41 c8 9a 3c
       -0.016833099 -0.018823585 -0.005967743 0.018894317
0001b0 81 6c 51 3d 86 d4 b8 bc 05 36 a9 bc 6a 1b 68 bd
       0.051128868 -0.022562277 -0.020655641 -0.05666677
0001c0 e9 76 0a 3d 60 49 6b bd 1f 3f 29 bd c2 95 07 3d
       0.033804808 -0.057443023 -0.041319963 0.033101805
0001d0 47 bf 20 3d 99 78 0c 3d ef df 17 bc 1a d2 32 bd
       0.039244916 0.0342947 -0.0092696985 -0.0436574
0001e0 a8 06 01 3d ee 0f 14 3d f3 79 09 3d 24 c6 47 3d
       0.03150049 0.036148004 0.033563565 0.048772946
0001f0 ce 84 2e 3d a5 8e 1c 3d eb 28 4a bd 34 8e 3b bd
       0.04260712 0.038221974 -0.04935543 -0.045789912
000200 a8 77 5c 3d 6d 6a 7f bd 39 20 85 bc e9 53 d2 3b
       0.05382505 -0.062357355 -0.016250717 0.0064186943
000210 59 db 49 3d 36 b6 6d bd 35 f2 54 3b 63 e0 0b bd
       0.04928145 -0.058035098 0.0032493 -0.03414954
000220 99 ce 2c bd 5b c7 d9 bc 1b e3 39 3b 4d 3d 36 3c
       -0.042189214 -0.026584318 0.0028364125 0.011123014
000230 82 e7 f6 3c 6d 42 1d 3d 72 d2 1d 3d 93 28 66 3c
       0.030139688 0.038393427 0.038530774 0.01404776
000240 28 cc d3 bb 62 6d 82 3d 96 62 14 bd 33 55 8b 3d
       -0.0064635463 0.06368519 -0.03622683 0.0680336
000250 eb 25 ea bc c1 30 92 3d f4 67 81 3c 94 f2 37 3b
       -0.028582534 0.07138205 0.015796639 0.0028068172
000260 91 f0 88 bb 8a 59 cf bb 17 f7 f1 3c 49 da 37 bd
       -0.0041790684 -0.0063278126 0.029536767 -0.044885907
000270 62 99 75 bc 8a 6e 42 bc e5 05 aa 3c ae f5 81 3c
       -0.014990183 -0.011867175 0.020754764 0.01586422
000280 67 51 77 bd 51 9f cf bc b5 3c 10 bd f3 2c 31 3d
       -0.060380366 -0.025344523 -0.035214145 0.043255758
000290 b4 f5 aa bc 48 06 28 bd 7d 50 0c bd 57 23 5f 3d
       -0.020869114 -0.041021615 -0.034256447 0.054477062
0002a0 68 bf 63 3b 4a e1 28 bd 10 20 33 bb f7 b3 39 bc
       0.0034751538 -0.041230477 -0.0027332343 -0.011334411
0002b0 14 95 14 bc ca 60 93 bc 00 c2 4e 3d 1f 6d 66 3c
       -0.009068746 -0.017990489 0.05047798 0.014064102
0002c0 b7 ef 52 3d 42 ce 42 3c 6e 57 60 3c 62 47 87 bc
       0.05149814 0.011889996 0.01369272 -0.01651353
0002d0 e4 a3 2b 3d e7 e6 01 bd 13 2c 33 bd 89 53 28 bd
       0.041904345 -0.031714346 -0.043743204 -0.04109529
0002e0 3f ad 57 bd e3 2b 37 bb 69 c1 05 bd 0f 73 29 bc
       -0.052655455 -0.0027949743 -0.032655153 -0.0103423735
0002f0 1a d8 1c 3d 51 22 b5 bb fe 33 5e 3d 0d dd 75 3c
       0.038292028 -0.0055277725 0.054248802 0.015006316
000300 ad 4a 11 3d 17 7d 31 bb 6d 84 94 ba 19 99 c0 3c
       0.035471607 -0.0027082616 -0.001133097 0.023510503
000310 17 2b 2b 3d 9e 92 7d 3c 7c 3f 45 bd 28 1a a1 3c
       0.04178914 0.015476851 -0.048156247 0.019665793
000320 dd 7b 0f 3d 6d 5c 45 3d 45 eb 68 3d df 24 20 bc
       0.035030235 0.048183847 0.056864996 -0.009774416
000330 ca a9 ca bb 1b 7a f7 bc ce 56 c5 3c a2 23 fc 3c
       -0.006184791 -0.030209592 0.024089243 0.03077871
000340 a3 9f 79 bd 75 0c 73 3d 4a 16 98 bc 97 64 82 bc
       -0.060943257 0.05933805 -0.018565316 -0.015917106
000350 07 d9 e4 3b 17 31 6b 3d 7a 2c 12 bc 7c c2 72 3d
       0.0069838795 0.057419863 -0.008921737 0.059267506
000360 81 59 89 3d 54 e3 78 3d cf 01 ed 3a 0b a3 a3 bb
       0.06706525 0.060763672 0.0018082204 -0.0049938015
000370 78 1a 85 bb c8 a4 89 bc f4 a4 4f 3d 42 a5 67 3d
       -0.004061993 -0.016802207 0.05069442 0.056554087
000380 b6 86 05 bc 49 e9 dd bc 55 a0 20 ba d0 2d 11 3d
       -0.008149793 -0.027088778 -0.0006127407 0.03544408
000390 ee bb 3a 3d 21 5a 02 bd a1 34 91 bc 40 5b 6d 3d
       0.04558938 -0.031824235 -0.01772529 0.05794835
0003a0 6c 16 53 3d 5b f8 86 3d 18 6b 5e bd 6c 90 5b 3d
       0.051535055 0.06590339 -0.05430135 0.05360453
0003b0 c5 ec 51 bd 81 1a 3e bd f8 19 7c 3b 37 b1 14 3d
       -0.05125119 -0.046411995 0.0038467627 0.036301818
0003c0 f2 ac 59 3d 3a f1 d2 bc 1c 0f 02 bd fa 4e 61 3d
       0.05314345 -0.025749791 -0.03175269 0.05500696
0003d0 de 8c 00 bd 45 99 ac 3a c3 01 14 bd 7f c5 29 bd
       -0.03138434 0.0013168236 -0.036134493 -0.041448113
0003e0 b4 37 54 bd bb 99 36 3d 39 d2 ac 3c bd c2 43 3d
       -0.051810935 0.044580203 0.021096336 0.04779314
0003f0 03 6f 87 bc 0d 64 97 bb 6b 93 ae 3c 06 06 1b 3d
       -0.016532427 -0.0046200813 0.021310529 0.03784754

encoder.encoder.1.downsampling.bias f4 [36]
000000 c2 35 c8 3c 19 0a 6a bd d1 13 7e 3d 5b 10 96 bc
       0.024439696 -0.057138536 0.062030617 -0.018318346
000010 f5 b1 fe bb 89 fb e1 bc 50 2d 58 3d 45 c1 83 bc
       -0.007772679 -0.027585762 0.05277759 -0.016083369
000020 2a 66 01 3d 32 f8 fa bc 62 b1 a4 bc 54 d0 c2 3c
       0.031591572 -0.030635927 -0.020104114 0.02378098
000030 1d a1 27 bc 27 f7 d3 3c 6d 91 4c 3c f4 c7 b4 3c
       -0.0102312835 0.025874687 0.012485844 0.022068001
000040 f8 8d 4d bd 99 fa 5c 3d 69 a9 e0 3c 6b 95 a2 3d
       -0.05018422 0.053949926 0.027424531 0.079386555
000050 50 c6 1a bb 3c 27 7f bc e2 54 ba ba b2 f7 89 3d
       -0.0023616739 -0.015573319 -0.0014215971 0.06736697
000060 1e 4d 5f bd b0 86 2e 3d e3 d5 8c 3c d9 87 ff 3c
       -0.054516904 0.042608917 0.017191833 0.031192707
000070 44 0d 03 bd 41 07 6e 3c 34 a2 76 bd 17 55 49 bd
       -0.031995073 0.014528097 -0.060213283 -0.049153414
000080 9b 2c 5d bc 47 f7 35 bc 37 57 a4 bd 9f 63 6b bd
       -0.013499404 -0.011106319 -0.080244474 -0.057468053
