trained_models/4B9D:49EE:6524:3B67.pt (torch, 59123 bytes, 55 tensors)

encoder.0.0.weight f4 [18, 36, 5]
000000 71 96 ec bd 28 2a da bd cd 89 a6 bd c6 08 02 3e
       -0.11552132 -0.10652572 -0.08131752 0.1269866
000010 8d 77 d1 bc 77 93 b9 bd f5 93 bd bd 09 50 a3 bd
       -0.025569702 -0.0906133 -0.09256736 -0.0797425
000020 31 aa 9f 3d 81 06 96 3d 2b a5 b2 bd 87 18 99 bd
       0.07796133 0.07325459 -0.087229095 -0.07475381
000030 45 cb 4e bc ed b6 96 3d 43 93 a2 3d 55 9d 3e 3d
       -0.012621705 0.07359109 0.07938244 0.046536762
000040 5e 08 0d bd 0a e7 82 bd 93 06 de 3d 2b 99 76 3d
       -0.034431808 -0.063917235 0.10841098 0.060204666
000050 ee 86 06 3c e6 ff 01 bc d9 a6 ac bd 33 85 10 3e
       0.008210881 -0.007934546 -0.08430261 0.14113311
000060 52 55 50 3c 4b 17 3b bd 7b a4 aa bd 8a 95 7d bb
       0.012715654 -0.04567651 -0.083321534 -0.0038693869
000070 26 38 f2 3c a2 80 1b 3d c9 19 4c bb de 91 d6 bc
       0.02956779 0.03796447 -0.00311433 -0.026192602
000080 9b ee 55 bd 29 b1 f7 3c 04 33 07 3e d6 7a e4 bc
       -0.052229505 0.030235844 0.13203055 -0.027890604
000090 ce 6f 03 bc 00 7c 0d bd 01 8c ad 3d 32 61 c3 3d
       -0.008022262 -0.034542084 0.08473969 0.09540023
0000a0 fd 0d 41 bd a5 60 53 3c c8 92 cf 3a e8 4a b9 3d
       -0.04713248 0.01290146 0.0015836591 0.0904749
0000b0 d4 20 de 3d a1 c6 b3 bc c4 36 e6 bb 22 18 b4 bd
       0.10846105 -0.0219453 -0.0070255715 -0.087936655
0000c0 a8 20 60 3d 4b 1a 81 3d 13 6e b2 bd 4a 5d 94 bd
       0.054718643 0.06303843 -0.08712401 -0.07244356
0000d0 9f 47 41 bd 61 36 0b 3e e1 4f b1 3d fe 44 7d bd
       -0.047187444 0.13594963 0.08657814 -0.061833374
0000e0 51 3a 99 bc 5a 43 00 bd c4 0a 47 3d e5 c8 52 3d
       -0.018704565 -0.03131423 0.04859425 0.05146112
0000f0 f4 ea 80 bd 76 49 f7 bd f1 10 14 bd 70 82 0a 3d
       -0.06294814 -0.120745584 -0.03614897 0.0338158
000100 9a 92 cf 3d 55 e2 44 be da e8 01 be 3c 1b bd bd
       0.10135384 -0.19226964 -0.12686482 -0.0923371
000110 b9 1f 28 bd bc 4d fb 3d 88 28 ed bd 4b e4 43 be
       -0.041045878 0.12270686 -0.11579996 -0.19130056
000120 d7 f3 8d bd 3c a5 00 be ac 4b 3d bd 37 9a d3 bd
       -0.069312744 -0.12563032 -0.046214744 -0.103321485
000130 f7 7b 85 bd 74 fd 01 be ab 51 7d bd 75 cb 12 be
       -0.06517785 -0.12694341 -0.061845463 -0.14335425
000140 e5 b6 0a 3d eb b8 8e 3b c0 e5 b8 bd c1 d2 a0 bd
       0.033865828 0.00435554 -0.09028196 -0.07852698
000150 f8 92 23 be 20 6c 4f 3e 3e c5 4d 3d 7b 4f ce 3c
       -0.15974033 0.2025609 0.050236933 0.025184384
000160 68 3b a2 3e 2e 66 06 3b 4b 08 13 3d 93 63 4b bd
       0.31685948 0.0020507681 0.03589658 -0.04965551
000170 84 d2 c6 bb 47 58 b9 3d fe 63 f3 bb ae b3 9c bc
       -0.006067576 0.09050041 -0.0074276915 -0.019128647
000180 1e 49 f3 bc 43 26 9c b9 4a 30 d1 3d cc e6 03 3d
       -0.02969795 -0.00029783146 0.102142885 0.032202527
000190 b8 56 8a bd ee 97 7b bc 7b 7c 7b bd 7a 16 a6 3d
       -0.067548215 -0.015356047 -0.06139801 0.08109756
0001a0 d8 e3 aa 3d 25 c7 c3 3c 3a 00 21 bd ad 79 09 3d
       0.08344239 0.02389867 -0.039306857 0.033563305
0001b0 bf 5e 83 3d 03 31 b0 3d ff 75 ff 3c 1c 50 3b bd
       0.06414556 0.08603098 0.031184195 -0.045730695
0001c0 1a fb 4d bc e1 c2 50 3d ce bf 8b 3c 00 67 9c bc
       -0.012572074 0.0509671 0.017059233 -0.019092083
0001d0 99 7c 3e bd dd c0 1a 3d 2e 66 03 3d 3f 99 11 3e
       -0.046505544 0.037781585 0.032079868 0.14218615
0001e0 c2 49 8c bd d4 43 6d bd 94 b1 f1 bc 21 9f f0 3d
       -0.06850006 -0.057926014 -0.029503621 0.117491014
0001f0 a2 55 0c 3e ab b2 35 bd 2d be cb 3b 5a e2 3c bd
       0.13704541 -0.044359844 0.006217739 -0.046114303
000200 28 98 e4 3d fb 15 60 3d 6a 24 fd b9 47 b3 89 bb
       0.11161834 0.054708462 -0.0004828305 -0.0042022797
000210 95 41 42 bd 66 6c e7 3d f4 b1 e1 3d 9d 30 7c 3b
       -0.047425825 0.11299972 0.1102027 0.0038481124
000220 38 4f 7b 3c c8 b2 b1 bb a2 28 c1 3d 02 16 ec 3d
       0.015338711 -0.0054229237 0.09431578 0.11527635
000230 3e 43 f3 bc 8d 76 a5 bd 53 03 6d bb ef 14 f0 3d
       -0.02969515 -0.080792524 -0.0036165311 0.11722743
000240 cb f0 11 3c 2f b7 13 bd 9f 9f 9e ba 92 e0 89 bd
       0.008907507 -0.03606337 -0.0012102014 -0.067322865
000250 ce c9 da 3d 93 1d f1 3c 5e e8 04 bd 75 20 99 bd
       0.106830224 0.029433047 -0.032448165 -0.07476894
000260 52 ec a6 bd c7 21 8c 3c cc ec 72 3d 6c 43 c3 3c
       -0.08150543 0.01710595 0.05930786 0.02383586
000270 c1 51 8c bd f3 55 8a 3c a8 1f 10 3d 79 03 8f 3d
       -0.06851531 0.016886687 0.03518644 0.06983084
000280 9e 95 4e bb 58 ed b7 3c 7f 81 53 bd 9b 6a ad 3d
       -0.0031522284 0.022452042 -0.05163717 0.08467599
000290 59 50 d3 3c 2b be 78 bd e6 4f ad bc 6c ce 94 bd
       0.025795149 -0.060728233 -0.021156263 -0.07265934
0002a0 c3 30 d4 3b 39 81 bd 3d 76 30 fe bd 72 3f ea bd
       0.0064755394 0.09253163 -0.12411587 -0.114378825
0002b0 e2 ff 19 be 1d cb 66 3d 7b c7 aa 3c dd 32 21 be
       -0.15039018 0.056346048 0.020847073 -0.15742059
0002c0 51 14 c0 bd 40 f7 15 be 51 7d c7 ba 91 25 c6 39
       -0.09378875 -0.146451 -0.0015219842 0.00037793492
0002d0 f0 ce a3 3d 4d ec 15 3d 78 bb 40 be 01 36 13 be
       0.079984546 0.036602307 -0.18821514 -0.1437607
0002e0 10 43 34 be 7d 2d bf 3d 1a 4c b6 3d 04 26 11 be
       -0.17603707 0.09334848 0.08901234 -0.14174658
0002f0 a3 4c 06 be af c0 4a be 00 f3 a7 3c 02 47 58 3e
       -0.13115172 -0.19800065 0.020501614 0.21120837
000300 57 77 2f bd 9c 9a 30 bc 0f 8b 8b bb 7f d3 8f 3d
       -0.04283842 -0.010779049 -0.0042585204 0.070227616
000310 22 11 2d 3d 6e 84 6d bd 8a 70 61 bd 1b 58 a3 bc
       0.042252667 -0.057987623 -0.055038966 -0.019939473
000320 63 9b d9 3d ba e3 82 3d 88 05 32 bc cd e9 05 bc
       0.10625341 0.06391092 -0.010865577 -0.008173418
000330 cc f7 8d bd 73 e7 d9 3d 59 62 ec 3d c8 98 10 bd
       -0.06932029 0.106398486 0.11542196 -0.035301954
000340 b7 8a 91 bc 8f c5 28 bd 08 05 f1 3d 5c f0 e3 3d
       -0.01776634 -0.04120403 0.11768538 0.11129829
000350 2e 60 94 bd 58 ac 85 bd 35 a7 a2 bd 58 75 40 3c
       -0.07244907 -0.065270126 -0.079420485 0.011746727
000360 4d 97 af 3d 0a 76 a1 bd f2 01 d0 3a ca 17 30 bd
       0.0857378 -0.07883842 0.001586972 -0.042991437
000370 5f 2b 46 3d 16 f0 35 3d a2 f9 2f bd 0a a6 d1 bc
       0.048381206 0.044418417 -0.042962678 -0.025591869
000380 57 de a8 bd 63 f6 9d 3d 28 35 ed 3d 2f af b5 bd
       -0.08245533 0.0771301 0.115824044 -0.08871304
000390 99 28 9f bd c1 06 e4 bd 17 fd 7d 3d 0a 33 1f 3e
       -0.07771415 -0.11134101 0.062008943 0.15546814
0003a0 c9 70 1f bd e7 31 0f bd 35 f9 2d bd 41 ba f1 3d
       -0.03892592 -0.0349597 -0.04247399 0.11803103
0003b0 0d 09 08 3e 40 47 a6 bc 2e ef 62 bd f6 11 b5 bd
       0.13284703 -0.020297647 -0.05540388 -0.088413164
0003c0 c9 65 df 3d 61 cd 7d 3d 3f 3c c3 bc f1 20 e7 bd
       0.10908086 0.061963443 -0.023832439 -0.1128558
0003d0 a4 2d 76 bd c2 b9 01 3c 24 46 07 3e e5 9e 07 be
       -0.06010212 0.007917823 0.1321035 -0.13244207
0003e0 37 bd ea bd a4 de 06 be 71 d0 5e bd 9c 4c 16 be
       -0.11461871 -0.13170868 -0.054398004 -0.14677662
0003f0 fe 9b 1d be b9 21 fd bd 32 eb 1d be 5e e3 d0 bd
       -0.15391538 -0.12359948 -0.15421751 -0.10199617

encoder.0.0.bias f4 [18]
000000 85 09 53 3a 6c da 81 3d 0a 0c 5f 3c 4c ab 68 3c
       0.000805043 0.06340489 0.01361371 0.014200997
000010 ea 20 88 bd 70 62 c2 bc ca 9c 4b bd d5 27 b3 bc
       -0.06646903 -0.02372858 -0.049710073 -0.02186958
000020 9b d4 93 bd 4f 1b da 3c a3 f6 6c bd 54 79 2e 3c
       -0.07218286 0.02662435 -0.0578524 0.010649044
000030 56 10 03 bd a3 2b 15 3d 95 3a f7 3d bc 4b f7 bc
       -0.031998 0.03641857 0.120717205 -0.03018748
000040 24 31 0e bd 7c 0a 86 3c
       -0.034714833 0.016362421

encoder.0.1.weight f4 [18]
000000 0c 40 85 3f 7d 19 96 3f ad 3c 60 3f a1 b2 84 3f
       1.041017 1.1726528 0.87592584 1.0367013
000010 9f d9 76 3f e9 c6 88 3f ba 11 78 3f 2e 34 96 3f
       0.96425813 1.0685703 0.9690205 1.1734674
000020 59 e1 77 3f 2a 80 7d 3f 06 83 76 3f 17 0e 9b 3f
       0.9682823 0.9902369 0.96293676 1.2113675
000030 d6 36 48 3f be 6a 78 3f 10 58 9b 3f 60 4c 54 3f
       0.78208673 0.97037876 1.213625 0.8292904
000040 2c e3 75 3f c1 ba 80 3f
       0.9604976 1.0056993

encoder.0.1.bias f4 [18]
000000 07 54 a7 bd fb 33 03 39 90 ca de bc 09 11 ad bc
       -0.08170324 0.00012512498 -0.027196199 -0.021126287
000010 bf ce 91 3c 5e 71 e7 bc 24 4e c0 bc 7e 22 bc 3b
       0.01779878 -0.0282523 -0.02347476 0.0057414165
000020 dc 7b 34 bd d5 bc 52 bd f8 09 ef b9 fe 5b 47 3d
       -0.044063434 -0.051449616 -0.0004559306 0.048671715
000030 25 98 3f 3d 07 93 e0 bc fe 41 db 3c be 3b 59 bc
       0.046775956 -0.027413858 0.026764866 -0.013258873
000040 38 fb 69 bb b2 37 8b 3b
       -0.0035702717 0.0042485828

encoder.0.1.running_mean f4 [18]
000000 b2 26 21 bf 34 7a 28 3b 24 b2 b6 bd 83 fd 9c bf
       -0.6294967 0.0025707604 -0.089206964 -1.2264866
000010 d3 65 78 3e 13 1a f4 be c1 9e 56 3d b2 9a e9 bd
       0.24257593 -0.47676143 0.052397493 -0.11406459
000020 eb c2 fd 3e 00 4a 5a 3f b2 ed 1b 3e df 87 32 bf
       0.49562773 0.85269165 0.15227392 -0.6973857
000030 ad 4d 25 bf 47 b8 ec 3e c4 e7 18 3e 50 8c 81 3e
       -0.6457165 0.46234342 0.14932162 0.25302362
000040 1b a2 35 bf 88 0f fe 3d
       -0.7095048 0.12405306

encoder.0.1.running_var f4 [18]
000000 41 89 b9 3a 3f 72 d0 3a b6 f7 43 3a a9 4e 0c 3b
       0.0014155285 0.0015903189 0.00074755715 0.002140919
000010 87 40 7b 3a db 39 7d 3a a4 07 87 39 15 0b af 3a
       0.00095845055 0.0009659805 0.000257549 0.0013354743
000020 a5 91 7c 3a 68 ec b1 3a 25 51 99 3a 14 3a cf 3a
       0.000963474 0.0013574483 0.0011697157 0.0015810155
000030 46 5f 15 3a 9f 00 5a 3a 5f 08 c0 3a 98 67 d0 3a
       0.0005698096 0.00083161326 0.0014650932 0.0015900014
000040 1d 2e 8a 3a 27 1f 66 3a
       0.0010542307 0.0008778446

encoder.1.0.weight f4 [9, 18, 5]
000000 5c 38 ef 3d df 63 47 3d d4 84 15 be 6d 17 11 3e
       0.116806716 0.04867923 -0.14601451 0.14169092
000010 1d 95 49 3e 21 61 c8 bc f7 d7 ba bd a5 86 35 bb
       0.19685788 -0.024460377 -0.09123223 -0.0027698663
000020 16 ba ba bd 81 e3 c0 bd 52 c4 ab bb 93 82 12 be
       -0.09117524 -0.09418393 -0.005241909 -0.14307623
000030 f0 b6 45 3e 6c 8c 8c 3e bd dd f8 bd 9c d9 73 bd
       0.19308066 0.27450883 -0.12151668 -0.0595337
000040 82 60 fd bc d1 99 a5 bd de 18 9e 3d 3f d1 0f 3e
       -0.030929808 -0.08085979 0.07719587 0.14044665
000050 52 25 c0 bd d8 3d 87 3d 49 56 88 bc 03 32 32 bd
       -0.09382118 0.06603593 -0.016642706 -0.043504726
000060 a8 35 9a bd 92 68 4f 3d 42 68 fb bc 14 c9 4a bc
       -0.07529765 0.050636835 -0.030689362 -0.012377042
000070 b5 aa 72 3d 35 e0 46 bd f0 c2 e7 3d 63 8c 88 3d
       0.05924483 -0.048553664 0.11316478 0.06667402
000080 6b 25 87 bd f7 34 58 bd c7 cd 32 3d f4 1a 07 3b
       -0.06598934 -0.052784886 0.043653276 0.002061543
000090 f7 a6 8f bd d3 0c 7e bc 07 dc b3 3a 46 9d ad bd
       -0.07014268 -0.015505987 0.001372219 -0.08477263
0000a0 cb 7d 3b be eb 3a d1 bd a5 34 9a 3d c3 f3 96 bd
       -0.18309705 -0.10216316 0.075295724 -0.073707126
0000b0 0e 9b ee bd dc 58 00 be ed ab 04 bd cd 2d ba 3d
       -0.11650668 -0.12533897 -0.032390524 0.09090767
0000c0 0a 75 d8 3d 1c 21 ff bd b5 04 f4 3c c9 b9 b3 3d
       0.105691984 -0.12457487 0.0297874 0.0877567
0000d0 55 31 c7 3d aa e8 99 bc cb 33 ab 3d ef 17 db 3b
       0.09726206 -0.0187877 0.08359488 0.0066862027
0000e0 9e 10 9c 3d f2 58 db bc c9 03 04 bd 11 63 92 3e
       0.07620357 -0.02677581 -0.032230172 0.28591207
0000f0 96 30 07 3d b4 84 d9 3c 30 2d bf bd f5 0b 6f 3d
       0.03300532 0.026552536 -0.09334791 0.058361012
000100 01 da b1 bd 1c 7c 83 bd 87 cf db 3d 73 70 c6 3d
       -0.08684159 -0.06420156 0.10732942 0.09689417
000110 5e ed d5 3c eb 82 cf bd e1 48 d7 bc 2b f3 2c 3d
       0.026114162 -0.101323925 -0.026279869 0.04222409
000120 3b 89 6a bd 54 07 fc 3b 3f d3 0b 3d b0 fa a5 3d
       -0.05725978 0.0076913033 0.034137007 0.081044555
000130 ec ed 9a bd de 1c ac 3d 9d b4 71 3d 43 d8 76 3d
       -0.07564911 0.084039435 0.059010137 0.060264837
000140 98 ec 9b bd ba 79 45 bd 38 72 8b bd 0c 0e 07 3d
       -0.07613486 -0.04821179 -0.06808895 0.03297238
000150 db e9 8a bc 31 77 18 3e 5b 7c aa be 7c 6e ad bd
       -0.016957214 0.14889218 -0.33298 -0.08468339
000160 10 ea 64 be 9f a2 49 be cf f2 01 3c 44 8b 58 bd
       -0.22354913 -0.19690941 0.007931425 -0.05286719
000170 82 03 64 3d 12 fc 84 bd fe 28 d5 3d 05 29 fc 3c
       0.055667408 -0.06493391 0.10408209 0.030781278
000180 c9 b2 0c be c8 18 23 be dc ce ae bd f9 96 65 3c
       -0.13740076 -0.15927422 -0.08535549 0.0140130455
000190 b0 c1 e9 3d 67 5b 90 bc f0 9d 1c 3d 68 60 92 3c
       0.11413896 -0.017621709 0.03823656 0.017868236
0001a0 ac 57 63 bd 88 08 67 3d 14 ae 86 3d a4 e6 58 3d
       -0.055503532 0.05640462 0.065761715 0.05295433
0001b0 04 10 9b 3d 87 14 0f 3e 1f a1 e9 3c 70 09 ae bd
       0.07571414 0.13972674 0.028519211 -0.08497894
0001c0 e1 70 35 bd 45 7c 57 bc 66 10 8d bd 37 01 fa bd
       -0.044297103 -0.013152187 -0.068878934 -0.12207263
0001d0 57 0c c8 bc 2e 51 ab bd 00 8b d2 bd 90 db d9 bd
       -0.024419947 -0.08365093 -0.102804184 -0.10637581
0001e0 65 32 a0 3c 42 58 b3 bd e0 b4 d4 bd d2 a4 38 3c
       0.01955528 -0.08757068 -0.10386062 0.011269765
0001f0 b7 10 1e be f4 18 02 3d 17 83 ca bd 2f 5e 12 be
       -0.15436064 0.03176208 -0.09888285 -0.1429374
000200 c2 e1 0d be 38 23 98 bd 8c 05 23 3d f4 6b 23 bd
       -0.13855651 -0.074285924 0.03980021 -0.039897874
000210 54 65 2e bd 5a 93 3c 3b 2e 0c d0 bc b9 56 05 bd
       -0.042577103 0.0028774352 -0.025396433 -0.03255341
000220 b0 13 35 bd 32 ef d8 3d a7 4b 6c 3c 1f 84 23 be
       -0.04420823 0.10592498 0.014422334 -0.15968369
000230 2c 83 ca 3b 92 c3 81 3d 9b 75 d5 3c a7 55 aa bd
       0.0061801877 0.0633613 0.026057055 -0.08317118
000240 bb bd b5 bd e8 1e a7 3c a8 1f ca 3a 25 04 d3 3d
       -0.08874079 0.02040048 0.0015420811 0.10303525
000250 e9 7b 41 3d 43 d9 0b 3d 86 09 d6 3d 7a cb 18 bd
       0.04723731 0.034142744 0.10451035 -0.037303425
000260 96 5e ca 3d db fe ed bc 16 af b8 3d 82 2d 07 3d
       0.09881322 -0.029052189 0.0901777 0.033002384
000270 9c bd 9f bc e7 5b 35 bc 6e 69 27 bd 71 71 06 be
       -0.019499592 -0.0110692745 -0.04087203 -0.13129212
000280 77 f1 a5 bd 26 f2 9e 3b 1a 2c be bd 31 cb b1 bc
       -0.081026964 0.0048506437 -0.092857555 -0.021703335
000290 7b dd 1d 3c 63 3f d6 3c 47 72 76 bd 2c 7c de bc
       0.009635325 0.026153272 -0.060167577 -0.02715882
0002a0 ad 22 e3 bd 84 8c 8f 3c 49 c5 e2 3b 05 02 4e 3d
       -0.11090598 0.017523058 0.006920491 0.050294895
0002b0 48 43 e9 bc d7 6a 8e 3c 03 43 81 3d 4d c5 69 bd
       -0.028474465 0.01738493 0.063116096 -0.057072926
0002c0 a2 ac c9 bd 9b e1 09 3e 67 dc 46 3d 32 16 ec bd
       -0.0984738 0.13464968 0.048550036 -0.11527671
0002d0 5c a3 a2 3c 16 32 0c 3c aa 98 99 3c db ce 47 bd
       0.019853286 0.008556863 0.018749554 -0.048781257
0002e0 0a cf 50 3e a8 39 dc 3c cf 02 9b bd 3d 97 27 bd
       0.20391479 0.026882961 -0.07568895 -0.040915716
0002f0 e2 9d f3 3d 7e 1a 19 bb e7 ed be bd 5e 4a 6b bd
       0.11895348 -0.0023361738 -0.0932272 -0.05744397
000300 ed fb 73 3d 64 fb 39 3e e5 af 9a bd 14 89 fc bc
       0.059566427 0.18162304 -0.075530805 -0.030827083
000310 4d 72 11 3d 92 d8 a0 3c 2e 82 fa 3c 5f 6d 96 3d
       0.035509396 0.019634519 0.030579653 0.0734508
000320 82 b7 83 bd 20 a1 be bc 61 d6 ca bc ce 9d 54 3c
       -0.06431486 -0.02327019 -0.024760427 0.012977077
000330 84 07 ab bd bc ee 93 3d 01 d2 79 3d 25 94 b0 3d
       -0.08351043 0.07223269 0.06099129 0.08622006
000340 63 27 49 3d ad 3b a0 bd 89 be 5c 3d 71 e5 bc 3d
       0.049109828 -0.07823882 0.053892646 0.0922345
000350 23 ad 09 3d a8 01 06 bb 79 38 6b 3b 38 6b 93 bc
       0.03361238 -0.0020447765 0.0035891815 -0.017995462
000360 fe 4f bc bc 4d da 0b bd 13 29 75 3b bb 7d 86 3d
       -0.022987362 -0.034143735 0.0037408515 0.0656695
000370 fc 41 b7 bd cc da 9d bd 80 09 d8 bc be 4d e4 3c
       -0.089481324 -0.07707748 -0.026371717 0.027869102
000380 e9 37 ff 3c 24 92 c0 3d 16 f3 00 3d d8 c2 25 3e
       0.03115459 0.09402874 0.031481825 0.16187608
000390 a0 4e 4f 3e 2f e8 90 be a2 86 97 3b 35 91 fb bc
       0.20244837 -0.28302142 0.004624204 -0.030708889
0003a0 3d 52 c9 bd ff 1d 37 bd b2 55 99 3d 56 b5 df 3c
       -0.09830139 -0.04470634 0.07487048 0.027308147
0003b0 ba e9 d6 3c a4 41 c6 bc 78 67 0e be b0 29 21 3e
       0.026234496 -0.024201222 -0.13906658 0.15738559
0003c0 2c 0d 62 3d 7e f1 a1 bc 55 dc a1 bd 15 81 0d bd
       0.055188343 -0.019768473 -0.07903353 -0.03454693
0003d0 a4 17 60 3c c6 f9 72 3d 7a a6 c1 3d b4 81 78 bd
       0.013677511 0.059320234 0.09455581 -0.06067057
0003e0 d2 8b b4 3b 7b 63 61 bd b1 78 c1 bc f2 0e 45 3d
       0.005509832 -0.055026513 -0.02361712 0.048109956
0003f0 fa 3d ae bd ee df 8d 3d 13 96 43 3c 40 fe c3 3d
       -0.08507915 0.06927477 0.011937636 0.09569979

encoder.1.0.bias f4 [9]
000000 07 13 02 bd fb 2a f4 3d 8e 5b 0e be 1e 26 3d 3d
       -0.031756427 0.119222604 -0.13902113 0.04617893
000010 7b e7 80 3d 8d 8b 15 3c 4b 45 05 bc 3e ba 7c bd
       0.062941514 0.00912751 -0.0081341965 -0.061701052
000020 0a 2b 10 be
       -0.14078918

encoder.1.1.weight f4 [9]
000000 87 e9 8c 3f 34 0d 47 3f 22 de 57 3f 7c bb 5b 3f
       1.1008767 0.7775452 0.8432332 0.85832953
000010 69 61 5e 3f 5f a1 8b 3f 80 d5 79 3f 69 89 63 3f
       0.86867386 1.0908622 0.975914 0.88881546
000020 1c 93 41 3f
       0.75615096

encoder.1.1.bias f4 [9]
000000 7e 84 39 bd c6 0f ab 3c 45 a9 58 bd 0a 60 02 bd
       -0.04529237 0.020881545 -0.052895803 -0.03182987
000010 4c be 20 bc 6c eb da bd 86 db 5c 3c 54 3f f3 bc
       -0.009810995 -0.106894344 0.013480073 -0.029693283
000020 c7 2e b0 bd
       -0.08602672

encoder.1.1.running_mean f4 [9]
000000 5b 5e b5 3c 73 2a 2c bc 01 46 12 be 5e f9 d5 3d
       0.022139719 -0.010508168 -0.14284517 0.10447954
000010 06 1e 9d 3d e2 7f cb 3d 5b 5c e7 3c 0b e1 e3 bd
       0.07671742 0.09936501 0.02824228 -0.11126908
000020 79 c1 3f be
       -0.18726148

encoder.1.1.running_var f4 [9]
000000 a4 8c a5 3f fe 30 64 3f 33 c3 09 3f 66 db 06 3f
       1.2933545 0.89137256 0.53813475 0.52678525
000010 09 1f 93 3f 58 a3 47 3f 52 02 83 3f e1 f3 11 3f
       1.1493846 0.7798362 1.0235083 0.57012755
000020 ab 2b f7 3e
       0.48275504

encoder.2.0.weight f4 [5, 9, 5]
000000 80 d9 84 bd e4 42 75 3c 76 a3 c2 3d ff de 03 3d
       -0.06486797 0.014969561 0.09503834 0.032195088
000010 66 8b 09 bd fe 7f ba 3b 80 12 df 3c 3a c5 1e bb
       -0.033580206 0.0056915274 0.027230501 -0.0024226443
000020 92 bf 9f 3d b0 a6 83 3d 8e 11 b6 3c 48 e1 2b 3e
       0.07800211 0.064282775 0.022225168 0.16785157
000030 71 0f df 3d f7 a4 e4 3d ce c6 34 bd 50 95 8e 3d
       0.10891617 0.11164277 -0.044134907 0.06962073
000040 59 ff 5b 3d f0 b8 2c 3e b1 d9 09 be f6 fa 1f bd
       0.053710315 0.16867423 -0.13461949 -0.039057694
000050 74 91 93 3d 86 62 80 bd 4b 49 87 3d 48 45 a7 3d
       0.07205477 -0.06268792 0.066057764 0.08167511
000060 3f 2c b8 3c 2b 89 fd 3d e8 07 53 bd 45 78 23 3e
       0.022482036 0.12379678 -0.05152121 0.15963848
000070 ac 50 a3 bd 9d a3 aa bb 38 06 1c 3d 49 83 74 bd
       -0.07974371 -0.0052074925 0.03809187 -0.059695516
000080 4d 58 aa 3d 35 51 0e be 86 10 c2 3d 3d 4a 12 3e
       0.08317623 -0.13898166 0.09475808 0.14286132
000090 02 bd 9f 3c be ea 08 bd cd e4 c2 3d f9 b8 ef 3d
       0.019499306 -0.033426993 0.095162965 0.117052026
0000a0 d5 20 99 bd ad c0 f1 bd ba 30 0a 3e 23 86 d5 bd
       -0.07476965 -0.11804328 0.1349515 -0.10425975
0000b0 1d da dd bd 71 24 86 3e d5 70 b9 3e 43 bf 44 3e
       -0.108326174 0.26199678 0.36218897 0.19213586
0000c0 47 77 5d 3e 4d 60 b6 3d f2 24 d8 bc 2f 05 00 3e
       0.21627532 0.08905087 -0.026384804 0.12501977
0000d0 44 7a 7f bd eb f1 f7 bd bc 3a bf bd 21 cd 98 3e
       -0.06237246 -0.12106689 -0.093373746 0.29844
0000e0 33 f2 9f 3e 3a 69 21 3e ce ea 3a 3e 2c 29 5c 3e
       0.3123947 0.15762797 0.18253633 0.21500081
0000f0 f7 d5 bc bd 89 cb 2b be f1 a1 0f 3d d9 bc ba be
       -0.09220498 -0.16776861 0.03506655 -0.36472204
000100 a4 71 33 3d 9a 5c 11 3d 9c a6 7a 3d df c7 ee bc
       0.043809548 0.035488702 0.061194047 -0.02914804
000110 39 f3 9a ba 6b 9c 43 3e 60 61 57 3d 6f 2b 90 3e
       -0.0011821754 0.19102637 0.0525831 0.28158137
000120 f0 df 85 3e 8f 43 a4 3d 50 64 4c 3e aa c8 b0 bc
       0.26147413 0.08020698 0.19960141 -0.02158006
000130 73 23 e0 bd f6 9d b8 bd e3 62 25 3e 09 76 3d bc
       -0.109442614 -0.09014504 0.16151004 -0.011563786
000140 11 9b 1f 3e 34 d6 31 3e e5 24 a1 3d ea 19 5c 3d
       0.15586497 0.17366868 0.07868365 0.05373565
000150 78 24 98 3d 92 62 89 bb 97 89 2f 3e 43 16 76 3d
       0.07428831 -0.0041926587 0.1714233 0.060079824
000160 97 b4 e5 3d ff 09 34 be 6b ae 39 3d b8 eb 9d bd
       0.112160854 -0.17581938 0.045332354 -0.077109754
000170 bc d3 32 bc 3f 45 26 be 92 6a 64 3d 60 1e 6b 3d
       -0.010914739 -0.16237353 0.055765696 0.057402015
000180 5d 20 09 3d 8b e5 f4 bd c8 be a3 3d cf 99 97 3d
       0.03347813 -0.11957844 0.07995373 0.074023835
000190 98 f9 85 bd ec aa e1 3d c4 d5 20 bd fe 54 9e 3d
       -0.06541747 0.11018929 -0.039266363 0.07731055
0001a0 0e 7f 82 bd 8a 6c 02 3e d0 1c 04 3e 32 7c 7a 3d
       -0.0637189 0.12736717 0.12901616 0.061153598
0001b0 63 7d eb 3c 69 6b f9 3d 66 45 a1 3d 1e 17 47 3d
       0.028746312 0.1217869 0.07874565 0.04860603
0001c0 94 5c 1d bd 83 96 8c bd ad 52 1f be fe 2a d4 3c
       -0.038418368 -0.06864645 -0.15558882 0.025899407
0001d0 d4 2e 17 bd dd ad 80 bc 87 f8 bd bd a4 d7 e3 3c
       -0.036909893 -0.015707904 -0.092759185 0.027812786
0001e0 80 27 6f bc c8 0c d8 3c 04 6a 1c 3c be 18 6d bd
       -0.01459682 0.026373282 0.0095467605 -0.057884924
0001f0 45 62 d8 3d b4 45 d4 bc 5b 89 f5 3c 50 a8 d6 bc
       0.105656184 -0.025912143 0.029972723 -0.026203305
000200 f8 72 63 be 06 d6 f1 bd 71 65 84 ba 92 66 e1 3d
       -0.22211826 -0.118084 -0.0010101033 0.11005892
000210 62 65 7c 3d 70 66 dc 3d 1f 37 ae 3d 68 4b a8 bd
       0.061620124 0.10761726 0.08506607 -0.082175076
000220 44 73 23 bc 61 81 d9 3d f1 84 76 3c 95 af ce 3d
       -0.009976212 0.1062038 0.015046344 0.10092083
000230 d4 63 f9 bd 60 6f 8d bd 53 b2 a0 bd 27 bc 5d 3d
       -0.12177244 -0.06906009 -0.07846513 0.054134514
000240 74 aa 06 bd 4c 57 24 be a6 2c 1e bd 56 34 3a bc
       -0.0328774 -0.16048926 -0.0386168 -0.011365017
000250 c2 56 48 bd 2c df d1 bd 9f 7e 0a bd 90 9b 1a 3d
       -0.048910864 -0.10247645 -0.03381216 0.037746012
000260 64 e0 c4 3d 39 69 82 bd 9d 06 19 3e 06 d0 d7 bc
       0.096131116 -0.06367726 0.14943929 -0.02634431
000270 8e a8 96 bd 85 6e bd 3d fa e3 e5 bd 18 02 83 3d
       -0.07356368 0.092495956 -0.11225124 0.06396884
000280 f8 d8 1c bd 0d 57 e7 3a 13 73 bc 3c 1e b0 3e bd
       -0.038292855 0.0017649845 0.02300409 -0.046554677
000290 89 9a 9d 3d 5f 48 ad 3d 34 72 65 bd 5c 17 1b 3d
       0.07695491 0.08461069 -0.056017116 0.037864074
0002a0 0f 7a 10 3e bd a9 f6 bb 28 24 cc bc 41 6d 13 3d
       0.14109062 -0.0075275586 -0.024919584 0.035992865
0002b0 b7 1c a6 3d e5 3a dc 3c 3e 66 92 bd b0 1b 07 3e
       0.08110946 0.026883552 -0.071484074 0.13194156
0002c0 01 16 fd 3c 51 39 d9 3d 3b 79 23 bc 75 f8 80 3d
       0.030894281 0.10606635 -0.009977634 0.062973894
0002d0 32 4d 08 be 5c 34 c2 bd e9 26 1c be e5 78 10 be
       -0.13310698 -0.09482643 -0.15249218 -0.14108618
0002e0 b0 6e a1 3c d1 64 2d 3d b0 1e 6b 3c 14 b8 2f 3c
       0.0197061 0.042332474 0.014350578 0.01072504
0002f0 02 2a fe ba 89 cb 84 bd 67 6d f5 bd 25 bb 83 bc
       -0.0019391181 -0.06484134 -0.119837575 -0.016080448
000300 fb 5a de bd d5 39 20 be 2f ab b3 bd 2b a4 26 bd
       -0.10857197 -0.15647061 -0.08772885 -0.040683907
000310 84 33 d4 bc 9c 9b 15 3e c8 d0 97 bd cb e3 39 3e
       -0.02590347 0.14610142 -0.07412869 0.18153302
000320 e2 0e 3d 3d 99 2f bd 3d 00 f2 b5 bc 3d ae 97 3c
       0.04615677 0.09237594 -0.022210121 0.0185157
000330 94 56 d2 bd 1d cd d4 3c 88 7c 09 be ea 06 00 be
       -0.1027042 0.025976712 -0.13426411 -0.12502638
000340 f7 db ae 3d e1 9d c4 bd 71 49 ca bd 4a e6 8f bc
       0.08538049 -0.096004255 -0.09877289 -0.017565865
000350 56 66 15 bd 6c 9c 25 3d 96 71 d5 3c 2a b4 1b be
       -0.03647455 0.04043238 0.026055139 -0.15205446
000360 22 7c ac 3d a6 91 8c 3d 9f e7 38 be 48 a3 26 3d
       0.08422114 0.06863718 -0.18057106 0.04068306
000370 0b 78 c0 bc 6c dd 25 3d 90 07 a1 3d 35 da 9f bd
       -0.023494741 0.040494367 0.078627706 -0.078052916
000380 29 65 b7 3d
       0.08954842

encoder.2.0.bias f4 [5]
000000 fd 91 ce 3d 9d 73 6d be b1 a8 25 3d 80 84 e3 bd
       0.10086439 -0.23188634 0.04044408 -0.11109257
000010 10 47 fd 3d
       0.1236707

encoder.2.1.weight f4 [5]
000000 7b 19 5b 3f 80 44 9a 3f 97 a9 26 3f fe b4 74 3f
       0.85585755 1.2052155 0.65102524 0.9558867
000010 ad ab 6e 3f
       0.93230706

encoder.2.1.bias f4 [5]
000000 14 6c 89 bd 1e b9 0b be 58 0f a4 3c 9d 5e 27 3c
       -0.067100674 -0.13644835 0.020026848 0.010215429
000010 8b bd 58 3d
       0.052915137

encoder.2.1.running_mean f4 [5]
000000 df 5b 68 3e 44 e9 17 3e 80 e5 0e bd 4f 6b 0b be
       0.22691296 0.14835078 -0.034886837 -0.13615154
000010 55 b5 ff bb
       -0.007803599

encoder.2.1.running_var f4 [5]
000000 50 79 1b 3f 0d ce 9a 3f 89 94 fd 3e 51 8f 56 3f
       0.60731983 1.2094132 0.49527386 0.83812433
000010 64 f7 97 3f
       1.1872373

encoder.3.0.weight f4 [2, 5, 5]
000000 74 37 e2 3d 71 47 d5 bd 51 73 b7 bc 63 38 e2 bc
       0.11045733 -0.10414017 -0.022393854 -0.027614778
000010 4f f6 a5 bd 52 ae 1b 3d 08 ed 0d be d0 06 b8 bd
       -0.0810362 0.03800804 -0.13859951 -0.089856744
000020 dd a0 a9 bc d5 bd 79 be 3e 35 d2 bd 9e 67 bb 3d
       -0.020706588 -0.24388821 -0.102640614 0.09150623
000030 0c 51 b7 bc 92 13 09 be bf c0 c6 3d dc 28 37 be
       -0.022377513 -0.13386372 0.09704732 -0.1788668
000040 15 75 0d be 17 9d e9 bd 72 63 3d 3e a9 4c 90 3d
       -0.13814195 -0.11406916 0.18494967 0.07045872
000050 30 6a ad 3d 51 c8 95 3d 52 72 b9 3d a3 7d 58 3e
       0.08467519 0.07313598 0.09055008 0.21141677
000060 e9 a6 23 be 7d 0d 4c 3b 90 82 ae bd 2f f8 a9 bc
       -0.1598164 0.003113597 -0.085209966 -0.020748226
000070 bc f2 f9 bd f9 9d 17 3e 0a 3f 25 3d 32 c7 e9 3d
       -0.12204501 0.14806356 0.04034332 0.114149466
000080 aa 4a e9 3d a6 0e ef bc c5 7c 18 3d c1 e1 13 3e
       0.11391194 -0.02918179 0.037228364 0.14441587
000090 3b fc 87 3d 7a 71 75 bd 2d 42 62 3d 3d c0 00 3e
       0.06639906 -0.059922673 0.05523889 0.12573333
0000a0 d7 7b 31 3d 87 78 dd bc f9 e0 0b be c5 fe 81 bd
       0.043330994 -0.027035011 -0.13660039 -0.063474216
0000b0 72 0d 93 bd 83 5f e0 bd 30 ba 4a bd 18 04 03 bd
       -0.07180299 -0.109557174 -0.04949397 -0.031986326
0000c0 1f 63 02 be e7 a2 c2 3c
       -0.12733124 0.023759319

encoder.3.0.bias f4 [2]
000000 05 12 3f 3e 2a 44 bd 3c
       0.18659218 0.023103792

encoder.3.1.weight f4 [2]
000000 fa c9 52 3f cd a2 63 3f
       0.8233944 0.8892029

encoder.3.1.bias f4 [2]
000000 84 d7 70 3d 21 48 34 3d
       0.05879928 0.0440141

encoder.3.1.running_mean f4 [2]
000000 c1 9a 77 3d 2f 92 e5 bd
       0.06045032 -0.11209523

encoder.3.1.running_var f4 [2]
000000 b1 85 3f 3f a5 14 04 3f
       0.7481337 0.51594

encoder.4.0.weight f4 [1, 2, 5]
000000 96 2a ed bc ec 90 e4 3d 55 7a 6f be 02 1f 9f bd
       -0.02895097 0.11160454 -0.2338651 -0.07769586
000010 f7 06 ba 3d 5b 7b b5 3e e3 0f b9 3b 9a e6 93 be
       0.0908336 0.35445675 0.005647646 -0.28886873
000020 a4 c9 71 be b5 b4 a9 3d
       -0.23612076 0.0828642

decoder.0.0.weight f4 [1, 2, 5]
000000 17 e4 19 bd f8 51 d2 3d 2e 69 29 3e b0 9b 3b 3e
       -0.03757104 0.102695405 0.16544029 0.18321109
000010 28 78 8b be 45 d4 48 3d 3d 18 09 3e 03 5c 1b 3e
       -0.2724011 0.04903056 0.13388152 0.15171818
000020 b6 c6 57 bd b4 9e 80 bc
       -0.05267974 -0.015700676

decoder.0.0.bias f4 [2]
000000 e8 00 d7 bc e9 78 1e be
       -0.02624555 -0.15475811

decoder.0.1.weight f4 [2]
000000 ae 95 88 3f 9d 11 5d 3f
       1.0670679 0.86355

decoder.0.1.bias f4 [2]
000000 5d d9 6f bd 98 54 95 bd
       -0.058556903 -0.072915256

decoder.0.1.running_mean f4 [2]
000000 12 e4 47 bc 56 8c ee bd
       -0.012200372 -0.11647861

decoder.0.1.running_var f4 [2]
000000 1c 0b 58 3d d4 52 fb 3c
       0.05274497 0.030679144

decoder.1.0.weight f4 [2, 5, 5]
000000 4b b5 fa 3b bf 4a 50 3d c4 b9 44 3d 2a 4d 24 3e
       0.0076510063 0.050852533 0.048028722 0.16045061
000010 be ba 8e 3d d6 9a 59 3e 5b f6 49 bd 3e ad 06 bc
       0.06969212 0.21250471 -0.04930721 -0.008220015
000020 37 c1 16 be 59 5f be 3d 74 3d ad 3d ce c1 f4 3d
       -0.14722143 0.0929553 0.08458987 0.11951028
000030 67 29 a3 3d 12 8d a3 3d b5 a5 dc bd 04 cd a0 bd
       0.07966881 0.079858914 -0.107737936 -0.078516036
000040 85 bd a4 bd 85 2f 0c be b6 c2 6f 3e b8 62 6a 3e
       -0.080439605 -0.13690002 0.2341412 0.2288922
000050 cf 69 59 bd 58 2a 37 bc 7f d9 e8 3c 89 a6 a4 3d
       -0.053079423 -0.011179529 0.028424023 0.080395766
000060 4f c9 1a be 10 dd 4f be 9f 96 84 3d 43 ac aa 3d
       -0.15115856 -0.20299172 0.06474041 0.083336376
000070 6c ed 0a be 74 53 29 bd 5d 42 ba bd 4f 4e f8 3d
       -0.13567132 -0.041339353 -0.09094689 0.12124311
000080 06 3b 91 bd 13 10 de bd 95 60 a4 bd 60 16 1c bd
       -0.07091336 -0.1084291 -0.08026234 -0.038107276
000090 3c e4 15 3d fc b8 b7 3d 3d a9 10 ba 36 5e 70 be
       0.036594614 0.0897083 -0.00055183825 -0.23473439
0000a0 75 d3 f0 bd 58 f2 42 bd d1 9c 66 3d 47 91 15 be
       -0.11759082 -0.0475944 0.056301896 -0.146062
0000b0 cf 2d ab 3d 42 04 6e bc db 65 0e 3e 84 6a 31 3b
       0.08358347 -0.014527382 0.13906042 0.0027071545
0000c0 5a b0 cf 3d b5 fe 80 3d
       0.10141058 0.062985815

decoder.1.0.bias f4 [5]
000000 55 d2 0c be 75 15 2c be bf 37 92 bd a4 ba 82 3d
       -0.1375211 -0.1680506 -0.07139539 0.06383255
000010 2a 48 f5 3d
       0.11976655

decoder.1.1.weight f4 [5]
000000 65 25 4d 3f f5 f3 54 3f 70 01 4f 3f b7 0f 89 3f
       0.80135185 0.8318475 0.8086157 1.0707921
000010 0a ce 5d 3f
       0.86642516

decoder.1.1.bias f4 [5]
000000 20 64 27 bd a6 67 08 3c 84 4d d4 bb cf fe 9d bc
       -0.04086697 0.008325493 -0.006478967 -0.019286541
000010 da af b1 bc
       -0.021690298

decoder.1.1.running_mean f4 [5]
000000 5e 25 20 be 81 04 2f be d6 ee 9b bd b3 e2 95 3d
       -0.15639254 -0.17091562 -0.07613914 0.0731863
000010 29 99 0e 3e
       0.13925613

decoder.1.1.running_var f4 [5]
000000 b0 a5 91 3d 87 af c1 3d 56 1f 73 3e c3 82 ff 3d
       0.071116805 0.09457307 0.23742422 0.12476113
000010 5a 66 f7 3d
       0.12080069

decoder.2.0.weight f4 [5, 9, 5]
000000 6a 8b 07 3b 9b ee 9c bc c5 83 00 bd 1f b4 42 be
       0.0020682462 -0.019156745 -0.031375665 -0.19014023
000010 97 eb 32 3e c1 a4 11 be 71 9d 8d bd f4 52 14 3d
       0.17472683 -0.14223005 -0.06914795 0.036211923
000020 72 2a dc 3d c1 19 d8 bc 81 d8 1e 3d 33 a7 b2 bd
       0.10750283 -0.026379468 0.038780693 -0.08723297
000030 2e 29 1f bd 89 d2 ae bd 4b c4 04 bc 1a 07 6a bd
       -0.03885763 -0.0853625 -0.0081034405 -0.05713568
000040 44 0e 02 be 93 2a c1 bd 09 b8 b5 3d a7 3b 08 3e
       -0.12700754 -0.094319485 0.088729925 0.13304006
000050 61 fb 88 3d 14 14 4d bd 2e f6 c8 3d 2d b9 67 bd
       0.06688572 -0.050067976 0.0981258 -0.05657308
000060 c1 55 3e 3b 01 cf f7 bd e0 bb 15 3c 15 51 a1 bd
       0.0029042813 -0.1210003 0.009139031 -0.07876793
000070 bb 0d 83 bd a7 eb 60 bd 78 ad d3 bd 42 af 5d 3e
       -0.06399103 -0.054912236 -0.10335821 0.21648887
000080 a0 6b 96 3d e5 3c 18 be 6a df e8 3b 90 54 96 bd
       0.073447466 -0.1486698 0.007106711 -0.07340348
000090 cb 1e d0 bd c0 e6 b3 bb f6 5f ca bd 50 90 00 3d
       -0.10162123 -0.005490154 -0.09881584 0.031387627
0000a0 2f 95 8f bc a7 c2 4f bc 1e 76 00 be 8e c7 24 bd
       -0.017527191 -0.012680686 -0.12545058 -0.040229373
0000b0 87 ce 9e 3d 1d 1a 0a 3c de d2 94 bd 61 0c 73 bd
       0.07754236 0.008429077 -0.07266782 -0.059337977
0000c0 d5 0c 8c 3c 14 a4 d5 3d 86 9f b9 bd a0 a1 f0 3c
       0.017095963 0.10431686 -0.0906363 0.029373944
0000d0 98 85 d9 3d a3 25 dc 3d 5a 9c ef 3c 1d 96 20 bd
       0.10621184 0.10749366 0.029249359 -0.03920566
0000e0 91 f1 a1 bd 74 53 26 bd 2c 67 ba 3c 9e bb 8c 3d
       -0.07907403 -0.04060693 0.022754274 0.06871723
0000f0 72 fe d0 bb 03 0a 0a bd b4 8d 64 3d 26 07 06 b8
       -0.0063779885 -0.033700954 0.0557992 -3.1954747e-05
000100 43 f0 57 3a 0c be 02 3e 66 b0 db 3d f7 21 ae 3a
       0.0008237401 0.1276781 0.10727005 0.0013285269
000110 98 68 4b bd fb 45 f6 bd 0d 22 2f 3b 81 2e 5c 3d
       -0.049660295 -0.120250665 0.0026723177 0.053755287
000120 2b bf 3e 3d 59 da 6b 3d 3c 12 7e 3d 05 92 35 3c
       0.04656903 0.05758128 0.06202911 0.011082177
000130 73 6d c7 3d c9 65 07 3e 10 57 95 bb f6 7c 13 3d
       0.09737673 0.13222422 -0.004557498 0.036007844
000140 0a 5e a2 bc 32 1e 3b 3d 00 f1 1c bd 55 52 ea 3d
       -0.019820232 0.045683093 -0.038315773 0.11441485
000150 3b e0 c6 3b b6 ab a8 3d ad 3e 1c 3d 05 9a c3 3d
       0.006069211 0.08235876 0.03814571 0.09550861
000160 92 1b 80 3d 57 36 0f be aa 55 80 3d 8e 04 b9 bd
       0.062552586 -0.13985573 0.06266339 -0.09034072
000170 7b 15 49 be 26 a3 d7 bb 09 01 83 3d 08 10 6d bc
       -0.196371 -0.006580728 0.06396682 -0.014469154
000180 bf cd c2 3d a1 33 86 3d 03 e4 89 3d c3 05 9a 3c
       0.09511899 0.06552816 0.06732943 0.018801576
000190 18 12 cd 3d 0d c4 0f 3d 54 1b 09 3d 3a 93 30 bd
       0.10013217 0.035099078 0.033473328 -0.043109156
0001a0 22 47 46 3e 3c c6 b7 3d 80 bf 53 bd b2 31 3c bd
       0.19363073 0.08973357 -0.0516963 -0.04594583
0001b0 7f 20 f6 3d f6 9e 80 3e b0 ba 55 bd 6b 50 c3 3c
       0.12017917 0.25121278 -0.052179992 0.023842057
0001c0 eb 24 82 3d d3 fe bb 3d 70 72 eb bd 24 14 0c be
       0.06354698 0.09179463 -0.114964366 -0.13679558
0001d0 78 dd 8b 3d 31 dd c5 3d ed 24 b7 3d 59 f0 31 3c
       0.06829351 0.096613295 0.0894259 0.010860526
0001e0 77 47 d9 3c c6 a0 04 3e 26 0a dc 3d 35 29 12 bc
       0.026523335 0.12951955 0.10744123 -0.008920957
0001f0 ee 04 fa 3c 95 66 ee 3d 40 63 44 3d fb e7 4e 3b
       0.030519929 0.1164066 0.047946215 0.0031571377
000200 80 ef a8 3d 8d b2 d6 3d de 8d 82 bd de 53 18 be
       0.08248806 0.104832746 -0.06374715 -0.14875743
000210 ce 60 e5 bd 5b 72 64 3d d6 e7 fc 3c 11 09 ff bc
       -0.11200105 0.05577312 0.030872267 -0.031132253
000220 4d d3 69 3d 5f 7b 89 ba 71 4e 02 be 48 e9 01 bb
       0.057086278 -0.0010489038 -0.12725236 -0.0019822884
000230 57 47 25 be 7e 6c 18 3e 73 d4 0a bd d2 07 dc 3c
       -0.16140495 0.14885136 -0.033894014 0.026859198
000240 ad 2b 83 bd 7b 64 65 bd 81 e4 48 bc 90 16 fd 3d
       -0.06404815 -0.05600403 -0.012261511 0.12357819
000250 cc 1f 44 3d d6 54 f8 3b 7a fb 03 bd d8 fa eb bd
       0.047881886 0.0075784726 -0.03222225 -0.11522454
000260 72 76 80 3d 1b d1 c2 bd 9f a5 f6 3a 0e 9e f0 bd
       0.06272592 -0.0951254 0.001881767 -0.117488965
000270 cc 44 e2 3d 24 4d 26 3e 33 58 01 be a8 cd f6 3d
       0.11048278 0.16240364 -0.12631302 0.120509446
000280 ec 56 a3 bd d8 5c ff 3d 8a 28 d8 3b a0 e6 ee 3c
       -0.079755634 0.124688804 0.0065966295 0.029162705
000290 c9 1c 64 3d 5f 4f de bc ac 5b e2 3c 52 b7 28 bd
       0.055691514 -0.027137456 0.027631603 -0.041190453
0002a0 56 54 b5 bd 20 8e 43 3e 90 69 e0 bd 8a 96 a3 3d
       -0.088539764 0.19097185 -0.109576344 0.079876974
0002b0 bd 51 bc bd f9 11 2c 3d 79 2d 83 3c 5d cf 1d 3b
       -0.09195278 0.042009328 0.016012894 0.0024079897
0002c0 36 73 a1 3d b9 5c 77 3d 4c 20 b2 bd c7 80 06 3e
       0.07883303 0.06039116 -0.086975664 0.13135062
0002d0 f6 e2 ba 3d 28 e0 5a bd fa 5a 1e be 9f 7b 2b bd
       0.091253206 -0.05343643 -0.15464392 -0.04186594
0002e0 6d 04 02 3e d2 18 0a 3e 83 1f 50 bc bf bc 10 3d
       0.12697001 0.1348603 -0.0127028255 0.035336252
0002f0 be a6 5a bd 66 13 ef bd 40 ba d4 bd c2 4e df 3d
       -0.053381674 -0.11673622 -0.10387087 0.10903694
000300 52 ea 5c bd a3 35 df bc 3c 68 23 3b a7 4a 3d 3e
       -0.053934403 -0.027247256 0.0024933955 0.18485509
000310 55 b1 9a 3d a5 ea 8f bd c9 6d f8 bd 06 44 32 be
       0.07553355 -0.07027177 -0.12130315 -0.17408761
000320 4a bb 29 3c e7 a7 37 3d 04 b9 b6 bc 2e 07 c0 bd
       0.010359595 0.04483786 -0.02230502 -0.093763694
000330 6b 1d 34 3e 77 66 a5 bd a1 93 5f 3d 23 26 90 bd
       0.17589347 -0.08076184 0.05458415 -0.07038524
000340 03 72 05 3e a0 4b c1 3d 65 53 29 3c ed 67 b3 3d
       0.13031773 0.094382524 0.010334824 0.08760057
000350 63 f5 72 3d ed 3f 4c 3e 21 6a 02 3e 4a 6d 80 bd
       0.05931605 0.19946261 0.12735797 -0.06270845
000360 23 a7 15 3e db b3 10 bd dd 7b 23 3d ea e5 54 bd
       0.14614539 -0.035327774 0.039913047 -0.051977076
000370 30 87 f7 3d bf 1e 2e bc 8e a8 e4 bd f0 40 b5 3d
       0.12086332 -0.010627448 -0.11164962 0.088502765
000380 85 f4 90 bd
       -0.070778884

decoder.2.0.bias f4 [9]
000000 53 8e 00 be 21 fd c2 3d 10 af cd 3d ac b5 f7 bd
       -0.12554292 0.09520937 0.10043156 -0.12095198
000010 9a f5 dd bd 16 c7 b0 3d f8 b7 05 3e 00 60 8d bd
       -0.108378604 0.08631723 0.1305846 -0.06903076
000020 5c 02 f5 3d
       0.11963341

decoder.2.1.weight f4 [9]
000000 96 c3 20 3f d4 4f 4d 3f 9f 9e 4c 3f 62 0e 32 3f
       0.6279844 0.80199933 0.79929537 0.69553196
000010 ae 0d 6b 3f 8a 23 52 3f 18 56 75 3f 8e b4 1d 3f
       0.9181775 0.8208548 0.95834494 0.6160363
000020 19 dc 7c 3f
       0.9877334

decoder.2.1.bias f4 [9]
000000 15 eb 10 3c b8 a9 05 3c 8b 59 c5 3c 24 7d a0 bc
       0.00884511 0.00815814 0.024090549 -0.019590922
000010 9d c7 e7 bc a2 92 19 bc cb f8 38 bc 68 fd 16 bd
       -0.028293425 -0.009373339 -0.011289786 -0.03686276
000020 ba 7b 70 3c
       0.014677936

decoder.2.1.running_mean f4 [9]
000000 fc 9d e7 bd db af 00 3e cf 10 d6 3d df 36 00 be
       -0.1130943 0.12567084 0.10452425 -0.12520932
000010 58 aa da bd 61 ac 5c 3d bf 1a f1 3d 87 33 a7 bd
       -0.10677022 0.05387533 0.117726795 -0.08164125
000020 83 f9 0c 3e
       0.13767056

decoder.2.1.running_var f4 [9]
000000 16 48 23 3e 74 ff 14 3e cf 61 13 3e 58 22 5a 3d
       0.15945467 0.14550573 0.1439278 0.05325541
000010 62 b8 b1 3d cc 69 b2 3e f2 33 65 3e 1f 0b 09 3d
       0.08677746 0.34846342 0.22383097 0.03345787
000020 37 e0 11 3e
       0.14245687

decoder.3.0.weight f4 [9, 18, 5]
000000 d7 d2 3f 3c 5d 77 df bc b1 45 d7 3d d8 d9 a5 3c
       0.011707983 -0.027278597 0.105113395 0.020245478
000010 cd ce 9c 3d a8 a9 e8 3d 74 53 9f 3d 4f ab 37 3c
       0.076566316 0.11360484 0.07779589 0.011210277
000020 12 3c ae 3d 4e 94 81 bc 32 2f 10 3e ce be 5d bd
       0.08507551 -0.015817787 0.14080504 -0.054137044
000030 b5 a2 30 3b 24 29 a3 bd 91 98 55 3d a0 5e cf 3d
       0.002695245 -0.07966831 0.05214745 0.1012547
000040 f3 1c 54 3d e9 11 9b bc a4 09 c8 bb eb b2 8a 3d
       0.05178542 -0.018929439 -0.006104665 0.06772407
000050 42 d5 5e 3c 54 db f7 3b 72 42 a4 3d 4f c2 8e 3d
       0.013600649 0.0075639877 0.08020486 0.06970655
000060 ac 9f 82 bc fe 64 97 3c 82 34 8b 3d bf 21 6c bc
       -0.015945278 0.018480774 0.067971244 -0.014412343
000070 77 19 ad 3c 39 76 ed bd f8 6a 5e bc c7 50 7f 3d
       0.021130307 -0.11594815 -0.013575308 0.062332895
000080 6e 95 b5 bd fa b4 07 bd 08 f6 53 bc 4c 07 91 bd
       -0.08866392 -0.033131577 -0.012937076 -0.0708147
000090 2b 9a c6 bd 20 1d 9e 3d 84 c2 5c bd 0d 8b af 3c
       -0.09697374 0.07720399 -0.053896442 0.02142861
0000a0 79 ac 79 3d a8 4a 2c bd 8e 36 5d bd 9f cf 09 bc
       0.0609555 -0.042063385 -0.054007106 -0.008411317
0000b0 5f bf 82 3d 5f 4a 4e bd f7 1c 8f 3c 74 5b ac bd
       0.063841574 -0.050363895 0.017469866 -0.08415881
0000c0 d3 90 06 3d 72 22 39 3d c6 73 3a 3d ba a9 a5 3d
       0.03285296 0.045198865 0.045520566 0.080890134
0000d0 7d 88 d8 3c a9 5e 8a 3d 09 40 0a 3e 40 85 16 3d
       0.02643227 0.06756336 0.1350099 0.03674817
0000e0 57 2a dd bd f9 df 07 3d c0 a9 4e 3d 72 0d d0 3d
       -0.10799091 0.03317258 0.050454855 0.101588145
0000f0 ef 5e d7 3d 98 c8 dc 3d 44 28 b0 bd a9 c8 88 ba
       0.10516154 0.10780448 -0.0860143 -0.0010435778
000100 01 30 a8 bd d1 8c 0d 3d e7 b4 5d bd d8 24 32 3d
       -0.08212281 0.03455812 -0.0541276 0.04349217
000110 b5 53 55 3d 2c bf ac bd 74 56 5e 3d ce 47 e3 3c
       0.052081782 -0.08434901 0.054281667 0.0277442
000120 7c 4f 53 bd 3a 1e ad 3d 75 54 01 3d 36 82 b1 3d
       -0.051589474 0.08453031 0.031574685 0.08667414
000130 45 20 3e 3d 5d bf b4 bd bb 2e 1f 3b 88 61 b8 bd
       0.046417493 -0.08825562 0.0024289328 -0.090029776
000140 f8 b3 c7 bc 4c 1c b7 3d 18 e3 93 bb 8a ef a2 3c
       -0.024377808 0.08940944 -0.0045131557 0.019889612
000150 08 87 43 3d 75 79 f4 ba 0e c2 9c bb 52 5f a7 bc
       0.047736198 -0.001865192 -0.0047838753 -0.020431194
000160 37 62 1b 3b 86 10 be bc 16 54 c6 3c a9 d5 3a 3d
       0.0023709664 -0.023201238 0.024210017 0.04561392
000170 99 40 cc 3c f3 0c 9e bd 34 e0 b1 3c 98 79 af bd
       0.024933146 -0.077173136 0.021713354 -0.08568114
000180 7a a3 92 bd 62 de 92 bd 6a b8 60 bc b3 e7 32 bd
       -0.07160087 -0.071713224 -0.013715843 -0.043677997
000190 3a 91 6b bd 40 53 8f 3b 63 87 b4 3c 89 1b 14 3e
       -0.057511546 0.004373938 0.022037214 0.14463629
0001a0 7c 7d 2b bd 2d 4d 96 3a 06 03 06 3c 09 06 22 3d
       -0.041867718 0.0011467092 0.008179432 0.039556537
0001b0 75 51 12 bd 82 61 f7 bb f5 91 c1 3d e9 be 00 3e
       -0.035722215 -0.0075494656 0.09451667 0.12572826
0001c0 da 39 3f 3e 25 7a 08 3e 8b 1b c0 3d 94 38 9b 3c
       0.18674412 0.13327844 0.093802534 0.018947877
0001d0 21 2c c5 bd 3b c4 ed bc 10 74 fb bd 81 63 bc bd
       -0.096275575 -0.029024234 -0.122779965 -0.09198666
0001e0 46 fe 1d bd 80 1c e5 bc 4a fd 33 3c 2e 74 93 bd
       -0.038572572 -0.027967691 0.010985682 -0.07199894
0001f0 04 99 2d 3d 8d 1e 35 3c 86 60 66 3d 5e 8d bf 3d
       0.042382255 0.011054647 0.056244396 0.093531355
000200 1b 84 ce 3d a1 49 98 bd d8 aa 25 bd ce a7 4d 3d
       0.10083791 -0.074359186 -0.040446132 0.05020886
000210 3c 8c 1d bd 9b e9 e0 3c 01 99 80 3d 95 3d 49 bd
       -0.038463816 0.027455142 0.06279183 -0.049130995
000220 4b 31 aa 3d eb 3d 05 3e e2 07 3a bc b1 b5 e1 3d
       0.08310183 0.13011901 -0.0113544185 0.11020983
000230 c1 f6 89 3b 53 2f 83 3d b6 78 c0 3c 12 d2 d8 bd
       0.0042103236 0.06405511 0.02349506 -0.10586943
000240 9f 22 46 3e 89 d4 31 3d a8 28 e5 3c 6e e3 6f bd
       0.19349144 0.04341558 0.027973488 -0.058566503
000250 6e fd ae bd 29 4b 15 be f2 42 6c 3b 17 ac 87 bc
       -0.085444316 -0.14579453 0.0036050645 -0.016561551
000260 b4 ce 41 3c 15 eb 34 3c e3 f1 ae 3d 81 fb 91 bc
       0.011829067 0.011042376 0.0854223 -0.017820122
000270 71 79 d0 bd 89 c5 e3 bc bc c1 5f bd 3b 84 9d 3d
       -0.10179413 -0.027804153 -0.05462812 0.076912366
000280 ca bf 55 3d 90 c2 1f 3e 6f 71 ba 3d 7f b9 4f bb
       0.052184857 0.15601563 0.09103667 -0.0031696258
000290 4a d6 01 3e ae 67 ad bb 45 53 08 3d 93 e8 a7 3c
       0.12679401 -0.0052919006 0.033282537 0.020496642
0002a0 ff f1 fd bb 28 69 ba 3d ca 22 ec 3c 14 13 02 3d
       -0.0077497954 0.09102088 0.028825182 0.031756476
0002b0 94 cb 46 3d 95 68 6b 3d d8 4a 10 3e 1a 1c 12 3b
       0.04853399 0.057472784 0.1409105 0.0022294582
0002c0 97 f4 a4 bd 46 c2 22 3d 06 e9 9d bd 39 78 15 ba
       -0.08054464 0.039736055 -0.07710461 -0.00057018135
0002d0 53 0a 83 bd 62 d9 13 3d 3a 6e 11 3d 79 bc 33 3d
       -0.063984536 0.036095984 0.03550551 0.043880913
0002e0 fd 4d de 3d 81 4d 0f bd 76 54 16 bc ea 24 86 bd
       0.10854719 -0.034986023 -0.0091754105 -0.065500095
0002f0 a0 48 84 3d 59 0b a0 3c bc cf a7 3d 70 b3 33 3c
       0.064591646 0.019536661 0.08193919 0.010968074
000300 9a e7 c4 bc 23 fa ba 3c df d5 a3 bd fc 74 74 bd
       -0.024036217 0.022824353 -0.07999777 -0.059681877
000310 2e f8 5d 3d 74 27 16 3d ea fd a0 bd a2 71 c0 3d
       0.05419176 0.03665872 -0.0786093 0.09396674
000320 71 dc aa bc 54 c5 cd bc 2e 01 93 3d b7 6a 45 3d
       -0.020857068 -0.025118507 0.071779594 0.048197474
000330 b4 b7 22 3b 18 8e b7 3d d9 9a 99 3d 14 ad 9f bd
       0.0024828734 0.08962649 0.07500238 -0.07796684
000340 94 00 1b 3d 5f b3 9e bd 96 b4 9f bd 8a 62 f0 bc
       0.03784235 -0.07749056 -0.07798116 -0.029343862
000350 24 1e c0 3c ed 81 8f 3b d6 9a d5 bc f4 35 b0 3c
       0.023451872 0.004379502 -0.026074808 0.021510102
000360 44 4f 97 3d fe bb ea bc 2b 1d 50 bd b5 92 66 bc
       0.073881656 -0.028654095 -0.050809067 -0.014073064
000370 fa 62 a4 3d e6 4f d0 bc c2 bb e5 bb 17 90 a3 bd
       0.08026691 -0.025428724 -0.007010908 -0.07986467
000380 91 83 54 3c 48 d8 1b 3c dd a1 b4 bd f7 f8 a1 3d
       0.012970821 0.009512015 -0.088199355 0.079088144
000390 0d 88 c7 bd ca f8 e5 3d e5 c9 8a bc f7 49 af 3d
       -0.097427465 0.112290934 -0.016941974 0.085590295
0003a0 76 9e 70 3a e3 c5 2e 3d 66 94 27 3e 63 5b a0 3d
       0.0009178886 0.04266919 0.16365203 0.07829931
0003b0 5d 0b c0 3b a3 14 96 bd 29 da a7 3d c8 fb 5e bd
       0.0058607296 -0.07328155 0.081959076 -0.054439336
0003c0 3d a6 16 3e 98 6d c1 3d 54 95 bf 3d 95 54 a2 bc
       0.14711852 0.094447315 0.09354654 -0.019815722
0003d0 c0 91 df bd 32 58 04 3e 5d a6 92 bd 39 13 55 3d
       -0.109164715 0.12924269 -0.071606375 0.052020285
0003e0 63 81 9c bd 1f 38 83 bd 1d 4d 2a 3c 19 b6 2d bc
       -0.07641866 -0.064071886 0.010394362 -0.0106024975
0003f0 00 60 01 3d 63 c2 af bc 6d 6c 8c 3d f0 ce 03 bc
       0.031585693 -0.021454995 0.06856618 -0.008044943

decoder.3.0.bias f4 [18]
000000 52 d3 73 3d 16 65 a9 bd 9c 00 aa 3d 43 52 61 bd
       0.059527703 -0.08271234 0.083008975 -0.05501009
000010 9f 3b da bc fa ed c8 3c 54 8f f8 3c e5 06 c3 bd
       -0.026639758 0.024527539 0.030341782 -0.095227994
000020 32 0f e5 bd 2c e0 e4 3d 57 04 d1 3d 45 e0 e7 3d
       -0.11184539 0.1117557 0.10205906 0.11322073
000030 e0 1c 29 bd 0e aa ca 3d 75 38 25 3c c2 9c 66 3d
       -0.041287303 0.098957166 0.010084261 0.05630184
000040 72 42 04 bd a4 9f 79 bc
       -0.03228993 -0.015235815

decoder.3.1.weight f4 [18]
000000 78 92 57 3f 1c 5d 56 3f a8 14 77 3f d3 12 29 3f
       0.8420787 0.83735824 0.96515894 0.6604435
000010 f3 90 31 3f 83 d5 47 3f 7d 6f 58 3f a7 66 53 3f
       0.693618 0.7806017 0.8454512 0.8257851
000020 64 cc 56 3f 50 2e 47 3f 82 0f 3a 3f 1c 57 7b 3f
       0.83905625 0.7780504 0.72679913 0.98179793
000030 61 ef 75 3f 7e ec 3a 3f 38 88 6b 3f a2 71 60 3f
       0.9606839 0.7301711 0.9200473 0.8767339
000040 45 8d 1d 3f 87 ca 54 3f
       0.61543685 0.8312153

decoder.3.1.bias f4 [18]
000000 8c 29 72 bd c4 4a b3 bc 39 5a 97 3d 20 54 00 bd
       -0.059121653 -0.021886237 0.073902555 -0.031330228
000010 ad 8d 47 3c 1e c5 30 3c 2a 77 c0 3b 7b 37 1c bd
       0.012179774 0.010789184 0.0058735805 -0.038138848
000020 20 8d 24 bd 28 27 0a bd 69 59 3a bc dc 3c 94 3b
       -0.04017365 -0.03372875 -0.011373856 0.0045238566
000030 ae cb 02 bd 2b ce 01 bd 30 bf ef bd d3 a5 20 bd
       -0.031932525 -0.031690758 -0.11706388 -0.039220642
000040 ca 77 8f bc e1 0a 2a bc
       -0.017513175 -0.01037857

decoder.3.1.running_mean f4 [18]
000000 4c 3c bd 3d 24 d8 bc bd 08 2f d8 ba ab cb 97 bd
       0.09240016 -0.09220913 -0.0016493509 -0.074118935
000010 be f8 98 bb a8 fa 2b 3d 5f 47 68 bc 1e 94 d4 bd
       -0.0046683243 0.04198709 -0.014177172 -0.103798136
000020 ca 98 f8 bd 4c 3b ac 3d b9 a3 ad 3d 4e 64 b2 3d
       -0.12138517 0.084097475 0.08478493 0.08710538
000030 11 56 37 bd 48 4e cb 3d 5d 0a 5f 3d c6 37 09 3d
       -0.044759814 0.0992704 0.054453243 0.033500455
000040 6b 6f 15 bd a8 e1 c7 3b
       -0.03648321 0.0060998984

decoder.3.1.running_var f4 [18]
000000 6a 30 25 3e b4 3e 7e 3e 20 56 91 3d 90 63 ab 3d
       0.1613175 0.24828607 0.07096505 0.083685994
000010 a9 e4 a5 3d 41 d0 e2 3e b1 ea 91 3d c6 04 b2 3d
       0.08100254 0.4429951 0.07124842 0.08692317
000020 51 40 04 3e e0 28 2f 3e 04 62 1c 3e ec 82 88 3e
       0.1291516 0.17105436 0.15271765 0.26662385
000030 21 bd 25 3e de 07 bc 3d bd b7 a0 3d 4f 57 21 3e
       0.16185428 0.09181188 0.07847545 0.15755962
000040 9b 65 d8 3d a1 42 6a 3e
       0.10566255 0.2287698
