trained_models/5C6E:E552:64CA:1491.pt (torch, 231221 bytes, 48 tensors)

encoder.0.0.weight f4 [36, 36, 7]
-0.16900752 -0.10650541 -0.1464767 -0.1279592 -0.082993954 -0.19850272 -0.15693806 -0.034907598
-0.055434965 0.017799271 -0.08579265 -0.078513555 -0.101610824 -0.06084466 0.0022445365 0.03943229
0.08796473 0.08130267 0.06536326 0.0224522 0.041805122 0.031672318 0.0116373 1.0406854e-05
0.023622764 0.025962166 -0.021720821 -0.012398821 0.045492236 0.044450335 0.09245411 0.041318875
-0.02072758 0.015187573 0.030809976 -0.07219475 0.04206127 0.034146965 0.02426719 0.030951075
-0.0095908735 -0.015330513 -0.031673275 0.0006176027 0.070218936 -0.030077629 0.021663878 0.011157958
-0.021806497 0.0007329951 0.037128247 0.05009975 0.006246995 0.020046894 0.04480372 0.01255548
0.02589554 0.048629142 0.056469034 0.038241774 -0.05116482 -0.06373775 -0.02291199 0.008685474
-0.046328478 0.0436552 0.0082688695 0.008407968 -0.009397106 -0.06716958 -0.028950825 -0.016040806
-0.008523472 0.016584828 -0.019408142 -0.0020363892 0.00019203081 -0.01953562 0.054793295 0.029948408
-0.02696225 -0.015020399 0.00797383 -0.01792322 -0.04113788 0.025453947 -0.002577705 -0.09459859
-0.09874858 -0.080984876 -0.043261684 0.021145094 -0.025223631 -0.063918896 -0.00019840657 -0.04436902
-0.045280084 0.028367892 -0.01835035 -0.01043207 -0.017298773 0.021494744 -0.05919963 -0.06927225
-0.08182068 -0.05285542 -0.055986248 -0.057027403 -0.009867823 -0.02705811 -0.02927509 0.010340574
-0.06288864 -0.0006069193 -0.025797037 -0.04863774 0.030747838 0.01354983 -0.0028758154 -0.022931265
-0.00526248 -0.04564108 -0.027985416 -0.016676381 0.01925582 -0.0023910457 -0.0035296208 0.03778311
0.035005786 -0.006374561 -0.0015304188 0.018832648 0.016094139 -0.042642366 0.002430737 -0.04454376
-0.05036476 0.040665872 0.008788697 0.03443801 -0.015995853 0.0355159 0.035678502 0.05722164
-0.010010795 -0.023422692 0.023715142 0.047138598 -0.015840406 0.055771865 -0.0040855417 -0.03283711
0.012547941 0.023152357 -0.040126026 0.02607236 0.02532182 -0.042628177 -0.059378784 0.013067994
-0.022821248 -0.05510927 -0.015245011 0.07399676 -0.042727154 0.036493205 -0.037440244 -0.011419177
0.011100505 0.091871575 0.069056824 0.05094302 0.028512795 0.039451264 0.050040234 0.028252505
0.026334392 0.05316606 -0.013433111 -0.01624187 -0.01543962 -0.02912617 -0.008685984 0.01084717
-0.013797492 -0.02911034 -0.011649065 -0.026967956 -0.009067458 -0.013483831 0.04744115 -0.0013026472
0.044839147 -0.036367957 -0.009969919 -0.036936358 -0.032615256 0.0389959 0.045269273 0.020912888
-0.037838336 -0.02903081 0.069221996 -0.013722009 0.04654907 0.0795238 -0.02916966 0.035553407
0.071432225 0.03039108 -0.012463828 0.014386023 0.0005299972 0.031446807 0.0059223375 -0.011667611
0.010426974 0.045791935 0.09940454 0.042400707 -0.019004432 -0.053805254 0.017845275 0.05889725
0.06511887 0.07126813 0.07838286 0.04540309 0.047609087 0.023844745 -0.01689146 0.049226493
0.05704508 0.01924881 0.056369822 0.04045281 0.0062785917 0.025393225 0.031808022 -0.0016518269
0.019483121 -0.01100116 -0.063082166 -0.04590891 0.0064991354 0.04365125 0.0030612536 -0.027404562
-0.052358314 -0.0768749 -0.014063088 -0.05046224 -0.029754966 0.064012036 -0.010455511 -0.0020747841
00000000: 4f10 2dbe 821f dabd fdfd 15be bd07 03be
00000010: bcf8 a9bd 4c44 4bbe 5fb4 20be 45fb 0ebd
00000020: c60f 63bd c7cf 913c 0fb4 afbd b7cb a0bd
00000030: 5619 d0bd 4038 79bd 1319 133b c183 213d
00000040: da26 b43d 0482 a63d 2cdd 853d aded b73c
00000050: d93b 2b3d d5ba 013d 60aa 3e3c 1999 2e37
00000060: 8784 c13c 9cae d43c ddef b1bc 6d24 4bbc
00000070: 1156 3a3d 8e11 363d 9558 bd3d fb3d 293d
00000080: e3cc a9bc 4cd5 783c 3465 fc3c d7da 93bd
00000090: 7048 2c3d b0dd 0b3d fccb c63c 1c8d fd3c
000000a0: 0a23 1dbc d52c 7bbc d6bb 01bd 9ee6 213a
000000b0: f2ce 8f3d 5c65 f6bc 7278 b13c decf 363c
000000c0: 8aa3 b2bc 7826 403a ca13 183d 6535 4d3d
000000d0: 98b3 cc3b 6239 a43c 1b84 373d 80b5 4d3c
000000e0: e222 d43c 5a2f 473d 134c 673d 68a3 1c3d
000000f0: 3492 51bd f088 82bd edb1 bbbc 854d 0e3c
00000100: eec2 3dbd cccf 323d 277a 073c 93c1 093c
00000110: 52f6 19bc 3490 89bd 482a edbc 0268 83bc
00000120: 08a6 0bbc e8dc 873c d3fd 9ebc f174 05bb
00000130: e15b 4939 2a09 a0bc ef6e 603d 5d56 f53c
00000140: f0df dcbc 1f18 76bc aba4 023c b7d3 92bc
00000150: 3280 28bd cc84 d03c b7ee 28bb e8bc c1bd
00000160: b23c cabd 66db a5bd 2a33 31bd 7a38 ad3c
00000170: caa1 cebc e9e7 82bd 5c0b 50b9 4abc 35bd
00000180: 9c77 39bd c863 e83c 7953 96bc 46eb 2abc
00000190: 28b6 8dbc bf15 b03c 507b 72bd 9cde 8dbd
000001a0: 9a91 a7bd ed7e 58bd d651 65bd 9195 69bd
000001b0: a6ac 21bc f8a8 ddbc 50d2 efbc 836b 293c
000001c0: c2cb 80bd aa19 1fba 4f54 d3bc 5e38 47bd
000001d0: e4e2 fb3c 1b00 5e3c 2d78 3cbb 59da bbbc
000001e0: e270 acbb 24f2 3abd ac41 e5bc e89c 88bc
000001f0: 62be 9d3c 17b3 1cbb 3651 67bb 76c2 1a3d
00000200: 3a62 0f3d b2e1 d0bb 5598 c8ba ed46 9a3c
00000210: dbd7 833c c3a9 2ebd 004d 1f3b 8573 36bd
00000220: 474b 4ebd 4291 263d 78fe 0f3c df0e 0d3d
00000230: bc09 83bc 1f79 113d 9f23 123d 3d61 6a3d
00000240: 5104 24bc f2e0 bfbc 4246 c23c 6714 413d
00000250: bdc3 81bc 0a71 643d 02e0 85bb 3580 06bd
00000260: e195 4d3c 03aa bd3c 305b 24bd b495 d53c
00000270: b56f cf3c e29a 2ebd 2b37 73bd 241b 563c
00000280: a0f3 babc 42ba 61bd 36c6 79bc 9d8b 973d
00000290: ab02 2fbd e679 153d f15a 19bd 8017 3bbc
000002a0: e4de 353c 2a27 bc3d aa6d 8d3d a1a9 503d
000002b0: aa93 e93c a697 213d fdf6 4c3d cc71 e73c
000002c0: 39bb d73c a8c4 593d 8d16 5cbc ac0d 85bc
000002d0: 76f6 7cbc 019a eebc a84f 0ebc 54b8 313c
000002e0: e00e 62bc cf78 eebc b8db 3ebc e7eb dcbc
000002f0: ad8f 14bc 49eb 5cbc a751 423d 96bd aaba
00000300: 41a9 373d 91f6 14bd df58 23bc 944a 17bd
00000310: 9397 05bd 2aba 1f3d 466c 393d 8151 ab3c
00000320: 5ffc 1abd 05d2 edbc 43c4 8d3d 47d2 60bc
00000330: 3daa 3e3d 60dd a23d 36f5 eebc 73a0 113d
00000340: 0f4b 923d b7f6 f83c 1535 4cbc 5bb3 6b3c
00000350: 83ef 0a3a 5ece 003d 2b10 c23b 8229 3fbc
00000360: e6d5 2a3c 5390 3b3d 9c94 cb3d 5dac 2d3d
00000370: 2faf 9bbc e662 5cbd 4130 923c 3e3e 713d
00000380: 0b5d 853d 06f5 913d 3187 a03d 97f8 393d
00000390: bf01 433d 0e56 c33c f65f 8abc b8a1 493d
000003a0: 1aa8 693d aeaf 9d3c 0be4 663d d8b1 253d
000003b0: a5bc cd3b 7405 d03c 2149 023d 1d82 d8ba
000003c0: 119b 9f3c 363e 34bc 3931 81bd fb0a 3cbd
000003d0: b3f6 d43b a7cb 323d 509f 483b 887f e0bc
000003e0: ac75 56bd 9670 9dbd de68 66bc 7eb1 4ebd
000003f0: b0c0 f3bc be18 833d 974d 2bbc 1af9 07bb

encoder.0.0.bias f4 [36]
0.052451134 -0.03264018 -0.05328428 0.03385656 0.03583842 -0.06739973 -0.046672285 -0.033312455
-0.0783866 0.022482555 -0.056269772 0.021220211 0.037398025 -0.014840869 0.035316475 0.019319601
-0.007889107 0.027582306 0.00904248 0.013755402 0.05703944 0.0439573 0.01331447 -0.034292944
0.009321344 -0.025256386 0.04449288 -0.015092194 -0.047391597 0.04571461 0.07657096 0.010747565
0.032898355 0.043268133 -0.07179377 0.038419604
00000000: 00d7 563d b6b1 05bd 9e40 5abd 2dad 0a3d
00000010: 4fcb 123d df08 8abd 702b 3fbd a472 08bd
00000020: 2789 a0bd 562d b83c 227b 66bd 02d6 ad3c
00000030: ac2e 193d 1e27 73bc 02a8 103d 2444 9e3c
00000040: 5041 01bc 4af4 e13c e926 143c 565e 613c
00000050: 30a2 693d 920c 343d ef24 5a3c c276 0cbd
00000060: 8db8 183c 7be6 cebc 2b3e 363d 4045 77bc
00000070: b11d 42bd 3e3f 3b3d 3cd1 9c3d 8e16 303c
00000080: 6dc0 063d ed39 313d 9d08 93bd e05d 1d3d

encoder.0.1.weight f4 [36]
0.8314951 1.0364556 0.8619897 0.93691415 0.9394915 0.95421785 0.9609205 1.0906963
1.0429274 0.95008016 0.8336073 0.96837395 0.97986627 0.925547 0.8709743 1.0099137
0.9817302 1.0214053 0.95515543 1.0251153 1.025618 1.048864 0.98014224 0.9527304
0.9429019 1.0874755 0.9282679 1.044595 1.0045332 0.97505796 1.0230501 1.0135082
0.96960545 0.94146836 0.996372 0.9874722
00000000: dddc 543f 94aa 843f 5bab 5c3f 9bd9 6f3f
00000010: 8482 703f 9f47 743f e3fe 753f f09b 8b3f
00000020: a57e 853f 7438 733f 4a67 553f 5be7 773f
00000030: 84d8 7a3f a6f0 6c3f 2cf8 5e3f da44 813f
00000040: ac52 7b3f 69bd 823f 1185 743f fa36 833f
00000050: 7347 833f 2d41 863f 9aea 7a3f 24e6 733f
00000060: 0562 713f 6632 8b3f f7a2 6d3f 4ab5 853f
00000070: 8b94 803f 669d 793f 4ef3 823f a3ba 813f
00000080: 1038 783f 1204 713f 3c12 7f3f faca 7c3f

encoder.0.1.bias f4 [36]
-0.020544577 -0.0765863 0.003257649 -0.04101017 -0.011867861 -0.025182337 -0.02780419 0.0015853744
-0.06199159 -0.011792099 -0.0010949593 -0.008539915 -0.024381658 -0.03431014 -0.008709099 -0.037157122
-0.037562195 -0.03866681 -0.002954756 -0.017049387 -0.020604175 -0.017800583 -0.022684766 -0.008697722
0.01646727 -0.036327675 0.00042123234 -0.03918001 -0.043757834 -0.02512544 -0.010409095 -0.01960105
-0.049923383 -0.029270858 -0.022791225 -0.027711736
00000000: 1a4d a8bc 47d9 9cbd 487e 553b 48fa 27bd
00000010: 6b71 42bc 304b cebc 9dc5 e3bc 56cc cf3a
00000020: e5ea 7dbd a633 41bc bd84 8fba 00eb 0bbc
00000030: 0bbc c7bc ca88 0cbd 9cb0 0ebc 1132 18bd
00000040: d1da 19bd 1761 1ebd 94a4 41bb 28ab 8bbc
00000050: 16ca a8bc 87d2 91bc 67d5 b9bc e480 0ebc
00000060: 5ee6 863c 54cc 14bd d9d8 dc39 387b 20bd
00000070: 6a3b 33bd ded3 cdbc e98a 2abc 6292 a0bc
00000080: 767c 4cbd 70c9 efbc aab4 babc b903 e3bc

encoder.0.1.running_mean f4 [36]
-0.790806 -0.6897021 -1.1332858 1.0809698 -0.9423646 0.6474738 -0.059692156 -0.20270672
-0.37086108 -0.5182347 -0.7092195 -1.1998283 1.3612899 0.65690714 -0.7754277 0.1409605
1.3714966 -0.730142 0.9277087 -1.0371351 -1.0326527 1.1199415 1.1073343 0.52830964
-0.8733225 -1.2462661 -1.2842144 -0.81227285 -1.2588493 -0.88226396 -1.5284896 -0.77199113
-0.48443282 0.81652695 -0.5188093 1.0468049
00000000: 4372 4abf 5190 30bf 820f 91bf 385d 8a3f
00000010: ce3e 71bf d8c0 253f c37f 74bd 5a92 4fbe
00000020: 81e1 bdbe 08ab 04bf 698f 35bf f993 99bf
00000030: bf3e ae3f 112b 283f 6e82 46bf f357 103e
00000040: 338d af3f 96ea 3abf 517e 6d3f d8c0 84bf
00000050: f72d 84bf 3e5a 8f3f 21bd 8d3f 4d3f 073f
00000060: 1092 5fbf a685 9fbf 2361 a4bf 1df1 4fbf
00000070: f921 a1bf 0ddc 61bf 8ca5 c3bf 36a1 45bf
00000080: 9407 f8be e907 513f b0d0 04bf b4fd 853f

encoder.0.1.running_var f4 [36]
0.0019327305 0.0034920126 0.0015318847 0.001972352 0.0024902057 0.0019412267 0.0011257032 0.0014941627
0.002043778 0.00218475 0.001592415 0.0026715484 0.0025715814 0.0026594778 0.001708672 0.0009431986
0.0022214798 0.0019921234 0.002560142 0.004315793 0.0030680865 0.002132008 0.0023983566 0.0026037062
0.0015883454 0.0041695936 0.002280624 0.0028371394 0.003303847 0.0027967405 0.0026234903 0.002575446
0.0032447388 0.0025306884 0.0015805484 0.0037981775
00000000: ad53 fd3a 40da 643b 85c9 c83a 9342 013b
00000010: b832 233b c270 fe3a 558c 933a c8d7 c33a
00000020: e8f0 053b 062e 0f3b 95b8 d03a 2515 2f3b
00000030: fa87 283b a24a 2e3b 85f5 df3a fd40 773a
00000040: 3f96 113b 498e 023b 0ec8 273b 7f6b 8d3b
00000050: f311 493b 29b9 0b3b bf2d 1d3b f1a2 2a3b
00000060: 0730 d03a 16a1 883b 8576 153b 4def 393b
00000070: 5b85 583b 8549 373b ddee 2b3b d0c8 283b
00000080: afa5 543b e8d9 253b 672a cf3a d8ea 783b

encoder.1.0.weight f4 [36, 36, 7]
-0.028647643 -0.06055068 -0.03811915 -0.069955684 0.0015627955 -0.024096863 -0.02953744 -0.018790182
0.03449087 0.06092973 0.0032622938 0.056980856 0.019463353 -0.010097141 -0.067715295 -0.01776573
0.018930314 0.02122073 0.07572361 -0.03755432 -0.04206955 -0.14348242 -0.03053498 -0.04399582
-0.09040909 -0.065657295 -0.034185577 -0.061100025 -0.077005714 -0.028777668 0.01573343 0.012734711
-0.041399036 -0.07000379 0.025102649 -0.04930463 -0.035815224 -0.051329855 0.0038790416 -0.039336096
-0.039862465 -0.018150408 -0.14939325 -0.17896831 -0.108670674 -0.07984721 0.09033509 0.031146584
0.11290318 -0.012118194 -0.04956625 -0.045080665 -0.04221491 0.14501677 0.006054379 0.055748034
0.07736112 0.04317862 -0.01305388 -0.031004392 0.069560446 0.080387205 0.11360406 0.072823614
0.05251352 0.11952258 0.06865383 0.100808635 0.042556982 0.07274353 -0.036366496 0.030371172
0.071547434 0.027825383 0.029046545 -0.039195806 0.035211485 0.03584386 0.05672514 0.092058055
-0.005458834 0.11187403 -0.09492586 -0.07366651 -0.026210694 0.03430247 -0.04660466 0.020025792
-0.021600634 0.11451251 0.079193614 0.15376252 0.14379273 0.117290325 0.057676498 0.049036704
-0.039798748 0.02838247 0.049976368 0.018105296 0.08934586 -0.061307985 0.008154916 0.012919416
0.06609938 0.031028206 0.01093931 0.017686564 0.059158005 0.047799528 0.119278245 0.014212871
0.018469507 0.048138082 0.045275137 0.05626264 0.010080368 -0.0057500205 -0.069813415 0.009077893
-0.030473435 0.0032190573 0.04511411 -0.0061106835 -0.011054465 0.0117961615 -0.019003317 -0.020419061
0.0608861 0.03602017 0.022747446 0.04729293 0.012581721 0.050852567 0.069266826 0.02412937
-0.03635134 0.015872441 0.09193159 0.093986794 -0.08759335 -0.03504062 -0.08450342 -0.10765635
-0.10809451 0.032930173 0.058928635 0.030548481 -0.017629253 -0.0581694 -0.04086023 -0.08256031
0.047486614 0.045802996 0.033667546 -0.008715112 0.03589107 -0.041789766 -0.0048230775 0.067303106
0.041543555 0.0060116784 0.057000034 0.015099557 0.0017398496 -0.0033758662 0.058107153 0.042400032
-0.01347049 0.015622516 -0.02340116 -0.00676393 0.012408574 -0.06249265 -0.0060279355 -0.00019472452
0.044052996 0.0025667888 0.081703074 0.06385303 0.101835854 0.048077438 -0.084773295 -0.08560282
-0.082305856 -0.072035074 0.021024695 0.032824285 0.039415278 0.014817179 0.06276535 0.04107201
-0.03513417 0.030595727 0.08154746 0.037050866 0.07840533 0.107457764 0.07495477 0.037210856
0.054162055 0.06036016 0.06603298 0.08121183 0.089538015 0.01700203 0.06781303 0.0030283853
-0.12951915 -0.0808247 -0.032351684 0.063683406 0.031336345 0.00247694 0.0695317 -0.099947505
-0.014027125 0.11522193 0.019979307 0.0968563 0.061206464 -0.019474413 0.012448004 0.0023215471
0.028249253 0.14110962 0.020425461 0.059055865 0.052258726 0.072353095 0.1006963 -0.017169293
0.009205657 0.014765299 -0.016723845 0.013159276 0.02026722 0.086088955 -0.0563569 -0.069139205
0.050816324 0.032232482 0.15350053 -0.09886818 0.07334969 -0.029485594 -0.00035402965 0.05256112
0.019612933 -0.007670664 0.08872024 0.087107085 -0.0022374536 0.06881855 -0.033778317 -0.028322885
00000000: 76ae eabc fd03 78bd d322 1cbd ed44 8fbd
00000010: b7d6 cc3a c966 c5bc 80f8 f1bc deed 99bc
00000020: 4c46 0d3d 7491 793d 35cc 553b c264 693d
00000030: 9c71 9f3c 7b6e 25bc 51ae 8abd 7089 91bc
00000040: bf13 9b3c 19d7 ad3c fb14 9b3d 8fd2 19bd
00000050: 1f51 2cbd 0eed 12be 7f24 fabc f634 34bd
00000060: 6728 b9bd 5577 86bd 2d06 0cbd 0544 7abd
00000070: 2cb5 9dbd 25bf ebbc 65e3 803c 40a5 503c
00000080: 0992 29bd 265e 8fbd 12a4 cd3c a7f3 49bd
00000090: fcb2 12bd 413f 52bd 8537 7e3b e31e 21bd
000000a0: d346 23bd 2ab0 94bc 8bfa 18be 7843 37be
000000b0: bb8e debd ef86 a3bd 9b01 b93d 1f27 ff3c
000000c0: c839 e73d 648b 46bc fb05 4bbd 81a6 38bd
000000d0: 8be9 2cbd 477f 143e d063 c63b 0d58 643d
000000e0: 826f 9e3d 11dc 303d f1df 55bc ecfc fdbc
000000f0: b575 8e3d 0ca2 a43d 3fa9 e83d 8c24 953d
00000100: 6b18 573d 41c8 f43d 619a 8c3d c274 ce3d
00000110: 3b50 2e3d 8ffa 943d 09f5 14bd f7cc f83c
00000120: 7687 923d 0ff2 e33c 05f3 ed3c c88b 20bd
00000130: eb39 103d 03d1 123d 9f58 683d ef88 bc3d
00000140: 05e0 b2bb 361e e53d 7d68 c2bd 78de 96bd
00000150: cfb7 d6bc bf80 0c3d 87e4 3ebd 210d a43c
00000160: d0f3 b0bc 8985 ea3d 4330 a23d ec73 1d3e
00000170: 673e 133e e935 f03d 313e 6c3d b6da 483d
00000180: 0304 23bd 5b82 e83c 05b4 4c3d 8f51 943c
00000190: f6fa b63d 151e 7bbd 329c 053c f5ab 533c
000001a0: 1d5f 873d dd2e fe3c cb3a 333c 6ae3 903c
000001b0: aa4f 723d 70c9 433d 2748 f43d 1add 683c
000001c0: 5d4d 973c 702c 453d 6c72 393d a773 663d
000001d0: 2128 253c ab6a bcbb 56fa 8ebd 71bb 143c
000001e0: 6da3 f9bc d2f6 523b 93c9 383d 213c c8bb
000001f0: c91d 35bc b044 413c d8ac 9bbc e045 a7bc
00000200: b463 793d e389 133d da58 ba3c 3bb6 413d
00000210: 9023 4e3c c84a 503d c4db 8d3d f5aa c53c
00000220: 25e5 14bd ec06 823c a146 bc3d 267c c03d
00000230: 2464 b3bd c186 0fbd 2110 adbd ef7a dcbd
00000240: a860 ddbd cae1 063d 275f 713d cf40 fa3c
00000250: 396b 90bc 0943 6ebd 0e5d 27bd 6115 a9bd
00000260: 5381 423d ec9b 3b3d fbe6 093d d4c9 0ebc
00000270: 8402 133d bf2b 2bbd e80a 9ebb 36d6 893d
00000280: 9329 2a3d 9dfd c43b de78 693d 2264 773c
00000290: aa0b e43a a33d 5dbb c401 6e3d a8ab 2d3d
000002a0: 55b3 5cbc 95f5 7f3c cab3 bfbc f5a3 ddbb
000002b0: 554d 4b3c 4bf8 7fbd fd85 c5bb f72e 4cb9
000002c0: ea70 343d 9237 283b f153 a73d 61c5 823d
000002d0: 518f d03d d9ec 443d 9f9d adbd 8850 afbd
000002e0: f98f a8bd 2087 93bd fb3b ac3c c272 063d
000002f0: ea71 213d c1c3 723c 1f8b 803d 203b 283d
00000300: d9e8 0fbd e4a3 fa3c 5b02 a73d a6c2 173d
00000310: f992 a03d d112 dc3d e381 993d 696a 183d
00000320: 08d9 5d3d 373c 773d 4d3c 873d 6352 a63d
00000330: b55f b73d d747 8b3c 8fe1 8a3d e077 463b
00000340: aba0 04be 6c87 a5bd 3383 04bd 726c 823d
00000350: 8a5a 003d 2854 223b a366 8e3d 47b1 ccbd
00000360: 07d2 65bc 7af9 eb3d a5ab a33c 995c c63d
00000370: a1b3 7a3d ce88 9fbc b7f2 4b3c 1925 183b
00000380: fa6a e73c 0a7f 103e 4c53 a73c 90e4 713d
00000390: 3f0d 563d dc2d 943d dd39 ce3d 9ea6 8cbc
000003a0: 53d3 163c 27ea 713c 7200 89bc 019a 573c
000003b0: 7107 a63c 684f b03d 7ed6 66bd db98 8dbd
000003c0: c724 503d 3506 043d 3e2f 1d3e 667b cabd
000003d0: 5d38 963d c68b f1bc 0e9d b9b9 544a 573d
000003e0: 4dab a03c 325a fbbb f5b2 b53d 3365 b23d
000003f0: 3ea2 12bb bdf0 8c3d 225b 0abd 6505 e8bc

encoder.1.0.bias f4 [36]
-0.06585678 0.052292816 -0.01590726 -0.028936094 0.03273269 -0.017688606 -0.01499293 -0.06550054
0.02835189 -0.003585724 0.013254939 -0.048910104 -0.019536173 -0.028188528 -0.044680748 0.013676086
-0.045077495 0.0637759 -0.038785215 -0.046652947 -0.06797923 0.007316721 0.031096224 -0.0245041
0.0058216034 -0.017023541 0.036939964 -0.08234281 -0.0066151856 0.045100685 0.00414784 0.04134418
-0.047885526 -0.055005673 -0.06243203 -0.000413307
00000000: ebdf 86bd fe30 563d f14f 82bc 630b edbc
00000010: b712 063d b2e7 90bc e8a4 75bc 2625 86bd
00000020: 3942 e83c 77fe 6abb 3e2b 593c f655 48bd
00000030: 530a a0bc a1eb e6bc 2903 37bd aa11 603c
00000040: 2ea3 38bd f09c 823d 3fdd 1ebd 2917 3fbd
00000050: b238 8bbd 1bc1 ef3b 82bd fe3c d3bc c8bc
00000060: 26c3 be3b f474 8bbc 5c4e 173d 59a3 a8bd
00000070: 33c4 d8bb 7fbb 383d 9bea 873b 8458 293d
00000080: 9d23 44bd a14d 61bd bab8 7fbd 20b1 d8b9

encoder.1.1.weight f4 [36]
1.1976677 0.9489755 0.95562965 0.906598 1.1221951 0.9674479 0.7826694 1.0809602
1.0453935 1.0912501 0.934333 0.9348289 0.9514873 0.96878517 1.0596007 0.75054073
0.94072646 1.0307871 1.057428 0.9478515 0.83087885 0.8119623 1.1685635 1.0487682
0.94388026 1.0448068 0.94511247 1.0171108 0.9024713 0.84665936 0.98658425 0.990203
0.94898385 0.9175372 0.837119 0.92788386
00000000: 2d4d 993f 0ff0 723f 25a4 743f ce16 683f
00000010: 17a4 8f3f aaaa 773f 065d 483f e75c 8a3f
00000020: 74cf 853f 15ae 8b3f 7330 6f3f f250 6f3f
00000030: ac94 733f 4e02 783f ffa0 873f 7023 403f
00000040: 73d3 703f d5f0 833f cd59 873f 65a6 723f
00000050: 7ab4 543f c3dc 4f3f 7d93 953f 093e 863f
00000060: 23a2 713f 3bbc 853f e4f2 713f b030 823f
00000070: 5c08 673f abbe 583f c990 7c3f f27d 7d3f
00000080: 9bf0 723f b8e3 6a3f 6e4d 563f cc89 6d3f

encoder.1.1.bias f4 [36]
-0.048671354 -0.027766082 -0.004868333 -0.00040729545 -0.052160736 -0.059557337 -0.052206427 -0.09149715
-0.045304246 -0.062806495 -0.00413665 -0.028584002 -0.035573196 -0.022937901 -0.053820167 -0.0032712733
-0.056236792 0.033533305 -0.040440157 -0.03671876 -0.03531558 -0.035064444 -0.033939436 -0.02105483
-0.040905118 -0.043965288 -0.043655917 -0.042824652 -0.0009447445 -0.021724414 -0.038802683 -0.052272294
-0.011392612 -0.03163441 -0.035238344 0.012809902
00000000: 9d5b 47bd b275 e3bc 8a86 9fbb 458a d5b9
00000010: 7fa6 55bd 65f2 73bd 68d6 55bd dc62 bbbd
00000020: f290 39bd b1a0 80bd bc8c 87bb ff28 eabc
00000030: 33b5 11bd 44e8 bbbc 8972 5cbd dc62 56bb
00000040: 8d58 66bd 385a 093d 94a4 25bd 6966 16bd
00000050: 12a7 10bd bc9f 0fbd 1404 0bbd 2e7b acbc
00000060: 208c 27bd f214 34bd 8cd0 32bd e768 2fbd
00000070: bba8 77ba 66f7 b1bc 90ef 1ebd 791b 56bd
00000080: 14a8 3abc 1593 01bd 1556 10bd a0e0 513c

encoder.1.1.running_mean f4 [36]
-0.024533117 -0.0057070144 -0.014961737 -0.0753747 0.039197616 -0.0046953494 0.004108748 0.044167724
0.075818196 -0.020339435 0.025259433 -0.10633361 -0.0037668734 -0.018511517 0.01976852 -0.04720711
0.017714072 -0.041850068 -0.06578229 -0.06134641 -0.06943277 0.008663724 0.036063485 0.007614384
0.05513503 0.027012782 0.10815611 -0.056019913 -0.026308427 -0.012142861 0.060180377 0.052726783
-0.1160489 0.035848554 -0.05480625 -0.14585036
00000000: adf9 c8bc e801 bbbb 1322 75bc 0d5e 9abd
00000010: ae8d 203d 72db 99bb ada2 863b 37e9 343d
00000020: 9246 9b3d e39e a6bc dfec ce3c 70c5 d9bd
00000030: a6dd 76bb 77a5 97bc 97f1 a13c 3e5c 41bd
00000040: 1a1d 913c fa6a 2bbd deb8 86bd 6046 7bbd
00000050: c532 8ebd 4bf2 0d3c 4eb7 133d 1582 f93b
00000060: 45d5 613d e949 dd3c f380 dd3d 2375 65bd
00000070: c584 d7bc daf2 46bc b37f 763d 0af8 573d
00000080: 0cab edbd efd5 123d 857c 60bd cc59 15be

encoder.1.1.running_var f4 [36]
0.6758354 0.6712549 0.93821055 0.31415707 0.8289415 0.5686632 0.7509059 0.9814103
1.0184052 0.5241582 0.7442029 0.63040155 0.7074653 0.98152095 0.57743603 0.1991854
1.1915519 0.56821805 0.34773907 0.78220314 0.6323186 1.0505602 0.7799666 0.75110376
0.9513744 0.8125016 0.66933995 0.8496522 0.81235164 0.7015575 1.0435296 0.8849622
0.8819568 0.89985836 1.131679 0.9581277
00000000: 8c03 2d3f 5cd7 2b3f 912e 703f 32d9 a03e
00000010: 8335 543f e993 113f 5e3b 403f b53d 7b3f
00000020: 1a5b 823f 3b2f 063f 1584 3e3f ff61 213f
00000030: 721c 353f f544 7b3f d9d2 133f 42f7 4b3e
00000040: c684 983f bd76 113f db0a b23e 773e 483f
00000050: a2df 213f c278 863f e4ab 473f 5648 403f
00000060: 468d 733f 1b00 503f dd59 2b3f ce82 593f
00000070: 47f6 4f3f 4699 333f 6192 853f e28c 623f
00000080: ecc7 613f 1e5d 663f dcda 903f db47 753f

encoder.2.0.weight f4 [36, 36, 7]
-0.029179532 -0.033282116 0.023404574 0.021769632 -0.013545586 0.008940899 -0.080622286 -0.015532241
0.016281888 0.0019982653 -0.0038736025 0.038900774 0.013229052 -0.013753251 0.020978142 0.03271538
-0.027570836 -0.032416668 0.019019164 -0.047707506 -0.019843528 -0.022334408 0.093890585 0.10826446
7.987622e-05 -0.102766715 0.10049867 0.0024405913 -0.020804001 -0.0020832655 0.04266805 0.015142499
-0.032130726 -0.03234761 -0.015002802 0.06358983 -0.0044375854 -0.027115172 -0.02040128 -0.025534865
0.009349104 0.065207906 0.090288185 0.06807246 0.02575004 -0.021944135 -0.052736968 0.012454902
-0.02582212 -0.0076167975 0.023139983 -0.03175493 -0.031199839 -0.041132968 0.004874737 0.068798035
-0.0378433 0.069633216 0.039384264 -0.009895764 0.04992737 0.07657348 -0.028512018 -0.015327531
-0.0039066905 0.028470231 0.030642955 0.01137023 0.008777291 -0.037252475 -0.039912004 0.0006133403
-0.01611944 -0.0029743107 -0.03777948 -0.014726944 0.052984104 -0.003112743 -0.037383858 -0.00095486577
-0.025806025 0.0049136016 0.018895982 0.019239254 0.024828399 0.008047252 -0.013695364 -0.03159733
0.01508686 -0.0023201683 0.027539615 0.058560364 -0.029332682 0.016621456 0.00918224 0.020668818
0.0073211347 0.10825131 -0.04483263 0.031005615 0.05269428 -0.045330934 0.03518862 -0.020064969
0.025101343 -0.041439854 0.026739957 -0.026949733 0.04105766 -0.010664546 0.01948968 -0.0055968985
0.054879375 -0.097745456 -0.044559497 -0.037618387 0.012675361 0.036093086 0.08954938 -0.02474583
0.02662637 0.024140688 0.002372178 0.07095827 -0.0021931909 -0.055800404 0.019439941 0.06837388
0.050047897 0.030809512 -0.033348057 -0.049501322 -0.033378534 -0.044835698 -0.003880922 0.092220925
0.04538389 0.07861465 0.15303203 0.010249893 -0.009506806 0.08217221 0.04757367 -0.0072400733
0.0024621235 -0.033181738 -0.040992968 0.04497054 0.060693517 -0.011278515 -0.041528236 -0.039056852
0.030214788 0.054869216 0.033042032 0.0057965876 -0.038808517 0.024326568 -0.010132396 -0.019474743
0.092482105 0.07799443 -0.06086832 -0.03006313 0.06404811 -0.007128139 -0.056166995 0.012237237
0.032940898 -0.025642721 -0.066886574 -0.052744348 -0.01278582 0.051745415 0.01985894 -0.0218898
0.013948794 -0.045330577 -0.01424719 0.05082728 0.04896477 0.10179079 -0.03395294 -0.012463618
0.009334592 0.007355615 -0.06789339 0.04433576 0.038507823 0.0025162785 -0.023708342 0.03526239
-0.015688157 -0.023087792 0.006013267 -0.042347964 0.061622586 -0.00794532 0.0160975 -0.0095885405
-0.031391233 0.0032717786 0.037671782 0.100269586 0.10609783 0.098941095 0.089160666 0.023851307
0.003292423 0.04493299 0.02220477 0.027125794 -0.0049146507 -0.021410238 -0.030917143 -0.020017434
-0.02830942 0.0040437775 -0.06334813 -0.022162179 -0.07066577 -0.017174803 0.01678104 0.011986513
-0.027127255 -0.022158831 -0.0143178385 -0.0406741 -0.038133193 0.033978272 0.07756479 0.0007253439
-0.06105851 -0.061751865 -0.077349514 0.026133664 0.04528058 0.016332796 -0.06983062 -0.013993447
0.01921535 0.055476367 -0.06677291 -0.05832508 0.004210225 -0.0139107425 0.09456416 0.031509604
-0.010980392 0.014181301 -0.039805904 -0.0048942044 -0.080038786 0.0027059678 0.025887597 -0.01746728
00000000: ea09 efbc d452 08bd f3ba bf3c 3a56 b23c
00000010: 4eee 5dbc d97c 123c 4c1d a5bd f17a 7ebc
00000020: 9861 853c 54f5 023b 44dc 7dbb 6b56 1f3d
00000030: aabe 583c 5155 61bc 5ada ab3c 9000 063d
00000040: 3cdc e1bc 57c7 04bd 14ce 9b3c f268 43bd
00000050: e58e a2bc a6f6 b6bc b549 c03d c2b9 dd3d
00000060: 3883 a738 5b77 d2bd 3fd2 cd3d 54f2 1f3b
00000070: 276d aabc 6587 08bb b1c4 2e3d 3e18 783c
00000080: 829b 03bd ed7e 04bd 50ce 75bc 633b 823d
00000090: 2a69 91bb a320 debc 9620 a7bc 7e2e d1bc
000000a0: fc2c 193c b98b 853d 03e9 b83d 9369 8b3d
000000b0: bff1 d23c 30c4 b3bc b802 58bd a50f 4c3c
000000c0: e988 d3bc 5496 f9bb 1090 bd3c 7511 02bd
000000d0: ce96 ffbc 0b7b 28bd 42bc 9f3b fce5 8c3d
000000e0: 9301 1bbd dc9b 8e3d 6551 213d d821 22bc
000000f0: a480 4c3d 8fd2 9c3d 0992 e9bc 5320 7bbc
00000100: b203 80bb 673a e93c ef06 fb3c 334a 3a3c
00000110: a0ce 0f3c 0d96 18bd c57a 23bd 92c8 203a
00000120: ea0c 84bc a7ec 42bb a8be 1abd 4849 71bc
00000130: dc05 593d 29ff 4bbb d11f 19bd f54f 7aba
00000140: 2867 d3bc 4702 a13b bfcb 9a3c a49b 9d3c
00000150: ed64 cb3c 9fd8 033c 8562 60bc 346c 01bd
00000160: e12e 773c f70d 18bb c29a e13c fedc 6f3d
00000170: 184b f0bc b829 883c 1b71 163c a751 a93c
00000180: 21e6 ef3b ddb2 dd3d 6ba2 37bd 7dff fd3c
00000190: f5d5 573d eeac 39bd f121 103d 4a5f a4bc
000001a0: 55a1 cd3c d6bc 29bd c10d db3c b0c5 dcbc
000001b0: 142c 283d 59ba 2ebc d2a8 9f3c 3066 b7bb
000001c0: 32c9 603d c52e c8bd 0584 36bd bd15 1abd
000001d0: 51ac 4f3c 58d6 133d aa65 b73d c4b7 cabc
000001e0: 8c1f da3c b1c2 c53c 8b76 1b3b 9252 913d
000001f0: a3bb 0fbb f78e 64bd 8340 9f3c 9b07 8c3d
00000200: 06ff 4c3d 3b64 fc3c f997 08bd e6c1 4abd
00000210: eeb7 08bd a3a5 37bd 1157 7ebb 53de bc3d
00000220: 75e4 393d b800 a13d 6eb4 1c3e 2bef 273c
00000230: 6fc2 1bbc e749 a83d 9cdc 423d 233e edbb
00000240: 945b 213b 93e9 07bd 3ee8 27bd 0733 383d
00000250: c499 783d 85c9 38bc 8319 2abd 14fa 1fbd
00000260: 0185 f73c 8bbe 603d 1557 073d 4df1 bd3b
00000270: aef5 1ebd 8348 c73c 5902 26bc 7f89 9fbc
00000280: 4267 bd3d 8bbb 9f3d 0f51 79bd f446 f6bc
00000290: a82b 833d 2a93 e9bb 5d0f 66bd b17e 483c
000002a0: 09ed 063d af10 d2bc d4fb 88bd 750a 58bd
000002b0: 9e7b 51bc 00f3 533d 37af a23c 3d52 b3bc
000002c0: 7c89 643c 8eac 39bd 0c6d 69bc 4430 503d
000002d0: 488f 483d b177 d03d 3d12 0bbd 3434 4cbc
000002e0: 1ef0 183c 5f07 f13b b10b 8bbd 6a99 353d
000002f0: 61ba 1d3d 26e8 243b ff37 c2bc 4c6f 103d
00000300: 7384 80bc 9c22 bdbc f10a c53b 0f75 2dbd
00000310: f767 7c3d 162d 02bc e8de 833c 4119 1dbc
00000320: 1894 00bd 566b 563b ba4d 1a3d 245a cd3d
00000330: d249 d93d a1a1 ca3d de99 b63d d163 c33c
00000340: b1c5 573b a80b 383d c7e6 b53c ea36 de3c
00000350: 140b a1bb 8664 afbc f345 fdbc 9afb a3bc
00000360: 28e9 e7bc aa81 843b aabc 81bd 758d b5bc
00000370: 37b9 90bd 2cb2 8cbc 6478 893c 1463 443c
00000380: fa39 debc 7086 b5bc 5e95 6abc e399 26bd
00000390: 8d31 1cbd cd2c 0b3d 4ada 9e3d 0125 3e3a
000003a0: 7d18 7abd 86ef 7cbd 6c69 9ebd 4416 d63c
000003b0: 2178 393d 5bcc 853c 5b03 8fbd c544 65bc
000003c0: 8269 9d3c 303b 633d 3cc0 88bd 47e6 6ebd
000003d0: edf5 893b e2e9 63bc dbaa c13d 3710 013d
000003e0: 1ae7 33bc b058 683c 840b 23bd 905f a0bb
000003f0: 60eb a3bd 9b56 313b 3a12 d43c 8b17 8fbc

encoder.2.0.bias f4 [36]
-0.017279804 -0.0010995378 -0.0220636 0.044931002 0.02051774 -0.06552508 0.027197132 -0.02585313
0.021731574 -0.009208734 -0.000850856 -0.061654255 0.030226737 0.0006873155 -0.026013719 -0.013002314
-0.0032350821 -0.029932292 0.0026009935 -0.042569492 -0.074597016 -0.0416644 -0.0053757094 -0.013153168
-0.04336575 -0.040618934 0.03353774 0.02330729 -0.032668937 -0.05522471 -0.04127905 0.032269653
-0.06456781 -0.009825213 -0.020159239 0.026474942
00000000: 608e 8dbc 5e1e 90ba b9be b4bc 9209 383d
00000010: d214 a83c 0332 86bd 85cc de3c f1c9 d3bc
00000020: 6a06 b23c 3be0 16bc fb0b 5fba 2c89 7cbd
00000030: 109e f73c f62c 343a b91a d5bc a807 55bc
00000040: ac03 54bb 9134 f5bc 6e75 2a3b 595d 2ebd
00000050: 52c6 98bd 4aa8 2abd b826 b0bb 6380 57bc
00000060: 49a0 31bd 0a60 26bd df5e 093d eeee be3c
00000070: ddcf 05bd 4e33 62bd 3914 29bd 2f2d 043d
00000080: 213c 84bd eef9 20bc fd24 a5bc fae1 d83c

encoder.2.1.weight f4 [36]
0.71938306 0.94103384 0.9400409 0.77963865 1.0097079 0.982779 0.90934974 0.92711574
1.031189 0.9954074 0.8570036 0.91320854 0.9184155 0.8530163 0.85572517 0.8798042
0.88196576 0.80070204 0.78136826 0.80717 0.87359154 0.8319037 0.8149351 0.70221823
0.89260364 1.035753 0.8706123 0.91425705 0.8770614 1.0180775 0.7483664 0.76440775
0.71308327 0.87618685 0.919658 0.9220844
00000000: 7d29 383f 98e7 703f 85a6 703f 6696 473f
00000010: 1c3e 813f 6897 7b3f 25cb 683f 7557 6d3f
00000020: 00fe 833f 05d3 7e3f 9764 5b3f 09c8 693f
00000030: 471d 6b3f 475f 5a3f ce10 5b3f d93a 613f
00000040: 82c8 613f cffa 4c3f c007 483f b1a2 4e3f
00000050: b2a3 5f3f a4f7 543f 969f 503f 93c4 333f
00000060: ac81 643f 8e93 843f 73e0 5e3f c00c 6a3f
00000070: 1987 603f 5d50 823f f194 3f3f 3ab0 433f
00000080: a08c 363f c84d 603f b56e 6b3f b90d 6c3f

encoder.2.1.bias f4 [36]
-0.008707069 -0.001702847 -0.04879779 -0.03555873 -0.06747604 -0.05032339 -0.027267527 0.008342414
-0.014465281 -0.08544788 -0.043255873 -0.03960865 -0.046638202 -0.046896163 -0.058562238 -0.030357994
-0.034480102 -0.06081768 -0.028064318 -0.031501647 -0.053660262 -0.031550318 -0.06130525 -0.038821142
-0.007363085 -0.07956245 -0.024475263 -0.035469342 -0.024814043 -0.045812357 -0.011311 -0.042310916
-0.027835323 -0.05222697 -0.024811696 -0.048176657
00000000: 18a8 0ebc 1032 dfba 31e0 47bd 08a6 11bd
00000010: e130 8abd e61f 4ebd 2660 dfbc 9fae 083c
00000020: c9ff 6cbc 4cff aebd 122d 31bd ae3c 22bd
00000030: b307 3fbd 3116 40bd f5de 6fbd 54b1 f8bc
00000040: 023b 0dbd f61b 79bd 24e7 e5bc df07 01bd
00000050: ddca 5bbd e83a 01bd 371b 7bbd eb02 1fbd
00000060: 0946 f1bb a3f1 a2bd 5980 c8bc 4d48 11bd
00000070: d246 cbbc bda5 3bbd c651 39bc 364e 2dbd
00000080: e706 e4bc f3eb 55bd e641 cbbc e354 45bd

encoder.2.1.running_mean f4 [36]
-0.0063089477 -0.12771674 0.08635025 0.0621134 0.09062578 0.09382964 0.026801951 -0.1238533
0.0057757776 0.04816758 0.08121508 -0.032781333 -0.010858499 -0.07243404 0.028092422 -0.027477035
-0.031225203 0.074935056 0.07414008 0.06359437 -0.040720496 -0.029048577 -0.0107882805 -0.0030766202
-0.09886365 0.037109964 0.048159763 0.019848457 0.009022789 -0.023307312 -0.08505974 0.13697843
-0.12296261 -0.0064675068 -0.06751604 -0.035292756
00000000: 4abb cebb 2dc8 02be 66d8 b03d 9f6a 7e3d
00000010: 029a b93d c129 c03d c48f db3c cda6 fdbd
00000020: bc42 bd3b 5e4b 453d 1854 a63d b845 06bd
00000030: d9e7 31bc 4c58 94bd 1422 e63c 8517 e1bc
00000040: ffcb ffbc 8d77 993d c1d6 973d c43d 823d
00000050: 89ca 26bd 48f7 edbc 54c1 30bc 1fa1 49bb
00000060: 0679 cabd 9e00 183d 2c43 453d 3b99 a23c
00000070: 52d4 133c faee bebc cd33 aebd 1344 0c3e
00000080: d2d3 fbbd 61ed d3bb d945 8abd 238f 10bd

encoder.2.1.running_var f4 [36]
1.1931295 1.8199672 1.5717134 1.2880236 1.1090684 1.6539193 1.347836 1.1469014
1.0340505 1.2877897 1.4178368 2.1640632 1.1628273 0.96675754 1.3776565 1.1678476
1.1464015 0.92836463 1.4984659 0.88505787 1.1849642 1.4859747 1.6097926 1.5018009
1.3148959 1.1843649 1.1551257 1.0487034 1.4033825 1.5696188 1.7237924 0.8849208
1.3797833 1.3958441 1.1288539 1.1486131
00000000: 78b8 983f aff4 e83f e82d c93f f5dd a43f
00000010: f4f5 8d3f a1b3 d33f e485 ac3f aacd 923f
00000020: c45b 843f 4bd6 a43f ad7b b53f 0380 0a40
00000030: 86d7 943f 6c7d 773f 0c57 b03f 087c 953f
00000040: 49bd 923f 4ea9 6d3f bbcd bf3f 2793 623f
00000050: e8ac 973f 6b34 be3f af0d ce3f 033b c03f
00000060: 824e a83f 4599 973f 29db 933f ea3b 863f
00000070: 0aa2 b33f 45e9 c83f 3ba5 dc3f 2b8a 623f
00000080: bd9c b03f 05ab b23f 497e 903f c105 933f

encoder.3.0.weight f4 [36, 36, 7]
0.011830224 -0.0074672466 0.01318417 0.0758222 -0.050812844 0.011581186 -0.034498464 0.022124832
-0.025870986 -0.070186034 0.0027996248 -0.021479733 -0.02737434 0.0024439357 0.008315916 0.038346093
0.07411234 -0.04499028 0.05103861 0.037784703 0.05619637 0.036779203 -0.012242551 -0.05625248
-0.02420228 0.021876901 -0.0378618 0.014275854 0.022762286 -0.042751953 0.053969335 -0.026954742
0.06984692 -0.013659214 -0.006728496 0.061000373 0.035171393 0.002202432 -0.051621072 -0.03481598
-0.03360022 0.020035911 -0.008507184 0.021355258 -0.004127593 0.059850894 0.022278247 -0.10294143
-0.06141488 0.021167444 0.06894507 0.05093852 -0.016071998 0.03071259 0.016750138 0.047450442
-0.015288375 0.0066257706 0.010791707 0.04836173 -0.025700001 -0.021058118 -0.025603317 0.029731184
0.039989747 -0.021277064 -0.0020815074 0.011865297 0.03847221 0.033814505 -0.031693336 0.058523633
-0.038953822 0.057916578 -0.048432574 0.030361122 0.014634955 -0.0066379257 -0.039208647 -0.010843767
0.01666868 -0.030428123 0.024624811 0.037602518 0.009016563 0.0048747687 0.04750133 -0.033968527
-0.059337948 0.034315076 0.07382356 0.019581191 -0.04762626 -0.022141293 -0.05199418 -0.045396194
-0.021765916 -0.020735636 0.0127366455 0.02770888 0.070181526 -0.12072474 0.08234399 -0.057754908
0.039644513 0.053885374 -0.00012158688 0.057376314 0.012278129 -0.04194176 0.05247429 0.03428143
0.026515845 -0.0022221445 0.069948025 0.120067164 -0.073742226 -0.027329536 0.021653807 0.01937729
0.01794718 -0.030323407 0.032448694 0.037892714 -0.06518179 0.02400241 -0.06401183 0.035620995
0.0015032222 -0.0042577195 0.07095404 0.04975079 0.011183353 -0.012316704 0.027123697 -0.028691672
-0.14894459 -0.0028187062 -0.015131035 0.027294239 0.058054794 0.054185797 -0.01220628 -0.024505492
-0.045937765 0.039769802 -0.010054098 -0.020622613 0.014661814 0.041409347 -0.04834424 -0.07664061
-0.07744772 -0.06547531 -0.04069926 0.034970514 0.011580081 0.00044033202 -0.033562154 0.011167765
-0.05772658 -0.008240139 -0.01680353 0.0054088742 -0.012737451 0.0063622436 -0.0042274958 -0.06698644
-0.051735226 -0.0051072487 0.005518649 0.0038644506 0.026090087 0.0039178478 -0.00720522 0.07230343
0.0675645 0.037013706 0.037577447 0.005800692 0.014143595 0.008156816 0.03684145 0.05765836
-0.00071020087 -0.004662735 0.03624182 0.06529749 -0.033468004 0.00864298 0.021339972 0.05873843
0.039668314 0.008327437 -0.018466879 -0.0015133547 0.045056224 0.03189768 -0.085036665 0.064530745
-0.08043188 0.0660583 0.036693074 0.038941246 -0.053568557 0.061633326 0.03724421 -0.042651046
-0.043834854 -0.037053935 -0.003377428 0.014910412 0.0705724 -0.0091569 0.02125141 0.074533194
0.07101125 0.04177109 -0.023167755 0.016100746 0.042497005 -0.070525095 0.029396232 0.016110698
-0.044785902 0.0054513165 -0.039960127 0.061362457 0.098094426 0.01086177 -0.05362975 -0.001966923
0.013273727 0.019550923 0.004084042 -0.07201241 0.02126683 0.07885375 0.058097634 0.021445744
-0.0045626843 -0.042880073 -0.0035776421 -0.05311704 -0.034499414 0.012680208 -0.021743078 -0.00835756
-0.011730738 -0.012731672 0.08744069 0.020330988 0.03594242 -0.0412679 -0.010778703 -0.024529299
00000000: 8ed3 413c ceaf f4bb 6b02 583c ab48 9b3d
00000010: 2121 50bd 04bf 3d3c 434e 0dbd 233f b53c
00000020: 64ef d3bc b2bd 8fbd e979 373b 44f6 afbc
00000030: 2740 e0bc 702a 203b 7b3f 083c cb10 1d3d
00000040: 36c8 973d ba47 38bd dd0d 513d 22c4 1a3d
00000050: 2a2e 663d caa5 163d fb94 48bc 0069 66bd
00000060: dc43 c6bc 3037 b33c fa14 1bbd 46e5 693c
00000070: f977 ba3c ac1c 2fbd f30e 5d3d 31d0 dcbc
00000080: e70b 8f3d e5ca 5fbc b77a dcbb 87db 793d
00000090: e10f 103d ad56 103b 9e70 53bd 339b 0ebd
000000a0: 62a0 09bd 5a22 a43c b761 0bbc 39f1 ae3c
000000b0: c240 87bb 3626 753d df80 b63c f5d2 d2bd
000000c0: 2b8e 7bbd 5967 ad3c 1333 8d3d e9a4 503d
000000d0: 6ca9 83bc f898 fb3c 9637 893c 655b 423d
000000e0: 187c 7abc fe1c d93b b3cf 303c f316 463d
000000f0: cf88 d2bc 1382 acbc 0cbe d1bc d08e f33c
00000100: 4acc 233d 3d4d aebc e669 08bb aa66 423c
00000110: 0995 1d3d 1481 0a3d dfd0 01bd 7ab6 6f3d
00000120: 0b8e 1fbd ef39 6d3d 3c61 46bd e3b7 f83c
00000130: 73c7 6f3c f582 d9bb 3f99 20bd 0eaa 31bc
00000140: c18c 883c 6644 f9bc f9b9 c93c 1905 1a3d
00000150: 35ba 133c 86bc 9f3b c190 423d 9522 0bbd
00000160: 590c 73bd f78d 0c3d ce30 973d bc68 a03c
00000170: c113 43bd a861 b5bc d9f7 54bd 5cf1 39bd
00000180: 6f4e b2bc c8dd a9bc 5dad 503c bcfd e23c
00000190: 55bb 8f3d 883e f7bd f7a3 a83d 6990 6cbd
000001a0: 4962 223d e9b6 5c3d 76fc feb8 6d03 6b3d
000001b0: 352a 493c 1fcb 2bbd 48ef 563d af6a 0c3d
000001c0: c237 d93c 66a1 11bb e940 8f3d c6e5 f53d
000001d0: 2a06 97bd 31e2 dfbc 5363 b13c 1fbd 9e3c
000001e0: f705 933c cb68 f8bc ece8 043d 6435 1b3d
000001f0: 087e 85bd b4a0 c43c a218 83bd 52e7 113d
00000200: c407 c53a 5784 8bbb 5a50 913d 7cc7 4b3d
00000210: 623a 373c 00cc 49bc 8432 de3c cc0a ebbc
00000220: ee84 18be 0bba 38bb 29e8 77bc 2b98 df3c
00000230: ddca 6d3d edf1 5d3d d9fc 47bc bebf c8bc
00000240: 3d29 3cbd a9e5 223d f2b9 24bc c1f0 a8bc
00000250: 1b38 703c d99c 293d 9c04 46bd c1f5 9cbd
00000260: e99c 9ebd eb17 86bd 44b4 26bd 3e3d 0f3d
00000270: 61ba 3d3c 5ddc e639 7878 09bd 00f9 363c
00000280: b572 6cbd a601 07bc 8ea7 89bc ed3c b13b
00000290: beb0 50bc 5e7a d03b ce86 8abb 3030 89bd
000002a0: 51e8 53bd b55a a7bb c8d5 b43b b942 7d3b
000002b0: e1ba d53c 4a61 803b c419 ecbb d213 943d
000002c0: 425f 8a3d af9b 173d cfea 193d bb13 be3b
000002d0: 89ba 673c 2aa4 053c 0fe7 163d 2c2b 6c3d
000002e0: c62c 3aba dbc9 98bb 4d72 143d b1ba 853d
000002f0: bf15 09bd 499b 0d3c 2ad1 ae3c b597 703d
00000300: 3e7b 223d cd6f 083c da47 97bc c25b c6ba
00000310: e08c 383d 24a7 023d b427 aebd b228 843d
00000320: 78b9 a4bd 9349 873d 7a4b 163d db80 1f3d
00000330: b46a 5bbd 3a73 7c3d 628d 183d ddb2 2ebd
00000340: 2d8c 33bd dec5 17bd d757 5dbb cd4a 743c
00000350: 4388 903d d306 16bc 7017 ae3c dca4 983d
00000360: 596e 913d 2a18 2b3d 4eca bdbc b6e5 833c
00000370: 5711 2e3d 766f 90bd 5ed0 f03c 95fa 833c
00000380: 6c71 37bd f5a0 b23b 3bad 23bd 3357 7b3d
00000390: bbe5 c83d 91f5 313c deaa 5bbd 7ee7 00bb
000003a0: 0c7a 593c 4229 a03c 6dd3 853b 3e7b 93bd
000003b0: c637 ae3c 137e a13d c9f7 6d3d fcae af3c
000003c0: 9282 95bb 04a3 2fbd e076 6abb 4191 59bd
000003d0: 424f 0dbd a6c0 4f3c 8a1e b2bc 26ee 08bc
000003e0: 4832 40bc 8198 50bc 1b14 b33d 2c8d a63c
000003f0: 5c38 133d 8808 29bd 2899 30bc abf1 c8bc

encoder.3.0.bias f4 [36]
-0.02872224 0.0014898473 -0.06354975 0.011604269 0.0676086 -0.070271924 -0.007140799 -0.023508884
-0.061611585 -0.0048810057 -0.041442256 -0.004638632 0.048064455 0.029201588 -0.010116137 0.04071759
-0.017851045 -0.030832762 0.0028525698 0.048266992 -0.040997714 -0.04888592 -0.005850055 -0.010563257
0.030718371 -0.030142043 0.05073872 0.06653356 0.01986881 0.000514195 -0.04042218 0.020213883
-0.040729847 0.05593654 0.025401117 0.0062424135
00000000: e74a ebbc fb46 c33a 5f26 82bd d51f 3e3c
00000010: 6176 8a3d baea 8fbd 5dfd e9bb b495 c0bc
00000020: 6e5c 7cbd d8f0 9fbb 5bbf 29bd aaff 97bb
00000030: 3cdf 443d 2b38 ef3c 27be 25bc 7dc7 263d
00000040: 5b3c 92bc fd94 fcbc 2ef2 3a3b 9cb3 453d
00000050: 38ed 27bd 9a3c 48bd d1b1 bfbb 8311 2dbc
00000060: 18a5 fb3c 72ec f6bc 67d3 4f3d bf42 883d
00000070: eac3 a23c 0bcb 063a ba91 25bd 9697 a53c
00000080: 57d4 26bd b71d 653d 0116 d03c 298d cc3b

encoder.3.1.weight f4 [36]
0.80091625 0.544062 0.5699421 0.6708902 0.8116464 0.49156183 0.90170276 0.8228556
0.71051174 0.55187744 0.6608536 0.98401624 0.5998994 0.68923026 0.92760926 0.73714733
0.7837565 0.9338522 0.9236864 0.9378951 0.5826789 0.75404185 0.6482385 0.88281584
0.4888121 0.8384656 0.60706246 0.5828458 0.63753575 0.6312943 0.9516716 0.67152655
0.65210783 0.93063295 0.65510434 0.7231936
00000000: d908 4d3f a647 0b3f bae7 113f 76bf 2b3f
00000010: 0fc8 4f3f fead fb3e fed5 663f aaa6 523f
00000020: 19e4 353f d747 0d3f b42d 293f 7de8 7b3f
00000030: 0293 193f 6571 303f cd77 6d3f b0b5 3c3f
00000040: 44a4 483f f010 6f3f b676 6c3f e519 703f
00000050: 722a 153f e308 413f f5f2 253f 3800 623f
00000060: 9445 fa3e aea5 563f 7268 1b3f 6235 153f
00000070: 8b35 233f 819c 213f c0a0 733f 2ae9 2b3f
00000080: 8af0 263f f63d 6e3f ebb4 273f 3723 393f

encoder.3.1.bias f4 [36]
-0.029266955 -0.0470599 -0.021829844 -0.03119867 0.006509429 -0.036208875 -0.025159307 -0.031094896
-0.0018747185 0.009037009 0.0038972504 -0.020448979 -0.019817807 0.018802257 -0.04531181 0.027730614
-0.031692464 -0.005393525 0.029075978 0.023833496 0.0047693015 0.0023911186 0.042288035 0.00949346
0.0035799425 0.023225056 -0.0169522 0.035424337 -0.029863372 0.03955303 -0.0055069863 -0.0024250783
0.021047357 0.017937977 0.02415161 0.03562173
00000000: 41c1 efbc e2c1 40bd 80d4 b2bc 5a94 ffbc
00000010: 0c4d d53b c24f 14bd e41a cebc b9ba febc
00000020: 1db9 f5ba f70f 143c 0369 7f3b 9e84 a7bc
00000030: f458 a2bc 3107 9a3c e098 39bd 502b e33c
00000040: f5cf 01bd 2bbc b0bb bf30 ee3c 773e c33c
00000050: cd47 9c3b 50b4 1c3b 3836 2d3d 758a 1b3c
00000060: 789d 6a3b 7942 be3c 57df 8abc 1c19 113d
00000070: 08a4 f4bc 5c02 223d f373 b4bb 10ee 1ebb
00000080: 826b ac3c aaf2 923c 99d9 c53c 17e8 113d

encoder.3.1.running_mean f4 [36]
-0.09311685 0.05097529 -0.052509885 -0.12207411 0.06899732 -0.13926813 0.08310118 0.031012317
-0.16417426 0.06537854 -0.07579756 0.059640925 0.14109689 0.10980456 0.08658747 0.019244501
-0.07192605 -0.004503445 0.011988147 0.13729168 0.07809432 -0.059324797 -0.021955395 0.005794783
0.046486672 0.026096044 0.033399522 0.08541018 0.035481557 -0.026464492 -0.030118067 0.08243867
0.100894734 0.19561213 0.11541878 0.07560899
00000000: 0cb4 bebd 77cb 503d 9b14 57bd fe01 fabd
00000010: 784e 8d3d 4e9c 0ebe f430 aa3d 8b0d fe3c
00000020: 4c1d 28be 2fe5 853d c03b 9bbd 0b4a 743d
00000030: b47b 103e 37e1 e03d c554 b13d a5a6 9d3c
00000040: f74d 93bd a291 93bb ef69 443c 3196 0c3e
00000050: eaef 9f3d 8ffe 72bd cddb b3bc 2ae2 bd3b
00000060: cf68 3e3d 5fc7 d53c f0cd 083d 88eb ae3d
00000070: 1c55 113d 10cc d8bc 2aba f6bc 9bd5 a83d
00000080: e6a1 ce3d 8c4e 483e ae60 ec3d e3d8 9a3d

encoder.3.1.running_var f4 [36]
2.546886 1.242296 1.4631256 2.6883428 2.2566028 1.4326142 1.5319574 1.5503924
2.563762 1.4392302 2.7200236 1.761387 1.387114 1.7411038 1.098522 1.1931887
1.8364582 0.97795755 1.8920939 2.2109773 1.7988722 1.9764268 1.8491911 1.6312622
1.4963028 2.1867428 1.8761593 1.2684667 1.7003684 1.9173685 2.310286 1.7838495
2.473999 2.2071629 2.1878183 1.8535845
00000000: 2e00 2340 8e03 9f3f b347 bb3f cf0d 2c40
00000010: 2e6c 1040 e75f b73f 2e17 c43f 4273 c63f
00000020: ad14 2440 b238 b83f de14 2e40 2175 e13f
00000030: f48c b13f 7ddc de3f 5e9c 8c3f 68ba 983f
00000040: 1011 eb3f 6d5b 7a3f 2230 f23f a780 0d40
00000050: 7241 e63f 8efb fc3f 4bb2 ec3f 33cd d03f
00000060: da86 bf3f 98f3 0b40 fd25 f03f 1e5d a23f
00000070: aca5 d93f 556c f53f badb 1340 2e55 e43f
00000080: 0056 1e40 2842 0d40 3705 0c40 4242 ed3f

decoder.0.0.weight f4 [36, 36, 3]
-0.08454542 0.06028518 0.046672635 0.08039241 0.004598055 -0.061368782 -0.049193796 -0.021714833
0.0141906515 -0.054852165 0.0030412194 -0.025664339 -0.05527434 -0.0008878557 -0.018453434 0.0148295965
-0.012129198 -0.05659445 -0.06956378 -0.01055756 0.036589786 -0.024274945 0.07719806 0.013732338
-0.015697345 -0.042757012 0.043615498 -0.050008107 0.06279363 -0.04990833 0.030714422 0.07423636
0.13587685 -0.07515693 -0.010169208 0.066923365 0.069534466 -0.054205064 0.08714368 -0.011518199
-0.07775995 -0.020004762 0.03709048 -0.056014992 0.08729042 0.012191475 -0.061216395 -0.032880638
0.014963877 -0.00017570301 0.014602353 -0.027789094 -0.07938678 0.03834687 -0.04448338 -0.015484089
-0.08195718 0.037661348 0.0594838 0.077396795 0.02535339 -0.018932303 0.008750809 -0.025514172
-0.04547018 -0.020066686 0.049138024 -0.037962284 0.049394727 0.016703628 -0.000724287 -0.0075843167
-0.018777616 -0.044738416 -0.025017295 -0.014613739 0.0059973937 0.05636775 0.023512384 -0.08624245
-0.06973622 -0.02768228 -0.0651578 -0.12552896 -0.01275556 0.025696734 0.06745456 0.058378123
-0.0043174285 0.06861508 0.058735162 -0.019295158 0.052728385 -0.018373193 0.0808968 0.018600702
-0.112972274 -0.12590249 -0.013747446 0.03156613 0.09857319 -0.010025728 0.036258437 0.021384433
0.052860238 0.10392069 0.019524923 0.043398198 0.022404293 0.07332345 0.09424788 0.06739389
-0.0068475865 -0.023466295 -0.037042517 0.08613904 -0.06233337 -0.014234395 -0.024071332 0.118709855
0.015206045 0.040444884 -0.077308424 -0.03507802 0.016855288 -0.007251564 -0.10731754 0.02663099
0.051167946 -0.029698625 0.0691559 0.113753 -0.032879233 -0.008870213 0.018636378 0.048046544
0.016580487 -0.0040116645 0.08606235 -0.0007052066 -0.056496628 -0.09722312 -0.05590879 0.042518754
0.0667105 0.00995655 0.08691112 -0.019444337 -0.087290354 0.042758934 -0.09113121 -0.077759944
0.11641943 -0.028405704 -0.06422544 0.08567246 0.05577443 0.0032293051 0.042883534 -0.016198972
0.010029129 -0.026360204 -0.031506266 0.011122067 0.030254424 -0.016445307 -0.021091394 0.05713062
-0.096419364 -0.042734724 0.15670289 -0.0053971563 0.04674485 -0.027433747 -0.06889011 -0.068989724
-0.043679636 -0.05776103 0.009475514 0.10096531 -0.01787654 0.08190197 -0.01794034 0.0013997351
-0.057259288 0.056659475 -0.07307344 0.0038063296 -0.013483908 -0.080925465 0.03765911 0.03822857
-0.0208822 0.04038562 -0.034189012 0.13750732 0.022554401 -0.04232513 0.05900554 -0.13381131
0.079623856 -0.043955505 -0.04204148 0.04894772 -0.04614361 0.036516972 0.03165029 -0.0071341875
-0.009127378 0.03858106 -0.0064615696 -0.05365281 0.03995702 0.033937395 0.040967233 -0.04103751
0.044360604 0.036293086 0.052440554 -0.013220287 0.017529368 0.06440712 0.014812004 0.03967491
0.017668976 -0.03318778 -0.054709826 -0.05964569 -0.053636953 -0.062000457 -0.039294615 0.024025207
0.034117043 -0.0043653618 -0.05894171 -0.06842509 -0.008339099 0.028502813 0.15453191 0.025263436
-0.012075877 -0.07202253 0.06140454 0.004505733 0.027512025 -0.06857072 0.10275296 0.0043517575
0.0853042 -0.042288236 -0.034751628 0.0058396407 -0.033906043 -0.12585446 -0.042652205 -0.022684557
00000000: 2626 adbd 98ed 763d ce2b 3f3d c7a4 a43d
00000010: 48ab 963b d55d 7bbd 6f7f 49bd 4ee3 b1bc
00000020: e87f 683c aaac 60bd 324f 473b 053e d2bc
00000030: 5967 62bd fdbe 68ba a82b 97bc d6f7 723c
00000040: 8bb9 46bc 95cf 67bd 7577 8ebd 9ef9 2cbc
00000050: 2cdf 153d 40dc c6bc 041a 9e3d 9afd 603c
00000060: b897 80bc fa21 2fbd 2aa6 323d 4dd5 4cbd
00000070: f299 803d ad6c 4cbd d09c fb3c 3c09 983d
00000080: 4d23 0b3e e0eb 99bd c09c 26bc 1e0f 893d
00000090: 1668 8e3d 2106 5ebd 6378 b23d d4b6 3cbc
000000a0: 9c40 9fbd 07e1 a3bc 30ec 173d fa6f 65bd
000000b0: 52c5 b23d c1be 473c 0bbe 7abd d9ad 06bd
000000c0: 0d2b 753c eb3c 38b9 b53e 6f3c f4a5 e3bc
000000d0: 8995 a2bd 9c11 1d3d 3434 36bd fab0 7dbc
000000e0: 2ad9 a7bd c942 1a3d 49a5 733d 3682 9e3d
000000f0: eab1 cf3c eb17 9bbc 8e5f 0f3c 1903 d1bc
00000100: f13e 3abd e462 a4bc f444 493d 577e 1bbd
00000110: 2052 4a3d 0cd6 883c 14de 3dba dc85 f8bb
00000120: 84d3 99bc a13f 37bd 12f1 ccbc 776e 6fbc
00000130: c985 c43b dfe1 663d 0b9d c03c e29f b0bd
00000140: ddd1 8ebd f3c5 e2bc 7471 85bd aa8a 00be
00000150: b2fc 50bc f581 d23c 9e25 8a3d e61d 6f3d
00000160: 3779 8dbb 1086 8c3d 4894 703d e110 9ebc
00000170: b8f9 573d 6183 96bc 39ad a53d 8060 983c
00000180: 025e e7bd 95ec 00be f83c 61bc 7d4b 013d
00000190: bee0 c93d f342 24bc ba83 143d 682e af3c
000001a0: fa83 583d 5fd4 d43d bbf2 9f3c 4fc2 313d
000001b0: 3589 b73c 9b2a 963d 0805 c13d cf05 8a3d
000001c0: b861 e0bb 633c c0bc e5b9 17bd aa69 b03d
000001d0: 4751 7fbd 6137 69bc 3e31 c5bc 271e f33d
000001e0: c622 793c 89a9 253d e153 9ebd f8ad 0fbd
000001f0: 1a14 8a3c 879e edbb 4cc9 dbbd 3c29 da3c
00000200: 7b95 513d 884a f3bc 9ca1 8d3d 55f7 e83d
00000210: 60ac 06bd 5f54 11bc 51ab 983c 74cc 443d
00000220: cdd3 873c 4874 83bb 7541 b03d 9ddd 38ba
00000230: 0269 67bd ea1c c7bd 9e00 65bd 2528 2e3d
00000240: 849f 883d cc20 233c 75fe b13d bb49 9fbc
00000250: 49c5 b2bd fe23 2f3d 00a3 babd 9b40 9fbd
00000260: 4f6d ee3d 14b3 e8bc a188 83bd 0b75 af3d
00000270: bb73 643d c0a2 533b a5a6 2f3d b5b3 84bc
00000280: 3751 243c 5bf1 d7bc b70c 01bd 5539 363c
00000290: 20d8 f73c 4fb8 86bc dcc7 acbc cc01 6a3d
000002a0: 8477 c5bd 9b0a 2fbd b976 203e a1da b0bb
000002b0: 8777 3f3d bdbc e0bc 4216 8dbd 7c4a 8dbd
000002c0: 6be9 32bd d496 6cbd 303f 1b3c e7c6 ce3d
000002d0: d271 92bc 38bc a73d 9ff7 92bc 5177 b73a
000002e0: b788 6abd c413 683d 87a7 95bd 9d73 793b
000002f0: 9ceb 5cbc 40bc a5bd 7040 1a3d 9095 1c3d
00000300: 2611 abbc 646b 253d c709 0cbd b8ce 0c3e
00000310: 02c4 b83c 1e5d 2dbd cbaf 713d d505 09be
00000320: d511 a33d b00a 34bd b033 2cbd 687d 483d
00000330: 1501 3dbd d292 153d bca3 013d e7c5 e9bb
00000340: 008b 15bc 2c07 1e3d 93bb d3bb 0dc3 5bbd
00000350: f9a9 233d f001 0b3d 42cd 273d f316 28bd
00000360: 77b3 353d 0fa8 143d e8cb 563d e799 58bc
00000370: c099 8f3c e1e7 833d 0cae 723c 2982 223d
00000380: 87be 903c e9ef 07bd 6917 60bd 0a4f 74bd
00000390: 6cb2 5bbd 31f4 7dbd 64f3 20bd 83d0 c43c
000003a0: 50be 0b3d 4f0b 8fbb dd6c 71bd 7422 8cbd
000003b0: b7a0 08bc bb7e e93c 9d3d 1e3e 44f5 ce3c
000003c0: e6d9 45bc 8c80 93bd 5483 7b3d d4a4 933b
000003d0: e660 e13c ce6e 8cbd 2570 d23d 3099 8e3b
000003e0: f8b3 ae3d 6e36 2dbd b957 0ebd 755a bf3b
000003f0: 10e1 0abd fedf 00be 14b4 2ebd f7d4 b9bc

decoder.0.0.bias f4 [36]
-0.07346492 0.0023676285 -0.018807048 -0.08268709 -0.026724303 0.027127374 -0.09093498 -0.06822768
-0.012360681 -0.026757414 0.055907186 -0.024476223 0.060757633 0.09577938 -0.063102916 0.018641932
0.03853112 0.036475852 0.028871253 0.054088417 0.047054205 0.050345656 0.09406889 0.07344564
0.115088806 -0.074157245 0.060977317 -0.051700044 -0.04472698 -0.0016033067 -0.02635948 0.054230347
-0.05359532 -0.053884123 -0.05442692 -0.08808012
00000000: c774 96bd 372a 1b3b 3d11 9abc d957 a9bd
00000010: edec dabc 3a3a de3c 1e3c babd f4ba 8bbd
00000020: 7484 4abc 5d32 dbbc effe 643d 5c82 c8bc
00000030: ffdc 783d fb27 c43d 1a3c 81bd f7b6 983c
00000040: cfd2 1d3d b467 153d 6883 ec3c d18b 5d3d
00000050: e9bb 403d 3f37 4e3d 31a7 c03d ab6a 963d
00000060: aeb3 eb3d c1df 97bd 5ac3 793d 6dc3 53bd
00000070: a333 37bd 0c26 d2ba d6ef d7bc a420 5e3d
00000080: c486 5bbd 99b5 5cbd c3ee 5ebd 5a63 b4bd
