trained_models/5D48:C704:EF61:C069.pt (torch, 49335 bytes, 36 tensors)

encoder.0.0.weight f4 [18, 36, 5]
000000 74 18 f9 bb 4b d0 2b 3d e0 8f 1e bd 41 8b f0 3d
       -0.007601792 0.04194669 -0.03871143 0.117453106
000010 d1 83 70 3d 13 65 6c bd 3e 17 c8 3c 46 51 7b 3d
       0.05871946 -0.05771358 0.024425145 0.061356805
000020 fa d1 3d 37 9c a8 0e 3d 69 d1 4d bc 75 af d5 bc
       1.1314167e-05 0.034828767 -0.012562134 -0.026084641
000030 63 d3 cd bc 40 68 60 bc 17 5e ab bc 27 52 c2 bc
       -0.025125211 -0.01369673 -0.020918889 -0.023720814
000040 d3 e6 95 3d 11 6e 92 3d 9e 1f 97 bc b8 65 9e 3d
       0.07319417 0.071499 -0.018447693 0.07734245
000050 37 ad 7c bd 45 42 80 bc 67 8c bc 3b 0e 71 20 bd
       -0.061688628 -0.0156566 0.005754042 -0.039170317
000060 27 fb df bb 15 9c 4c 3c 8a 15 4d bc fc 80 4d 3d
       -0.0068353596 0.012488385 -0.012517342 0.050171837
000070 b7 8d b3 3c bc 08 11 3c ac c6 0a bd 06 ad 90 bc
       0.02191816 0.00885218 -0.033880875 -0.017660629
000080 41 e9 3e 3d 2f 25 b1 bb 70 15 ab 3d 54 61 88 bd
       0.046609167 -0.005406044 0.08353698 -0.06659189
000090 04 5e dc bc 8b d6 5d bc 21 e3 0f bd 51 2e 5f 3d
       -0.026900299 -0.013539921 -0.035128716 0.05448753
0000a0 2e 6a e6 bc 81 60 bb bc 11 a5 aa bc 92 c7 12 3c
       -0.028126802 -0.022873165 -0.020830663 0.008958714
0000b0 4e 46 58 3d e1 f2 5f bc e0 73 25 bd b7 c5 be bc
       0.052801423 -0.013668747 -0.04039371 -0.023287637
0000c0 e7 c9 17 3a 5e 44 50 3d b2 27 2f 3d 54 ec a8 3c
       0.00057902787 0.05084645 0.042762466 0.020620503
0000d0 85 21 1b bd ea ea 12 bc 04 a2 0f 3d dc 0e 56 bd
       -0.037873764 -0.008967141 0.03506662 -0.052260265
0000e0 d5 81 38 bd 0c af 35 3b 63 76 9d bc e9 f3 26 bb
       -0.045045692 0.0027722744 -0.01922149 -0.0025474972
0000f0 7c bc 97 bd f4 58 97 bc d3 b9 33 bd 8b f9 57 3c
       -0.074089974 -0.018475033 -0.043878388 0.013182054
000100 b6 7e 95 bc d7 53 56 bc ce 10 e6 3c 0e d8 82 3d
       -0.018248897 -0.013081512 0.028084185 0.063888654
000110 9c ae eb bc 09 9c 7c 3d 11 ed 83 3d ed ab 80 3d
       -0.028769784 0.061672244 0.06441701 0.06282792
000120 82 19 82 3d 6e d0 56 3d c5 69 de ba 91 8d de 3d
       0.063525215 0.052444868 -0.0016968778 0.108668454
000130 cc 35 43 3d 60 16 aa 3d 49 12 10 3e 88 cd 06 bd
       0.047658727 0.08305049 0.14069475 -0.032910854
000140 9e 74 a3 3d 4b 06 85 3d a8 53 77 3d 29 24 02 3e
       0.07981227 0.06495341 0.060382515 0.12709107
000150 74 ed a2 bd 9f e4 38 3d 19 27 c3 3d 8b 13 dd 3d
       -0.07955447 0.045139905 0.09528942 0.10794743
000160 39 78 ed 3d 16 d6 22 3a c4 1f 33 bd 8b 86 63 3d
       0.11595196 0.0006211711 -0.043731466 0.055548232
000170 0e 91 bc 3b a7 c5 a0 bc 76 66 d4 3b 37 e6 26 3c
       0.0057545966 -0.019625498 0.006481941 0.010186723
000180 47 91 0f bb 96 31 2e bc 0e af 0e 3c 51 13 cc bc
       -0.002190666 -0.010631939 0.0087087285 -0.024911555
000190 19 6e 01 3d 74 eb a0 ba 85 b5 d1 bb f2 46 01 bd
       0.031599138 -0.0012277202 -0.0063998126 -0.0315618
0001a0 2c 60 31 3d fc 86 e6 bc b0 eb 80 3d 13 f0 f0 3b
       0.043304607 -0.028140537 0.06294954 0.007352838
0001b0 88 e0 76 bc 23 10 00 3d a3 80 06 bd bd fe 55 bc
       -0.015068181 0.03126539 -0.03283752 -0.013061223
0001c0 19 c5 92 bc f4 86 cf bb 94 b4 30 3d b3 13 b6 3c
       -0.01791625 -0.0063332263 0.043140963 0.02222619
0001d0 f1 0a 23 bd 96 c1 12 3d 41 19 e9 bc f3 eb d9 3c
       -0.039805356 0.03582915 -0.028454425 0.026601767
0001e0 55 b7 80 bd 04 60 92 bb 4b f4 7e 3c b3 26 51 bd
       -0.06284968 -0.0044670124 0.015561174 -0.051062297
0001f0 ab b0 e0 3b fd 15 56 bd d9 94 0d 3c 08 f0 b3 bc
       0.006856998 -0.052267063 0.008641445 -0.021965042
000200 6a 53 83 3c a6 e5 4c 3c 71 6e da 3c e3 1f e1 3c
       0.016030986 0.012505924 0.02666399 0.027481025
000210 54 81 12 3d 0f 9f 42 bd 0a a3 6a 3c 5f 00 bf 3c
       0.03576787 -0.04751497 0.014321098 0.023315607
000220 66 9b ba 3a f3 fb be bb 3b 40 29 bd cb 4b 5b bc
       0.0014236986 -0.0058283745 -0.04132102 -0.01338477
000230 80 49 50 bd 80 f4 36 3c 0e 2f fe bc fe 12 29 bd
       -0.050851345 0.011166692 -0.031028297 -0.041277878
000240 9b 18 71 3c c7 49 2d bc f4 e2 a0 bc f5 38 1d 3d
       0.014715339 -0.010576672 -0.01963947 0.038384397
000250 c2 be ee bb 2d 41 8a 3d 91 d9 ef bc 2a d8 a2 3b
       -0.0072859237 0.067507125 -0.029278548 0.0049696164
000260 1b bd 91 3d 51 5e f3 bc 16 2e 5e 3d fe 13 74 3c
       0.07116147 -0.02970806 0.05424317 0.014897345
000270 27 e1 13 3d e1 9a 0b 3d 8c ab 1c 3c 97 ec 5c 3c
       0.036103394 0.03408325 0.009562384 0.013484142
000280 3b 7d 62 bb 11 0f 0c 3d 92 74 a2 3c 07 92 c4 bc
       -0.0034559506 0.034194056 0.019830976 -0.023995413
000290 88 1d 2b 3d 22 4c 02 bd 31 10 2b bc c3 7c 18 bb
       0.04177621 -0.031810887 -0.010440872 -0.0023267723
0002a0 eb d7 13 3d 8f 14 db 3c fa b0 08 3d a0 6e dc 3c
       0.036094587 0.026743202 0.033371903 0.026908219
0002b0 8d cc 4c 3d 85 52 26 3d d3 9a 7d 3d 01 d7 68 3d
       0.049999762 0.04060604 0.06191523 0.05684567
0002c0 0c 47 a7 3d c0 2a d0 bc 46 d2 e7 3d d2 b8 de bc
       0.08167848 -0.02541101 0.11319403 -0.027187739
0002d0 44 e0 99 bd a6 20 fc bc 3e c5 31 3c 5b b4 de 3d
       -0.075134784 -0.030777287 0.010850249 0.10874244
0002e0 14 f5 8e 3d ae 3b 74 bd 43 61 b1 bd 33 d3 91 bd
       0.06980339 -0.059627227 -0.08661129 -0.07120361
0002f0 87 94 84 3c 02 9a 31 3e c0 80 8f 3b 93 7a 6e 3d
       0.016184105 0.17343906 0.004379362 0.058222365
000300 c8 48 60 3d 22 b8 be bd 71 87 d3 bd 9e f6 29 bd
       0.05475691 -0.09312464 -0.10328568 -0.041494958
000310 1b bc 06 3d d9 4b 52 3d 7a c7 c5 bb 28 95 22 3e
       0.032894235 0.051341865 -0.0060357423 0.15877211
000320 52 ce ee bc 32 f6 c4 3c 93 d9 80 3c 1b 66 ca 3c
       -0.029151116 0.024043176 0.015728747 0.02470689
000330 b6 7b f5 3d 07 15 14 3d 46 18 b1 bc bb 88 00 3d
       0.119864866 0.036152866 -0.02161802 0.031380396
000340 92 f6 b8 bc 89 5f 07 3e 22 2b 6d bb c7 86 b4 3a
       -0.022578511 0.13220038 -0.003618904 0.0013773077
000350 10 6d eb 3c 81 52 20 bc 3c d6 f3 3d d3 9c 7b 3c
       0.028738528 -0.009785295 0.11906096 0.015357214
000360 36 4c 4d 3c 85 d1 47 3c 7c e5 5f bc 90 9f 39 3e
       0.012530377 0.012195949 -0.013665553 0.18127275
000370 9e a8 ee bc 76 96 d8 3c c2 d0 8e 3d 76 e7 5a 3d
       -0.029133137 0.026438933 0.06973411 0.053443395
000380 9a 4e 15 3e 67 f1 e8 bb 8b ea 33 3c 08 67 4d 3d
       0.14580765 -0.0071088555 0.010981212 0.050147086
000390 79 04 34 3c ca b9 0b 3e b8 e0 74 3b 3f a8 05 bb
       0.0109873945 0.13645092 0.0037365388 -0.0020394472
0003a0 46 c3 8d 3c 08 72 a1 3d d1 21 38 3e e3 68 ac 3c
       0.017305028 0.07883078 0.1798165 0.021046108
0003b0 11 94 35 bc f7 38 5c ba b4 7d 98 3b 05 7f 87 3d
       -0.011082665 -0.00084008224 0.004653657 0.06616024
0003c0 07 50 b3 bd b8 1d 8b bd 44 01 12 39 a3 58 50 3d
       -0.087554984 -0.06792778 0.00013924117 0.05086578
0003d0 11 d4 24 3e 25 84 7d bd be 1b 66 bd 81 d6 e5 3c
       0.16096522 -0.0618936 -0.0561788 0.028056385
0003e0 69 25 ae bc 39 82 26 3e af 91 a3 3d 9d ef 36 3d
       -0.021258073 0.16260614 0.07986771 0.044662107
0003f0 d9 e7 70 3d d7 e9 e3 bd 4c c5 95 bd a9 c2 11 bd
       0.058814857 -0.11128586 -0.07313022 -0.035586033

encoder.0.0.bias f4 [18]
000000 30 5d 46 3d c8 84 97 3d ff 33 97 bd b1 e9 30 bd
       0.048428714 0.07398373 -0.07382964 -0.043191615
000010 9d 9e 4b bd 7e db 67 3d c1 99 26 bd aa b2 f0 3d
       -0.049711812 0.05660581 -0.040673975 0.117528275
000020 0b d5 ad 3d d0 7d a7 3d e2 a4 f5 3a 2c c3 25 bd
       0.084879 0.08178294 0.0018741156 -0.040469334
000030 1b a4 83 bd b4 a2 10 bc a5 bf 25 3d 7a 02 81 3c
       -0.06427785 -0.008827854 0.04046597 0.015748251
000040 6d 5f 4f bd 49 f6 a3 bc
       -0.050628114 -0.020014899

encoder.0.1.weight f4 [18]
000000 1d 0d 3e 3f a2 a4 5e 3f 48 df 46 3f 81 86 58 3f
       0.7423876 0.8696996 0.7768445 0.84580237
000010 a3 3a 6e 3f 61 36 8e 3f 29 20 47 3f c3 b9 2d 3f
       0.9305822 1.1110345 0.7778345 0.67861575
000020 ae c8 5d 3f b6 cb 5d 3f 37 30 7c 3f 71 c4 76 3f
       0.8663434 0.86638963 0.9851107 0.96393496
000030 a5 4b 79 3f 4e 79 25 3f a0 75 68 3f f3 e0 51 3f
       0.9738105 0.6463822 0.9080448 0.8198387
000040 da 55 77 3f 65 5b 81 3f
       0.96615374 1.0106016

encoder.0.1.bias f4 [18]
000000 63 1a e7 3b 57 01 3f bd 25 43 82 bd 02 ad 2c bd
       0.007052706 -0.046632137 -0.06360463 -0.04215718
000010 4d 1c 02 bd c4 6f 32 bc 0a 63 8f bc e5 60 80 3d
       -0.03176527 -0.010890905 -0.01750328 0.06268481
000020 9f ad b3 bb 4c 3b 08 bc f6 aa b8 bd f0 f9 05 bd
       -0.0054833437 -0.008314919 -0.09016983 -0.032709062
000030 ef ba ac bc 60 a9 be bd 62 63 5e bd bf ed 4c bd
       -0.02108523 -0.093096495 -0.054293998 -0.05003142
000040 74 be 06 bd f2 f0 a9 bd
       -0.032896474 -0.0829791

encoder.0.1.running_mean f4 [18]
000000 2b 20 14 3f 79 2f 2d bf 8d f8 19 bf 8c d7 7b bd
       0.57861584 -0.6765056 -0.60144883 -0.06148486
000010 63 59 8b bf be 92 7f 3e 58 da 09 bf 18 11 93 3f
       -1.0886654 0.24958321 -0.5384879 1.1489592
000020 57 9a e3 bc 78 14 c2 3f 49 9f 51 bf a2 d3 b1 3f
       -0.027783556 1.5162497 -0.81883675 1.389271
000030 58 ff 83 3f e4 cd cd bf cb 88 36 bf 8e 83 69 3d
       1.03123 -1.6078458 -0.7130248 0.057010226
000040 27 31 8d 3f d6 5c 02 bf
       1.1030625 -0.50922906

encoder.0.1.running_var f4 [18]
000000 cf 3c b8 3a 55 ea f6 3a 38 11 93 3a 12 bb af 3a
       0.0014056208 0.0018838147 0.0011220342 0.0013407192
000010 dd fe 09 3b 9a f7 8a 3a 3b 14 2b 3a 04 2a 8a 3a
       0.0021056451 0.0010602355 0.0006526147 0.0010541086
000020 a6 41 61 3a 02 ba 92 3a db 7f db 3a e5 ab 10 3b
       0.0008592851 0.0011194351 0.0016746478 0.0022075113
000030 d2 65 c6 3a 2e 6c bc 3a 6a b1 e0 3a 22 ce 12 3a
       0.0015136546 0.0014375502 0.0017142717 0.0005600174
000040 4f 6a 8a 3a 55 99 95 3a
       0.0010560247 0.0011413494

encoder.1.0.weight f4 [9, 18, 5]
000000 b5 44 a2 bc fe cb 84 3c e3 0a af bc ed 8c a7 3b
       -0.019808153 0.016210552 -0.021367496 0.005113235
000010 06 59 f8 3c eb 31 64 3d 94 a0 b3 bd 10 68 97 bd
       0.030315887 0.055711668 -0.08770862 -0.07392895
000020 cf c7 5f 3d a4 9b 6d bd d4 b1 a8 bd 6c bd 0d 3d
       0.05463391 -0.05800976 -0.08237043 0.034604475
000030 d1 6a 19 bd 10 7e 9a bc fa 7e 5d bd 64 1e 39 3c
       -0.037455384 -0.01885894 -0.054076172 0.01129875
000040 dc 90 c5 3d 6c 21 f9 3c 4c a7 ea bb 66 d2 fb bc
       0.0964677 0.030411445 -0.0071610566 -0.030739974
000050 8c 04 27 3d 9c 17 c0 3c 57 fb ca bd ff 47 93 3d
       0.04077582 0.023448758 -0.099112205 0.071914665
000060 09 40 b7 3d 12 68 bf bd 8f 9f b4 3c f6 f6 ba 3d
       0.089477606 -0.09346022 0.02204874 0.09129135
000070 3d 52 10 3d 04 a5 af 3d 5b 25 88 3d fe 86 33 bb
       0.03523468 0.08576396 0.0664775 -0.0027393694
000080 ce 45 c6 bc 92 05 8c 3c 92 da 6b bd f2 ed a6 bc
       -0.024203207 0.0170925 -0.05758149 -0.020377133
000090 95 f9 a4 bc 74 de c9 bd fb 2d 9e bd 40 40 4c 3c
       -0.020138541 -0.09856883 -0.07723614 0.01246649
0000a0 ad c4 a2 3c 79 67 e3 bc 11 f7 21 3d b4 41 36 bd
       0.019869173 -0.0277593 0.03954226 -0.044496253
0000b0 28 a9 f4 3c 69 46 a4 3d 6c c4 ad bd 96 5f 50 3d
       0.029865816 0.08021242 -0.0848473 0.050872408
0000c0 e6 b6 65 bd 47 b1 94 3c af 64 a5 bd b8 f7 c8 3d
       -0.05608263 0.018150939 -0.080758445 0.098128736
0000d0 74 8c 4b 3d e6 ea 0c 3c 1c 7f ad 3d 0f 3f 44 3c
       0.049694493 0.008600926 0.0847151 0.011977925
0000e0 a2 95 55 3c 03 02 bb bd b8 97 52 3d a7 1e 3a 3d
       0.0130361635 -0.09131243 0.05141422 0.04543939
0000f0 83 21 89 3d e1 b4 4a 3d 5c 82 4a bc d3 d2 1e bd
       0.06695845 0.049488906 -0.012360182 -0.038775276
000100 0f 36 83 bd 61 a4 86 3b 09 79 54 3d e1 fc 45 3c
       -0.06406795 0.004108951 0.05187324 0.012084217
000110 a6 e3 87 bc eb 52 83 3d ac aa 61 3d fd cf 6d 3d
       -0.016588043 0.064123 0.055094406 0.05805968
000120 26 39 b8 3d 02 11 6a 3d b8 46 01 3d ff e2 98 3d
       0.08995275 0.057145126 0.031561583 0.07465171
000130 8a 5d 7b bc b2 51 3b bc dd 4e 1e 3b 95 24 2e bd
       -0.015342126 -0.011433052 0.0024155893 -0.042515356
000140 33 66 bf 3c 1d c6 ea bc 58 0e 84 3d 0f 6e 69 3c
       0.023364162 -0.02865892 0.06448048 0.014247431
000150 6d b4 83 3d e7 55 95 3d 59 0d 79 3d 8d 40 98 bd
       0.06430898 0.07291775 0.060803745 -0.07434187
000160 fa 99 26 3d 29 c4 65 bc d3 a7 21 3d 98 18 22 3a
       0.040674187 -0.014023819 0.03946669 0.00061834743
000170 a1 ca f7 bc 0c 39 28 bd 75 05 4e 39 0e 59 57 bb
       -0.030247988 -0.04107003 0.00019647724 -0.0032859477
000180 ea cc 01 bd 6d f4 ed 3d bb e0 98 3d 4a 80 51 bb
       -0.031689562 0.11618886 0.07464739 -0.0031967335
000190 58 e1 23 bc e2 9d 4f bc 6f 63 2b bd 43 44 11 bd
       -0.010002457 -0.01267192 -0.041842874 -0.03546549
0001a0 a7 b1 9c 3d f5 bd a6 3c 4b fa c5 3c a3 39 1d bc
       0.07651072 0.02035425 0.0241672 -0.009596261
0001b0 7e 8e 56 bd 1b 33 d5 3b 8e a0 c4 bc be 0f 15 3d
       -0.052381985 0.0065063364 -0.02400234 0.036391966
0001c0 56 d2 93 3d 43 14 91 3d 69 e6 09 be fa 06 ad bd
       0.07217853 0.07083943 -0.13466801 -0.08448596
0001d0 05 24 d7 bd 7f e0 85 3c 52 d2 80 bc a9 15 bd bd
       -0.10504917 0.0163424 -0.015725289 -0.09232647
0001e0 90 31 59 3d 72 89 7b bd 4e ad 32 bd 46 69 bb bc
       0.053025782 -0.061410375 -0.043622307 -0.022877347
0001f0 74 66 50 3d 7f 65 d2 3c 29 b5 8f bd 50 68 06 bc
       0.050878957 0.025683163 -0.070169754 -0.008203581
000200 fd 86 3c 3b 4e 6d 99 3c f7 86 b3 3c b3 d8 3a bd
       0.0028766983 0.018728878 0.021914942 -0.045616817
000210 95 5a 13 3b f1 f5 ac bc 4e 03 5f bd 9f 88 aa 3d
       0.002248441 -0.021113368 -0.05444651 0.0832684
000220 6e fd 9a bd c6 c5 dd bb a9 c5 cb 3b 22 8c 9c bc
       -0.07567869 -0.006767961 0.0062186313 -0.01910979
000230 a7 ca d5 bd 49 ec 1e 3d 02 3b cf 3d b7 88 e5 3b
       -0.104390435 0.038799558 0.10118677 0.007004823
000240 77 7b 9e bd a6 e1 d5 bd 38 53 8f 3d 15 35 bd bc
       -0.07738393 -0.1044343 0.069982946 -0.0230966
000250 a6 4e 28 3b cd 40 9a 3b 79 ce 97 bd c8 68 4e bd
       0.0025681644 0.004707432 -0.074124284 -0.050392896
000260 cb 82 fd bc ff 20 a3 bd b9 64 27 bd fa 1a 8b bd
       -0.030946156 -0.07965278 -0.04086754 -0.06792255
000270 35 2e 16 bc a1 d7 b2 bb 29 40 d0 3d f7 1f db bc
       -0.00916629 -0.005457834 0.101684876 -0.02674864
000280 8c 75 60 bc 4a cc 47 3d 1b 61 91 bc 8a 53 cb 3c
       -0.0136999 0.04877881 -0.017746499 0.024820108
000290 5c 12 5e bc 29 02 c8 3d c3 99 b7 bc 98 38 7e 3d
       -0.013554182 0.09766037 -0.022412186 0.06206569
0002a0 b6 04 1e bd f1 38 21 3c 3e 77 ed bc b6 02 9a b9
       -0.03857871 0.009840236 -0.028987523 -0.0002937519
0002b0 72 c0 36 3d e5 0c 58 bd e5 17 c0 bd 3b a8 80 3d
       0.044617124 -0.052746672 -0.093795575 0.062820874
0002c0 be 1e c9 3d 71 dc b5 bc 78 59 a4 3d fd 90 61 3c
       0.09820317 -0.022199841 0.08024877 0.013767478
0002d0 92 7b 1a bc 79 20 9a bd 3a 42 cf bd 82 a9 68 3d
       -0.0094288755 -0.07525725 -0.101200536 0.05680228
0002e0 c2 44 2e bc f9 ef 02 3d 9e 50 1c 3d ed 6a fe 3c
       -0.01063651 0.031967137 0.03816282 0.031056846
0002f0 86 ef 83 3b 5a 2c 33 3d 01 fe 00 be 5a be e1 3c
       0.004026356 0.04374347 -0.12596895 0.027556587
000300 23 f3 b9 bc c0 27 d5 3b d8 59 a0 bd 86 bc de 3c
       -0.022698944 0.0065049827 -0.07829636 0.027189504
000310 2a ce 6a 3a 96 cd c8 3c 1c 41 a2 3c c0 75 4e 3c
       0.00089571124 0.024512094 0.019806437 0.012601316
000320 8e 1c d0 3c 39 44 10 3d e7 8e 99 bd 66 1f bb bd
       0.025404241 0.035221312 -0.074979596 -0.09136848
000330 60 4c 26 3b 01 c1 da bd 34 30 84 3d aa b8 90 bc
       0.0025375113 -0.10681344 0.064545065 -0.01766618
000340 d7 5a 99 3d 17 74 6b 3d d0 3d c4 bd f2 9c cb 3b
       0.074880295 0.05748376 -0.09582102 0.0062137777
000350 a2 89 b7 bd f7 e0 1b 3d ea 4c 72 bd 5a e4 97 3d
       -0.08961798 0.03805634 -0.059155382 0.074166015
000360 57 4d 16 3d 78 53 d1 bd bf e4 90 bd 83 17 85 bd
       0.03669485 -0.102209985 -0.0707488 -0.06498625
000370 71 b8 32 bd 8e 3e b3 bc a7 39 12 3d bf eb 0b bd
       -0.04363293 -0.021880414 0.035699513 -0.034160372
000380 e6 bc b5 3c 50 36 58 3d 34 d1 1e 3d cc 18 1e bd
       0.0221848 0.05278617 0.03877373 -0.038597867
000390 01 01 56 bd 62 1b cf bc 93 60 9c 3d f3 d1 bc bc
       -0.05224705 -0.025281612 0.076356076 -0.02304933
0003a0 38 13 1d bc 9d 2d 49 bd 3d f8 80 3d e4 0f 2a 3d
       -0.009587102 -0.049115766 0.06297348 0.04151906
0003b0 37 7e 6d 3d 62 96 64 3d ee df 88 bd 3c 67 a4 bd
       0.057981696 0.05580748 -0.06683336 -0.08027503
0003c0 07 59 b0 bd 72 7b 3e 3d 98 79 a5 bb 53 7f 09 3c
       -0.086107306 0.046504445 -0.0050498955 0.008392173
0003d0 62 96 b1 bd 05 00 e2 bc 05 3c 2d 3a 65 33 fc bb
       -0.08671261 -0.0275879 0.000660837 -0.0076965564
0003e0 3c 51 d6 bd bc 5e 97 bd 85 cf eb bb ed d2 6e 3d
       -0.10464713 -0.07391116 -0.007196369 0.058306623
0003f0 31 c9 18 3c ad c2 a1 3c 05 74 49 3d 84 93 8b bd
       0.0093253115 0.019746149 0.04918291 -0.06815246

encoder.1.0.bias f4 [9]
000000 60 25 3e 3d 86 07 95 bd ac da b9 bd 92 08 a9 3c
       0.046422362 -0.072768256 -0.090749115 0.02063397
000010 6f 7d 0c be 28 e3 86 3d d2 c9 b6 bc 03 43 c7 bd
       -0.13719724 0.06586295 -0.022313032 -0.09729578
000020 d9 c2 11 bd
       -0.03558621

encoder.1.1.weight f4 [9]
000000 d4 b3 61 3f d1 1d 63 3f 0f 12 55 3f 49 c8 5b 3f
       0.8816502 0.8871737 0.8323068 0.85852486
000010 35 0f 60 3f 53 0e 65 3f b0 de 6a 3f cb 67 75 3f
       0.87523204 0.8947498 0.91746044 0.958615
000020 06 85 4e 3f
       0.8067173

encoder.1.1.bias f4 [9]
000000 78 75 31 bd 45 c8 73 bb 96 4b 7f bd 98 6d 8b bd
       -0.043324918 -0.0037198227 -0.062327944 -0.06808013
000010 e1 b0 00 be bd 54 1d bd 16 dc b8 39 fe 3b 56 bd
       -0.12567474 -0.03841089 0.00035259192 -0.052303307
000020 88 3a 8b bd
       -0.06798273

encoder.1.1.running_mean f4 [9]
000000 9a 37 7c 3d e6 0b 17 be 32 14 c3 bd 49 52 8a bb
       0.061576463 -0.14750633 -0.09525336 -0.004221235
000010 b5 4d 5e bd 8a 3f b1 3d b7 68 62 3c cd a6 6d bd
       -0.054273326 0.08654697 0.013818911 -0.0580204
000020 56 8d 34 bd
       -0.0440801

encoder.1.1.running_var f4 [9]
000000 e9 ef db 3e 40 e1 eb 3e cf f4 f7 3e cf 02 06 3f
       0.42956474 0.4607029 0.48428962 0.52348036
000010 f6 52 89 3e 46 08 d9 3e 3f a1 cf 3e fb 8d a6 3e
       0.26821107 0.42389125 0.40552709 0.32530198
000020 5e d5 ae 3e
       0.3414716

encoder.2.0.weight f4 [5, 9, 5]
000000 33 04 84 bc 00 3e e4 3d 37 1b 57 3c 84 b2 07 3c
       -0.016115284 0.11144638 0.013129047 0.008282308
000010 a2 ec e2 bd b4 b8 85 3d 8a d3 da bd d4 5a dc 3a
       -0.110802904 0.0652937 -0.10684879 0.0016811737
000020 a4 ac f4 38 f7 68 9c bd fa 53 47 3d c9 b6 2d 3d
       0.000116669835 -0.07637208 0.04866407 0.042410646
000030 2c c7 04 be f9 b4 03 be 83 ed 81 3d d0 46 02 3e
       -0.12966603 -0.12862004 0.0634413 0.12722325
000040 10 49 80 3b 7e 49 d9 3d 00 d9 3c 3b e8 f6 97 bd
       0.0039149597 0.10609721 0.0028815866 -0.074201405
000050 d4 3b 53 3b 07 fd a9 bd 53 eb 1f be 2a 0d 9f bd
       0.0032231705 -0.08300214 -0.15617113 -0.07766183
000060 50 78 31 3c bb 41 75 bb 8a 47 be 3d bf b7 00 3e
       0.010831907 -0.0037423212 0.09290989 0.12570094
000070 47 23 af bb 89 46 37 3d 36 65 f1 3d c9 1a 21 bd
       -0.0053447816 0.044745002 0.117868826 -0.039332185
000080 f6 92 ee bc db de e1 bd 05 64 eb bd d3 91 da bd
       -0.02912281 -0.110288344 -0.114936866 -0.10672345
000090 4d c1 d6 3d 1d 97 02 be f5 c8 af bd a3 2f 1f 3a
       0.10486088 -0.12752958 -0.085832514 0.0006072467
0000a0 d3 6a 05 3d c1 6e 2c bd 40 cd 50 3d f9 4e 2b 3d
       0.03257258 -0.04209781 0.05097699 0.04182336
0000b0 c2 54 45 3d 4a 1f 18 3c 22 4f d8 bc 6e 21 01 be
       0.048176534 0.009284804 -0.026404921 -0.12610409
0000c0 e6 fe df 3d 74 da c5 bd fa 46 12 bc 53 0b 85 bd
       0.1093729 -0.09660807 -0.008928055 -0.064963005
0000d0 16 42 40 3e ba 51 a5 3d e6 92 a7 bd c2 fa 10 bd
       0.1877521 0.08072229 -0.081823155 -0.03539539
0000e0 bb b2 df bd 94 ed 89 bb 6e 7d fe bd 08 bc 3a bd
       -0.10922762 -0.0042092297 -0.124262676 -0.045589477
0000f0 2c 7a 1e bc 2f 7a 9c bd 23 00 96 3d 7c e5 2e be
       -0.009672683 -0.07640492 0.07324245 -0.17079729
000100 69 26 11 3d ec 94 af bc 83 a9 6f 3d e6 97 ab bc
       0.03543702 -0.021433316 0.05851127 -0.020946454
000110 f8 34 1d be d7 0d 0c be ed cb 88 3d 5d 9f ee bd
       -0.15352237 -0.13677154 0.06679521 -0.1165149
000120 0a e3 d6 bc d6 4b ce bd e9 4e ee 3b 41 2a e2 bd
       -0.026231308 -0.10073058 0.0072725904 -0.110432155
000130 15 ba 33 bd 27 96 a4 bc 5a b8 38 3d c7 11 99 bc
       -0.043878634 -0.02009113 0.045097686 -0.018685235
000140 d1 ba 9f 3d 11 76 f8 3a ab ab 94 bd 39 23 c7 bd
       0.07799304 0.0018956085 -0.072593056 -0.09723515
000150 27 ca 9a bd 96 62 72 bc a4 ef 91 bd 07 7e b1 3d
       -0.07558089 -0.0147940125 -0.07125786 0.08666616
000160 63 31 94 bd 8c fd a3 bd b8 8a 09 3e cf 3c c0 3d
       -0.07235982 -0.080073446 0.13431823 0.09386598
000170 64 7f f2 bc f2 6a f1 bc 7f 79 2c 3e b3 7c 01 3c
       -0.02960176 -0.02946994 0.16843222 0.007903266
000180 a9 4f 89 bc 51 62 08 3d 22 a3 8c bd e9 91 3a 3d
       -0.016761618 0.033296887 -0.068670526 0.045549307
000190 db 9f 5e 3d 38 b9 fd 3b 02 b2 b5 3d 12 38 c1 3d
       0.05435167 0.007743027 0.08871843 0.09434523
0001a0 99 19 28 3e 02 d4 49 3e f5 fe 3e 3e 7c 32 2d 3d
       0.16416015 0.19709781 0.18651946 0.042284474
0001b0 a4 da c0 3d 65 e6 2a 3e 18 b4 12 3e 39 dc d7 3d
       0.094167024 0.16689451 0.14326513 0.10540051
0001c0 9e 62 2d bd a1 ff 1b 3e 74 8e 19 3e 86 21 16 bc
       -0.042330377 0.15234233 0.14995748 -0.009163266
0001d0 8f 77 43 be cb 40 10 be 9a e7 24 be e6 01 a9 bd
       -0.19088577 -0.14087217 -0.16103974 -0.08252315
0001e0 73 d4 94 bd 08 42 91 bd 35 9f bf bd 52 eb 3e 3d
       -0.07267084 -0.070926726 -0.09356538 0.046611138
0001f0 15 47 62 3d b1 58 3a 3e ca de a0 3d a7 bc 60 3d
       0.05524357 0.18197896 0.07854994 0.054867413
000200 05 a0 9c bd 4d 33 c9 3d 9c f1 3c 3d 05 aa ba 3d
       -0.07647709 0.09824238 0.046128854 0.0911446
000210 e2 a8 08 be 1b 4d 39 bd 5d ed 3f bc 14 54 6d bd
       -0.13345674 -0.04523955 -0.011714307 -0.05794151
000220 d0 f0 59 3c 8e 98 b7 bd ae 43 06 3e d9 57 8e 3d
       0.013302043 -0.08964644 0.13111755 0.06950349
000230 9c de 8e 3c 3c 22 65 bd fb 96 35 3e e1 ec e3 3d
       0.017440133 -0.05594085 0.17733376 0.111291654
000240 41 4d 7e bc f9 50 0c bd 0b 59 0e 3e 1a ed 06 bc
       -0.015521348 -0.03425691 0.13901155 -0.00823524
000250 56 e4 88 3d cf 14 01 be 92 e3 3e bc 7d a9 19 3c
       0.066841766 -0.12605594 -0.011650937 0.009378788
000260 31 00 fc 3c bc 6b cf 3d 1a 37 c4 bd 7d ca 48 3d
       0.03076181 0.101279706 -0.09580822 0.049021233
000270 97 60 b1 3d 6e 58 11 3e fc 6d 15 bd 23 b2 00 be
       0.08661001 0.1419389 -0.036481842 -0.12567954
000280 03 de b4 bd 54 02 99 3d d9 5f d2 bd 74 0e 61 3d
       -0.08831408 0.07471147 -0.10272188 0.054945424
000290 97 2d 8f 3d df 3e fb bc ef 2f e7 3d c8 90 6a bd
       0.069911174 -0.030669628 0.112884395 -0.05726698
0002a0 31 7c 4e 3c 62 0a f7 bc ce 42 cd 3d 63 67 6c bd
       0.012602852 -0.030156318 0.100225076 -0.057715785
0002b0 e4 37 f8 3d 0a 80 b0 bd 38 38 5e 3d 12 25 ec bd
       0.12120035 -0.086181715 0.054252833 -0.11530508
0002c0 40 85 07 be af b5 82 3d 43 b7 e6 3d 3e 7d e8 bd
       -0.13234425 0.0638231 0.11265423 -0.11352013
0002d0 f8 8d fc bd 3b 13 15 bd 52 ac 8d 3d ec 9b 62 bd
       -0.12331766 -0.036395293 0.06917633 -0.05532448
0002e0 b2 fc 52 bd 1b 10 73 3d a7 c6 c9 bc 23 b2 8b 3b
       -0.05151052 0.05934153 -0.024630858 0.004263179
0002f0 d3 82 a7 3d 9d e7 ab bd 4e a8 5d 3c 76 ef 4a bc
       0.081792496 -0.08393786 0.0135288965 -0.0123861935
000300 0e c5 0f 3e f4 55 27 3e c5 3c 58 bd bb 19 b8 3c
       0.14040014 0.16341382 -0.05279233 0.022473207
000310 7c 4d 27 3e 79 a9 cc bc 2c 56 88 3d 06 71 90 bd
       0.16338152 -0.024983155 0.06657061 -0.070528075
000320 7c 02 54 3d 5e c0 9b 3d 8f 70 d1 3d b4 4c 81 bd
       0.05176018 0.076050505 0.10226547 -0.06313458
000330 ab 49 a4 bd 74 61 7c bd 10 f7 8b bd 1a 94 19 bd
       -0.080218635 -0.061616376 -0.06834233 -0.037494756
000340 dd 5d 88 3d e2 dd 19 bd 4e 41 f0 3b b9 8a e2 3d
       0.06658528 -0.03756512 0.0073320037 0.110616155
000350 9a 32 b2 3d 5b fd 9d 3d ed 19 1b bd 00 f4 33 bd
       0.08701058 0.07714339 -0.03786652 -0.04393387
000360 62 c5 c9 bc ab 05 6d 3d 98 58 4d bd a0 7b 41 39
       -0.024630252 0.057866734 -0.050133318 0.00018451968
000370 f5 42 f6 3c 2c 96 a5 bd 5e be f5 3d 05 b7 03 3d
       0.030061224 -0.08085284 0.119992 0.032156963
000380 bf e6 c4 3c
       0.02403581

encoder.2.0.bias f4 [5]
000000 db 3f a9 3d 2a bd 18 3e d6 3b 12 3d cf a7 b2 bc
       0.082641326 0.1491591 0.035701595 -0.021808533
000010 d9 ad 0b 3d
       0.03410134

encoder.2.1.weight f4 [5]
000000 2b 3b 57 3f 05 78 45 3f a1 b4 5a 3f c6 a9 6b 3f
       0.8407466 0.7713626 0.8543187 0.9205593
000010 53 63 44 3f
       0.76714057

encoder.2.1.bias f4 [5]
000000 15 07 a4 bc 3e 9a ba bc 58 d0 12 be d6 de 70 bd
       -0.020022908 -0.022778627 -0.1433729 -0.058806263
000010 57 ff 4a bd
       -0.049559917

encoder.2.1.running_mean f4 [5]
000000 fe 20 93 3d c0 a2 1c 3e b1 aa ad 3d 3c 8e e3 38
       0.07184027 0.15296459 0.084798224 0.00010850697
000010 42 37 45 3d
       0.0481484

encoder.2.1.running_var f4 [5]
000000 cd 23 b5 3e 41 62 27 3f 9b 9c b3 3e ad cd 47 3f
       0.35378876 0.653843 0.35080418 0.7804821
000010 28 a9 67 3f
       0.90492487

decoder.0.0.weight f4 [5, 9, 5]
000000 d5 54 a0 3d da bd b2 bd 62 5f e0 bd 26 38 f0 3d
       0.078286804 -0.087276176 -0.10955693 0.117294595
000010 08 06 08 3b ad 1f f7 bc 51 de 08 bd 3f 7a ac 3d
       0.0020755548 -0.030166471 -0.033415142 0.08421754
000020 7b 0d a4 bd b2 70 16 3d 27 86 46 3d 8d 03 48 3d
       -0.08010384 0.03672857 0.04846778 0.04883151
000030 0e 15 3c bc fd cf ad 3d 67 3e 99 3d 8b 0d 9e bd
       -0.011479629 0.08486936 0.074826054 -0.07717427
000040 50 fe cf bd 36 4b 66 bd b8 0e 05 3d 96 73 a6 3c
       -0.10155928 -0.05622407 0.03248474 0.020318788
000050 2f 7f d6 bc 19 1c d3 bc a7 5e 6d bd 88 8a 0a 3d
       -0.026183693 -0.025770234 -0.057951596 0.03382352
000060 1f 03 06 bc ed 21 04 3d cd 3e 73 3c 62 a8 22 3d
       -0.008179455 0.032258917 0.014846516 0.039711364
000070 27 56 5c 3d 3c fc 7b 3d fc 2e 2e 3d f5 1e b2 3d
       0.0537931 0.061519846 0.042525277 0.08697311
000080 55 cf ad bc e3 2d 14 3c 37 29 38 3c ab 42 88 3d
       -0.021217028 0.009044143 0.011240295 0.06653341
000090 30 ff 4c bd 84 ef ce 3c c8 4d a5 bd 61 ba 83 3c
       -0.050048053 0.025260694 -0.08071476 0.016080083
0000a0 83 68 7e bd 45 50 26 3e 5e a4 af bd 50 37 9c bd
       -0.06211139 0.16241558 -0.085762724 -0.076277375
0000b0 a4 d7 3a 3c 5c 58 01 be bb 63 13 3d 30 fc 95 bc
       0.011403952 -0.12631363 0.035983782 -0.018308729
0000c0 12 a0 b1 3c 63 58 4b 3b bc cf 60 bd 51 19 af 3c
       0.021682773 0.0031028024 -0.05488561 0.021374376
0000d0 a1 27 fd bc e3 78 b3 bc 23 35 80 3c 2e 7c a3 3d
       -0.030902686 -0.02190823 0.015650338 0.0798267
0000e0 26 0d da ba b3 24 a8 bd 15 02 32 3e f6 05 cd 3d
       -0.0016635999 -0.08210125 0.17383607 0.100109026
0000f0 7b 52 8b 3d 1f 25 71 3d 9d f7 52 bd b2 d8 ec bb
       0.06802841 0.058873292 -0.051505674 -0.0072279805
000100 eb 58 8b 39 74 5f d0 3c 3e 3a 87 3b 98 d6 4e 3c
       0.00026578395 0.02543614 0.004126816 0.012624405
000110 36 c8 4b bd 6a a6 a1 bc 5a 15 c6 bc d2 57 3e 3d
       -0.049751483 -0.019732673 -0.024180103 0.04647047
000120 c7 0b 21 bc 45 9c 5b ba 7c 38 09 3e a5 be a1 3d
       -0.009829468 -0.0008377473 0.13400453 0.07897691
000130 6d 74 f6 3c a2 29 60 bd 60 4e 8d bc 2a 19 52 3d
       0.030084813 -0.054727204 -0.017249286 0.05129353
000140 20 3f f7 bd da b9 c4 bc 98 db fb bd 97 15 33 3e
       -0.12072587 -0.024014402 -0.122977436 0.17488705
000150 39 9d b3 3d d8 63 18 3d fb 88 61 3b a7 f6 df 3c
       0.08770222 0.037204593 0.0034413922 0.027339293
000160 48 1d 07 be 78 47 85 3d a4 91 a1 bd aa 4f 72 bd
       -0.13194764 0.06507772 -0.07889107 -0.059158005
000170 5c e7 3d 3d 66 f8 0c 3e 7e e1 ec bd e7 f4 9b 3d
       0.04636322 0.13766631 -0.11566447 0.07615071
000180 27 37 0f bd 9f 7a fd bc cd 57 4a 3d e6 06 de bc
       -0.034964707 -0.03094226 0.04940014 -0.027102899
000190 22 d9 d2 3d c4 ba d3 3c 94 df 93 bd 08 46 12 3e
       0.10295321 0.025845893 -0.072203785 0.14284527
0001a0 01 7a f8 bd 81 26 05 bd d7 8c 7a 3d 4a 2e 1d bd
       -0.121326454 -0.032507423 0.06116947 -0.038374223
0001b0 3a d1 9a 3d da 93 d1 bd 3c 20 22 3d fa 32 67 3c
       0.07559438 -0.102332786 0.039581522 0.014111275
0001c0 68 8d d4 bd ab ae b5 bd e7 ad 0f bd 62 70 62 bd
       -0.103785336 -0.08871206 -0.035077956 -0.055282958
0001d0 cc 32 15 3d 0c 95 27 bd 31 54 9a 3c d0 1c 7f 3d
       0.036425397 -0.040913627 0.018838974 0.062283337
0001e0 5b 40 e4 3c 12 a5 13 3d 02 68 94 3d c1 da 96 bb
       0.027862718 0.036046095 0.072464004 -0.004603714
0001f0 43 2e 9f bd 88 d1 d2 bd 06 64 d8 bd cd 75 1a 3c
       -0.077724956 -0.10293871 -0.10565953 0.0094275
000200 4a 8e fa 3d d3 f4 60 3d 11 60 56 bd b8 7d 0b 3e
       0.12234171 0.054920983 -0.05233771 0.13622177
000210 36 31 be bd 75 24 8e bd 60 f6 5f 3d 48 98 8c 3b
       -0.0928673 -0.069405474 0.05467832 0.0042906143
000220 c8 ed f4 3c 62 c8 96 bd 97 70 97 3c 18 60 ad 3d
       0.02989854 -0.07362439 0.018486304 0.08465594
000230 da 3d 6f bc a9 a3 a1 bd 03 81 5d be d7 3f 03 3e
       -0.014602149 -0.07892544 -0.21631245 0.12817322
000240 ce 2e bf bd 47 3c b7 3d 6b d3 06 3d 9d ca b9 3c
       -0.09335099 0.08947044 0.032916468 0.022679621
000250 e3 52 ac 3d a4 ae 8f bd c1 19 d4 3d 9e c0 75 3d
       0.08414247 -0.07015732 0.10356475 0.059998147
000260 65 29 e7 bd 7a 2c b2 bd 35 e9 b6 bc 25 bf b2 bd
       -0.11287192 -0.086998895 -0.022327999 -0.08727864
000270 0a b2 2b be e0 0f df bc 23 43 9c bc 75 99 ae bb
       -0.16767135 -0.02722925 -0.019074982 -0.005328352
000280 c8 7e cc 3d 54 97 c0 3d f7 7e 73 3e a9 a7 a0 bd
       0.09985119 0.094038635 0.23778902 -0.07844479
000290 8a ad 86 bd 84 8f 0f bd 6e 47 1a bc 4a 34 f7 3d
       -0.06576069 -0.035048977 -0.009416444 0.1207052
0002a0 2a 56 48 3e e8 d8 95 3d 52 fe 8d bd 16 84 11 be
       0.19564119 0.07316762 -0.069332734 -0.14210543
0002b0 59 66 c9 3d af 39 d9 3d 0d c5 cb bd d2 a2 e4 bd
       0.098339744 0.106067054 -0.09949694 -0.11163868
0002c0 c3 a2 fb bd 13 7d 6e 3c ae d4 5c 3d a6 e0 37 bd
       -0.12286904 0.014556187 0.053913765 -0.044891976
0002d0 20 4c 88 3d 97 d1 bc 3d 54 71 c1 bd d4 de 6a bd
       0.06655145 0.092196636 -0.09445444 -0.05734141
0002e0 1b 20 0c be 4f a9 83 bd 0e 8d 24 be 31 0a b6 bd
       -0.13684122 -0.064287774 -0.16069433 -0.088886626
0002f0 06 27 36 3e 35 aa 84 3c 2a b9 83 3d 13 05 5d 3d
       0.17788324 0.016194442 0.064318016 0.053959917
000300 73 b9 2a 3d 53 3b 08 bd 70 61 8e bd fd 4b de 3d
       0.041680764 -0.0332597 -0.069521785 0.10854337
000310 90 a9 eb 3c 4c da e6 bd 4a 49 9d 3c 64 59 cf bd
       0.028767377 -0.112721056 0.019199986 -0.10124472
000320 55 f8 d7 bd d0 17 b9 3d a9 3f 88 3a a0 02 59 bd
       -0.105454125 0.09037745 0.0010394949 -0.05298102
000330 76 48 c5 bc f2 9f 0e 3e 12 ec 73 3d e2 6d ac bc
       -0.024082404 0.13928202 0.059551306 -0.02104849
000340 84 31 2e 3e ea 26 e8 bd e2 69 ef 3d 5f 3f 3f 3e
       0.17011076 -0.11335547 0.116901174 0.18676518
000350 75 dc ed bd 80 4c ee 3d f7 90 d7 bd 4a 66 1b be
       -0.116143145 0.11635685 -0.10525697 -0.15175739
000360 33 54 15 3e 8b 84 26 bd a7 67 01 3b 2f 4c ad 3c
       0.145829 -0.040653747 0.001974562 0.021154491
000370 44 64 c7 bc c4 26 0a bd c2 da dd bd 7b 2b 30 3d
       -0.024339803 -0.033728376 -0.1083274 0.043010216
000380 77 38 0d bd
       -0.034477677

decoder.0.0.bias f4 [9]
000000 08 95 17 be ad 47 8b 3d 69 23 13 be 54 da 18 be
       -0.14802945 0.068007804 -0.14368977 -0.14927036
000010 08 57 f9 3c 63 de 7d bd 2e df 89 3d 55 e4 c9 3d
       0.030437008 -0.061979663 0.06732021 0.09858004
000020 ea d1 05 bd
       -0.032670893

decoder.0.1.weight f4 [9]
000000 b8 17 4d 3f 3f d5 2f 3f a0 6a 63 3f 98 79 4e 3f
       0.80114317 0.6868476 0.8883457 0.8065429
000010 62 a3 69 3f c5 25 6a 3f b3 72 43 3f ce 3e 4f 3f
       0.9126493 0.9146388 0.7634689 0.8095521
000020 c7 44 50 3f
       0.81354946

decoder.0.1.bias f4 [9]
000000 31 83 97 bc 7d e0 49 3d b3 83 7e bd 8c a9 34 bd
       -0.018495174 0.049286354 -0.062137317 -0.044107005
000010 68 f4 9d bb a4 21 75 bd 6f 63 59 bd 78 85 04 bd
       -0.0048203953 -0.059846535 -0.053073343 -0.03235385
000020 34 98 c1 bc
       -0.023632146

decoder.0.1.running_mean f4 [9]
000000 7d e2 d5 bd f3 cd 1c 3d 58 8f 28 be 6f 44 24 be
       -0.1044359 0.038282346 -0.16460931 -0.1604173
000010 0f b3 82 3d 2e 38 a3 bd 0f d7 20 3d d3 c3 ac 3d
       0.06381809 -0.079697 0.039267596 0.08435788
000020 3b 55 0e bd
       -0.03474925

decoder.0.1.running_var f4 [9]
000000 0c 79 89 3e af 88 5d 3e 51 6c 7d 3e 3c ac 44 3e
       0.26850164 0.21634172 0.2474835 0.19206327
000010 21 90 31 3e e3 b5 74 3e 9d a4 c5 3e ac 3e 61 3e
       0.17340137 0.2389751 0.38602152 0.21996564
000020 5b ee 24 3e
       0.1610655

decoder.1.0.weight f4 [9, 18, 5]
000000 70 16 95 3d 6d e8 7d 3d 54 38 11 be de 03 87 bd
       0.0727967 0.061989237 -0.14181644 -0.065925345
000010 26 fc ab 3c e7 37 1b 3e f5 08 ef bb 40 dd eb bd
       0.020994257 0.15158044 -0.007294769 -0.115168095
000020 27 a8 42 bd 45 bf 47 bd 2a 8a 0d be f3 7d 02 be
       -0.047523644 -0.048766393 -0.13822237 -0.12743358
000030 0d 35 94 3d 75 0b 25 bb 3a 5a d3 bc 70 1a 91 bd
       0.07236681 -0.002518383 -0.02579986 -0.07085121
000040 76 ed 01 3d 08 e1 b5 3c 1c b9 63 3d be 30 77 bd
       0.0317206 0.02220203 0.055596456 -0.06034922
000050 ae 82 0f 3d 5d 8e 82 bd 7b f1 ed bc 78 28 c7 3c
       0.035036735 -0.0637481 -0.02904581 0.02431129
000060 0e c8 5c bb b6 d4 68 bb cb 05 b6 bb a4 2d 4a bd
       -0.0033688578 -0.0035527176 -0.00555489 -0.049359933
000070 e1 23 ce bb c3 85 07 3e 33 bf 53 bb df 1d a8 3c
       -0.006290898 0.1323462 -0.0032310009 0.020522056
000080 e2 ee b8 3d 94 b7 71 3d 43 25 80 bd 90 5d 56 bc
       0.09029938 0.059012964 -0.06257107 -0.0130838305
000090 84 0e 27 3d c6 bb f5 bb bd 29 66 3d 40 2c 71 bd
       0.040785328 -0.007499191 0.05619215 -0.05888009
0000a0 8b 36 8b 3d fd 03 33 bd fb ea b6 bb a4 62 77 3d
       0.067975126 -0.043704975 -0.005582211 0.060396805
0000b0 f7 88 35 bd ad 41 62 bc 50 45 d3 3c 5a 21 b5 3a
       -0.044320073 -0.013809604 0.025789887 0.0013819144
0000c0 8a 38 a2 3d d9 9f 13 3d d8 da 88 3d 71 c7 57 3c
       0.0792094 0.036041114 0.06682366 0.013170109
0000d0 4c 19 23 bd 39 49 00 bc 18 25 b9 3b 04 4e 0c bd
       -0.039819047 -0.007829958 0.005650174 -0.03425409
0000e0 cd 93 05 3d 9b a2 75 3d 66 70 4d 3d 38 e4 a7 bd
       0.032611657 0.059969526 0.05015602 -0.08197826
0000f0 f3 37 92 bd 97 bd 9e 3c 76 99 52 bd b3 6d bc 3d
       -0.07139578 0.019377513 -0.051415883 0.09200611
000100 c8 91 b4 3c 0e 14 5c 3c 31 a2 49 3e f0 c1 87 bc
       0.02204217 0.013432516 0.19690777 -0.016571969
000110 06 73 fc bd f6 af b9 bd d3 16 e5 bd 2d 8a 7c 3b
       -0.123266265 -0.09066765 -0.11185994 0.0038534508
000120 d6 1e d8 3c 02 ed 9a bc 8e 04 d8 bc 6b f2 75 3d
       0.026381891 -0.018911842 -0.02636936 0.06004564
000130 0a 86 15 3e d5 e2 d5 bd a8 20 86 3d 4c 72 26 bd
       0.14601913 -0.104436554 0.065491974 -0.040636346
000140 81 c5 2b bd 9c e0 cf 3b 07 ad 54 bd 44 f0 13 3e
       -0.0419364 0.006343914 -0.051922824 0.14447123
000150 08 1a 13 bd 2e d4 30 bc 0f c1 5b 3d 9e 81 9b bd
       -0.035913497 -0.010792775 0.053650912 -0.07593082
000160 8c 96 a3 bd 1c 48 bd 3c 68 de 0c bd 8c 89 2d 3c
       -0.07987699 0.023105673 -0.03439179 0.010591876
000170 57 de 57 3d 63 45 0d 3c e5 cf 6a 3d 47 0a f4 bd
       0.052702274 0.0086225 0.05732717 -0.11916023
000180 87 88 fe bd 26 84 2a bd 31 ae 7e 3d 5a 22 19 bc
       -0.12428384 -0.041629933 0.06217784 -0.009346569
000190 cc b1 ac bc 13 6b c7 3d 79 a2 c6 3d 1f 2c 4d 3d
       -0.021080874 0.0973722 0.09698958 0.050090905
0001a0 ff 73 ac bd 9a 21 52 3d bd be c0 3d ef 55 35 bb
       -0.08420562 0.051301576 0.094113804 -0.0027669629
0001b0 ae 4e 37 3d 51 74 26 3d 69 8b bc bd a4 88 1e bd
       0.04475277 0.04063827 -0.09206278 -0.03870453
0001c0 b1 e8 67 3c 18 c1 b7 bd 80 f8 d5 3c a9 5d be 3c
       0.014154599 -0.089723766 0.02611947 0.02323802
0001d0 ac d5 4e bb 0e e3 83 bd 32 cd 95 3d 90 59 8b 3d
       -0.0031560464 -0.064397916 0.073145285 0.06804192
0001e0 09 33 c7 bd 87 e5 94 bd 40 eb d0 bd 30 40 b1 3b
       -0.09726531 -0.07270341 -0.102011204 0.005409263
0001f0 a4 d4 cb 3d ca c1 d4 3c 71 2a b8 bc 7e fc c0 bd
       0.09952667 0.025971312 -0.022481175 -0.09423159
000200 f0 36 99 3d 81 ca db 3d 5e 2e b2 bc 08 f5 d8 3c
       0.074811816 0.10731984 -0.021750625 0.026484028
000210 5a 82 98 bd f8 94 57 3d b1 4a 14 3d ed 3a 8f bd
       -0.074467376 0.052632302 0.036204044 -0.06993661
000220 99 7d df bd 0b 21 8c bc 8e 05 61 3c 77 8f 57 3d
       -0.10912628 -0.0171056 0.0137342345 0.052627053
000230 12 f0 3d 3d 00 ac 9f 3d a5 d0 80 bc 14 16 8d bc
       0.046371527 0.07796478 -0.01572449 -0.017222442
000240 18 9b 9f 3c 26 2a 71 3d 8e 0a 30 3d 80 10 00 be
       0.019483134 0.058878087 0.042978816 -0.12506294
000250 ee a9 88 3c 9d 5a 5d bd 25 3a 99 bd 11 79 f1 3b
       0.016682591 -0.054041494 -0.07481793 0.0073691686
000260 0d 1c 46 bd 33 df 26 3e e1 89 04 3e 2a a7 2b bd
       -0.048366595 0.16296081 0.12943222 -0.041907467
000270 e3 35 5f b9 d9 b7 26 3d 0e 93 ae bb d8 af 84 3c
       -0.00021287012 0.040702675 -0.005327589 0.01619713
000280 59 7c e9 3c 06 a6 79 bd b9 df 90 3d 48 b1 2d 3c
       0.028501676 -0.060949348 0.07073922 0.010601349
000290 c9 0b 55 3d e6 f3 b7 bc 5a db 00 3e 19 11 64 bd
       0.052013192 -0.022455167 0.12583676 -0.055680368
0002a0 c8 41 17 bd 21 6f 12 3d 52 4d 5e 3d 87 56 b0 3c
       -0.03692797 0.035750512 0.054272957 0.021525634
0002b0 97 77 f4 3c 3b f8 0b bd 7d 9b 29 3d c5 d9 fe bd
       0.029842181 -0.034172278 0.04140805 -0.1244388
0002c0 c2 4f 35 3d 0d 5f 7c 3d a3 7b 65 bb a6 7d 48 bd
       0.044265516 0.061614085 -0.003501632 -0.048947953
0002d0 0f 2e d6 bd 65 72 82 3d 49 bc ee 3d e0 da 3d 3d
       -0.10458004 0.06369475 0.11657006 0.046351314
0002e0 ea 4e 5a bd ad 18 90 bd b2 19 31 bd b1 57 e4 3c
       -0.053297915 -0.070359565 -0.043237396 0.027873846
0002f0 6d ec 85 3d 56 29 c3 bc 4a b9 0e 3e b8 a7 aa bd
       0.06539235 -0.023823421 0.1393787 -0.08332771
000300 b7 09 07 bc 64 9a 42 bd 15 66 6a 3d e8 5d 8f 3c
       -0.008242062 -0.04751052 0.05722626 0.017500833
000310 2a cc bb 3d a1 17 0b bd 72 1b 31 bd cc 4d 01 bd
       0.091698006 -0.03395808 -0.043239065 -0.031568334
000320 13 15 eb 3d 78 ab da 3c af 04 12 bd d9 78 da 3d
       0.11478629 0.02669309 -0.035648998 0.10667581
000330 e2 d0 dd bd 7d 7c 4d 3d 72 54 c8 3d d6 77 19 3d
       -0.10830857 0.05016755 0.09781732 0.0374678
000340 bc ab 1a be 6d 20 c3 bd 3b b9 b2 3d b4 4b 6f bd
       -0.15104574 -0.09527669 0.08726736 -0.058421806
000350 88 33 32 3b 91 ce 59 3d e4 b8 77 bd 94 d7 aa bc
       0.002719136 0.053175513 -0.06047906 -0.020854749
000360 fd be a8 bd fd 7d 03 bc 2b 29 79 3d 5f 6d 2d bc
       -0.08239553 -0.008025643 0.060830276 -0.010585158
000370 3a 85 b3 3c 1a 80 8f bc dd 1b 19 bd b9 9b 98 3d
       0.021914113 -0.017517138 -0.037380088 0.07451577
000380 dd 86 c1 3c 17 1f 98 bb 19 55 c1 ba c9 a8 11 bd
       0.023623878 -0.004642378 -0.0014750093 -0.035561357
000390 59 07 b4 3b 1a 95 c2 3d e0 d6 84 bd 0c c3 09 3d
       0.00549404 0.09501095 -0.06486297 0.033633277
0003a0 84 8a b8 3d 46 39 5e 3c 30 b2 95 bc 5c ae 40 bd
       0.09010795 0.01356346 -0.018273443 -0.047041282
0003b0 99 3c d0 bb 47 64 41 3d 85 da 20 3e aa d6 97 3d
       -0.00635488 0.047214773 0.15708359 0.07413991
0003c0 3d 01 c3 bd 84 a1 b7 bd 66 4c 97 bc 39 ae 85 3d
       -0.095217206 -0.089663535 -0.018469047 0.06527371
0003d0 bd f5 48 bc c4 23 fb 3c f9 88 af 3c f8 f8 ff 3d
       -0.01226562 0.030656703 0.021427618 0.12498659
0003e0 a5 83 7e bc fc 1f 14 bd 95 9e aa bd c1 81 c2 bc
       -0.015534316 -0.036163315 -0.08331028 -0.023743512
0003f0 16 0b 56 bd b2 90 d6 bc 5b e0 95 3d 10 9d 06 3d
       -0.052256666 -0.026192043 0.07318183 0.03286463

decoder.1.0.bias f4 [18]
000000 65 ec 05 bd 35 13 ed 3c 9e 54 53 3d 75 46 7c bc
       -0.032696147 0.028939823 0.05159437 -0.015397658
000010 ef ce 35 bd 96 d6 d9 3d ff 3f 8b 3b 44 9b 38 3c
       -0.0443868 0.10636632 0.0042495723 0.011267487
000020 0e 5a ca 3c 92 d3 a6 3d 7e 70 86 bd ac 5f 0c 3c
       0.024701145 0.081458226 -0.06564425 0.008567732
000030 5b 03 a0 bd f9 3e 8b bd ac 1d cb 3d 6d 4e 09 3d
       -0.0781314 -0.067991205 0.09917769 0.03352206
000040 d7 99 ff bb b1 9a 97 3c
       -0.0078003216 0.01850638

decoder.1.1.weight f4 [18]
000000 fb d2 6d 3f 07 1a 56 3f 9d 3a 4a 3f 5d 91 5b 3f
       0.92900056 0.83633465 0.78995687 0.8576868
000010 79 07 7a 3f ab 38 5b 3f ac 9e 42 3f 02 ef 6e 3f
       0.9766765 0.85633343 0.76023364 0.93333447
000020 6e 33 81 3f f9 7f 6f 3f ec 43 77 3f 9a d6 5d 3f
       1.009382 0.93554646 0.96588016 0.8665558
000030 3c 2c 5b 3f 81 26 53 3f 31 3a 64 3f 7e ce 4b 3f
       0.8561437 0.8248063 0.89151293 0.7961196
000040 00 4b 2d 3f da f5 68 3f
       0.67692566 0.9100014

decoder.1.1.bias f4 [18]
000000 f9 43 2d bd 99 80 1d bd 49 c0 8b bc 15 03 06 bd
       -0.042301152 -0.03845272 -0.017059462 -0.032717783
000010 74 7c f6 bd 99 9f 45 bd 03 85 50 bd 7c bb 65 bd
       -0.12035456 -0.048247907 -0.0509081 -0.056087002
000020 97 61 75 bc 05 eb 1a bc 5a 62 93 bc 19 73 a6 bd
       -0.0149768805 -0.009455447 -0.017991234 -0.08127422
000030 ae cd af bd 09 98 af bd 85 6e b0 bc 5e 6d 81 bd
       -0.08584152 -0.0857392 -0.021537075 -0.06319688
000040 0a 20 4e bd ec a1 f1 bb
       -0.050323524 -0.007374039

decoder.1.1.running_mean f4 [18]
000000 99 6e cd bc 75 42 11 3c 74 a1 7c 3d 01 a8 b0 3c
       -0.025077151 0.008865942 0.06167741 0.021564486
000010 fb 81 be 3d 33 1d ab 3d 20 66 eb 3c fd 01 a8 bb
       0.093021356 0.08355179 0.02873522 -0.00512719
000020 d2 75 39 ba 61 00 e1 3c 60 67 b7 bd ed a1 b7 3c
       -0.00070747465 0.027466001 -0.08955264 0.02241608
000030 d1 f2 41 bd 8d 81 39 bd 69 32 93 3d a4 1d bd 3c
       -0.04735071 -0.045289565 0.07187349 0.023085423
000040 84 e0 72 3c bd 1c 04 bd
       0.0148240365 -0.03225397

decoder.1.1.running_var f4 [18]
000000 ff d6 39 3e 85 bc 12 3e 58 2f 17 3e ad 02 17 3e
       0.18148421 0.14329727 0.14764154 0.14747114
000010 c6 c7 7e 3e 8d ad de 3d 03 f0 03 3e 81 30 8b 3e
       0.24880895 0.10872946 0.12884526 0.27185443
000020 a2 a3 f0 3d ed b7 0b 3e c8 3b e3 3d 6f bf 23 3e
       0.117499605 0.13644381 0.11095387 0.15990995
000030 4c 99 1c 3e 90 43 31 3e 54 fb d1 3d 5e 06 c5 3d
       0.15292853 0.1731093 0.10253015 0.09620355
000040 4a dd 71 3d 44 44 ee 3d
       0.05904893 0.116341144

decoder.2.0.weight f4 [18, 36, 5]
000000 23 f4 1a 3d 9f b0 a5 3d d9 a4 8d bc 33 19 a9 bd
       0.037830483 0.080903284 -0.01729052 -0.082567595
000010 77 ec 90 bc 0d 72 89 bd 57 5e 77 bb 26 a3 04 bd
       -0.01769088 -0.067112066 -0.003774544 -0.032382153
000020 29 59 75 3c a8 1c cb bc 6e 06 f3 bc 2a 05 cb 3c
       0.014974871 -0.024793938 -0.029666152 0.024782736
000030 e2 12 bc bb 10 8e 9a bd a0 82 8d bd c5 67 67 3b
       -0.0057395557 -0.075466275 -0.0690968 0.0035309654
000040 82 0e e4 3c f3 6b 17 be 69 0e 91 bd e3 a3 d8 bd
       0.02783895 -0.14787273 -0.07082827 -0.10578134
000050 47 8f f3 bc 9d 9b ec bc 73 62 c2 bd af 97 b0 bd
       -0.029731406 -0.028882796 -0.09491434 -0.08622681
000060 41 95 1c bd d1 75 9a bd f1 f3 9f bd aa c9 0a be
       -0.038228277 -0.07542003 -0.078102 -0.13553491
000070 fd 09 d0 bd 16 f2 01 be 90 43 ec bc aa ad a4 bd
       -0.10158155 -0.12690005 -0.02884081 -0.08040936
000080 45 c2 4d bd d0 1b ab bd 01 31 88 bd c1 54 29 bd
       -0.050234098 -0.08354914 -0.06649972 -0.041340593
000090 30 0e c8 bc 87 dc f4 bd f1 d4 83 bd c6 7b 03 be
       -0.024420828 -0.11956125 -0.064371 -0.12840185
0000a0 42 a1 7b bd 03 cc c2 bc 2c b0 02 3d 57 4a eb bd
       -0.061433084 -0.023778921 0.03190629 -0.114887886
0000b0 fe 62 55 3c 28 d3 54 bd fe 22 89 bd 97 d0 98 bd
       0.01302409 -0.051959187 -0.06696127 -0.0746166
0000c0 6f 95 d6 bd f0 72 e3 bd 1c 7a 0d bd 01 21 2f ba
       -0.10477721 -0.11105907 -0.03454028 -0.0006680638
0000d0 78 12 73 bd d1 77 72 bd cd 16 71 3b f2 53 ce bc
       -0.059343785 -0.059196297 0.0036787272 -0.025186513
0000e0 37 4a ae bb 4c e1 8e bc 44 51 5e bd 89 96 43 bd
       -0.0053189057 -0.017441414 -0.05427672 -0.047750983
0000f0 97 1a f6 3d c2 c7 6a 3d 37 d5 ca 3d 7e 85 cf 3d
       0.1201679 0.05731941 0.09903949 0.101328835
000100 bd d9 ff 3c 0d 8b 96 bd fe 02 97 3c 7c 85 df 3b
       0.031231755 -0.073507406 0.018434044 0.0068213325
000110 59 82 c6 bb fe 59 cc 3b c7 64 97 bd ee d6 51 bb
       -0.006058019 0.006236314 -0.07392269 -0.0032018977
000120 43 5d 8f 3c e3 02 59 bc 64 4a 8c bd 1a a5 ab bd
       0.017500525 -0.013245317 -0.068501264 -0.083811
000130 73 90 85 3b 20 17 71 bb 2a 48 af bd dd 8c 92 bd
       0.0040760576 -0.0036787465 -0.08558686 -0.07155774
000140 e8 9f d2 bc 2c 7a 18 bc de a0 fd bd 57 94 e4 bd
       -0.025711015 -0.009306472 -0.123841986 -0.11161106
000150 28 5d ab bd 92 7e f3 bc e1 41 6b bd 60 1b 68 bd
       -0.083673775 -0.02972344 -0.057435874 -0.05666673
000160 b4 44 e3 bd d7 bc 73 bd 53 6b a6 3c 2c 7e e2 bc
       -0.110970885 -0.059506264 0.020314848 -0.027648054
000170 d4 0f ee bd b8 b7 ad bd 54 85 ef bd d0 3e 46 3c
       -0.11624113 -0.08482307 -0.11695352 0.012099937
000180 ea 7c 40 bd 13 2e 98 bd 17 a3 5b 39 f1 f8 00 bc
       -0.046994127 -0.07430663 0.00020946223 -0.007871852
000190 a3 15 0b bd e7 30 95 bd bc ed 7f bd 10 8c 48 bd
       -0.03395618 -0.07284718 -0.06248258 -0.0489617
0001a0 7c 87 8e bd 88 2c c6 3a 79 e7 71 bd 99 29 01 bd
       -0.06959435 0.0015119473 -0.05905864 -0.03153381
0001b0 0b 56 99 bd 1a 73 6f bd 14 57 44 bd 0f 3f 77 bd
       -0.074871145 -0.05845938 -0.047934607 -0.06036287
0001c0 99 7e 4e bd cd ff ab bd 5e a4 69 bd e2 1c 57 3c
       -0.0504137 -0.083983995 -0.05704152 0.013129445
0001d0 f9 68 a7 bd b3 ca 80 bd 66 91 e4 bc 2e d8 cb bc
       -0.08174319 -0.06288662 -0.027901363 -0.024883356
0001e0 3b 04 0b bd 8c 1d 1d be ce e2 28 be 09 33 e7 bb
       -0.03393958 -0.15343302 -0.16492769 -0.0070556444
0001f0 53 b7 d2 bc 23 d4 d9 bd 1f 98 bf bd f6 cc fd 3b
       -0.025722181 -0.10636165 -0.09355187 0.0077453805
000200 35 3a 09 be 29 29 46 bc e0 cb e9 bd 02 ad 98 bd
       -0.1340111 -0.012094774 -0.11415839 -0.074548736
000210 c7 ec c4 bd e4 74 4b bc d6 08 eb bd e5 f7 b3 3c
       -0.09615474 -0.012418006 -0.11476295 0.021968791
000220 0e a0 a9 bd 58 4d 8d bd 7b fe 26 bd 80 c4 be bc
       -0.08282481 -0.06899518 -0.040770035 -0.023287058
000230 2e 72 7e bc e1 a8 20 be dd 53 6f bc 40 19 c9 bb
       -0.015530152 -0.15689422 -0.014607397 -0.0061370432
000240 26 57 f7 bc 26 03 df bb ad c0 08 be a0 e0 01 be
       -0.030192923 -0.0068057952 -0.1335475 -0.12683344
000250 b5 10 b6 bc 77 36 9f bd 32 fa 59 bc 3d 63 57 bd
       -0.022224763 -0.0777406 -0.01330428 -0.052584875
000260 fb b3 96 bd cc 37 92 bc 38 da 37 3c f1 6c 39 3d
       -0.07358547 -0.017848872 0.011221461 0.04526991
000270 fd f5 08 bd c2 cc da bd 9e 9a cc bd fa 5a 29 bd
       -0.033437718 -0.10683586 -0.099904284 -0.041346528
000280 e3 22 b1 bc 67 e9 16 bc 21 b2 4b bd 30 51 7d bd
       -0.02162308 -0.009210921 -0.049730424 -0.061845005
000290 d9 6e 43 bc d6 f9 59 bd ee ab 50 bd e1 37 88 bd
       -0.011928284 -0.053216778 -0.050945215 -0.06651283
0002a0 04 fb 7c bd 4f ed 01 bc c0 b9 81 bb ac f1 4b bd
       -0.061762825 -0.007930114 -0.0039589107 -0.049791023
0002b0 ff ec 50 bd 99 ad 15 3d 7f db 2a bd 1d 4d c8 3c
       -0.051007267 0.03654251 -0.041713234 0.024450833
0002c0 8d d8 ab bc 4d d5 1a bd 6b cd f5 3a c7 9f 8f 3c
       -0.020977283 -0.037801076 0.0018753236 0.017532242
0002d0 34 7b 9a 3b e0 35 a5 bc 57 1c 2a 3c 7e 9d 04 bd
       0.004714394 -0.020167291 0.010382733 -0.03237676
0002e0 cf 7b ed 3a 2e 73 ce bc de fb ae bd 80 ea 61 bd
       0.0018118563 -0.025201406 -0.085441336 -0.055155277
0002f0 8d bb ad 3d 94 13 8c 3d 2b da e5 bc 4e ca 00 3d
       0.08483038 0.06839672 -0.028058132 0.031442933
000300 55 c3 2e 3d 5c 5c 2d bc 80 01 9d bc c9 d5 8c 3c
       0.042666752 -0.010581102 -0.019165754 0.017191784
000310 1e 7a f3 bc ff fa 2d be 50 51 9e 3c 92 12 9c 3d
       -0.029721316 -0.16990279 0.019325882 0.076207295
000320 ba 13 62 bc eb ea 10 bd 48 7a 41 bd 67 b4 aa 3d
       -0.0137986485 -0.035380285 -0.047235757 0.0833519
000330 48 4f bb 3d 28 bb 05 be 67 56 85 bd 9a 82 83 bd
       0.09145981 -0.13059676 -0.065106206 -0.06421395
000340 c8 84 f0 3d ff c6 6a 3d 12 4f 2f bd 29 4c 47 bd
       0.11744076 0.057318684 -0.042800017 -0.048656616
000350 b4 a0 07 be aa b6 b2 3d 61 a0 07 3e 0f d5 42 bd
       -0.13244897 0.08726247 0.13244773 -0.04756647
000360 73 ff a3 bd 68 aa 2d be ac 70 b2 3c c2 4f 54 3e
       -0.080077074 -0.16959536 0.021782242 0.2073355
000370 ec 82 67 bd 9f 97 b4 3c 02 29 d0 bd 21 66 16 bd
       -0.05652134 0.022044955 -0.101640716 -0.03671849
000380 10 12 f6 3d 40 da 9c bd 0b fc 53 bd 1f 22 22 be
       0.12015164 -0.076588154 -0.05175404 -0.15833329
000390 5d ce f2 3d 87 0b 7d 3e 38 72 80 bd 8d 11 4d bd
       0.11855767 0.24711429 -0.062717855 -0.050065566
0003a0 3b 6d 9c bd 74 ec e0 3d b1 64 43 3d 7d 6c 71 bd
       -0.076380216 0.109826 0.04770345 -0.058941353
0003b0 fc ae f6 bc 57 5a 29 be 25 1c af 3d 54 35 e3 3d
       -0.030112736 -0.16538368 0.0855029 0.11094156
0003c0 32 ad 04 be a5 7f d6 bc e8 ee 40 be 5e 7b e7 3d
       -0.12956694 -0.026183913 -0.18841136 0.11302827
0003d0 78 00 2d 3e c8 54 df bd 82 e3 ad bd ff 74 ec bc
       0.1689471 -0.109048426 -0.08490659 -0.028864382
0003e0 ad 77 04 3e 0c 18 e6 3c 46 1a f6 bc c2 92 ae bb
       0.12936278 0.028087638 -0.030041825 -0.0053275535
0003f0 bb b6 29 bd 56 39 4a 3d 75 93 37 3b 69 13 95 3c
       -0.04143403 0.049371086 0.0028011475 0.018197732

decoder.2.0.bias f4 [36]
000000 2e 3f b4 bd 86 de c3 bd c0 2c 9b bc b2 11 ac bd
       -0.08801113 -0.09563927 -0.018942237 -0.084018126
000010 ec 43 87 bd f9 18 3e bd 42 77 66 bd 93 05 16 be
       -0.06604752 -0.046410535 -0.056266077 -0.14650564
000020 34 57 32 bd 34 62 02 be bd 47 17 be 1b ac 02 be
       -0.043540195 -0.12732774 -0.1477346 -0.12760966
000030 a2 b9 3b be d0 62 d0 bd e0 80 0a 3e 8b 91 27 3e
       -0.18332532 -0.10175097 0.13525724 0.16364114
000040 dc 00 41 3d e1 18 22 3d 53 2f 91 3c ff ed 57 3c
       0.04711996 0.039574508 0.017722761 0.013179301
000050 34 ec 70 bc 02 02 de bc d1 0b e5 bc 5d 57 4e bd
       -0.014704753 -0.027100567 -0.027959736 -0.050376285
000060 e4 62 3c be 8d e0 c2 bd c4 2f e3 bd cb 1e 83 bd
       -0.18397099 -0.09515486 -0.11093095 -0.06402358
000070 25 96 96 bd db 55 af bd 16 f6 6a bd 07 99 cf bd
       -0.073528565 -0.085612975 -0.057363592 -0.101366095
000080 6f cd 1d bd 58 96 2e bc f3 2d 01 bc 36 82 78 bd
       -0.038525995 -0.010655962 -0.00788449 -0.060671054
