trained_models/6AF6:39A3:67DB:4278.pt (torch, 59123 bytes, 55 tensors)

encoder.0.0.weight f4 [18, 36, 5]
00000000: f04c 27bd f6a9 80bd bf0f 64bd 9a3f aebd
00000010: 909b 6bbd eb77 94bc f4cc 84bc b86c 67bd
00000020: 9018 22bd 7b45 4c3a 4c7c 9c3a f742 e33c
00000030: 69e5 80bc 1b62 0abd 9d48 2c3d 8e0a 1cbd
00000040: b47a 0f3d 8057 aebd 7b36 093d 145e a5ba
00000050: 8c23 933c 3b64 ac3c 163a c0bd a8df 5c3c
00000060: e4df 4b3d 96f8 33bd 5ec8 43bd 2ff0 7ebc
00000070: c2b7 343d 8faf 57bd 9e80 77bd c950 6c3d
00000080: 9ad1 1b3b bf40 0e3d db6f 5bb9 2e88 1dbd
00000090: 42a1 5f3c 9658 8f3b da7c 333d d5ca ac3d
000000a0: 4cb3 a6bb 3383 4d3d f291 b7bc 03f3 4e3d
000000b0: a193 773d 1644 e63c 5a20 723d 6561 8cbd
000000c0: 2e85 853c 58cd 8d3d 9299 30bd cf55 fb3c
000000d0: 32ad 643a e97f 04bd 3e3d 29bb e067 153c
000000e0: 12a9 6d3d 8acd 53bd 9797 32bd 95d7 9a3c
000000f0: 12f1 2dbd ee82 52bd 82c6 283c 1a05 4e3d
00000100: 69b7 1abd 71ed 083d 4fd0 4ebd 4bf8 6cbc
00000110: 2da0 0bbc 6412 f83c 44c7 0bba 842f f1bc
00000120: 2102 e0bc 773c 24bd a770 0bbd c223 323c
00000130: 9553 f73c 79da bcbd d82f 0f3b e106 d6bd
00000140: de84 8bbd cf7d 00bd 5bbb e8bd 229c 0abe
00000150: 7235 03be f8a5 d3bd 8bae 8fbc 77c1 d4bd
00000160: a034 95bd d851 3dbd 99a1 8ebd bdfd 5ebd
00000170: d744 3dbd 3e47 a0bc 09ac 27bd a69d c3bd
00000180: cf73 06bd cf74 de3c 352d 3ebc c0a2 063d
00000190: dfe2 fb3c bfbc a9bd 9388 a8ba 8149 a7bd
000001a0: 5ae5 b3bc 2130 033d ff81 47bd 2678 123d
000001b0: b50c b0bd a934 503d 0665 2abc eb16 97bd
000001c0: f7ce 96bc e394 a1bc 3a42 c23b 4cf2 31bd
000001d0: 6374 c3bd 4356 d73c 5e99 15bd d339 1bbd
000001e0: 433e c83c bbbd 8abd 5547 0ebd ae7d 67bd
000001f0: 2e6a 1abd d263 273c 13b4 35bd a016 4d3c
00000200: 00bb ba3c dc21 853d 4634 62bc 008a 6cbd
00000210: bf47 b9bd eb8d 8dbd 31cd 85bb 9a22 613d
00000220: 0100 1d3d 5860 b7bd 4b6a 793c 49ce 7a3d
00000230: 18df 2b3d 2bb8 2cbc 68ab 143d 2900 e43c
00000240: 62de f8bc d146 5b3d c47b 20bd d0c4 40bd
00000250: 544e 98bd e519 c3bb 8329 363d ef81 9bbd
00000260: 392f 8cbd 746f 2fbd 7f64 4539 b185 483d
00000270: 6456 96bb 05b3 bdbd 81c6 113c ca19 023d
00000280: 8840 693d 64c9 3fbd 2acf aabc 8c43 b0bd
00000290: 85b1 fe3c 4953 803c d134 1bbd 81f5 65bd
000002a0: f449 113d f7c3 973c dcac be3c 1b5f 20bd
000002b0: a578 8bbd 8311 87bd 4ce1 6ebd a8c8 973c
000002c0: 4e23 08bd 806a 9dbd d524 bfbd 13d7 24bd
000002d0: 2535 ac3c b0f0 653d f3ab 88ba a687 a1bc
000002e0: 5e15 173c 0706 abbc 237d 53bd 0811 c53c
000002f0: 5fb9 923d d79c 593d c975 c8bc feec 243d
00000300: 4bf9 b73c 0553 85bd 9edf a23c cc69 c83c
00000310: 050d a13d df02 af3d 9512 1e3c a3aa 913d
00000320: ee25 853d b026 393d 55cb 883d 8c92 fa3c
00000330: 43f0 523d f4e5 37bd c239 d63c ec58 b93c
00000340: 1de5 07bb 800d 1dbc 18d5 a43d baf8 9c3d
00000350: e201 a23d 166d 933c 5dc4 d53d 2e8a 9e3d
00000360: c2b3 a93d 19f4 533d 1a83 313c 958a 2b3c
00000370: 7cd1 a7bc 2ef4 c53d ab77 123d 703b 953d
00000380: fd08 193d 9b2a c9bc 3045 913d 6641 143d
00000390: 6c1f e83c 566a a9bc 2234 a9bc 334d a03d
000003a0: 7c96 68bc 8046 1ebd 5824 cebc 1da0 283c
000003b0: 8230 d23c 7e79 2abd a9ce a63c 3321 2ebd
000003c0: 89cc 6e3d d779 073d be8f fc3c 4a43 373d
000003d0: 7e5a e03b 91e8 b0bc 2a07 5a3d 0f6a f33b
000003e0: e8d0 a03d 1c8f 783c c964 9abc 096a 80bd
000003f0: 7f47 99bd 39f8 b7bd 7c63 cfbd d93f e6bc
-0.040844858 -0.062824175 -0.05567908 -0.08508225 -0.057521403 -0.018123588 -0.01621101 -0.056500167
-0.039574206 0.0007792336 0.0011938899 0.027741892 -0.015734391 -0.033784967 0.042061437 -0.038096003
0.03502913 -0.08512783 0.033499222 -0.0012616538 0.017961286 0.021043887 -0.09386079 0.013481058
0.049774066 -0.043938242 -0.047798507 -0.015560194 0.044120558 -0.05265766 -0.060425393 0.05769423
0.0023776055 0.034729715 -0.00020927137 -0.03845995 0.013649287 0.004374574 0.04382024 0.08437125
-0.005087292 0.05017395 -0.02240846 0.050524723 0.060443524 0.028108638 0.059112884 -0.06854514
0.016298857 0.06923932 -0.043115206 0.030680565 0.0008723318 -0.032348547 -0.0025823857 0.009119004
0.058022566 -0.05170969 -0.0436016 0.018901626 -0.04246623 -0.051394396 0.010301234 0.050297834
-0.03777257 0.033429567 -0.050491627 -0.0144634945 -0.008522076 0.030282207 -0.0005332122 -0.029441603
-0.027344765 -0.040096726 -0.03404298 0.010872783 0.030191222 -0.09221358 0.0021848585 -0.10450531
-0.06812452 -0.03136998 -0.1136386 -0.13536122 -0.12813357 -0.103343904 -0.017539283 -0.10388463
-0.07285428 -0.04622063 -0.06964416 -0.054441202 -0.04620823 -0.01956522 -0.04093555 -0.095515534
-0.032825287 0.027155308 -0.011607458 0.032870054 0.030747829 -0.082879536 -0.0012858085 -0.08168317
-0.02195995 0.03202832 -0.04870796 0.035759114 -0.08596174 0.05083147 -0.010400062 -0.07377418
-0.018409235 -0.019724315 0.005928305 -0.043443963 -0.095436834 0.02628625 -0.036523215 -0.037896942
0.024443751 -0.067744695 -0.034735996 -0.056516342 -0.037698917 0.01021667 -0.044361185 0.012517601
0.022794247 0.06500599 -0.013806408 -0.057748795 -0.090468876 -0.06911834 -0.0040832986 0.05496464
0.03833008 -0.08953923 0.015223096 0.061231885 0.041960806 -0.010541956 0.03629628 0.027832108
-0.030379478 0.053534333 -0.039180532 -0.047062695 -0.07436815 -0.0059540146 0.044473182 -0.07593142
-0.068449445 -0.0428309 0.00018824822 0.048955623 -0.0045879353 -0.09262661 0.008897425 0.031762876
0.056946307 -0.04682292 -0.020850737 -0.086066335 0.031090507 0.015664713 -0.037892167 -0.056142334
0.035470918 0.01852606 0.023275785 -0.0391532 -0.068101205 -0.06595137 -0.05832033 0.018528298
-0.033236794 -0.07686329 -0.09333197 -0.040244173 0.021021435 0.05613774 -0.0010427221 -0.019718003
0.009221403 -0.020876897 -0.05163301 0.024055973 0.07164263 0.05312809 -0.024470227 0.040265076
0.02245774 -0.06509975 0.01988202 0.02446451 0.078638114 0.085454695 0.009647985 0.071126245
0.06501375 0.04520291 0.066794075 0.030587457 0.051498663 -0.044897035 0.026150588 0.022625409
-0.0020735927 -0.009585738 0.08048457 0.07664628 0.07910515 0.017996352 0.10437844 0.077411994
0.08286239 0.05174646 0.01083448 0.010470052 -0.020485632 0.09665714 0.035758656 0.072867274
0.037362088 -0.024556449 0.070932746 0.03619518 0.028335296 -0.020680588 -0.020654742 0.078272246
-0.0141960345 -0.038641453 -0.025163814 0.01029208 0.025657896 -0.04161977 0.020362215 -0.04251213
0.05830053 0.03307518 0.03083026 0.044741906 0.006846725 -0.021595271 0.05322949 0.0074284147
0.07852346 0.015170839 -0.018846886 -0.062702246 -0.0748434 -0.089828916 -0.10126397 -0.028106617

encoder.0.0.bias f4 [18]
00000000: 6d5e 98bc fd04 93bd 639a 37bd 5b84 e0bc
00000010: f3ae 7d3d 95b3 db3c ced2 1ebd 22bb 7c3d
00000020: f13f ac3d 9214 5ebb 32fb 823c ab65 253c
00000030: bb93 b03c a6c5 173d c130 c6bd e5f3 a83d
00000040: 12d8 733b 2c2c af3c
-0.018599713 -0.07178686 -0.04482497 -0.027406862 0.061934423 0.02681903 -0.038775258 0.0617019
0.08410633 -0.0033886773 0.01598892 0.01009504 0.021554818 0.037053727 -0.09677268 0.08249644
0.0037207645 0.021383367

encoder.0.1.weight f4 [18]
00000000: e20c 653f c3f4 773f 9c7b 723f 3f88 7e3f
00000010: 326c 8f3f ba89 9b3f d949 3e3f bea2 803f
00000020: c9a7 5c3f 8a8a 803f 6e55 7a3f 4bf3 743f
00000030: f281 783f 4625 6a3f 170a 3e3f 8ccc 723f
00000040: 39eb 623f 3f36 9d3f
0.8947278 0.9685785 0.9471986 0.99426645 1.1204894 1.2151406 0.7433143 1.0049665
0.8619352 1.0042279 0.97786605 0.95683736 0.9707328 0.91463125 0.74234146 0.94843364
0.8864017 1.228218

encoder.0.1.bias f4 [18]
00000000: 7fb0 14bd 95ac d7bc 5bbe 69bc a40f 52bd
00000010: f332 1ebd fdca 193d 86fc 56bc 259c e03b
00000020: da7d e03b 2203 ccbb 1cb0 16bd 659c 10bd
00000030: d8ff 903c da3d 83bc 9e57 07bd 0e9d fc3a
00000040: bc02 87bc f85c 53bd
-0.036301132 -0.02632741 -0.014266576 -0.051284447 -0.038622808 0.0375471 -0.01312173 0.0068545514
0.00685094 -0.0062259594 -0.036789045 -0.0353054 0.01770012 -0.016020704 -0.033042543 0.001927288
-0.016480796 -0.051602334

encoder.0.1.running_mean f4 [18]
00000000: 02f7 c63e 6fea c2be 43fe e33e c7e7 443f
00000010: f0a6 53be b023 28be e0c1 123e 6b21 67bf
00000020: cd00 55bf 9e61 0cbf 9dc3 ebbe 1686 333f
00000030: b4b2 54be 80d6 c2be e4ca 83be 7ec4 9e3e
00000040: 80be 85bf f884 7fbe
0.38860327 -0.38069484 0.44529924 0.76916164 -0.2066915 -0.16419864 0.1433177 -0.90285367
-0.83204347 -0.5483645 -0.4604768 0.70126474 -0.20771295 -0.38054276 -0.2574073 0.31009287
-1.0448761 -0.24953067

encoder.0.1.running_var f4 [18]
00000000: 4fda 343a 71c8 093a 4a68 0b3a d7f6 453a
00000010: 0c26 ce39 c924 ab3a 39b8 0d3a 6986 e33a
00000020: 2c8c 563a 4210 b23a cb18 e839 fe31 713a
00000030: 47ea 493a e6f4 0a3a 5c13 db39 b0ce 613a
00000040: 8171 813a 249d 493a
0.00068989856 0.00052560034 0.00053179695 0.00075517356 0.0003931973 0.0013057227 0.00054061745 0.0017358783
0.00081843394 0.0013585167 0.0004426896 0.000920087 0.00077024515 0.0005300775 0.0004178536 0.00086138677
0.0009875746 0.0007690957

encoder.1.0.weight f4 [9, 18, 5]
00000000: fd41 56bd de11 0b3d 4b3e ebbd 6619 573d
00000010: e477 9c3d df9b 78bd 4eea b13c 8932 e53c
00000020: 1861 213d bd56 a0bd 581b c1bc 2c93 6d3c
00000030: d33b 933d e83d 60bd f992 fa3b 41ec 933d
00000040: 7349 be3d 5902 3b3c 568b e43d e7bb 6e3d
00000050: c863 21bd 3a04 9c3d 9b2c 10be 5ebd af3d
00000060: 223c bb3c 1bba e2bd d39c 2b3d 921b 99bd
00000070: fddf b43d a101 4cbd f623 e03d 8e11 99bc
00000080: 17f7 49bd 49bf a1bc 28a0 dbbc 9952 4cbd
00000090: fda4 2c3d 65f5 28bc 94b6 23bc addc 12bd
000000a0: b877 05bc 1578 32bd 195e 033d 9ac2 813c
000000b0: 52a8 a7bc c7cb 183d cfa4 2e3d 3f6d cb3c
000000c0: 07f6 903d 3d5e 79bc 55ce 203d 0089 56bd
000000d0: 8943 f8bc e314 343d af75 d63c 9142 85bd
000000e0: 2158 43bd 593d 5a38 7f5c 153d 3beb a93d
000000f0: 1731 0e3d 0a82 d4bd 846a a93d 717c f5bc
00000100: 16ba 803a e844 e7bb 9203 45bd 0447 6d3d
00000110: 9a82 3cbc f81a a73c 013a 12bd f3d0 c7bc
00000120: 11af 5a3d d4f6 a6bd da76 9f3d ab8b 69bc
00000130: e28a 4f3d 0132 7cbd ee48 983c 2199 b6bc
00000140: 5a1f 4b3d e38b 33bd 2587 38bd 01f3 8c3d
00000150: 3bf9 75bc 133c 1e3d 8e26 18bd 3705 3c3d
00000160: 86d5 78bd 37e6 aa3b 2429 183d d4a4 e0bb
00000170: c0f1 8c3d 6f3f b0bc 68f7 8dbd 9a50 30bc
00000180: 4626 5b3c 1234 9cbd d3d7 003a 8d33 4bbd
00000190: 16fd 08bd 260d a83d 7fac c5bd 67ea 5b3b
000001a0: 86a1 223c 29df bfbc 24c1 72bb e844 ca3b
000001b0: 163a 3cbd 8b91 ac3b 4dee ad3d 933a e7bd
000001c0: f8e5 ce3d 0d0c 033d 71ae 2cbe 5779 a83c
000001d0: 07e9 3f3c cb62 8b3d c2f1 e73c 6148 a2bc
000001e0: 346e 1cbd 33e3 913d af20 f1bd edce 1f3d
000001f0: aa6a 243d 8714 43bd 4780 1c3d d6f4 903d
00000200: 9f4c 7abc 9338 e63d b9b4 9bbd 9b6e efbc
00000210: a4ca 623b c78f 00bd 961d 353d 1aaf bf3d
00000220: 6897 fdbc 2ade 053e 8f1c a2bd 4a20 fb3c
00000230: 7f57 99bd ae42 f4bc 69c1 013d b625 debd
00000240: e254 8fbc 2690 643d 4cc5 9aba eca6 1d3c
00000250: cf5f bcbc 88df 90bd 6c73 a43d d991 78bb
00000260: 1548 4ebd 0a01 663d 7f3d db3d 66e6 63bd
00000270: 102c f3bb c4e8 07bd e0a4 9f3d c736 9ebc
00000280: 83b3 c83d 924d 37bd 2e6f 85bd 7f83 4a3c
00000290: 4509 04bd dbb5 63bd 698c 843d 2f93 b83c
000002a0: d1ff c9bc 67e2 8b3b c27c adbd 4740 2c3d
000002b0: 5e8c 243e dd65 d03a fa34 42bd 0c71 35be
000002c0: fc5c 243e 73d2 dbbd b011 4c3d 6f56 813d
000002d0: c310 47bb 01bc a23d 383a 0e3d 9795 933c
000002e0: bc82 31bd 4914 843c 3658 f83c c5fc 9ebd
000002f0: 3ff9 6a3d f9ed af3d bd7b 0d3e e77d 0bbe
00000300: 3b46 713d 5bba db3b 7e2b 71bc b139 0bbd
00000310: 7fc4 863d 0d89 be3c 699a 0a3b 6fc1 4abd
00000320: 2005 80be 3359 293e f39f 5b3c 2b84 35be
00000330: 700b 9f3d f529 cbbd 1cf7 0e3e 6cdf 743d
00000340: 6462 63be 05a1 fbbd c253 2c3d 94cb bb3c
00000350: ae25 443d 71c4 88bd 2531 f93c 116e c33c
00000360: be39 6bbc 653e 89bc 0ea3 ad3d 201f 223e
00000370: eeb6 323d ca33 92bd 1063 87bc 2c29 bbbd
00000380: 95c2 e1bb f8ec 963d 67cf 95bc c428 7fbd
00000390: f9a5 07bc 2738 1fbc afa0 ba3c 5066 b5bc
000003a0: d008 7a3d cf23 8c3d 87b9 e93d db6c d53d
000003b0: 102e 9c3d f49c ae3d 235e 273d 3bb2 6fbc
000003c0: c507 57bd b49e 8e3c 3843 21bd b07d eebc
000003d0: e52f 03bd b2b8 21bd 74c8 7ebc 314a 89bd
000003e0: 19af 1fbd 45eb 51bd 9772 d3bc 55fe 18bd
000003f0: 9a02 823d 6e03 e33b 55e5 50bd 7c73 253d
-0.052309025 0.033952586 -0.11486491 0.052514456 0.07640055 -0.060695525 0.02171817 0.027978199
0.039399236 -0.07829044 -0.023572609 0.014500421 0.07189145 -0.05474654 0.007646915 0.07222796
0.09291353 0.011414134 0.11159389 0.058284666 -0.0394018 0.07617994 -0.14079516 0.08581041
0.022855822 -0.11070653 0.041897606 -0.07475962 0.08831785 -0.04980624 0.10944359 -0.018685129
-0.04930791 -0.019744532 -0.026809767 -0.04988346 0.042149533 -0.010312413 -0.0099922605 -0.035854984
-0.008146219 -0.04357155 0.03207216 0.015839864 -0.020466004 0.037303712 0.042637642 0.024832366
0.07078176 -0.015220222 0.039259274 -0.052376747 -0.03030564 0.04396523 0.026179163 -0.06506837
-0.04769147 5.2032385e-05 0.036465164 0.0829682 0.034714784 -0.103763655 0.08272269 -0.029966565
0.0009821083 -0.007057775 -0.048099108 0.057929054 -0.011505747 0.020398602 -0.035699848 -0.024391627
0.053389613 -0.081525475 0.07786341 -0.014254491 0.05066956 -0.061571125 0.018589463 -0.022289814
0.049590446 -0.04383458 -0.04505076 0.06882287 -0.015013034 0.03863151 -0.037146144 0.04590341
-0.060750507 0.005215432 0.03714861 -0.0068555865 0.06882048 -0.021514622 -0.069319546 -0.010761404
0.013375824 -0.07627119 0.0004914973 -0.04960971 -0.033444487 0.08205633 -0.09652042 0.0033556463
0.0099262055 -0.02342184 -0.003704139 0.006172765 -0.045953833 0.0052663735 0.08492718 -0.11290469
0.10102457 0.031993914 -0.16863419 0.020565672 0.011713273 0.06805953 0.028313521 -0.019809904
-0.038191035 0.07123413 -0.11773812 0.0390157 0.040140785 -0.047627 0.038208272 0.07077949
-0.015277057 0.112412594 -0.076028295 -0.029227545 0.0034605647 -0.031387117 0.04421767 0.0935957
-0.030955985 0.1307303 -0.07915603 0.030655045 -0.07487392 -0.029816952 0.03167859 -0.108470365
-0.01749653 0.055801533 -0.0011808067 0.009622317 -0.022994904 -0.07073885 0.080298275 -0.003792873
-0.05036171 0.056153335 0.10705089 -0.055639647 -0.007421024 -0.033180967 0.07795119 -0.01931323
0.09799864 -0.04475171 -0.065153465 0.012360453 -0.032235403 -0.055593353 0.064720936 0.02253112
-0.024658116 0.0042689326 -0.08471061 0.042053487 0.16069171 0.0015899498 -0.047413804 -0.17718905
0.16051096 -0.107334994 0.049821556 0.06315314 -0.003037498 0.07946015 0.03472349 0.018015666
-0.04333757 0.016122954 0.0303155 -0.07763056 0.057366606 0.085903116 0.13816734 -0.13622247
0.058904868 0.006705565 -0.014719842 -0.033990566 0.065804474 0.02325871 0.0021149165 -0.04950088
-0.2500391 0.16537933 0.013404834 -0.177262 0.077658534 -0.09920112 0.13961452 0.059783384
-0.22205502 -0.122865714 0.042072065 0.022924222 0.047887497 -0.06678093 0.030418942 0.023856195
-0.0143570285 -0.016753385 0.08478366 0.15832186 0.043631487 -0.07138784 -0.016526729 -0.09138712
-0.006889651 0.07369417 -0.018287374 -0.062294737 -0.008279317 -0.009717978 0.022781698 -0.022143513
0.06104356 0.068427674 0.1141234 0.10421153 0.07625973 0.0852603 0.04086126 -0.014629896
-0.052497644 0.01740966 -0.039370745 -0.029112667 -0.032028098 -0.03948278 -0.015550721 -0.06703604
-0.038985346 -0.05124976 -0.025811477 -0.037351925 0.063481525 0.006927899 -0.050999958 0.040393338

encoder.1.0.bias f4 [9]
00000000: 2187 f2bb 1d53 bb3c 5886 52bc 334a 17bd
00000010: e94a 193d b58d 993d 6fa0 19bd b69b 273c
00000020: a3e1 c8bd
-0.0074013625 0.02286678 -0.012849413 -0.036935996 0.037424956 0.074977316 -0.037506517 0.0102299955
-0.09808662

encoder.1.1.weight f4 [9]
00000000: eebc 6c3f 3e10 713f 7645 0a3f e18a 433f
00000010: fcc1 503f c91c 553f 04a9 623f c4ca 6b3f
00000020: 78ee 7f3f
0.92475784 0.9416541 0.5401224 0.7638379 0.81545997 0.8324705 0.8853915 0.9210627
0.9997325

encoder.1.1.bias f4 [9]
00000000: e36b 013b 3aff e7b9 cb32 8bbd 9c6f dbbc
00000010: d197 7bbc c231 f63c 56d7 243c 5405 b6bd
00000020: 8858 d6bb
0.0019748143 -0.00044249912 -0.06796797 -0.026786618 -0.01535602 0.030053023 0.010061106 -0.08887735
-0.0065413155

encoder.1.1.running_mean f4 [9]
00000000: 644e acbd 1fc3 103e a97e 39bc 6601 0fbe
00000010: c04e 24bc bfaf 603b e336 0cbd 23d0 e33d
00000020: 2550 0ebe
-0.08413389 0.14136933 -0.011321702 -0.13965377 -0.010028541 0.003428444 -0.03423203 0.11123683
-0.1389776

encoder.1.1.running_var f4 [9]
00000000: c5b3 6e3e 9d12 dd3e 2b36 643e a356 d53e
00000010: 5774 8f3e a20f cb3e f179 003f e9c5 8f3e
00000020: 5567 0f3f
0.23310764 0.43178263 0.22286288 0.4166766 0.28018448 0.39660364 0.5018607 0.2808068
0.5601705

encoder.2.0.weight f4 [5, 9, 5]
00000000: b20f ae3d 2b80 b13d 1ac7 c0bd 145a 8f3d
00000010: b974 e23d ea53 c43d 45e0 c93d ec97 eabd
00000020: dd59 cabd 96ea 543b 5af9 6d3a a468 c83d
00000030: 128b 90bd eb5b fb3c 94ee 033e e9a1 353e
00000040: 736e 183e 3303 943d e050 9ebd c4c1 5c3c
00000050: 7d04 ed3d 42dc 193e 44e7 e93d 9454 1dbd
00000060: 3e75 203e 3b90 153d 4ee6 503d 5bb0 a1bc
00000070: 49d0 ec3c ee82 b5bd c487 213e 6665 23bd
00000080: 4d07 903c 1ae8 87bd 5b6d 9a3d 8afc d03b
00000090: 4520 1f3c 10dd 1b3d 6af0 733d ad4d 943d
000000a0: 5de3 88bd 5f65 78bc 7018 de3c 8cf8 07be
000000b0: 7989 3a3d a0bd fcbc 036e 70bc 588f 4ebc
000000c0: 6f11 cfbd 371a ea3d c4d2 d6bb 570f c2bd
000000d0: 5a50 203e 4fab b63c 59bc 5abe 5c8e 963d
000000e0: 9f48 a9bd 0770 87bd 5337 4cbd 279c 303d
000000f0: 5868 e9bd e5d6 9cbd 40e8 943e 7ecb 0cbe
00000100: 99e9 c1bd 693f 643c 7a3b 16bc 19d1 883d
00000110: de68 08be 119c 5ebd 85f8 b93c 7c5c cfbd
00000120: a152 33bd 5914 033e b0ae dc3d ddff da3d
00000130: d0c4 94bd 981e 0ebe 7e0a f4bd dcdb 083e
00000140: 540e 7ebd b899 debd 1177 2d3d 22a3 843d
00000150: de1d 90bd 22b9 aabd 24c9 a53d 06e9 b73d
00000160: a2a4 143d 00d9 af3d 0ab6 67bd ddfd 18bd
00000170: d786 aa3d 3658 1a3e b46e e83d fb66 f7bb
00000180: 61b1 2dbd 6c6a d7bb 0609 033e 750f 64bc
00000190: 87a3 193d 211c d53d 0705 7dbd 1761 9cbd
000001a0: 5884 3c3d eb85 febd 0b7f 58bd 22e1 af3d
000001b0: 0e1e 7bbd da56 89bd dea0 48bd dc94 0abe
000001c0: 7cbd 0cbc 1d02 e7bd 2cc3 9e3b cafa acbd
000001d0: c05d 443d c883 303c 8182 eb3d 5570 883d
000001e0: 9c47 e7bd 6ab7 2d3d 812c 32bd 16d6 61bd
000001f0: 3670 21be 791f ca3d f027 9abd 8fbc ee3d
00000200: 0918 c63d 801e ba3d 8607 74bd b3f1 30be
00000210: 87bb c2bd db39 633d d892 7c3d 3b8b 07be
00000220: 32bc 6dbc 7193 853d 6775 1bbe 7c38 11be
00000230: ff77 d3bc 7cfb b33d 18a3 1c3e bae6 0e3e
00000240: d425 58bd 6c4c 9cbd 00f7 b9bc 6d21 22be
00000250: a626 b03d 3f47 e1bd 38fc b5bd c973 42be
00000260: 08df 33be 3fdf 893c 6a3c 3bbd ff37 2bbe
00000270: 4569 e8bd 5879 603d c486 ccbc d731 f1bd
00000280: 27a1 d7bb 73fd 27be a66f a5bd cfcd 75bd
00000290: 76e6 963d 3a8d 07be 9953 333d a586 cabd
000002a0: 0c88 a2bb 30f9 273e 273b cd3c 238c aabd
000002b0: 01ba b03c 0987 483e 7eed 703e a620 e7bd
000002c0: e17a a5bd 0cc5 403d 13c7 cfb9 48cd e3bd
000002d0: 4e59 56bd 8620 2f3d c399 f53d 27a3 9339
000002e0: 32c7 e5bd 8dba 00bd a376 2d3e ebb2 3a3e
000002f0: f769 d0bd 606a a73d 7381 0bbe 4e88 6d3d
00000300: 6ad2 4ebd 0472 13be 5cfb 24bd 8f59 83bd
00000310: 2308 113e 0ca9 e8bd 0cfc 24bc 2262 8fbd
00000320: 411d abbd bdc8 a43c 7598 8cbd b343 213e
00000330: cb4d d4bc d3c0 eabd ad86 05bc 43f2 283d
00000340: e333 ecbd bc4f 94bd d194 1ebd 0ea4 dbbd
00000350: 57f1 cbbd aa44 d9bd b94a 1dbd 84b9 dbbd
00000360: eda0 983d fad3 6a3b af7c 903d 956a 1e3c
00000370: c0ee 623d f011 12bd 8687 0c3d 58ee 28be
00000380: 03ed a6bd
0.084990874 0.08667024 -0.094129756 0.06999603 0.11057419 0.09586318 0.09857229 -0.11454758
-0.09880421 0.0032488457 0.0009077989 0.097855836 -0.070577756 0.030683478 0.12883979 0.17737545
0.14885883 0.07227173 -0.077302694 0.013473932 0.11573122 0.15025428 0.114210635 -0.038410738
0.15669724 0.036514502 0.051000886 -0.019737413 0.028907912 -0.088628635 0.15774447 -0.039891623
0.017581606 -0.06636067 0.07540389 0.0063777613 0.0097122835 0.03805262 0.05955545 0.07241378
-0.06683991 -0.0151608875 0.027111262 -0.13278407 0.04554126 -0.030852139 -0.014674666 -0.012607418
-0.10110747 0.11430781 -0.006555887 -0.09475582 0.15655652 0.022298483 -0.21360911 0.07351372
-0.082658045 -0.066131644 -0.04985745 0.04311767 -0.11396855 -0.076581754 0.29083443 -0.13749501
-0.09468383 0.013931134 -0.009169454 0.06680507 -0.13321254 -0.054348055 0.022701511 -0.10125062
-0.043779973 0.12800731 0.107755065 0.10693333 -0.072641015 -0.13878858 -0.11916064 0.1336512
-0.062025383 -0.10869163 0.04234988 0.064764276 -0.07036947 -0.083360925 0.08095005 0.089799926
0.03628982 0.08586311 -0.05657009 -0.037351478 0.083265 0.15072712 0.1134924 -0.007550118
-0.04240549 -0.006573966 0.12796411 -0.013919701 0.037509467 0.10405756 -0.061772373 -0.07635706
0.04602465 -0.124278866 -0.052855533 0.085878626 -0.06130796 -0.06706019 -0.04898154 -0.13533348
-0.0085900985 -0.112797 0.0048450436 -0.08446272 0.04794097 0.010773607 0.11499501 0.06662051
-0.11292955 0.042411245 -0.043499473 -0.05513581 -0.15765461 0.09869284 -0.07527149 0.116570584
0.09672553 0.09087849 -0.059577487 -0.17279701 -0.09508424 0.055475097 0.06166348 -0.13236706
-0.014510201 0.06522263 -0.15181504 -0.14181703 -0.025814055 0.08788201 0.1529659 0.13955203
-0.05277045 -0.07631764 -0.022700787 -0.15833063 0.086011216 -0.10999917 -0.088859975 -0.18989481
-0.17565548 0.016830085 -0.045711912 -0.1672058 -0.113482036 0.054803222 -0.024966605 -0.11777084
-0.00658049 -0.16405277 -0.08077936 -0.060010727 0.07368176 -0.13237467 0.043780897 -0.09888963
-0.0049600657 0.16403651 0.02505262 -0.0832751 0.021573069 0.19582762 0.23528096 -0.11285524
-0.08080078 0.04706292 -0.0003963044 -0.11123139 -0.05233126 0.042755626 0.11992218 0.00028159583
-0.11219634 -0.03142791 0.16939788 0.18232314 -0.10176461 0.08174586 -0.136236 0.05799132
-0.050493635 -0.14398962 -0.040278777 -0.06413566 0.1416326 -0.11360368 -0.010069858 -0.07001139
-0.08355189 0.02011525 -0.06865016 0.15748481 -0.025916 -0.114625596 -0.008149785 0.041246664
-0.11533334 -0.072417706 -0.03871614 -0.1072465 -0.09958141 -0.106088 -0.03840134 -0.10728744
0.07452569 0.0035831914 0.070550315 0.009668966 0.05540347 -0.035661638 0.034308933 -0.16497171
-0.08150675

encoder.2.0.bias f4 [5]
00000000: f703 9f3d 8fba 10be 48ec 02bc 9561 c73d
00000010: 7957 143e
0.07764428 -0.14133666 -0.007990904 0.09735409 0.14486493

encoder.2.1.weight f4 [5]
00000000: a817 6d3f 8149 943f 586b 7e3f 92a3 833f
00000010: 01fd 663f
0.9261422 1.1584932 0.99382544 1.0284293 0.90229803

encoder.2.1.bias f4 [5]
00000000: a95b b7bc 9c20 753b e9d4 4ebc 266f 7abc
00000010: 9dc6 593d
-0.022382574 0.003740347 -0.012624004 -0.015285289 0.053167928

encoder.2.1.running_mean f4 [5]
00000000: e611 193e 278a 21be c0c5 61bd dcb5 2ebc
00000010: dc97 a5bd
0.14948234 -0.15775357 -0.05512023 -0.010663476 -0.080856055

encoder.2.1.running_var f4 [5]
00000000: f058 613e 5859 5f3e dfe2 3f3f 201d 9e3e
00000010: 0fc8 b53e
0.22006583 0.21811426 0.7495555 0.30881596 0.35504195

encoder.3.0.weight f4 [2, 5, 5]
00000000: df50 073e 85a1 0a3d 741a 0dbe f0a1 013e
00000010: 739d af3d fdd3 47bc b0d1 d93d 7955 f3bd
00000020: e158 15bd d6db ad3c 8a90 853d 5e0a dfbd
00000030: be6a 1cbd 9270 b13d 4b44 18be 084f 043c
00000040: 4d5e 96bd fb7d acbc c7ce 54bd 276e 55bb
00000050: 5f6d b33d fd46 283e fdc2 bfbd 8ed7 f43c
00000060: fcb9 04be e859 0fbd bab8 db3d 52e7 dfbd
00000070: 6696 e33d 719c ebbc 7e25 9d3b 789e 6d3d
00000080: 5958 93bd 384d 3c3d 330c 873b 8ca5 15be
00000090: 5120 013d 7703 a4bd 1ac0 293e 7bba a3bc
000000a0: f152 073d 4c01 84bd 3c41 4f3c c66f 19bd
000000b0: 465c 6c3d af96 fbbc bf50 c63c d313 b6bd
000000c0: b675 d23c 0dc8 33be
0.13214444 0.033845443 -0.13779622 0.1265943 0.08574953 -0.012196538 0.10635698 -0.11881537
-0.036461715 0.02122299 0.06521709 -0.10890649 -0.038187735 0.08664049 -0.14869802 0.008075483
-0.07342205 -0.021056166 -0.05195501 -0.0032566877 0.08761095 0.1643333 -0.09363363 0.02988794
-0.12961572 -0.03499785 0.10728593 -0.10932793 0.111126706 -0.02876112 0.004795729 0.058012456
-0.07194585 0.04597208 0.0041213273 -0.14613932 0.03152496 -0.08008473 0.16577187 -0.019986382
0.033038083 -0.0644556 0.01264983 -0.03746011 0.057705186 -0.0307115 0.024208425 -0.088905
0.025690895 -0.17556782

encoder.3.0.bias f4 [2]
00000000: 7eb9 0d3e 600a 02be
0.13840291 -0.1269927

encoder.3.1.weight f4 [2]
00000000: 5851 4f3f 6543 063f
0.80983496 0.52446586

encoder.3.1.bias f4 [2]
00000000: d881 083d 5918 29bd
0.033326954 -0.041282985

encoder.3.1.running_mean f4 [2]
00000000: baa3 d23d 36b3 09be
0.102851346 -0.1344727

encoder.3.1.running_var f4 [2]
00000000: 9783 373f 0ebb fe3d
0.71685165 0.124380216

encoder.4.0.weight f4 [1, 2, 5]
00000000: a30c 4abd fe87 2dbe 81ab 833d 011d 033e
00000010: 5252 54be 3af1 813e 421b ff3d 6110 95be
00000020: eaaf 70be a749 b8bd
-0.049328458 -0.16946408 0.06429196 0.12804033 -0.20734528 0.25379354 0.12456371 -0.2911406
-0.23504606 -0.08998423

decoder.0.0.weight f4 [1, 2, 5]
00000000: dbad 0abe 8b34 f6bd 0401 723e 65ca 44bd
00000010: 820e d93d 5ce4 ec3d dc4b d83d 875a 833d
00000020: b986 983d e6ef 86bd
-0.13542883 -0.120217405 0.236332 -0.04804458 0.1059847 0.115669936 0.10561344 0.06413751
0.07447571 -0.06588726

decoder.0.0.bias f4 [2]
00000000: afad 69be 0923 f73c
-0.22820161 0.030168073

decoder.0.1.weight f4 [2]
00000000: 1a3e 8b3f 77d6 603f
1.0878327 0.8782725

decoder.0.1.bias f4 [2]
00000000: 3c0b 39bd ecee fdbb
-0.04517673 -0.007749429

decoder.0.1.running_mean f4 [2]
00000000: 3079 73be 2157 4e3d
-0.23776698 0.05037606

decoder.0.1.running_var f4 [2]
00000000: ce83 973d e447 fd3e
0.073981866 0.4946891

decoder.1.0.weight f4 [2, 5, 5]
00000000: 07d9 16be 0058 983e 2134 30be 6653 6b3e
00000010: e940 973d 16bc 163d f850 36be 0952 173d
00000020: 3732 8e3c 39a0 803d 0838 f93d 3580 17be
00000030: 32ee 2ebe 2459 93be ac4d e3bc 7e50 433d
00000040: 9474 1d3e 776b a1bd 4216 c3bd 1a37 903e
00000050: 510e b6bd bbd0 c0bd 7af0 cf3d 814b 48be
00000060: 35d9 1fbe 5885 023d 2f8a 41bd 7c32 993d
00000070: 9161 c5bc a7a0 36be e2d2 683c 24e9 a9bd
00000080: 1d0c f33c f353 41bc 7565 71bd 500c 2f3e
00000090: 2c6d 433e 0072 97bd 8e20 d53d b87b 11be
000000a0: 43b1 dcbd f625 1d3d ded5 813d c9c7 bebd
000000b0: 760d 06be a752 083e 672d 293d 1519 e6bc
000000c0: af9c 6d3d 747e 89bd
-0.14731227 0.2975464 -0.17207386 0.22981033 0.073854275 0.036800466 -0.17804325 0.03694347
0.017357929 0.0628056 0.1216889 -0.14795001 -0.17083052 -0.28778946 -0.027746998 0.047684185
0.15376502 -0.078818254 -0.0952573 0.2816704 -0.088894494 -0.09414812 0.10153289 -0.19560052
-0.15610202 0.031865448 -0.047250923 0.07480332 -0.024094375 -0.17834722 0.014210435 -0.08296421
0.029668862 -0.0117998 -0.058934648 0.1709454 0.19084615 -0.07394791 0.104066 -0.14207351
-0.107759975 0.03836628 0.0633962 -0.0931545 -0.13091072 0.1331278 0.041303065 -0.028088132
0.058010753 -0.06713572

decoder.1.0.bias f4 [5]
00000000: c635 003e a816 45be fcb1 4c3e 8ca9 9b3d
00000010: 8b63 a63c
0.12520513 -0.19246924 0.1998977 0.07600698 0.020311138

decoder.1.1.weight f4 [5]
00000000: 911b 5f3f a6b7 863f a924 653f 38c5 363f
00000010: 3308 623f
0.8715144 1.0524795 0.89509064 0.7139468 0.8829376

decoder.1.1.bias f4 [5]
00000000: 6f95 efbc 0727 66bb d47a 27bc fe91 e8bb
00000010: 512f 68bc
-0.02924606 -0.0035118477 -0.010222156 -0.0070974817 -0.014171437

decoder.1.1.running_mean f4 [5]
00000000: 5c77 053e 6723 53be 1284 483e 0e9a ad3d
00000010: 3761 1a3c
0.13033813 -0.20618974 0.19581631 0.08476649 0.009422592

decoder.1.1.running_var f4 [5]
00000000: e852 8c3d a7bf 203e e661 d63d f30b 183d
00000010: c0c4 dd3c
0.068517506 0.1569811 0.104678914 0.03712077 0.027071357

decoder.2.0.weight f4 [5, 9, 5]
00000000: da41 be3d 2d10 9f3c a41b 32be 997b c93b
00000010: 4ad3 c1bc addc 133d 74ed cf3c 1c52 bc3c
00000020: 1326 30be 5bf4 54bd 0a9a 093e bdb7 bc3d
00000030: 9fb1 31bc ee36 0fbe 8393 21be 031a 2dbc
00000040: d8b8 e93c 659c 03be 7f0d eb3c b707 f53d
00000050: 682e 81bc 9069 81bd 654b 9bbc 7da0 5c3d
00000060: 255e 2ebd 4fca 2e3b 71ca 80bd 0e03 5d3d
00000070: 900f 3bbd 15d6 da3c bbf8 99bc fa07 67bb
00000080: c858 1b3e 7662 e9bc 7d88 29bd eb83 9cbb
00000090: 011d b23d a325 6dbe 4929 1abc def9 f0bd
000000a0: 0397 0c3d 72a9 f7bd 0934 aebd 1820 1abe
000000b0: 76af 0e3e 247b a5ba 5d25 d6bd 7d91 8a3d
000000c0: 33a5 723c 4e53 003e 3d04 b8bd 056d 1c3d
000000d0: bd22 143e 51e7 013d f675 8b3d a422 1c3e
000000e0: afbb d13d b337 d2bb d021 363d 60bd c5bd
000000f0: c53e f13c 3b27 9f3d 09ec 983d 3ce1 603d
00000100: 5481 063d 8804 8b3d d413 1c3d 017b ccbd
00000110: c358 233c 9521 34be 2d27 d03c d105 22bd
00000120: 9400 4a3e 47c1 483e 2972 133e dd4b 603d
00000130: 2ebc 343e ae3b a5bd 75a2 4a3e 0bf9 a4bd
00000140: af35 c43d 7e1d 503d c88b e63d 0bac 6cbd
00000150: 40ad 253d a991 c2bc d563 e5bd d92c 7dbd
00000160: 4ddf bf3d df8e 2c3d ac7b 113e 0078 cb3b
00000170: 8cf2 ad3c f5d5 51bd b04a 033e b794 793a
00000180: 3a0c 383e 37f9 933c d6ce a03a a74c 2b3d
00000190: a8ed 053e f30d cbbd 695c eb3d 8e2b e03d
000001a0: 270d 2a3e f449 dcbd 193d 543d 1406 72bc
000001b0: af66 c43c d5da e13c 6491 2abe 9ce6 d0bd
000001c0: 8b23 94bd fb4a 1dbe 6ea4 26be dbf1 3bbb
000001d0: a35f a1bd 6b21 38bd 8728 e2bd 3748 793d
000001e0: 63a8 7cbd 605b a73d 1aa5 b63d e73b 01be
000001f0: f0df 7c3d be1a fcbd f4f0 b5bd f432 23bd
00000200: 98f0 663d fc0c 91bd 6e5a 853d 4ccd 46bd
00000210: c7b9 aa3d 2e7f b83a feeb 873d 724d 47bd
00000220: e0ee 08be 9370 88bd ce61 183e ee13 b9bc
00000230: e81c b43d 9035 603b 9107 853c 784d 04bd
00000240: 4475 4cbd f64c f03d c8aa 133e 1846 abbd
00000250: 37cd 1ebc 1c3b a7bd 40f0 67bd 12cb e739
00000260: d3bd d5bd 6bbf 8b3d 3376 9ebd 6d12 5bbc
00000270: b05c 67bd 7edd 0c3d 9309 20be 8680 89bd
00000280: 1056 7dbd f2f0 adbc aed0 eebc 79e4 1c3d
00000290: b51b a0bc c50e 003e 9069 1e3c 59ed b33d
000002a0: a70e 17be 5d3d 053d e5fc 0f3e c1ac 15be
000002b0: 363c f5bd 171d 343b 5707 a4bc 13af 05be
000002c0: 45b3 36bd 61d2 89bd 9e97 983c 3351 213e
000002d0: 8c26 0c3d aa8a a63d e144 6e3d 98e3 5c3c
000002e0: 13ed eabc 5376 35bd 061f e83d 26d6 d8bd
000002f0: a562 6dbe 7977 6b3d fc3a e9bc 852b 90bd
00000300: 77b5 9abd 7a6c d83d bb0e db3c 989c edbd
00000310: 6cd0 d9bd 7657 a3bd 7fdb 97bd 84f3 833e
00000320: 50e9 d93d e13d b23b 7c87 e63c fd0a cf3d
00000330: df8f bebd cee8 60bd 82f4 83bb 0691 eb3d
00000340: 8d9b 083e e5e4 863d a8b1 bb3c a78f 25be
00000350: f478 0dbe f4c5 e0bd 3a1c 01be 8e42 aebc
00000360: f252 a13d f9ae 3cbd f633 27be 5a35 a73c
00000370: 2715 11bd f32d 6abd 4b58 7d3c 74ba 273d
00000380: 3027 f8bc
0.09289904 0.019416893 -0.17393357 0.006148767 -0.02366032 0.036099125 0.025381781 0.022988372
-0.17202024 -0.051990848 0.13437667 0.09214733 -0.010845571 -0.13985798 -0.15778928 -0.010565284
0.028530523 -0.12852629 0.028692959 0.11964362 -0.015769199 -0.063189626 -0.01895685 0.05386399
-0.042570252 0.0026670878 -0.06288613 0.05395799 -0.04566914 0.02671341 -0.018795362 -0.0035252557
0.15170586 -0.028489333 -0.04138993 -0.004776468 0.08696938 -0.23158889 -0.009409257 -0.117664084
0.034323703 -0.12092866 -0.08506019 -0.15051305 0.1393412 -0.00126252 -0.10456345 0.06766031
0.014809894 0.12531778 -0.089851834 0.038189907 0.14466377 0.03171474 0.06809609 0.1524759
0.10240876 -0.0064153313 0.04446584 -0.09655261 0.029448876 0.077711545 0.07466895 0.0549023
0.03283818 0.06787974 0.038104847 -0.09984399 0.009969893 -0.17590936 0.025409305 -0.03955633
0.19726783 0.1960498 0.14399017 0.05475985 0.1764991 -0.080680236 0.19788535 -0.08055314
0.09580552 0.050809376 0.1125713 -0.05778126 0.040448427 -0.023751097 -0.11200682 -0.06181035
0.09368763 0.04212844 0.14207333 0.0062093735 0.02123382 -0.051229436 0.1282146 0.00095207564
0.17973414 0.01806317 0.0012268673 0.04182115 0.1307894 -0.0991477 0.11492235 0.109458074
0.1660658 -0.10756293 0.05181608 -0.014771957 0.023974745 0.027570168 -0.16657025 -0.10200235
-0.07233342 -0.15360634 -0.16273662 -0.0028678093 -0.078795694 -0.044953745 -0.11042886 0.060859885
-0.061684024 0.08171725 0.089182094 -0.12620507 0.061737 -0.12309788 -0.08883849 -0.039843515
0.05638179 -0.07082555 0.06511389 -0.04853563 0.083362155 0.0014075988 0.06636809 -0.048657842
-0.13372374 -0.06662097 0.1488106 -0.022592511 0.08794576 0.0034211613 0.01623896 -0.032300442
-0.04991652 0.11733429 0.14420617 -0.08362979 -0.009692482 -0.08165571 -0.056625605 0.00044211053
-0.10436597 0.068236195 -0.077373885 -0.013371092 -0.056484878 0.03439092 -0.15628652 -0.06713967
-0.061849654 -0.021233056 -0.02915224 0.038303826 -0.019544462 0.12505634 0.009668723 0.08785505
-0.14751683 0.032529224 0.14061315 -0.14616682 -0.11974375 0.002748316 -0.020023031 -0.13055067
-0.04460456 -0.0672958 0.018626984 0.15753631 0.03421645 0.08131917 0.058171157 0.013481997
-0.028677499 -0.044302296 0.11334042 -0.105877206 -0.23182161 0.057486985 -0.028470509 -0.07039551
-0.07554143 0.10567565 0.026740422 -0.116021335 -0.106354564 -0.07975666 -0.074149124 0.25771725
0.10640204 0.0054395054 0.028140776 0.10109518 -0.09304785 -0.05490952 -0.0040269503 0.115022704
0.13340588 0.06586627 0.022911862 -0.1616808 -0.13815671 -0.109752566 -0.12608424 -0.02127197
0.07877149 -0.046065304 -0.16328415 0.020411182 -0.035420563 -0.057172727 0.015462945 0.0409493
-0.030292124

decoder.2.0.bias f4 [9]
00000000: bdd1 1abc 341c 1bbe 1ccd 75bd f115 cd3d
00000010: d042 34bd 7188 99bd 546a babd 6a59 f6bd
00000020: 032b 07be
-0.00944942 -0.15147477 -0.06001006 0.100139506 -0.04400903 -0.07496727 -0.09102312 -0.12028773
-0.13200001

decoder.2.1.weight f4 [9]
00000000: 4aee 783f e89c 473f 9492 5f3f 7c21 6a3f
00000010: 05f2 723f dac1 843f c295 633f cc62 573f
00000020: 0994 533f
0.972386 0.77973795 0.87333035 0.91457343 0.9490054 1.0371659 0.8890039 0.8413513
0.8264776

decoder.2.1.bias f4 [9]
00000000: c3c1 9fbc 7435 9dbc bd9e 00bd cc2e 6fbc
00000010: 6557 13bd 7eae 78bc d001 213c 8359 21bd
00000020: 449e 933b
-0.019501572 -0.019190527 -0.031401385 -0.01459856 -0.035972018 -0.015178321 0.009827092 -0.039392006
0.0045049507

decoder.2.1.running_mean f4 [9]
00000000: 4eae 1b3c dd0f 20be 807c 8cbd bd20 cc3d
00000010: e77f 31bd 3a32 68bd 8981 cabd 232f e2bd
00000020: 7540 febd
0.009502007 -0.15631051 -0.06859684 0.09967182 -0.043334868 -0.056688525 -0.09887988 -0.11044147
-0.12414638

decoder.2.1.running_var f4 [9]
00000000: 5bbd 7f3d 9ceb e83d 4196 c03d 7ad1 f63d
00000010: 7afd 003e 74ba 8f3d ca73 003e 86d7 a13d
00000020: 1e54 ba3d
0.062436443 0.11373064 0.09403659 0.12051673 0.12596694 0.07017985 0.1254417 0.07902436
0.09098075

decoder.3.0.weight f4 [9, 18, 5]
00000000: 0a3f b23d 0b55 973d 2bf6 52bc a60a 253d
00000010: f22d 703d eaf8 713d 236f 0d3d d4fc 3a3d
00000020: 33ec ad3c 4b71 f7b9 4b92 38bd 74b0 6fbd
00000030: 3431 7ebc 9810 533c 9dbd b63c bf66 87bd
00000040: 63be 73bd 8464 b03b 8ed5 95bd b701 36be
00000050: a5a3 4dbd 51b5 a0bc d9e1 65bd cde9 65bd
00000060: 3d5f 35bd 3c97 09be 25e4 94bc a245 9fbd
00000070: 46d9 4bb9 2323 3fbd a50c 073e 18fd 363d
00000080: 2248 58bb 7103 583d fde6 c03d a2fb 383c
00000090: 3718 2cbd f780 783d a5cf e5bc fb3d 7d3c
000000a0: a9ed 563d 7871 0cbd bb97 463b 4156 40bb
000000b0: cafe 11bd 63d3 4dbe 0cc3 a0bd 6b38 06be
000000c0: d241 6abd 2344 15bd 4f96 553c e92b 5c3d
000000d0: 2ced fc3c 380b 7ebd 50bf 16bc 290b 82bc
000000e0: b70f 803d ac75 30bd 9ed5 333d 6fb1 7fbd
000000f0: d91b 17bd 73b3 abbb 45cb 853c 0f7f a4bd
00000100: f98f 26bd 5be8 cf3d 9a8d a63d 5bb4 4c3c
00000110: 27b5 26bb e3b9 123d 3fa0 073e 6341 6a3d
00000120: cb76 b93c 76e5 8b3e 9dac 93bc deaf ebbd
00000130: 17bb 06bd 3fd4 193d f853 6fbd 0045 dbbd
00000140: 9b08 4a3d c063 0c3e 849a 6abd a845 603d
00000150: 1009 98bd 44eb 0c3d de7c 8c3c 9b56 e03d
00000160: aec5 4f3d 386e 50bb 7539 6a3d 2b87 233d
00000170: 91ae 53bd 278b 713b 73a2 463d aee7 923d
00000180: 8755 133d a55c 71bd a1d5 0f3d 1e3e a93c
00000190: b27e 753c c852 d03b 202a 91bc 1361 373d
000001a0: 03ff fcbc 6a12 8b3c d40b 243c 3f24 773d
000001b0: 9a7f 9a3c d1b3 1cbe 77a4 0a3c 40d9 a0bc
000001c0: caa1 08bd 527c 6a3c aae9 25bd 4e77 d7bd
000001d0: 4894 b03c 232e 25bd fd5c a33a 1c3f 96bc
000001e0: 6072 c83d 46a4 7abd bb43 a63d a5f9 8bbd
000001f0: 2c67 903d 68fc abbc 77e1 203c 28c2 a23c
00000200: 52fc 95bd f538 abbc 0372 f3bc 95a8 adbd
00000210: 5fa8 62bd 5b4d 9bbd ba52 33bd cc44 98bd
00000220: 1b6f a33d 3f61 f23d 2de3 023e f8ee 03ba
00000230: ae11 833d f837 1dbe 9d25 ebbd 1795 f13c
00000240: 85a9 8cbd 3484 2a3d ab6e 28bd 46e0 ae3b
00000250: 8902 00bd dffa 19bb c48a 0d3d cf0a 7a3d
00000260: bf0e 2d3c cdc8 ac3c b2dd eebd 6162 263d
00000270: 7576 44bb 3db1 b33d 6c7d 053e ad79 143b
00000280: 661d 273e 1d0a 173e 9002 1abe 2530 193e
00000290: fac5 2d3e 4f08 853d 7c2b 00bc 4027 da3c
000002a0: aad2 f9bd 0fa2 c5bd 5705 ba3c 2d85 b3bc
000002b0: 8f1e cb3d 2a12 a13b 3f19 eebd d8cc 743d
000002c0: dd65 8c3d b787 303d d1db 44bd ed76 413b
000002d0: 91d9 e7bc 4ce3 123d 0d0a 80bc c3ec d93c
000002e0: 52dd 25bd 2f87 bdbc e282 2d3d 44bc 87bc
000002f0: 67d0 5b3c 9218 2b3d 9a47 3cba 14cd 413d
00000300: 5286 0dbc 0d77 1ebd da9b 323c 1cf1 af3d
00000310: 4a2a 99bc 46a1 043e dc9d 013e be6d e8bc
00000320: 5389 0d3c 6468 c5bc 0ec3 183d 471f 9e3b
00000330: d56a fe3b dd41 ffbd e0b6 03bd 7cad 853d
00000340: 5406 36bd f1be 973c d396 d2bc 8f5e 75bd
00000350: 71ff b03c dc83 893c 14ee 143d 388d f93c
00000360: 973f 073c 9887 aabc 26cc dbbc 1d57 8f3d
00000370: 8f31 03bd cd7f 81bc 4ae6 37bd 15c8 95bd
00000380: 2791 18bd 4fd2 513c a0f0 2a3d 4958 7f3d
00000390: ee34 abbd 21e1 76bd 5049 ee3d 5283 603d
000003a0: a8f0 023d 043c 5abe 4ac2 38bc b3ff 8f3d
000003b0: cad8 673d 3d9e ddbc 7a86 4ebd 2c3c 8fbd
000003c0: 8578 083d 131e a8bc 9f46 f13c e833 213d
000003d0: 7742 b3bc 3f69 a23c bfc4 583c cb49 483c
000003e0: 21a4 5f3d 1022 263c 2a98 373d ad58 6e3e
000003f0: 072f 033e d857 eebd b482 51be fc42 2a3e
0.0870343 0.073892675 -0.012876074 0.04029336 0.058637567 0.059075274 0.034529816 0.045651272
0.021230793 -0.0004719592 -0.04506139 -0.05851789 -0.015514661 0.012882374 0.022307212 -0.06611394
-0.05950774 0.005383076 -0.07316123 -0.17774092 -0.05020489 -0.019617708 -0.05612359 -0.056131173
-0.04428028 -0.13436598 -0.018175194 -0.07776953 -0.0001944053 -0.04666437 0.13188417 0.044674963
-0.003300198 0.052737657 0.094190575 0.011290463 -0.04201528 0.060669865 -0.028053114 0.015456672
0.052472744 -0.0342879 0.003030284 -0.0029348286 -0.035643376 -0.20100169 -0.07849702 -0.13107459
-0.057191677 -0.036441933 0.013036325 0.053752813 0.030874811 -0.062022418 -0.009200886 -0.015874462
0.06252997 -0.04308097 0.043904893 -0.062425073 -0.036891792 -0.005239898 0.016332278 -0.08032047
-0.040664647 0.1015174 0.08132477 0.012494172 -0.0025437565 0.035821807 0.13244723 0.057191264
0.022639653 0.27323502 -0.018026644 -0.115081534 -0.032893267 0.03755593 -0.05842969 -0.1070652
0.049324613 0.13709927 -0.057276264 0.05475393 -0.074236035 0.034404054 0.017149385 0.10954019
0.05072563 -0.0031803977 0.0571837 0.039923828 -0.05168015 0.0036856623 0.048494767 0.07173096
0.035970237 -0.058926243 0.03511584 0.020659503 0.01498382 0.0063575245 -0.017720282 0.04477031
-0.030883318 0.016976554 0.010012586 0.0603373 0.018859673 -0.1530297 0.008462063 -0.019634843
-0.03335742 0.014311867 -0.040506043 -0.105208024 0.021555081 -0.040327203 0.0012463626 -0.01834064
0.0978744 -0.06119182 0.08118387 -0.06834725 0.070509285 -0.02099438 0.00981938 0.019867972
-0.07323517 -0.020901183 -0.029717451 -0.0847942 -0.055336352 -0.07583114 -0.043780066 -0.07434997
0.07980176 0.118349545 0.12781973 -0.00050328625 0.063998565 -0.15353382 -0.114817835 0.029490037
-0.06868271 0.041629985 -0.041121166 0.005336794 -0.031252418 -0.0023495478 0.034556165 0.061045464
0.010562598 0.021091843 -0.11663379 0.040621165 -0.0029977832 0.0877404 0.13036126 0.0022655532
0.16319808 0.14749952 -0.1504004 0.14959772 0.16970053 0.06495725 -0.0078228675 0.026630044
-0.12198384 -0.09650051 0.022707624 -0.02191409 0.09917938 0.0049154954 -0.11625909 0.059765667
0.068553664 0.043098178 -0.048061196 0.0029520348 -0.028301986 0.0358613 -0.015629793 0.026602155
-0.04049427 -0.02313575 0.042361148 -0.016569264 0.013416386 0.04177148 -0.00071823003 0.04731472
-0.0086379815 -0.038687754 0.010901416 0.0859091 -0.018696923 0.12952146 0.12657875 -0.028372642
0.008638698 -0.024097629 0.037295394 0.004825506 0.0077642 -0.12463734 -0.032156825 0.0652723
-0.04443963 0.018523665 -0.025706684 -0.05990463 0.021606179 0.016786508 0.03635986 0.030462846
0.008254907 -0.02081661 -0.026830744 0.069990374 -0.032029685 -0.01580801 -0.044897355 -0.07313553
-0.037247803 0.012806489 0.041733384 0.062340055 -0.08359705 -0.060273293 0.11635077 0.054812737
0.03196779 -0.21311957 -0.011276791 0.07031193 0.05660323 -0.027052993 -0.050421216 -0.06993899
0.03331806 -0.020522153 0.02945262 0.039356142 -0.021882279 0.019825576 0.013230502 0.012224625
0.054599885 0.010139957 0.04482285 0.23276015 0.12810908 -0.116378486 -0.20460016 0.16627115

decoder.3.0.bias f4 [18]
00000000: 8d52 7fbd 7fa5 843c cf09 3f3d 4bb9 8bbc
00000010: 700e 9bbd 0939 26bd 3d85 783d 4ebe 523c
00000020: 40de adbd 9e5e b03d 053f dd3c 67c7 e4bc
00000030: b221 b0bd 901b 0e3d 8b7d 713d e920 e0bd
00000040: 10c1 d1ba 3596 923d
-0.062334586 0.016192196 0.046640214 -0.017056128 -0.07571113 -0.040581737 0.06067394 0.012862755
-0.084896564 0.08611797 0.02700759 -0.027927114 -0.08600177 0.034694254 0.058957618 -0.10943777
-0.0016002972 0.07157556

decoder.3.1.weight f4 [18]
00000000: 1040 553f 3122 7c3f 8035 6e3f fb7c 6f3f
00000010: bd8d 5c3f ad8d 513f 2e5e 6a3f 4e38 863f
00000020: 49a1 303f 7659 423f 73f9 6a3f 1ca2 673f
00000030: 309e 8b3f 855c 793f ede8 873f 8370 4e3f
00000040: cfdc 2e3f 2799 8a3f
0.83300877 0.9848967 0.93050385 0.9355008 0.86153775 0.81856805 0.91549957 1.0485933
0.689961 0.75917757 0.9178688 0.90481734 1.090765 0.974068 1.0617958 0.8064043
0.6830568 1.0827988

decoder.3.1.bias f4 [18]
00000000: f1e3 f5bb b807 bbbd c425 d0bd a36e 5bbd
00000010: 9d9e abbd 1720 dabc bd56 15bd a093 3dbd
00000020: eb61 73bd 02b6 33bd 5682 e3bc 2885 56bd
00000030: bcab 2ebd bb57 77bd 4132 18bd d52c 2cbd
00000040: 4bb0 41bd 0a13 27bd
-0.0075039794 -0.091323316 -0.10163453 -0.05357231 -0.083798625 -0.02662663 -0.036459673 -0.046283364
-0.059419554 -0.043874748 -0.02777211 -0.05237308 -0.042644247 -0.0603864 -0.0371573 -0.042034943
-0.047287267 -0.04078964

decoder.3.1.running_mean f4 [18]
00000000: 4626 8cbd 07cd a73d 28a4 ad3d a8e2 04bd
00000010: 5b9e 35bd cc0e 47bd 6463 823d 9364 d53a
00000020: eb19 a9bd 4cf8 af3d c7b8 193d 0a49 56bc
00000030: e281 d1bd a0ad 6b3d e5e5 7b3d c7da fbbd
00000040: be11 b9bc 4d90 903d
-0.068432376 0.08193403 0.08478576 -0.03244272 -0.044340473 -0.048598096 0.063666135 0.0016280584
-0.082568966 0.08592281 0.037529733 -0.013078937 -0.10229851 0.05753863 0.06149854 -0.12297588
-0.022591468 0.07058773

decoder.3.1.running_var f4 [18]
00000000: 017d 053e 82bf c03d be69 563d 252d 373e
00000010: 7237 e83c 83d5 b83d fdcf 263e d3a9 c43d
00000020: f20e b93d 5ce5 c03d acdb 183e 0b34 2e3e
00000030: 258a 083e 508d c53d f4c6 d53d b570 ec3d
00000040: 2c5f b93d 161f 773e
0.13035966 0.09411527 0.052346937 0.17888315 0.02834675 0.09025099 0.16290279 0.09602704
0.09036054 0.09418747 0.14927548 0.1701204 0.13333948 0.09646094 0.10438338 0.11544935
0.09051356 0.24132952

decoder.4.0.weight f4 [18, 36, 5]
00000000: ba73 78bd 69b7 083d ed50 433c edb4 803c
00000010: 5d53 293d f9fa 85bd c053 9abd 6a37 713c
00000020: 1dc0 5abd e94d a8bc ad59 9a3c d1f7 233d
00000030: 4547 babc 4bd6 1c3a 25f5 693c 13c7 ed3d
00000040: 3e1b 813d cdcc 53bd 6a9f 78bd 079e 11bb
00000050: 7544 c03d ac2a bd3c b646 40bd fb64 b7bd
00000060: ea9a ab3c f84f 863d dcd7 fe3c 9175 14bc
00000070: f18c 86bd e101 f8bb 0728 b13d 834b 6f3a
00000080: 520b 68bd c7c8 77bc 871a 273d e7e6 023e
00000090: 319c 7c3d de77 4ebd ae3d aa3b fe6d a73d
000000a0: a9cf c43d ca72 883c 3849 5fbd a383 dc3c
000000b0: 79c8 1b3d 7384 c03d 26c7 3fbc 401f 5bbc
000000c0: 31a2 a7bd 59a7 8c3d c51e 0d3d 9564 32bc
000000d0: 378f 063d 7f74 3d3d 3352 0f3d 2343 47ba
000000e0: 32f9 7fbd 3002 5cbd ff51 3dbc 5522 e2bc
000000f0: ec7a 2abd 2b7a fc3b 75ba e8bd 1658 853c
00000100: 2606 62bc aa41 31bd b2be df3c 0cba 00bd
00000110: da10 3fbd 8887 8cbd 7166 d33d 98eb a13d
00000120: 53b7 e23d 0a21 bf3d ee73 293d 8c24 8ebb
00000130: 45a0 c3bc fed7 063d 1c23 08bd db0d e7bd
00000140: 5755 983d 67c0 163b ce1b 933d 8ac7 b6bb
00000150: 6f2f 64bc 72fd 11bc dae1 193d fd18 a8bc
00000160: 4d3f 71bc 4863 67bd 3936 a33c c541 d03c
00000170: e82c a23c f4c4 1fbc 8094 6c3c da95 093d
00000180: d810 d53c a8de 7b3c d4a6 84bc 1d97 3d3d
00000190: 6b50 09bc 7620 5abd 17bf 44bb 0ec9 9c3c
000001a0: 69d6 c63c 9261 883c 1d9e 3b3a 7793 82bb
000001b0: a41f 9fbc ca69 08bc 7e68 3f3b 8b88 363c
000001c0: 09cb 113c ea6a 07bd ea59 363d 69a9 e7bc
000001d0: 79ce a93b 079b 7ebd c055 9c3c 653b 07b9
000001e0: 0729 343d 9383 a93d 3d9c 84bd f01b 14bd
000001f0: 1060 603c a115 17bd efe0 63bd a94c b9bd
00000200: b7be 24bd 4adc acbc c7ec 403d 410b db3c
00000210: f951 94bc aa5c 0e3c 37c1 02bd 3c49 c1bb
00000220: 583c cb3c 0de4 92bd 4167 1ebc 4abe d63c
00000230: 9c36 113d 58d9 3f3c 7001 ebbd f5f0 3bbd
00000240: ed23 cb3b f381 843d b5f7 8b3c 78df 82bc
00000250: 9b53 29bd 8c57 dd3c f5b1 e8bb f7e5 8a3c
00000260: 664f 12be 612d a0bd 346a fd3c 980a 20bd
00000270: 885c 4f3d b63e 48bd 5c6e 59bd 004d ae3c
00000280: 34b0 2d3c cfe9 813d 5200 b3bc 5752 86bd
00000290: 361a fe3b f42c aa3d bfbe d23b fa8f 63bd
000002a0: 9ec9 f6bc 1f0f 7b3d c85b 1ebd d6be 423d
000002b0: 158d 123c a958 b13d c699 cabc 05fc b8bd
000002c0: efd3 6cbc 0735 8e3d bf01 db3d 4ff6 bbbb
000002d0: 81ec 51bd 416a a4bc f5f1 61bd ac1d 64bd
000002e0: a9a9 b4bd ba32 363c d6cb 353d 8dbb a7bd
000002f0: 046e 50bb bf1a 4abd b226 713d 55ce 30bd
00000300: 8137 8dbc 807b 873c 6115 c3bc 3422 be3b
00000310: cfa5 713c 4cf6 0fbd 4d13 30bd b420 883d
00000320: 93a4 393c 08fd 483d ec3d c8bb f610 36bb
00000330: 333d 253d b59b 893c 2a13 923d 44b5 8b3d
00000340: 3777 323d 8a97 903d 9314 803d 994f 4a3d
00000350: e174 523d 02d0 8cbc d14a 503c 191c 9cbc
00000360: 0a46 ca3d c239 f0bb 43c3 f93d e48d f6bc
00000370: 06f7 b23d 848a 22bc bce9 18bb 1cd8 b83c
00000380: 45c2 f43c 8b57 923d 6352 b33d a04c 613d
00000390: 5a1f 33bd b03a 1c3c eb07 863d a9c6 a23d
000003a0: 0d3a 623d 5af7 073e 02d5 523d bdc1 013e
000003b0: 6b51 87b9 e265 003d 6633 c23d 5f6e 233a
000003c0: bea1 983d 86f2 053d d110 853c 99db b83c
000003d0: bd24 ac3c f08a 453d 3390 803d b891 4c3d
000003e0: 42ab 693d 3bd2 893d e194 27bd 222a abbd
000003f0: 56d2 debd 0598 e0bc 5393 0dbe 5625 37be
-0.06065724 0.03337804 0.01192115 0.015711272 0.041339267 -0.0654201 -0.07535505 0.014722684
-0.05340587 -0.020544963 0.018841589 0.040031258 -0.022739062 0.000598286 0.014279638 0.11610236
0.06304024 -0.051708985 -0.060698904 -0.0022219436 0.09388057 0.023091637 -0.046942435 -0.08954807
0.020947892 0.065582216 0.03110879 -0.009061233 -0.06569851 -0.0075685834 0.08650213 0.00091283786
-0.05665142 -0.015123553 0.040796783 0.12783395 0.061672393 -0.050407283 0.005195341 0.08175276
0.096099205 0.016656298 -0.054513186 0.026918238 0.038032982 0.09400263 -0.0117051955 -0.01337415
-0.081852324 0.068678565 0.034453172 -0.010888238 0.032851424 0.046253677 0.0349905 -0.0007601252
-0.06249351 -0.053713024 -0.011555194 -0.027604261 -0.041621134 0.0077049932 -0.11363689 0.016277354
-0.013795411 -0.043275513 0.02731261 -0.031427428 -0.04664693 -0.06861788 0.103222735 0.07906264
0.110701226 0.093324736 0.041370325 -0.004337853 -0.023880133 0.03292083 -0.033236608 -0.112819396
0.07438152 0.0023002864 0.07183038 -0.005577986 -0.013927325 -0.008910524 0.037568904 -0.020519728
-0.014724565 -0.056491166 0.019923316 0.025421986 0.019796804 -0.009751547 0.014439702 0.033590175
0.026009008 0.01537291 -0.016192831 0.04628669 -0.00838099 -0.053253613 -0.0030021125 0.01913884
0.02427216 0.016648088 0.00071570446 -0.0039848643 -0.019424267 -0.008326003 0.002920657 0.011140953
0.008898505 -0.033060946 0.044519342 -0.028279023 0.005182084 -0.062159564 0.019083858 -0.0001289673
0.04398444 0.08277049 -0.064751126 -0.036159456 0.013694778 -0.03688586 -0.055634435 -0.09047825
-0.040220942 -0.021101136 0.04710081 0.026738765 -0.018105494 0.008689085 -0.031922545 -0.005898623
0.024809048 -0.071724035 -0.009668172 0.026213784 0.03545247 0.011709534 -0.114748836 -0.04588409
0.006199351 0.06470098 0.01708589 -0.015975699 -0.041339498 0.027019285 -0.0071012923 0.016955359
-0.142881 -0.07821155 0.03093443 -0.039072603 0.050625354 -0.04888793 -0.053083763 0.02127695
0.010601092 0.063434236 -0.021850739 -0.06558674 0.0077545894 0.083093554 0.00643143 -0.05555723
-0.030125435 0.061293717 -0.03866175 0.047545277 0.008944769 0.08659489 -0.024731528 -0.09032444
-0.014454826 0.06943708 0.106936924 -0.0057361494 -0.05125094 -0.020070197 -0.05516239 -0.05569236
-0.088214226 0.011120493 0.044383846 -0.08190069 -0.0031803856 -0.049341913 0.058874793 -0.043165524
-0.01723838 0.016538382 -0.023813905 0.005802417 0.0147490045 -0.035146996 -0.042987157 0.066468626
0.011330741 0.049069434 -0.0061108973 -0.0027781106 0.040341567 0.01679788 0.071325615 0.06821683
0.043570723 0.07060154 0.06253924 0.049392316 0.051380996 -0.01718903 0.01271315 -0.019056367
0.0987664 -0.007331104 0.12195446 -0.030096956 0.08738522 -0.00992072 -0.0023332676 0.022563986
0.029877791 0.07145604 0.087559484 0.055004716 -0.04373107 0.009535477 0.06544479 0.07948048
0.055231143 0.13277951 0.05147267 0.12671562 -0.00025809868 0.031347163 0.0948246 0.0006234403
0.07452725 0.03270199 0.01624337 0.02256565 0.021013612 0.048228204 0.06277504 0.049943656
0.05704809 0.067295514 -0.040913466 -0.083576456 -0.10879962 -0.027416239 -0.13825731 -0.17885336

decoder.4.0.bias f4 [36]
00000000: f85a 86bd 032a dbbd 5e37 a0bd fca9 abbb
00000010: d10f d3bd 0e69 1abe d835 e5bd 4fb5 23be
00000020: 0ca8 babd eade c9bd 9ba9 38be fc11 dbbc
00000030: e497 c2bd 2181 82bd cb28 da3d ecfc 823e
00000040: b6d8 093e 372f 24bd b996 bcbd 5b98 50bc
00000050: c61a 0dbd fd89 06be 7534 98bd b155 d6bd
00000060: a480 41be 1cf4 58be d3fe bfbd 1b5d 0ebe
00000070: 211a 13be b271 15bd 5852 7dbd 0980 85bc
00000080: 86ee 7abd b4fd bbbd aca9 16bd 9c3d 6fbd
-0.0656032 -0.107013725 -0.078230605 -0.0052387696 -0.10305751 -0.15079138 -0.111919105 -0.15987132
-0.09114084 -0.098569706 -0.1803345 -0.026741974 -0.09501627 -0.06372286 0.10652312 0.2558359
0.13461575 -0.04008409 -0.092084356 -0.012731637 -0.03444936 -0.13138576 -0.074318804 -0.10465563
-0.18896729 -0.2118687 -0.09374776 -0.13902704 -0.14365436 -0.03648538 -0.061846107 -0.016296403
-0.06126263 -0.091792494 -0.036782905 -0.058408365

decoder.4.1.weight f4 [36]
00000000: df8f 633f 1153 2a3f 8642 4f3f 69a3 443f
00000010: fb50 593f 8953 523f 2f5f 533f ecdc 593f
00000020: 6c0b 6b3f 4b9e 563f ad2d 713f 8406 693f
00000030: 1d91 633f 913e 633f bc81 743f b982 913f
00000040: ace5 183f a845 273f e685 4b3f 290c 433f
00000050: 79f8 523f 6b03 593f b489 6d3f 0a1b 713f
00000060: 18e8 733f 2a99 853f 1297 803f e6be 6d3f
00000070: 8932 6b3f d8d0 653f 8d44 513f e70a 4d3f
00000080: e567 553f 8625 5f3f ee13 433f a7cf 153f
0.88891405 0.66533 0.8096088 0.76811844 0.8488919 0.82158715 0.82567114 0.85102725
0.91814303 0.83835286 0.9421032 0.9102557 0.888933 0.88767344 0.9551046 1.1368018
0.5972545 0.6534066 0.7950119 0.7619043 0.8241039 0.8477084 0.92788243 0.94181883
0.9527602 1.0437367 1.0046103 0.9286941 0.91873986 0.89771795 0.81745225 0.8009476
0.83361655 0.8716663 0.76202285 0.5851998
