trained_models/6EEE:FA57:AC16:1DF1.pt (torch, 18363 bytes, 12 tensors)

encoder.0.weight f4 [9, 36, 5]
0	0xb9c167ab	-0.00036889067
1	0xbd953c22	-0.0728686
2	0x3dea826f	0.114506595
3	0xbcce594d	-0.025189066
4	0xbd3dcb75	-0.04633661
5	0x3c635651	0.01387556
6	0xbd7e4ae6	-0.062083147
7	0x3df02637	0.11726039
8	0xbcaddf51	-0.02122465
9	0xbcfe42d9	-0.031037735
10	0xbce85efc	-0.028365605
11	0xbd3ee7f9	-0.046607945
12	0x3d3d5f1c	0.04623328
13	0x3ca7a029	0.020462113
14	0x3c7dbdf7	0.015487186
15	0xbb23c73b	-0.0024990577
16	0xbc4a9013	-0.0123634515
17	0x3de404ed	0.11133752
18	0xbd0560a7	-0.032562878
19	0xbd0e8d2f	-0.034802612
20	0x3cd01f53	0.025405562
21	0xbca19e0d	-0.019728685
22	0x3de378f1	0.11107052
23	0xbc377b32	-0.011198806
24	0xbc66ed78	-0.014094703
25	0x3c93ef31	0.018058391
26	0x3bb37210	0.005476244
27	0x3dcca3e7	0.099921994
28	0x3c810977	0.015751584
29	0xbadcbce8	-0.0016840966
30	0x3d0dd330	0.034625232
31	0xbb0d46cf	-0.0021557098
32	0x3df33768	0.11875802
33	0xbcef4913	-0.02920965
34	0xbc039169	-0.008030274
35	0x3cc89cc0	0.024488807
36	0xbcd4b50e	-0.02596524
37	0x3de3aa4c	0.11116466
38	0xbc048ac1	-0.008089722
39	0xbabc2f14	-0.0014357292
40	0x3d0522fb	0.032504063
41	0xbc1d9816	-0.00961878
42	0x3de89911	0.1135732
43	0xbcd1adf6	-0.025595646
44	0xba8bdf36	-0.001067138
45	0x3c6d2a41	0.014475406
46	0x3cbe819e	0.023255166
47	0x3df75b81	0.12078
48	0x3ca0f415	0.019647637
49	0x3b7ccf67	0.003857577
50	0x3c94d9f5	0.018170336
51	0xbbb16080	-0.005413115
52	0x3d0af352	0.033923455
53	0x3d079064	0.033096686
54	0x3d31cf34	0.043410495
55	0x3c7644e9	0.015031078
56	0x3c4fb841	0.012678207
57	0x3de94ae5	0.11391238
58	0xbc268df1	-0.010165677
59	0x3b9b3af6	0.0047372533
60	0xbc5bd08d	-0.013416422
61	0x3b4f99df	0.0031677408
62	0x3d61380b	0.054985087
63	0xbc14cc03	-0.009081843
64	0x39c211fa	0.00037015957
65	0xbd93dd8d	-0.07219992
66	0xbcb84dea	-0.02249809
67	0x3d345964	0.044030562
68	0x3c450ccb	0.012026976
69	0x3c3f58ba	0.011678869
70	0xbe18bcb8	-0.1491574
71	0xbe0ba808	-0.13638318
72	0xbcbdae2c	-0.02315434
73	0xbdbaef4a	-0.09127672
74	0xbc7cd3b6	-0.015431335
75	0xbd463d86	-0.048398517
76	0xbdb5b5f0	-0.088725924
77	0x3d25ce24	0.040479794
78	0xbde88534	-0.113535315
79	0xbcf9dd6b	-0.030501088
80	0xbbe5a810	-0.00700856
81	0xbd9c9914	-0.07646385
82	0x3d1c2e93	0.038130354
83	0xbde52cff	-0.11190223
84	0xbdccdd2b	-0.10003122
85	0xbd14668d	-0.036230613
86	0x3c5af3ed	0.0133638205
87	0x3d3ef5cd	0.046621133
88	0xbe06647a	-0.13124266
89	0xbd60b364	-0.05485858
90	0x3d1b475c	0.03790985
91	0xbd46dbc7	-0.04854944
92	0x3d200369	0.039065752
93	0xbd91ad23	-0.07113101
94	0xbce8ae83	-0.028403526
95	0x3cd1a560	0.025591552
96	0xbe12ee4e	-0.14348719
97	0x3c9fd583	0.01951099
98	0xbd30b494	-0.043140963
99	0xbc878e4f	-0.01654735
100	0x3c945d71	0.018110963
101	0xbd96fb39	-0.07372136
102	0xbd74c3aa	-0.059756912
103	0xbd02824a	-0.031862535
104	0xbc78e7ca	-0.015191982
105	0x3d78459b	0.060613256
106	0x3d51c499	0.05121288
107	0xbcaeaf85	-0.021323929
108	0xbc4b7da5	-0.012420093
109	0x3b8c7d75	0.0042874166
110	0x3d8cc621	0.068737276
111	0x3c789ea9	0.015174546
112	0xbcbd21d5	-0.023087421
113	0x3c961fd3	0.018325722
114	0x3cad644d	0.021165991
115	0x3d5ce4a5	0.05392899
116	0x3daa98c6	0.083299205
117	0xbd1b51d3	-0.03791983
118	0x3c877d36	0.016539197
119	0x3c86aa9d	0.016438777
120	0x3d0f4bad	0.03498428
121	0x3d787ea5	0.060667653
122	0xbd88b37f	-0.06674861
123	0xbbee7897	-0.007277559
124	0x3b4a5f7a	0.0030879662
125	0x3d8e79e1	0.0695684
126	0x3d1a2967	0.03763714
127	0xbcb52a75	-0.022114972
128	0x3cb877ab	0.022518
129	0x3ca4e7fe	0.020130154
130	0x3d82a95c	0.06379959
131	0xbd02d1f9	-0.031938527
132	0xbcbf3db1	-0.023344846
133	0x3c4b1e00	0.012397289
134	0x3cd0b017	0.025474591
135	0x3d207a81	0.03917933
136	0x3d1189a8	0.03553167
137	0xbd96103b	-0.073273145
138	0xbcb40e46	-0.021979462
139	0x3b7bb533	0.0038407564
140	0x3d5de42a	0.054172672
141	0x3cb453c4	0.022012599
142	0xbd9210cf	-0.07132112
143	0xbd342125	-0.04397692
144	0x3bdb12a8	0.0066855736
145	0x3d37e510	0.044896185
146	0x3c9210ba	0.017830241
147	0xbe034657	-0.12819801
148	0xbd5b4cbd	-0.05353998
149	0x3c3d0448	0.011536665
150	0x3d0edd12	0.034878798
151	0x3d0ca4f3	0.034336995
152	0xbdc92869	-0.09822161
153	0xbcd5f452	-0.026117478
154	0xbc7282ad	-0.014801663
155	0x3c86d661	0.016459646
156	0x3d42885c	0.047493324
157	0xbda8ca80	-0.08241749
158	0xbd2c992a	-0.042138256
159	0xbb4369ca	-0.0029817694
160	0x3d76aa69	0.06022111
161	0xbc8c588f	-0.017132072
162	0xbd9d1b3a	-0.07671209
163	0xbd885f69	-0.06658823
164	0xbaef0512	-0.0018235764
165	0x3d2647d9	0.040595863
166	0xbba0eb06	-0.0049108295
167	0xbd9d271a	-0.07673474
168	0xbd481b93	-0.04885442
169	0xbc3520ae	-0.011055155
170	0xbd8feeba	-0.07027955
171	0x3cecc927	0.02890451
172	0xbe748919	-0.23880424
173	0xbda080cd	-0.07837067
174	0xbd6e17eb	-0.05812828
175	0xbd52b9b9	-0.05144665
176	0xbd0b8c5d	-0.034069408
177	0xbe168c85	-0.14702041
178	0xbca7cfb5	-0.020484785
179	0xba95f632	-0.001144117
180	0xbd01fce8	-0.03173533
181	0xbdc1e062	-0.09466626
182	0x3d23a86f	0.039955553
183	0xbad1fa60	-0.0016020052
184	0xbd5af0ec	-0.053452417
185	0xbca8ba7f	-0.02059674
186	0xbda4b49d	-0.08042262
187	0x3d04740f	0.032337245
188	0xbd4802e9	-0.0488309
189	0xbcb6eeb4	-0.02233062
190	0xbd2183bc	-0.039432272
191	0xbdaed025	-0.08535794
192	0x3c7ef972	0.015562402
193	0xbcf72258	-0.030167744
194	0xbd555229	-0.052080307
195	0xbb9f8b45	-0.004868897
196	0xbc41321e	-0.011791734
197	0x3c882385	0.0166185
198	0xbd73c530	-0.059514225
199	0xbd9ae340	-0.07562876
200	0x3c856850	0.016285092
201	0x3cd26051	0.025680693
202	0x3c90f754	0.01769606
203	0xbcea793b	-0.02862226
204	0xbd265d0c	-0.04061608
205	0x3c756929	0.014978685
206	0x3cc1f1c0	0.023674846
207	0x3d122a07	0.03568461
208	0x3c95a77f	0.018268345
209	0xbb024986	-0.001988025
210	0x3a875388	0.0010324577
211	0xbbfc7d12	-0.007705339
212	0x3cc4ea27	0.024037434
213	0x3cf46ee8	0.02983804
214	0xbc9d8d93	-0.019232547
215	0x3c12c5db	0.008958305
216	0x3b69ea27	0.0035692544
217	0x3d0ee6d3	0.0348881
218	0x3c7bc8f8	0.015367739
219	0xbd115a82	-0.035486706
220	0x3b8af164	0.004240202
221	0x3cde9337	0.027169807
222	0x3d7f18a0	0.062279344
223	0x3b828b15	0.003983865
224	0xbc4fb82c	-0.012678187
225	0xbc13db9e	-0.009024529
226	0x3dea376b	0.114363514
227	0x3d8f7ef1	0.07006634
228	0x3d55f760	0.05223787
229	0xbc98ebae	-0.018667068
230	0xbc9dab29	-0.019246655
231	0x3d1e06e7	0.0385808
232	0x3d56e0f7	0.052460637
233	0x3d4f9aab	0.050684612
234	0x3c45f72b	0.012082855
235	0x3cf8c2e8	0.030366376
236	0x3d9d8f17	0.07693308
237	0x3d47e9ee	0.048807077
238	0x3bd3587d	0.0064497576
239	0xbcf7a921	-0.030232014
240	0x3c717355	0.01473697
241	0x3d00e067	0.031464007
242	0x3d4ca547	0.04996231
243	0x3cfdced7	0.030982418
244	0xbd003e13	-0.0313092
245	0xbd66db32	-0.056361385
246	0xbc6e4e31	-0.0145450095
247	0x3c9e4de9	0.01932426
248	0x3cf3444d	0.029695654
249	0xbc48150b	-0.012212048
250	0xbe101064	-0.14068753
251	0xbe6327fe	-0.22183225
252	0xbdc00f47	-0.09377914
253	0xbe2d5771	-0.16927887
254	0xbdfe2675	-0.12409679
255	0xbd9d935d	-0.07694123

encoder.0.bias f4 [9]
0	0xbd104768	-0.03522435
1	0xbe04b72e	-0.12960503
2	0x3e018f0f	0.12652229
3	0xbe7fc8b9	-0.24978913
4	0xbe064c3c	-0.13115019
5	0xbe4e21e8	-0.20130122
6	0xbdd3a621	-0.10334421
7	0xbd73529a	-0.059404947
8	0xbcb0254d	-0.021502161

encoder.1.weight f4 [9]
0	0x3ea8e58e	0.32987636
1	0x3ea1ed14	0.3162619
2	0x3eba2103	0.3635331
3	0x3ec57ce3	0.38571844
4	0x3ec1d309	0.3785632
5	0x3e301a69	0.17197575
6	0x3ed07227	0.4071209
7	0x3ee28d87	0.44248602
8	0x3eae3efe	0.34032434

encoder.1.bias f4 [9]
0	0xbe1a9269	-0.15094914
1	0xbe6ff43c	-0.23433012
2	0x3db315c4	0.08744386
3	0xbebf7542	-0.37394148
4	0xbe5518d7	-0.20810257
5	0xbeaca5d6	-0.33720273
6	0xbe274d4b	-0.16338079
7	0xbe46e560	-0.19423437
8	0xbe1b3049	-0.15155138

encoder.1.running_mean f4 [9]
0	0xbf594d89	-0.84883934
1	0xc012fe3f	-2.296768
2	0x401e0453	2.469014
3	0xc01e8f13	-2.4774826
4	0xbfb31d28	-1.3993273
5	0xc02b3bd2	-2.6755261
6	0xbf2a4061	-0.66504484
7	0xbfb55639	-1.4166938
8	0xbf1b18cc	-0.6058471

encoder.1.running_var f4 [9]
0	0x3c2cba79	0.010542505
1	0x3c2d3c0f	0.010573401
2	0x3ca7df4d	0.02049222
3	0x3c6bb949	0.014387437
4	0x3c4b1a57	0.012396417
5	0x3c1e0c87	0.009646541
6	0x3c778380	0.015107036
7	0x3c165256	0.009174904
8	0x3c2d95be	0.010594783

decoder.0.weight f4 [9, 36, 5]
0	0xbbf34313	-0.0074237674
1	0xbd730b5e	-0.059337012
2	0x3de85d00	0.11345863
3	0xbdca9ac0	-0.098927975
4	0xbd6c1511	-0.057637278
5	0xbcbd2f5a	-0.023093868
6	0xbda3e165	-0.08001975
7	0x3e09d106	0.13458642
8	0xbdf13da5	-0.11779336
9	0xbd8291f0	-0.063754916
10	0xba655249	-0.0008747918
11	0xbd19eac3	-0.0375774
12	0x3c24afda	0.010051692
13	0x3c977e2d	0.018492782
14	0x3d1aadce	0.03776341
15	0xbc88de62	-0.016707603
16	0xbd779bb6	-0.060451232
17	0x3da7d5d5	0.08195082
18	0xbd459ead	-0.04824703
19	0xbcb028f1	-0.021503897
20	0xbb558de7	-0.00325858
21	0xbd847b28	-0.06468803
22	0x3dae7430	0.08518255
23	0xbcfbae34	-0.030722715
24	0xbca6cc05	-0.020360956
25	0xbd083aa3	-0.033259045
26	0xbd8b7f4e	-0.06811391
27	0x3d931e7d	0.071835496
28	0xbcefbebf	-0.02926576
29	0xbcd3b6a5	-0.025843928
30	0xbbbd1326	-0.005770105
31	0xbd0dc072	-0.03460736
32	0x3d7b74ec	0.061390802
33	0xbd05f567	-0.032704737
34	0xbc8c38b3	-0.01711688
35	0xbceb0101	-0.028687002
36	0xbd993686	-0.07481103
37	0x3da34bfe	0.07973479
38	0xbd2d7294	-0.0423456
39	0xbc78ca61	-0.01518497
40	0xbc17cd95	-0.009265323
41	0xbd29d63f	-0.041464087
42	0x3d5df9ec	0.054193422
43	0xbcb9db69	-0.02268763
44	0xbb95ce66	-0.0045717238
45	0xbd4c90d8	-0.04994282
46	0xbd35dde6	-0.044401072
47	0x3d9d2e89	0.076748915
48	0xbc0b1469	-0.008488753
49	0xbcc5383e	-0.02407467
50	0xbd138656	-0.036016785
51	0xbd0233fc	-0.031787857
52	0xbc7b5f0a	-0.015342483
53	0x3c8d829a	0.01727419
54	0x3c016c74	0.007899392
55	0xbcb64187	-0.022248043
56	0xbcd422e0	-0.025895536
57	0x3d69e8ac	0.05710666
58	0xbcb520c0	-0.022110343
59	0xbb46a181	-0.0030308666
60	0xbd27e0d4	-0.040985897
61	0xbd313ffe	-0.04327392
62	0x3cf2d2fd	0.029641623
63	0xbcb5b51c	-0.022181086
64	0xbaaef3b6	-0.0013347778
65	0xbd9031b7	-0.07040732
66	0xbd502bb7	-0.05082294
67	0x3c92023c	0.017823331
68	0x3c62c50c	0.013840925
69	0x3b96f518	0.004606854
70	0xbca104e6	-0.019655656
71	0xbd1fbb2e	-0.038996868
72	0x3b60d077	0.0034303942
73	0xbca561ff	-0.02018833
74	0x3c59332c	0.013256829
75	0x3982f8ae	0.00024980813
76	0xbc53d5ce	-0.012929393
77	0x3c8421d4	0.016129412
78	0xbca72556	-0.020403545
79	0xbb16dff1	-0.0023021663
80	0x3d0ced74	0.03440614
81	0xbe0b5c55	-0.1360944
82	0x3db9d2a5	0.090733804
83	0xbe61aa67	-0.2203766
84	0xbe2b9405	-0.16755684
85	0xbc91d82a	-0.01780327
86	0x3bf6f196	0.0075361235
87	0x3cb31150	0.021858841
88	0xbdeed00c	-0.116607755
89	0xbd100bde	-0.035167567
90	0x3d006838	0.03134939
91	0xbd03b2a9	-0.032152805
92	0x3d10bb93	0.035335135
93	0xbd877c46	-0.066155
94	0xbc0eb705	-0.008710627
95	0x3c753c94	0.014968056
96	0xbd90186e	-0.070359096
97	0xbd274848	-0.040840417
98	0xbd1be36f	-0.038058694
99	0xbae5f2aa	-0.0017543633
100	0x3bcc59e0	0.0062363
101	0xbd64527a	-0.05574272
102	0xbd485414	-0.04890831
103	0xbcc2a7e3	-0.023761695
104	0xbc600048	-0.013671942
105	0x3c9a095b	0.01880329
106	0x3c443324	0.0119750835
107	0xbd88cd8a	-0.066798285
108	0xbcf8fb6c	-0.030393325
109	0xbc54f8e2	-0.012998791
110	0x3c46d922	0.012136729
111	0xbbdcb98f	-0.0067359875
112	0xbd998b56	-0.07497279
113	0xbc3d8086	-0.011566287
114	0x3a92e4d8	0.0011207117
115	0x3b67052b	0.0035250883
116	0x3d286c10	0.04111868
117	0xbde77a1d	-0.11302588
118	0xbc4719cf	-0.012152149
119	0xbb9b3752	-0.0047368193
120	0xbc4883ae	-0.012238426
121	0x3c985378	0.018594489
122	0xbe117b1d	-0.1420712
123	0xbcf4fc17	-0.029905362
124	0xbbe83670	-0.0070865676
125	0x3cb15989	0.021649139
126	0xbc165835	-0.009176304
127	0xbdb4d034	-0.08828774
128	0xbb7285b5	-0.0037005965
129	0xbaa63029	-0.0012679148
130	0x3c87403e	0.016510125
131	0xbd8d1c7e	-0.068902
132	0xbdd31aeb	-0.103078686
133	0xbcdc4332	-0.02688751
134	0xbb31944d	-0.002709645
135	0xb9fbe0d5	-0.00048041964
136	0x3c55b461	0.013043494
137	0xbe24875b	-0.16067259
138	0xbd869b0c	-0.065725416
139	0xbc33917f	-0.010959982
140	0x3c896644	0.016772397
141	0x3bcdc230	0.0062792525
142	0xbde83e49	-0.11340005
143	0xbd2e7c67	-0.042599108
144	0x3af4c93b	0.0018675694
145	0x3c408ea4	0.011752758
146	0x3b29ca3b	0.0025907892
147	0xbe063b4a	-0.13108554
148	0xbd7bbace	-0.061457448
149	0x3c2e617e	0.010643361
150	0x3b2d297e	0.0026422436
151	0x3c25de7b	0.010123844
152	0xbddfbcd0	-0.10924685
153	0xbcd92014	-0.026504554
154	0xbaa96a4b	-0.0012925355
155	0xb941ad72	-0.00018470528
156	0x3cc1bb34	0.023648836
157	0xbe2673b4	-0.16255075
158	0xbd614a06	-0.055002235
159	0x3bfc5097	0.0077000367
160	0x3d471b0b	0.048609775
161	0xbafb3d0c	-0.0019167974
162	0xbe412606	-0.18862161
163	0xbdc7ae87	-0.09750085
164	0x3cc8e9df	0.02452558
165	0x3c8b99c1	0.017041089
166	0x3bc8fb9d	0.0061335103
167	0xbe0ce28c	-0.13758296
168	0xbd82c869	-0.063858815
169	0x3a8e2f76	0.0010847885
170	0xbcfb494d	-0.030674601
171	0x3d1cd970	0.038293302
172	0xbe750962	-0.2392936
173	0xbd4be1ab	-0.04977576
174	0xbd75254f	-0.059850033
175	0xbd35ce52	-0.044386216
176	0x392765f2	0.00015964339
177	0xbe570cd8	-0.21000993
178	0xbd85721b	-0.065159045
179	0xbcd2b170	-0.025719374
180	0xbd5a863a	-0.053350665
181	0xbd69776b	-0.05699865
182	0x3d64843e	0.05579018
183	0xbdd6fdd0	-0.1049763
184	0xbe0f3e2d	-0.13988562
185	0x3c2c8694	0.010530133
186	0x3d3e5c43	0.046474706
187	0x3d8fd729	0.070234604
188	0xbdb9b5bf	-0.090678684
189	0xbc101c00	-0.008795738
190	0x3d5556e0	0.052084804
191	0xbd3eb2c6	-0.04655721
192	0x3dd9aec0	0.10629034
193	0x3c9fee7f	0.019522903
194	0xbaf62b9c	-0.0018781307
195	0x3c6f98cf	0.014623835
196	0x3ca1ccdd	0.019751007
197	0x3d61afb1	0.055099193
198	0xbc9d7cf6	-0.019224625
199	0xbcb9d606	-0.022685062
200	0x3cb1ec96	0.021719258
201	0x3dd3dafa	0.10344501
202	0xbc6c9184	-0.0144389905
203	0x3d6f8599	0.058477018
204	0x3bfd2c89	0.0077262563
205	0x3d224ca8	0.039623886
206	0x3d040052	0.032226868
207	0x3da9c86c	0.082901806
208	0x3dc6ecbf	0.097131245
209	0x3c417596	0.01180782
210	0xba8858e6	-0.001040247
211	0x3d092172	0.03347916
212	0x3d2d8338	0.042361468
213	0x3d5c2c82	0.053753383
214	0xbb6e285b	-0.0036339972
215	0xbbbdf7a4	-0.0057973433
216	0x3cc5767e	0.024104353
217	0x3ce29b28	0.027661875
218	0x3d7f2119	0.062287424
219	0x3cc06471	0.023485394
220	0xbd0bd28d	-0.034136344
221	0x3dac76aa	0.08421071
222	0x3bfbfaf9	0.0076898304
223	0x3d121bd6	0.035671078
224	0x3cdc18e5	0.02686734
225	0xbdcb32cb	-0.09921797
226	0x3e3dcab2	0.18534353
227	0x3b8d6ae0	0.004315719
228	0x3d083f99	0.033263776
229	0xbd212140	-0.03933835
230	0xbd95df60	-0.07317996
231	0x3dda7d4c	0.1066843
232	0xbca1d43e	-0.019754525
233	0x3d32bf7d	0.04363965
234	0x3d096ce4	0.03355111
235	0x3bcd9e0d	0.0062749446
236	0x3dbff943	0.09373715
237	0x3c4edbcf	0.012625649
238	0x3c8c32ab	0.017114004
239	0xbc87495a	-0.016514469
240	0xbd281c3f	-0.041042563
241	0x3b748078	0.0037308019
242	0xbc7b9e65	-0.015357588
243	0xbd8b69ad	-0.068072654
244	0xbd8ec8f9	-0.06971926
245	0xbd3d56f1	-0.046225492
246	0xbba79041	-0.005113632
247	0x3cf75eb8	0.030196533
248	0x3d4379cb	0.047723573
249	0x3c8e67a0	0.017383397
250	0xbbbb6833	-0.0057192086
251	0xbd59edba	-0.05320523
252	0x3d6a01bd	0.057130564
253	0xbdcdaec1	-0.10043097
254	0x3b0ab7b3	0.0021166622
255	0x3c83069c	0.015994363

decoder.0.bias f4 [36]
0	0xbdede293	-0.11615481
1	0xbdff9612	-0.124797955
2	0xbdecf044	-0.115692645
3	0xbdcd847f	-0.10035037
4	0xbe1f70cf	-0.15570377
5	0xbe11b6ae	-0.14229843
6	0xbe219086	-0.15777788
7	0xbe0787fc	-0.13235468
8	0xbe27d22f	-0.16388772
9	0xbe1bcb64	-0.15214306
10	0xbdbfeeae	-0.093716964
11	0xbd558cd7	-0.05213627
12	0xbe327efd	-0.17431255
13	0xbcf1e4a3	-0.029527968
14	0x3d38c080	0.045105457
15	0x3e4999cd	0.19687577
16	0x3e52f066	0.20599517
17	0x3ce1688c	0.027515672
18	0xbdfb0e04	-0.12258533
19	0x3b208e6e	0.0024498957
20	0xbde4cf2d	-0.11172328
21	0xbc3f30a8	-0.011669315
22	0xbd808671	-0.06275643
23	0xbd78f474	-0.060780004
24	0xbe0334f9	-0.12813176
25	0xbe359df7	-0.1773604
26	0xbe1590a5	-0.14605959
27	0xbde80ea2	-0.11330916
28	0xbda968bb	-0.08271929
29	0xbda5df91	-0.080992825
30	0xbe22c637	-0.15895925
31	0xbe2629a8	-0.16226828
32	0xbd691c46	-0.05691173
33	0xbd72fc07	-0.059322383
34	0xbe051cfe	-0.12999341
35	0xbe1044a7	-0.14088689

decoder.1.weight f4 [36]
0	0x3e247562	0.16060403
1	0x3e3baddb	0.1832804
2	0x3e9415fd	0.28923026
3	0x3e99b77c	0.300228
4	0x3eb5d6a3	0.35515317
5	0x3e85c95d	0.2613019
6	0x3e941b7b	0.28927216
7	0x3eb25a89	0.34834698
8	0x3f0ba0ad	0.54542047
9	0x3ef312a5	0.47475162
10	0x3f05bb99	0.52239376
11	0x3f18ed4e	0.597371
12	0x3efbff58	0.4921825
13	0x3edc4972	0.43024784
14	0x3f1b2a15	0.6061109
15	0x3f553791	0.8328791
16	0x3db514f3	0.08841886
17	0x3e78f9bf	0.2431402
18	0x3eb36cfd	0.3504409
19	0x3ebdef40	0.37096596
20	0x3ee6030e	0.44924206
21	0x3ec4c0d6	0.38428372
22	0x3ef0d185	0.4703485
23	0x3ef6790f	0.48139235
24	0x3eece526	0.46268576
25	0x3f16183a	0.58630717
26	0x3f03285b	0.5123345
27	0x3f2dc244	0.6787455
28	0x3efeda1e	0.49775785
29	0x3eee3d3d	0.46531096
30	0x3eb357e4	0.35027993
31	0x3eb8d10b	0.36096987
32	0x3e81d1ec	0.2535547
33	0x3ebc794a	0.36811286
34	0x3efb0b19	0.49031904
35	0x3ebd9ff7	0.37036106

decoder.1.bias f4 [36]
0	0xbe3343a0	-0.17506266
1	0xbe3b49b6	-0.18289837
2	0xbe31cf81	-0.17364313
3	0xbe3ea5b8	-0.18617904
4	0xbe3da6e2	-0.18520692
5	0xbe4dc74d	-0.20095558
6	0xbe3bdd7f	-0.18346213
7	0xbe57b3b0	-0.21064639
8	0xbe55af43	-0.20867638
9	0xbe642287	-0.22278796
10	0xbe5f0e56	-0.21782812
11	0xbe4d0381	-0.20020868
12	0xbe6448f8	-0.2229346
13	0xbe4a404e	-0.19751093
14	0x3e64142b	0.22273318
15	0x3e788f54	0.24273425
16	0x3e54a949	0.20767702
17	0xbdb54948	-0.08851868
18	0xbe2b5fb4	-0.16735727
19	0xbe33f542	-0.17574027
20	0xbe2fee96	-0.17180857
21	0xbe3ca8c7	-0.18423758
22	0xbe5b1be8	-0.21397364
23	0xbe68ed74	-0.22746831
24	0xbe63c1db	-0.22241919
25	0xbe6623a2	-0.2247453
26	0xbe76d5f7	-0.24105059
27	0xbe6b852a	-0.23000017
28	0xbe601fb1	-0.2188709
29	0xbe57098e	-0.20999739
30	0xbe564ead	-0.2092845
31	0xbe4b649f	-0.19862603
32	0xbe49c3e5	-0.19703634
33	0xbe454b1b	-0.19266932
34	0xbe5fc396	-0.21851954
35	0xbe6022a2	-0.21888211

decoder.1.running_mean f4 [36]
0	0xbdbbdec3	-0.09173348
1	0xbdd1b4b9	-0.10239548
2	0xbdb3ea56	-0.087849304
3	0xbd684ae7	-0.056712057
4	0xbdc4f65f	-0.09617304
5	0xbda968cd	-0.08271942
6	0xbe0424a9	-0.1290461
7	0xbd5ec43c	-0.054386362
8	0xbdc535e7	-0.09629422
9	0xbd8f4f50	-0.069975495
10	0xbd35cd6c	-0.04438536
11	0xbb7e77ab	-0.0038828652
12	0xbdcfb44e	-0.10141812
13	0x3d185f46	0.037200235
14	0x3d12ab07	0.035807636
15	0x3e2171c6	0.15766057
16	0x3dc2e17e	0.095156655
17	0xbd1925ec	-0.03738968
18	0xbdc421ee	-0.09576784
19	0x3c9b982b	0.018993458
20	0xbdbc2cd9	-0.091882415
21	0x3d1f7adf	0.03893554
22	0xbbb7cef7	-0.005609389
23	0x3cd5f161	0.026116075
24	0xbd504a7a	-0.050852276
25	0xbdaa5cdc	-0.08318493
26	0xbd787b36	-0.060664378
27	0xbd1dc382	-0.03851653
28	0xbc665b2d	-0.014059824
29	0xbc97c083	-0.018524414
30	0xbdeda128	-0.11603004
31	0xbe015fe5	-0.12634237
32	0xbd1278b9	-0.03575966
33	0xbd128b61	-0.035777453
34	0xbda4f4b5	-0.08054487
35	0xbd59257f	-0.053014275

decoder.1.running_var f4 [36]
0	0x3d7eba85	0.062189598
1	0x3e07a0c9	0.13244928
2	0x3e147cc0	0.14500713
3	0x3e210541	0.1572466
4	0x3e549961	0.20761634
5	0x3e0deb8b	0.13859384
6	0x3d337ba9	0.043819103
7	0x3e027908	0.12741482
8	0x3dfad544	0.122477084
9	0x3df26767	0.11836129
10	0x3de87bb9	0.11351723
11	0x3dacefb6	0.08444159
12	0x3db8601b	0.09002706
13	0x3e046477	0.1292895
14	0x3e49c92e	0.1970565
15	0x3d77031a	0.060305692
16	0x3e1ed6ab	0.15511577
17	0x3dd48f36	0.10378878
18	0x3dfbe62c	0.12299761
19	0x3dae91f8	0.08523935
20	0x3ddf03dc	0.10889408
21	0x3df773a0	0.120826006
22	0x3db3a3af	0.087714545
23	0x3ddb6210	0.10712063
24	0x3de6afc1	0.11263991
25	0x3e1ee1a4	0.15515763
26	0x3e0b2695	0.13588937
27	0x3e46d19e	0.194159
28	0x3dbc50e2	0.09195115
29	0x3da07e1d	0.07836554
30	0x3d115b4f	0.03548747
31	0x3e01431b	0.12623255
32	0x3dd4b22f	0.10385548
33	0x3dc2de52	0.095150605
34	0x3e394580	0.18092918
35	0x3e40c50c	0.18825167
