trained_models/70CB:3E0E:7425:D0F2.pt (torch, 115513 bytes, 24 tensors)

encoder.0.0.weight f4 [36, 36, 7]
0	0x3d179dd6	0.03701576
1	0x3c871c4f	0.01649299
2	0x3c88859a	0.016665269
3	0x3bf07537	0.007338192
4	0xbc86d64e	-0.01645961
5	0x3de86b09	0.1134854
6	0x3e256468	0.16151583
7	0x3c1c5708	0.009542234
8	0x3c71f9db	0.014769043
9	0x3d8e7774	0.069563776
10	0x3d53ce00	0.05171013
11	0x3d27e16e	0.04098647
12	0x3e09f61d	0.13472791
13	0x3db3c668	0.08778077
14	0x3db70fe6	0.08938579
15	0x3d37671c	0.044776067
16	0x3d29609b	0.041351896
17	0x3dc29f1e	0.095030054
18	0x3d55bed8	0.052183956
19	0xbd41d54e	-0.047322564
20	0x3b686a66	0.003546381
21	0x3ce24c90	0.027624398
22	0xbc98787a	-0.018612135
23	0x3d5ae798	0.05344352
24	0x3d9a8193	0.075442456
25	0x3cf5b532	0.029993627
26	0x3daefd30	0.085443854
27	0x3d90f2d0	0.07077563
28	0x3cc04a57	0.023472948
29	0x3a57d6ea	0.0008233624
30	0x3d26e05e	0.040741317
31	0x3d1ae6c5	0.037817735
32	0x3d34b829	0.04412094
33	0x3e068b26	0.13139018
34	0x3e1ad90e	0.15121862
35	0x3a54f49b	0.0008123607
36	0x3ab68d03	0.0013927523
37	0x3d2f2641	0.04276109
38	0x3d8220c5	0.063539065
39	0x3d4d1582	0.05006934
40	0x3e3ca447	0.18422042
41	0x3dd79ee4	0.10528353
42	0x3c2f4ba3	0.010699186
43	0x3d090082	0.03344775
44	0x3cc2801d	0.02374273
45	0x3d8ad19a	0.067782596
46	0x3be19505	0.0068842196
47	0x3e24a629	0.1607901
48	0x3dc7ecd1	0.09761966
49	0xbd342044	-0.043976083
50	0xbcd8aee1	-0.026450576
51	0x3d5a4faf	0.05329865
52	0x3cd34f5d	0.02579468
53	0x3d41012b	0.047120254
54	0x3d9d1dbc	0.07671687
55	0x3e1db035	0.15399249
56	0x3d3a5d0d	0.045498896
57	0x3c93471c	0.017978244
58	0x3c64fe35	0.013976623
59	0x3d85d8ad	0.06535468
60	0x3d9a8714	0.07545295
61	0x3da6aa91	0.08138002
62	0x3e028fab	0.12750117
63	0xbd2645d8	-0.040593952
64	0x3c8b24c7	0.01698531
65	0xbd0e9ce0	-0.034817576
66	0x3d54ef95	0.051986296
67	0x3c265639	0.010152393
68	0x3e1d4495	0.15358193
69	0x3e1e004a	0.15429798
70	0x3d110207	0.035402324
71	0x3c02ee3a	0.007991368
72	0x3b484ce6	0.0030563413
73	0x3d87a7df	0.06623816
74	0x3cfa9f0f	0.030593423
75	0x3e1f2c04	0.15544134
76	0x3e15784d	0.14596672
77	0x3d40ffd2	0.04711897
78	0x3d329009	0.043594394
79	0x3c7cea81	0.015436769
80	0x3d31bde8	0.043394
81	0x3d04c4f3	0.032414388
82	0x3df65bb5	0.120292105
83	0x3dea7ab3	0.11449184
84	0xbd515d67	-0.051114466
85	0x3cc20a32	0.023686502
86	0x3d39ca39	0.04535887
87	0x3d3cdbc3	0.04610802
88	0xbbfff5ce	-0.0078112846
89	0x3e287070	0.16449142
90	0x3d96c1e5	0.07361201
91	0xbcb3779e	-0.021907624
92	0x3d3dabbb	0.046306353
93	0x3d88c3fb	0.06678005
94	0x3dbf82f2	0.09351148
95	0x3d92af4c	0.071623415
96	0x3e048211	0.12940241
97	0x3d97004a	0.07373102
98	0x3d32705b	0.04356418
99	0x3d20eb32	0.0392868
100	0x3dc725c3	0.09723999
101	0x3d5094c8	0.05092314
102	0x3d870cbd	0.065942265
103	0xbe03e955	-0.12881978
104	0xbdcf2279	-0.10113997
105	0x3d08b250	0.033373177
106	0xbce04c9f	-0.027380286
107	0xbc937b9d	-0.01800328
108	0xbc54691c	-0.012964513
109	0xbc6ef19c	-0.014583971
110	0xbd9e8344	-0.07739881
111	0xbe11d165	-0.14240034
112	0xbd558bfd	-0.052135456
113	0x3d9a13e8	0.07523328
114	0xbd1165e8	-0.035497576
115	0xbd4433c3	-0.047900926
116	0xbd80b90c	-0.06285295
117	0xbdc416af	-0.09574639
118	0xbe13ad47	-0.14421569
119	0xbc4d822e	-0.012543244
120	0x3d8f9496	0.070107624
121	0xbb442bbb	-0.0029933292
122	0xbd5887af	-0.052863773
123	0x3caf417d	0.021393532
124	0xbd5ae69c	-0.053442582
125	0xbdf112ef	-0.117711894
126	0x3d56ff4e	0.05248957
127	0x3d972d1c	0.07381651
128	0x3bceb62b	0.006308337
129	0x3a075d57	0.000516375
130	0x3d518bda	0.051158763
131	0xbd88ebc1	-0.066855915
132	0xbcddbe56	-0.027068298
133	0xbd67d63f	-0.056600805
134	0x3bd6bc6b	0.006553223
135	0xbd685920	-0.05672562
136	0x3c300afe	0.010744808
137	0xbce26aa8	-0.027638748
138	0x3e0037c2	0.1252127
139	0x3d6daaa7	0.058024075
140	0xbd57d895	-0.052696783
141	0x3c935e30	0.017989248
142	0xbd473bb6	-0.04864093
143	0x39e0f800	0.00042909384
144	0xbcab75e4	-0.020930238
145	0x3dab13b3	0.08353367
146	0x3dbfd800	0.093673706
147	0x3b6aec78	0.0035846513
148	0x3cc5f62a	0.024165232
149	0x3bca4486	0.0061727194
150	0xbd1096be	-0.03530001
151	0x3a0daa8e	0.0005404138
152	0x3e10fb0f	0.14158271
153	0x3dbcf88b	0.09227093
154	0x3d579237	0.052629676
155	0xbc91665b	-0.017749002
156	0xbc95006f	-0.018188683
157	0x3c799549	0.015233346
158	0xbc3acd76	-0.011401525
159	0x3da4df51	0.08050407
160	0x3dd3250a	0.10309799
161	0x3d0be92b	0.034157913
162	0x3d3631aa	0.044480957
163	0xbd33af91	-0.043868605
164	0xbc00b208	-0.007854946
165	0x3d04881e	0.032356374
166	0x3e0a91a8	0.13532126
167	0x3dcdfbb5	0.10057775
168	0xbd86a013	-0.065735005
169	0x3ba57d16	0.005050312
170	0x3cb8afed	0.022544825
171	0xbd42ea25	-0.04758658
172	0x3cbd47be	0.023105498
173	0x3ddaa4db	0.10675975
174	0x3e0a1bd6	0.13487181
175	0xbc458e68	-0.012057878
176	0xbc8cd4b1	-0.017191263
177	0x3d0612b6	0.032732688
178	0xbbeb7aad	-0.007186255
179	0xbc482382	-0.012215497
180	0x3d9e6d97	0.07735746
181	0x3e1a8699	0.15090407
182	0x3be3b6b0	0.0069492683
183	0x3b11df52	0.0022258353
184	0xbcd30fc9	-0.025764363
185	0x3c99f501	0.018793585
186	0x3ce59b1c	0.028028063
187	0x3db31d17	0.08745783
188	0x3d7ced65	0.061749835
189	0xbd45a926	-0.048257016
190	0xbc28aa13	-0.010294455
191	0xbd801e64	-0.062557966
192	0x3b22c9f6	0.0024839616
193	0xbcc3b5e0	-0.023890436
194	0x3e043848	0.12912095
195	0x3e1af0f6	0.15130982
196	0xbd4d4315	-0.050112803
197	0x3ce20120	0.027588427
198	0x3a8b4a06	0.0010626919
199	0xbc978b1e	-0.018498953
200	0xbbcb88fb	-0.0062113977
201	0x3e0aab14	0.13541824
202	0x3e07da12	0.13266781
203	0xbcf938cc	-0.03042259
204	0xbd45ca28	-0.048288494
205	0xbd51c011	-0.05120856
206	0xbd397b07	-0.045283344
207	0x3d063e1f	0.032774087
208	0x3d642e91	0.05570847
209	0x3e1de773	0.15420322
210	0xbd297c6b	-0.04137842
211	0xbd547952	-0.051873513
212	0x3c71b4b3	0.014752555
213	0x3ccd34a5	0.025049517
214	0x3d4ae06c	0.04953043
215	0x3d6170b2	0.055039115
216	0x3df79e1d	0.120907046
217	0x3c1b4334	0.009476472
218	0xbd1110cb	-0.035416406
219	0xbbca874b	-0.006180679
220	0x3c9e6901	0.01933718
221	0x3d49d97a	0.049279667
222	0x3e0eedfb	0.1395797
223	0x3e1ef866	0.15524444
224	0xbc6f4197	-0.01460304
225	0x390fded7	0.00013720557
226	0xbbc15b73	-0.005900794
227	0x3d02184e	0.03176146
228	0x3d91468a	0.070935324
229	0x3dcb3b7a	0.09923454
230	0x3c92c460	0.017915905
231	0xbcb13951	-0.021633776
232	0xbd228a36	-0.03968259
233	0xbd265602	-0.040609367
234	0x3ca707f8	0.020389542
235	0x3d02ebad	0.03196304
236	0x3dd25020	0.10269189
237	0x3e127129	0.1430098
238	0xbbf48514	-0.007462153
239	0xbd0946ba	-0.033514716
240	0x3b75f8f6	0.0037532425
241	0xbd99d861	-0.07511974
242	0x3d19dda0	0.037564874
243	0x3d7f5de6	0.062345408
244	0x3df08139	0.11743397
245	0x3b679e05	0.003534199
246	0xbc8aaa43	-0.01692689
247	0xbd88effa	-0.06686397
248	0xbde8a631	-0.113598235
249	0xbd3eaa72	-0.046549268
250	0x3d9abbde	0.07555364
251	0x3d91ced1	0.07119525
252	0x3dbc777a	0.09202476
253	0xb95bbd63	-0.0002095602
254	0x3ca6dd3e	0.020369168
255	0xbdb7a2cb	-0.08966597

encoder.0.0.bias f4 [36]
0	0x3c09f850	0.008421019
1	0xbc5ebcab	-0.013594787
2	0x3ccd64ed	0.02507254
3	0x3d886c1d	0.06661246
4	0x3d317f89	0.043334518
5	0xbdca717f	-0.09884929
6	0xbc8fe859	-0.017566847
7	0xbd2e5d45	-0.042569418
8	0x3d243d5d	0.040097583
9	0xbdb495f1	-0.088176616
10	0x3d0f8993	0.03504331
11	0x3c879695	0.016551295
12	0xbda83111	-0.08212484
13	0xbce2b9c6	-0.027676474
14	0x3da10c1f	0.0786364
15	0xbd98beff	-0.074583046
16	0xbc4b15e2	-0.012395354
17	0xbd8b3b15	-0.067983784
18	0xbd3d07ea	-0.046150126
19	0xb85c1be1	-5.247805e-05
20	0xbd095f22	-0.03353799
21	0x3baa7b47	0.005202684
22	0xbd47fc4c	-0.048824593
23	0x3d107c98	0.03527507
24	0x3c789dfb	0.015174384
25	0xbc9e4e41	-0.019324424
26	0xbdd600ee	-0.10449396
27	0xbdc29412	-0.095008984
28	0xbcc0e16e	-0.023544993
29	0xbbe4685a	-0.0069704475
30	0xbdb6205c	-0.08892891
31	0xbd7335a2	-0.05937732
32	0xbc6e45a7	-0.014542974
33	0x3d80884e	0.06275998
34	0xbda5c7b3	-0.0809473
35	0xbcbd558c	-0.023112081

encoder.0.1.weight f4 [36]
0	0x3f416e91	0.75559336
1	0x3f7e6f88	0.99388933
2	0x3f840b80	1.031601
3	0x3f604576	0.8760599
4	0x3f606d56	0.87666833
5	0x3f4abd82	0.79195416
6	0x3f85abb5	1.0443026
7	0x3f84ae7f	1.0365752
8	0x3f4ec470	0.8076849
9	0x3f839fd7	1.0283154
10	0x3f6018dd	0.8753794
11	0x3f4fd46a	0.81183493
12	0x3f800bc0	1.0003586
13	0x3f6aa80a	0.9166266
14	0x3f503785	0.81334716
15	0x3f355ead	0.7084759
16	0x3f3a4f73	0.7277748
17	0x3f64fa48	0.894444
18	0x3f75442d	0.95807153
19	0x3f7645b4	0.9620011
20	0x3f60e570	0.87850094
21	0x3f5d1bf5	0.86370784
22	0x3f4ebab6	0.8075365
23	0x3f54c3f3	0.83111495
24	0x3f6d2d9f	0.9264774
25	0x3f4f32e4	0.8093703
26	0x3f39a630	0.72519207
27	0x3f828797	1.0197629
28	0x3f364dc2	0.712124
29	0x3f209ed4	0.6274235
30	0x3f844178	1.033248
31	0x3f3fd0dd	0.74928075
32	0x3f78cf95	0.97191745
33	0x3f611ba3	0.87932795
34	0x3f843ef2	1.0331709
35	0x3f805eb2	1.0028899

encoder.0.1.bias f4 [36]
0	0xbd3fafef	-0.046798643
1	0xbd82c15f	-0.06384539
2	0xbd400fba	-0.046889998
3	0xbd101d9f	-0.0351845
4	0xbc96a982	-0.018391374
5	0xbd502651	-0.05081779
6	0xbdc263b2	-0.094916716
7	0xbda76647	-0.08173805
8	0xbd62bed1	-0.055357758
9	0xbda6931c	-0.08133528
10	0xbd6e1420	-0.05812466
11	0xbc895892	-0.016765866
12	0xbdbab089	-0.09115703
13	0xbbf50849	-0.0074777943
14	0x3b02f795	0.0019983996
15	0xbd2b1ee2	-0.0417775
16	0xbcce9317	-0.025216622
17	0xbdbea17f	-0.09308147
18	0xbd234e71	-0.03986973
19	0x3c271313	0.010197419
20	0xbcc4db56	-0.024030369
21	0xbd5428c5	-0.051796693
22	0xbcd30085	-0.025757084
23	0xbbcaf6ff	-0.006193995
24	0xbc1f93c6	-0.009739822
25	0xbd6f417a	-0.058412053
26	0xbe17a9fa	-0.14810935
27	0xbda7be48	-0.0819059
28	0xbd2783ac	-0.040897056
29	0xbd3805e2	-0.044927485
30	0xbdc25d30	-0.0949043
31	0xbd973850	-0.07383788
32	0xbd61b5dd	-0.05510508
33	0xbd2860c3	-0.041107904
34	0xbdc92017	-0.09820574
35	0xbd9f10c9	-0.077668734

encoder.0.1.running_mean f4 [36]
0	0xbfa05c9f	-1.2528266
1	0xbf821260	-1.0161858
2	0xc00078dc	-2.0073767
3	0xbf7c202c	-0.9848659
4	0x3ecd2165	0.4006454
5	0xbf7fbe2c	-0.99899554
6	0xbf6c5223	-0.9231283
7	0xbeef766d	-0.4677004
8	0xbf5832ef	-0.8445272
9	0xbf801364	-1.0005918
10	0xbf15e0e1	-0.5854626
11	0x3e60fca9	0.21971382
12	0xbff9fc5a	-1.9530137
13	0x3fca2974	1.57939
14	0x3ffb7295	1.9644343
15	0xbfbad021	-1.4594766
16	0xbfa6557c	-1.2994838
17	0xbf511375	-0.81670314
18	0xbf88103e	-1.0629957
19	0x3e43cf3c	0.19122022
20	0x3f985024	1.1899457
21	0xbf9c32af	-1.2202967
22	0xbf40076f	-0.7501134
23	0x3f62adc3	0.8854639
24	0xbf2b354d	-0.66878206
25	0x3e4561a1	0.19275524
26	0xbfb6ae3e	-1.4271924
27	0xbeb445e6	-0.35209578
28	0xbf50064d	-0.81259614
29	0xbeba34b3	-0.3636833
30	0xbfa4ba0d	-1.2869278
31	0xbfe94a71	-1.8225843
32	0xbf948f65	-1.160626
33	0xbf28ceb9	-0.65940434
34	0xbff76d8c	-1.9330306
35	0xbf1ed337	-0.6204104

encoder.0.1.running_var f4 [36]
0	0x3b5f059a	0.0034030438
1	0x3afef372	0.0019451214
2	0x3b60b77d	0.0034289055
3	0x3b6c0812	0.0036015552
4	0x3b3fc230	0.0029260032
5	0x3b1c1182	0.0023814146
6	0x3b7e03b7	0.0038759538
7	0x3b279bc7	0.0025575028
8	0x3b89ea76	0.004208858
9	0x3b33c958	0.0027433243
10	0x3b764edd	0.0037583627
11	0x3b3c66cf	0.0028747802
12	0x3b53ce9d	0.0032319196
13	0x3bb0290f	0.0053759883
14	0x3b4c7c62	0.0031202068
15	0x3aeee5d9	0.0018226459
16	0x3aa5f229	0.001266067
17	0x3b3022ba	0.0026876167
18	0x3b714163	0.0036812655
19	0x3aba4281	0.0014210494
20	0x3b10334f	0.0022003239
21	0x3b9ad080	0.004724562
22	0x3b08d076	0.0020876206
23	0x3b519e4e	0.0031985226
24	0x3b1a9fb6	0.002359373
25	0x3ab961b7	0.0014143501
26	0x3b9cc47b	0.0047841645
27	0x3b2d4d73	0.0026443868
28	0x3b21ac85	0.002466948
29	0x3ac8bacc	0.0015314459
30	0x3b9360f3	0.004497641
31	0x3b3a2ad7	0.0028406882
32	0x3aaed098	0.0013337312
33	0x3b26569f	0.002538122
34	0x3b8e0950	0.004334606
35	0x3b4bea58	0.0031115022

encoder.1.0.weight f4 [36, 36, 7]
0	0x3d39b088	0.04533437
1	0xbd34aa2f	-0.044107612
2	0x3cadb462	0.021204177
3	0xbc098da9	-0.008395591
4	0x3c480295	0.012207647
5	0xbd1591b0	-0.03651589
6	0x3ba4a291	0.0050242622
7	0xbd0b4c2a	-0.034008183
8	0xbafbfdcd	-0.0019225419
9	0x3d0dc0d5	0.034607727
10	0x3da47a3e	0.08031128
11	0x3d8a4ab7	0.06752532
12	0xbca98a05	-0.020695696
13	0x3d1f9ca8	0.03896776
14	0xbc3dd22f	-0.011585756
15	0xbba0cf86	-0.004907551
16	0xbcd89cb5	-0.026441911
17	0xbda20be0	-0.07912421
18	0xbd65d089	-0.056107078
19	0xbd3c8392	-0.046023913
20	0xbad8403e	-0.0016498638
21	0xbc045ab4	-0.008078266
22	0xbc07468d	-0.008256567
23	0xbd61f7d3	-0.055167984
24	0x3ce83f8a	0.02835061
25	0x3d7676ad	0.06017177
26	0x3c0c09c5	0.008547251
27	0xbd0317c1	-0.032005075
28	0x3bbf4b44	0.00583783
29	0x3bfd6fb3	0.007734263
30	0x3cc7c3cd	0.024385357
31	0xbd155993	-0.036462378
32	0x3bd61062	0.0065327147
33	0x3cf340f9	0.029694067
34	0xbd2fa80f	-0.042884883
35	0xbc3e7137	-0.011623672
36	0xbc378b07	-0.01120258
37	0x3d6cd837	0.057823386
38	0x3c507288	0.012722619
39	0x3d0455be	0.032308333
40	0xbd252fc9	-0.040328775
41	0xbbc263d9	-0.005932313
42	0xbce83f03	-0.028350359
43	0xbd2218b8	-0.039574355
44	0xbc6b66cd	-0.014367771
45	0x3d688f67	0.056777384
46	0xbce4e3c1	-0.027940633
47	0xbd4b1c06	-0.049587272
48	0xbcb69a61	-0.02229041
49	0x3d550d40	0.05201459
50	0x3d271b8d	0.04079776
51	0xbc97b2de	-0.018517908
52	0x3cb5e909	0.022205846
53	0x3c05409e	0.008133082
54	0xbb9c1c6f	-0.0047641317
55	0xbd1c5b4f	-0.038173016
56	0x3a5ffb0d	0.00085441844
57	0xbc8e9670	-0.017405719
58	0xbc998b31	-0.01874313
59	0xbdbc3e57	-0.09191578
60	0x3dc9efc7	0.09860187
61	0x3cbd2755	0.023090044
62	0xbd2de0df	-0.042450782
63	0x3d0747bc	0.033027396
64	0xbc88532b	-0.01664122
65	0xbd56c3cc	-0.05243282
66	0x3bfd8f7c	0.007738052
67	0x3d86d438	0.06583446
68	0x3c9f676a	0.019458491
69	0xbb9b682b	-0.0047426424
70	0xbccec57b	-0.02524065
71	0xbcd70729	-0.026248531
72	0xbd0d4235	-0.034486968
73	0x3d1fdbff	0.039028164
74	0x3b0b7bcf	0.0021283512
75	0x3d2a8539	0.041630957
76	0xbc1cdd30	-0.00957422
77	0x3c2e934b	0.010655235
78	0x3b60e2a0	0.0034314767
79	0xbd1dc681	-0.038519386
80	0xbe197844	-0.14987284
81	0xbcab530e	-0.020913627
82	0x3cc3de0f	0.023909597
83	0x3cde7e3d	0.027159804
84	0x3c3c9fbc	0.011512693
85	0xbcb9cc82	-0.022680525
86	0x3cb32e23	0.021872586
87	0x3d761cec	0.060086176
88	0x3d403b05	0.046931285
89	0x3c3b2289	0.011421808
90	0xbd12332c	-0.035693333
91	0x3becce4b	0.0072267405
92	0x3ce50200	0.027955055
93	0xbdaccb08	-0.08437163
94	0xbdda338b	-0.10654362
95	0xbda49a06	-0.0803719
96	0x3d59f3e1	0.053211097
97	0xbccb8540	-0.024843812
98	0x3c06dbfa	0.008231157
99	0x3d2b76c1	0.0418613
100	0xbcf3a966	-0.029743861
101	0xbd29eb1c	-0.041483983
102	0xbdca44a6	-0.09876375
103	0x3d04f99a	0.0324646
104	0x3c439305	0.011936908
105	0x3b2ee15b	0.0026684615
106	0xbc1f9a22	-0.009741338
107	0xbca176fc	-0.019710056
108	0xbd33fb29	-0.043940697
109	0x3c8f9252	0.017525826
110	0xbbd731a4	-0.006567197
111	0x3cfc3596	0.03078727
112	0x3c4fc0d2	0.012680249
113	0x3d531fce	0.051544003
114	0xbe008f6f	-0.12554716
115	0x3d0523c3	0.03250481
116	0x3dbb6a56	0.09151141
117	0xbd9db2e9	-0.0770014
118	0xbc89b9f7	-0.016812308
119	0x3c8ff7a5	0.01757414
120	0xbb821bc8	-0.003970597
121	0x3cadab3c	0.021199815
122	0xbbd53b5c	-0.0065073203
123	0x3d535813	0.051597666
124	0xbd2bf55d	-0.041982044
125	0xbd5a860e	-0.0533505
126	0x3c12e4a0	0.008965641
127	0xbc2f24a5	-0.010689889
128	0x3da7d8bd	0.081956364
129	0x3be9ab8e	0.0071310466
130	0x3d63d6ce	0.055624776
131	0xbd7a6f18	-0.061141104
132	0x3c7d83e4	0.01547334
133	0x3c311e5d	0.010810462
134	0xbbbdb4cd	-0.0057893754
135	0x3bdd2576	0.0067488505
136	0xbdf8abc6	-0.12142138
137	0x3d392c3d	0.045208205
138	0xbcf65ab8	-0.030072555
139	0xbcdf2b5f	-0.02724236
140	0xbc55cdd1	-0.013049559
141	0xbbd03236	-0.006353642
142	0x3d77b2c6	0.060473226
143	0x3d943353	0.07236352
144	0x3cd85831	0.02640924
145	0x3c68362b	0.014173071
146	0xbcb11f86	-0.021621477
147	0x3c79a43f	0.015236913
148	0xbae22de7	-0.0017256112
149	0x3d82f90c	0.06395158
150	0x3c3e5a26	0.011618173
151	0xbad1c853	-0.0016005136
152	0x3d9b0611	0.075695165
153	0x3cc624ad	0.02418741
154	0xbbb9a837	-0.0056658047
155	0x3cf34d57	0.029699964
156	0x3d32f90d	0.043694545
157	0xbd8dada9	-0.06917889
158	0xbcfaea99	-0.030629443
159	0xbcd7f36a	-0.026361186
160	0xbca20739	-0.019778835
161	0xbc7a8801	-0.015291215
162	0xbc729ec4	-0.0148083605
163	0x3d41da63	0.04732741
164	0x3dd84fa3	0.105620645
165	0x3dd37120	0.10324311
166	0x3b7f6cb3	0.0038974702
167	0x3b85bf72	0.00408166
168	0x3d355dac	0.044278786
169	0xbd25fb70	-0.040522993
170	0x3cf43523	0.029810494
171	0x3ba50e15	0.005037079
172	0x3cecf376	0.028924685
173	0x3cccdf17	0.025008721
174	0xbc3f5681	-0.011678339
175	0x3d9f3a3d	0.0777478
176	0xbc4649fc	-0.0121026
177	0x3db1297d	0.086504914
178	0x3d0fba73	0.03508992
179	0x397f159f	0.0002432675
180	0x3ca4a481	0.020097973
181	0xbc2f6008	-0.010704048
182	0xbb255521	-0.0025227743
183	0x3b18b8b7	0.0023303458
184	0xbd0d2c79	-0.03446624
185	0x3d3f32f0	0.046679437
186	0x3c3554e4	0.011067603
187	0xbc5d5a28	-0.013510264
188	0xbd2a2373	-0.041537713
189	0x3cfa5593	0.030558383
190	0xbd47f7fc	-0.04882048
191	0x3d861827	0.065475754
192	0x3d2e9b60	0.042628646
193	0x3c05135c	0.008122291
194	0x3baf1c0a	0.0053439187
195	0x3cbac599	0.0227993
196	0x3bb33700	0.005469203
197	0xbd382cec	-0.044964716
198	0x3d453196	0.048142992
199	0xbc3f7948	-0.011686631
200	0x3ab112b8	0.0013509607
201	0x3d05d8b7	0.03267738
202	0x3d19433e	0.037417643
203	0x3ce044ae	0.027376499
204	0xbb855305	-0.0040687346
205	0xbcdc0dd7	-0.026862068
206	0x3e0a6658	0.13515604
207	0x3c708d27	0.014682091
208	0xbca1a85a	-0.019733597
209	0x3c04462e	0.008073373
210	0xbcb7abae	-0.02242073
211	0x3ca110b9	0.019661294
212	0xbc90f87d	-0.017696613
213	0x3d4ae99a	0.049539186
214	0x3d53ca00	0.051706314
215	0xbcc92754	-0.024554886
216	0xbd56cb55	-0.052440006
217	0xbc95bacf	-0.018277554
218	0xbca80e89	-0.020514743
219	0x3c58b009	0.013225564
220	0x3d50b2f9	0.05095193
221	0xba177e4c	-0.00057790126
222	0x3d02e467	0.031956103
223	0xbd2a9ee4	-0.041655436
224	0x3c8b9cb6	0.017042499
225	0xbd64b0db	-0.055832725
226	0x3ceb3af2	0.02871463
227	0xbc0ce7dc	-0.008600201
228	0x3cd44f42	0.0259167
229	0xbd841245	-0.06448797
230	0xbd376126	-0.044770382
231	0x3c639d4f	0.013892486
232	0x3c96d6a5	0.018412897
233	0xbcf5e9ae	-0.030018654
234	0xbcfc8825	-0.030826638
235	0x3d5022e5	0.050814528
236	0x3c1ffc11	0.009764687
237	0xbc142cbc	-0.009043869
238	0x3c4f6427	0.0126581555
239	0x3c82242d	0.01588639
240	0xbd170197	-0.03686675
241	0xbbcd9380	-0.006273687
242	0x3d6dfbb8	0.058101386
243	0xbc64efff	-0.013973235
244	0xbd3144c8	-0.043278486
245	0x3d1c475c	0.03815399
246	0xbc7b2fa5	-0.015331184
247	0x3d1f5018	0.038894743
248	0x3d5517d0	0.052024662
249	0x3d41b638	0.047292918
250	0xbc185437	-0.009297422
251	0xbc684ac6	-0.014177984
252	0xbace2592	-0.001572775
253	0xbca64de7	-0.020300819
254	0x3d403230	0.046922863
255	0xbb9fcc45	-0.0048766457

encoder.1.0.bias f4 [36]
0	0xbd03f9ed	-0.03222077
1	0x3ce86029	0.028366165
2	0xbdcd85ff	-0.10035323
3	0xbd4cc7dc	-0.04999529
4	0xbd514749	-0.051093373
5	0xbbb5f177	-0.0055524665
6	0x3d2d2267	0.042269137
7	0xbcae7fa6	-0.021301102
8	0x3c67f0d8	0.014156543
9	0xbcc66483	-0.02421785
10	0x3d4897e8	0.048972994
11	0x3c2648d2	0.010149198
12	0xbc1044b8	-0.008805446
13	0x3d094d52	0.033521004
14	0xbd92ca2d	-0.07167468
15	0xbd02ddf6	-0.03194996
16	0xbd860106	-0.06543164
17	0xbd050926	-0.032479428
18	0x3c90f32d	0.01769408
19	0xbd4979ec	-0.04918854
20	0xbcd3523a	-0.025796045
21	0xbc486489	-0.012231001
22	0xbc07e69e	-0.0082947295
23	0x3ce8e08c	0.028427385
24	0x3d23b4b7	0.039967265
25	0xbd22b8f4	-0.039727166
26	0x3d0bcdb8	0.034131736
27	0x3d07efe0	0.033187747
28	0xbbc691f6	-0.0060598804
29	0xbd0f65a3	-0.035009038
30	0x3c4c72e3	0.012478563
31	0xbd69b1bb	-0.057054263
32	0x3d268da8	0.040662438
33	0xbc2259e3	-0.009909126
34	0xbd972916	-0.073808834
35	0xbd197075	-0.037460763

encoder.1.1.weight f4 [36]
0	0x3f47c232	0.78030694
1	0x3f4242b7	0.7588305
2	0x3f7c05e4	0.9844649
3	0x3f60eb47	0.87859005
4	0x3f2aacf8	0.6667018
5	0x3f2051b8	0.6262469
6	0x3f42e6a1	0.7613316
7	0x3f76d314	0.9641583
8	0x3f3aac00	0.729187
9	0x3f650a9c	0.89469314
10	0x3f2d3adc	0.6766794
11	0x3f529e66	0.82272947
12	0x3f719e85	0.94382507
13	0x3f47b1ce	0.78005683
14	0x3f74f7d3	0.9569065
15	0x3f3fffb4	0.74999547
16	0x3f6059bb	0.8763692
17	0x3f4e939f	0.80694
18	0x3f2e6f52	0.6813861
19	0x3f570e04	0.8400576
20	0x3f32efb4	0.6989701
21	0x3f42a434	0.76031804
22	0x3f55c723	0.83506984
23	0x3f4ee6d2	0.80820954
24	0x3f24360f	0.64144987
25	0x3f474da3	0.7785284
26	0x3f4adf31	0.79246813
27	0x3f5cb867	0.86218876
28	0x3f760cba	0.9611317
29	0x3f6dab01	0.92839056
30	0x3f48833f	0.78325266
31	0x3f3a8fe6	0.7287582
32	0x3f4ae481	0.7925492
33	0x3f5cf9f9	0.8631893
34	0x3f298d68	0.66231394
35	0x3f38cc2b	0.72186536

encoder.1.1.bias f4 [36]
0	0xbd6b2b08	-0.057414085
1	0x3ce2b1f8	0.027672753
2	0xbdd85783	-0.105635665
3	0x3d049e7c	0.032377705
4	0x3cb4822c	0.022034727
5	0xbcaacc10	-0.020849258
6	0x3d1ab253	0.03776772
7	0x3ca9b45b	0.020715883
8	0x3c51abea	0.012797335
9	0xbb6ef99e	-0.0036464701
10	0x3cb6d537	0.022318466
11	0xbc495f82	-0.012290837
12	0x3c612e40	0.013743937
13	0x3ccd20bc	0.025040023
14	0xbd1c2079	-0.038116906
15	0x3b5510d4	0.003251125
16	0xbb7c36f9	-0.0038484915
17	0x3cf83be6	0.030302
18	0xbce5e406	-0.028062832
19	0xbd5a2757	-0.053260174
20	0xba773e01	-0.00094315415
21	0x3c9a61f8	0.018845543
22	0x3c0ce3c3	0.0085992245
23	0xb91e7ece	-0.00015115293
24	0x3c92f01b	0.017936757
25	0x3c3acca7	0.011401332
26	0x3cb0cbb9	0.021581518
27	0x3ce9586e	0.02848455
28	0xbd1cc799	-0.03827629
29	0x3cd889ce	0.026432898
30	0x3ad42a15	0.0016186858
31	0x3cbb7790	0.02288416
32	0x3ce0b613	0.02743057
33	0xbdbad64f	-0.09122907
34	0xbd83e761	-0.064406164
35	0x3ccd1a46	0.025036942

encoder.1.1.running_mean f4 [36]
0	0x3d2cd4dc	0.042195186
1	0x3d70261d	0.058630098
2	0xbd2de970	-0.04245895
3	0xbcb094d2	-0.021555338
4	0xbd4a39fe	-0.049371712
5	0xbc0d2fa9	-0.00861732
6	0x3d89a28f	0.06720459
7	0xbc053c0b	-0.008131991
8	0x3cd6cd49	0.026220934
9	0xbd37ee36	-0.04490491
10	0x3d803b56	0.062613174
11	0xbc84334d	-0.016137743
12	0xbd03c8a3	-0.032173764
13	0xbcce958e	-0.025217798
14	0x3cc3a82f	0.023883907
15	0xbcb9016e	-0.02258369
16	0xbcc56848	-0.024097577
17	0xbc5810ba	-0.013187582
18	0x3d086cba	0.033306815
19	0xbd585ec1	-0.05282474
20	0x3cdd9e4c	0.02705302
21	0xbcb72229	-0.022355156
22	0x3c23f7c6	0.010007804
23	0x3b30ad8f	0.0026958918
24	0x3dbf9c9c	0.09356043
25	0xbcf4fbc8	-0.029905215
26	0x3d19b2d1	0.03752405
27	0x3d16121e	0.03663837
28	0x3cc74bf8	0.024328217
29	0x3bac11fa	0.0052511664
30	0xbd41cfdb	-0.047317367
31	0xbd057f7d	-0.032592285
32	0x3d68ae6b	0.056806963
33	0x3d6beba2	0.057597764
34	0xbd1786ab	-0.036993664
35	0xbd5e4450	-0.054264367

encoder.1.1.running_var f4 [36]
0	0x3f9f46fa	1.2443535
1	0x3fba6e61	1.4564935
2	0x3fdc5e72	1.7216322
3	0x3fa81b41	1.3133317
4	0x3f7a50c1	0.9777947
5	0x3f908ecc	1.1293578
6	0x3f9df991	1.2341787
7	0x3fb4a328	1.4112291
8	0x3f90ac79	1.1302634
9	0x3f96527f	1.1743926
10	0x3f784ee3	0.9699537
11	0x3fe10b8b	1.7581648
12	0x401f4d7c	2.4891043
13	0x3fe6d9c0	1.8035202
14	0x3f29d8a9	0.6634622
15	0x3fac90ad	1.3481652
16	0x3f944976	1.1584918
17	0x40096aeb	2.1471508
18	0x3ffb6e54	1.9643044
19	0x3f700e0a	0.9377142
20	0x3fc9d0eb	1.5766882
21	0x3fd85cfe	1.6903379
22	0x3fb12bb1	1.3841459
23	0x3f2f6fb6	0.6852983
24	0x3f8c1f04	1.0946965
25	0x3f8d1763	1.1022762
26	0x3fcabfe0	1.5839806
27	0x3f79459c	0.9737184
28	0x3fb19f87	1.3876809
29	0x3fae5813	1.3620628
30	0x3f8fbc15	1.1229273
31	0x3fd2dfbd	1.647453
32	0x400ad429	2.1691992
33	0x3f3fa796	0.7486509
34	0x3fdb6083	1.7138828
35	0x3fc8382c	1.5642142

decoder.0.0.weight f4 [36, 36, 3]
0	0xbc32ec0a	-0.010920534
1	0x3d398604	0.045293823
2	0x3d082efa	0.033247925
3	0x3d8bd153	0.06827035
4	0x3d8b1073	0.06790247
5	0x3ce9a47b	0.028520813
6	0xbd979cca	-0.07402952
7	0x3d11ce3d	0.035597075
8	0x3cee1f77	0.029067738
9	0x3dae1c5e	0.08501504
10	0xbdd1a619	-0.10236759
11	0x3ce9e026	0.028549265
12	0xbc4939b0	-0.01228182
13	0x3cc57e75	0.024108151
14	0xbc6bfa4f	-0.01440294
15	0xbd6de3ae	-0.05807846
16	0xbc9ff797	-0.01952724
17	0x3d10c0ee	0.035340242
18	0x3d2bd4cd	0.04195099
19	0x3d42b1db	0.047532897
20	0xbc240565	-0.010011052
21	0xbc54849d	-0.012971071
22	0x3d37ab97	0.044841375
23	0xbc2d4c54	-0.01057728
24	0xbd93136e	-0.0718144
25	0x3d5dc505	0.05414297
26	0x3d24ec76	0.04026457
27	0x3c195fe1	0.009361238
28	0xbd160d66	-0.03663387
29	0xbd09c1d4	-0.033632115
30	0xbd5455af	-0.051839527
31	0xbba6902f	-0.005083106
32	0xbb8ac359	-0.004234713
33	0x3bfbfcdf	0.0076900567
34	0xbd0c988f	-0.03432518
35	0xbc889de6	-0.016676854
36	0xbd8175c5	-0.06321291
37	0xbd84c4ac	-0.06482825
38	0x3c3013e0	0.010746926
39	0xbd6c538f	-0.057696875
40	0xbd078383	-0.033084404
41	0xbd5781c7	-0.052614
42	0x3a23bf5f	0.0006246473
43	0x3d0cdf7b	0.034392815
44	0x3bd27d52	0.0064236308
45	0x3db5398f	0.08848869
46	0x3d8f9423	0.07010677
47	0xbc0186f8	-0.007905714
48	0x3c5c5baa	0.013449589
49	0xbcecb178	-0.028893217
50	0x3dbfa203	0.09357073
51	0xbd5f26a2	-0.054480202
52	0x3d7f29ee	0.062295847
53	0x3d8c3e54	0.06847826
54	0x3d25a9a6	0.040444992
55	0x3d351c94	0.044216707
56	0xbcbeb276	-0.023278456
57	0xbc2da85a	-0.01059922
58	0xbc061cdc	-0.008185592
59	0xbc0d1601	-0.008611203
60	0xbc1c010c	-0.009521734
61	0xbd582988	-0.052773982
62	0x3d9e09ba	0.07716699
63	0x3d6007f1	0.054695074
64	0xbcce6c9e	-0.025198277
65	0xbd81b137	-0.06332629
66	0xbd23cd57	-0.03999075
67	0x3d1862f0	0.03720373
68	0x3925f8f5	0.0001582837
69	0xbdb996eb	-0.090619884
70	0xbe03742a	-0.12837282
71	0xbd15ed45	-0.03660323
72	0xbd3eb3ca	-0.04655818
73	0xbd96c09a	-0.073609546
74	0xbd8bba3b	-0.0682263
75	0x3d46e18e	0.04855495
76	0x3cb9a0d5	0.022659699
77	0xbd633e6e	-0.05547946
78	0x3b7497f2	0.0037322012
79	0x3d93373c	0.071882695
80	0xbcf4a35e	-0.029863056
81	0x3d5dd5d2	0.054158993
82	0xbd2906bf	-0.0412662
83	0x3b83d29d	0.00402291
84	0x3d4b1e8b	0.049589675
85	0x3b8abd25	0.0042339736
86	0xbc9c4a66	-0.019078445
87	0x3c25bd51	0.010115937
88	0x3d6b3eb0	0.05743283
89	0x3dcb05b6	0.09913199
90	0x3c47ae9e	0.012187628
91	0x3dd417a3	0.10356071
92	0x3d104f05	0.03523161
93	0x3b838a68	0.004014302
94	0x3db437f8	0.08799738
95	0x3dcd3a01	0.10020829
96	0x3d325351	0.043536488
97	0x3d741333	0.059588622
98	0x3d61495c	0.0550016
99	0xbd2c38c4	-0.042046323
100	0xbd11b7f3	-0.03557582
101	0x3d2f6f69	0.04283086
102	0xbb8eaa69	-0.0043538106
103	0x3d962c19	0.0733263
104	0x3e110b27	0.1416441
105	0xbd4462ab	-0.04794566
106	0x3dee8e21	0.11648203
107	0x3db905f1	0.09034336
108	0x3c5f5cc2	0.013632955
109	0x3b695186	0.003560157
110	0x3c92a650	0.01790157
111	0x3c005f90	0.007835284
112	0x3c2944d8	0.010331355
113	0x3d296913	0.041359972
114	0xbdcb3702	-0.09922601
115	0xbc316202	-0.01082659
116	0x3d37e3a3	0.044894826
117	0x3ce60c33	0.028081989
118	0xbc0dc9e7	-0.008654094
119	0xbd2bd782	-0.04195357
120	0xbd9c8de2	-0.076442495
121	0xbda2d40b	-0.079506
122	0xbd9bdf16	-0.0761091
123	0x3d23215b	0.039826732
124	0x3af8a0c2	0.0018968808
125	0xbcb70e56	-0.022345703
126	0x3d66fcc0	0.056393385
127	0xbc3ff4ee	-0.011716111
128	0x3cc48390	0.023988515
129	0xbdf32903	-0.11873057
130	0x3d5b17eb	0.053489607
131	0x3c160115	0.009155531
132	0x3d94f86d	0.07273946
133	0xbcf0bc95	-0.029386798
134	0x3a219388	0.00061636465
135	0x3da0a1bb	0.07843348
136	0xbc2a729b	-0.010403301
137	0xbd76bd1e	-0.06023895
138	0x3d9f6937	0.0778374
139	0x3d133db3	0.035947513
140	0x3cab02c1	0.020875337
141	0x3d7849be	0.0606172
142	0x3cd90169	0.02648993
143	0xbbb115c0	-0.005404204
144	0xbd3a2241	-0.045442823
145	0x3d5d0299	0.053957555
146	0x3ba4295f	0.0050098146
147	0x3d6fa557	0.05850729
148	0xbcccc2df	-0.024995266
149	0x3985a916	0.00025493716
150	0xbd1130c7	-0.03544691
151	0x3e1d7875	0.15377982
152	0xbd86efee	-0.06588732
153	0x3dcc909a	0.09988518
154	0x3d962923	0.07332065
155	0xbd30ef2e	-0.04319685
156	0xbc0f970b	-0.008764039
157	0x3d34abf0	0.044109285
158	0x3d7ddace	0.061976247
159	0xbd411078	-0.047134846
160	0x3e402a69	0.18766178
161	0xbbc4beb2	-0.006004178
162	0xbd167c4a	-0.036739625
163	0x3d0b59f1	0.03402132
164	0x3ace7249	0.0015750612
165	0x3c8fa96d	0.017536843
166	0xbd3beedf	-0.045882102
167	0x3cb6461d	0.02225023
168	0x3d9e2582	0.07721998
169	0x3dea9cbf	0.11455678
170	0xbd44d480	-0.04805422
171	0xbd2c86bd	-0.042120684
172	0x3d814e8d	0.063138105
173	0x3d8808ef	0.06642329
174	0xbd382db7	-0.044965472
175	0x3d9775c0	0.07395506
176	0x3b1759e7	0.0023094357
177	0x3cd0f969	0.025509553
178	0xbde2d5c9	-0.110759325
179	0xbe08963d	-0.13338561
180	0x3d65f99d	0.056146253
181	0xbe0792a3	-0.13239531
182	0xbc34dbff	-0.011038779
183	0xbdffe814	-0.12495437
184	0x3c27f956	0.010252317
185	0x3bf34c75	0.007424886
186	0x3dbfc91c	0.093645304
187	0xbd5df066	-0.05418434
188	0xbbb6f7e1	-0.0055837487
189	0x39f01a8d	0.0004579615
190	0x3d8204bb	0.063485585
191	0xbc82ceaf	-0.015967695
192	0xbdeda890	-0.11604416
193	0xbd1d4269	-0.03839341
194	0x3ce72e85	0.028220424
195	0x3d691dd6	0.05691322
196	0xbc86010f	-0.016357927
197	0xbd32be66	-0.04363861
198	0x3d94c590	0.072642446
199	0x3d0f1485	0.03493168
200	0xbbd957bb	-0.0066327727
201	0x3d78cbb5	0.060741145
202	0x3c645df2	0.013938414
203	0xbd947dcd	-0.07250557
204	0xbd298c28	-0.04139343
205	0xbd4f57d3	-0.050620865
206	0x3d015148	0.031571656
207	0xbd56ae62	-0.0524124
208	0x3bca3879	0.006171283
209	0xbc5b0299	-0.013367319
210	0x3cb6412f	0.022247879
211	0xbc804cc6	-0.015661608
212	0xbc7addc6	-0.015311664
213	0xbdb2d15a	-0.08731337
214	0x3e1a43d7	0.15064941
215	0xbcb1fdbc	-0.021727435
216	0xbd71c8a1	-0.059029225
217	0xbdb77acf	-0.08958971
218	0x3d5ae663	0.05344237
219	0x3da6046f	0.081063144
220	0xbd062cbb	-0.032757502
221	0xbd9a11f0	-0.075229526
222	0xbca2da37	-0.019879444
223	0x3d455d4f	0.04818469
224	0xbd5e74c8	-0.05431059
225	0xbd1ee80d	-0.03879552
226	0x3d6390ec	0.05555813
227	0x3d4ceb78	0.050029248
228	0x3d19a607	0.03751185
229	0x3ba5a4ff	0.0050550695
230	0xbd470b19	-0.048594568
231	0xbd87112e	-0.06595074
232	0xbcc94906	-0.024570953
233	0x3cf75143	0.030190116
234	0x3c95a773	0.018268323
235	0x3deb8654	0.115002304
236	0x3dcdbb45	0.100454845
237	0x3d0ca2ff	0.034335133
238	0xbdd5c1b1	-0.10437334
239	0xbd947651	-0.072491296
240	0xbcf89559	-0.030344652
241	0xbd4004bf	-0.046879526
242	0x3c92ec85	0.017935047
243	0xbce45be4	-0.027875848
244	0xbbee3e2b	-0.0072705946
245	0xbbde9357	-0.0067924666
246	0xbd2f033e	-0.0427277
247	0x3d567e92	0.0523668
248	0x3c7b300b	0.015331279
249	0xbd9a1a4a	-0.075245455
250	0xbdadb3bf	-0.084815495
251	0x3d10bd5f	0.03533685
252	0xbcef4dec	-0.02921196
253	0xbd9bc2a8	-0.07605487
254	0x3ce26054	0.027633823
255	0x3d333a07	0.04375651

decoder.0.0.bias f4 [36]
0	0x3d93a40e	0.07209025
1	0xbcab6795	-0.020923415
2	0x3d01fafc	0.031733498
3	0xbd048fdc	-0.032363757
4	0x3cc0ecc3	0.023550397
5	0x3d85095c	0.06495926
6	0x3d5b8d92	0.05360181
7	0x3bc90f4a	0.006135856
8	0x3d55ad02	0.052166946
9	0x3d859ea9	0.06524403
10	0xbc1d6e16	-0.009608766
11	0x3d88b8a4	0.066758424
12	0xbce17c49	-0.027525084
13	0xbc49f64c	-0.012326788
14	0x3cf06124	0.029343195
15	0xbd4412a0	-0.047869325
16	0xbd4bcfd8	-0.049758762
17	0x3d5e22b9	0.054232333
18	0x3df75fb1	0.120787986
19	0x3d72370a	0.05913452
20	0x3d072db0	0.033002555
21	0xbdb22866	-0.08699112
22	0x3d5d37c7	0.05400827
23	0x3c9c0b77	0.019048436
24	0x39ba597a	0.0003554335
25	0xbd344c7a	-0.044018246
26	0x3d9555cd	0.07291756
27	0x3d73a373	0.05948205
28	0xbdba1670	-0.09086311
29	0xbdc1bf75	-0.09460346
30	0x3d33da74	0.043909505
31	0xbd248e4f	-0.04017478
32	0xbe2500d1	-0.16113593
33	0x3da80133	0.08203354
34	0xbd1a91fd	-0.03773688
35	0x3c3df9a7	0.011595166

decoder.0.1.weight f4 [36]
0	0x3f63e387	0.89019054
1	0x3f7b5618	0.98178244
2	0x3f5a3479	0.85236317
3	0x3f55f7a4	0.83580995
4	0x3f595b5d	0.84905034
5	0x3f79d3bd	0.9758871
6	0x3f6d79bc	0.92763877
7	0x3f5eb339	0.8699222
8	0x3f784d89	0.9699331
9	0x3f71cdcc	0.94454646
10	0x3f69784a	0.9119917
11	0x3f7a1554	0.97688794
12	0x3f6bd4f1	0.921218
13	0x3f688693	0.90830344
14	0x3f4a5427	0.79034656
15	0x3f6c8f0f	0.9240579
16	0x3f65734b	0.8962905
17	0x3f4b3097	0.7937102
18	0x3f7cb455	0.98712665
19	0x3f4cb8ec	0.7996967
20	0x3f5c3985	0.8602527
21	0x3f6832f1	0.9070273
22	0x3f70ff11	0.941392
23	0x3f677eb4	0.9042771
24	0x3f6bf45d	0.92169744
25	0x3f56adee	0.83859146
26	0x3f51b652	0.81918824
27	0x3f59b7ad	0.8504589
28	0x3f482478	0.78180647
29	0x3f6a4331	0.91508776
30	0x3f5b6d38	0.8571353
31	0x3f53c810	0.82727146
32	0x3f79bc8c	0.97553325
33	0x3f718c78	0.94354963
34	0x3f811179	1.0083457
35	0x3f527ead	0.8222454

decoder.0.1.bias f4 [36]
0	0x3d47f5cc	0.048818395
1	0x3c27efd6	0.010250052
2	0xb8a5d25a	-7.906994e-05
3	0x3d554116	0.052064024
4	0x3d5dd008	0.054153472
5	0x3da9e369	0.08295328
6	0xbd7f86c2	-0.062384374
7	0x3d17faab	0.03710429
8	0x3d117915	0.035515863
9	0xbb3a87b2	-0.0028462228
10	0x3cabf9bf	0.020993112
11	0x3beeef34	0.007291699
12	0xbc4cdae5	-0.01250336
13	0xbca6a262	-0.020341102
14	0x3d1de728	0.038550526
15	0xbccacad6	-0.024754923
16	0x3b7b19b4	0.003831488
17	0xbcf78b2f	-0.030217735
18	0x3da2f860	0.0795753
19	0x3c5df618	0.013547443
20	0x3cac6ea1	0.021048846
21	0x3d6d1c32	0.057888217
22	0x3d0f825c	0.03503643
23	0x3ca9eed0	0.020743757
24	0x3c396514	0.011315603
25	0xbbc0a49c	-0.005878998
26	0x3c907cec	0.017637692
27	0xbb3beca7	-0.0028674991
28	0xbb03134e	-0.002000052
29	0xbd7b50e8	-0.061356455
30	0xbcaecc78	-0.021337733
31	0x3d158cdd	0.03651129
32	0xbd6ed097	-0.058304396
33	0x3b1751bc	0.002308949
34	0x3c11b13c	0.008892354
35	0xbd8e957f	-0.06962108

decoder.0.1.running_mean f4 [36]
0	0x3dae8244	0.0852094
1	0xbd2d92e5	-0.042376418
2	0x3d91e0b2	0.07122935
3	0xbd239ec6	-0.03994634
4	0x3d07dd22	0.033169873
5	0x3d22c28c	0.039736316
6	0x3dad03c8	0.08447987
7	0x3bca674a	0.006176864
8	0x3ced8905	0.028996
9	0x3def5be1	0.116874464
10	0x3b12b0c1	0.0022383186
11	0x3d05c776	0.032660924
12	0xbce507bf	-0.027957795
13	0x3d0adfee	0.033904962
14	0x3d2221e0	0.039583087
15	0xbcf9dfb6	-0.030502182
16	0xbd9f6210	-0.07782376
17	0x3b2ddbb6	0.0026528663
18	0x3dc2ace8	0.095056355
19	0x3d8b4b02	0.06801416
20	0x3d65dc4e	0.056118302
21	0xbd843326	-0.06455068
22	0x3d83ae05	0.06429676
23	0xbd54eb4d	-0.051982213
24	0xbb9733f2	-0.0046143467
25	0xbd66a5bb	-0.056310397
26	0x3de2351d	0.11045287
27	0x3db803ac	0.08985075
28	0xbdbec9bc	-0.093158215
29	0xbd58e5a0	-0.052953362
30	0x3da9c2f5	0.08289138
31	0xbd35f9bc	-0.04442762
32	0xbdeb5b4d	-0.114920236
33	0x3decb8b9	0.115586706
34	0xbca24e4d	-0.019812727
35	0x3d4de755	0.050269444

decoder.0.1.running_var f4 [36]
0	0x3f218197	0.63088363
1	0x3eaeb877	0.3412511
2	0x3f20cb90	0.6281061
3	0x3f3616f7	0.7112879
4	0x3f355eb7	0.7084765
5	0x3f520091	0.82032114
6	0x3efde09e	0.49585432
7	0x3f7a8da9	0.97872406
8	0x3f5dcfa1	0.8664494
9	0x3f35cfea	0.71020377
10	0x3ec204da	0.37894326
11	0x3ee41843	0.4454976
12	0x3f01b4d0	0.5066652
13	0x3f38e14d	0.7221878
14	0x3f016cd3	0.5055668
15	0x3f42a207	0.76028484
16	0x3f6f8a4f	0.9357042
17	0x3f21f2ad	0.6326092
18	0x3f127e79	0.5722423
19	0x3ef58aa0	0.47957325
20	0x3f121b90	0.5707331
21	0x3ed012d8	0.40639377
22	0x3ee04a0e	0.438065
23	0x3ed56559	0.41678885
24	0x3f42ae59	0.76047283
25	0x3ed0244c	0.40652692
26	0x3f119521	0.5686818
27	0x3f21dbe3	0.63226146
28	0x3f41a5f2	0.7564384
29	0x3ec5f521	0.3866358
30	0x3f464c9e	0.7746066
31	0x3f6fe38c	0.93706584
32	0x3ec812a9	0.39076737
33	0x3f28bed6	0.6591619
34	0x3f579d4c	0.8422439
35	0x3ecf0984	0.40436947

decoder.1.0.weight f4 [36, 36, 3]
0	0x3da038c2	0.07823326
1	0x3c1bbf71	0.009506092
2	0xbd027325	-0.03184809
3	0x3bbf58c6	0.00583944
4	0xbcbf241e	-0.023332652
5	0x3bd588a2	0.006516532
6	0x3cb9d70e	0.022685554
7	0xbab6de2e	-0.0013951713
8	0xbc6dabd1	-0.014506296
9	0xbcc88f58	-0.024482414
10	0xbc8df744	-0.01732982
11	0x3d3e85d0	0.046514332
12	0xbd68e604	-0.056859985
13	0xbd2608bc	-0.040535673
14	0xbcf5783c	-0.029964559
15	0xbd027c64	-0.03185691
16	0xbd7d2f55	-0.061812717
17	0x3b3d5fc4	0.0028896192
18	0xbd4029ee	-0.046914987
19	0xbcff636d	-0.03117534
20	0xbda08015	-0.0783693
21	0xbd29e0ff	-0.04147434
22	0xbcd1acaf	-0.025595037
23	0x3d5fa57a	0.05460117
24	0xbc883599	-0.01662712
25	0xbbed7c2e	-0.0072474694
26	0xbc908d0c	-0.017645381
27	0xbdc04639	-0.09388394
28	0xbdcba075	-0.09942714
29	0xbd161b1f	-0.03664696
30	0xbd697858	-0.056999534
31	0xbcf23806	-0.02956773
32	0xbd546096	-0.051849924
33	0xbd876ea4	-0.066129
34	0xbd026127	-0.031830933
35	0x3c411a5a	0.011786068
36	0xbdb7e1b0	-0.08978593
37	0xbd72a6f5	-0.059241254
38	0xbd36d969	-0.044640932
39	0xbd87dbc7	-0.06633716
40	0xbd8c9abb	-0.0686545
41	0xbd6fa520	-0.058507085
42	0xbd801762	-0.0625446
43	0xbcf2a726	-0.029620718
44	0xbca60319	-0.020265149
45	0x3c39c284	0.01133788
46	0x3d24d9e6	0.040246867
47	0x3c3b095f	0.011415808
48	0x3d571dc9	0.05251864
49	0x3dd7eebb	0.10543581
50	0x3d22cd18	0.039746374
51	0xbc9fe7c4	-0.019519694
52	0x3d9fc0fc	0.07800481
53	0xbc87899d	-0.016545111
54	0xbc407033	-0.0117455
55	0x3be61659	0.007021707
56	0x3c74d5aa	0.01494352
57	0xbd72ed7a	-0.059308507
58	0xbc57e795	-0.013177772
59	0xbd206546	-0.039159082
60	0xbd550bee	-0.05201333
61	0xbcbf491d	-0.023350293
62	0x3d46a398	0.04849586
63	0x3c667f83	0.014068487
64	0x3bd9f358	0.0066513233
65	0xbbda5205	-0.0066626095
66	0xbd15bfd1	-0.036559884
67	0xbd748ce9	-0.059704695
68	0xbd3bd1ad	-0.04585426
69	0xbb8333be	-0.004003971
70	0x3b8f63e2	0.0043759206
71	0xbd32aa46	-0.043619417
72	0xbd5ff5b5	-0.054677684
73	0xbda26dc4	-0.079310924
74	0xbbd3cb08	-0.006463412
75	0x3d21d186	0.039506458
76	0xbd2444c1	-0.04010463
77	0xbb90489b	-0.0044031865
78	0xbd186a43	-0.037210714
79	0xbdd17da0	-0.10229039
80	0xbdf2c665	-0.11854247
81	0xbd71a1e4	-0.05899228
82	0xbe333c04	-0.17503363
83	0xbd98235e	-0.07428621
84	0xbda8be67	-0.08239441
85	0xbd80a9a4	-0.062823564
86	0xbd056ae9	-0.03257266
87	0xbdb71fd1	-0.089416154
88	0xbdeca870	-0.115555644
89	0xbd475626	-0.048666142
90	0xbd46c3e4	-0.04852666
91	0xbdbc6f8b	-0.09200963
92	0xbdabd082	-0.08389379
93	0xbd2b98f6	-0.04189392
94	0xbdd7e70b	-0.10542115
95	0xbd4a0031	-0.04931659
96	0xbcfea0bd	-0.031082505
97	0xbd7bb293	-0.0614496
98	0xbdcabc5d	-0.09899209
99	0x3d12390f	0.035698947
100	0xbdace30e	-0.08441745
101	0xbd768b5e	-0.060191505
102	0xbe1ec6d8	-0.1550554
103	0xbddd5a85	-0.10808281
104	0xbdf77091	-0.12082017
105	0xbe40ab2b	-0.18815295
106	0xbda55962	-0.08073689
107	0x3ab17e18	0.0013541607
108	0xbd862e39	-0.06551785
109	0xbdc88980	-0.09791851
110	0x3d650c6e	0.055920057
111	0x3d2eb832	0.04265613
112	0x3c7fb850	0.015607908
113	0xbd5b4ef6	-0.0535421
114	0xbdb56bdc	-0.08858463
115	0xbcfcc5c7	-0.030856026
116	0x3b472b21	0.0030390697
117	0x3d1f5d3f	0.038907286
118	0xbd45a8ae	-0.04825657
119	0xbd803570	-0.062601924
120	0xbd3db1a5	-0.046311993
121	0xbd4233ce	-0.047412686
122	0x3c4b2db7	0.012401036
123	0xbdc3467c	-0.09534928
124	0xbd409a50	-0.047022164
125	0x3dac3fce	0.08410607
126	0xbdb7e0f1	-0.08978451
127	0xbdf8da62	-0.12151028
128	0xbd11664e	-0.035497956
129	0xbd0ed22b	-0.0348684
130	0xbc58800e	-0.013214124
131	0xbba642a1	-0.0050738608
132	0xbccbf0b8	-0.024895057
133	0xbd84358f	-0.06455528
134	0xbda9d597	-0.08292692
135	0x3d3848fb	0.044991475
136	0xbd684fcd	-0.05671673
137	0xbded2c69	-0.11580736
138	0xbd405a9f	-0.046961423
139	0xbdebd1dc	-0.11514637
140	0x3cabfda2	0.020994965
141	0xbd5f1d11	-0.05447108
142	0xbd5712dc	-0.05250822
143	0x3caa7f4e	0.020812657
144	0xba8e4c56	-0.001085649
145	0xbdba294b	-0.09089907
146	0xbd9017f4	-0.07035819
147	0xbd1f2254	-0.038851097
148	0xbda7cc83	-0.081933044
149	0x3bebec2c	0.0071997847
150	0x3d6a01c2	0.057130583
151	0x3ca3519f	0.01993638
152	0xbd9585c2	-0.07300903
153	0x3b45f266	0.0030204295
154	0x3d702be4	0.058635607
155	0x3d8dc8b8	0.0692305
156	0xbd3091d0	-0.043107808
157	0x3d91a797	0.07112043
158	0x3b03184b	0.0020003493
159	0xbc43eb57	-0.011957965
160	0xbce73ade	-0.028226312
161	0x3e0e8129	0.13916458
162	0x3c28b600	0.010297298
163	0x3cfcff0a	0.03088333
164	0x3da76b3d	0.08174751
165	0xbd273938	-0.040826052
166	0xbd6ddb5f	-0.058070537
167	0xbcb7e0f1	-0.022446128
168	0x3bfeee20	0.0077798516
169	0xbdb6b34e	-0.089209184
170	0xbda92550	-0.0825907
171	0x3cec2c0a	0.028829593
172	0x3ca507d0	0.020145327
173	0xbda7ec9b	-0.08199426
174	0x3c9860e8	0.018600896
175	0xbda51440	-0.08060503
176	0xbda4564f	-0.080242746
177	0xbddd1038	-0.10794109
178	0xbdd8333c	-0.10556647
179	0xbcbe8251	-0.0232555
180	0xbdf8f03d	-0.12155197
181	0xbe09470b	-0.13406007
182	0xbcf1abaf	-0.02950081
183	0xbdd6361c	-0.10459539
184	0xbe339ffc	-0.17541498
185	0xbdb6b19b	-0.08920594
186	0xbc81b4c2	-0.015833262
187	0xbdd90ab0	-0.105977416
188	0xbe18a56d	-0.14906855
189	0xbd634dee	-0.05549424
190	0xbe03e965	-0.12882002
191	0xbd7fe5ab	-0.062474888
192	0xbd667ebc	-0.056273207
193	0xbd9b1722	-0.075727716
194	0xbdb5ca4b	-0.08876475
195	0x3b92d25b	0.0044806427
196	0xbd0cddbd	-0.034391154
197	0xbd9256a0	-0.07145429
198	0xbd16d741	-0.036826376
199	0xbdc739b8	-0.09727806
200	0xbd174c6b	-0.036938112
201	0xbd763ccc	-0.060116574
202	0xbdf07a6a	-0.11742099
203	0x3ccbb633	0.024867153
204	0xbdd38a80	-0.10329151
205	0xbde46a0c	-0.11153039
206	0xbd8bf581	-0.068339355
207	0xbd7db9e6	-0.061944865
208	0xbd88adcb	-0.066737734
209	0x3cb12c2c	0.021627508
210	0xbdc9c778	-0.09852499
211	0xbd89910a	-0.06717117
212	0x3d8597c7	0.0652309
213	0x3d97a7de	0.07405065
214	0xbd538317	-0.05163869
215	0xbcda948a	-0.026682157
216	0x3d08245d	0.033237804
217	0x3d9a0e5a	0.075222686
218	0x3d9c8751	0.07642997
219	0xbd09c9e9	-0.033639822
220	0x3d1c74c9	0.038197313
221	0x3d70f399	0.058826063
222	0x3990930c	0.0002757538
223	0xbd7e7d7d	-0.062131394
224	0x3d38bee9	0.04510394
225	0xbdc55833	-0.09635963
226	0xbcf499bc	-0.029858463
227	0x3dc2ace7	0.09505635
228	0xbc24dceb	-0.010062437
229	0xbdc62a96	-0.096760914
230	0x3d44b089	0.04801992
231	0xbd3f86fc	-0.04675959
232	0xbce52173	-0.027970051
233	0xbc48dc03	-0.012259486
234	0xbd509b22	-0.050929196
235	0xbe3e9be9	-0.18614163
236	0x3d8a19f8	0.067432344
237	0xbd5f31a6	-0.054490708
238	0xbe3e4b90	-0.18583512
239	0x3cc6b335	0.024255374
240	0xbdaebf21	-0.08532549
241	0xbe027cda	-0.1274294
242	0x3d7e8932	0.06214256
243	0xbdd5f871	-0.10447777
244	0xbdc4586c	-0.09587178
245	0x3d5b7ea4	0.05358757
246	0xbd8f9dc0	-0.0701251
247	0xbe1300b4	-0.14355737
248	0xbd29196c	-0.04128401
249	0x3c95922e	0.01825818
250	0xbdc1443d	-0.094368435
251	0x3be2fa0d	0.006926781
252	0xbb8dd9e0	-0.0043289512
253	0xbd373719	-0.04473028
254	0x3cc6b37a	0.024255503
255	0xbdaf400b	-0.08557137

decoder.1.0.bias f4 [36]
0	0xbddda3c8	-0.108222544
1	0xbe17e673	-0.14834003
2	0x3d074ee9	0.03303424
3	0xbe135bc4	-0.14390475
4	0xbe156004	-0.14587408
5	0xbd7f6216	-0.0623494
6	0xbe35c4f8	-0.17750919
7	0xbe716468	-0.23573458
8	0xbe315c15	-0.17320283
9	0xbe3f6830	-0.18692088
10	0xbdb73204	-0.089450866
11	0xbb0a018f	-0.0021058058
12	0xbdc61186	-0.09671311
13	0xbddf03e4	-0.10889414
14	0x3e163dbf	0.14671992
15	0x3e1314f9	0.14363469
16	0xbc8e3e10	-0.017363578
17	0xbdf37295	-0.11887089
18	0xbd891f81	-0.06695462
19	0x3cd3c4b1	0.025850626
20	0xbd81ee44	-0.06344274
21	0xbe02bc2f	-0.12767099
22	0xbe329031	-0.17437817
23	0xbe137c73	-0.14402942
24	0xbd847094	-0.06466785
25	0xbe3acb91	-0.18241717
26	0xbda487ae	-0.08033691
27	0xbda939b6	-0.082629606
28	0xbdc528a9	-0.09626896
29	0xbe258043	-0.16162209
30	0xbd954be4	-0.072898656
31	0xbe2df5b4	-0.1698826
32	0x3c8dcc77	0.01730941
33	0xbde2d82c	-0.11076388
34	0xbe1615ce	-0.14656755
35	0xbe0d4212	-0.13794735

decoder.1.1.weight f4 [36]
0	0x3f559118	0.8342452
1	0x3f482967	0.78188175
2	0x3f501a62	0.81290257
3	0x3f4a6633	0.79062194
4	0x3f5d41b4	0.8642838
5	0x3f68fdcb	0.9101226
6	0x3f6559ed	0.8959034
7	0x3f7289e0	0.9474163
8	0x3f63482c	0.88782
9	0x3f71e882	0.94495404
10	0x3f75856d	0.95906717
11	0x3f60e8e5	0.8785537
12	0x3f697e41	0.91208273
13	0x3f695bb6	0.91155565
14	0x3f737755	0.9510396
15	0x3f6c6c85	0.9235309
16	0x3f2454b1	0.6419173
17	0x3f1ed6f4	0.6204674
18	0x3f3af539	0.7303043
19	0x3f482bcd	0.78191835
20	0x3f47e75a	0.7808739
21	0x3f4ddf8c	0.8041923
22	0x3f62083f	0.8829383
23	0x3f7b177a	0.980827
24	0x3f780f7c	0.9689863
25	0x3f79d5e0	0.9759197
26	0x3f765dab	0.96236676
27	0x3f7cdffe	0.98779285
28	0x3f63cf10	0.8898783
29	0x3f679dc4	0.90475106
30	0x3f568489	0.8379598
31	0x3f5533f7	0.8328242
32	0x3f5f2323	0.8716299
33	0x3f6441a4	0.8916266
34	0x3f619a82	0.88126385
35	0x3f4e5526	0.80598676

decoder.1.1.bias f4 [36]
0	0xbda99126	-0.08279638
1	0xbde10d14	-0.109888226
2	0xbd4323d4	-0.04764159
3	0xbe033810	-0.12814355
4	0xbdcf0774	-0.101088434
5	0xbe231c31	-0.15928723
6	0xbe08a93d	-0.1334581
7	0xbe3ecaea	-0.18632093
8	0xbe04190f	-0.12900184
9	0xbe3e57eb	-0.18588226
10	0xbe4581ff	-0.19287871
11	0xbe14052d	-0.144551
12	0xbe24f921	-0.1611066
13	0xbe0e3c24	-0.1389013
14	0x3e2930ae	0.16522476
15	0x3dfa9083	0.12234595
16	0x3df5b866	0.11998062
17	0xbd9f750a	-0.07785995
18	0xbddb7234	-0.10715142
19	0xbdfbe654	-0.12299791
20	0xbe118c5c	-0.14213699
21	0xbe05f9b0	-0.1308353
22	0xbe1cc20c	-0.15308398
23	0xbe36b0a2	-0.17840818
24	0xbe3ec9e1	-0.18631698
25	0xbe2daf8a	-0.16961494
26	0xbe14b976	-0.14523873
27	0xbe4a7710	-0.19771981
28	0xbe133308	-0.14374936
29	0xbe1679b7	-0.14694868
30	0xbe201783	-0.15633969
31	0xbe1a08f7	-0.15042482
32	0xbdd2b5cd	-0.10288582
33	0xbe1aa23a	-0.15100947
34	0xbe1216f1	-0.14266564
35	0xbde8933e	-0.11356209

decoder.1.1.running_mean f4 [36]
0	0xbdeb129e	-0.1147816
1	0xbe0bdbe2	-0.13658097
2	0xbc80c7f9	-0.015720354
3	0xbde5f9f8	-0.112293184
4	0xbe17ba51	-0.14817168
5	0x3c241403	0.010014537
6	0xbe123075	-0.14276297
7	0xbe1e95db	-0.15486853
8	0xbe05928f	-0.13044189
9	0xbdc0504a	-0.09390314
10	0x3c9db7e8	0.019252732
11	0x3d6f2a80	0.05839014
12	0xbcafdaea	-0.021466691
13	0xbd976550	-0.07392371
14	0x3d37b14d	0.04484682
15	0x3dbc9ee2	0.09209992
16	0xbdf2eb28	-0.11861259
17	0xbe129ecd	-0.1431839
18	0xbd28160d	-0.041036654
19	0x3d57a385	0.05264618
20	0xbcacdae3	-0.021100467
21	0xbda4379f	-0.080184214
22	0xbdd7c93a	-0.10536428
23	0xbd8bc70c	-0.068250746
24	0x3cc1e3b6	0.023668151
25	0xbdd6476f	-0.104628436
26	0xbcf6c1a5	-0.030121634
27	0x3c939a4a	0.018017907
28	0xbceaa2e5	-0.028642127
29	0xbde47b74	-0.11156359
30	0x3b1d9151	0.0024042914
31	0xbdeabf5f	-0.114622824
32	0x3d028e94	0.031874254
33	0xbd26ff34	-0.040770724
34	0xbdcd1f8c	-0.10015783
35	0xbdf40cbf	-0.119164936

decoder.1.1.running_var f4 [36]
0	0x3f967016	1.1752956
1	0x3ee820aa	0.4533742
2	0x3f00b3c6	0.5027431
3	0x3f0c70b6	0.54859483
4	0x3f1c236e	0.6099156
5	0x3f456a1c	0.77115035
6	0x3f6db10e	0.9284829
7	0x3f3486d2	0.7051822
8	0x3eb55581	0.35416797
9	0x3f50162f	0.8128385
10	0x3f35e6fc	0.7105558
11	0x3e80d7f3	0.25164756
12	0x3e9ede89	0.31029156
13	0x3f346925	0.7047294
14	0x3f172c4f	0.59051985
15	0x3d43b76d	0.04778235
16	0x3f55b8e1	0.8348523
17	0x3f181d78	0.59419966
18	0x3e99d4f5	0.30045286
19	0x3f40bdbc	0.7528951
20	0x3f4e4126	0.8056816
21	0x3eb3e81f	0.35138032
22	0x3f069683	0.5257341
23	0x3f35445f	0.7080745
24	0x3f2eba31	0.68252856
25	0x3ee74c8c	0.45175588
26	0x3f033afc	0.5126188
27	0x3f414d35	0.75508434
28	0x3e80dd07	0.2516863
29	0x3eb32839	0.34991625
30	0x3ebaeb77	0.3650777
31	0x3f0f82a5	0.5605872
32	0x3f4de696	0.8042997
33	0x3f2b092f	0.6681089
34	0x3f0d3990	0.5516596
35	0x3eca4932	0.3950897
