trained_models/7956:7BEB:31C5:19D5.pt (torch, 254297 bytes, 52 tensors)

encoder.encoder.0.0.weight f4 [36, 36, 7]
0.0048068194 -0.11212878 -0.11624774 -0.0100928405 0.060597673 -0.012095707 0.008517329 0.022234265
-0.025818035 -0.019938448 0.013875915 0.0063418075 -0.040732678 0.011850396 -0.01164651 0.007703011
-0.031891998 -0.023434782 -0.0032167805 -0.025093501 -0.011292555 0.021991482 0.00038115148 -0.031993583
-0.009999808 -0.01639722 -0.054848883 0.014392994 0.022241037 0.004229895 -0.008514899 -0.031569537
-0.037469696 -0.04416087 -0.007484786 0.05743402 0.050829824 0.016361216 0.023522556 0.045012064
0.026826257 0.04331657 0.011253348 0.010230105 -0.021580538 -0.03820404 -0.032112006 -0.034132876
-0.02501306 0.017745966 0.02027443 0.019925533 0.0068739345 -0.0006382142 -0.017334977 -0.00018182976
0.008722584 0.013740601 0.038143743 0.0013059969 -0.016669419 -0.018086476 -0.024245083 0.016192604
0.009254425 0.009075023 0.010147921 -0.018474586 -0.014356746 0.009482661 0.011570923 0.053359278
0.027411709 0.03789893 0.010789562 0.046227515 0.004711065 -0.009535419 -0.0041426397 0.0030181338
0.027508082 -0.035957403 -0.026199501 -0.0058387076 0.028881865 -0.015604451 -0.008135443 0.041801047
0.011595249 -0.00046661228 -0.01121063 0.04708888 0.010879608 0.009075395 0.10506476 0.04292251
0.04072654 0.009157264 0.07444672 -0.0047892486 -0.07021578 0.14469177 -0.021060748 0.056390934
-0.1035753 0.09739123 -0.024213465 -0.0987321 0.07537279 0.0048307404 -0.008913223 -0.014896202
0.042903427 0.0036148336 -0.026432404 -0.09687472 -0.059277054 -0.12150146 -0.017785368 0.08363532
0.071212485 0.050652437 -0.030395977 0.02223617 -0.037412435 0.05315454 0.06811077 0.072305664
0.030179193 -0.02947866 0.029041663 -0.027689686 0.060392 0.062411804 0.08267821 0.038441475
-0.041349 0.011612 -0.011618949 0.04789216 0.07238333 0.09754497 0.087549396 -0.0145209525
0.052755807 0.0395659 0.07920128 -0.0009896563 0.013427014 -0.007893457 -0.08852961 -0.047428474
-0.03504774 0.0029100333 0.026042376 0.022648469 0.043600477 -0.048321832 -0.06905867 -0.0022629618
0.008050679 -0.0076174573 -0.014376315 -0.018775478 -0.073812194 -0.09278137 -0.0048708417 -0.028993132
0.004466543 0.032164305 0.019284258 -0.039698176 -0.06338876 0.018110627 -0.011476242 0.010630661
0.029373383 0.019686982 -0.05348157 -0.05005204 0.0003573907 -0.009226672 0.029464284 0.06983114
0.0385584 -0.008330985 -0.014101038 0.014247785 0.02076209 0.017217198 0.055387832 0.0074785757
-0.04310705 -0.10030053 0.017056098 0.0015059963 0.036005925 0.081563644 0.0494356 -0.026893998
-0.075742416 -0.014788778 -0.01954142 0.004963651 0.025654785 0.044672817 -0.06504419 -0.08007921
-0.021711163 -0.0068987934 0.006655144 0.06507468 0.025037317 -0.04570548 -0.060337268 -0.024682645
-0.01058963 -0.02209481 0.04536863 -0.003843481 -0.09731945 -0.09190346 -0.05552727 -0.005769537
0.023625767 0.041354448 0.0140306335 -0.029416608 -0.051867392 -0.008573592 0.0035531279 0.016296305
0.11647107 0.12491971 0.034422252 -0.017233899 0.07155327 0.092906006 -0.015754113 0.039350167
0.016315624 0.05133487 -0.0010173477 0.065574326 0.0502564 -0.048650537 -0.18044597 -0.22754744
-0.56634384 0.08226362 -0.1553373 -0.021754473 0.05036348 0.07572301 0.03315118 0.012586423
00000000: 8682 9d3b c6a3 e5bd 4c13 eebd 715c 25bc
00000010: 4435 783d 122d 46bc 448c 0b3c a224 b63c
00000020: 5880 d3bc f555 a3bc ce57 633c f0ce cf3b
00000030: 4fd7 26bd 2a28 423c 01d1 3ebc 8a69 fc3b
00000040: 2fa1 02bd 4dfa bfbc 9fd0 52bb e390 cdbc
00000050: 6904 39bc 7b27 b43c 49d5 c739 b40b 03bd
00000060: 3cd6 23bc 7653 86bc 39a9 60bd 98d0 6b3c
00000070: d632 b63c ee9a 8a3b 1382 0bbc 0f4f 01bd
00000080: d379 19bd 07e2 34bd f042 f5bb ef3f 6b3d
00000090: ef32 503d f507 863c 60b2 c03c 925e 383d
000000a0: bdc2 db3c b76c 313d f65f 383c 2c9c 273c
000000b0: abc9 b0bc d77b 1cbd e187 03bd eace 0bbd
000000c0: 30e8 ccbc fd5f 913c 9016 a63c df3a a33c
000000d0: be3e e13b d44d 27ba 1502 8ebc 8ea9 3eb9
000000e0: 2be9 0e3c 4220 613c 9d3c 1c3d fc2d ab3a
000000f0: 4e8e 88bc 172a 94bc a09d c6bc 5aa6 843c
00000100: df9f 173c 68af 143c 7743 263c 0458 97bc
00000110: 8f38 6bbc 2a5d 1b3c f893 3d3c 428f 5a3d
00000120: 858e e03c e93b 1b3d b4c6 303c 1059 3d3d
00000130: 475f 9a3b 723a 1cbc fbbe 87bb e2cb 453b
00000140: a158 e13c 1248 13bd 56a0 d6bc a152 bfbb
00000150: a999 ec3c d0a9 7fbc 854a 05bc 9337 2b3d
00000160: 00fa 3d3c a4a3 f4b9 caac 37bc 45e0 403d
00000170: 6240 323c f7b0 143c 312c d73d 84cf 2f3d
00000180: dfd0 263d 5908 163c 8677 983d 21ef 9cbb
00000190: 4acd 8fbd 142a 143e 9787 acbc 2efa 663d
000001a0: 491f d4bd 0e75 c73d 515b c6bc 0e34 cabd
000001b0: 0d5d 9a3d 304b 9e3b c408 12bc 330f 74bc
000001c0: 81bb 2f3d d8e6 6c3b c588 d8bc 4166 c6bd
000001d0: 7fcc 72bd c2d5 f8bd 9fb2 91bc ff48 ab3d
000001e0: dad7 913d ee78 4f3d fc00 f9bc a128 b63c
000001f0: c83d 19bd 93b8 593d a97d 8b3d fe14 943d
00000200: 5b3a f73c 3b7d f1bc c8e8 ed3c 7bd5 e2bc
00000210: 9a5d 773d 85a3 7f3d 3253 a93d cf74 1d3d
00000220: 925d 29bd 4240 3e3c 675d 3ebc 922a 443d
00000230: b63d 943d a8c5 c73d 194d b33d 4ae9 6dbc
00000240: 7916 583d da0f 223d 4834 a23d 5bb7 81ba
00000250: fbfc 5b3c 8f53 01bc 034f b5bd 5c44 42bd
00000260: 388e 0fbd 42b6 3e3b d256 d53c 4889 b93c
00000270: 6a96 323d 1ded 45bd a26e 8dbd 334e 14bb
00000280: ffe6 033c dd9b f9bb a38a 6bbc 08cf 99bc
00000290: d92a 97bd 2904 bebd 959b 9fbb 0183 edbc
000002a0: 145c 923b b8be 033d 05fa 9d3c 8e9a 22bd
000002b0: f7d1 81bd bd5c 943c d906 3cbc 392c 2e3c
000002c0: 73a0 f03c 9846 a13c 7e0f 5bbd 5e03 4dbd
000002d0: 2b60 bb39 782b 17bc 155f f13c a103 8f3d
000002e0: 6aef 1d3d af7e 08bc 0a08 67bc 8b6f 693c
000002f0: 4215 aa3c 150b 8d3c 5ade 623d d70e f53b
00000300: 0591 30bd 5d6a cdbd 3bb9 8b3c da64 c53a
00000310: f37a 133d d70a a73d fc7c 4a3d cd50 dcbc
00000320: d71e 9bbd a14c 72bc 5415 a0bc 1fa6 a23b
00000330: fc29 d23c d8fa 363d e335 85bd 9200 a4bd
00000340: 9cdb b1bc 460f e2bb 6513 da3b e045 853d
00000350: 0f1b cd3c ab35 3bbd 3624 77bd 4233 cabc
00000360: 2180 2dbc 2d00 b5bc 75d4 393d e9e2 7bbb
00000370: 6b4f c7bd e237 bcbd 9070 63bd 620e bdbb
00000380: d38a c13c 4863 293d bee0 653c 19fb f0bc
00000390: e772 54bd 4078 0cbc 98db 683b d47f 853c
000003a0: 6288 ee3d e8d5 ff3d 59fe 0c3d 1b2e 8dbc
000003b0: 858a 923d 8145 be3d c50e 81bc a42d 213d
000003c0: 58a8 853c 8344 523d 8658 85ba d54b 863d
000003d0: a8d9 4d3d c945 47bd d4c6 38be 3202 69be
000003e0: e9fb 10bf d479 a83d be10 1fbe 7036 b2bc
000003f0: f049 4e3d aa14 9b3d 88c9 073d 4937 4e3c

encoder.encoder.0.0.bias f4 [36]
0.04242676 -0.014013768 0.046186328 0.03021984 0.0117910495 -0.048295572 -0.050268218 0.03857749
-0.052323416 -0.025989018 -0.03519384 -0.018966572 0.036907267 -0.046966515 0.05758301 0.031125208
0.07542186 0.03880763 -0.053999443 -0.040491536 -0.0391803 0.017160578 0.027401019 -0.03204004
0.044459645 0.025653107 0.03066051 -0.046042744 -0.0011822195 0.059467893 0.039789636 -0.016660329
0.06287637 -0.0568868 0.0603772 -0.021399837
00000000: afc7 2d3d 019a 65bc e02d 3d3d 998f f73c
00000010: 3f2f 413c 94d1 45bd 0ce6 4dbd 6e03 1e3d
00000020: 1451 56bd ece6 d4bc 6a27 10bd c95f 9bbc
00000030: 132c 173d f65f 40bd 2adc 6b3d 4bfa fe3c
00000040: c776 9a3d c0f4 1e3d 852e 5dbd 74da 25bd
00000050: 867b 20bd 5794 8c3c 1a78 e03c 6b3c 03bd
00000060: 511b 363d 7726 d23c c02b fb3c 5197 3cbd
00000070: b4f4 9aba 9b94 733d 75fa 223d 3e7b 88bc
00000080: 54c5 803d 2202 69bd 154e 773d b64e afbc

encoder.encoder.0.1.weight f4 [36]
0.86679184 0.9069963 0.91702056 0.8892847 0.86688536 0.7915786 0.93201596 0.8199428
0.8425828 0.9702066 1.2056925 0.7883713 0.7634656 0.8032579 0.9272517 0.87925345
0.8801021 0.8578735 0.4838596 0.7730811 0.7426702 0.8421648 0.557576 0.7226812
1.1072989 0.9156433 0.7094957 0.8030677 0.97623473 0.9019408 0.7905354 0.77962714
0.6154421 0.85313755 0.7540266 1.0984355
00000000: 12e6 5d3f e930 683f dcc1 6a3f 29a8 633f
00000010: 33ec 5d3f e5a4 4a3f 9998 6e3f c5e7 513f
00000020: 82b3 573f 765f 783f 2254 9a3f b4d2 493f
00000030: 7b72 433f 4fa2 4d3f 5e60 6d3f c116 613f
00000040: 5f4e 613f 999d 5b3f 72bc f73e a5e8 453f
00000050: a21f 3e3f 1d98 573f 4dbd 0e3f a301 393f
00000060: f8bb 8d3f 9967 6a3f 83a1 353f d895 4d3f
00000070: 85ea 793f 98e5 663f 8760 4a3f a595 473f
00000080: 9d8d 1d3f 3967 5a3f e307 413f 8999 8c3f

encoder.encoder.0.1.bias f4 [36]
-0.020804187 0.026053285 -0.031823065 -0.003972083 -0.045157894 -0.011169219 -0.09231302 -0.0105621
-0.028626148 0.002906818 -0.0033131312 0.0030762474 -0.01745023 -0.025299681 -0.017409243 -0.012358075
-0.0018134676 -0.013036483 -0.021398816 -0.08186034 -0.03294346 -0.003800834 -0.03742898 -0.04760669
0.02192547 -0.017138805 -0.03072593 -0.0037284638 -0.03846954 -0.00609985 -0.017777149 -0.047508158
-0.019658634 -0.064429566 -0.000941778 0.012383659
00000000: 8b6d aabc b36d d53c e758 02bd 3f28 82bb
00000010: 7cf7 38bd 1aff 36bc 9c0e bdbd a90c 2dbc
00000020: 6281 eabc 5080 3e3b 1e21 59bb de9a 493b
00000030: c9f3 8ebc 4741 cfbc d49d 8ebc 8679 4abc
00000040: e0b1 edba f996 55bc 924c afbc 65a6 a7bd
00000050: b9ef 06bd 6a17 79bb 214f 19bd 3cff 42bd
00000060: 0b9d b33c ae66 8cbc f2b4 fbbc 3e59 74bb
00000070: 3d92 1dbd 40e1 c7bb 62a1 91bc ea97 42bd
00000080: 250b a1bc a6f3 83bd a7e1 76ba d5e4 4a3c

encoder.encoder.0.1.running_mean f4 [36]
-0.08459163 0.46892363 0.8870105 -1.537924 1.0823394 0.609795 -0.7365624 1.0395958
-0.25265667 -1.0996653 -0.69163054 0.72393286 0.31091288 -0.6642079 0.9661882 1.153155
-0.71841115 0.47648254 -0.35398975 -0.74825233 -0.8333217 0.7685801 -0.20654804 1.3756689
-0.0011540509 -0.4431405 1.2868712 -0.8379198 -0.94730777 -0.7656572 0.60486853 -0.21709281
0.42927802 0.08435566 -0.3340871 -1.2724167
00000000: 603e adbd c216 f03e 1f13 633f b2da c4bf
00000010: 198a 8a3f 861b 1c3f 5a8f 3cbf 7a11 853f
00000020: 375c 81be d5c1 8cbf b30e 31bf aa53 393f
00000030: f92f 9f3e 8709 2abf 1c58 773f 959a 933f
00000040: cbe9 37bf 85f5 f33e 253e b5be 778d 3fbf
00000050: 9254 55bf aac1 443f 5481 53be eb15 b03f
00000060: 8643 97ba 50e3 e2be 32b8 a43f e981 56bf
00000070: c382 72bf 1c02 44bf aad8 1a3f 944d 5ebe
00000080: 54ca db3e a9c2 ac3d 770d abbe 8dde a2bf

encoder.encoder.0.1.running_var f4 [36]
0.004710614 0.006013515 0.0052632843 0.009271955 0.0038918376 0.0074898447 0.0076684956 0.00922815
0.0057953624 0.009213719 0.0077607613 0.010664748 0.0059047346 0.008179139 0.0075953547 0.010810802
0.009128086 0.0072460272 0.0051916926 0.009713748 0.008163997 0.00929908 0.0033451165 0.008196359
0.009499545 0.0047132047 0.01151655 0.012467846 0.010852975 0.010342113 0.003849842 0.0062890807
0.0036530248 0.0051983064 0.0038502144 0.0109188985
00000000: 7f5b 9a3b 050d c53b a177 ac3b 66e9 173c
00000010: 330e 7f3b 5f6d f53b 0148 fb3b ab31 173c
00000020: 06e7 bd3b 23f5 163c fc4d fe3b 32bb 2e3c
00000030: 817c c13b cc01 063c 74e2 f83b ca1f 313c
00000040: f88d 153c 1570 ed3b 131f aa3b 6926 1f3c
00000050: 49c2 053c 2b5b 183c be39 5b3b 054a 063c
00000060: fba3 1b3c 3a71 9a3b e9af 3c3c f045 4c3c
00000070: add0 313c f771 293c a14d 7c3b a214 ce3b
00000080: 9667 6f3b 8e56 aa3b e153 7c3b 2ee5 323c

encoder.encoder.1.backbone.0.0.weight f4 [36, 36, 3]
-0.0733563 0.07428912 0.058920447 0.04794379 0.0355242 -0.1497161 -0.09863243 -0.0013122308
0.088777184 -0.12545492 0.09378368 0.0051184366 0.0052027344 -0.048563216 0.04054557 0.04328842
0.087575145 0.10625847 0.10794422 0.11590305 -0.03577157 0.057658426 0.07417894 0.159666
-0.070379056 -0.10660539 0.017229058 0.05167548 -0.03849368 0.013443602 0.03625894 0.1300239
0.11943594 -0.06258519 0.07584269 -0.034060992 0.006047814 0.022534741 0.09751312 -0.026630834
-0.02331913 -0.069702566 0.053509273 -0.08399919 -0.014239665 0.021172658 0.058413956 -0.021442564
0.053903867 0.055232607 -0.09794294 0.036952175 -0.080537565 -0.09784207 0.124705896 0.091410704
0.10384733 0.033991057 0.08119285 0.11203176 -0.061816145 0.089947924 -0.040580314 -0.016041383
-0.073447496 -0.00022456683 0.06158965 0.017283628 0.022924481 -0.17553182 -0.05652731 0.074302234
-0.039217975 0.06743378 0.14155923 -0.085056156 0.077583715 -0.12930103 -0.034620643 -0.14922921
-0.022739783 -0.035408057 0.08682762 -0.16338816 0.1454162 0.2079993 0.019746978 0.036373984
-0.070814714 -0.10661953 0.0732042 0.09265472 0.1778635 0.070077196 0.08133316 0.08417627
-0.08753969 -0.2537968 0.06788789 -0.08107844 0.08392611 0.18363923 0.004947349 -0.014663771
0.021510692 0.073816165 -0.06266842 0.114568725 -0.02040691 0.08258741 -0.059160728 -0.0034320715
-0.00580399 0.07269649 -0.03028979 0.020311423 -0.0399217 -0.08665789 -0.086939834 -0.14061274
-0.029248986 -0.0021318274 0.0766966 -0.033246048 0.03086914 0.0685791 0.039423928 -0.019527247
-0.00277943 -0.070798405 0.04401877 -0.02189213 0.03137994 0.0798495 0.07327456 -0.0151496045
0.06391267 -0.019659994 -0.09993889 -0.07151807 0.068041556 0.008435979 -0.041811835 0.07616527
-0.08587648 -0.08017159 -0.05616539 0.092941895 0.015925305 0.009558005 -0.16536082 -0.06618069
-0.054564983 0.0022138515 -0.021286704 0.06665787 0.082762785 0.07537309 -0.047584467 -0.067260414
-0.13482448 -0.11196423 -0.017612586 0.058118913 0.0049543907 0.10171062 -0.01764727 0.034463625
0.04858141 -0.0462702 -0.044597417 -0.09429575 -0.051680572 0.021733738 -0.00091068156 0.03437255
0.0355888 0.0018767222 -0.07198905 -0.12167267 -0.08291173 -0.13959529 -0.06394103 -0.007683041
0.044150677 0.030553505 0.05798955 0.113408834 0.16156451 -0.112799086 -0.05363179 -0.15559997
-0.006696022 0.11036763 0.10943428 0.00017667245 0.09295233 -0.071859546 0.029196983 0.06573174
0.044319183 0.07478222 -0.032604456 -0.014816458 0.0021429914 -0.13962322 0.02227031 -0.06869227
-0.09361941 0.042592205 0.076303005 0.08934788 0.03192696 0.0777879 0.043342166 0.09196652
0.0021956027 0.007560437 -0.10496267 -0.14102393 -0.11083546 -0.09167865 -0.07868135 0.05739961
-0.053240098 -0.024798695 0.018997824 -0.09283818 -0.055808615 0.17521422 0.092228696 -0.08380221
-0.00676935 -0.111608915 0.11235778 0.03579112 -0.002432999 -0.064357996 0.05740962 0.16738532
-0.086567275 0.06588099 -0.023367312 -0.0140537815 -0.021365996 0.09808693 0.009847689 0.16212156
0.23508593 0.16891325 -0.074383415 0.02009944 -0.017456498 0.13014996 0.20925748 -0.2652869
00000000: d43b 96bd e524 983d 9156 713d b560 443d
00000010: d381 113d 2d4f 19be cdff c9bd 29ff abba
00000020: d0d0 b53d 4177 00be a811 c03d 8fb8 a73b
00000030: b37b aa3b 39ea 46bd 1d13 263d 334f 313d
00000040: 995a b33d 0a9e d93d dc11 dd3d 945e ed3d
00000050: 3685 12bd 3e2b 6c3d 21eb 973d 7c7f 233e
00000060: e522 90bd ed53 dabd f423 8d3c aba9 533d
00000070: 8dab 1dbd 8e42 5c3c 4184 143d fc24 053e
00000080: d59a f43d aa2c 80bd 6a53 9b3d 8a83 0bbd
00000090: be2c c63b c79a b83c f5b4 c73d e828 dabc
000000a0: c307 bfbc 38c0 8ebd 8a2c 5b3d c407 acbd
000000b0: 7c4d 69bc 4872 ad3c 7943 6f3d 51a8 afbc
000000c0: 4dca 5c3d 963b 623d 4f96 c8bd 2a5b 173d
000000d0: e1f0 a4bd 6c61 c8bd ce65 ff3d 8935 bb3d
000000e0: e9ad d43d 353a 0b3d 7048 a63d e870 e53d
000000f0: ed32 7dbd 9e36 b83d 8b37 26bd 3869 83bc
00000100: a46b 96bd b379 6bb9 6e45 7c3d 6596 8d3c
00000110: 1fcc bb3c 9dbe 33be 2e89 67bd c52b 983d
00000120: 07a3 20bd b91a 8a3d e7f4 103e ec31 aebd
00000130: 36e4 9e3d 7d67 04be 60ce 0dbd 8bcf 18be
00000140: c848 babc 0a08 11bd aed2 b13d 3a4f 27be
00000150: fce7 143e c5fd 543e 6ac4 a13c e3fc 143d
00000160: 4e07 91bd 575b dabd 15ec 953d c2c1 bd3d
00000170: d921 363e a284 8f3d 0092 a63d 9c64 ac3d
00000180: 0248 b3bd a7f1 81be ce08 8b3d 740c a6bd
00000190: 74e1 ab3d ec0b 3c3e 5f1d a23b 5040 70bc
000001a0: 3137 b03c ee2c 973d 4d58 80bd 02a3 ea3d
000001b0: 642c a7bc 9723 a93d 8552 72bd 9bec 60bb
000001c0: 662f bebb e6e1 943d 4b22 f8bc 2464 a63c
000001d0: f084 23bd b179 b1bd 830d b2bd c9fc 0fbe
000001e0: 929b efbc 21b6 0bbb 1b13 9d3d 022d 08bd
000001f0: 47e1 fc3c 3373 8c3d fc7a 213d 9bf7 9fbc
00000200: 1927 36bb c1fe 90bd 074d 343d 2057 b3bc
00000210: 4188 003d 2288 a33d f910 963d 0c36 78bc
00000220: a5e4 823d ff0d a1bc c3ac ccbd 1178 92bd
00000230: 5f59 8b3d 0f37 0a3c e342 2bbd 89fc 9b3d
00000240: 02e0 afbd 0131 a4bd ae0d 66bd 5258 be3d
00000250: c975 823c 2e99 1c3c 5954 29be be89 87bd
00000260: 887f 5fbd 4416 113b 7461 aebc ec83 883d
00000270: 897f a93d 355d 9a3d eee7 42bd d4bf 89bd
00000280: 6e0f 0abe 814d e5bd 4548 90bc 190e 6e3d
00000290: 7158 a23b a84d d03d 0291 90bc bb29 0d3d
000002a0: 4dfd 463d d285 3dbd c8ab 36bd 211e c1bd
000002b0: 02af 53bd f40a b23c ceba 6eba 3bca 0c3d
000002c0: 90c5 113d 59fc f53a ff6e 93bd 852f f9bd
000002d0: a0cd a9bd 11f2 0ebe 84f3 82bd 05c2 fbbb
000002e0: 57d7 343d 584b fa3c 7386 6d3d e442 e83d
000002f0: 2b71 253e 3503 e7bd 02ad 5bbd 9955 1fbe
00000300: 4e6a dbbb 6d08 e23d 141f e03d 2641 3939
00000310: cb5d be3d 192b 93bd 832e ef3c 5d9e 863d
00000320: 0888 353d 6c27 993d 408c 05bd bbc0 72bc
00000330: 6e71 0c3b 64f9 0ebe 3a70 b63c 88ae 8cbd
00000340: 89bb bfbd 2a75 2e3d c044 9c3d 05fc b63d
00000350: d8c5 023d 434f 9f3d 8e87 313d f158 bc3d
00000360: 1ae4 0f3b 8bbd f73b abf6 d6bd 9468 10be
00000370: b4fd e2bd 04c2 bbbd b023 a1bd da1b 6b3d
00000380: 4a12 5abd a226 cbbc 53a1 9b3c f221 bebd
00000390: 9397 64bd 5b6b 333e 66e2 bc3d 7ea0 abbd
000003a0: 6cd1 ddbb 3793 e4bd d61b e63d b699 123d
000003b0: f372 1fbb 20ce 83bd 5a26 6b3d 0f67 2b3e
000003c0: 2f4a b1bd 9dec 863d ce6c bfbc d541 66bc
000003d0: be07 afbc cde1 c83d 3458 213c 3203 263e
000003e0: 5eba 703e 98f7 2c3e 5556 98bd 95a7 a43c
000003f0: ee00 8fbc 0846 053e 9847 563e afd3 87be

encoder.encoder.1.backbone.0.0.bias f4 [36]
0.0102520175 0.024118396 -0.102176785 -0.02730699 -0.053171527 -0.028099574 0.060126923 -0.010961576
-0.06446056 0.03185284 -0.075446956 -0.046551216 -0.12089401 0.049188767 0.07579538 0.028081736
0.050092056 -0.045799833 0.05619768 0.027352627 0.08460483 -0.05519682 0.040224597 -0.0003947018
0.008062826 0.0057816897 0.027886227 -0.028930118 0.05507811 0.15835153 0.08891269 0.026407134
-0.031498183 0.11943018 0.027971935 0.043713875
00000000: 14f8 273c f193 c53c 1042 d1bd e9b2 dfbc
00000010: 63ca 59bd 1431 e6bc a647 763d 2f98 33bc
00000020: e603 84bd 2078 023d ef83 9abd 7dac 3ebd
00000030: 4797 f7bd 297a 493d 9c3a 9b3d ab0b e63c
00000040: 542d 4d3d 9b98 3bbd 8a2f 663d 9e12 e03c
00000050: 4c45 ad3d 1016 62bd 8cc2 243d fbef ceb9
00000060: f119 043c 5474 bd3b a871 e43c dbfe ecbc
00000070: 9699 613d e726 223e db17 b63d c653 d83c
00000080: 3d04 01bd cf97 f43d 6625 e53c 520d 333d

encoder.encoder.1.backbone.0.1.weight f4 [36]
1.1790873 0.8479633 1.0609341 0.98848635 0.6754247 1.1158898 0.64540887 0.80041116
1.29997 0.97635484 0.7426733 0.94533753 0.877798 0.8947714 0.7921142 0.6525265
0.6287182 0.7275672 0.92045224 0.7576229 0.95154893 0.8496327 0.8369523 0.7947338
0.79982597 0.69072753 0.683189 0.85105246 1.0180733 0.93479604 0.7166985 0.9594306
0.90868986 0.7939898 0.84013414 0.9443969
00000000: 55ec 963f 1f14 593f b0cc 873f 710d 7d3f
00000010: a2e8 2c3f 7ad5 8e3f 8439 253f bfe7 4c3f
00000020: 6b65 a63f 64f2 793f d61f 3e3f a401 723f
00000030: 5fb7 603f bd0f 653f ffc7 4a3f fa0b 273f
00000040: adf3 203f d841 3a3f c2a2 6b3f 93f3 413f
00000050: b698 733f 8781 593f 8242 563f ad73 4b3f
00000060: 65c1 4c3f 85d3 303f 79e5 2e3f 93de 593f
00000070: 3a50 823f cb4e 6f3f 8e79 373f 3e9d 753f
00000080: e69f 683f ea42 4b3f 0813 573f ffc3 713f

encoder.encoder.1.backbone.0.1.bias f4 [36]
-0.07240892 -0.0044652796 -0.15429562 0.006279436 0.011748262 -0.09978876 0.032661833 -0.054870926
-0.110751785 0.010662917 -0.019684866 -0.06313972 -0.076205395 0.035223156 -0.006788363 -0.052425493
-0.057127435 -0.06779865 -0.0021222052 -0.031901028 -0.016218659 -0.036704253 -0.027517248 0.02879442
0.047693983 -0.02226761 -0.008475468 -0.030844096 -0.04189948 0.10401888 -0.014217355 0.0023658122
0.021922674 0.019146314 -0.042236883 -0.04367737
00000000: 214b 94bd 7b51 92bb acff 1dbe bac3 cd3b
00000010: c87b 403c 0d5e ccbd 6ac8 053d 56c0 60bd
00000020: d5d1 e2bd 84b3 2e3c 2842 a1bc 664f 81bd
00000030: 9311 9cbd 2846 103d eb70 debb 1dbc 56bd
00000040: 75fe 69bd 05da 8abd b214 0bbb a7aa 02bd
00000050: fedc 84bc 3357 16bd da6b e1bc 47e2 eb3c
00000060: c45a 433d 906a b6bc b0dc 0abc c2ac fcbc
00000070: ca9e 2bbd da07 d53d e9ef 68bc be0b 1b3b
00000080: 2e97 b33c bbd8 9c3c 9500 2dbd 0be7 32bd

encoder.encoder.1.backbone.0.1.running_mean f4 [36]
0.02100074 -4.5796514e-05 0.015046862 -0.049020268 -0.04852783 0.030050013 -0.049143594 0.031473994
-0.009341899 -0.03113769 -0.0059340717 0.042273868 -0.10870831 0.10664043 0.17542759 0.10253178
0.052065805 -0.023477703 0.042640522 -0.00976248 0.027989654 -0.02795339 0.23682196 -0.016478004
-0.11736618 0.0799666 0.026402306 0.014660999 -0.024946468 0.12857057 0.029082306 0.009317573
-0.022090737 -0.056886453 0.080031715 0.0854571
00000000: be09 ac3c a215 40b8 1d87 763c 7ac9 48bd
00000010: 1ec5 46bd 722b f63c cb4a 49bd e0ea 003d
00000020: c40e 19bc 7814 ffbc 9a72 c2bb 5d27 2d3d
00000030: 76a2 debd 4c66 da3d 4aa3 333e 2ffc d13d
00000040: f442 553d 5054 c0bc d4a7 2e3d cff2 1fbc
00000050: 8f4a e53c 82fe e4bc 7581 723e e1fc 86bc
00000060: ae5d f0bd 87c5 a33d a649 d83c b034 703c
00000070: 895c ccbc 01a8 033e 043e ee3c bca8 183c
00000080: a2f7 b4bc c501 69bd abe7 a33d 2204 af3d

encoder.encoder.1.backbone.0.1.running_var f4 [36]
0.5122412 0.24384591 0.41871202 0.3526036 0.25066188 0.50087345 0.19690876 0.79927284
0.24919784 0.15315136 0.3151043 0.51568925 0.31697348 0.79118323 0.16944787 0.45596844
0.37142435 0.25041792 0.34352615 0.35202107 0.30708188 0.6346812 0.5380325 0.16609424
0.32517996 0.6098722 0.24925557 0.50367826 1.0449737 0.41284162 0.20106559 0.27525207
0.6110152 0.44619113 0.1473925 0.49890813
00000000: 3d22 033f beb2 793e 6c61 d63e 7688 b43e
00000010: c156 803e 3e39 003f 73a2 493e 259d 4c3f
00000020: b82d 7f3e b6d3 1c3e 5a55 a13e 3604 043f
00000030: 594a a23e fc8a 4a3f be83 2d3e b274 e93e
00000040: 552b be3e c736 803e a9e2 af3e 1b3c b43e
00000050: d639 9d3e 787a 223f 7fbc 093f 9c14 2a3e
00000060: fd7d a63e 9620 1c3f da3c 7f3e 0ff1 003f
00000070: b3c1 853f fa5f d33e 23e4 4d3e d7ed 8c3e
00000080: 7e6b 1c3f 2a73 e43e 0fee 163e e370 ff3e

encoder.encoder.1.backbone.1.0.weight f4 [36, 36, 3]
0.12430651 0.05881178 0.070506275 -0.036026042 0.043130368 -0.06719854 -0.055915207 0.013468921
0.062016435 -0.067058995 -0.10406061 -0.08146982 -0.011456808 0.038873415 -0.14484082 -0.039992146
0.05293444 0.04954038 0.019789241 -0.038169604 -0.0145625835 0.08349296 -0.029456317 -0.012783831
0.0068712505 0.013750998 0.16079031 0.012974337 0.031256717 0.06335249 0.1040691 0.033127017
0.025424043 -0.07167006 -0.0077110007 -0.030076513 0.0076688477 0.11372652 0.018525666 0.12191499
0.05981645 -0.011837123 0.051601768 0.010095208 -0.023564076 -0.00993598 0.019986678 0.08315635
-0.14548227 -0.048977334 0.015080279 0.052644562 -0.0033512379 0.053950258 -0.014800654 -0.040749166
0.0006434901 0.081038006 0.078810245 -0.024224484 0.019251259 0.14078291 -0.11235038 -0.013616462
-0.0069126566 -0.12799677 0.08707754 0.06236158 -0.0048166267 0.08270825 -0.039117478 0.046214532
0.022848284 -0.0667513 0.030242382 0.027169395 -0.12462005 0.010759562 0.08312594 0.04459277
0.047114864 0.05111428 -0.15943009 0.09333075 0.10909303 0.020105295 -0.044312794 0.016758954
-0.015542612 -0.12157892 -0.021318488 -0.052769084 0.0017633599 -0.025162296 0.018111847 -0.05565254
0.032823276 -0.15864635 -0.008806399 0.0871155 0.17353778 -0.05638616 -0.055580784 0.04652196
0.006796588 -0.037858278 0.09486518 0.007385665 0.007530349 0.005582043 0.104624785 0.08066168
-0.01592908 0.12622683 -0.048967246 0.05092182 0.080592446 0.02090188 -0.04659909 -0.0043310043
-0.06149587 0.053916525 -0.01967947 0.06036202 0.0752569 0.11261283 0.032661486 0.014459526
0.16612226 0.004965177 -0.034912735 -0.042045135 -0.060128458 -0.1118766 -0.035288494 0.02887877
0.052721396 -0.05297818 0.0269266 -0.12564123 0.02202289 -0.058712702 -0.04517654 0.071157716
0.12184843 -0.036376763 -0.007526209 -0.11876169 -0.028096355 0.07812857 0.0002562183 -0.095081575
-0.083118424 0.09017317 -0.106745884 -0.06529995 0.13237312 0.013793798 -9.003287e-05 -0.06579642
0.04920524 0.1360332 -0.12129429 -0.16534296 0.15904582 0.025459751 -0.046493396 -0.0014660218
0.05964938 0.12455921 -0.1332425 -0.011191371 -0.07081305 -0.08765643 -0.055983122 -0.030980412
0.040457495 -0.11232205 -0.006590271 -0.012976536 -0.05508858 -0.055224027 -0.053833693 -0.03708001
-0.1806594 -0.10854033 0.05626249 -0.0689798 -0.07152176 -0.07593685 0.07751717 -0.045435786
-0.024349783 -0.022561476 -0.00448725 0.06139895 -0.11002781 -0.09926211 0.103834115 -0.078238875
-0.10519597 -0.06403381 0.06993368 -0.04599355 -0.04504109 -0.04498381 -0.110716864 -0.065473825
0.036691066 -0.10589923 -0.048177473 -0.072930604 -0.10234391 0.15913199 -0.03152073 0.08227895
0.088105865 0.11422535 0.0024792354 -0.07307448 0.008387026 0.09276419 0.016023789 0.18012679
0.07824619 0.010192666 0.00678797 0.06742634 -0.12602763 0.024369318 0.022704039 0.13905272
0.046329845 0.14455087 -0.028369524 0.0032406012 -0.046933584 0.059085455 -0.0049309605 -0.073439494
0.054336164 -0.041325048 0.0795987 0.11027699 0.0880123 0.06830224 0.12207216 -0.010901795
0.010932458 -0.013879445 0.025866872 0.00834177 0.080346435 0.03405492 0.07405434 0.052722655
00000000: 6994 fe3d 9fe4 703d 9865 903d 0b90 13bd
00000010: 78a9 303d 639f 89bd 5807 65bd c0ac 5c3c
00000020: f204 7e3d 3a56 89bd bb1d d5bd a6d9 a6bd
00000030: 56b5 3bbc bb39 1f3d 2751 14be cece 23bd
00000040: c9d1 583d daea 4a3d 0c1d a23c bb57 1cbd
00000050: e797 6ebc 5bfe aa3d 604e f1bc 4673 51bc
00000060: 3a28 e13b de4b 613c 37a6 243e 5092 543c
00000070: 0b07 003d f3be 813d 2e22 d53d 32b0 073d
00000080: 1546 d03c c1c7 92bd 90ac fcbb 0563 f6bc
00000090: f54a fb3b 73e9 e83d 23c3 973c 91ae f93d
000000a0: 1802 753d 7ef0 41bc 605c 533d 5f66 253c
000000b0: 7309 c1bc 85ca 22bc 1abb a33c e04d aa3d
000000c0: 4ef9 14be 759c 48bd 4613 773c d3a1 573d
000000d0: 71a0 5bbb f2fa 5c3d 717e 72bc 99e8 26bd
000000e0: e4af 283a 41f7 a53d 4467 a13d 6d72 c6bc
000000f0: d1b4 9d3c 6529 103e f517 e6bd 9517 5fbc
00000100: 9183 e2bb 9611 03be b655 b23d db6e 7f3d
00000110: cbd4 9dbb f162 a93d a639 20bd 734b 3d3d
00000120: 532c bb3c e8b4 88bd dfbe f73c 5a92 de3c
00000130: cc38 ffbd e048 303c ef3d aa3d e9a6 363d
00000140: 84fb 403d 355d 513d a441 23be 3124 bf3d
00000150: 2b6c df3d dcb3 a43c 5581 35bd 134a 893c
00000160: 71a6 7ebc 5efe f8bd 1ca4 aebc 6524 58bd
00000170: 8a20 e73a 2921 cebc 4c5f 943c ebf3 63bd
00000180: b371 063d 3074 22be b748 10bc 9c69 b23d
00000190: e3b3 313e 2df5 66bd ada8 63bd d08d 3e3d
000001a0: eab5 de3b 4811 1bbd ad48 c23d 7303 f23b
000001b0: 25c1 f63b 92e9 b63b 8545 d63d f331 a53d
000001c0: b47d 82bc 9b41 013e e191 48bd 6693 503d
000001d0: a70d a53d 6b3a ab3c b0de 3ebd 19eb 8dbb
000001e0: 18e3 7bbd 93d7 5c3d d736 a1bc 2a3e 773d
000001f0: 4a20 9a3d 8ea1 e63d 0dc8 053d a6e7 6c3c
00000200: f41b 2a3e ecb2 a23b a800 0fbd 8537 2cbd
00000210: 4249 76bd 8f1f e5bd ab8a 10bd 2c93 ec3c
00000220: 64f2 573d a6ff 58bd 2c95 dc3c 18a8 00be
00000230: 5969 b43c bb7c 70bd 090b 39bd 23bb 913d
00000240: ab8b f93d cdff 14bd 6b9e f6bb 5439 f3bd
00000250: 542a e6bc df01 a03d 0a55 8639 21ba c2bd
00000260: fe39 aabd b6ac b83d 969d dabd fbbb 85bd
00000270: d28c 073e 62ff 613c 07d0 bcb8 46c0 86bd
00000280: 6f8b 493d 4a4c 0b3e 2469 f8bd aa4f 29be
00000290: e8dc 223e f890 d03c dc6f 3ebd 8727 c0ba
000002a0: e952 743d e618 ff3d b970 08be 035c 37bc
000002b0: 6f06 91bd 3785 b3bd 8f4e 65bd a2ca fdbc
000002c0: c2b6 253d 1a09 e6bd 33f3 d7bb 899b 54bc
000002d0: 90a4 61bd 9732 62bd b880 5cbd 35e1 17bd
000002e0: c7fe 38be 644a debd 7f73 663d 4845 8dbd
000002f0: 007a 92bd c784 9bbd 52c1 9e3d e01a 3abd
00000300: 3279 c7bc d8d2 b8bc c809 93bb 777d 7b3d
00000310: 4356 e1bd ef49 cbbd fba6 d43d b43b a0bd
00000320: fc70 d7bd 2824 83bd 6439 8f3d bc63 3cbd
00000330: 027d 38bd f240 38bd 86bf e2bd 2417 86bd
00000340: 5f49 163d b2e1 d8bd be55 45bd a45c 95bd
00000350: af99 d1bd 7ff3 223e e21b 01bd de81 a83d
00000360: d970 b43d fbee e93d ab7a 223b 13a8 95bd
00000370: bd69 093c 27fb bd3d 5244 833c 2873 383e
00000380: 8a3f a03d 24ff 263c 9f6d de3b d216 8a3d
00000390: 630d 01be 2aa2 c73c d2fd b93c d663 0e3e
000003a0: 5dc4 3d3d 2505 143e 3467 e8bc 4460 543b
000003b0: 6e3d 40bd 9703 723d e593 a1bb 7267 96bd
000003c0: 998f 5e3d 7444 29bd a504 a33d e7d8 e13d
000003d0: cb3f b43d 0be2 8b3d f800 fa3d 719d 32bc
000003e0: 0d1e 333c 9d66 63bc c3e6 d33c ebab 083c
000003f0: ac8c a43d 2c7d 0b3d cda9 973d b6f3 573d

encoder.encoder.1.backbone.1.0.bias f4 [36]
-0.10528766 0.017260525 0.019775596 -0.12057083 -0.08364025 -0.12738785 0.029301977 -0.07223994
-0.15148741 0.047809087 -0.07778029 0.04538239 -0.056075025 -0.040611252 0.011335002 -0.043968894
0.023259655 -0.030459628 0.07902524 -0.051574957 0.03372375 -0.15925504 -0.06463041 0.03614203
-0.005547012 -0.108986944 -0.0723681 -0.05447589 0.06168297 0.0035182713 0.08099442 -0.026935872
-0.111089766 -0.22289743 -0.07283473 0.021239376
00000000: 0fa1 d7bd f265 8d3c 6e00 a23c d7ed f6bd
00000010: 944b abbd f671 02be b30a f03c 89f2 93bd
00000020: 841f 1bbe 76d3 433d 464b 9fbd e3e2 393d
00000030: edae 65bd fc57 26bd 72b6 393c ba18 34bd
00000040: 088b be3c 7886 f9bc fcd7 a13d 4340 53bd
00000050: ea21 0a3d c113 23be f35c 84bd aa09 143d
00000060: b6c3 b5bb 8c34 dfbd ba35 94bd 1c22 5fbd
00000070: 48a7 7c3d cc92 663b 67e0 a53d 9ea8 dcbc
00000080: 0883 e3bd 393f 64be 602a 95bd 33fe ad3c

encoder.encoder.1.backbone.1.1.weight f4 [36]
0.83648765 1.1248285 1.0388154 1.0173514 0.61022174 1.0252366 0.9602608 0.9448068
0.7471407 0.9131587 1.0564803 1.0272857 0.8546095 0.9278361 0.98318905 0.7396019
0.933536 0.9050223 0.71272737 0.98456085 0.7872048 1.0325215 0.8713359 1.0059259
0.9283434 0.9775687 0.7832665 0.7893544 1.0068308 1.1958172 0.7137295 0.6920893
0.815278 1.1642144 0.9855077 0.95173573
00000000: 0e24 563f 61fa 8f3f e7f7 843f 9238 823f
00000010: 7e37 1c3f f43a 833f a7d3 753f dcde 713f
00000020: 9d44 3f3f c5c4 693f bf3a 873f 197e 833f
00000030: b0c7 5a3f ab86 6d3f 47b2 7b3f 8d56 3d3f
00000040: 37fc 6e3f 8baf 673f 4d75 363f 2e0c 7c3f
00000050: 4186 493f aa29 843f df0f 5f3f 2ec2 803f
00000060: eaa7 6d3f f141 7a3f 2784 483f 2113 4a3f
00000070: d5df 803f 8a10 993f fab6 363f c42c 313f
00000080: 0fb6 503f fa04 953f 3c4a 7c3f f4a4 733f

encoder.encoder.1.backbone.1.1.bias f4 [36]
-0.08701445 0.016907033 -0.08292942 -0.06854777 -0.05284403 -0.12316824 -0.0026089456 -0.07847831
-0.07975445 -0.03530029 -0.0055391467 -0.032781787 -0.061721474 -0.04875405 -0.07797115 -0.028303659
-0.018781459 -0.11009411 -0.023712156 -0.032437645 -0.038905405 -0.08853622 -0.055592746 -0.026287654
-0.018904964 -0.11959192 -0.007332238 -0.03794661 0.03343103 -0.09468427 0.032533698 0.0062552695
-0.18504469 -0.15385105 -0.050219584 -0.04144314
00000000: a234 b2bd 9e80 8a3c e6d6 a9bd c662 8cbd
00000010: fb72 58bd a13f fcbd d8fa 2abb 3cb9 a0bd
00000020: 4d56 a3bd 0997 10bd bb81 b5bb 3246 06bd
00000030: a8cf 7cbd 54b2 47bd 57af 9fbd 13dd e7bc
00000040: 93db 99bc 0579 e1bd ff3f c2bc 56dd 04bd
00000050: 465b 1fbd 7a52 b5bd 38b5 63bd 3559 d7bc
00000060: 95de 9abc 9cec f4bd 4543 f0bb e86d 1bbd
00000070: faee 083d d4e9 c1bd 0e42 053d 01f9 cc3b
00000080: 5b7c 3dbe 218b 1dbe 0db3 4dbd 48c0 29bd

encoder.encoder.1.backbone.1.1.running_mean f4 [36]
0.008188512 -0.10688851 0.122106686 -0.08066531 -0.0745283 0.010821841 0.012339206 -0.09578496
-0.10601685 0.090050265 -0.041383952 0.07110204 -0.020481618 -0.04944818 0.07777305 0.032108366
-0.05645038 0.0665859 0.11735016 0.020461537 0.10148196 -0.16830915 -0.028365072 0.06016525
0.041095916 0.04255671 -0.00677913 -0.011051607 -0.008319778 0.12610713 -0.014225115 0.029321305
0.048130248 -0.08216533 -0.063620456 0.086911365
00000000: 1c29 063c 5de8 dabd 1213 fa3d db33 a5bd
00000010: 4ba2 98bd 174e 313c 622a 4a3c e82a c4bd
00000020: 5d1f d9bd 466c b83d 3882 29bd f29d 913d
00000030: 11c9 a7bc 2d8a 4abd 7a47 9f3d 1084 033d
00000040: 8338 67bd 305e 883d 4855 f03d f49e a73c
00000050: c6d5 cf3d 3c59 2cbe de5d e8bc d66f 763d
00000060: 3154 283d f24f 2e3d 7723 debb cd11 35bc
00000070: ae4f 08bc 3a22 013e 7510 69bc 3c33 f03c
00000080: 3924 453d 4c46 a8bd 714b 82bd 96fe b13d

encoder.encoder.1.backbone.1.1.running_var f4 [36]
0.25342292 0.1110687 0.44851083 0.47443908 0.21832426 0.30735806 0.43893722 0.35840437
0.32178798 0.52945536 1.2852237 0.49559268 0.078696504 0.4642604 0.711308 0.23026305
0.55518156 0.46445465 0.64175975 0.50104415 0.59091675 0.5809913 0.34526792 1.3170099
0.2583706 0.62497777 0.23987657 0.35223803 0.4517143 0.20665672 0.07281229 0.39061978
0.4109754 0.6086169 0.5457342 0.55110127
00000000: a6c0 813e fd77 e33d 36a3 e53e aee9 f23e
00000010: 6590 5f3e 095e 9d3e 61bc e03e c780 b73e
00000020: 65c1 a43e 638a 073f 3682 a43f 53be fd3e
00000030: a22b a13d 8ab3 ed3e 4818 363f 14ca 6b3e
00000040: 6120 0e3f 00cd ed3e 5e4a 243f 6e44 003f
00000050: 5246 173f d9bb 143f f5c6 b03e c893 a83f
00000060: 2749 843e 8bfe 1f3f 34a2 753e 8b58 b43e
00000070: 1947 e73e d29d 533e 9c1e 953d 51ff c73e
00000080: 5e6b d23e 51ce 1b3f 3db5 0b3f f914 0d3f

encoder.encoder.1.downsampling.weight f4 [36, 36, 7]
-0.013957287 -0.06575916 -0.12801349 0.06880677 0.10949412 0.06673962 0.036550228 0.034439925
0.04258169 0.042931814 0.02139726 0.023161363 0.039692774 0.00045251392 -0.0110369865 -0.023671068
-0.030949293 -0.04689065 -0.052737664 -0.018968636 0.047322117 -0.078820616 0.00101896 -0.020416755
-0.02337288 0.07967106 0.089160115 0.008412324 0.10547152 0.051582526 0.124943025 0.06864526
-0.06787192 0.06862352 0.030084852 0.015641598 0.055150006 0.035252117 0.0018947101 0.027330939
0.021418054 0.040020324 0.066205874 -0.07432347 -0.089901045 -0.06424112 -0.15039249 0.12172335
0.084788635 0.029413715 0.021886574 0.08520745 0.017458016 0.016831115 -0.0320584 -0.016111644
-0.10628976 0.08752277 -0.0015559427 -0.11298486 0.09298677 -0.014010162 -0.047674637 -0.013750669
0.00954977 0.024225436 0.01572308 -0.054286875 -0.023283428 -0.047888834 0.06703536 -0.09329531
0.12267334 -0.12535693 0.0004144358 -0.12458284 0.06722877 0.01283123 -0.023803106 0.07207126
0.058254953 0.0013217484 -0.029979711 -0.018444506 -0.066212125 -0.04740806 -0.019458063 -0.023010079
-0.010415549 -0.010593057 -0.030707331 0.07344036 0.03206555 0.10525958 0.094771914 0.0036399718
-0.024814688 -0.022608604 -0.0006591482 -0.04135641 -0.10350312 0.047079038 0.00974972 -0.067467295
-0.08584422 -0.029581122 -0.011355622 -0.07252816 0.015806304 0.05277335 -0.004881099 0.049978852
0.026645109 -0.0075454116 -0.021632051 -0.0034910284 -0.015300497 -0.015708623 0.0034353712 -0.02547602
-0.0025121525 -0.025179274 -0.04683272 -0.050806943 -0.09732942 -0.09857233 0.006240192 0.0075685536
-0.0059615946 0.04447636 -0.1612022 -0.06377282 0.033697747 0.064220816 -0.07508608 -0.033666387
0.025023479 -0.03995896 -0.034868963 0.019458676 -0.070811234 0.084781475 0.065216675 -0.0129218465
0.020778662 0.10417048 -0.058434907 -0.005604253 -0.02251689 0.0019098134 0.021197692 -0.0005594343
-0.0050603678 0.031126786 -0.011427441 -0.016187347 0.01948909 -0.0049160244 0.018074777 0.011304262
-0.01033565 0.027955947 0.05366164 -0.010626705 0.02627967 0.009894862 -0.029366221 -0.0045912703
0.043227725 -0.028712088 0.10653278 -0.018167865 -0.21256882 0.098079614 -0.04569295 0.04325696
0.010400768 -0.0055170385 -0.03730062 -0.041277573 0.0008384235 -0.0141136795 -0.09522222 0.016082877
-0.05286415 -0.02042104 0.009221164 -0.02133743 -0.004673351 -0.006291685 0.08901885 0.0380524
0.10867078 0.012784786 0.047987446 -0.026169868 -0.081174344 0.015314529 0.025768898 -0.059624128
-0.04910551 0.016319685 0.046021033 -0.0031103042 0.041811086 -0.018063856 -0.028668016 0.010696722
0.051620137 0.046573304 -0.0009165029 0.04316104 -0.1538136 -0.035768725 0.13280673 -0.043999255
-0.01040035 0.013736879 -0.042836465 0.0416563 0.11228057 0.041022677 -0.13634138 -0.052182432
-0.064562194 0.06360993 -0.03353633 -0.11793413 0.022727499 0.1522611 0.108471684 0.08089726
-0.08718953 0.044582203 -0.02203715 0.10174813 -0.06395074 0.03977647 -0.07361507 -0.0051267226
-0.028471705 -0.012115336 0.0014178159 0.09603738 0.02762509 -0.0133238 0.0047639357 0.032517076
0.0030730737 -0.002506534 0.012939513 -0.06800428 -0.039783787 0.05030007 0.05570596 -0.1179414
00000000: 1bad 64bc bdac 86bd f815 03be 90ea 8c3d
00000010: 743e e03d c8ae 883d b1b5 153d e110 0d3d
00000020: 236a 2e3d 45d9 2f3d 4e49 af3c e6bc bd3c
00000030: e494 223d 643f ed39 7ad4 34bc d4e9 c1bc
00000040: 5f89 fdbc 6910 40bd 7303 58bd 1d64 9bbc
00000050: d6d4 413d b46c a1bd a08e 853a 0a41 a7bc
00000060: 7b78 bfbc 952a a33d 9499 b63d d8d3 093c
00000070: 7401 d83d 3348 533d 21e2 ff3d e395 8c3d
00000080: 6f00 8bbd 7d8a 8c3d 8274 f63c cf22 803c
00000090: f9e4 613d 8664 103d ec57 f83a 22e5 df3c
000000a0: ea74 af3c 5aec 233d f296 873d e736 98bd
000000b0: 0a1e b8bd d990 83bd 7d00 1abe 174a f93d
000000c0: aaa5 ad3d 08f5 f03c 794b b33c 3e81 ae3d
000000d0: 1d04 8f3c 68e1 893c ab4f 03bd 91fc 83bc
000000e0: 72ae d9bd 233f b33d c6f0 cbba 9b64 e7bd
000000f0: d96f be3d e18a 65bc 7b46 43bd 7c4a 61bc
00000100: a376 1c3c 6c74 c63c b0cd 803c ea5b 5ebd
00000110: e3bc bebc 1527 44bd d649 893d 9d11 bfbd
00000120: 293c fb3d 915d 00be a248 d939 4a25 ffbd
00000130: 3daf 893d 143a 523c bbfe c2bc 199a 933d
00000140: bf9c 6e3d 843e ad3a 0398 f5bc ef18 97bc
00000150: 399a 87bd f42e 42bd 8466 9fbc a27f bcbc
00000160: fba5 2abc 808e 2dbc f18d fbbc e667 963d
00000170: 2b57 033d 5692 d73d c717 c23d 988c 6e3b
00000180: 2c48 cbbc ae35 b9bc b0ca 2cba 5765 29bd
00000190: 72f9 d3bd f3d5 403d 4abd 1f3c 4b2c 8abd
000001a0: 18cf afbd 1c54 f2bc ee0c 3abc a589 94bd
000001b0: 397c 813c de28 583d a0f1 9fbb a0b6 4c3d
000001c0: d846 da3c 803f f7bb b335 b1bc bdc9 64bb
000001d0: f0ae 7abc 5faf 80bc f723 613b 16b3 d0bc
000001e0: eda2 24bb c444 cebc abd3 3fbd f11a 50bd
000001f0: a654 c7bd 4ae0 c9bd 867a cc3b a101 f83b
00000200: 7b59 c3bb d82c 363d 3112 25be 539b 82bd
00000210: a606 0a3d 3486 833d bbc6 99bd c4e5 09bd
00000220: 0afe cc3c 02ac 23bd c2d2 0ebd cd67 9f3c
00000230: 7b05 91bd e9a1 ad3d 5290 853d 27b6 53bc
00000240: 0338 aa3c 5557 d53d 7159 6fbd e2a3 b7bb
00000250: 5775 b8bc b452 fa3a c8a6 ad3c 00a7 12ba
00000260: 71d1 a5bb 9afd fe3c 293a 3bbc 549b 84bc
00000270: 96a7 9f3c 9a16 a1bb 8e11 943c 8335 393c
00000280: dc56 29bc df03 e53c 4fcc 5b3d a21b 2ebc
00000290: 7648 d73c 0f1e 223c 6e91 f0bc 5e72 96bb
000002a0: 8e0f 313d 9d35 ebbc dc2d da3d c6d4 94bc
000002b0: a4ab 59be f7dd c83d 8828 3bbd 362e 313d
000002c0: fc67 2a3c 46c8 b4bb 89c8 18bd ac12 29bd
000002d0: a6c9 5b3a 103d 67bc de03 c3bd 3dc0 833c
000002e0: 1488 58bd 064a a7bc 5d14 173c d6cb aebc
000002f0: e922 99bb 7b2a cebb 844f b63d d5dc 1b3d
00000300: c98e de3d 4777 513c 7c8e 443d 3162 d6bc
00000310: bc3e a6bd cae9 7a3c 4c19 d33c 6e38 74bd
00000320: dc22 49bd dcb0 853c 8d80 3c3d 3fd6 4bbb
00000330: 1a42 2b3d a7fa 93bc 30d9 eabc 4e41 2f3c
00000340: a36f 533d a6c3 3e3d 7841 70ba a1c9 303d
00000350: 5081 1dbe 3a82 12bd 7dfe 073e 9038 34bd
00000360: 3b66 2abc a610 613c 4a75 2fbd cc9f 2a3d
00000370: 5bf3 e53d 6507 283d 139d 0bbe 3fbd 55bd
00000380: 2f39 84bd ec45 823d 645d 09bd 7387 f1bd
00000390: 052f ba3c 55ea 1b3e 6726 de3d 76ad a53d
000003a0: 6d90 b2bd d49b 363d 4187 b4bc 5361 d03d
000003b0: 9bf8 82bd a7ec 223d 7fc3 96bd 11fe a7bb
000003c0: 7e3d e9bc 677f 46bc 02d6 b93a 3faf c43d
000003d0: 034e e23c 114c 5abc ca1a 9c3b a030 053d
000003e0: 9f65 493b aa44 24bb 4000 543c d445 8bbd
000003f0: 53f4 22bd 7207 4e3d ef2b 643d 438b f1bd

encoder.encoder.1.downsampling.bias f4 [36]
-0.071688965 0.016480278 -0.008731838 0.060558893 -0.0659631 -0.021060666 -0.07363545 -0.059522107
-0.02172858 0.06800798 -0.0024308371 0.027459333 0.057784125 0.0060236584 0.094465494 -0.00345482
-0.003930186 -0.055753857 -0.003880048 0.020964187 0.063243404 -0.058608364 0.05956839 -0.06165989
0.016162114 0.0031542704 -0.045137487 0.055772755 0.0077831834 -0.06252327 0.0036283415 -0.02925746
0.11527463 -0.04955053 -0.023196546 0.04566247
00000000: aad1 92bd a601 873c fc0f 0fbc 9a0c 783d
00000010: a917 87bd 6b87 acbc 2fce 96bd 74cd 73bd
00000020: 2300 b2bc c547 8b3d ae4e 1fbb 65f2 e03c
00000030: 0caf 6c3d 1c62 c53b 2077 c13d 436a 62bb
00000040: cac8 80bb 285e 64bd 6748 7ebb 16bd ab3c
00000050: c285 813d 530f 70bd fcfd 733d 158f 7cbd
00000060: 6966 843c e0b7 4e3b 16e2 38bd f971 643d
00000070: 130a ff3b 330c 80bd 78c9 6d3b 57ad efbc
00000080: 1b15 ec3d 7ff5 4abd af06 bebc 9208 3b3d

encoder.encoder.2.0.weight f4 [36, 36, 7]
-0.004487848 0.06338582 0.02198054 -0.010361438 -0.05971761 -0.063609615 -0.006455675 -0.03353686
0.020050233 0.027173216 0.0381282 0.048423298 0.00042936218 0.009572804 0.022074249 0.018665545
0.01841758 -0.019817352 -0.016890673 -0.032047976 -1.0631144e-05 -0.0059499177 0.0077953585 0.043420758
-0.08501284 -0.06374675 -0.00034629047 0.021170443 -0.003913236 -0.016888607 -0.02075914 -0.021320784
0.057916183 -0.0038998441 0.046368707 -0.059190035 -0.05365327 -0.06515919 0.051736582 0.0029696252
0.027058499 0.06676981 -0.005562222 0.026617475 -0.004632469 0.065811925 -0.12622629 0.037341706
-0.038464665 -0.022736352 -0.0032773444 0.060043532 0.03623289 0.04200685 0.00973247 0.030340089
0.019701215 0.0034843571 0.020544011 0.016755367 -0.022709511 0.028492203 0.02245721 -0.01077751
-0.017987724 -0.000925185 0.053611007 0.0057712276 0.018083302 0.012588774 -0.033133972 -0.0124189835
-0.020364778 0.018744973 0.022446495 -0.013600438 0.031025581 0.02274825 0.041744564 0.044727996
0.044597704 0.020046566 0.073799714 -0.009714856 -0.0026885618 -0.049587842 -0.00029692615 0.018647956
0.032402758 0.0077837827 -0.016011115 0.002869875 0.006049544 0.010571623 -0.02785573 0.0068564983
-0.027322736 -0.0089579 -0.0036969485 -0.010197104 -0.07402657 0.088328846 0.049833246 0.025012305
0.016329853 -0.007263914 -0.015542238 -0.029840156 -0.031017663 0.043028627 0.014215434 0.015107068
-0.03331077 -0.024695667 -0.005557975 -0.007909609 0.016274782 0.0044083064 0.004409349 0.012646522
0.052839577 0.004836137 0.009436426 -0.023369124 -0.002370571 0.0091266 0.004872669 0.0055265515
-0.0024164366 -0.011133912 -0.004676063 0.046210147 -0.021459814 -0.0004960987 0.03628477 0.022958005
-0.004261634 -0.012049036 0.019900488 -0.008722621 -0.0024015633 0.04382272 -0.00858888 0.11385335
0.032557603 0.021818474 -0.006419915 -0.006963999 -0.0017268435 0.05417821 -0.004548589 -0.022506006
0.005019999 0.0060449825 0.01329798 -0.005144688 0.04796608 -0.037222173 0.019306492 0.012844893
0.01959232 -0.013948337 0.033341363 -0.016228775 -0.012341509 -0.036318626 0.027015768 0.028334541
0.020526351 0.017205538 -0.018653791 -0.0022586756 0.053806547 0.05963379 0.053288277 0.00043554348
0.038042363 -0.052633673 -0.058026962 -0.03495343 -0.0013113903 -0.0012144587 0.0016746033 0.0121995825
-0.054360867 -0.028433869 -0.03321867 0.002596922 0.0019913719 -0.022600163 0.04802845 -0.03931797
-0.03594886 0.035840273 -0.00866305 0.024294887 -0.009762421 -0.030545052 0.03602898 -0.095045626
-0.07745748 -0.009495163 0.010454346 -0.0132001685 -0.039327208 -0.016407425 -0.00067380106 -0.017084116
0.052711885 0.012904856 0.014325253 0.004154277 -0.07694395 0.043059878 -0.0046456396 0.058019172
0.019408874 -0.030494327 -0.015487936 0.0035647093 0.093675844 -0.07366066 0.051526092 -0.0029067434
0.0062181735 -0.005636286 -0.042279087 -0.15497136 0.11503783 -0.02911787 0.03900454 0.0009209803
-0.0026650606 -0.0671405 -0.023639038 0.037194602 -0.0043892614 0.0037667495 0.03188263 -0.0072226236
-0.0017321659 0.05365759 0.013084902 0.013044966 0.030597486 -0.01036728 -0.04460335 0.035890605
0.021600936 -0.06092615 0.010743851 0.039415676 -0.04009191 0.023184137 0.026333615 0.045710914
00000000: cc0e 93bb 6dd0 813d 8910 b43c 05c3 29bc
00000010: 749a 74bd c245 82bd 208a d3bb f25d 09bd
00000020: 6340 a43c 5d9a de3c 512c 1c3d 8257 463d
00000030: 041c e139 40d7 1c3c 0ed5 b43c 7ce8 983c
00000040: 77e0 963c 0058 a2bc 4f5e 8abc bd44 03bd
00000050: 6a5c 32b7 87f7 c2bb 3570 ff3b f7d9 313d
00000060: 361b aebd a88d 82bd 528e b5b9 a36d ad3c
00000070: 9a3a 80bb fa59 8abc 120f aabc eda8 aebc
00000080: 8539 6d3d 8794 7fbb 1ded 3d3d 4071 72bd
00000090: 88c3 5bbd 2e72 85bd bde9 533d 0b9e 423b
000000a0: c9a9 dd3c 9cbe 883d 4d43 b6bb e40c da3c
000000b0: f7cb 97bb 67c8 863d 7741 01be 9ef3 183d
000000c0: 208d 1dbd 9641 babc b7c8 56bb 35f0 753d
000000d0: f068 143d 600f 2c3d f074 1f3c c78b f83c
000000e0: 7164 a13c d059 643b ea4b a83c 8d42 893c
000000f0: 4c09 babc 7b68 e93c 2ff8 b73c 2794 30bc
00000100: fe5a 93bc 1d88 72ba 3797 5b3d 911c bd3b
00000110: 6f23 943c 2541 4e3c 7db7 07bd fe78 4bbc
00000120: 09d4 a6bc 0f8f 993c b6e1 b73c 5fd4 5ebc
00000130: 5c29 fe3c 8a5a ba3c 59fc 2a3d b434 373d
00000140: 15ac 363d b238 a43c 4e24 973d 0f2b 1fbc
00000150: 9532 30bb 9f1c 4bbd c1ac 9bb9 99c3 983c
00000160: c1b8 043d 1a0f ff3b be29 83bc 8314 3c3b
00000170: 413b c63b 9a34 2d3c b331 e4bc 7aac e03b
00000180: eed3 dfbc 28c4 12bc 8148 72bb c111 27bc
00000190: 3e9b 97bd c1e5 b43d f21d 4c3d 9be6 cc3c
000001a0: 2fc6 853c 2106 eebb dfa4 7ebc 5873 f4bc
000001b0: c118 febc c93e 303d dae7 683c a383 773c
000001c0: e070 08bd 914e cabc ac1f b6bb 4e97 01bc
000001d0: b152 853c 8e73 903b 4d7c 903b 5c33 4f3c
000001e0: 506e 583d 7578 9e3b 3d9b 1a3c 9b70 bfbc
000001f0: 955b 1bbb bc87 153c e9aa 9f3b 1318 b53b
00000200: 145d 1ebb 036b 36bc a939 99bb da46 3d3d
00000210: 7ecc afbc 9f0c 02ba 579f 143d 6d12 bc3c
00000220: 2da5 8bbb 5269 45bc 5906 a33c 53e9 0ebc
00000230: 8c63 1dbb 747f 333d 60b8 0cbc f22b e93d
00000240: 1f5b 053d a8bc b23c 265e d2bb 4232 e4bb
00000250: 4157 e2ba f9e9 5d3d 540c 95bb 845e b8bc
00000260: ce7e a43b fd14 c63b c5df 593c c594 a8bb
00000270: 1578 443d 4776 18bd a628 9e3c 6373 523c
00000280: 1380 a03c 9187 64bc f490 083d 35f2 84bc
00000290: 0a34 4abc d7c2 14bd 2c50 dd3c d71d e83c
000002a0: e126 a83c a1f2 8c3c d6cf 98bc 4a06 14bb
000002b0: 4164 5c3d 9042 743d cf44 5a3d a859 e439
000002c0: 4fd2 1b3d 6896 57bd aead 6dbd 542b 0fbd
000002d0: f5e2 abba 792e 9fba 5d7e db3a c2e0 473c
000002e0: 80a9 5ebd 25ee e8bc 4d10 08bd 1f31 2a3b
000002f0: ad81 023b fa23 b9bc 7bb9 443d e10b 21bd
00000300: 1d3f 13bd 40cd 123d 77ef 0dbc 1206 c73c
00000310: 90f2 1fbc 9e39 fabc 2093 133d 48a7 c2bd
00000320: 07a2 9ebd 9a91 1bbc b548 2b3c 8545 58bc
00000330: 9115 21bd dd68 86bc 06a2 30ba fdf3 8bbc
00000340: 6be8 573d e46e 533c 77b4 6a3c 9a20 883b
00000350: ca94 9dbd 8e5f 303d 733a 98bb 83a5 6d3d
00000360: 5cff 9e3c 3dcf f9bc 1dc1 7dbc e69d 693b
00000370: 1fd9 bf3d 66db 96bd 060d 533d 107f 3ebb
00000380: d2c1 cb3b 98b0 b8bb d62c 2dbd d0b0 1ebe
00000390: f498 eb3d 9988 eebc 39c3 1f3d f16d 713a
000003a0: 4ca8 2ebb f580 89bd a8a6 c1bc 5e59 183d
000003b0: cbd3 8fbb 92db 763b 5c97 023d c2ab ecbb
000003c0: d809 e3ba 10c8 5b3d 0f62 563c 8eba 553c
000003d0: 94a7 fa3c 86db 29bc 01b2 36bd 0702 133d
000003e0: 72f4 b03c b38d 79bd fa06 303c 5572 213d
000003f0: 6a37 24bd a9ec bd3c 98b9 d73c 5e3b 3b3d

encoder.encoder.2.0.bias f4 [36]
-0.04108646 0.076413736 0.08213637 0.034254435 0.0012892288 -0.024419926 -0.07936552 0.01995677
0.052422676 0.06349683 0.06575737 -0.09798445 -0.0013820726 0.049273554 0.02169044 -0.049352843
-0.0024055312 0.082011156 0.07567616 0.08079048 -0.06198315 0.04175023 -0.0262165 -0.008970421
-0.058184147 0.06340391 -0.039195675 -0.010581096 -0.11834136 0.055733148 -0.0329234 0.05011955
-0.087111935 0.04833808 0.097911656 0.01861027
00000000: 474a 28bd ce7e 9c3d 1d37 a83d 614e 0c3d
00000010: 57fb a83a 4c0c c8bc 648a a2bd 617c a33c
00000020: 29b9 563d a00a 823d cdab 863d 12ac c8bd
00000030: a926 b5ba 11d3 493d 26b0 b13c 3526 4abd
00000040: 1ea6 1dbb 77f5 a73d 1afc 9a3d 7b75 a53d
00000050: 0be2 7dbd 4a02 2b3d fcc3 d6bc acf8 12bc
00000060: 8052 6ebd e9d9 813d a58b 20bd 555c 2dbc
00000070: f45c f2bd 7148 643d b0da 06bd 284a 4d3d
00000080: be67 b2bd 27fe 453d e885 c83d 9174 983c

encoder.encoder.2.1.weight f4 [36]
0.8290273 0.5340382 0.90938276 0.5640736 0.5769805 0.56769073 0.4272688 0.43685472
0.49246067 0.62931645 0.78212833 0.50978005 0.6893766 0.40786102 0.522201 0.7155137
0.52345216 0.6580743 0.44284877 0.8634796 0.6540876 0.6839833 0.55979383 0.49439335
0.4315382 0.5557358 0.58799446 0.68533325 0.9038428 0.51315093 0.8022799 0.83012956
0.7791401 0.4111007 0.46339798 0.44572914
00000000: 223b 543f bab6 083f 4fcd 683f 2167 103f
00000010: feb4 133f 2e54 113f fac2 da3e 6cab df3e
00000020: ce23 fc3e e21a 213f 9039 483f f280 023f
00000030: fc7a 303f 29d3 d03e f7ae 053f e82b 373f
00000040: f600 063f 8f77 283f 13bd e23e 000d 5d3f
00000050: 4972 273f 8819 2f3f a64e 0f3f 2021 fd3e
00000060: 93f2 dc3e b444 0e3f ce86 163f 0072 2f3f
00000070: 3e62 673f dc5d 033f 3762 4d3f 5f83 543f
00000080: ba75 473f ca7b d23e 8042 ed3e 9c36 e43e

encoder.encoder.2.1.bias f4 [36]
0.027785541 0.038800016 0.099462144 0.024023715 0.024636103 0.027698241 -0.0020691827 0.011844744
0.05019495 0.00023307891 0.005577909 -0.013726645 0.007068984 -0.00023836276 0.009925813 0.02329648
0.029732257 0.01390066 0.09317093 0.0410733 -0.00016191987 -0.030586397 -0.03670842 -0.0062492825
-0.002906263 0.036034103 -0.0061522773 0.020368423 -0.047012586 0.044754777 0.0020961047 0.007916799
-0.09256331 2.421109e-07 0.012807453 0.009693813
00000000: 819e e33c c4ec 1e3d cfb2 cb3d 62cd c43c
00000010: a7d1 c93c 6ce7 e23c 209b 07bb 7510 423c
00000020: 3899 4d3d a566 7439 e4c6 b63b b9e5 60bc
00000030: f0a2 e73b 04f1 79b9 e19f 223c 42d8 be3c
00000040: 1091 f33c 98bf 633c 67d0 be3d 7a3c 283d
00000050: 09c9 29b9 5390 fabc 915b 16bd c8c6 ccbb
00000060: 0177 3ebb 7f98 133d 0b99 c9bb aedb a63c
00000070: 4590 40bd c950 373d cd5e 093b 76b5 013c
00000080: d591 bdbd 78fb 8134 5ad6 513c ccd2 1e3c

encoder.encoder.2.1.running_mean f4 [36]
0.1669521 0.39558783 0.12006995 0.29956013 0.3888185 0.061936338 -0.09425187 0.508402
0.30154252 0.069737226 0.36218333 0.05820482 0.36365035 0.27003002 0.34361893 0.1379922
0.050218847 0.34780386 0.20777476 0.30294093 -0.5292378 0.27244654 -0.4798837 0.07892193
-0.29536015 0.5092469 0.18678445 0.1408451 -0.05501194 0.06125806 0.45629594 0.35865897
-0.3961085 0.24036421 0.31816325 0.1696233
00000000: 7ef5 2a3e 7d8a ca3e 3ce7 f53d f25f 993e
00000010: 3813 c73e f5b0 7d3d 2007 c1bd a226 023f
00000020: c863 9a3e 64d2 8e3d 1870 b93e 2d68 6e3d
00000030: 6130 ba3e 6041 8a3e d2ee af3e d44d 0d3e
00000040: 47b2 4d3d 5913 b23e e8c2 543e 131b 9b3e
00000050: 217c 07bf 1d7e 8b3e 51b3 f5be d2a1 a13d
00000060: 7239 97be 015e 023f 6c44 3f3e b339 103e
00000070: 3354 61bd bbe9 7a3d 9f9f e93e 26a2 b73e
00000080: bcce cabe 0922 763e 4be6 a23e bbb1 2d3e

encoder.encoder.2.1.running_var f4 [36]
6.522865 9.112277 7.6098537 6.5827823 9.303972 7.5228405 8.120095 9.251612
7.390843 9.911975 6.429587 7.7434673 7.3403926 5.3549066 9.6408205 12.851799
8.6262865 8.081061 8.011387 6.0855274 12.811935 10.938419 11.432494 6.530954
8.745045 8.405965 7.050015 6.680015 7.0293446 9.024751 9.468831 8.129965
10.98391 11.027855 9.459857 9.349526
00000000: 4fbb d040 e3cb 1141 ec83 f340 27a6 d240
00000010: 12dd 1441 1cbb f040 e9eb 0141 9a06 1441
00000020: c981 ec40 7397 1e41 2dbf cd40 7cca f740
00000030: 7fe4 ea40 655b ab40 cd40 1a41 f8a0 4d41
00000040: 4505 0a41 074c 0141 a42e 0041 a4bc c240
00000050: b0fd 4c41 c403 2f41 7feb 3641 93fd d040
00000060: b4eb 0b41 d57e 0641 b999 e140 afc2 d540
00000070: 64f0 e040 6165 1041 5580 1741 5614 0241
00000080: 18be 2f41 1872 3041 935b 1741 a997 1541
