trained_models/79A6:D2E1:6302:01A1.pt (torch, 289011 bytes, 60 tensors)

encoder.0.0.weight f4 [36, 36, 7]
000000 fc f4 af 3d 39 db 0a b7 32 7d 2d bb cb e7 ca 3d
       0.08591649 -8.276483e-06 -0.0026472327 0.09907492
000010 49 dc 31 3d 69 03 c9 bc aa f5 ae 3c b7 c9 bc 3d
       0.04342297 -0.024537759 0.021357376 0.092181616
000020 a1 42 19 bc fe 76 a0 3d 55 4d ec 3c 97 11 b3 3d
       -0.0093542645 0.07835196 0.028845469 0.08743589
000030 d8 ba 4e 3a f2 0a d8 3c 4c 1e 28 3a 5e b4 6f 3d
       0.0007886118 0.026372407 0.0006413206 0.05852162
000040 dc 50 16 3c 5f 74 cc 3d 14 92 9c 3d 3f 85 ee 3d
       0.009174552 0.099831335 0.0764505 0.116465084
000050 d3 95 8f 3d b3 16 83 3b 18 45 f2 3c e4 b5 10 3d
       0.070109986 0.0040005087 0.029573962 0.035329714
000060 cd ee 38 3d a1 4a 44 3c 39 5f 6c bc 81 2e bd bb
       0.045149613 0.011980684 -0.014427 -0.005773366
000070 e8 69 84 3c 9d fe 3e 3d c5 99 52 3d 1b ed 03 3d
       0.016163781 0.046629537 0.051416177 0.032208543
000080 b0 80 a7 bc 1b 23 86 3b 13 cd 52 bd 34 21 66 3c
       -0.020447105 0.0040935404 -0.051465105 0.014046002
000090 a2 94 8d bb 7e 5e 70 3d 77 5c 00 3d eb 72 27 bd
       -0.004320697 0.058683865 0.03133818 -0.04088108
0000a0 8f 33 24 bd ba 89 0a 3d 3c 77 9d 3d fd 2e 22 3d
       -0.040088233 0.033822753 0.07688758 0.039595593
0000b0 ee b4 c8 bc 10 db 43 3d d4 40 a1 bc e6 2a 35 3d
       -0.024500336 0.047816336 -0.019684233 0.044230364
0000c0 7d bf 62 3c 8a f9 47 3d 3f 61 12 bd 8b 3a a6 3d
       0.0138396 0.048821963 -0.035737272 0.08116635
0000d0 38 2d ef 3c a6 a2 fb bc 20 d6 fb bc f8 59 9c 3c
       0.029196367 -0.030717205 -0.030741751 0.01908587
0000e0 b4 a8 24 bc d8 c3 94 bc d6 92 4c 3d b6 e3 04 3d
       -0.010049988 -0.018159792 0.04994472 0.032443725
0000f0 ee 75 e4 3c d4 42 38 bd d4 36 cf 3c 8e f9 57 bc
       0.027888265 -0.044985607 0.025294699 -0.013182057
000100 f9 fc 5e 3d 18 16 b7 3d 00 4f c4 bc 5c 33 18 bd
       0.054440472 0.08939761 -0.023963451 -0.037158355
000110 8a e5 1c bd dc 1d 82 3d 1b 50 c5 bc 5d ab ee ba
       -0.038304843 0.063533515 -0.024086049 -0.0018209029
000120 c1 02 b0 3d 20 5d 41 3d b4 5e 39 3c e9 c7 51 3a
       0.08594275 0.04720795 0.011314083 0.0008002506
000130 91 a9 0b 3b f3 1c 74 3d ce e9 15 3b 8f c7 5f 3c
       0.0021310786 0.05959792 0.0022874954 0.013658418
000140 25 d7 ca 3c 7f 19 7e 3d 0a 3c 9e 3c f3 02 59 3d
       0.024760792 0.062036034 0.019315738 0.05298133
000150 2a 12 a8 3d eb 40 91 3c e3 69 55 bc 97 92 4e 3d
       0.082065895 0.01773115 -0.013025734 0.050432768
000160 11 c9 2a 3d 15 a5 b5 3b 6e a7 5a 3d 9e c1 bb 3d
       0.041695658 0.005543361 0.05338233 0.09167789
000170 b8 d0 56 3c 13 72 ed 3d e1 fc 94 3b 9d 59 d1 3d
       0.013111286 0.115940236 0.004546747 0.102221705
000180 b3 76 ad bc 7c 05 15 3d 57 52 86 bc cf 78 96 bc
       -0.021174764 0.036382183 -0.016396685 -0.018368153
000190 cc 78 3f bc de 29 85 bc bb c9 28 3d 5f ca 8a bc
       -0.011686515 -0.016255315 0.04120801 -0.016942201
0001a0 17 cd 99 3d b9 fd 35 bd 67 98 8f bc 5f 52 99 bd
       0.07509821 -0.044431422 -0.017528726 -0.07486414
0001b0 64 49 f9 ba c3 63 c5 bb 68 fe 60 3d 16 bf 22 3d
       -0.0019019064 -0.0060238554 0.05493012 0.039733015
0001c0 a0 1f b0 bc f3 9d 7a bd 51 ec c7 3c 06 c5 94 bd
       -0.021499455 -0.06118579 0.024404677 -0.07264142
0001d0 fe a0 30 bc bd 0a 99 bd 84 d5 eb 39 ba d4 c1 3b
       -0.010780571 -0.07472751 0.00044981774 0.0059152516
0001e0 84 93 a0 3d 0c 7b e0 3d 09 ea 93 3d 87 54 7f 3d
       0.078406364 0.10960969 0.07222373 0.06233647
0001f0 41 b2 97 3d d9 73 b7 3c d0 d5 9a bc f2 14 2f 3c
       0.07407046 0.022394108 -0.018900782 0.010686146
000200 a6 ae 75 3c 8c 66 a7 3a 61 a5 32 3d 39 49 a3 bd
       0.014995253 0.001277165 0.04361475 -0.079729505
000210 cd 65 b7 3d 76 02 5f 3d 99 13 64 bd 49 64 d1 bc
       0.08954964 0.054445706 -0.055682752 -0.025560515
000220 82 dc d4 bc d6 24 01 bd 69 fe 39 bc 74 10 c9 3c
       -0.025984053 -0.03152927 -0.01135216 0.024543978
000230 ce 47 40 3d 68 2c bf 3b 77 db e6 bc 5d e1 b3 bc
       0.04694348 0.005834151 -0.02818082 -0.021958048
000240 dc 8f 51 bb 3b c1 5b bd 1f a0 33 3c c8 86 1a 3d
       -0.0031976616 -0.053651076 0.010963469 0.037726194
000250 7a f8 a7 bc f4 18 05 bd 0f 44 67 3b 68 0d e3 bc
       -0.020504225 -0.0324945 0.0035288369 -0.027716354
000260 2a a5 dc 3c 26 0c 9b bd 0c 83 55 bd e1 ab 09 bd
       0.026934225 -0.075706765 -0.05212693 -0.033611182
000270 e0 af c6 bc 6f b7 81 bd a7 01 3d bd e1 8e 32 bc
       -0.024253786 -0.06333815 -0.046144154 -0.010898323
000280 cb cb c3 bc 65 b3 56 bd a7 eb 30 bd 44 7c dd bc
       -0.023900887 -0.052417178 -0.043193486 -0.027036794
000290 8f e8 d7 bc 12 2a af bc 15 92 7f bd cd 94 25 bd
       -0.02635601 -0.021382365 -0.062395174 -0.04042511
0002a0 5a a6 70 3c 57 99 53 bd c7 d4 f3 bc 6e 0e 8b bd
       0.014688099 -0.05165991 -0.029764546 -0.067898616
0002b0 83 a3 53 bd 1e a9 17 bd e2 33 e7 3c 01 13 1a 3d
       -0.05166961 -0.037026517 0.028222982 0.03761578
0002c0 25 e3 a8 bb 34 69 29 bd 0d 7e 85 bd a8 ea 54 bd
       -0.005154031 -0.041360095 -0.06518183 -0.0519816
0002d0 63 f5 35 3b f2 5a 2c 3d 20 d0 f2 bc 93 79 8e 3c
       0.002776467 0.04207892 -0.029640257 0.017391955
0002e0 09 36 a5 bc d4 ae 94 bc c7 86 b5 3a be 2b e4 bc
       -0.020167368 -0.01814977 0.0013849371 -0.02785289
0002f0 46 9f 28 3c 82 26 12 3d 6c 76 f7 3c 67 30 fc bc
       0.01029188 0.035681255 0.030207835 -0.030784799
000300 4c 70 a4 3c 0b 44 48 bd e2 d2 d0 bb bf 00 5b bd
       0.020073079 -0.048893016 -0.0063727954 -0.05346751
000310 51 d1 30 3b 6f fb 54 3a d1 ff 80 3c e2 6e 9c bb
       0.002698023 0.0008124625 0.015746983 -0.0047739604
000320 5e 77 4b bd 32 fb 01 3d c6 43 34 3d 47 9c 9b 3a
       -0.049674384 0.0317337 0.044009946 0.0011872136
000330 6b 8c 24 bd 3e fb 32 3d 11 25 36 3d 64 86 9f 38
       -0.040172976 0.043696634 0.044468943 7.606743e-05
000340 c3 b7 38 3d 9c da 41 bd 17 b8 8f 3c 2a 81 51 3d
       0.045097124 -0.047327623 0.017543836 0.05114857
000350 e9 35 da bc 3f d6 12 3d cb 4a 67 bd 48 89 38 bd
       -0.026637034 0.035848852 -0.056467813 -0.045052797
000360 58 48 85 bb cd 37 86 3d f6 29 90 bb 9b b7 8e 3c
       -0.004067462 0.06553612 -0.0043995334 0.017421534
000370 2b 57 4a 3d 4b 2a 72 bd 12 9d 22 3d 43 01 01 3d
       0.049399536 -0.059122365 0.039700575 0.031495344
000380 db b1 07 bd 42 58 12 3d 52 c6 66 bb d7 0e 19 3d
       -0.0331286 0.0357287 -0.0035213423 0.037367668
000390 86 95 7d bd 8b 28 f7 3b 08 02 be 3c 6d 25 7f 3d
       -0.061910175 0.007542675 0.023194328 0.06229155
0003a0 b3 e6 12 bd f6 98 3f 3a 23 f0 35 3d 43 1c c8 3c
       -0.035864543 0.0007308865 0.044418465 0.024427539
0003b0 85 88 3a 3d ae 41 1b 3c f0 54 05 3d 7c 61 e6 bc
       0.04554035 0.0094761085 0.032551706 -0.028122656
0003c0 71 a7 9a 3d 99 68 d6 3b 6f 57 1e bd bd 61 2e 3d
       0.07551468 0.0065432307 -0.038657602 0.04257368
0003d0 c9 6d c5 bc 45 35 f0 bb f9 c7 14 3c 96 34 8d 3d
       -0.024100201 -0.007330569 0.00908088 0.068947956
0003e0 79 d2 58 3d 2c 3f 94 3d 2f 8c f2 3c 4e 7a 6d 3d
       0.052935097 0.072386116 0.02960786 0.057977967
0003f0 23 86 a6 bd 26 2a a3 bd c2 48 ea bd fb 9a 23 be
       -0.08131053 -0.079670236 -0.11439659 -0.15977089

encoder.0.0.bias f4 [36]
000000 39 46 15 bc 77 29 52 3d 27 84 6c bd 3f e5 18 bd
       -0.009110981 0.051309075 -0.057743218 -0.037328
000010 ae 0c 1d bd a3 96 a6 bb b3 56 87 bd fe c5 21 bd
       -0.03834217 -0.0050838753 -0.066083334 -0.03949546
000020 e1 71 8e bd 58 d9 97 bb aa 2c 95 3c 3d b1 6d bd
       -0.069553144 -0.0046340637 0.018209774 -0.058030356
000030 08 b2 33 3d 04 bf b8 bc d1 dc 90 bc c5 a1 26 3d
       0.043870956 -0.02255202 -0.017683418 0.04068162
000040 20 3c 4d bc e9 0b 9d bb 40 59 0b ba 42 6e ef bc
       -0.012526542 -0.0047926796 -0.00053157285 -0.02922738
000050 9b 88 53 3d 49 be 8c bc 42 0e 27 3c 48 62 9b bc
       0.05164395 -0.017180579 0.01019627 -0.018967763
000060 da 9a 6a 3c 80 1c 26 bd 73 a0 69 bd dc 91 0c 3d
       0.014319146 -0.040554523 -0.057037782 0.03431879
000070 50 9b 03 3d 24 df 22 bd a2 3d b0 bc c1 9f 64 bd
       0.03213054 -0.039763585 -0.021513764 -0.055816416
000080 c9 68 00 bc b1 78 00 bc aa 40 aa 3c 04 03 3c bd
       -0.007837483 -0.007841275 0.020782787 -0.045901313

encoder.0.1.weight f4 [36]
000000 c5 d5 7f 3f 45 ab 63 3f 4c 95 6b 3f 99 1d 78 3f
       0.9993556 0.8893321 0.92024684 0.9692016
000010 04 9e 7a 3f e3 4b 75 3f b5 ac 72 3f 17 03 73 3f
       0.9789736 0.9581892 0.9479478 0.9492659
000020 24 04 7d 3f e2 51 84 3f 52 a6 52 3f f0 70 77 3f
       0.98834443 1.0337489 0.82285035 0.96656704
000030 ce 5d 5f 3f 68 73 7c 3f 9a 36 7d 3f 08 be 7d 3f
       0.8725251 0.98613596 0.9891144 0.9911809
000040 bd 1d 7c 3f 7a bd 6a 3f 1a 3f 61 3f 91 2e 70 3f
       0.98482877 0.9169537 0.8798691 0.93821055
000050 e9 23 7e 3f 23 61 76 3f 9a 20 83 3f 93 18 71 3f
       0.99273545 0.9624197 1.0244324 0.9417812
000060 01 bc 73 3f d2 e5 81 3f 85 e2 82 3f 2d 3b 60 3f
       0.95208746 1.014826 1.0225378 0.87590295
000070 b3 67 66 3f 38 45 5c 3f d2 9b 82 3f c2 91 77 3f
       0.9000198 0.8604312 1.0203803 0.96706784
000080 06 48 7b 3f 91 35 93 3f 35 4a 81 3f ff 2a 8b 3f
       0.98156774 1.1500722 1.0100771 1.0872496

encoder.0.1.bias f4 [36]
000000 bf 60 84 bc 67 04 26 3c 91 9f ec bc f2 fa 8d bc
       -0.016159413 0.010132886 -0.028884681 -0.017331574
000010 9f 87 16 bb aa b1 21 3d c9 cc 76 bc 11 d0 06 bd
       -0.002296902 0.039476074 -0.015063473 -0.03291327
000020 c5 0a 35 bd 48 28 60 bd b7 fc 0f bd 19 87 42 bc
       -0.044199724 -0.054725915 -0.035153117 -0.01187303
000030 6b 03 71 bc f6 ef e3 bc 5b 52 26 bd b9 49 88 3c
       -0.014710288 -0.027824383 -0.040605884 0.016636716
000040 54 10 c9 bb a2 b1 a9 3c eb 6b 2b bd f6 94 fc 3b
       -0.0061359797 0.020714585 -0.041850965 0.007708187
000050 18 96 c5 bc fb 39 dd 3c f1 85 49 bd b8 a0 d2 bc
       -0.024119422 0.027005186 -0.049200002 -0.025711402
000060 27 cb 62 bd 8d 7f 82 3c 7a 53 86 bb 8c 41 4f bd
       -0.055369522 0.015929962 -0.0040993067 -0.05059962
000070 3b 5c 00 3d fb 18 5c bc a1 6e 67 bc 8d ec 8b bc
       0.031337958 -0.01343369 -0.014125497 -0.01708057
000080 ef 15 28 3c 6b 98 65 3c 54 73 9f ba d6 01 7f bd
       0.010259136 0.01401339 -0.0012165108 -0.06225761

encoder.0.1.running_mean f4 [36]
000000 e5 22 a4 3e 9e db 60 be d0 4d 36 3f 03 b3 9e 3e
       0.32057872 -0.21958777 0.7121248 0.3099595
000010 19 f6 46 bf db 01 2c bf 9d b1 36 bf 41 28 97 3e
       -0.77719265 -0.6719033 -0.71364766 0.295229
000020 b4 15 61 3f 0b ab a5 3f 69 ae 8a 3e ce 9b 4e bf
       0.8792374 1.2942823 0.2708619 -0.8070649
000030 07 b0 a6 be 91 3c 54 be 04 97 74 3f d5 aa 01 3e
       -0.32556173 -0.20726229 0.9554293 0.12662823
000040 5b 55 ba 3e c9 24 5f bf f0 c3 ff 3e 22 46 b6 3e
       0.36393246 -0.87165505 0.49954176 0.35600382
000050 08 e6 fc 3d 10 74 33 bf 42 b0 2a 3f ba c7 c7 3e
       0.123485625 -0.7009897 0.666752 0.39019567
000060 88 02 78 3f 07 a6 17 be 90 11 17 b9 83 89 a3 3f
       0.9687886 -0.14809428 -0.00014407025 1.277634
000070 6c 5a cf be e3 70 aa 3e 89 c3 c2 3e 95 1f c9 3d
       -0.40498674 0.3328925 0.38039806 0.09820477
000080 3a 1b 9a bf 66 68 6e be de ff 14 bf bf b3 07 3f
       -1.2039559 -0.23282012 -0.5820292 0.53008646

encoder.0.1.running_var f4 [36]
000000 20 53 c9 3a 4e a9 67 3a b3 c5 d0 3a 21 a7 47 3a
       0.0015359856 0.0008837179 0.001592806 0.00076161517
000010 36 e4 6b 3a 81 e2 a4 3a 19 03 a3 3a 14 1d 66 3a
       0.00089985447 0.001257971 0.0012436836 0.00087781367
000020 d3 61 14 3b e9 c9 98 3a 6e af a1 3a 3d 89 9e 3a
       0.0022641316 0.0011656854 0.0012335607 0.0012095344
000030 f3 13 9e 3a 05 bb 93 3a ba 7c ec 3a d6 68 71 3a
       0.0012060389 0.0011270946 0.0018042543 0.0009209042
000040 c3 3b c3 3a 61 51 76 3a ea 60 b2 3a 00 21 0b 3b
       0.001489513 0.00093962817 0.0013609205 0.0021229386
000050 d6 3a 24 3b 6d 52 63 3a a2 25 ae 3a a8 a7 c3 3a
       0.0025059483 0.0008671645 0.0013286362 0.0014927285
000060 cd 6c a0 3a bf 14 78 3a 85 7a d2 3a 57 03 c4 3a
       0.0012239456 0.00094635406 0.0016058242 0.0014954609
000070 d5 eb a9 3a 9c 4b a1 3a a7 ca d3 3a c9 95 3c 3a
       0.001296396 0.0012305859 0.0016158418 0.00071939506
000080 76 c5 b7 3a f7 6f af 3a 0e d5 bb 3a 3e 0a b1 3a
       0.001402064 0.0013384809 0.0014330463 0.0013507081

encoder.1.0.weight f4 [36, 36, 7]
000000 8c b2 78 3d 3d ee be 3d 6f a7 38 3d 15 66 8c 3d
       0.06071715 0.09322784 0.045081552 0.06855408
000010 e1 95 a5 bc ee f3 1b bb 0e 3f b1 3d 77 87 d3 bc
       -0.02021307 -0.0023796516 0.08654605 -0.02582143
000020 af f6 9f bd fd 18 9d bd 3c fe 47 bd 3e b4 e2 bc
       -0.07810723 -0.07670782 -0.04882644 -0.027673837
000030 95 70 69 bd ff 9f 42 bd 7b 90 99 3d 7d 6a d0 bc
       -0.056992132 -0.047515865 0.074982606 -0.025441403
000040 d5 37 39 ba 58 a2 97 3d 8b b3 2f bc fd 49 8d 3c
       -0.00070655096 0.074040115 -0.010723959 0.017247194
000050 cf 8b 55 3d 70 71 a9 3d 0d 09 aa 3d 6e 2c 84 39
       0.052135285 0.082735896 0.083025075 0.00025210105
000060 ef a2 0c 3c e8 76 a6 bb 0f f2 42 3d b8 ce d9 3d
       0.008583768 -0.0050800927 0.047594126 0.106351316
000070 a5 b7 25 bd 07 92 78 3c a7 f6 e8 3c 2e e6 2b bd
       -0.04045834 0.015171534 0.028437926 -0.041967563
000080 6d 80 31 3d 88 a2 99 bc fb e5 28 3d 17 ed 87 bc
       0.043335367 -0.018754259 0.04123495 -0.016592545
000090 03 25 0d 3c ae 81 a2 bc 15 49 c0 bc e4 f8 56 bb
       0.008614781 -0.019837227 -0.023472348 -0.003280216
0000a0 bb a9 2d bd 73 82 b7 bc 92 6b 2f 3d 73 8e 27 3d
       -0.042398196 -0.02240107 0.042827196 0.040907335
0000b0 12 a5 a0 3d bd cb 7f 3c 19 d7 84 3d 92 d5 86 3d
       0.07843985 0.01561254 0.06486339 0.06583704
0000c0 49 63 39 bc 03 b6 b3 3c fb a8 eb 3b 68 b5 db 3c
       -0.011315175 0.021937376 0.007191775 0.0268199
0000d0 39 6a 61 3c 09 72 b6 3d c9 4c 4d 3d f4 73 7f 3d
       0.013758236 0.08908469 0.050122056 0.06236644
0000e0 41 ab c0 3d 42 12 99 3d 2e c2 b0 3d f5 6d d2 3c
       0.09407664 0.074741855 0.08630787 0.025687197
0000f0 37 19 44 3a 23 0f 88 3c 1c 1f 7e 3d 47 38 65 3b
       0.0007480564 0.01660878 0.062041387 0.003497617
000100 ed a8 fa bb 40 b4 04 3d 10 a8 b4 39 f6 ef 86 3d
       -0.007649532 0.032398462 0.00034457492 0.06588738
000110 40 78 96 3d 42 68 f2 3b 3a ed a1 3c 87 fa 74 3d
       0.073471546 0.0073976824 0.019766439 0.059809234
000120 65 c9 d1 3b 58 9e 18 bc 5b ce bf bc c0 16 1e 3b
       0.006402182 -0.009315096 -0.023413828 0.0024122447
000130 bb 52 0c 3d 99 3c 4d 3d d5 42 69 3d 60 76 6f bd
       0.034258585 0.05010662 0.0569485 -0.0584625
000140 51 67 f7 3c a7 9f 8c bc d0 41 ed 3c ec 98 da 3c
       0.030200632 -0.017165972 0.028962046 0.026684247
000150 c3 13 d0 bd 3b bf a5 bd 1e ab 92 bd f5 22 99 bd
       -0.10160019 -0.08093115 -0.07161544 -0.07477371
000160 fc 60 98 bd 95 80 b9 bd f2 86 8a bb d4 4b a4 3c
       -0.07440373 -0.09057728 -0.0042275125 0.020055689
000170 63 fc aa 3c d3 a0 c8 3c e7 ee 85 3d 98 3e aa 3d
       0.0208723 0.02449075 0.06539708 0.0831272
000180 cf a7 b7 3d ad a6 85 bc 3e 96 d0 3d 26 bb 91 3b
       0.08967554 -0.016314829 0.101849064 0.0044473587
000190 00 b1 8c 3d 8f 54 8e 3c 87 7c 86 3d 7d 1a 43 bb
       0.068696976 0.017374305 0.065667205 -0.0029770427
0001a0 9b d0 ad 3d 19 62 a6 3d 45 1e a4 3a 07 19 bc 3c
       0.08487054 0.081241794 0.0012521228 0.022961153
0001b0 7b 49 d0 3d a7 1b f0 3c 98 bb 8c 3d d1 ba 09 3d
       0.10170265 0.02931006 0.06871718 0.033625428
0001c0 07 b0 3d bc 12 3e 0a 3c 43 00 c8 3d 7d 01 e3 3c
       -0.011577613 0.00843765 0.09765675 0.02771067
0001d0 58 8a d8 3c 2b 62 26 3d 58 20 9f 3c 49 49 90 bc
       0.026433155 0.040620964 0.019424602 -0.01761307
0001e0 ce 9a b2 3c 0e 06 7a 3c 82 2a 8d bd c7 69 11 bd
       0.021802332 0.015260233 -0.06892873 -0.035501268
0001f0 cc 3f 96 3a 5b 85 6c bb 81 d3 62 bd e8 9e 80 bd
       0.0011463105 -0.0036090228 -0.055377487 -0.06280309
000200 6b 25 32 bd d7 78 b8 bc 02 33 13 3c 97 a3 ad bc
       -0.043492716 -0.022518558 0.008984329 -0.02119617
000210 06 47 99 3c eb 49 9a 3b 67 15 80 3d 8f 40 a0 3c
       0.018710624 0.0047085187 0.06254082 0.019562034
000220 52 67 ae 3d d8 0b c4 3d 98 4e b8 3c f3 f0 b6 3d
       0.085158005 0.095725715 0.022498414 0.08932676
000230 56 97 ae bc 61 68 98 3d 9a d7 f1 3c b2 22 02 bd
       -0.021312397 0.07441784 0.029521752 -0.03177137
000240 72 ee 1e 3c e6 da 3c 3d 9f 86 70 3d 44 91 90 3c
       0.0097004045 0.046107195 0.058722135 0.017647393
000250 09 d4 28 3d 80 d4 dc bc 46 da 48 bd 47 be 04 3d
       0.041217837 -0.026956797 -0.049036287 0.032408025
000260 f0 2d 1e 3c 48 06 68 3d fb 70 12 bd 22 2d 95 bc
       0.009654507 0.056646615 -0.035752278 -0.018209998
000270 19 b9 89 3b b0 fa ca bc c3 6b f2 3c aa 69 b4 3d
       0.0042029736 -0.02477774 0.0295924 0.08809216
000280 6e 09 b3 3d 4c 8a 4a bd fb 91 43 bd 36 da 5f bd
       0.08742033 -0.049448296 -0.04774664 -0.05465146
000290 c1 bc a1 3c 66 8c 53 bc 26 39 66 bc 63 2b cd 3c
       0.019743325 -0.012911892 -0.014051711 0.025045102
0002a0 32 60 3c bd 52 19 04 3b 4d ed b3 bc a4 9d 85 3d
       -0.045990176 0.0020156694 -0.02196374 0.06524208
0002b0 20 39 5e 3d 7b 91 08 3d ba 3f 61 bc 85 25 85 3d
       0.054253697 0.033341866 -0.013748104 0.06501297
0002c0 87 ad 84 3c 41 a1 79 3d 8d 80 e4 3d be 97 51 3d
       0.016196026 0.0609448 0.111573316 0.051170103
0002d0 2a 17 74 bc 65 b5 3f bc 23 22 6b bb 69 c6 b2 39
       -0.014898101 -0.011700963 -0.0035878501 0.00034098633
0002e0 bf 40 9d 3d b4 03 8b 3d 35 a8 44 3d 56 c7 91 3d
       0.07678365 0.06787816 0.048011977 0.071180984
0002f0 35 4d e0 bc 7e 32 86 bc e6 ab 04 3d bf 9c eb 3c
       -0.027380565 -0.016381498 0.032390498 0.028761266
000300 52 7f aa 3d 69 15 cb 3d f7 b4 9c 3c eb 6a eb 3c
       0.08325066 0.09916193 0.01912926 0.028737506
000310 60 7b 0d 3a 0b 35 4f 3d 73 83 aa 3d 92 0c 89 3d
       0.00053971075 0.050587695 0.08325853 0.06691851
000320 7a 3a f8 3c 17 78 64 3d f4 84 9f bc a6 dc 33 3d
       0.030301321 0.05577859 -0.019472577 0.0439116
000330 c2 50 71 bc 49 b7 42 3d d3 a7 f3 bc 7d 09 17 3d
       -0.014728727 0.047538076 -0.02974311 0.036874283
000340 9a ca 89 bc 6d 0a 96 bb 73 eb 91 3d ed ce 98 3c
       -0.01682024 -0.0045788796 0.071249865 0.018653357
000350 28 af bc 3a 7c 82 ee ba 04 57 db bb 6a a5 1f 3d
       0.0014395462 -0.0018196846 -0.0066937227 0.03897611
000360 79 62 83 3c 1a 9f 33 3b cc 1f c2 3b 7d cc 88 3d
       0.016038166 0.0027408064 0.0059242006 0.06679628
000370 3d b6 81 3d 40 b6 a2 3d dc ed aa 3b b9 86 91 3d
       0.06333587 0.07944918 0.0052163433 0.071057744
000380 5a 2d ec bd e9 cf a6 bd 47 2e c1 bd 24 6e e7 bd
       -0.115320876 -0.081451245 -0.09432655 -0.113003045
000390 c1 a3 0c be 22 c5 25 be b7 a4 2a be a5 12 9f 3d
       -0.13734342 -0.16188481 -0.16664396 0.07767228
0003a0 44 23 e5 3d 8a fe b0 3c 67 7f 01 3d 7f 2b ae 3d
       0.11188367 0.021605749 0.03161564 0.0850439
0003b0 a3 fa 40 3d d3 82 3a 3c f1 cf 6a 3c 22 03 c0 3d
       0.047114026 0.01138373 0.014331804 0.093755975
0003c0 4c a9 96 3d 20 0d 82 3d dc bc cc 3c 91 4e dc 3c
       0.073565096 0.0635016 0.024992399 0.026892932
0003d0 96 1d 21 3d e4 29 ec 3b 17 60 26 bc b5 68 49 3d
       0.039334856 0.007207142 -0.010154746 0.049172122
0003e0 05 7d 80 3d eb ee bc 3d 56 7a f4 3b 42 87 01 3d
       0.062738456 0.092252575 0.0074608726 0.031623133
0003f0 08 83 f6 3d 50 a1 9b 3d f7 2d 4e 3d 15 65 ba 3d
       0.12036711 0.07599127 0.050336804 0.09101311

encoder.1.0.bias f4 [36]
000000 80 b5 11 bd 8d 14 cd bc f8 fb e9 3c 15 06 1d bd
       -0.035573483 -0.025034213 0.02856253 -0.03833588
000010 08 be 83 bc 83 61 9b bb 33 48 f3 bb 23 7c 94 ba
       -0.016081825 -0.004741849 -0.0074243783 -0.00113285
000020 e5 af 78 bd bd b7 67 3d 22 40 8a 3c 10 0b 70 3d
       -0.06071462 0.05657171 0.016876284 0.0586043
000030 b1 07 10 3d 9d b8 12 3d 4d 95 e4 3b ba 21 af bd
       0.035163585 0.035820592 0.006975806 -0.08551355
000040 31 71 34 bd 87 5d a2 bc 1a de 4a bd de 42 78 3a
       -0.04405326 -0.019819988 -0.04952822 0.0009470413
000050 70 d5 cc bb 42 9f 53 3d fb 91 02 3d 09 c8 2d bd
       -0.0062510297 0.051665552 0.0318775 -0.042427097
000060 59 2c 2b bd 06 c9 fa bc 9f 37 22 bd 64 c5 cf bb
       -0.04179034 -0.030613434 -0.039603826 -0.0063406695
000070 cf 06 c7 bd c6 96 e8 bc f5 ec f0 3b 22 49 12 3b
       -0.097180955 -0.028392207 0.007352466 0.0022321423
000080 b5 04 79 3c bf 81 28 bd cd 98 3f bd d0 2e b6 bd
       0.015198876 -0.04113936 -0.04677658 -0.088956475

encoder.1.1.weight f4 [36]
000000 04 16 5f 3f 18 b9 83 3f 44 61 4c 3f bf 0b 68 3f
       0.8714297 1.0290861 0.79835916 0.90642923
000010 70 55 71 3f 7b 72 7a 3f 8b 9e 70 3f c7 e8 68 3f
       0.9427099 0.97830933 0.9399192 0.9098019
000020 22 b5 9a 3f df c3 6b 3f 64 0a 68 3f 20 12 7a 3f
       1.2086527 0.9209575 0.90640855 0.97683907
000030 42 df 3c 3f a2 4e 4c 3f 6c 07 5e 3f f3 44 7a 3f
       0.73778164 0.79807484 0.86730075 0.9776146
000040 1f 44 77 3f 95 57 65 3f 4b 47 77 3f 53 83 7a 3f
       0.9658832 0.89586765 0.9659316 0.97856635
000050 2a 16 7c 3f f0 3a 60 3f c5 0a 7c 3f 21 86 74 3f
       0.9847132 0.8758993 0.98453933 0.95517164
000060 64 91 67 3f e9 56 87 3f 10 bd 7d 3f 88 77 7b 3f
       0.90456223 1.0573398 0.9911661 0.98229265
000070 49 8e 7f 3f 64 7c 7c 3f 94 29 61 3f 0d c2 7c 3f
       0.99826485 0.98627305 0.8795407 0.987336
000080 d1 1b 65 3f db 18 8a 3f cb ee 7c 3f 0b 2d 92 3f
       0.8949557 1.0788835 0.9880187 1.1419996

encoder.1.1.bias f4 [36]
000000 cd ca 61 bd af 86 a6 bd 69 1f fb bc a8 3e 1d bd
       -0.055125047 -0.081311576 -0.030654626 -0.03838983
000010 1f 23 1a 3c fe e6 27 bc d2 b7 05 bd 1d de 2c bd
       0.009407788 -0.010247944 -0.032646008 -0.04220401
000020 c6 ea e2 bc 55 f0 2d bb a8 b3 6c bd 85 9c c7 bc
       -0.02769984 -0.0026540954 -0.05778852 -0.024366627
000030 20 5a 87 bb 94 35 27 3d 85 f0 ce bc ec ec 52 bd
       -0.004130617 0.04082258 -0.025261173 -0.051495478
000040 da 26 1e bd f8 bb a4 bc e9 c9 65 bc d7 c6 86 3a
       -0.03861127 -0.020109162 -0.01402519 0.0010282648
000050 a3 ab 04 bd 0c 8e e5 bb 33 a9 52 39 01 71 3a bd
       -0.032390248 -0.0070054587 0.00020090192 -0.045517925
000060 aa 1c 8a bd 0a 6a f2 bc 0b 7f fe bc ef 4d eb bc
       -0.067437485 -0.029591579 -0.031066438 -0.028723685
000070 be 43 8b bd f7 23 49 bd c7 48 13 bd 1c cb 4e bc
       -0.0680003 -0.049106564 -0.035958078 -0.012621667
000080 ad 2e b8 ba e6 d8 ab bd 59 ba 54 bd 87 fd 6b bd
       -0.0014051996 -0.083909795 -0.051935527 -0.05761483

encoder.1.1.running_mean f4 [36]
000000 e1 23 f3 bd c4 b7 ff 3d b6 bc a9 3d 9c 0d cb bd
       -0.11872078 0.124862224 0.08287947 -0.09914705
000010 e0 c7 4a be 8c 12 16 3c 8a df 1a be 31 24 bb 3c
       -0.19802809 0.009159695 -0.15124336 0.022844406
000020 30 69 37 bd d9 33 54 3d fd 55 02 3e e3 6c 4d 3e
       -0.04477805 0.05180726 0.12728114 0.20061068
000030 85 db 8d bd 0d c6 1e be c1 84 0e 3e 17 92 6a 3c
       -0.06926636 -0.15505238 0.13917829 0.014317057
000040 43 8e 25 3d 1c f5 db 3d ff e3 ff 3d bd 13 0c 3e
       0.040418874 0.1074011 0.12494659 0.13679405
000050 5b 9d f8 3d 4f 4b 52 3e 7f 19 b0 bd 56 58 1e 3e
       0.12139388 0.2053654 -0.08598613 0.15463385
000060 dd db 6b 3e ce e2 cb bd d8 0f 18 3d 0d 57 fd 3d
       0.2303309 -0.09955369 0.037124485 0.12370119
000070 9d fc 4e 3d 55 49 1f be 37 90 e3 3c bb 5c c8 bd
       0.05053388 -0.15555318 0.027778728 -0.09783312
000080 fa f8 87 3e 76 bb 39 3e d8 2f c2 3d cc 10 5a 3e
       0.26557142 0.18137917 0.09481782 0.2129547

encoder.1.1.running_var f4 [36]
000000 76 6a e1 3f bc 2a fe 3f b2 94 b8 3f 54 bf 5a 3f
       1.7610614 1.9856791 1.4420378 0.85448194
000010 7c 13 bf 3e 4f 6b 9e 3f fa d4 ab 3f 28 26 d0 3f
       0.37319553 1.2376498 1.342437 1.6261644
000020 02 4f 2b 3f ea f2 da 3f 07 2f bf 3f 01 e2 be 3f
       0.6691743 1.7105381 1.4936227 1.4912721
000030 c4 f5 ea 3f 53 d4 8f 3f 15 63 5d 3f e5 64 e2 3f
       1.8356252 1.1236671 0.8647931 1.768704
000040 1e 41 7e 3f ef 26 a2 3f 7c 7b 9e 3f 33 af ac 3f
       0.9931811 1.2668132 1.2381434 1.3490967
000050 3f e4 f0 3f be 26 a5 3f d9 95 d9 3f 9a eb b9 3f
       1.8819655 1.2902448 1.6998855 1.4525025
000060 9e 75 9f 3f a8 0f 5f 3f 73 50 d7 3f 7b 67 8c 3f
       1.2457769 0.87133265 1.6821426 1.096908
000070 27 fb 94 3f 4f db f1 3e a1 96 1e 3f 56 2e aa 3f
       1.1639146 0.47237632 0.6194859 1.3295391
000080 2c 54 7e 3f 0b a1 77 3f 7a 4f 13 40 84 7a 45 3f
       0.99347186 0.9673011 2.3017259 0.7714007

encoder.2.0.weight f4 [36, 36, 7]
000000 5b 2b 13 3c e9 82 e8 3c 29 7e 1d 3d 86 86 59 3b
       0.008982505 0.028382735 0.038450394 0.0033191754
000010 6e 72 ef 3b c0 c5 8d bb 71 e5 2b 3d a9 6d 28 3b
       0.0073073423 -0.004326552 0.04196686 0.0025700128
000020 c2 15 3a bd fb 0d 17 bc 52 5a 6c 3c a2 f8 e5 3c
       -0.045430906 -0.009219642 0.014425831 0.028072659
000030 dd d7 c4 bc 45 32 0d 3c a9 83 37 3d 93 1f 08 3e
       -0.024028713 0.008617942 0.044803295 0.13293295
000040 21 e9 86 3d 4d 64 45 3d 2f e1 80 39 7b e2 ef bb
       0.065874346 0.048191357 0.00024581837 -0.0073206997
000050 27 8d aa bc 89 08 20 bc 99 39 3d bd 3c 6b 10 bd
       -0.02081926 -0.00976766 -0.046197508 -0.035258517
000060 80 29 8f bd c3 29 d2 bd 17 10 c4 3b e2 23 1d bd
       -0.06990337 -0.10261872 0.0059833634 -0.0383643
000070 11 d2 ac 3c 03 d7 55 bd ca f2 32 3b b8 76 07 3d
       0.021096261 -0.052207004 0.0027305358 0.033072203
000080 47 71 76 bd 8d 7b 18 3d 1e 43 96 3b 0a d3 a0 bc
       -0.060166623 0.037227202 0.0045856377 -0.019631881
000090 9c 83 89 3c 5b 56 83 3c 2c 28 b3 bd f4 f7 69 bd
       0.016786389 0.016032388 -0.087478966 -0.057121232
0000a0 01 1d f2 3c c3 c2 27 bd 72 85 d0 3b 33 33 d6 bc
       0.029554846 -0.040957224 0.006363564 -0.02614746
0000b0 6d f6 7e 3a bf 93 fc 3c 20 fb 7f bc 64 7b 2b bc
       0.00097260514 0.03083217 -0.015623838 -0.01046643
0000c0 90 ac 0e bd c5 5f 6d bd b7 81 97 bc 96 b9 ea bb
       -0.034832537 -0.05795266 -0.01849447 -0.007163237
0000d0 d3 1a 9d bc 69 12 db 3c bb b5 c0 3b 3b 8b fa 3c
       -0.01917783 0.026742177 0.005881039 0.030583968
0000e0 f0 ef 8c bd cb ed 4d bc 2a 3c 68 3c 00 c3 89 3c
       -0.06881702 -0.012568901 0.0141745005 0.016816616
0000f0 27 82 fa bb 53 01 a7 3c 34 82 2a bd 6c 51 6d bb
       -0.00764491 0.020386374 -0.041628078 -0.0036211861
000100 3c 3f fa 3c 48 48 99 3d 17 ac a7 3d c5 2a d4 3d
       0.03054773 0.0748449 0.081871204 0.1035972
000110 9b 12 8a 3d 15 7e 9e 3b 95 65 21 3d 01 d6 58 bd
       0.0674183 0.0048368075 0.039403517 -0.052938465
000120 16 4d 56 bd 6a a7 bd bd 1a 68 e4 3b 96 97 df 3c
       -0.05231961 -0.09260447 0.0069704177 0.027293961
000130 6c b4 cf bc 26 ae 50 3c 64 72 0c bd 1d 4d 9b 3c
       -0.025354587 0.012736833 -0.03428878 0.018957669
000140 61 89 d4 3c 98 4b b9 bd 6b a5 ef bc 9a c3 29 bc
       0.025944414 -0.090476215 -0.029253682 -0.010361576
000150 4f 84 81 bd 0b 06 9f bd 96 4f a8 bd 2e 97 a6 bd
       -0.06324064 -0.077648245 -0.08218305 -0.08134304
000160 e9 f5 3a bd 68 3d 83 3d 5c e1 b8 3d 00 fa 52 bd
       -0.045644674 0.06408197 0.09027359 -0.05150795
000170 c5 38 63 3c 03 a1 49 bc e4 ac d9 3b 0d 10 89 bb
       0.013868515 -0.012306455 0.0066429246 -0.0041828216
000180 fe 67 a1 3c 2c c7 43 3c cd 47 66 bc cc 3f 49 bd
       0.019702908 0.011949342 -0.014055205 -0.049133107
000190 36 6b 68 3d 45 d9 87 3d 63 a9 09 3d 22 90 b2 3c
       0.05674287 0.06633238 0.033608805 0.021797244
0001a0 ac a8 82 3d c3 52 02 bc df 84 04 bd 28 69 bf 3c
       0.06379828 -0.007954302 -0.03235328 0.023365572
0001b0 f2 e3 0d bc cf 04 85 3d 59 62 0f bd 9d c3 fb bc
       -0.008660303 0.06495058 -0.0350059 -0.030732924
0001c0 d0 b9 5b bd 28 78 f1 bc f5 48 19 bb 50 5a 1b bd
       -0.053644 -0.02947624 -0.0023389433 -0.037927926
0001d0 ed b6 15 3d 7a a0 1c 3d 6b a6 81 3c 72 3e 51 3c
       0.036551405 0.03823898 0.015826425 0.012771236
0001e0 e6 d7 95 bc ff df 86 bd 71 6d a0 3a da b1 d1 bd
       -0.018291425 -0.065856926 0.0012239647 -0.102390006
0001f0 95 8f d5 bd 39 67 44 bd 8f 32 ed 3b f3 29 6e bc
       -0.10427777 -0.047950003 0.007238693 -0.014536369
000200 30 ab 7b 3c 9b 7e 52 bd 50 a9 05 bc 35 75 3e bd
       0.0153606385 -0.05139027 -0.008158043 -0.046498496
000210 8c a5 a1 bc 64 e4 42 3d 61 d0 f5 3d 5d 59 70 3c
       -0.01973226 0.04758109 0.12002636 0.014669743
000220 1f cc d6 bc bc ea c7 bc c4 e4 43 3d 05 44 52 3d
       -0.02622038 -0.024403922 0.04782559 0.0513344
000230 37 9a 25 bd 14 08 24 3d 3b 84 a6 3c 15 b5 51 bd
       -0.040430274 0.040046766 0.020326724 -0.051198084
000240 62 c2 e7 39 77 38 86 3d 20 9c f3 3c 1d d8 1e 3d
       0.0004420458 0.065537386 0.029737532 0.03878032
000250 60 f7 27 bc 48 ef 9b 3c 96 f6 6d 3d 13 5d 26 3b
       -0.01025185 0.019034997 0.05809649 0.0025385066
000260 98 c8 91 bb e7 6a 7e 3c 86 22 30 bd 38 82 82 bd
       -0.0044489615 0.015528417 -0.043001674 -0.063724935
000270 8c f0 7f 3d e9 ec 6a 3d 75 fd 02 3b 4c f3 9d 3d
       0.062485263 0.05735484 0.0019987498 0.07712421
000280 68 41 13 3d 38 f4 f4 3c e1 e0 d1 3c 66 cb 4d 3d
       0.035951048 0.029901609 0.025619926 0.050242804
000290 cc a2 a6 bd 52 95 b2 bd 9d 6c d6 bd e1 31 2f bd
       -0.0813652 -0.08719887 -0.10469935 -0.042772178
0002a0 bf eb 98 3d f2 8e a0 bb 9b db 0f bc 49 f8 40 3d
       0.0746684 -0.004899853 -0.008780385 0.047111783
0002b0 82 b0 b7 3c 2c 3b ef 3c 51 1c 89 3d fd cd 85 bb
       0.022423033 0.02920302 0.06694854 -0.0040833936
0002c0 b5 ba b6 3d cd 53 04 3c 4f 25 85 3c f4 49 32 3d
       0.0892233 0.00807662 0.016253142 0.04352756
0002d0 88 e4 06 bd 13 07 9d 3c 01 7b 16 bc 05 57 a1 3d
       -0.032932788 0.019168412 -0.0091846 0.07877926
0002e0 9c 9d 9d 3d 6d 02 7b 3d 38 a2 31 3d e0 3d 1a bc
       0.07696077 0.06128161 0.043367594 -0.009414166
0002f0 27 a8 80 3b 01 a1 1f bb 5a c2 3f bd 9f 23 f7 3c
       0.0039262953 -0.002435744 -0.046816207 0.030168353
000300 ec 84 b8 ba 4d 8f 3d 3d b9 54 03 3d 0c b7 81 bc
       -0.00140777 0.04627924 0.03206322 -0.015834354
000310 4f 68 86 3c 61 89 cb 3b e9 4c 25 bb 4d d3 4f bb
       0.01640716 0.006211445 -0.0025222844 -0.0031711638
000320 7b ce fb ba cb cd 45 3c 74 b2 f4 3c c7 bc da 3b
       -0.0019211316 0.012072991 0.02987025 0.006675336
000330 17 3d 8f 3c 29 f0 db 3a 9f c8 69 bd a5 81 18 3b
       0.017485185 0.0016779947 -0.057076093 0.0023270634
000340 3e 92 98 bc e1 97 5c bd b9 04 27 bd 8b fc 61 3c
       -0.018624421 -0.05385578 -0.04077599 0.013793121
000350 19 15 73 bd b2 0d 13 bd 53 f0 50 3d 6d 9d 46 3c
       -0.059346292 -0.035901733 0.05101044 0.012122494
000360 60 03 f3 bc f7 03 d8 bc ef 97 bb bc 39 d5 49 3c
       -0.029664695 -0.026369078 -0.022899596 0.012318903
000370 6d 7a dd 3a 5c 06 87 bc 62 e2 49 3d 5b a6 80 3d
       0.0016897448 -0.016482525 0.04928816 0.0628173
000380 14 bd 69 3d 07 70 de bb 71 34 ab bc a5 ae 6d bd
       0.057065085 -0.006788257 -0.02089903 -0.058027882
000390 4d 5c e3 bd c2 3b ba bd 8e 2b a8 bd 33 52 87 3d
       -0.11101589 -0.09093429 -0.082114324 0.06607475
0003a0 49 82 50 bc f0 e2 87 3c 27 dd 28 3d 00 85 9e bd
       -0.012726375 0.016587704 0.041226532 -0.077402115
0003b0 de a8 ae bc f1 54 63 bc db 45 2d 3d 50 10 39 3d
       -0.021320757 -0.013875232 0.042302947 0.045181572
0003c0 d5 1e 97 bd 9d fc 89 3c 71 57 68 bd 74 aa 17 3d
       -0.073789276 0.016844088 -0.056724016 0.03702779
0003d0 0f 9e bc 3d 41 b5 59 bc 23 6b bd 3d 3f 3e f6 3b
       0.09209835 -0.013287843 0.0924895 0.0075147445
0003e0 10 1a 42 bd e2 38 6c bd 78 50 86 bd da 72 fc 3c
       -0.047388136 -0.057671435 -0.06558317 0.030816484
0003f0 eb d8 8d 3c 65 40 b8 3d e8 80 75 3d 8d 4c 9d bd
       0.017315349 0.08996657 0.059937388 -0.076806165

encoder.2.0.bias f4 [36]
000000 65 3f 5a 3d 21 ee 63 3c 86 07 94 3c 17 2c 13 be
       0.053283114 0.013911755 0.018069994 -0.14372288
000010 6f 5c b8 bc 8e ac 82 bd 1a fd f9 bb 98 3f 0c 3d
       -0.022505013 -0.063805684 -0.007629049 0.034240335
000020 a1 c0 86 bc 32 d7 73 bd c1 fd 30 bc cc a0 07 3c
       -0.016449274 -0.059531398 -0.010802687 0.008278083
000030 38 df c5 bb 9d 4f 5d bd c5 4b 24 3d 1d 76 05 bd
       -0.0060385726 -0.054031003 0.040111322 -0.032583345
000040 ec 1f e7 ba c6 b1 50 bc f8 5b 57 3c 6a 0b c0 bd
       -0.0017633415 -0.012737697 0.013144486 -0.09377177
000050 fd 4d b7 3c 59 c0 e5 bc 37 f5 3f bc cb 1e 80 bd
       0.022376055 -0.02804582 -0.011716179 -0.06255873
000060 0f fc f0 3a cb 53 14 bc 77 85 25 bd b4 89 36 bd
       0.0018385666 -0.009053181 -0.040410485 -0.044564918
000070 77 12 aa bd 87 54 0f bd be 80 58 bd 9d 24 8c bd
       -0.08304303 -0.03499272 -0.052857153 -0.06842921
000080 94 27 ce bd 30 3d 80 bd 2a 4c e8 bc 9f 36 21 bb
       -0.10066143 -0.062616706 -0.02835663 -0.0024599207

encoder.2.1.weight f4 [36]
000000 5f 1c 4e 3f 55 92 7c 3f 85 1a 3c 3f 49 23 63 3f
       0.8051204 0.98660785 0.73477966 0.88725716
000010 78 b7 80 3f 82 68 5e 3f 69 17 44 3f 7c 84 22 3f
       1.005599 0.86878216 0.7659822 0.63483405
000020 91 13 38 3f e6 c6 8d 3f 53 c8 6e 3f 05 21 26 3f
       0.71904856 1.1076324 0.9327442 0.64894134
000030 b8 57 64 3f b4 a2 7a 3f c9 fe 7a 3f ca 89 47 3f
       0.8919635 0.97904515 0.9804502 0.77944624
000040 24 6f 46 3f 42 18 33 3f 13 74 6c 3f 80 8d 74 3f
       0.7751334 0.6995889 0.92364615 0.9552841
000050 aa c2 5a 3f 07 66 65 3f 5f 17 69 3f df 5a 3c 3f
       0.85453284 0.89608806 0.91051286 0.7357616
000060 6a 6f 7b 3f 20 a4 5b 3f e6 28 4f 3f 80 98 5c 3f
       0.9821688 0.8579731 0.8092178 0.86170197
000070 10 eb 4c 3f b9 75 52 3f 57 ee 77 3f bd 11 55 3f
       0.80046177 0.8221088 0.9684805 0.8323019
000080 6d 33 4d 3f 1e d1 66 3f c3 81 3d 3f c8 fd 63 3f
       0.80156595 0.9016284 0.74026126 0.89059114

encoder.2.1.bias f4 [36]
000000 1a df e3 3c 06 1f 91 bd 36 d7 5f bc c1 ae e4 bd
       0.027816344 -0.070859954 -0.01366215 -0.11166144
000010 8c ff 23 bd 4c 08 05 bd 69 6c 76 bd e8 f6 92 bc
       -0.04003863 -0.032478616 -0.06016198 -0.01794
000020 6f b0 e5 bc dd c9 e5 bd e7 3f 59 bd 98 0f 32 3c
       -0.028038232 -0.11220143 -0.053039458 0.010867976
000030 4a 04 0a bd 12 76 0e be 16 3b cf bc 1e 59 68 bd
       -0.033695497 -0.13912228 -0.025296729 -0.056725614
000040 a7 5d 7c 3b ec 4f 22 bd 8b 01 fc bc 08 1e 7f bd
       0.003850797 -0.039627 -0.030762454 -0.0622845
000050 fe 4b c1 3c 9e 85 5b bd 44 97 c5 bd 40 f4 3c bd
       0.023595806 -0.053594224 -0.09647992 -0.046131372
000060 81 9d ac bb c3 52 b7 bd fc 6b 48 bd 5f 81 f3 bc
       -0.0052677994 -0.089513324 -0.048931107 -0.029724775
000070 c5 ae 3c bd 35 db 27 bd 4d ee 37 bd 9d 9d e6 bc
       -0.04606511 -0.040980536 -0.044904996 -0.028151328
000080 07 89 b7 bd 2d 32 2d bd ea c9 16 bd 8a ee 8b bd
       -0.08961683 -0.04228418 -0.036813654 -0.06832607

encoder.2.1.running_mean f4 [36]
000000 1a 6b 4a 3c 7b bd b6 3c 6f 19 fa bc 07 57 ec bd
       0.012354637 0.022307148 -0.030529706 -0.11540037
000010 05 1d 5f 3e 66 85 f2 bd bf 63 94 bd 15 3a 4c bd
       0.21788414 -0.1184185 -0.072455876 -0.04986008
000020 02 86 59 bd ce 04 14 3c 82 5f 48 3d d2 7d 81 bd
       -0.053106315 0.009034349 0.04891921 -0.063228264
000030 93 4a a3 3d d0 ee 1e bd c0 78 16 bd c6 6f 7e bd
       0.07973208 -0.038801968 -0.03673625 -0.062118314
000040 87 67 c0 bd bd 99 32 3e 01 10 9b 3e 56 1f 23 be
       -0.09394746 0.17441459 0.30285648 -0.15929922
000050 87 71 9a bd e3 40 a5 3d 8e e3 3c 3e 75 88 a3 3d
       -0.07541185 0.08069017 0.1844618 0.079850115
000060 4c 10 00 be ba 0b 3c 3c cb 5b 9f bd d9 7d cb bd
       -0.12506217 0.011477405 -0.0778118 -0.09936113
000070 f8 df e3 39 86 8c 21 be 40 1c d6 3d 93 c1 1c 3d
       0.00043463684 -0.15776262 0.10454607 0.038270544
000080 c3 30 db 3c 7c e1 18 be d7 28 00 be 35 d7 2e 3e
       0.02675665 -0.14929765 -0.12515579 0.17074282

encoder.2.1.running_var f4 [36]
000000 c6 65 ca 3f 40 69 63 3f 52 c3 75 3f f4 9c 81 3f
       1.5812309 0.88832474 0.9600116 1.0126023
000010 d9 c1 a0 3f 57 cf 9b 3f 7c 1a 94 3f 10 9a cd 3f
       1.2559158 1.217265 1.1570582 1.6062641
000020 51 b5 39 3f 33 a8 52 3f 77 e0 ce 3f f0 58 68 3f
       0.7254229 0.822879 1.6162251 0.9076071
000030 ba e5 f3 3e 07 fb 51 3f a4 df 6c 3f 42 bc a5 3f
       0.47636205 0.8202366 0.9252875 1.2948077
000040 d7 bd fe 3f 30 d5 62 3f 94 3c c5 3e dc 3d d1 3f
       1.9901685 0.8860655 0.3852278 1.6347003
000050 c4 ac 90 3f 02 3c b1 3f 6d 3a d6 3e d6 f3 61 3f
       1.1302724 1.3846438 0.4184145 0.8826269
000060 8e da 8a 3f 7a ff 15 3f 33 6d f6 3e e6 eb 5d 3f
       1.0847948 0.5859295 0.48130187 0.8668808
000070 24 12 b3 3f 0f 89 80 3f 59 b8 27 3f 7d 9c d0 3f
       1.3989911 1.0041827 0.6551567 1.6297756
000080 e9 8d 16 3f 31 5d 1c 40 09 12 e0 3e 75 fd d1 3f
       0.5881029 2.443188 0.4376376 1.6405474

encoder.3.0.weight f4 [36, 36, 7]
000000 27 2b 1c 3d 4a 42 a6 bb 60 ee ea bc 17 a9 a3 3b
       0.03812709 -0.0050738202 -0.02867812 0.0049945223
000010 f7 b8 7d 3a dc 45 00 bd 08 e2 c3 bc 04 c5 4c 3d
       0.0009678746 -0.031316623 -0.023911491 0.049992576
000020 af 77 4c bc 39 a0 3f 3d 87 72 2c bc 28 8d 9f bc
       -0.012479707 0.04678366 -0.010525352 -0.019476488
000030 86 87 35 3c b3 fb 63 3d a1 ef ff bc 98 b2 42 3c
       0.011079675 0.05565996 -0.031242194 0.0118834
000040 1f 1d d3 bc 0d 94 66 3c c7 e8 36 3d 5e e6 65 bd
       -0.025770722 0.014073384 0.044655588 -0.0561279
000050 e2 c6 22 bd dd 94 06 3c 34 4d 54 bd 21 d3 8d 3c
       -0.03974045 0.008214203 -0.05183144 0.017312588
000060 ad f9 37 3d 26 de 14 3d dc c9 64 bc b6 3f 30 bc
       0.044915844 0.03634467 -0.013964143 -0.010757377
000070 da 1e ab 3c 82 42 17 3c fb 0b be 3d 88 0f c8 3d
       0.020888735 0.009232165 0.09279629 0.09768587
000080 ac e2 1b bc 98 57 2c 3d 81 b6 d3 3c ce b9 31 bd
       -0.009514492 0.042075723 0.02584386 -0.043390088
000090 f8 16 26 bc d6 a9 4a 3c e2 6a f8 bc 70 39 0f bc
       -0.010137312 0.012369594 -0.030324403 -0.0087417215
0000a0 11 39 01 bc a7 c0 55 3c 05 1a 20 bd 83 a9 0f 3d
       -0.007887141 0.01304642 -0.039087314 0.03507377
0000b0 c1 b3 c5 ba 47 34 81 bc 35 d7 22 bd f2 d5 26 bd
       -0.0015083478 -0.015771998 -0.03975602 -0.040731378
0000c0 0a 2b 7b 3c 5d d3 e6 3c b6 31 75 3b a7 1f 61 3b
       0.0153300855 0.028176958 0.0037413663 0.0034351142
0000d0 9b 20 75 3c 0f 36 aa ba dc 50 6f bd 29 c8 2e 3d
       0.014961387 -0.0012986081 -0.058426723 0.042671356
0000e0 64 af 25 bd df 8c 14 bd eb 77 ae bc 93 e0 1a bd
       -0.04045047 -0.036267158 -0.021297416 -0.037811827
0000f0 e1 52 8b 3d 80 54 80 39 92 a9 b6 3c 0b c4 57 3d
       0.06802917 0.0002447702 0.022297654 0.052677196
000100 87 89 3f bd d3 1a 7a 3d ed 43 43 3d 9f 1c 97 3d
       -0.046762016 0.061060738 0.0476722 0.07378506
000110 bd 95 fe bc 55 25 9d 3d 0c 7f 16 3d b5 4c 9c bb
       -0.03107726 0.07673136 0.036742255 -0.0047698864
000120 fc 42 69 3d bc 98 c3 3d d9 fe ec ba 56 83 cd 3a
       0.056948647 0.09550616 -0.0018081322 0.00156794
000130 f8 bc e9 bc 76 fc 1f bd 94 cb a4 3d 49 12 3a bb
       -0.02853249 -0.039059125 0.08046642 -0.0028392246
000140 fd c1 e9 3c 8f 13 16 bd ef 38 00 3d 35 7e 9f bd
       0.028534884 -0.036639746 0.031304296 -0.07787744
000150 43 40 de 3c 3e 62 d9 3b 1f a5 57 3d 1b 0c 1e bd
       0.027130252 0.006634026 0.052647706 -0.038585763
000160 ae ad 41 3b 40 54 0f 3d db 2e e5 3b 25 39 d1 3b
       0.0029552984 0.034992456 0.006994111 0.006384986
000170 a2 a0 4f 3c bb 56 73 3d 96 39 93 3d f0 c7 b0 bc
       0.012672575 0.059408884 0.07188718 -0.021579713
000180 8a 05 bd bc 3d 07 0f 3d ff bf fc bc 0c 66 ca 3a
       -0.02307393 0.034919012 -0.03085327 0.0015441789
000190 be fb ac bb 43 dc 77 bd 18 c5 dc 3a 2a 47 2b bc
       -0.0052790334 -0.060512792 0.0016843406 -0.010453979
0001a0 39 b0 c8 bd 14 17 b6 3c c7 ad 99 bc 9b ef da 3c
       -0.09799237 0.022227801 -0.018759621 0.02672558
0001b0 86 d8 61 bb 2d 6e c8 bc 6e d6 4d bd 8e 40 9a 3c
       -0.0034461333 -0.024466598 -0.050253324 0.01882961
0001c0 d1 10 49 bd 97 d3 0a bd f1 9b 87 3d 2e b5 81 3c
       -0.049088303 -0.033893194 0.0662154 0.015833464
0001d0 bf 62 91 3d b5 7e 4e bd 05 ce 80 3c 43 29 ca 3c
       0.070989124 -0.050413806 0.015723238 0.024677878
0001e0 3d 84 f8 3c 9d 69 9d bc 97 92 9f bc ac e2 84 bd
       0.030336494 -0.0192154 -0.01947908 -0.06488547
0001f0 5b af f7 bc 06 aa f6 3c 73 93 1b 3c 2c 09 24 3c
       -0.030234983 0.03011037 0.009495604 0.010011952
000200 a8 83 22 bd fb 96 0f 3d db 9f cf 3c 7c d9 28 bd
       -0.03967634 0.035056096 0.02534478 -0.041223034
000210 24 0c 5a 3d af f2 c8 bb 45 cc 78 bc d4 67 9b bc
       0.053234234 -0.0061324458 -0.01518542 -0.018970408
000220 99 8d 12 3d 81 8e 57 bc 62 24 2a bc bf d7 26 3d
       0.03577957 -0.013156534 -0.010384651 0.040733095
000230 8e 11 07 3c 37 c6 e0 bc 49 71 83 bc 86 bd d0 bc
       0.008243931 -0.027438266 -0.01604523 -0.025480997
000240 56 25 01 3d 83 36 3d 3c 94 65 2f 3d c0 5f 11 bd
       0.031529747 0.011548641 0.04282148 -0.035491705
000250 67 58 bd bc b5 4c 54 3b dd 32 20 bd a2 bf 35 3d
       -0.023113443 0.0032394354 -0.039111007 0.04437221
000260 8d ef 20 bd ef 30 b1 3c 06 3f 81 3b 99 e1 03 ba
       -0.039290953 0.021629779 0.0039442806 -0.000503087
000270 c1 41 33 bd fa b3 04 3b 1e f0 74 3c bf f6 ff 3b
       -0.04376388 0.0020248876 0.0149498265 0.007811397
000280 18 ac 5d 3d a3 2f 78 bc d4 3d 63 3d 76 f9 78 3d
       0.0541192 -0.015148076 0.055478886 0.06078478
000290 21 b8 27 3d 55 e3 b3 bc 7c 8e 8f ba 5a 2f 6f bc
       0.040947083 -0.021958986 -0.0010952498 -0.014598692
0002a0 1f a9 b2 bd 0f e1 4c 3d 85 1b 5d 3d b9 c1 32 bc
       -0.087236635 0.05001932 0.053981323 -0.010910445
0002b0 41 2a 59 bc ef cf 35 bd 01 76 dd bc 46 0b 8e 3c
       -0.013254703 -0.044387754 -0.027033808 0.01733936
0002c0 8c 14 1a 3c 8e 1d 5c bd ef f5 07 3b 6b 95 85 bc
       0.009404313 -0.053739123 0.0020745953 -0.0163066
0002d0 fd 8b c0 3c fc f7 a8 bc 07 29 97 3d 36 a9 2d bd
       0.023504252 -0.02062606 0.07380872 -0.0423977
0002e0 14 c1 18 3d 24 ad 84 3d 11 cc 30 bc 5f e4 a6 3b
       0.03729351 0.064783365 -0.010790841 0.005093142
0002f0 d5 55 4a bd 3d 05 ec 3b a2 ba 56 3d 87 96 cd bb
       -0.049398262 0.007202773 0.05242408 -0.006274048
000300 e2 23 e1 3c ca 09 02 bd 23 59 31 3b 1b 78 c9 bc
       0.02748293 -0.031747617 0.0027061186 -0.024593404
000310 02 e9 3f bd 33 77 49 bc 0b ca 95 bc d0 9c 8e 3b
       -0.046853073 -0.012296486 -0.018284818 0.0043521896
000320 78 a5 70 3d d1 96 70 3d 6f 70 53 3d 7a 74 33 bc
       0.058751553 0.05873758 0.051620897 -0.010953063
000330 07 c1 76 bd 60 7f 94 3c d2 56 5a bd 2a 43 5b bd
       -0.06024268 0.018127143 -0.053305455 -0.05353085
000340 f3 f9 2e 3b 20 23 92 3b 60 dd cc bc 68 20 b1 bc
       0.0026699274 0.0044597536 -0.025007904 -0.021621898
000350 2f 72 df bb 53 30 fd 3c 0e 8c f1 39 29 c5 a3 3d
       -0.0068190317 0.030906832 0.0004607145 0.0799659
000360 f8 3e a7 3d 9c 04 ba bd 86 7f eb bc e4 7f b5 b9
       0.08166307 -0.090829104 -0.028747331 -0.00034618296
000370 c6 e7 6f 3d 04 1f 13 bc 0a b7 85 bd 38 1a 1d 3d
       0.058570646 -0.008979563 -0.065290526 0.038355082
000380 e6 8a 0b bd 61 b0 9d 3d fc e4 33 bc 63 3b 25 bd
       -0.03406801 0.07699657 -0.010979887 -0.04033984
000390 e4 a8 7f bd db 47 42 3d b5 e0 d6 3b a5 b7 96 3c
       -0.062416926 0.047431808 0.006557549 0.018398115
0003a0 d6 0b 86 3c f8 e5 10 bc 0d 26 67 bc f7 35 0e bd
       0.016363066 -0.008843891 -0.014108193 -0.034719434
0003b0 52 86 2b 3c 6b d5 35 3d f6 e9 26 3d 68 2d 1b bd
       0.010469036 0.044392984 0.040750466 -0.0378851
0003c0 bd 61 75 bd 59 af 81 ba 27 72 cf bb 9b 28 30 ba
       -0.059907664 -0.0009894177 -0.0063307467 -0.0006719918
0003d0 c1 08 8b 3c b6 df f2 3c cd e1 61 bc e2 e0 17 3d
       0.016971948 0.02964769 -0.013786745 0.0370797
0003e0 a2 22 93 3c 56 2f af bd 67 89 72 3c b0 94 a1 bc
       0.01796085 -0.085539505 0.014803267 -0.01972422
0003f0 c6 12 14 3c 19 f5 09 3c a7 42 62 3d 02 28 14 3d
       0.009037679 0.008420252 0.055239346 0.036170967

encoder.3.0.bias f4 [36]
000000 37 a2 c0 bd 72 64 7b bc 06 c3 60 3c c1 c8 80 3c
       -0.0940594 -0.015343772 0.013718372 0.015720727
000010 22 5a bf 3d ce 46 01 3d d6 6e 83 bd 2a c7 4a 3d
       0.09343363 0.031561665 -0.06417625 0.049506344
000020 9c 57 a9 3c 92 5b f6 3c 66 5c 27 3c f9 f8 cd bb
       0.020671658 0.030072961 0.010214901 -0.0062857834
000030 8f e5 73 3b 8d 6d 61 3c ce 3e d9 bd fa a1 b7 bd
       0.0037215685 0.013759029 -0.10607682 -0.089664415
000040 15 56 7b 3d 94 16 33 bd f8 89 30 3d 01 48 8f bc
       0.06136139 -0.043722704 0.043100327 -0.017490389
000050 53 c0 cd bc 7e ab 63 3c fc fb 3e 3c b1 6b 89 3d
       -0.025116121 0.013895867 0.011656757 0.06709994
000060 5d 52 3e bd 4a 96 99 3b 9c e9 45 bd 7f be 92 3c
       -0.046465266 0.0046871053 -0.04831849 0.017913101
000070 4d f4 78 3c 29 44 06 3c 88 03 ef 3c 3d c3 62 bd
       0.015194965 0.008194962 0.029176489 -0.055361975
000080 34 ad 06 bc e3 44 25 be 07 9d 27 3b 2c 46 2b be
       -0.008220006 -0.1613956 0.0025575773 -0.16725987

encoder.3.1.weight f4 [36]
000000 eb 1f 7e 3f 38 c3 59 3f 95 bf 6d 3f 08 89 1a 3f
       0.9926745 0.85063505 0.92870456 0.60365343
000010 b7 56 56 3f 73 ed 42 3f 0d 84 39 3f 4a 97 3e 3f
       0.83726066 0.7614357 0.7246712 0.744496
000020 50 d0 4d 3f 65 67 59 3f d6 31 49 3f b9 70 6f 3f
       0.80395985 0.8492339 0.7859167 0.93531376
000030 e2 14 31 3f 59 ef 1b 3f 26 fa 4d 3f 67 d4 22 3f
       0.6917249 0.6091209 0.8045982 0.6360535
000040 40 57 47 3f 7a 58 5e 3f 75 ce 46 3f ed 0a fd 3e
       0.7786751 0.86853755 0.7765878 0.49422398
000050 40 46 69 3f b9 ce 5c 3f e7 be 63 3f d9 f3 33 3f
       0.9112282 0.86252934 0.8896317 0.70293957
000060 0e 58 6f 3f e2 17 3a 3f 9d f0 27 3f 59 3c 68 3f
       0.93493736 0.7269269 0.6560152 0.90717083
000070 b0 26 54 3f c8 5c 26 3f 0c 95 2f 3f 64 e2 7a 3f
       0.8287153 0.6498532 0.685868 0.98001695
000080 79 ca 61 3f 2f 41 7d 3f 2b 18 59 3f b6 aa 5d 3f
       0.88199574 0.9892759 0.848025 0.8658861

encoder.3.1.bias f4 [36]
000000 50 cc 83 bd da 5a c1 bc 69 e3 96 bc eb 65 09 bd
       -0.06435454 -0.023602892 -0.018418984 -0.033544462
000010 a2 fd ee 3c a3 91 40 3d 5b 4a 14 3b cb cd 84 3c
       0.029173676 0.04701389 0.0022627327 0.016211411
000020 af 6c 02 bd 9a 67 5a bb 10 14 8e bc 32 71 ff bc
       -0.03184193 -0.0033325911 -0.01734355 -0.031181905
000030 6b 28 db bc a6 b9 66 bd 70 59 a1 bd 4a 44 8c bd
       -0.026752671 -0.056329392 -0.07878387 -0.068489626
000040 8c 00 b8 3c 0a db 5b bd 80 f2 9f bc b8 7d ee 3a
       0.022461198 -0.05367569 -0.019524813 0.0018195426
000050 65 88 68 bd a1 01 dd bc cc 12 6f bd 7c 07 85 3c
       -0.0567707 -0.026978316 -0.058367535 0.01623892
000060 3f d3 b8 bc 75 10 5a bc 30 24 22 ba a6 9a 9c bb
       -0.022561667 -0.013309588 -0.0006185202 -0.0047791777
000070 1d c0 8b bc e0 7c a1 bc 71 c3 4f 3c 01 95 2d bd
       -0.01705938 -0.019712865 0.012680874 -0.04237843
000080 40 36 7e bd 96 32 31 be c7 25 84 3b f6 99 0b be
       -0.062063456 -0.17304453 0.0040328237 -0.1363295

encoder.3.1.running_mean f4 [36]
000000 41 35 dd 3d 78 03 9a be e3 f5 6c 3e 38 cd 52 3e
       0.10801173 -0.3008077 0.23140673 0.20586097
000010 a4 73 0d 3d c7 28 09 3d bc 50 61 be aa 3b 01 3e
       0.03453411 0.033486154 -0.22003454 0.12620416
000020 90 9e 68 3c 5f 82 88 3d 77 ba 09 3e 7d 60 cc bd
       0.0141979605 0.06665491 0.13450037 -0.09979341
000030 70 89 c7 bc 7b c1 d0 3c 11 32 63 bc 01 9f 90 bd
       -0.024357527 0.025482884 -0.013866917 -0.070615776
000040 ae 71 18 3d b5 92 0d 3d 5b 01 4f bd 7e 3f 2d 3b
       0.03721779 0.03456374 -0.050538402 0.002643555
000050 95 ed a3 bd 96 7d f3 3c 6a 2b 68 3d a5 e4 6e 3d
       -0.080042996 0.02972297 0.056682028 0.05832352
000060 69 73 95 ba 6c e8 7a bc 4f 79 d6 bd 40 15 ca bd
       -0.0011402193 -0.015314203 -0.104723565 -0.09867334
000070 a9 6a d7 3c 1c 31 84 bc 4b aa 7d bc 91 ff 6e be
       0.026295977 -0.016136698 -0.015482496 -0.23339678
000080 9f 12 85 3e 6d a3 43 bd f4 6f ed 3c 53 45 ea bc
       0.2599077 -0.047763277 0.028984047 -0.02859751

encoder.3.1.running_var f4 [36]
000000 a0 95 11 3e ec a5 d3 3f 19 99 22 3f 07 37 81 3e
       0.14217234 1.653501 0.6351486 0.25237295
000010 a2 d6 8a 3f a3 b9 7b 3f f7 30 48 3f fa de 87 3f
       1.0846751 0.98330134 0.78199714 1.0614922
000020 68 c7 68 3f 91 77 17 3f ca 22 02 40 fd 70 9e 3f
       0.9092927 0.5916682 2.0333734 1.2378231
000030 0c ad 70 3f 96 ec 28 3e f9 cd 87 3f 12 c4 1b 3f
       0.9401405 0.164965 1.0609733 0.60846055
000040 ed 9e 69 3f e0 3f a7 3f 03 09 a6 3f 34 3f 77 3e
       0.91258126 1.3066368 1.29715 0.24145204
000050 53 c2 12 3f 1f 71 8c 3e 21 cf 2c 3f 9f 14 c8 3f
       0.57327765 0.27430055 0.67503554 1.5631293
000060 aa c2 d9 3f 0e 11 72 3f 83 80 7f 3f 8b 72 03 40
       1.7012532 0.94557273 0.9980547 2.0538661
000070 c0 5a d0 3f 9d 35 49 3f 87 81 74 3f 1c fd 3f 3f
       1.6277695 0.7859743 0.95510143 0.7499559
000080 2e 42 85 3e 90 bf 6c 3d fd 4c b0 3e 2c 08 d1 3e
       0.26027054 0.057799876 0.34433737 0.40826547
