trained_models/7ECD:7D12:CCDF:ACB6.pt (torch, 31611 bytes, 12 tensors)

encoder.0.weight f4 [18, 36, 5]
0.042632774 -0.12364723 0.024484646 0.020530246 0.06718129 -0.010285311 -0.21360552 -0.146547
0.028222809 0.032480307 -0.014006261 0.101708174 -0.03908498 0.051962446 0.034431633 0.05534555
0.012305234 -0.143327 -0.015416339 -0.053089995 0.10080597 0.034555178 -0.050418496 -0.04286421
0.0038506882 -0.06840646 0.0060220594 -0.04683724 -0.005596519 -0.0058695497 0.068035536 -0.01518904
-0.061990134 -0.013654796 0.020567236 0.06173292 0.006501929 -0.060170982 -0.02832225 -0.0687293
0.08587442 0.0106586665 -0.074260816 -0.056488864 -0.107204124 -0.016008848 0.028747283 -0.09035878
-0.055012353 -0.12690541 -0.03841095 0.011067295 -0.002094444 -0.044418003 -0.034978144 -0.026839199
0.014902499 -0.047163416 0.031816304 -0.02397923 -0.04010198 -0.016806198 -0.03887474 -0.038576804
-0.07016537 0.041242756 0.030653935 -0.011859344 -0.070209384 -0.07720958 0.031946536 -0.0019227808
0.34762377 0.022913223 0.08103324 0.0028523202 0.047498517 0.06795288 0.07686495 0.008387399
0.0416986 0.0009302404 0.15101415 0.1767958 0.10692628 0.099228136 -0.123393334 -0.012023773
0.15443476 0.011031274 0.029720308 -0.09946196 -0.01308674 0.101603545 0.01773694 0.018139848
-0.02844901 0.033691328 -0.03186645 -0.008262368 0.024872819 0.012322789 -0.07246377 -0.0043784035
0.029516723 0.03994867 0.039495766 0.037079733 -0.05060927 -0.05603643 -0.01190389 0.0607517
0.047141414 -0.077861086 -0.07126113 -0.041707225 -0.03397812 -0.025599075 -0.006186499 0.0064353063
-0.018138722 -0.041242715 -0.006550712 -0.065317355 -0.050409902 -0.010537208 -0.06186806 -0.061948206
-0.071778536 -0.08015922 0.051070023 -0.03286376 -0.030694092 -0.057508517 -0.04982121 0.017127927
-0.053597137 -0.0013269542 -0.058652338 -0.07994288 -0.007494118 -0.025954003 -0.052382123 -0.052698925
-0.06315355 0.042657994 -0.06456831 -0.062179666 -0.00047647316 -0.0042508845 -0.00708954 0.03332108
0.027379138 -0.03259068 -0.068267435 0.028673371 -0.022688985 -0.019020755 -0.01903383 -0.019952392
0.10139494 0.027743101 0.051997535 0.0155368205 0.038216304 -0.039554343 -0.03857236 -0.017732825
-0.056416906 0.010888025 0.036580734 0.03599795 -0.009713794 0.04813601 -0.019063799 0.075551584
-0.020630175 0.026015539 0.06873499 0.05965384 0.09352133 -0.019340675 -0.14100963 -0.16481672
-0.115436755 0.09807936 0.12400243 -0.12187249 -0.12014917 -0.12015521 -0.052072454 0.016837118
-0.10856562 -0.13911873 -0.084308416 0.1506411 0.05889032 0.019300915 -0.030309794 -0.026333481
0.18247548 0.09738362 -0.01416113 0.0047547743 -0.00097214855 0.09279786 0.09600227 -0.022763632
0.08047417 0.10746579 0.16350962 0.1137929 0.09931557 0.073519155 0.06925965 0.19456074
0.07391816 0.021311793 0.050038293 -0.021982567 0.12385611 0.047802646 0.028406039 0.027211409
0.018880816 0.114001915 0.081739835 0.037829265 0.06644413 0.08974254 0.10949453 0.040028457
0.024409246 0.047599092 -0.024517793 0.11959519 0.03724602 -0.008988289 0.057513274 0.08207933
0.12884285 0.073843054 0.026528027 0.07883257 0.004673086 0.1116934 0.047922138 -0.04543489
-0.052627385 0.040647395 -0.08116602 -0.026003193 -0.09706589 -0.09419035 -0.1876433 -0.09423929
00000000: b49f 2e3d c23a fdbd 0694 c83c 0c2f a83c
00000010: 5896 893d b983 28bc 68bb 5abe 6b10 16be
00000020: 8533 e73c 120a 053d 847a 65bc 604c d03d
00000030: 9217 20bd 93d6 543d 2f08 0d3d 04b2 623d
00000040: e49b 493c 50c4 12be d094 7cbc e574 59bd
00000050: 5c73 ce3d bb89 0d3d a083 4ebd 6292 2fbd
00000060: d45b 7c3b b018 8cbd b254 c53b 68d8 3fbd
00000070: 0163 b7bb 5a55 c0bb 3756 8b3d 74db 78bc
00000080: 5ee9 7dbd 5eb8 5fbc 9f7c a83c a9db 7c3d
00000090: 220e d53b d975 76bd 1004 e8bc f2c1 8cbd
000000a0: eede af3d b0a1 2e3c 0e16 98bd de60 67bd
000000b0: d68d dbbd fd24 83bc 6c7f eb3c 060e b9bd
000000c0: a254 61bd 7ef3 01be cd54 1dbd 9a53 353c
000000d0: f042 09bb a7ef 35bd 3e45 0fbd e1dd dbbc
000000e0: 9c29 743c 6d2e 41bd d051 023d 1770 c4bc
000000f0: f941 24bd 27ad 89bc 1f3b 1fbd b602 1ebd
00000100: ddb2 8fbd 2aee 283d f61d fb3c b24d 42bc
00000110: f0c9 8fbd 0e20 9ebd 5fda 023d d105 fcba
00000120: befb b13e 83b4 bb3c c1f4 a53d feed 3a3b
00000130: ce8d 423d e12a 8b3d 5f6b 9d3d 4d6b 093c
00000140: 27cc 2a3d 60db 733a 74a3 1a3e f509 353e
00000150: 2afc da3d 1f38 cb3d a5b5 fcbd 5cff 44bc
00000160: 2524 1e3e 84bc 343c 0178 f33c b6b2 cbbd
00000170: c469 56bc 8515 d03d 0f4d 913c 059a 943c
00000180: e60d e9bc ebff 093d 6586 02bd e25e 07bc
00000190: 15c2 cb3c 86e5 493c e367 94bd b678 8fbb
000001a0: 0ecd f13c 37a1 233d 50c6 213d ebe0 173d
000001b0: aa4b 4fbd 7586 65bd 8908 43bc c6d6 783d
000001c0: 5b17 413d a275 9fbd 5bf1 91bd 32d5 2abd
000001d0: a42c 0bbd 27b5 d1bc 1db8 cabb 43df d23b
000001e0: a897 94bc 1fee 28bd 5ba7 d6bb 1bc5 85bd
000001f0: 9d7a 4ebd 41a4 2cbc 5d69 7dbd 67bd 7dbd
00000200: a000 93bd 842a a4bd cd2e 513d 269c 06bd
00000210: 2d72 fbbc 0d8e 6bbd 5311 4cbd de4f 8c3c
00000220: ac88 5bbd 32ed adba 6f3d 70bd 18b9 a3bd
00000230: 3891 f5bb 7d9d d4bc a38e 56bd d4da 57bd
00000240: a656 81bd 26ba 2e3d 643c 84bd 1bb0 7ebd
00000250: 25cf f9b9 014b 8bbb 5f4f e8bb af7b 083d
00000260: 374a e03c ce7d 05bd cccf 8bbd 6be4 ea3c
00000270: 40de b9bc 6ad1 9bbc d6ec 9bbc 3373 a3bc
00000280: 26a8 cf3d 8045 e33c 5efb 543d 268e 7e3c
00000290: b388 1c3d bc03 22bd 0dfe 1dbd 6e44 91bc
000002a0: 6a15 67bd b063 323c aed5 153d 9672 133d
000002b0: 9b26 1fbc 442a 453d af2b 9cbc caba 9a3d
000002c0: 9d00 a9bc 8a1e d53c eec4 8c3d 9657 743d
000002d0: 1c88 bf3d 5670 9ebc d464 10be b7c5 28be
000002e0: 1b6a ecbd d5dd c83d fcf4 fd3d 4998 f9bd
000002f0: c510 f6bd ef13 f6bd ed49 55bd ffed 893c
00000300: a757 debd 2475 0ebe e4a9 acbd a941 1a3e
00000310: fa36 713d f41c 9e3c 3f4c f8bc 50b9 d7bc
00000320: dada 3a3e 1071 c73d 1604 68bc f0cd 9b3b
00000330: c9d7 7eba ce0c be3d d79c c43d cc7a babc
00000340: a4cf a43d 0617 dc3d 116f 273e 410c e93d
00000350: f665 cb3d 3691 963d 01d8 8d3d ee3a 473e
00000360: 6762 973d 1296 ae3c f4f4 4c3d c914 b4bc
00000370: 46a8 fd3d b5cc 433d c8b3 e83c 76ea de3c
00000380: f1ab 9a3c d679 e93d 3767 a73d dcf2 1a3d
00000390: dc13 883d f0ca b73d ab3e e03d e1f4 233d
000003a0: e6f5 c73c 44f7 423d 8ad9 c8bc 53ee f43d
000003b0: 488f 183d 9e43 13bc 0a93 6b3d 3519 a83d
000003c0: 61ef 033e 073b 973d 4e51 d93c f872 a13d
000003d0: b020 993b 82bf e43d 014a 443d ef19 3abd
000003e0: d08f 57bd e27d 263d 5f3a a6bd a604 d5bc
000003f0: 7bca c6bd dfe6 c0bd 9125 40be 8700 c1bd

encoder.0.bias f4 [18]
-0.008440768 -0.047796834 0.006024188 0.01545931 -0.017769085 -0.13050285 -0.12678051 -0.047130615
-0.07328093 -0.04819978 -0.10008368 -0.10010618 0.09277359 -0.04972181 0.016700543 -0.12022237
0.053212103 -0.08737635
00000000: 264b 0abc 9dc6 43bd 8d66 c53b 0c49 7d3c
00000010: 7990 91bc 8aa2 05be c0d2 01be 080c 41bd
00000020: 5014 96bd 226d 45bd acf8 ccbd 7804 cdbd
00000030: 1400 be3d 19a9 4bbd 94cf 883c 2537 f6bd
00000040: eff4 593d 5ff2 b2bd

encoder.1.weight f4 [18]
0.33327705 0.4699944 0.32274953 0.6734639 1.0599865 0.998879 0.20008127 0.95741355
1.01289 0.5533385 0.50573266 0.47605726 0.39110443 1.0491451 0.87860733 0.96015805
0.49053055 0.95285064
00000000: 4aa3 aa3e 1ba3 f03e 6d3f a53e 2168 2c3f
00000010: a3ad 873f 89b6 7f3f 1be2 4c3e 0e19 753f
00000020: 61a6 813f 98a7 0d3f b277 013f c7bd f33e
00000030: d73e c83e 634a 863f 69ec 603f ebcc 753f
00000040: d226 fb3e 05ee 733f

encoder.1.bias f4 [18]
0.038212035 -0.1653335 -0.02431311 -0.046582505 -0.09421574 -0.13108747 -0.19599208 -0.13403279
-0.12650616 -0.091630444 -0.1140134 -0.10273582 0.070899084 -0.11733696 -0.07372911 -0.14265741
-0.054237183 -0.13037667
00000000: 3984 1c3d 2f4d 29be 4a2c c7bc 4ccd 3ebd
00000010: 2ff4 c0bd cb3b 06be 26b2 48be e43f 09be
00000020: d58a 01be bea8 bbbd dc7f e9bd 2867 d2bd
00000030: 8a33 913d 5c4e f0bd 4aff 96bd c914 12be
00000040: cf27 5ebd 7681 05be

encoder.1.running_mean f4 [18]
1.7229168 -1.4532123 0.4766659 0.13669093 -0.10142041 -1.292627 -1.8041842 -1.8042432
-0.9910421 -0.5007564 -0.8206376 -0.4446614 1.7937448 -0.7071798 -0.17039357 -1.1622574
-0.24753857 -0.5089896
00000000: 8a88 dc3f dc02 babf 8e0d f43e b5f8 0b3e
00000010: 81b5 cfbd cd74 a5bf 82ef e6bf 71f1 e6bf
00000020: efb4 7dbf 9231 00bf 4e15 52bf a9aa e3be
00000030: 6e99 e53f bc09 35bf a77b 2ebe dac4 94bf
00000040: c07a 7dbe 244d 02bf

encoder.1.running_var f4 [18]
0.0030476481 0.0032452692 0.0016247954 0.0013449107 0.0014885748 0.0015525371 0.0028141537 0.0028794333
0.002277509 0.0025077718 0.0021210494 0.0017336376 0.003909512 0.0019330748 0.0009672809 0.0023269532
0.0014686793 0.0017339723
00000000: 0dbb 473b 95ae 543b 16f7 d43a b747 b03a
00000010: 481c c33a 807e cb3a aa6d 383b e0b4 3c3b
00000020: 4342 153b 6e59 243b 4e01 0b3b 3a3b e33a
00000030: 5d1b 803b 3a5f fd3a 1f91 7d3a cc7f 183b
00000040: b380 c03a 7546 e33a

decoder.0.weight f4 [18, 36, 5]
0.03615816 -0.08462743 0.03422056 -0.015441741 0.030108508 0.0014441457 -0.1482823 -0.11178853
0.027955092 0.019147594 -0.027408239 0.057071112 -0.044383086 0.0080361 0.0059778155 0.04030154
-0.0035027312 -0.14981383 0.004742164 -0.026124232 0.051589783 0.0012449287 -0.04961663 -0.027079334
-0.0071592927 -0.065710925 -0.015282228 -0.05134987 -0.00041479865 -0.016252268 0.043214776 -0.018520374
-0.06202485 -0.0064446586 0.012449662 0.03865503 -0.003622424 -0.06476092 -0.017550632 -0.07669028
0.058244307 -0.010855861 -0.056789383 -0.0043112463 -0.05423892 -0.02748646 0.034883775 -0.07525721
-0.006294442 -0.11330476 -0.053711776 -0.01510055 -0.008394323 -0.024207665 0.0021404244 -0.0145335505
0.024345445 -0.046214685 0.029411023 -0.03192532 -0.015457365 -0.007138309 -0.019732602 -0.021696934
-0.056978915 0.0021113341 -0.0059111244 -0.004180818 -0.047418565 -0.04926817 -0.008274055 -0.048786286
0.10123725 -0.035310213 0.00746461 0.009834833 -0.005808485 0.007243594 -0.0026366056 -0.03476031
0.016749823 -0.019717101 0.054761406 0.063661 -0.010178627 0.055107947 -0.068034016 -0.023672977
0.049026076 -0.040531803 0.025976574 -0.08051882 -0.026856702 0.060837086 -0.009905033 -0.0048059993
-0.011259666 0.015336055 -0.024513448 -0.007619126 0.01503203 0.015874261 -0.04279982 -0.0038116684
0.018432382 0.007038812 0.0055668815 0.016080534 -0.028897591 -0.022572855 -0.041069347 0.049476035
0.0706503 -0.04917887 -0.052230563 -0.06262081 -0.017144391 -0.008523554 -0.01923144 0.010493955
-0.018720679 -0.02553547 0.037836775 -0.04683642 -0.039115865 -0.023542369 -0.039567206 -0.015013825
-0.01710031 -0.022798691 0.034945376 -0.021962041 -0.021958608 -0.0017745118 -0.041302726 0.0070742425
-0.04165736 0.014140995 -0.039179012 -0.04787489 0.015324218 -0.029122518 -0.033588525 -0.014708769
-0.022160938 0.028492838 -0.040452965 -0.036675766 0.0067428933 -0.0039135143 -0.011257535 0.014604242
0.01763965 -0.009188741 -0.044158604 -0.003729924 -0.027244093 0.014918716 -0.02461924 -0.01072418
0.021861477 0.0043672672 0.031206485 -0.00070227863 0.0018981452 -0.030560164 -0.023113163 0.004596924
-0.033280794 0.012589239 0.04431798 0.016524047 0.017962262 0.019996198 -0.015920239 0.09974103
-0.040628087 0.019438973 0.03387136 0.021838516 0.08346751 -0.023631578 -0.038183838 -0.01033291
-0.0003263053 0.07444905 0.020061584 -0.062006142 0.0132407425 0.016179381 0.079046145 -0.0075014
-0.04060444 -0.013406277 0.016882513 0.03394208 -0.025793979 -0.022598509 -0.025159596 0.029723655
0.056969196 -0.030518388 -0.049002375 0.02141925 -0.01214426 0.085068874 0.01669709 -0.05922824
-0.04400929 0.037848618 0.07923346 0.0058439374 -0.017925046 -0.035960358 0.068097614 0.076039605
-0.029104456 0.0089584 0.004325132 -0.032314662 -0.013757959 0.06306345 -0.054196343 0.01536232
0.0009383202 -0.0049049924 0.046523813 0.061536342 0.020566443 0.03456051 0.016521273 0.043276872
0.0005107376 -0.04092688 -0.055083543 0.048678007 0.0782096 -0.07446523 -0.058644515 0.010311792
-0.0040182155 0.037717752 -0.020194605 -0.045238186 0.037021995 0.041315407 0.032098595 -0.05037522
-0.025230987 0.044374693 0.05053894 -0.03794895 0.0082974555 -0.030351039 -0.0158875 0.0077916165
00000000: 941a 143d 2551 adbd dc2a 0c3d 5bff 7cbc
00000010: 1ea6 f63c 7d49 bd3a 51d7 17be 63f1 e4bd
00000020: 1402 e53c 6adb 9c3c 3e87 e0bc 66c3 693d
00000030: 0acb 35bd d9a9 033c 8de1 c33b 3a13 253d
00000040: 148e 65bb cc68 19be 2864 9b3b 7c02 d6bc
00000050: cf4f 533d e02c a33a cf3a 4bbd 7bd5 ddbc
00000060: 8098 eabb 7393 86bd 4f62 7abc 3e54 52bd
00000070: 5579 d9b9 7a23 85bc fa01 313d 0ab8 97bc
00000080: c50d 7ebd b72d d3bb abf9 4b3c bd54 1e3d
00000090: 3166 6dbb 60a1 84bd 58c6 8fbc cb0f 9dbd
000000a0: 9591 6e3d c8dc 31bc fc9b 68bd 5b45 8dbb
000000b0: a129 5ebd 492b e1bc 4ae2 0e3d 7420 9abd
000000c0: 9b41 cebb 530c e8bd e100 5cbd 4c68 77bc
000000d0: 5888 09bc 274f c6bc 5d46 0c3b 211e 6ebc
000000e0: 1970 c73c 9c4b 3dbd 63ef f03c 20c4 02bd
000000f0: e340 7dbc 7ae8 e9bb 44a6 a1bc c5bd b1bc
00000100: b962 69bd 4f5e 0a3b 1bb2 c1bb 3eff 88bb
00000110: f839 42bd 6ccd 49bd e78f 07bc 21d4 47bd
00000120: 7a55 cf3d 71a1 10bd b099 f43b 4822 213c
00000130: 1b55 bebb ac5b ed3b e7ca 2cbb d460 0ebd
00000140: ed36 893c c285 a1bc 7f4d 603d b360 823d
00000150: 42c4 26bc dfb8 613d 6b55 8bbd d5ed c1bc
00000160: 91cf 483d ad04 26bd d3cc d43c 0de7 a4bd
00000170: 9602 dcbc 4f30 793d b848 22bc a57b 9dbb
00000180: 767a 38bc 1444 7b3c 6dd0 c8bc dca9 f9bb
00000190: e748 763c bd0a 823c dd4e 2fbd 2fcd 79bb
000001a0: 82ff 963c d6a5 e63b 636a b63b 53bb 833c
000001b0: a4ba ecbc b5ea b8bc 5538 28bd 62a7 4a3d
000001c0: 1bb1 903d c86f 49bd b7ef 55bd 573f 80bd
000001d0: 6572 8cbc 60a6 0bbc 418b 9dbc d6ee 2b3c
000001e0: 1c5c 99bc c32f d1bc bcfa 1a3d 8cd7 3fbd
000001f0: f537 20bd eddb c0bc 3911 22bd 8cfc 75bc
00000200: f315 8cbc 52c4 babc e222 0f3d bde9 b3bc
00000210: 8ae2 b3bc bc96 e8ba 0c2d 29bd 0ccf e73b
00000220: e8a0 2abd a2af 673c 2c7a 20bd 7618 44bd
00000230: 6e12 7b3c 5992 eebc 1f94 09bd 0cfd 70bc
00000240: db8a b5bc d069 e93c 02b2 25bd 5439 16bd
00000250: 7df3 dc3b f03c 80bb 8671 38bc a146 6f3c
00000260: 0781 903c 608c 16bc a7df 34bd be71 74bb
00000270: 012f dfbc a16d 743c 4aae c9bc 79b4 2fbc
00000280: d716 b33c 4b1b 8f3b bea4 ff3c 1f19 38ba
00000290: 2fcb f83a 4f59 fabc d157 bdbc cba1 963b
000002a0: 7151 08bd 1843 4e3c c586 353d 705d 873c
000002b0: 9825 933c 11cf a33c 296b 82bc 0645 cc3d
000002c0: a369 26bd 7b3e 9f3c b2bc 0a3d b0e6 b23c
000002d0: 04f1 aa3d 0397 c1bc a866 1cbd 5e4b 29bc
000002e0: f513 abb9 be78 983d 3158 a43c 27fa 7dbd
000002f0: b3ef 583c 9f8a 843c f2e2 a13d 4ece f5bb
00000300: d750 26bd 00a6 5bbc 324d 8a3c da06 0b3d
00000310: e54d d3bc 8220 b9bc 7f1b cebc 067f f33c
00000320: 8858 693d b301 fabc b7b6 48bd 6c77 af3c
00000330: b8f8 46bc 9738 ae3d 56c8 883c 5099 72bd
00000340: 1643 34bd 2707 1b3d 2745 a23d 807e bf3b
00000350: 8cd7 92bc 2b4b 13bd c376 8b3d a7ba 9b3d
00000360: 786c eebc 41c6 123c d6b9 8d3b 615c 04bd
00000370: 1069 61bc 6927 813d fcfc 5dbd 3db2 7b3c
00000380: 9af9 753a 0fba a0bb c18f 3e3d 880d 7c3d
00000390: f57a a83c 528f 0d3d 9f57 873c 1743 313d
000003a0: 05e3 053a f2a2 27bd 489f 61bd 9762 473d
000003b0: 5b2c a03d 3a81 98bd 3b35 70bd caf2 283c
000003c0: 3cab 83bb ee7d 1a3d 286f a5bc ad4b 39bd
000003d0: 60a4 173d 583a 293d d179 033d 3f56 4ebd
000003e0: 37b1 cebc 3dc2 353d eb01 4f3d 5c70 1bbd
000003f0: 0df2 073c bea2 f8bc 8126 82bc d150 ff3b

decoder.0.bias f4 [36]
-0.058060396 -0.0923283 0.014903719 -0.050603162 -0.062380247 -0.12069846 -0.015864177 -0.0099401865
-0.031515304 -0.113198794 -0.09510134 -0.032887813 -0.055730987 -0.0673969 0.083795495 0.035041206
0.088184625 -0.03033302 0.028387375 -0.085369445 0.024754094 -0.110858664 -0.12011243 -0.09637385
-0.028028486 -0.03181999 -0.12722844 -0.120213866 -0.063060425 -0.08851076 -0.107450716 -0.045787398
-0.05847567 -0.0919871 -0.06282013 0.028573364
00000000: bdd0 6dbd 9f16 bdbd ba2e 743c 4345 4fbd
00000010: 6e82 7fbd c130 f7bd 97f5 81bc 2adc 22bc
00000020: 3116 01bd c5d4 e7bd 7ec4 c2bd 5fb5 06bd
00000030: 2d46 64bd 6307 8abd f99c ab3d 5e87 0f3d
00000040: 249a b43d f47c f8bc a48c e83c 2dd6 aebd
00000050: 19c9 ca3c de09 e3bd 81fd f5bd a75f c5bd
00000060: ff9b e5bc ae55 02bd 2c48 02be b032 f6bd
00000070: d325 81bd 2145 b5bd 1f0f dcbd 918b 3bbd
00000080: 2f84 6fbd bc63 bcbd d7a7 80bd b012 ea3c

decoder.1.weight f4 [36]
0.48913538 0.47644627 0.5127575 0.666031 0.67619574 0.67205536 0.63467 0.67058843
0.7428357 0.7528637 0.7621864 0.69305694 0.7544356 0.67374617 0.7255594 0.92117125
0.37524667 0.35611522 0.5249898 0.5701204 0.6063664 0.66141367 0.7397139 0.7804393
0.7908797 0.7929676 0.752717 0.7105098 0.7646549 0.73460054 0.70262825 0.68736655
0.6447334 0.6814687 0.6195812 0.4872417
00000000: f46f fa3e c4f0 f33e 1344 033f 0281 2a3f
00000010: 2a1b 2d3f d20b 2c3f bc79 223f afab 2b3f
00000020: 7b2a 3e3f adbb 403f a61e 433f 2e6c 313f
00000030: b122 413f a17a 2c3f 43be 393f e1d1 6b3f
00000040: 5520 c03e bc54 b63e bb65 063f 69f3 113f
00000050: d43a 1b3f 6852 293f e45d 3d3f dfca 473f
00000060: 1877 4a3f edff 4a3f 10b2 403f f8e3 353f
00000070: 6cc0 433f c80e 3c3f 72df 333f 41f7 2f3f
00000080: 400d 253f bc74 2e3f e09c 1e3f be77 f93e

decoder.1.bias f4 [36]
-0.079288155 -0.08569717 -0.08840841 -0.0786157 -0.10174541 -0.118032604 -0.12506689 -0.11509283
-0.11680264 -0.11726431 -0.09755807 -0.10935982 -0.10873471 -0.10391717 0.08374078 0.100412115
0.0623112 -0.06726413 -0.074289076 -0.08998152 -0.09313225 -0.11036442 -0.108763166 -0.09489708
-0.08952001 -0.11981924 -0.1156032 -0.107275836 -0.11442508 -0.108747296 -0.11506444 -0.120998494
-0.11119548 -0.104589276 -0.09737273 -0.08548868
00000000: d461 a2bd ff81 afbd 780f b5bd 4501 a1bd
00000010: e65f d0bd 14bb f1bd 8911 00be cab5 ebbd
00000020: 3936 efbd 4528 f0bd 87cc c7bd 0bf8 dfbd
00000030: 4eb0 debd 86d2 d4bd 4980 ab3d dea4 cd3d
00000040: 073a 7f3d c7c1 89bd df24 98bd 3b48 b8bd
00000050: 1fbc bebd be06 e2bd 39bf debd 6659 c2bd
00000060: 4456 b7bd ca63 f5bd 5fc1 ecbd 6fb3 dbbd
00000070: b257 eabd e7b6 debd e8a6 ebbd 0fce f7bd
00000080: 75ba e3bd e732 d6bd 5b6b c7bd b014 afbd

decoder.1.running_mean f4 [36]
-0.040556043 -0.06696016 0.03643853 -0.08887395 -0.008160964 -0.04136831 0.06053429 0.048053697
0.030127868 -0.05130644 -0.10750307 0.018865036 -0.0048079854 -0.03143787 0.10686891 0.055305198
0.114000954 -0.028903352 0.048866868 -0.053007465 0.061862826 -0.051541 -0.06874398 -0.10459892
-0.053800702 0.009498582 -0.04786192 -0.055597253 -0.0038793671 -0.04765585 -0.058468573 0.0147353895
0.009542896 -0.044906598 -0.02669109 0.056317914
00000000: 181e 26bd 6922 89bd 9140 153d 8c03 b6bd
00000010: 90b5 05bc d171 29bd cef2 773d f4d3 443d
00000020: b8ce f63c b426 52bd 922a dcbd d98a 9a3c
00000030: 4e8c 9dbb ffc4 00bd 16de da3d b487 623d
00000040: 5579 e93d b9c6 ecbc a028 483d 5b1e 59bd
00000050: e063 7d3d a81c 53bd a5c9 8cbd f537 d6bd
00000060: 205e 5cbd f19f 1b3c dc0a 44bd f2b9 63bd
00000070: fb3c 7ebb c832 43bd be7c 6fbd b46c 713c
00000080: cf59 1c3c fbef 37bd 46a7 dabc 9dad 663d

decoder.1.running_var f4 [36]
0.703196 0.76527256 0.75135577 1.1593504 0.61156946 0.8321476 0.717258 1.0839481
0.71995974 0.9542707 0.99736667 0.6415701 0.5964553 0.6981206 0.72305566 1.0852104
1.0281428 0.55414844 0.96666527 0.89021826 0.7370497 0.66228896 0.93977076 0.7774803
1.0521592 0.658125 0.89803755 0.5577585 0.7253562 0.6376967 0.42207602 0.74501854
0.8462153 0.7615891 0.7647561 0.6887199
00000000: a704 343f e7e8 433f da58 403f 9865 943f
00000010: d18f 1c3f a007 553f 389e 373f d0be 8a3f
00000020: 484f 383f 164b 743f 6c53 7f3f f03d 243f
00000030: 4bb1 183f 08b8 323f 2d1a 393f 2de8 8a3f
00000040: 2f9a 833f acdc 0d3f 6077 773f 58e5 633f
00000050: 4aaf 3c3f c58b 293f d194 703f f308 473f
00000060: 27ad 863f e17a 283f cae5 653f 43c9 0e3f
00000070: f2b0 393f 1740 233f 591a d83e 89b9 3e3f
00000080: 91a1 583f 81f7 423f 0ec7 433f f34f 303f
