trained_models/8344:9D83:373D:B614.pt (torch, 289011 bytes, 60 tensors)

encoder.0.0.weight f4 [36, 36, 7]
-0.097074844 -0.14399189 -0.15343116 -0.19367321 -0.20607829 -0.18728587 -0.21039014 -0.06930716
-0.016123435 -0.009747506 -0.071718864 -0.023022693 -0.112117305 -0.11283723 0.036425874 -0.033471882
0.03777771 -0.0346439 0.047803946 0.0352806 -0.01154689 0.050111655 0.053685118 0.061079025
-0.005905705 -0.042899918 0.018210536 0.021756452 -0.008842111 -0.011785256 0.006326573 0.002732878
0.001368623 -0.044885807 0.004660593 0.0064473255 0.0049230605 0.034940537 -0.03333174 -0.04315985
0.014773088 -0.036803767 0.05467456 0.017905422 0.005979194 -0.046703015 -0.026009645 0.012122348
0.05500383 -0.011994944 -0.0071870056 0.02049707 -0.023408333 0.03516556 -0.04719046 0.021869497
0.0043921447 0.031081254 0.051453717 -0.0175068 0.015348246 0.024253452 0.0451765 0.061198186
-0.03592806 -0.01063878 -0.049189568 0.021073619 -0.039498135 -0.053964633 -0.02958917 -0.021785652
0.05431541 -0.035482425 -0.015664103 0.052780915 0.003254274 -0.032491684 0.008280644 -0.045384374
0.0021241847 -0.055647105 -0.032062102 -0.03506031 -0.055942934 -0.006302732 -0.048602827 -0.0003049268
-0.10290242 -0.0075033098 -0.024177428 -0.017311605 -0.02325017 -0.051708456 0.011412111 -0.03313109
-0.015810518 0.0143332835 -0.0020809963 0.044346247 0.050488275 -0.024905743 0.001457987 0.006255618
-0.059834477 0.020754533 0.018762415 0.047320083 -0.04221042 0.048055824 -0.0062482446 0.029874803
-0.021078365 -0.0125048505 0.032753546 -0.02277491 -0.017493684 0.03433112 0.040659815 0.065583736
0.06296524 0.06011871 -0.013742374 -0.026187755 0.0680152 -0.004636644 0.036321364 0.0597523
0.038765293 0.02969853 0.04335427 0.047064062 0.031933483 0.053375173 -0.00874252 -0.058897674
0.05016484 -0.023860253 -0.0037439705 0.021016978 0.05368725 0.00488517 0.007477378 0.066052586
-0.007523168 0.008198367 0.002700133 0.068918735 0.044752225 0.05860534 -0.00012649187 0.016007544
0.04451168 0.05574635 -0.009377945 0.066170804 -0.02069744 0.037367944 0.0012320451 0.015579121
-0.010869925 -0.039634958 0.052355457 0.02483004 -0.028677076 0.0052759717 0.051496997 -0.02972261
9.028918e-05 -0.02520768 0.07127224 0.063169 0.011161216 -0.010939415 -0.041098222 -0.0079160705
0.012709592 0.01733927 -0.032533538 0.009418802 0.0305593 0.025697172 0.066792555 0.030058013
0.07005435 -0.010551943 0.03030681 -0.0067719645 0.034926947 -0.039705213 0.04236951 0.02554275
-0.044532873 -0.04562994 0.023896841 0.05242917 -0.044859283 0.052590165 0.045788758 -0.008450577
0.0654295 0.014756811 0.0378341 0.07270006 0.019712068 0.082254924 -0.036223717 0.052048896
0.020276558 -0.014122727 0.06269013 0.039763052 0.030649137 0.015366842 0.04399486 0.045336176
0.0056819785 0.0294164 0.06061515 0.0690892 0.062899485 0.05745082 0.017250167 0.050162766
0.012501198 0.009408965 -0.0156811 -0.005423711 0.074436106 0.052392766 0.031525657 0.004772036
0.027407408 0.05778545 -0.024172598 0.050596535 0.04502162 0.05561758 0.019371774 0.0065772785
0.023402316 0.054932274 -0.040076323 -0.015200521 -0.027850926 -0.058521867 -0.06489371 -0.038586315
-0.03857412 -0.10348956 -0.03219086 -0.101740256 0.088318914 -0.1006439 -0.1186593 -0.14484206
00000000: 2dcf c6bd 9c72 13be 0f1d 1dbe 4552 46be
00000010: 3006 53be dec7 3fbe 8370 57be eaf0 8dbd
00000020: 4b15 84bc 01b4 1fbc 57e1 92bd 169a bcbc
00000030: c29d e5bd 3517 e7bd 4c33 153d d019 09bd
00000040: cdbc 1a3d c3e6 0dbd 12ce 433d 6482 103d
00000050: 2b2f 3dbc e141 4d3d ede4 5b3d 002e 7a3d
00000060: a584 c1bb d3b7 2fbd 432e 953c 963a b23c
00000070: 80de 10bc f216 41bc 244f cf3b 161a 333b
00000080: 5e63 b33a 2eda 37bd e3b7 983b 1644 d33b
00000090: a051 a13b cf1d 0f3d dd86 08bd 62c8 30bd
000000a0: d20a 723c 8cbf 16bd 6ef2 5f3d 64ae 923c
000000b0: 1ded c33b a94b 3fbd 2e12 d5bc d09c 463c
000000c0: b24b 613d 7186 44bc f980 ebbb 79e9 a73c
000000d0: d5c2 bfbc c309 103d c94a 41bd a927 b33c
000000e0: fbeb 8f3b 1d9e fe3c 22c1 523d 6c6a 8fbc
000000f0: 3677 7b3c 2daf c63c fe0a 393d f3aa 7a3d
00000100: 4d29 13bd 474e 2ebc 007b 49bd 95a2 ac3c
00000110: ccc8 21bd 050a 5dbd fd64 f2bc d377 b2bc
00000120: d679 5e3d 0556 11bd 0152 80bc cd30 583d
00000130: a845 553b 0016 05bd 8aab 073c f7e4 39bd
00000140: e835 0b3b 38ee 63bd 8d53 03bd 669b 0fbd
00000150: 6b24 65bd 2687 cebb c213 47bd 95de 9fb9
00000160: 81be d2bd 53de f5bb be0f c6bc 11d1 8dbc
00000170: 2477 bebc 3fcc 53bd ddf9 3a3c 77b4 07bd
00000180: 0f85 81bc 26d6 6a3c 5361 08bb 69a4 353d
00000190: cbcc 4e3d 2107 ccbc ed19 bf3a edfb cc3b
000001a0: ff14 75bd 6905 aa3c a3b3 993c b4d2 413d
000001b0: d5e4 2cbd 2fd6 443d 13be ccbb 01bc f43c
000001c0: 89ac acbc 25e1 4cbc 9528 063d 7392 babc
000001d0: ea4e 8fbc ca9e 0c3d e88a 263d c450 863d
000001e0: ebf3 803d 093f 763d b227 61bc b487 d6bc
000001f0: 8e4b 8b3d fdee 97bb b6c5 143d d4be 743d
00000200: 5bc8 1e3d 554a f33c 3f94 313d 3fc6 403d
00000210: afcc 023d ed9f 5a3d c93c 0fbc b03e 71bd
00000220: a679 4d3d 9476 c3bc 675d 75bb cc2b ac3c
00000230: 29e7 5b3d c713 a03b cb04 f53b 9446 873d
00000240: e884 f6bb 7252 063c b7f4 303b 4425 8d3d
00000250: 1c4e 373d 270c 703d e7a2 04b9 4122 833c
00000260: e151 363d 4956 643d f4a5 19bc 8f84 873d
00000270: ad8d a9bc 210f 193d 937c a13a 923f 7f3c
00000280: c517 32bc 4458 22bd ad72 563d 5e68 cb3c
00000290: 30ec eabc 0fe2 ac3b 84ee 523d d57c f3bc
000002a0: a259 bd38 5680 cebc 2ef7 913d c05e 813d
000002b0: 88dd 363c 3b3b 33bc 9c56 28bd 68b2 01bc
000002c0: e43b 503c 160b 8e3c e341 05bd 5251 1a3c
000002d0: 7f57 fa3c e082 d23c 89ca 883d 393c f63c
000002e0: a878 8f3d 0fe2 2cbc fd45 f83c 5be7 ddbb
000002f0: 8f0f 0f3d efa1 22bd a78b 2d3d 073f d13c
00000300: 1a68 36bd 76e6 3abd 4fc3 c33c f8bf 563d
00000310: 5ebe 37bd c968 573d fe8c 3b3d 4a74 0abc
00000320: e7ff 853d 8dc6 713c eef7 1a3d c5e3 943d
00000330: 347b a13c 4575 a83d 525f 14bd 3931 553d
00000340: 061b a63c 0363 67bc af63 803d 95de 223d
00000350: e613 fb3c 35c5 7b3c f433 343d 6db2 393d
00000360: e42f ba3b a9fa f03c 9747 783d a37e 8d3d
00000370: 72d1 803d 8d51 6b3d 3950 8d3c 7977 4d3d
00000380: d3d1 4c3c 0f28 1a3c a675 80bc 63b9 b1bb
00000390: f571 983d cc99 563d 0c21 013d bd5e 9c3b
000003a0: 8085 e03c 70b0 6c3d 9d05 c6bc 503e 4f3d
000003b0: 9768 383d 42cf 633d 8eb1 9e3c 3686 d73b
000003c0: 37b6 bf3c aa00 613d 1227 24bd 9b0b 79bc
000003d0: a027 e4bc a0b4 6fbd fee6 84bd af0c 1ebd
000003e0: e5ff 1dbd 56f2 d3bd 90da 03bd 325d d0bd
000003f0: 8ce0 b43d 641e cebd a603 f3bd 7a51 14be

encoder.0.0.bias f4 [36]
-0.012345354 -0.024634209 0.022500347 0.008021958 0.0765596 0.07653392 -0.052309968 -0.025568424
-0.030048102 -0.036851 0.0031832731 0.026023196 0.006384106 0.047296263 0.07315291 0.06777186
-0.015142462 -0.10381989 -0.03976257 -0.0052450835 0.02641787 -0.035826057 -0.024669047 0.108230926
0.052966278 -0.041228633 0.01324906 -0.0058531985 0.0717723 -0.050779972 -0.013536173 0.026875345
-0.04513804 -0.017091066 -0.011858188 0.01979556
00000000: 2b44 4abc aecd c9bc a652 b83c 886e 033c
00000010: 48cb 9c3d d1bd 9c3d fa42 56bd df74 d1bc
00000020: 7027 f6bc 13f1 16bd 769e 503b 992e d53c
00000030: c331 d13b bab9 413d 31d1 953d f9cb 8a3d
00000040: 1718 78bc 869f d4bd 14de 22bd f3de abbb
00000050: 4a6a d83c 58be 12bd be16 cabc 2da8 dd3d
00000060: 2bf3 583d 5bdf 28bd 9612 593c 30cc bfbb
00000070: 5bfd 923d a9fe 4fbd d3c6 5dbc af29 dc3c
00000080: aae2 38bd 9002 8cbc d848 42bc 4c2a a23c

encoder.0.1.weight f4 [36]
0.9470909 0.9074593 0.9365689 0.9987418 0.98517877 1.120876 0.97674716 1.128788
0.92578965 0.7974231 0.9271536 1.1983191 0.99476904 1.284076 1.097566 1.0633483
1.0289394 1.0799859 0.97487 1.1421295 1.1511554 1.048857 1.0061826 1.037395
1.1307896 0.82263273 1.0616515 1.1578021 0.9473967 1.091263 0.98521703 0.9925869
1.0169116 1.0344903 1.0675384 0.7926025
00000000: 8d74 723f 414f 683f fbc2 6f3f 8bad 7f3f
00000010: ad34 7c3f dd78 8f3f 1a0c 7a3f 207c 903f
00000020: 8d00 6d3f ec23 4c3f f059 6d3f 8562 993f
00000030: 2fa9 7e3f 9a5c a43f 0b7d 8c3f cc1b 883f
00000040: 49b4 833f fa3c 8a3f 1591 793f 4d31 923f
00000050: 0f59 933f f240 863f 97ca 803f 5cc9 843f
00000060: b7bd 903f 0f98 523f 32e4 873f dc32 943f
00000070: 9788 723f 82ae 8b3f 2f37 7c3f 2d1a 7e3f
00000080: 292a 823f 2e6a 843f 19a5 883f ffe7 4a3f

encoder.0.1.bias f4 [36]
0.008093576 -0.040415056 0.019065328 -0.039672185 0.0016684436 0.00863685 0.007730945 0.014886655
0.011827063 -0.037844352 0.04463096 -0.009704492 -0.05540715 0.058725458 -0.018532207 0.010759355
-0.0065019564 -0.035395503 0.01558026 0.037208986 -0.01952001 0.03647451 0.028573977 0.018555773
-0.022673277 -0.014952721 -0.008474345 -0.024313303 0.0006724635 0.013022698 -0.029924123 -0.06351472
-0.02893573 -0.048181735 -0.014384059 -0.030734332
00000000: eb9a 043c 428a 25bd e42e 9c3c 4d7f 22bd
00000010: adaf da3a 9381 0d3c de53 fd3b 28e7 733c
00000020: 4cc6 413c ae02 1bbd f4ce 363d 97ff 1ebc
00000030: 9cf2 62bd 1b8a 703d dbd0 97bc 0148 303c
00000040: 5d0e d5bb e0fa 10bd 5944 7f3c 7368 183d
00000050: 6ee8 9fbc 4c66 153d f913 ea3c 4702 983c
00000060: 4fbd b9bc 42fc 74bc fbd7 0abc b12c c7bc
00000070: 4348 303a 285d 553c 6f23 f5bc 0114 82bd
00000080: a00a edbc 365a 45bd 1eab 6bbc 91c6 fbbc

encoder.0.1.running_mean f4 [36]
-0.5463828 -0.31673753 -0.6148781 0.53501844 0.098274976 -0.115870446 -0.05843083 0.26777938
-0.8561375 0.2604001 0.3859217 -0.63372964 -0.61087257 -0.0025131425 -0.030643344 -0.15629572
-0.13895182 -0.3069917 0.26091245 -0.6364438 -0.6268287 -0.26947758 0.51950794 -0.29732817
-0.17615283 -0.46639454 -0.4215042 -0.21641402 -0.56214076 0.20778567 0.53922784 0.7558071
-0.46616048 -0.0016065444 -0.2459006 0.12836488
00000000: bedf 0bbf 6c2b a2be a768 1dbf f8f6 083f
00000010: 6444 c93d 7c4d edbd 2a55 6fbd 611a 893e
00000020: d42b 5bbf 2953 853e 8797 c53e 1b3c 22bf
00000030: 2562 1cbf 89b3 24bb c007 fbbc fc0b 20be
00000040: 6349 0ebe 042e 9dbe 5196 853e fbed 22bf
00000050: d877 20bf f7f8 89be 79fe 043f 663b 98be
00000060: 6861 34be 44cb eebe 66cf d7be a39b 5dbe
00000070: 75e8 0fbf c4c5 543e d60a 0a3f 937c 413f
00000080: 96ac eebe af92 d2ba 5ecd 7bbe 1572 033e

encoder.0.1.running_var f4 [36]
0.0011765156 0.00096905045 0.0011465994 0.0017967409 0.0005319466 0.0019858573 0.0012741962 0.0011718317
0.0013688302 0.0010098489 0.0013243597 0.0015276526 0.0015510899 0.0016048271 0.0010902757 0.0014977711
0.0021121486 0.001046049 0.0017419073 0.0015182667 0.0013189497 0.0012123685 0.0012509432 0.0013743445
0.0012356429 0.0014964234 0.0017412977 0.0021939764 0.0013447196 0.0011210388 0.0013100769 0.0008855519
0.0015517564 0.0013354986 0.0018294934 0.0017244878
00000000: 5035 9a3a e007 7e3a 7e49 963a 9f80 eb3a
00000010: 5572 0b3a 2825 023b ee02 a73a 2698 993a
00000020: 526a b33a e85c 843a 2396 ad3a 843b c83a
00000030: f14d cb3a 1059 d23a 95e7 8e3a dc50 c43a
00000040: f96b 0a3b 941b 893a b650 e43a 9400 c73a
00000050: 9ce0 ac3a 56e8 9e3a b0f6 a33a 5923 b43a
00000060: 4cf5 a13a a323 c43a 413c e43a d1c8 0f3b
00000070: 4d41 b03a d2ef 923a e3b6 ab3a 6224 683a
00000080: 4e64 cb3a e60b af3a 9dcb ef3a 3508 e23a

encoder.1.0.weight f4 [36, 36, 7]
0.03692949 0.0031314432 0.042965524 0.023779703 -0.045678765 -0.061981928 -0.07563255 0.0065440447
0.024300799 -0.06384539 -0.022765275 -0.007858805 0.015466729 -0.010049679 -0.07581098 -0.05190342
-0.0023348276 0.009737681 0.007238271 0.011219788 -0.034608558 -0.04820809 -0.038879387 0.0103693
-0.014057775 0.028803524 0.038237233 0.00745458 -0.01799602 0.00089954265 0.014416486 0.03042048
-0.01442029 0.024705965 -0.033549663 0.022677694 0.059313238 0.0024230212 0.08442247 0.02164644
0.05393997 0.053120576 -0.045835026 -0.025112366 -0.06990957 -0.035717458 0.02870212 -0.08454035
-0.052572113 0.03620337 0.042595144 -0.044789966 0.004380075 0.021951968 0.00378488 -0.04105172
-0.09223349 -0.060802855 0.040867597 0.027570123 0.029076695 0.002368403 0.024956463 0.08575365
-0.030592248 -0.20250645 -0.069175996 0.02658264 -0.02886458 -0.0538102 0.015142838 -0.08897794
0.01775619 -0.067834824 0.009294181 -0.033585552 -0.06960021 -0.0075509585 -0.032425266 -0.031260584
0.036652442 0.05110867 0.02449264 -0.02406989 0.035530526 -0.02681265 -0.07210767 -0.007772433
0.018520154 -0.052790437 -0.057824373 -0.04136745 -0.058875393 -0.05274161 -0.004769605 0.07737256
-0.06205404 0.021239901 -0.06740842 0.05190389 0.0037787696 0.02620464 -0.004175533 0.022867545
0.0013360878 -0.054418065 -0.020880679 0.0046503223 0.021539966 0.0105132675 -0.019899396 -0.015982984
-0.02312973 -0.04274225 -0.05199727 -0.05084541 0.060481787 0.019217052 0.017867124 -0.025298832
0.002390469 0.042365815 0.02233377 -0.02933954 -0.036393102 0.014485669 0.044515666 -0.0087017715
-0.032138996 -0.06511848 0.016473306 0.0013998629 0.011012761 0.012162025 0.059786595 -0.006542069
0.038411126 -0.0027863625 -0.07647631 -0.060775142 0.042154264 0.038789246 0.04551742 0.005864561
0.053343542 -0.01791015 -0.043617465 0.042361297 -0.041622445 -0.034545537 -0.06575748 -0.046989936
-0.03475714 -0.063340195 -0.013536378 0.0029775447 -0.043058846 -0.0002640838 -0.034579553 -0.06482158
0.0017511767 -0.06665536 -0.0026546319 -0.03988048 0.01284943 -0.0035763218 0.059805498 -0.010482041
-0.013611382 -0.03409028 0.04229903 0.040942583 -0.020601654 -0.038250037 0.02483587 -0.030228805
-0.07192688 -0.06646004 -0.022527141 0.052827276 0.047549207 0.03711155 -0.056119487 -0.06573404
-0.0784607 -0.08533538 -0.028491039 -0.0050406 -0.027715933 0.04921396 0.03637208 -0.06972103
-0.035384957 -0.039074644 0.04648567 0.011368273 0.01762787 0.05676814 0.04926317 0.093052134
0.07644932 0.09239902 0.067529 -0.05437935 -0.012140147 -0.07509516 -0.02402471 -0.044772092
-0.02307461 -0.08703829 -0.016040131 0.012490823 0.04570137 0.011103383 -0.03312552 -0.019388344
-0.013023208 0.047383476 0.07195848 0.030389009 -0.02263461 -0.06583555 -0.045795053 0.025017263
-0.049917806 -0.012388278 0.019654876 -0.064631775 -0.015074025 0.04765605 0.018744983 0.047934286
0.044067826 0.04431397 0.021006208 0.01757013 -0.0010545991 0.0071579576 -0.006391642 -0.0122480225
-0.013177093 -0.045059506 0.04451972 -0.032740943 0.01426741 0.1381727 0.09073189 0.05123792
0.01587595 -0.009569758 0.014846429 -0.021458505 0.048495404 -0.020763256 0.04681288 0.08543892
00000000: 6043 173d e638 4d3b 9efc 2f3d a7cd c23c
00000010: a819 3bbd c3e0 7dbd 3de5 9abd 6d6f d63b
00000020: 7812 c73c 5fc1 82bd 3e7e babc 38c2 00bc
00000030: 2a68 7d3c 69a7 24bc c942 9bbd ae98 54bd
00000040: e803 19bb cb8a 1f3c 052f ed3b 34d3 373c
00000050: b4c1 0dbd d975 45bd fe3f 1fbd ffe3 293c
00000060: 9552 66bc 5ef5 eb3c a59e 1c3d 8d45 f43b
00000070: 646c 93bc 49cf 6b3a 2033 6c3c 5f34 f93c
00000080: 1443 6cbc 2a64 ca3c 5f6b 09bd 92c6 b93c
00000090: 70f2 723d 8dcb 1e3b b0e5 ac3d e053 b13c
000000a0: 28f0 5c3d f694 593d 82bd 3bbd 73b8 cdbc
000000b0: c02c 8fbd 784c 12bd b520 eb3c 7e23 adbd
000000c0: db55 57bd fc49 143d 3f78 2e3d af75 37bd
000000d0: bb86 8f3b 9dd4 b33c c00b 783b d925 28bd
000000e0: e9e4 bcbd 6a0c 79bd c864 273d bdda e13c
000000f0: 4032 ee3c 3537 1b3b 7f71 cc3c 9c9f af3d
00000100: 989c fabc da5d 4fbe 25ac 8dbd d6c3 d93c
00000110: 6975 ecbc 1668 5cbd aa19 783c 113a b6bd
00000120: 6e75 913c fcec 8abd 9f46 183c 0191 09bd
00000130: 8e8a 8ebd 086e f7bb 5bd0 04bd 190b 00bd
00000140: df20 163d 5357 513d caa4 c83c 382e c5bc
00000150: 7588 113d 34a6 dbbc 30ad 93bd e5af febb
00000160: 94b7 973c c93a 58bd 40d9 6cbd ea70 29bd
00000170: 5327 71bd 9607 58bd 594a 9cbb 8175 9e3d
00000180: 612c 7ebd 4dff ad3c 6d0d 8abd 2c99 543d
00000190: 3ca5 773b 1dab d63c e9d2 88bb b854 bb3c
000001a0: ab1f af3a 7ae5 5ebd f50d abbc bb61 983b
000001b0: 9574 b03c d73f 2c3c 0f04 a3bc bfee 82bc
000001c0: 8f7a bdbc 7f12 2fbd 17fb 54bd 4743 50bd
000001d0: c0bb 773d 146d 9d3c 135e 923c 7f3f cfbc
000001e0: 6aa9 1c3b c787 2d3d 4ff5 b63c 7a59 f0bc
000001f0: ef10 15bd 4d55 6d3c 0f56 363d e091 0ebc
00000200: 2ea4 03bd d65c 85bd 07f3 863c 9b7b b73a
00000210: de6e 343c 3b43 473c cae2 743d da5e d6bb
00000220: fc54 1d3d 689b 36bb 9d9f 9cbd 5bef 78bd
00000230: f3a9 2c3d 79e1 1e3d 7970 3a3d 812b c03b
00000240: c27e 5a3d 4fb8 92bc 3aa8 32bd 0a83 2d3d
00000250: 4c7c 2abd 9f7f 0dbd dcab 86bd 8578 40bd
00000260: 815d 0ebd 81b8 81bd afc7 5dbc e922 433b
00000270: 795e 30bd ba74 8ab9 4aa3 0dbd 2dc1 84bd
00000280: bd87 e53a 9b82 88bd 55f9 2dbb b759 23bd
00000290: 6a86 523c b960 6abb 9cf6 743d debc 2bbc
000002a0: 4602 5fbc 40a2 0bbd bf41 2d3d 69b3 273d
000002b0: cdc4 a8bc 12ac 1cbd 9874 cb3c 66a2 f7bc
000002c0: 664e 93bd 341c 88bd d78a b8bc 6a61 583d
000002d0: f5c2 423d 4802 183d 8cdd 65bd 929f 86bd
000002e0: 01b0 a0bd 51c4 aebd 0a66 e9bc 9e2b a5bb
000002f0: 860c e3bc 9494 493d e4fa 143d e6c9 8ebd
00000300: d1ef 10bd bc0c 20bd c267 3e3d fe41 3a3c
00000310: 5368 903c b685 683d 2ec8 493d 1e92 be3d
00000320: 7691 9c3d b33b bd3d a54c 8a3d e2bc 5ebd
00000330: 78e7 46bc 7ecb 99bd 78cf c4bc f162 37bd
00000340: f706 bdbc 2241 b2bd 9866 83bc 4fa6 4c3c
00000350: 5c31 3b3d f7ea 353c a0ae 07bd 4ed4 9ebc
00000360: 4b5f 55bc 2d15 423d f85e 933d 5ff2 f83c
00000370: 386c b9bc cad4 86bd 9893 3bbd 01f1 cc3c
00000380: 9d76 4cbd 34f8 4abc 4303 a13c aa5d 84bd
00000390: 0bf9 76bc fe32 433d 148f 993c be56 443d
000003a0: 7780 343d 9182 353d 3615 ac3c 3cef 8f3c
000003b0: 793a 8aba 4d8d ea3b fb70 d1bb eeab 48bc
000003c0: bce4 57bc 5190 38bd 4f5a 363d 5e1b 06bd
000003d0: dbc1 693c 257d 0d3e a4d1 b93d dade 513d
000003e0: 480e 823c 79ca 1cbc 703e 733c bfc9 afbc
000003f0: 1ea3 463d b417 aabc ddbe 3f3d 9afa ae3d

encoder.1.0.bias f4 [36]
0.034634136 0.047846176 -0.01987579 -0.02755138 -0.019620826 0.004519131 -0.036610495 0.0110403905
-0.036600243 -0.04702258 -0.001618599 0.0028316998 -0.006256874 0.034575585 0.03485633 -0.027512038
0.009508297 0.061853204 -0.021675013 -0.034323845 -0.07016268 -0.05448268 0.004241019 0.03381251
-0.039139688 -0.03340611 0.02863394 -0.097768575 0.007937668 0.064319044 0.010582023 -0.014743576
-0.0147282705 -0.026019124 -0.00023435157 0.043870546
00000000: 86dc 0d3d 5afa 433d 8ed2 a2bc 6fb3 e1bc
00000010: dbbb a0bc 3815 943b e3f4 15bd c1e2 343c
00000020: 23ea 15bd c09a 40bd 2c27 d4ba 0a94 393b
00000030: 7706 cdbb 219f 0d3d 83c5 0e3d ed60 e1bc
00000040: b0c8 1b3c c959 7d3d cc8f b1bc 2997 0cbd
00000050: 73b1 8fbd 3b29 5fbd 3ff8 8a3b fd7e 0a3d
00000060: f050 20bd d8d4 08bd b991 ea3c e43a c8bd
00000070: fe0c 023c b4b9 833d 3960 2d3c 0a8f 71bc
00000080: d84e 71bc 0f26 d5bc 45bc 75b9 9ab1 333d

encoder.1.1.weight f4 [36]
0.6960557 0.98925257 0.5767713 1.0702705 0.8379372 0.6603568 0.7016738 0.63875663
0.86036587 0.6443539 0.62505263 0.98022425 0.78655 0.8494863 0.6235374 0.979601
1.005915 0.6903613 0.9494185 0.9063932 0.7776633 0.74964756 0.62642306 0.6683054
0.896297 0.92291135 0.86811954 0.8890841 0.4868484 0.98399943 0.9262662 0.89159495
0.9517866 0.8147409 0.740396 0.61884713
00000000: b530 323f a83f 7d3f 49a7 133f a0fe 883f
00000010: 0d83 563f 250d 293f e5a0 333f 8e85 233f
00000020: f040 5c3f 61f4 243f 7303 203f faef 7a3f
00000030: 575b 493f ef77 593f 26a0 1f3f 22c7 7a3f
00000040: d3c1 803f 85bb 303f 170d 733f 6209 683f
00000050: f114 473f e7e8 3f3f 435d 203f 1016 2b3f
00000060: b873 653f eb43 6c3f 153d 5e3f 049b 633f
00000070: 3244 f93e 63e7 7b3f c81f 6d3f 913f 643f
00000080: 49a8 733f dc92 503f 988a 3d3f c46c 1e3f

encoder.1.1.bias f4 [36]
-0.019748332 -0.0071589085 0.0034357845 -0.036681887 0.02702218 0.00059566816 -0.039367914 0.024793366
-0.019324087 -0.014818313 -0.008602067 -0.04835087 -0.027046239 -0.065365516 -0.025430053 -0.061838742
-0.049154855 -0.014325138 -0.033124615 -0.035413172 -0.023331834 -0.04403677 -0.02639652 -0.019344019
-0.018895231 -0.010804513 0.010309365 -0.07149202 -0.013597999 -0.0029639038 -0.06609887 -0.040959597
-0.0870019 -0.01426613 -0.048400376 0.0009011794
00000000: 41c7 a1bc 4795 eabb e62a 613b bf3f 16bd
00000010: 9e5d dd3c 9d26 1c3a 4040 21bd 751b cb3c
00000020: 8c4d 9ebc 82c8 72bc afef 0cbc 900b 46bd
00000030: 1390 ddbc 5bde 85bd b052 d0bc 9f4a 7dbd
00000040: 9a56 49bd fcb3 6abc adad 07bd 670d 11bd
00000050: 6722 bfbc e65f 34bd 843d d8bc 5977 9ebc
00000060: 2cca 9abc 6905 31bc 9ce8 283c 686a 92bd
00000070: 24ca 5ebc 0e3e 42bb d85e 87bd 40c5 27bd
00000080: 0d2e b2bd 7cbc 69bc 793f 46bd 203d 6c3a

encoder.1.1.running_mean f4 [36]
0.015995825 0.12531441 0.22134452 0.20065036 -0.19297706 -0.010396603 -0.0016225661 -0.18727142
-0.05189965 -0.011489949 0.0004751725 -0.1403302 0.11004128 0.21963616 -0.04264354 0.042050097
0.17438094 0.0797129 -0.2427646 0.08676413 -0.1278525 -0.06570014 -0.032616954 0.20114331
-0.085462846 0.2183928 -0.081156194 -0.052088007 0.09485225 -0.05793404 0.19492936 0.28648144
0.1641783 -0.11078208 0.093820184 0.10944002
00000000: ad09 833c 6c52 003e 23a8 623e 4a77 4d3e
00000010: c79b 45be 8356 2abc 49ac d4ba 14c4 3fbe
00000020: ba94 54bd 5740 3cbc 9320 f939 b8b2 0fbe
00000030: 535d e13d 4de8 603e feaa 2ebd b93c 2c3d
00000040: eb90 323e 8440 a33d 4997 78be 64b1 b13d
00000050: c4eb 02be cc8d 86bd 5b99 05bd 83f8 4d3e
00000060: 2507 afbd 5da2 5f3e 3835 a6bd 3c5a 55bd
00000070: e541 c23d 3e4c 6dbd 909b 473e b2ad 923e
00000080: 5b1e 283e b7e1 e2bd cc24 c03d 1722 e03d

encoder.1.1.running_var f4 [36]
1.7323152 1.1842964 1.4088491 1.9105594 1.8655154 3.1568265 0.66311306 1.7703444
0.81592506 1.9744492 0.9486294 1.2546266 0.8124299 2.1037908 1.735946 1.6456392
2.0043693 2.906259 0.45492384 1.8430749 3.4517128 2.2805429 2.881558 2.4818811
2.691081 2.0785995 2.9839263 1.859467 1.7626742 0.6975129 2.0433364 1.0575061
1.8317332 1.6565084 2.0176582 1.6839442
00000000: 81bc dd3f 0697 973f 2b55 b43f 368d f43f
00000010: 35c9 ee3f 7209 4a40 c7c1 293f a59a e23f
00000020: 77e0 503f c0ba fc3f 60d9 723f 9b97 a03f
00000030: 68fb 4f3f 82a4 0640 7b33 de3f 4ea4 d23f
00000040: 9647 0040 2600 3a40 c7eb e83e e1e9 eb3f
00000050: dde8 5c40 6af4 1140 726b 3840 24d7 1e40
00000060: ac3a 2c40 c607 0540 a6f8 3e40 0403 ee3f
00000070: 4f9f e13f 3590 323f 06c6 0240 5c5c 873f
00000080: 3c76 ea3f 7808 d43f 5021 0140 7c8b d73f

encoder.2.0.weight f4 [36, 36, 7]
-0.021876104 0.034270618 -0.0045625027 0.006138447 0.0108952345 -0.015788034 -0.008777043 -0.059990816
-0.037841126 -0.010739323 0.013301613 0.049187295 0.026293937 -0.04319393 0.011263786 -0.026435263
0.048743535 0.022344513 0.004479342 -0.0005089224 0.039093953 0.048050124 0.045090206 0.0055374177
0.07031497 -0.02594037 -0.014450027 0.042808782 0.061011285 -0.0015068939 0.039505724 -0.029907214
-0.019597156 0.02422704 -0.01438339 -0.06316535 -0.03379684 -0.01504846 -0.035919145 -0.017573498
-0.028005272 -0.04168144 -0.036452472 -0.005089799 0.04188899 0.041866012 0.025465075 -0.04789945
0.0071699657 -0.015590552 0.05560092 0.044169586 0.01666178 -0.021862399 -0.030720178 0.0019053298
0.036638226 0.031363852 0.0027494908 -0.049833458 -0.039892726 0.028348483 0.02899875 0.032520976
0.043656718 0.019641785 0.004474494 -0.05220274 -0.09938272 0.032797493 -0.07783243 -0.008065107
-0.07476525 0.07773641 0.008356778 0.028652709 0.052391917 0.040591586 -0.02984045 0.044950694
0.018944845 0.00543949 0.08183186 0.07652581 0.025682222 0.011894795 -0.02028311 0.013791919
0.043567024 0.022081297 0.0040534316 -0.008205597 0.0010315947 -0.03268712 -0.07319446 -0.028525474
-0.073549055 -0.06645581 0.053976413 -0.005408834 -0.08128843 -0.055642024 -0.022754684 -0.0091535235
0.056323 0.0793587 0.0232003 -0.0016190864 0.0013387958 -0.04209075 0.029286794 -0.006076451
-0.029692486 -0.0057832156 -0.009965915 -0.03265088 0.035347786 -0.022262335 -0.01708405 -0.06432831
0.051654674 -0.006023036 -0.023908412 0.00029801353 0.01613817 -0.057909966 -0.0372947 0.081333585
0.034359027 -0.08357582 0.025213001 0.03743787 -0.021379005 -0.041144736 -0.027166344 -0.029202044
-0.05731609 -0.07990352 -0.034368124 -0.050244723 0.03781184 -0.028755087 0.03343478 -0.02581397
0.014230034 0.025132462 -0.0127485255 -0.045778606 -0.0009279284 -0.025735477 -0.05088039 -0.047675047
-0.016800357 -0.040657967 0.025319861 -0.014967272 0.012566956 0.034191675 -0.019671721 -0.09128581
0.029676605 -0.06631297 0.004849731 -0.016963521 -0.028205277 0.03179606 -0.059567004 0.07830963
0.020615175 -0.040938027 -0.023857102 0.017068665 -0.020644404 0.0150065925 0.011340301 0.030213341
-0.015985416 -0.0015703762 0.0072953817 -0.002792081 -0.00864211 -0.09814506 -0.063188136 0.017780723
-0.025386658 -0.041028436 -0.022753961 -0.0043240343 -0.057353627 -0.025405115 -0.03335683 -0.073239416
0.04788375 0.0060948324 -0.07322402 0.06385487 -0.009180227 -0.060212485 0.030125037 0.01156225
-0.014133994 0.054848857 -0.037269235 0.035489284 0.080695435 0.030460319 0.073937364 -0.017955367
0.033303495 0.047624435 -0.024424182 0.017272197 -0.0007991103 -0.020686548 0.027846398 -0.025595449
-0.05800264 -0.033067584 0.02452222 -0.05894509 -0.017856935 0.03667355 -0.028493704 -0.055879477
0.03250946 -0.06150834 -0.0007729779 0.027420105 -0.02443842 -0.053669974 -0.052258555 -0.013425327
0.010525099 -0.020034326 0.03153699 0.016617589 -0.017404774 0.018645938 0.0031832573 -0.02547878
0.0065862588 0.024381265 -0.011921013 -0.041744467 -0.025108939 -0.024059022 -0.021323875 -0.09848194
0.058723636 -0.07690575 -0.036105137 0.0185333 0.031765956 -0.05882134 -0.024241367 -0.07323082
00000000: 8435 b3bc 595f 0c3d 0c81 95bb 0725 c93b
00000010: ed81 323c e855 81bc 96cd 0fbc eeb8 75bd
00000020: 4cff 1abd fcf3 2fbc 02ef 593c 9e78 493d
00000030: 6266 d73c 1eec 30bd be8b 383c c48e d8bc
00000040: 4da7 473d d70b b73c 72c7 923b 3469 05ba
00000050: fb20 203d 35d0 443d 82b0 383d 3a73 b53b
00000060: 4c01 903d e680 d4bc cebf 6cbc 4358 2f3d
00000070: f8e6 793d f882 c5ba c1d0 213d f9ff f4bc
00000080: 378a a0bc c977 c63c 4fa8 6bbc d65c 81bd
00000090: 8e6e 0abd d18d 76bc f41f 13bd 4cf6 8fbc
000000a0: 506b e5bc 28ba 2abd 304f 15bd 54c8 a6bb
000000b0: ca93 2b3d b27b 2b3d 229c d03c 3732 44bd
000000c0: 08f2 ea3b 846f 7fbc cabd 633d 2beb 343d
000000d0: 497e 883c c618 b3bc e2a8 fbbc 42bc f93a
000000e0: f711 163d 6277 003d cd30 343b 2b1e 4cbd
000000f0: 8e66 23bd 143b e83c c98e ed3c b734 053d
00000100: 63d1 323d cfe7 a03c c79e 923b 8ad2 55bd
00000110: 2b89 cbbd aa56 063d 9c66 9fbd 8323 04bc
00000120: 861e 99bd 4434 9f3d deea 083c 16b9 ea3c
00000130: e898 563d 5d43 263d f673 f4bc 381e 383d
00000140: 3832 9b3c c03d b23b 7697 a73d 90b9 9c3d
00000150: 8663 d23c 63e2 423c c428 a6bc 80f7 613c
00000160: 5673 323d d6e3 b43c a6d2 843b c570 06bc
00000170: 9336 873a eee2 05bd fae6 95bd 41ae e9bc
00000180: e3a0 96bd fc19 88bd 5f16 5d3d 973c b1bb
00000190: 8c7a a6bd e4e8 63bd 0868 babc a9f8 15bc
000001a0: f2b2 663d d086 a23d 8e0e be3c 8637 d4ba
000001b0: 887a af3a 5a67 2cbd dcea ef3c f71c c7bb
000001c0: a83d f3bc 2181 bdbb 1448 23bc eebc 05bd
000001d0: d7c8 103d 805f b6bc daf3 8bbc 90be 83bd
000001e0: da93 533d e35c c5bb 93db c3bc b33e 9c39
000001f0: 3234 843c 0033 6dbd 54c2 18bd 3992 a63d
00000200: 0dbc 0c3d cd29 abbd 7f8b ce3c 7458 193d
00000210: 0623 afbc 6287 28bd f48b debc 2039 efbc
00000220: 47c4 6abd 75a4 a3bd 97c5 0cbd 69cd 4dbd
00000230: 97e0 1a3d ca8f ebbc e8f2 083d d277 d3bc
00000240: 1725 693c 98e2 cd3c 31df 50bc 5982 3bbd
00000250: 3940 73ba 35d3 d2bc f567 50bd e946 43bd
00000260: e7a0 89bc f888 26bd 996b cf3c 4a39 75bc
00000270: a2e5 4d3c 920c 0c3d 9726 a1bc 0ef4 babd
00000280: 5a1c f33c 18cf 87bd 7eea 9e3b 15f7 8abc
00000290: c10e e7bc 963c 023d 88fc 73bd cd60 a03d
000002a0: 28e1 a83c a2ae 27bd f86f c3bc 96d3 8b3c
000002b0: 741e a9bc 36de 753c abcc 393c f881 f73c
000002c0: d9f3 82bc 15d5 cdba 190e ef3b 59fb 36bb
000002d0: a397 0dbc 4700 c9bd c868 81bd e1a8 913c
000002e0: aef7 cfbc 6f0d 28bd 8466 babc a1b0 8dbb
000002f0: a3eb 6abd 631e d0bc 2ca1 08bd 8cfe 95bd
00000300: c021 443d 29b7 c73b 7af6 95bd 58c6 823d
00000310: aa68 16bc 5ea1 76bd c8c8 f63c 976f 3d3c
00000320: 4492 67bc 32a9 603d a0a7 18bd 365d 113d
00000330: a643 a53d eb87 f93c 796c 973d 2217 93bc
00000340: 3f69 083d d711 433d 3915 c8bc 6c7e 8d3c
00000350: 627b 51ba d676 a9bc 211e e43c 8cad d1bc
00000360: 2d94 6dbd e071 07bd d3e2 c83c 6870 71bd
00000370: b548 92bc 0137 163d a16b e9bc e1e1 64bd
00000380: a428 053d 2bf0 7bbd aba1 4aba 21a0 e03c
00000390: 1533 c8bc 0cd5 5bbd 110d 56bd e7f5 5bbc
000003a0: 7771 2c3c 071f a4bc ee2c 013d 9c21 883c
000003b0: 7594 8ebc 5ebf 983c 329e 503b e0b8 d0bc
000003c0: 8bd1 d73b 38bb c73c 5a50 43bc 3ffc 2abd
000003d0: 43b1 cdbc 6d17 c5bc 68af aebc e6b0 c9bd
000003e0: 3288 703d c380 9dbd fbe2 13bd 26d3 973c
000003f0: 051d 023d a5ee 70bd d595 c6bc 0afa 95bd

encoder.2.0.bias f4 [36]
0.023641506 -0.10352742 -0.051245037 -0.029743543 -0.0029680005 -0.0054027564 -0.04430552 0.05034534
-0.04050708 0.021901917 0.021180829 0.037908893 0.013727061 -0.037404943 -0.00726525 -0.061131354
0.012724859 -0.016386446 -0.031324368 0.042681657 0.041554008 0.037272517 -0.008186344 -0.014348856
-0.014435368 0.047916006 -0.078814074 -0.014326509 -0.03631075 -0.045865 0.05749915 -0.034489326
0.01088715 -0.051695876 0.04533496 0.023365704
00000000: d5ab c13c 2f06 d4bd 51e6 51bd bba8 f3bc
00000010: c982 42bb 9b09 b1bb b479 35bd ea36 4e3d
00000020: c0ea 25bd a66b b33c 6b83 ad3c 5b46 1b3d
00000030: 78e7 603c ed35 19bd 5611 eebb df64 7abd
00000040: ed7b 503c de3c 86bc fb4d 00bd f6d2 2e3d
00000050: 8934 2a3d 11ab 183d 0420 06bc 7717 6bbc
00000060: 5282 6cbc 9343 443d 4669 a1bd bcb9 6abc
00000070: 95ba 14bd f0dc 3bbd 3b84 6b3d ae44 0dbd
00000080: 0460 323c 0ebf 53bd 27b1 393d 6f69 bf3c

encoder.2.1.weight f4 [36]
0.6925102 0.6306762 0.9086725 0.6112296 0.71914536 0.64209884 0.6631509 0.5826965
0.7569405 0.68966347 0.7092687 0.6270353 0.9576503 0.6460598 0.61132956 0.63871986
0.6845882 0.66261894 0.9383976 0.6429931 0.5727894 0.6937308 0.9039851 0.90382206
0.7100867 0.58872366 0.6808729 0.6585502 0.89590603 0.7245132 0.6224429 0.60806787
0.80153763 0.8704181 0.8037092 0.8052842
00000000: 5948 313f ff73 213f c39e 683f 8b79 1c3f
00000010: e919 383f 9760 243f 42c4 293f 992b 153f
00000020: dac6 413f c98d 303f a292 353f 6385 203f
00000030: 9228 753f 2d64 253f 1880 1c3f 2583 233f
00000040: 2c41 2f3f 65a1 293f d33a 703f 329b 243f
00000050: 53a2 123f 5798 313f 916b 673f e260 673f
00000060: 3ec8 353f 98b6 163f b04d 2e3f bf96 283f
00000070: 195a 653f b279 393f 6b58 1f3f 56aa 1b3f
00000080: 9231 4d3f b8d3 5e3f e3bf 4d3f 1b27 4e3f

encoder.2.1.bias f4 [36]
-0.0045820726 -0.04754813 -0.010876951 -0.03166181 -0.0020719261 0.007916397 -0.017493526 -0.013678405
-0.0029844914 0.014970341 -0.016935037 0.006385073 -0.016581412 0.016330885 -0.05378574 -0.030991258
0.011865914 0.0055873953 -0.0115242535 -0.00089762494 -0.0025256258 -0.027653376 0.0046621077 0.028435284
-0.008644333 0.012685435 -0.030241035 -0.022563715 -0.049652148 0.010910774 -0.0013764651 -0.0063056326
-0.03758997 -0.052601814 -0.012141126 -0.014409454
00000000: 3625 96bb d4c1 42bd 3d35 32bc d0af 01bd
00000010: 27c9 07bb c7b3 013c 954e 8fbc 641b 60bc
00000020: 7597 43bb 2946 753c 59bb 8abc e039 d13b
00000030: bed5 87bc 59c8 853c 704e 5cbd 61e1 fdbc
00000040: 4069 423c 7816 b73b 39d0 3cbc 974e 6bba
00000050: f884 25bb 5589 e2bc 98c4 983b 1df1 e83c
00000060: f6a0 0dbc 92d6 4f3c 0cbc f7bc 8ad7 b8bc
00000070: 0d60 4bbd 1ac3 323c 816a b4ba 7b9f cebb
00000080: f1f7 19bd 0075 57bd 93eb 46bc a115 6cbc

encoder.2.1.running_mean f4 [36]
-0.19101496 -0.16728696 0.20381184 -0.25218597 0.19099978 0.059357367 -0.15394127 0.07992558
0.01628417 0.0018991561 0.09245228 0.033511218 0.16304499 -0.111991584 -0.059461664 0.12666832
-0.011520286 -0.20895703 -0.012134225 0.23581687 0.13101625 -0.088541634 -0.11793776 -0.1764262
-0.0029500711 0.18586221 0.10170424 -0.03817342 0.17534816 -0.007034405 -0.15841913 -0.10091947
-0.010248036 0.075778335 -0.12082492 0.1195771
00000000: 6d99 43be 464d 2bbe 0db4 503e 851e 81be
00000010: 7295 433e b620 733d c8a2 1dbe 06b0 a33d
00000020: 6166 853c 1bed f83a 9f57 bd3d 0f43 093d
00000030: 44f5 263e d85b e5bd 138e 73bd 57b5 013e
00000040: 95bf 3cbc d5f8 55be a1ce 46bc fa79 713e
00000050: 2029 063e 5155 b5bd 5a89 f1bd 12a9 34be
00000060: fb55 41bb aa52 3e3e 504a d03d bb5b 1cbd
00000070: 788e 333e de80 e6bb a038 22be deae cebd
00000080: 61e7 27bc ac31 9b3d 0e73 f7bd d7e4 f43d

encoder.2.1.running_var f4 [36]
1.1972321 0.8013661 1.5893018 0.51694137 1.6541116 1.1512257 2.1284144 1.5845314
1.1889 1.3853431 1.0930904 1.5099715 1.6726074 1.0870169 0.5404935 1.1076634
1.6550941 1.4803094 2.7432954 1.5275344 0.2725617 1.1845618 2.3516197 1.5940588
1.2320879 1.1782434 1.5060905 0.54131943 1.1013093 1.5986521 1.3426936 1.5475214
1.1979967 0.45604315 2.1994112 0.38044354
00000000: e73e 993f 5426 4d3f 3e6e cb3f 4556 043f
00000010: eeb9 d33f 5d5b 933f f137 0840 edd1 ca3f
00000020: e02d 983f ec52 b13f 63ea 8b3f bf46 c13f
00000030: 0018 d63f 5f23 8b3f c85d 0a3f eac7 8d3f
00000040: 20da d33f c77a bd3f 2792 2f40 3f86 c33f
00000050: 358d 8b3e b99f 973f f080 1640 1e0a cc3f
00000060: 0eb5 9d3f aed0 963f 93c7 c03f e993 0a3f
00000070: b4f7 8c3f a2a0 cc3f 62dd ab3f 2e15 c63f
00000080: f557 993f 7d7e e93e 27c3 0c40 7fc9 c23e

encoder.3.0.weight f4 [36, 36, 7]
-0.06640018 0.035621334 0.07589964 0.038709067 -0.027670745 -0.06717365 0.045685586 -0.027197503
0.026849857 0.048371337 0.01584814 0.10675369 -0.041223966 -0.0056914957 -0.043657087 -0.0358236
0.012407406 -0.009504576 -0.062193703 -0.027947487 0.009248803 0.015060315 -0.039456032 0.02048778
-0.053692073 -0.047212232 0.022627354 -0.036534384 0.067345984 0.019443516 0.055605948 -0.0662178
-0.049333982 0.040111426 -0.037225824 -0.05192265 0.025490278 0.0009335053 0.03283826 -0.031061377
0.01516512 0.017208073 0.052880246 -0.040038086 0.021006955 -0.07974911 -0.017673321 0.04987492
0.016038233 -0.037740268 0.04513125 -0.019542744 0.003397975 0.014318013 -0.0023286603 0.018800415
0.14928737 -0.033883814 0.063370734 -0.018571166 -0.015175078 -0.11617772 -0.028248364 -0.06588275
-0.013790736 0.0056856717 0.00882382 0.04708153 -0.005325531 -0.009384031 -0.0034143373 -0.001998836
0.058992457 0.028233973 0.05059889 0.009549912 0.02230323 -0.021881204 0.001341791 0.11748345
0.058745045 0.08673858 0.0291295 -0.012359741 -0.034354173 0.011983722 -0.040344503 -0.043895096
-0.076258264 0.012385834 -0.064357065 0.0015306203 -0.011535063 0.016676541 -0.051345054 -0.025263816
-0.040258124 -0.0021236162 0.03696673 -0.05510598 0.043202784 -0.07043871 -0.008466987 0.028165312
-0.055174198 -0.009020065 -0.021623326 -0.025390908 -0.074788496 0.016754432 0.06291805 -0.00756866
-0.05094075 0.07385693 0.04661572 -0.011571154 -0.030233502 0.0019604126 -0.01905274 0.081797585
0.010997143 0.044814475 0.06543731 -0.028820548 -0.038491223 0.07088008 0.007656346 -0.0031818657
-0.046175797 0.012796493 0.0503079 0.0025757595 -0.056343447 -0.008602265 -0.015150669 0.061214406
-0.02784519 -0.033184033 0.012794447 -0.031566758 0.015241177 -0.016427329 -0.06302623 0.053511195
-0.08208845 0.022744229 0.027921332 0.033361167 0.02320983 0.023694528 0.013453469 -0.029407244
-0.09447051 0.057361074 -0.022214018 -0.01343431 -0.007915696 -0.09124117 -0.09896187 0.014137799
-0.078622505 0.07744078 0.012115537 0.05265739 0.07360018 0.012342627 -0.046987664 -0.0016013784
-0.060636804 0.030983508 0.0034510565 0.020169714 0.018353041 -0.04558825 0.02583526 -0.0005773819
0.028829442 -0.044445686 0.13902394 0.021409666 -0.050098494 -0.012017092 0.005912349 0.009043572
-0.06225035 -0.07869671 -0.053837717 -0.026827 -0.009193573 0.00014635314 -0.00014772908 0.0702944
-0.06179721 0.03728543 -0.02581606 0.09983577 -0.027878648 -0.015619662 0.017274722 0.061863698
0.07737172 -0.04111059 -0.0075461296 0.06551165 -0.055276196 0.07106396 0.05529424 -0.0013492458
-0.027719827 -0.001327627 0.034322724 0.0477944 0.053488564 -0.08427617 0.07033817 -0.013991387
0.020915197 -0.03411905 0.03853562 0.13519953 0.053348824 0.037128355 0.010439788 0.061916694
-0.06948159 -0.05490949 -0.048853453 0.036299765 -0.023936247 -0.09263996 0.003260831 -0.04209891
0.031142347 0.0015674443 -0.021703362 -0.033619 -0.052624382 0.04959974 -0.10922526 -0.0676613
-0.045925144 0.0702565 -0.0013411407 0.04081967 -0.088478036 -0.014939695 0.06776963 0.07724955
0.0279933 0.043780416 -0.011491013 -0.01521723 0.02593699 0.00855965 0.0012541887 -0.058208156
00000000: d1fc 87bd ade7 113d 4571 9b3d 668d 1e3d
00000010: c2ad e2bc 5792 89bd cf20 3b3d 4ccd debc
00000020: 3bf4 db3c 0621 463d f5d3 813c aea1 da3d
00000030: 76da 28bd ba7f babb c6d1 32bd c4bb 12bd
00000040: 6f48 4b3c 15b9 1bbc d3be 7ebd 21f2 e4bc
00000050: 4b88 173c 8abf 763c a69c 21bd fdd5 a73c
00000060: 38ec 5bbd 9d61 41bd 005d b93c 14a5 15bd
00000070: b1ec 893d 0248 9f3c 10c3 633d 339d 87bd
00000080: 6e12 4abd e14b 243d 1b7a 18bd d8ac 54bd
00000090: fdd0 d03c 7bb6 743a 6981 063d 6e74 febc
000000a0: 2077 783c f2f7 8c3c f598 583d fafe 23bd
000000b0: c716 ac3c 8053 a3bd a4c7 90bc a549 4c3d
000000c0: 9d62 833c 8a95 1abd 8cdb 383d 1b18 a0bc
000000d0: 8fb0 5e3b 1996 6a3c 709c 18bb 5403 9a3c
000000e0: cade 183e c1c9 0abd 84c8 813d 8f22 98bc
000000f0: e4a0 78bc 96ee edbd 1d69 e7bc 89ed 86bd
00000100: 8af2 61bc df4e ba3b c991 103c 90d8 403d
00000110: cb81 aebb 7bbf 19bc 13c3 5fbb e7fe 02bb
00000120: 13a2 713d ef4a e73c c840 4f3d 3c77 1c3c
00000130: 43b5 b63c 3640 b3bc 09df af3a 2a9b f03d
00000140: a59e 703d ffa3 b13d fda0 ee3c 8380 4abc
00000150: f6b6 0cbd 6057 443c 4740 25bd 58cb 33bd
00000160: 4b2d 9cbd f4ed 4a3c a3cd 83bd 189f c83a
00000170: 90fd 3cbc 3e9d 883c 314f 52bd 10f6 cebc
00000180: b4e5 24bd 5e2c 0bbb 6d6a 173d cfb6 61bd
00000190: 67f5 303d 2c42 90bd 1eb9 0abc f1ba e63c
000001a0: 57fe 61bd e5c8 13bc 6723 b1bc 9800 d0bc
000001b0: b62a 99bd 9740 893c 2edb 803d 8602 f8bb
000001c0: 3fa7 50bd 4d42 973d 20f0 3e3d f094 3dbc
000001d0: 40ac f7bc 447a 003b 7e14 9cbc 7e85 a73d
000001e0: 5c2d 343c 628f 373d ff03 863d 1219 ecbc
000001f0: f9a8 1dbd 9329 913d 16e2 fa3b d986 50bb
00000200: d522 3dbd 62a8 513c a80f 4e3d 13ce 283b
00000210: 63c8 66bd 84f0 0cbc 833a 78bc f5bb 7a3d
00000220: 991b e4bc fbeb 07bd cd9f 513c 254c 01bd
00000230: 21b6 793c 9b92 86bc e513 81bd 8e2e 5b3d
00000240: fd1d a8bd 1b52 ba3c 47bb e43c b8a5 083d
00000250: 8b22 be3c 071b c23c f06b 5c3c 76e7 f0bc
00000260: c179 c1bd 72f3 6a3d 2cfa b5bc 951b 5cbc
00000270: d6b0 01bc a7dc babd 85ac cabd 3aa2 673c
00000280: d604 a1bd 4699 9e3d 3f80 463c 46af 573d
00000290: b1bb 963d bb38 4a3c 2376 40bd 58e5 d1ba
000002a0: 4c5e 78bd 20d1 fd3c 1f2b 623b f53a a53c
000002b0: 1e59 963c bfba 3abd 78a4 d33c 725b 17ba
000002c0: b92b ec3c ae0c 36bd 4b5c 0e3e 5363 af3c
000002d0: 1434 4dbd 56e3 44bc 61bc c13b 7d2b 143c
000002e0: 39fa 7ebd be2b a1bd f084 5cbd 4cc4 dbbc
000002f0: a4a0 16bc 5f76 1939 b9e7 1ab9 83f6 8f3d
00000300: 121f 7dbd 9bb8 183d 347c d3bc b276 cc3d
00000310: c361 e4bc 9ce9 7fbc b883 8d3c ca64 7d3d
00000320: 1075 9e3d 9463 28bd 8645 f7bb f92a 863d
00000330: 4b69 62bd fb89 913d 377c 623d 2dd9 b0ba
00000340: b114 e3bc c503 aeba fc95 0c3d 10c4 433d
00000350: d316 5b3d fc98 acbd 750d 903d 213c 65bc
00000360: 5956 ab3c 6bc0 0bbd 87d7 1d3d bf71 0a3e
00000370: 4c84 5a3d e713 183d a50b 2b3c 5c9c 7d3d
00000380: 5d4c 8ebd c6e8 60bd 8f1a 48bd 10af 143d
00000390: f315 c4bc 05ba bdbd abb3 553b e86f 2cbd
000003a0: 3c1e ff3c b472 cd3a 40cb b1bc 14b4 09bd
000003b0: aa8c 57bd 1929 4b3d 7eb1 dfbd 0292 8abd
000003c0: 011c 3cbd a4e2 8f3d 37c9 afba 8732 273d
000003d0: f933 b5bd 9fc5 74bc ceca 8a3d 0335 9e3d
000003e0: 3552 e53c 1853 333d cd44 3cbc b051 79bc
000003f0: cf79 d43c c63d 0c3c 9763 a43a ad6b 6ebd

encoder.3.0.bias f4 [36]
0.059715774 0.069729 0.0437033 -0.011054977 0.051514737 -0.08035656 0.096131064 -0.0063648038
0.021581516 -0.0409269 -0.035735395 -0.06453652 -0.0043426063 0.06791631 0.018989932 -0.042575832
-0.047267176 0.010230143 -0.035404123 -0.061375115 0.011656525 -0.053056397 0.008119145 -0.022715857
0.08568307 0.030604111 0.027967839 -0.029039573 0.007908938 -0.022431478 0.061608158 -0.040982325
-0.061432004 0.07355292 -0.05554134 -0.048669335
00000000: 8798 743d 14ce 8e3d 3b02 333d ef1f 35bc
00000010: 1e01 533d fb91 a4bd 5de0 c43d d88f d0bb
00000020: b8cb b03c f7a2 27bd 475f 12bd b92b 84bd
00000030: 6c4c 8ebb b517 8b3d c690 9b3c ff63 2ebd
00000040: 3a9b 41bd 549c 273c ea03 11bd 7964 7bbd
00000050: 02fb 3e3c aa51 59bd 2a06 053c 9b16 babc
00000060: 9b7a af3d 79b5 fa3c cf1c e53c 66e4 edbc
00000070: 7e94 013c 38c2 b7bc d658 7c3d 15dd 27bd
00000080: 20a0 7bbd eaa2 963d 517f 63bd 7f59 47bd

encoder.3.1.weight f4 [36]
0.6744225 0.62627536 0.5662039 0.5812972 0.7037308 0.6965538 0.6308352 0.5912126
0.6721618 0.9538773 0.62539214 0.71040833 0.71253496 0.66268253 0.7881362 0.98471993
0.60867137 0.6141852 0.6053427 0.78421575 0.5053596 0.878403 0.58953786 0.74029976
0.78264827 0.70848364 0.8497877 0.6977103 0.9204426 0.66505766 0.79669446 0.6973579
0.58052933 0.6401595 0.552264 0.8686658
00000000: f4a6 2c3f 9553 203f bdf2 103f e5cf 143f
00000010: b427 343f 5a51 323f 6a7e 213f b559 173f
00000020: cc12 2c3f 4d31 743f b319 203f 52dd 353f
00000030: b168 363f 90a5 293f 4bc3 493f 9b16 7c3f
00000040: e3d1 1b3f 3e3b 1d3f bdf7 1a3f 5dc2 483f
00000050: 3f5f 013f 05df 603f f4eb 163f 4984 3d3f
00000060: a35b 483f 2f5f 353f b08b 593f 249d 323f
00000070: 20a2 6b3f 3841 2a3f 2bf4 4b3f 0c86 323f
00000080: 929d 143f 7ee1 233f 2c61 0d3f e260 5e3f

encoder.3.1.bias f4 [36]
0.007402729 0.025576117 -0.00855523 0.024008516 0.047188632 -0.021323403 0.04213917 0.005192258
-0.021096475 -0.099108234 -0.039905597 -0.008350226 0.011765352 0.059591305 -0.06528413 -0.04071416
0.01942695 0.0149711175 -0.086556405 -0.04112674 -0.024019962 -0.060416374 0.024905644 0.054851547
0.020655006 -0.03490465 0.069001235 0.011837498 -0.04996206 -0.020777402 0.018851738 -0.032354802
-0.014017879 0.06372023 -0.057000156 -0.12107314
00000000: 9792 f23b 0185 d13c 3c2b 0cbc 82ad c43c
00000010: de48 413d 6bae aebc 1f9a 2c3d d123 aa3b
00000020: 84d2 acbc 42f9 cabd 0d74 23bd 63cf 08bc
00000030: 77c3 403c 0316 743d b0b3 85bd e4c3 26bd
00000040: 4425 9f3c 6b49 753c 7c44 b1bd 8374 28bd
00000050: 83c5 c4bc 2977 77bd ec06 cc3c 04ac 603d
00000060: b034 a93c 2ef8 0ebd 8550 8d3d 11f2 413c
00000070: 04a5 4cbd 5f35 aabc f66e 9a3c 7886 04bd
00000080: 3fab 65bc c07f 823d ff78 69bd 32f5 f7bd

encoder.3.1.running_mean f4 [36]
0.0285005 0.029834757 0.04509453 0.0067223487 0.1007673 -0.10616587 0.111247204 0.015858943
-0.021584954 -0.0521953 -0.039860405 -0.08097109 0.114645064 0.13037154 0.14535667 0.048235208
-0.17400952 0.048122063 -0.07008408 -0.023984557 -0.12250154 -0.1316081 0.15854935 0.02000139
0.06559586 0.03733276 -0.06276856 -0.06604232 0.26991406 -0.045990176 0.033730406 -0.087980464
-0.13286136 0.107449345 -0.14264773 0.13959405
00000000: e179 e93c 0568 f43c 0bb5 383d 2647 dc3b
00000010: 165f ce3d 7e6d d9bd 93d5 e33d 9dea 813c
00000020: eed2 b0bc bdca 55bd aa44 23bd 2cd4 a5bd
00000030: 08cb ea3d 1e80 053e 61d8 143e 4892 453d
00000040: 8d2f 32be a41b 453d 3e88 8fbd 437b c4bc
00000050: 16e2 fabd 46c4 06be c35a 223e f4d9 a33c
00000060: 1f57 863d 3cea 183d ce8c 80bd 3241 87bd
00000070: 2d32 8a3e 3260 3cbd e528 0a3d 1a2f b4bd
00000080: cf0c 08be 670e dc3d 3f12 12be bef1 0e3e

encoder.3.1.running_var f4 [36]
1.4537807 0.98746204 0.5113661 1.3884683 0.8485405 1.350158 1.1560571 0.447144
1.1086493 0.3531467 0.88868463 0.74561816 2.3207405 1.2609793 0.05830396 0.8825938
1.0076904 0.5820805 0.17887625 1.0146581 0.547937 1.0640754 0.63840646 2.9182591
1.7778945 1.4523339 0.80027336 0.4113772 0.25644115 1.3456168 1.4680732 0.798453
0.55214626 1.026618 0.6917152 0.467026
00000000: 7c15 ba3f 50ca 7c3f e4e8 023f 54b9 b13f
00000010: f339 593f fad1 ac3f aef9 933f 0ff0 e43e
00000020: 38e8 8d3f a5cf b43e d680 633f d5e0 3e3f
00000030: 0387 1440 c567 a13f 22d0 6e3d abf1 613f
00000040: 00fc 803f 3a03 153f 562b 373e 51e0 813f
00000050: 9945 0c3f 9f33 883f 9b6e 233f c2c4 3a40
00000060: 0c92 e33f 14e6 b93f b7de 4c3f 08a0 d23e
00000070: 414c 833e 2c3d ac3f d3e9 bb3f 6a67 4c3f
00000080: 7559 0d3f 3868 833f 3f14 313f 081e ef3e

encoder.4.0.weight f4 [36, 36, 7]
-0.00394211 0.038413227 0.017783185 -0.012965083 -0.06834557 -0.01887291 -0.012303526 0.030506164
0.042219147 -0.06355801 0.06115758 -0.02256226 -0.0154776145 -0.06617487 -0.026527109 0.030787311
0.048872594 -0.020676449 -0.058343194 0.04497819 -0.042347964 -0.035145227 0.008686565 0.06400134
-0.04581801 0.0419062 0.017562358 0.012458021 -0.035990797 -0.018683795 0.0010796022 0.03749505
0.029311402 -0.030628499 -0.03365958 0.01877087 -0.057230484 -0.029208671 0.1641598 0.002157172
0.03555217 0.08348338 0.022052256 5.636969e-05 -0.027678631 0.031026548 0.038316812 -0.05929171
-0.023560513 0.008487576 0.0022152376 -0.025999913 -0.096282266 0.0732578 -0.014379297 -0.02827842
-0.02631035 -0.011908694 0.009484603 -0.093744606 -0.0013675678 0.012306346 0.028393097 -0.03327067
-0.043208767 -0.0015203387 -0.02222328 -0.053201664 -0.08819444 -0.059153304 0.0259311 0.0016351576
0.049416978 0.064853214 -0.00095550256 -0.021279985 0.007007024 0.03630094 -0.013918938 0.03835871
0.098921366 -0.09573653 -0.07658924 -0.0024448473 0.05658394 0.052415114 0.013150803 -0.06443361
-0.041659344 -0.016013863 0.01183495 -0.0070637995 -0.003552442 -0.043340687 0.0928452 -0.054008447
-0.018184911 0.020748302 0.0030648324 0.013621737 -0.011705835 -0.02179003 0.06492425 0.04206819
-0.01039939 0.06380804 0.009973453 0.08309435 0.13511734 0.07301805 -0.023431394 0.1008481
-0.0073394314 0.020984123 -0.10271647 0.073319755 -0.008869227 -0.06254101 0.06855134 0.056598768
0.0031569472 -0.04355568 -0.023279138 -0.011716725 -0.019508848 -0.020463124 0.026336683 -0.06612018
-0.027236924 -0.038667493 0.084696665 0.014119337 0.005953556 0.0077659125 -0.016640864 -0.03838466
-0.074240744 -0.028082252 -0.056358565 0.041030105 -0.034912456 0.019726858 0.052597996 -0.038484134
0.06996826 -0.019959826 0.020593196 0.012970829 -0.0836782 0.037785243 -0.06538785 -0.09422257
-0.07487107 -0.053165156 0.0051981937 0.054802135 -0.026873877 -0.021608312 0.0065906444 -0.010450194
-0.039904833 0.005302121 0.02584919 -0.0025976594 -0.07334412 0.05583031 -0.012499178 0.07125596
-0.0030802162 -0.0394674 -0.029600566 -0.1105727 0.19003293 -0.026106087 0.00967309 0.044141553
0.08932651 0.018225588 -0.08411245 0.010492699 -0.00053786207 -0.040939655 0.017780527 -0.045298364
-0.069165185 -0.052482318 0.05486688 -0.07567554 -0.013102083 0.03188909 0.07120607 0.01841276
0.050695155 -0.04182281 0.002820517 -0.10816744 -0.015396534 0.0048889695 0.047022056 0.052302185
-0.014118625 0.009423846 -0.030906517 0.051632274 -0.007992643 -0.023909222 0.019136328 0.0101496475
-0.04265078 -0.0014857916 -0.09146165 0.021500291 0.07050917 -0.045644656 0.008255937 0.0073098196
-0.0006842744 0.0010039886 0.014559699 -0.00570631 0.04074427 -0.013516377 0.051571265 -0.009891032
0.010468251 0.036026113 -0.011318864 -0.05401263 -0.039506007 0.046784174 0.0037190246 0.0059686387
-0.014762488 -0.09564168 0.06890445 0.003196746 -0.03831705 -0.06565225 -0.0129316095 -0.020529104
0.09714062 -0.113237925 -0.041832276 0.010668582 0.03406511 0.05202777 0.019504048 0.07238162
0.022408457 -0.032100476 0.01686126 0.063270785 0.056389105 0.02804989 0.010865846 -0.06892076
00000000: d12c 81bb 3057 1d3d 0bae 913c 806b 54bc
00000010: c3f8 8bbd 5c9b 9abc ba94 49bc 10e8 f93c
00000020: fced 2c3d b42a 82bd 5f80 7a3d 7dd4 b8bc
00000030: d295 7dbc b186 87bd 614f d9bc ac35 fc3c
00000040: a12e 483d a861 a9bc 46f9 6ebd 0d3b 383d
00000050: 0f75 2dbd 71f4 0fbd 1852 0e3c 2213 833d
00000060: aaab 3bbd d6a5 2b3d efde 8f3c ba1c 4c3c
00000070: 166b 13bd c20e 99bc 7081 8d3a 6994 193d
00000080: 771e f03c 9ee8 fabc a1de 09bd 5ec5 993c
00000090: 836a 6abd 0647 efbc 8219 283e 575f 0d3b
000000a0: 279f 113d 56f9 aa3d efa6 b43c 7e6e 6c38
000000b0: 4cbe e2bc 632b fe3c 17f2 1c3d dddb 72bd
000000c0: fa01 c1bc 790f 0b3c 852d 113b c5fd d4bc
000000d0: a32f c5bd 2f08 963d 2597 6bbc 25a8 e7bc
000000e0: ce88 d7bc af1c 43bc 4f65 1b3c 2cfd bfbd
000000f0: f63f b3ba 8ea0 493c a498 e83c d346 08bd
00000100: adfb 30bd 1a46 c7ba 990d b6bc fde9 59bd
00000110: 499f b4bd bc4a 72bd 756d d43c c952 d63a
00000120: 7569 4a3d c3d1 843d b17a 7aba 5d53 aebc
00000130: 2d9b e53b 4bb0 143d 420c 64bc 061e 1d3d
00000140: 4997 ca3d 8411 c4bd d2da 9cbd bb39 20bb
00000150: 90c4 673d 3bb1 563d 7776 573c c5f5 83bd
00000160: fda2 2abd 812f 83bc 61e7 413c 7277 e7bb
00000170: 16d0 68bb 0186 31bd a025 be3d f637 5dbd
00000180: 86f8 94bc 58f8 a93c 5bdb 483b b52d 5f3c
00000190: d5c9 3fbc 0181 b2bc 01f7 843d b24f 2c3d
000001a0: 3462 2abc caad 823d b267 233c 5f2d aa3d
000001b0: 335c 0a3e 7d8a 953d 32f3 bfbc 7389 ce3d
000001c0: 9d7f f0bb e5e6 ab3c 035d d2bd ab28 963d
000001d0: 3c50 11bc 8015 80bd a564 8c3d 1cd4 673d
000001e0: c9e4 4e3b 7167 32bd e4b3 bebc 82f7 3fbc
000001f0: 05d1 9fbc 48a2 a7bc 07c0 d73c 046a 87bd
00000200: f81f dfbc ce61 1ebd 7275 ad3d cb54 673c
00000210: 0c16 c33b 3279 fe3b 6c52 88bc 3c39 1dbd
00000220: 880b 98bd c00c e6bc 3dd8 66bd 2f0f 283d
00000230: 5d00 0fbd 389a a13c ff70 573d 8aa1 1dbd
00000240: 854b 8f3d ca82 a3bc 10b3 a83c 9a83 543c
00000250: 7a5f abbd b3c4 1a3d 11ea 85bd c3f7 c0bd
00000260: 0156 99bd b5c3 59bd 9c55 aa3b 3478 603d
00000270: 9b26 dcbc ea03 b1bc 55f6 d73b 4a37 2bbc
00000280: 4073 23bd 6abd ad3b aec1 d33c 7e3d 2abb
00000290: 7135 96bd 53ae 643d 5ac9 4cbc a5ee 913d
000002a0: 74dd 49bb 92a8 21bd e37c f2bc f173 e2bd
000002b0: fe97 423e 6fdc d5bc e17b 1e3c c6cd 343d
000002c0: d1f0 b63d d44d 953c 2643 acbd 92e9 2b3c
000002d0: 50ff 0cba 57b0 27bd 78a8 913c c78a 39bd
000002e0: 7aa6 8dbd b3f7 56bd 18bc 603d c7fb 9abd
000002f0: 1eaa 56bc 229e 023d 7dd4 913d 5bd6 963c
00000300: b9a5 4f3d 654e 2bbd 6cd8 383b e486 ddbd
00000310: bf41 7cbc a633 a03b 339a 403d d13a 563d
00000320: ce51 67bc 7a66 1a3c aa2f fdbc 5d7c 533d
00000330: 93f3 02bc 46dd c3bc cac3 9c3c b54a 263c
00000340: 96b2 2ebd e5be c2ba 3f50 bbbd 6121 b03c
00000350: 1d67 903d e4f5 3abd e943 073c 3687 ef3b
00000360: e160 33ba 4498 833a ce8b 6e3c fffb babb
00000370: 77e3 263d cb73 5dbc 643c 533d ff0d 22bc
00000380: 0783 2b3c 1e90 133d c272 39bc 593c 5dbd
00000390: 0dd1 21bd c3a0 3f3d e1ba 733b 9294 c33b
000003a0: 5dde 71bc c9df c3bd c71d 8d3d 8080 513b
000003b0: 57f2 1cbd b074 86bd 1adf 53bc a72c a8bc
000003c0: a9f1 c63d 49e9 e7bd 5258 2bbd 47cb 2e3c
000003d0: db87 0b3d 121b 553d f4c6 9f3c d13c 943d
000003e0: f191 b73c ca7b 03bd a020 8a3c 1d94 813d
000003f0: 43f8 663d e2c8 e53c a906 323c 5426 8dbd

encoder.4.0.bias f4 [36]
-0.026014648 -0.023223927 0.009494769 0.0066068517 -0.12901267 -0.01207128 -0.021793943 -0.08198789
-0.13683365 -0.10614619 -0.07639154 -0.10062523 0.03739489 0.0113808885 -0.006366493 -0.040943667
0.02769499 -0.16060983 -0.05542899 -0.03298038 0.06003605 -0.0041111414 -0.006487151 -0.06576049
0.03991367 0.08134114 -0.027496416 0.025844531 -0.033049457 -0.066631846 -0.028155297 -0.028137034
-0.02743162 -0.06901387 0.030774241 -0.026220841
00000000: ac1c d5bc 1b40 bebc f38f 1b3c 4a7e d83b
00000010: e61b 04be 9ec6 45bc 3689 b2bc 44e9 a7bd
00000020: 1f1e 0cbe 2c63 d9bd 2b73 9cbd 9a14 cebd
00000030: 622b 193d e876 3a3c 049e d0bb 8cb4 27bd
00000040: 9be0 e23c e776 24be 8209 63bd 6f16 07bd
00000050: 5ce8 753d c1b6 86bb 2b92 d4bb 70ad 86bd
00000060: 847c 233d 2f96 a63d 2a40 e1bc e9b7 d33c
00000070: de5e 07bd 4776 88bd f0a5 e6bc a37f e6bc
00000080: 47b8 e0bc 2557 8dbd 431a fc3c 17cd d6bc
