trained_models/83AD:DE62:EB43:6D24.pt (torch, 51703 bytes, 36 tensors)

encoder.0.weight f4 [18, 36, 5]
000000 01 e6 ee 3a 9a 53 78 3b 89 51 26 bc 21 ae 32 bd
       0.0018226505 0.0037891627 -0.010151275 -0.043623094
000010 bc a5 33 3c 00 8f df 3c 7c 85 a4 3d 9f 85 90 3d
       0.010964807 0.027289867 0.080332726 0.07056736
000020 57 fb a1 3c da 27 98 3b 00 fb 08 bd db c1 04 bc
       0.019773168 0.0046434226 -0.033442497 -0.008102859
000030 ca b6 be bd a9 fc a6 bd c8 eb 16 bd e1 16 4a bd
       -0.09312208 -0.0815366 -0.036845952 -0.049338225
000040 d6 83 7b 3a 77 9d fc bc 47 8d 57 bc 6f cd 6d 3c
       0.0009594535 -0.030836804 -0.013156242 0.014514311
000050 92 74 7e 3b ed ad c7 bc 4d a1 f4 bc 75 cd 97 bc
       0.0038826806 -0.024374926 -0.02986207 -0.018530587
000060 2f c4 67 bd a9 24 2b 3d 48 d0 46 bc 52 44 9b 3d
       -0.05658358 0.04178301 -0.012134619 0.075813904
000070 27 f7 59 3d e2 8d 01 3d c6 8d 8a bc 4a 65 c4 3b
       0.05321422 0.03162945 -0.016913306 0.00599352
000080 4d 39 38 bd e8 0d 9c bc 04 2f 2d bd fb ab 3e 3d
       -0.04497652 -0.0190496 -0.042281166 0.046550732
000090 40 e5 b6 3b a5 a2 0e 3d b6 b7 9c bb f2 66 a3 3c
       0.005581528 0.03482308 -0.0047826422 0.01994655
0000a0 f1 49 8f bc 19 e7 c3 3b b4 da 97 bc 76 32 c4 bc
       -0.017491313 0.0059784767 -0.018536903 -0.023949843
0000b0 b5 bd 04 bc 04 a6 1b 3d 72 1f 49 3d 1a ec a9 3d
       -0.00810187 0.03800012 0.049102254 0.08296986
0000c0 7d 6c 94 3d 67 aa 41 3c 01 e7 4c 3d 2e 7e 32 bd
       0.07247255 0.011820412 0.05002499 -0.043577366
0000d0 fc 78 06 3d a5 8c 99 3c 30 bf 07 3d 35 26 e5 3c
       0.032830223 0.018743822 0.033141315 0.02797232
0000e0 a1 37 e3 3c 27 95 29 bc cf 48 1d bd 5d 37 25 3c
       0.027736487 -0.010350502 -0.038399514 0.010084
0000f0 8a cb f1 3c fb 55 f4 3c 7e cd 01 3d 5e 11 45 bd
       0.029516 0.029826155 0.031690113 -0.048112266
000100 8c b7 99 bc 84 6b 86 3c dd 57 92 3c 06 83 c4 bc
       -0.01876428 0.01640869 0.017864162 -0.023988258
000110 d2 f0 df bc 67 f0 b2 bc e8 d7 85 bd c3 71 33 be
       -0.027336512 -0.021843148 -0.065353215 -0.17523865
000120 2a d7 94 be 8f 68 68 3b 1f b9 87 bd 81 bd b2 bd
       -0.29070407 0.0035462712 -0.06627106 -0.08727551
000130 65 ad e7 3b bc 1d 09 3e 85 19 8a bd c9 12 c1 3d
       0.007070231 0.13390249 -0.06743149 0.09427411
000140 48 41 78 bd ef 58 2e 3c 6d ff 05 3b a3 44 a7 3c
       -0.060609132 0.010641321 0.0020446435 0.02041847
000150 0c 0c b6 bd cd 08 9d bd bc d6 08 bd 2a e8 05 3d
       -0.088890165 -0.07667694 -0.03340791 0.032692112
000160 c5 af 0a 3d a6 a3 d2 bd ae b0 79 bd 52 80 d2 b7
       0.033859033 -0.1028512 -0.06095951 -2.5093705e-05
000170 b4 42 26 3c fc 28 2d 3d 3a 00 99 bd 4b 80 9e 3c
       0.010147739 0.042275414 -0.07470746 0.019348284
000180 2d 56 28 3c 5e 39 29 3b 7b 1e 77 3c 74 6e e1 bc
       0.010274452 0.0025821547 0.015082951 -0.027518488
000190 42 1a 01 3d 2c 3a 9b b9 3e 9d 45 3c e4 e1 1f 3d
       0.031519182 -0.00029607245 0.012061415 0.039033785
0001a0 dd 2a 3c bc 3d 5b d1 3c 7d 0b 14 3d 76 f6 1b bc
       -0.011484829 0.025556201 0.03614377 -0.00951921
0001b0 e4 81 f7 bc 1e c7 e8 3b 5c 86 34 3d 52 43 54 3d
       -0.030213304 0.0071038147 0.044073448 0.051822014
0001c0 6e 6f c6 3a 7d 57 46 3d 95 d6 ef bb b1 fb ce 3c
       0.001513941 0.04842328 -0.0073192813 0.0252665
0001d0 ee 2f e8 3c 37 e5 af bc b5 0d 19 bd 13 28 3c 3c
       0.028343167 -0.021471603 -0.037366588 0.011484164
0001e0 c3 3c 34 3d df 49 61 3d c3 ee d6 3c da 33 0d bb
       0.04400326 0.05500209 0.026236897 -0.0021545799
0001f0 36 ec c7 bb eb 14 25 3d dd 22 a0 3d c0 82 81 3c
       -0.0061011566 0.040303152 0.0781915 0.015809417
000200 4e 54 64 3c ea 04 d1 3c e6 0c b4 3d 3c a9 82 3c
       0.013936115 0.025515039 0.08791523 0.015949838
000210 9e 30 3a bd ca e0 c7 3b a8 f0 45 bd 4f ff 9c 3d
       -0.04545652 0.006099795 -0.04832521 0.07665884
000220 69 e7 7b 3d b8 9c fe 3b 6a 0b d4 3c 57 95 b8 3c
       0.061499987 0.007770147 0.025884349 0.022532148
000230 86 de a8 3d 96 c1 3d 3d 0f 99 fa 3b 1d b0 8c bc
       0.08245568 0.046327196 0.0076476405 -0.017173821
000240 f5 a3 17 bc 27 8b 08 3d 0a ea 08 3d db e6 19 3d
       -0.009255399 0.03333583 0.033426322 0.037573677
000250 cc 8f c5 3c fb 48 6b 3a 02 3b 8b 3d 54 46 86 3d
       0.02411642 0.00089754135 0.06798364 0.06556383
000260 36 05 6f 3c cd a7 9c 3a bf 8f a1 3c f6 c4 36 3d
       0.014588645 0.0011951864 0.019721864 0.04462143
000270 a1 70 93 3d b8 3f 8e bc cd 41 48 bc ec 04 32 bd
       0.07199217 -0.017364368 -0.012222719 -0.043461725
000280 e6 88 30 3c b4 8e b0 bb cc f8 07 3a 0f c0 8e bd
       0.010774827 -0.0053881053 0.0005186915 -0.06970226
000290 95 07 1f ba 9a 79 9c 3d 53 32 49 3d f8 8a 3f 3c
       -0.00060664985 0.07640381 0.04912026 0.011690848
0002a0 89 22 ae bb fc 32 ca bc f0 db f1 bc 35 fb 1b bd
       -0.0053141755 -0.024682514 -0.02952382 -0.038081367
0002b0 c4 65 8f bd 50 e8 ec bd d5 71 22 bd aa 74 b6 bd
       -0.07001832 -0.115677476 -0.03965934 -0.08908971
0002c0 5c 6f 8f bd 30 de af bc 04 f3 d4 bd f8 0b a9 3c
       -0.07003662 -0.021468252 -0.10397914 0.02063559
0002d0 c1 00 d4 3d 30 ed d8 3d 2e 63 19 3e 17 1c 83 3d
       0.10351706 0.10592115 0.1497924 0.06401842
0002e0 f1 30 f8 3b 6f 57 80 3d c7 7f b4 3d 26 7b 9a 3c
       0.0075741936 0.06266677 0.08813434 0.01885755
0002f0 1f 9e 0e 3c 9d ff 43 3c 2d 81 d7 bd 59 34 d4 bd
       0.008704691 0.011962798 -0.10522685 -0.10361547
000300 3c f2 da bc 19 af 22 3c a6 fd 80 bc 09 9d c0 ba
       -0.026726834 0.009929442 -0.015745949 -0.0014695238
000310 d1 e3 e4 bc 23 cd 45 3c bf b4 c0 3b 2c af 9c bc
       -0.027940663 0.012072834 0.0058809216 -0.019126497
000320 e8 b6 74 bb f6 d3 bc bd c7 f7 86 bb 2d 1e 64 bc
       -0.0037340466 -0.09220116 -0.004118893 -0.01392321
000330 a7 8a fa bc fc ee ed bc 40 9f a8 bc 5a 11 b2 bd
       -0.030583693 -0.02904462 -0.020583749 -0.08694716
000340 f5 43 80 3d aa f6 83 3c 11 a4 60 bd a6 bd 82 bd
       0.06262962 0.01610883 -0.054843966 -0.06383829
000350 78 ab bf bd 4b a0 7c bc 0a 15 c3 bd 62 62 2e bd
       -0.09358877 -0.015419076 -0.09525497 -0.042574294
000360 64 c9 0a bc a6 d2 8c bd c6 a6 b8 bc dc d0 36 3c
       -0.008470867 -0.068761155 -0.022540461 0.011158194
000370 3d ea 67 3a 3b 7f 57 bd 86 e2 af bc 77 ca 47 3d
       0.0008846855 -0.05261157 -0.02147032 0.04877707
000380 e6 77 5f bd cd 67 78 bc 3b 02 a2 3c 32 08 35 3d
       -0.054557703 -0.015161467 0.019776454 0.04419727
000390 e6 7e 27 3d e8 19 e2 bc 34 b3 3f bd 0d b4 7d 3d
       0.040892504 -0.027600244 -0.04680176 0.061939288
0003a0 8a ad b2 bd f5 a6 23 bd db dc 7c 3d bb 12 84 bd
       -0.08724506 -0.039954145 0.06173406 -0.06448885
0003b0 cd 74 bd 3d de ab cc 3c be 9b 9d 3b 8e eb 12 bd
       0.092507936 0.024984296 0.0048098257 -0.035869174
0003c0 10 f9 e1 3c 46 e6 0a 3d 32 24 8f bc 81 71 59 3d
       0.027584583 0.033911012 -0.017473314 0.05308676
0003d0 b2 5d 5b 3d f1 49 59 bd 3a d8 b1 ba dc 3c 95 bd
       0.05355615 -0.05304903 -0.0013568469 -0.07286999
0003e0 34 0b 2f 3a ff 51 5c 3d ce 09 4d bd 92 b3 d9 3d
       0.00066773896 0.053789135 -0.05005818 0.106299534
0003f0 51 54 fb 3d 9a 9f 46 bd 09 e7 eb bd 46 23 b9 3c
       0.122719415 -0.04849205 -0.11518676 0.022599827

encoder.0.bias f4 [18]
000000 37 29 aa 3d 04 60 86 3d 6b 7f 16 bc da 48 54 3d
       0.08308642 0.06561282 -0.009185652 0.05182729
000010 f9 2a 89 3d 8c aa 98 3d cd e6 fc bc 74 e3 28 3c
       0.066976495 0.07454404 -0.030871773 0.010308135
000020 11 29 42 3d c1 ee 1c 3c 58 f0 e6 3d 9b 3f d7 3d
       0.047402445 0.009578408 0.11276311 0.10510179
000030 bc e3 9f 3d ae 17 93 3d 27 68 0d bc cf 5e 13 3d
       0.07807109 0.07182251 -0.008630789 0.03597909
000040 9d 17 bd 3c 52 29 85 3d
       0.023082549 0.06502022

encoder.1.weight f4 [18]
000000 7a 99 73 3f d6 13 39 3f 96 e2 3a 3f 51 de 6f 3f
       0.9515606 0.7229589 0.7300199 0.936986
000010 1c eb 6c 3f b1 fe 44 3f 27 9e 6a 3f 39 77 39 3f
       0.9254625 0.7695113 0.9164757 0.72447544
000020 90 4f 61 3f ce b0 49 3f 72 74 9a 3f ef 56 6d 3f
       0.8801203 0.7878541 1.2066786 0.92710775
000030 f3 40 84 3f 10 0a 7a 3f 09 1f 92 3f 64 b1 66 3f
       1.0332321 0.97671604 1.1415721 0.90114427
000040 d2 9d 55 3f 68 6b 4d 3f
       0.8344394 0.80242014

encoder.1.bias f4 [18]
000000 82 3c a9 bd b1 d4 3a bd 99 74 b9 bd b3 68 82 bc
       -0.08263494 -0.045612995 -0.09055442 -0.015919065
000010 58 b3 b8 bd a2 25 14 bd 4b a0 b1 bd e1 3f 2a 3d
       -0.09018582 -0.036168702 -0.086731516 0.041564826
000020 06 03 b3 bd d2 b8 b8 3b 4a 18 96 bc c9 c2 85 bd
       -0.08740811 0.0056372667 -0.018322129 -0.06531293
000030 32 9f ae 3b 53 82 a8 bd 15 0a 07 bd 2f ea 3d bd
       0.005329036 -0.08227982 -0.0329686 -0.046365913
000040 6f 60 b5 bc 92 ac 6d bc
       -0.02214071 -0.014506476

encoder.1.running_mean f4 [18]
000000 dc 1f 5b bf 6f 07 fb 3e 3c 49 a1 bf 82 e6 83 be
       -0.8559549 0.4902911 -1.2600474 -0.257618
000010 36 9e 10 bf a7 a9 a7 3f 95 43 02 bf 42 bf c3 3e
       -0.5649141 1.3098649 -0.5088437 0.38231856
000020 02 22 8c bf 6e 3e 32 3f b5 57 25 bf d7 bb 83 be
       -1.0947878 0.6962651 -0.64586955 -0.25729248
000030 23 e2 2b 3f 58 36 4c bf d2 87 6f bf 6b a4 a3 3e
       0.6714193 -0.7977042 -0.9356662 0.31961378
000040 69 a9 62 bf 28 f3 e4 3f
       -0.8853975 1.7886705

encoder.1.running_var f4 [18]
000000 59 a1 e9 3b 24 9d 91 3b 59 65 fe 3b 13 a7 e6 3b
       0.00712983 0.0044437815 0.0077635464 0.00703896
000010 25 fb c1 3b c7 67 ee 3b 5a 56 0b 3c 11 43 01 3c
       0.0059198313 0.007275555 0.008504475 0.007889525
000020 04 9c a6 3b 66 50 79 3b 01 5f 8d 3b 7b 1f 71 3b
       0.0050845165 0.0038042306 0.004314304 0.0036792445
000030 5e 70 a7 3b b9 d9 ba 3b 3b 54 f1 3b c7 c1 44 3b
       0.0051098308 0.005702224 0.0073647774 0.0030022727
000040 05 80 89 3b 20 30 08 3c
       0.0041961693 0.008312255

encoder.3.weight f4 [9, 18, 5]
000000 1b 7a 7e bc 5e a7 a2 3c 71 87 f0 3c 16 5a 89 3b
       -0.015532042 0.019855198 0.029361458 0.0041916473
000010 92 b3 c7 bd ef f8 4c 3d 27 cd ac bc 5c c2 c8 bd
       -0.09751047 0.05004209 -0.021093918 -0.09802696
000020 e9 27 87 3d d5 38 46 3d d8 66 d2 39 36 75 42 b9
       0.06599409 0.048394043 0.00040130946 -0.00018544946
000030 49 97 d4 3d 74 1d 70 bd d5 44 f9 bd 99 77 e2 3b
       0.10380418 -0.05862184 -0.12171332 0.00691123
000040 6a c6 cc 3d f0 49 2d bd 76 8d 3c 3d c2 cb 6a 3d
       0.09998782 -0.04230684 0.046033345 0.057323225
000050 f2 85 96 3d ab 06 e0 3d ff b6 ae bd 0c 6c a5 bd
       0.07349767 0.10938772 -0.085309975 -0.08077249
000060 03 a9 22 be af fa f1 3c 8f 14 12 3d 1f 75 33 3d
       -0.15884785 0.02953848 0.035664137 0.043812867
000070 c3 24 b6 3a 16 cb be bc e5 17 88 3d e8 92 1c bc
       0.0013896454 -0.023290198 0.066451825 -0.00955651
000080 2c 35 a3 bd ce dc de 3d 87 e4 31 bd 72 28 70 3c
       -0.07969126 0.10881959 -0.04343083 0.01465808
000090 b6 87 5b bc fd 9b c5 bd 2c cd a5 bb 81 a7 01 3e
       -0.013399055 -0.09648893 -0.005059859 0.12661554
0000a0 45 74 c7 bd 76 07 4d bd d3 5c b1 3c 33 11 3f 3d
       -0.097389735 -0.050055943 0.021650707 0.04664726
0000b0 6e 1a b7 bd c4 97 bc 3d a6 ec 2e bd 49 7a 89 3c
       -0.08940588 0.092086345 -0.042706154 0.016781943
0000c0 63 73 38 bd e9 71 52 3d 9d a7 18 bd 3a 06 76 bd
       -0.045031916 0.051378164 -0.037269223 -0.060064532
0000d0 5b 60 94 3b 99 b1 a6 3c 55 82 14 3d be 4a ea 3c
       0.004528088 0.020348357 0.036257107 0.028600093
0000e0 80 01 be bc a2 44 8c 3d 46 ea 92 bd 7a 1d 4f bd
       -0.023194075 0.06849028 -0.0717359 -0.05056522
0000f0 41 5f b3 3c 5f f0 91 3d fe 6a 09 bd d3 01 c9 ba
       0.021896007 0.07125925 -0.0335493 -0.0015335627
000100 2e 37 69 bd d6 8f 69 3d 54 68 9f 3c 2b 0e 83 bd
       -0.05693739 0.05702194 0.019458927 -0.06399187
000110 93 d2 36 bd 4d 3a 66 bc b3 c4 21 3c 92 61 eb 3d
       -0.044634413 -0.014051986 0.009873557 0.114932194
000120 1e bc 7c 3d bb ce 10 be 48 90 1c be 9f ff 7d 3d
       0.06170284 -0.14141361 -0.15289414 0.062011357
000130 48 3f ba 3c d1 88 27 bd 65 47 60 3d 01 4e f4 bb
       0.022735253 -0.040901963 0.054755587 -0.007455588
000140 fd 8f 89 bc 0e 6d ae 3c c9 06 86 3d 93 ab 3a bb
       -0.016792292 0.021292236 0.06544263 -0.0028483614
000150 28 42 8e bd 58 06 e2 bb 31 dd ff 3a 8a e3 d6 3d
       -0.06946212 -0.006897729 0.0019520876 0.104926184
000160 82 d2 9e 3d e2 aa 05 3e 5b a7 f1 bd a4 8f de bc
       0.07754995 0.13053468 -0.11799499 -0.027168103
000170 b6 ce b6 3b 8f 1e 90 3d 19 4a 82 3c 30 15 89 bc
       0.005578841 0.070370786 0.015904473 -0.016733736
000180 7c c3 14 bd 73 5d 79 bc 6a 70 ca 3c 44 43 2b 3d
       -0.03631924 -0.015220034 0.024711806 0.041812196
000190 02 2d 43 bd 60 71 16 be 3b 17 35 3c 88 6f 14 bd
       -0.047650345 -0.14691687 0.011052902 -0.036239177
0001a0 0b 9e af 3d 11 af b7 3c 02 c6 a7 3d 4f b0 6c 3d
       0.08575066 0.022422345 0.08192064 0.05778533
0001b0 83 07 bd 3c 59 e8 84 3d ec dd 5b 3c 93 11 4e 3d
       0.02307487 0.06489629 0.0134196095 0.05030973
0001c0 24 1f 47 bd 25 c1 9c 3c 03 2c 1d 3c ff 84 66 3d
       -0.048613682 0.019135067 0.009593013 0.05627918
0001d0 27 7b 12 bb 0a 82 25 bd 5a 7d 35 3d 53 4d 8a 3c
       -0.0022351237 -0.040407218 0.044308998 0.016882574
0001e0 b7 08 3b 3c cd 2a 61 3d c0 a6 05 be a0 4a 5d 3d
       0.011415652 0.05497246 -0.13051891 0.054026246
0001f0 67 79 a0 3c 7e 43 93 bd da 21 14 3d e2 95 1c 3d
       0.01958914 -0.071906075 0.036165096 0.038228877
000200 55 ba 09 bd 93 1e b3 bc e7 40 fb 3c 4b 7c e0 3c
       -0.033624966 -0.021865165 0.030670596 0.027403018
000210 c0 52 c3 bd 0d 06 17 bd 33 9b ae 3c 60 47 48 3d
       -0.09537268 -0.036871005 0.02131424 0.048896194
000220 15 d1 06 be 6a 16 f9 3c 57 07 cb 3c a6 37 7e 3d
       -0.13165696 0.030406196 0.024783773 0.06206479
000230 e6 6e ef 3c 32 05 b1 bb e1 d9 ca 3d 82 cb 02 3d
       0.029227685 -0.0054022307 0.09904838 0.03193236
000240 e2 32 f7 3c d8 01 cc bc 61 e3 88 3d a6 f1 96 3d
       0.03017563 -0.024903223 0.06683994 0.073703095
000250 2f 5c 13 bd 0f e8 6c bd c6 19 56 3a 75 e5 f0 bc
       -0.035976585 -0.057838496 0.00081672927 -0.029406289
000260 6f 5e 4b be 4c b3 cb 3d 92 14 84 3d 85 c4 10 bc
       -0.19860242 0.099463075 0.06449236 -0.008835916
000270 99 1c 71 3d 74 30 7e bd 86 e1 17 3d ac 79 d6 bb
       0.058865163 -0.062057927 0.03708031 -0.006545266
000280 0e a5 83 3d c6 0f 16 3d 58 69 06 3d 4c 99 c9 bd
       0.06427966 0.036636136 0.032815307 -0.09843692
000290 25 94 83 bd b2 67 3e bd db e3 05 3d 9b fc 82 bc
       -0.06424741 -0.04648561 0.032688003 -0.015989592
0002a0 50 b0 86 3c d8 61 2c 3b f2 19 0c bd 82 0d 8d bd
       0.016441494 0.0026303437 -0.03420443 -0.06887342
0002b0 d4 30 3a 3d 71 81 59 3d 3c 29 69 bd b7 b0 2c bd
       0.045456722 0.05310196 -0.05692409 -0.042160716
0002c0 13 7a dc 3c 4c aa 5c bc ee 2c 41 3d 00 5d 06 3c
       0.026913678 -0.013468336 0.04716199 0.008200884
0002d0 b5 23 ee bd 14 70 0c be 1c db 51 3e 3a 3f 41 bd
       -0.11627904 -0.1371463 0.2049374 -0.04717944
0002e0 e3 4d 65 bd 3f 88 ba 3d 56 f9 7d bd dd e2 e6 bc
       -0.05598248 0.09108018 -0.062005363 -0.028184349
0002f0 48 52 d6 bb 12 6f 19 bc 53 95 d1 bc 4c 37 26 bc
       -0.0065405704 -0.00936486 -0.025583899 -0.01014502
000300 d2 d6 f0 bc 68 92 21 3e 28 c1 0c 3d 1f 00 1b bd
       -0.02939931 0.15778506 0.034363896 -0.037841912
000310 01 7f cd 3d 12 b7 00 ba c5 a6 99 bd 32 d8 93 bd
       0.1003399 -0.0004910092 -0.07502512 -0.0721897
000320 ce a1 e0 3c 24 f5 d4 3d b0 f3 05 3e de 5d 8b bc
       0.027420904 0.10398319 0.1308124 -0.017012533
000330 43 5e f7 bb fc 16 91 3d 57 d6 b3 bd 47 dd fe 3d
       -0.0075490787 0.07084462 -0.087811165 0.12444549
000340 22 25 73 3c 42 cc 30 bd 92 dc 89 3d de 7a 29 3b
       0.014840396 -0.043163545 0.067315236 0.0025860588
000350 86 28 dc 3d 4d 01 88 3d bd 83 ab 3c b3 96 bd 3b
       0.10749917 0.06640873 0.020936841 0.005785787
000360 06 76 15 bd 56 44 25 3d 9a 12 bb 3d a0 1f 16 be
       -0.03648951 0.040348373 0.09134407 -0.14660501
000370 80 25 51 3d 43 f4 87 bd 1e b6 4e be c7 b1 0d 3e
       0.051061153 -0.06638386 -0.2018666 0.13837348
000380 30 78 60 3c d0 4c 32 3d 49 6c c0 3d cf 8d ca 3c
       0.01370053 0.043530285 0.09395654 0.024725823
000390 5b e8 95 bd 18 a2 54 3c d9 8c 54 bc 2b fd 3b 3d
       -0.07319709 0.012978099 -0.012973034 0.045895737
0003a0 1a b7 48 bd 6e 12 51 3d 06 85 c0 bb 42 a2 46 3d
       -0.049002744 0.051042967 -0.0058752326 0.048494585
0003b0 76 f5 00 bc 6f 5f 0d be 03 d8 ae bd 7c 94 b6 3d
       -0.007871022 -0.13805936 -0.08537295 0.0891504
0003c0 05 8c 3d bd f2 57 61 bd 4e c1 82 bd 15 5e 35 3e
       -0.04627611 -0.05501551 -0.06384526 0.1771167
0003d0 c0 fc 2d be e2 08 86 3d b4 b1 77 3d eb 82 9e bd
       -0.16990948 0.06544663 0.060472205 -0.07739814
0003e0 dc f5 db bc 6c 02 d6 3b be 1d 5a bd 56 78 d3 3d
       -0.026850633 0.0065310504 -0.05325102 0.10325687
0003f0 d4 a1 92 3d 29 4c f1 3d 2e 90 13 bd 58 f0 b6 3d
       0.071597725 0.117821045 -0.036026172 0.08932561

encoder.3.bias f4 [9]
000000 1f 0e f3 3c 30 d4 a3 3d 47 60 a4 3d 96 5f e4 3c
       0.02966982 0.07999456 0.08026176 0.02787761
000010 0a 82 a0 3d d8 4a 6c bd c4 16 40 bd ab 53 2d 3d
       0.07837303 -0.057688564 -0.04689671 0.04231612
000020 13 44 38 bd
       -0.044986796

encoder.4.weight f4 [9]
000000 71 0f 45 3f 0c c9 40 3f 6f ea 3c 3f f7 2d 3d 3f
       0.76976687 0.75306773 0.7379522 0.7389826
000010 9f d0 17 3f c1 32 2f 3f 89 07 34 3f b7 ff 43 3f
       0.59302706 0.6843682 0.70324 0.76562065
000020 f6 cb 39 3f
       0.72576845

encoder.4.bias f4 [9]
000000 8d 74 a0 bd fa 3a bb bd df e5 83 bd aa b8 84 bd
       -0.0783473 -0.09142108 -0.06440329 -0.064805344
000010 9a e9 86 bd ce 18 c8 bd 89 2b d3 bd 65 d8 ce bc
       -0.06587525 -0.09770356 -0.10311038 -0.02524967
000020 00 dd 44 bd
       -0.048062325

encoder.4.running_mean f4 [9]
000000 3d a7 35 3c 51 ca 03 bd 10 a0 2e 3d 4b 89 43 bd
       0.011087236 -0.032175366 0.042633116 -0.047738355
000010 11 0f 36 3d 9e 1e c1 bd 67 a7 1f bc 28 7d 08 bd
       0.044447962 -0.09429668 -0.009744502 -0.033322483
000020 60 cb b7 bc
       -0.022435844

encoder.4.running_var f4 [9]
000000 1e 4a 3d 3f c4 c9 62 3f 83 97 07 3f 8c 45 37 3f
       0.7394122 0.8858912 0.52965564 0.71590495
000010 3a bd 16 3f 08 72 34 3f 73 08 3a 3f 1d 9a 62 3f
       0.58882487 0.704865 0.7266914 0.8851641
000020 28 f0 20 3f
       0.6286645

encoder.6.weight f4 [9, 9, 7]
000000 2d 0f f4 3d 52 01 36 3d 20 ac d2 3d 66 7e e0 3d
       0.11916957 0.044434853 0.102867365 0.109616086
000010 24 21 06 3d 41 e1 b9 3d da 8b f8 38 d6 d1 37 bd
       0.03274645 0.09076167 0.00011851611 -0.04487785
000020 5e 8f 99 3d 20 85 51 3c 28 d3 85 3d 76 e8 b4 bd
       0.07498048 0.012788087 0.065344155 -0.08833401
000030 89 22 5d bd 03 3c 6f 3d 69 05 a0 bd 0f e4 96 3d
       -0.053988013 0.05840684 -0.07813532 0.073677175
000040 7c 10 3c bd 15 3f b8 3d 99 b5 58 3a 6b 29 85 3c
       -0.04591416 0.08996407 0.0008266806 0.016255101
000050 20 17 8c ba 89 7b 41 3d b2 d3 03 be 47 ab 3d bd
       -0.0010688044 0.047236953 -0.12873724 -0.04630592
000060 74 d8 12 3d a3 5e bd 3d 60 26 12 bd 11 1f 08 3d
       0.035850957 0.09246566 -0.03568113 0.033232752
000070 c1 95 2a 3b f0 12 f6 bd dc 6e 33 3d c9 f8 27 3c
       0.0026029202 -0.12015331 0.043806896 0.010252186
000080 14 76 a9 bd f4 ea b6 3d 1c ed 06 3d 3c 82 63 bd
       -0.08274475 0.089315325 0.03294097 -0.055544123
000090 1c 9e ee 3d 97 19 55 3d fb 16 17 bc 24 c9 1f be
       0.11651251 0.052026358 -0.009221788 -0.15604073
0000a0 cd b3 a7 bd 45 d9 55 bd 16 c6 7a 3d 75 8e 56 3d
       -0.08188591 -0.052209157 0.061224066 0.05238195
0000b0 bf e9 9f bc c6 2a a8 bc 10 57 01 bd 29 9b ef bb
       -0.019520639 -0.020528208 -0.03157717 -0.0073121977
0000c0 f0 fc cc 3d f0 8a 3d 3d fd f0 68 3d 4e ed 4e bd
       0.100091815 0.04627508 0.05687045 -0.05051928
0000d0 02 a4 72 3d 63 df c0 3d cf e8 8b 3d 72 c0 d7 bc
       0.05923844 0.09417608 0.06831514 -0.026336882
0000e0 95 d3 72 3c 9d 7f 66 3d 38 d1 6c 3c 0f 8d 82 3c
       0.014820953 0.056274045 0.0144541785 0.015936403
0000f0 b9 bf ab 3c 0c 26 39 3d 60 03 8d bd d2 0e d4 bc
       0.020965444 0.0452023 -0.06885409 -0.025885973
000100 aa 8b c5 bc 43 9a 21 bd bc 3f 1a 3c 48 b9 9b bd
       -0.024114449 -0.039453756 0.0094146095 -0.07603699
000110 33 6d 3f 3c b8 12 16 3c e2 14 b9 bc b3 0b 11 3e
       0.01168375 0.009159736 -0.022592966 0.14164619
000120 29 bd b0 3d b2 39 97 bd f6 b9 87 be e8 48 71 3c
       0.086298294 -0.073840514 -0.26509064 0.014726855
000130 36 85 bf 3c fb 74 3f 3c d8 d9 dd 3d a5 b2 b6 bd
       0.02337895 0.011685605 0.10832566 -0.089207925
000140 7a aa 3f bc e1 e6 82 bd 75 76 50 3d d3 a8 67 3d
       -0.01169836 -0.06391693 0.05089422 0.056557488
000150 26 4d ca bc 2d fd 17 3d 57 6d b6 bc d8 17 8d bc
       -0.02469499 0.03710668 -0.022268934 -0.017223284
000160 ad 40 3a 3d e3 03 51 3d df 83 31 3d 33 5f d5 3c
       0.045471836 0.051029097 0.043338653 0.026046371
000170 84 18 69 3d ad 20 a0 3c c8 19 41 be d5 bf e6 bd
       0.056908146 0.019546831 -0.18857491 -0.11267058
000180 24 22 fe 3c a7 ed 8b bc af e7 13 bd 18 bf e5 bd
       0.031022139 -0.017081095 -0.036109623 -0.11218089
000190 bc ce b2 bc 6d e5 b2 bc 86 6d ab bc 1f f6 a0 3d
       -0.021827094 -0.021837914 -0.020926248 0.07859444
0001a0 c1 3c 37 ba 2a 6a 87 3d 55 b7 11 3d e1 43 4c 3c
       -0.0006989949 0.06612046 0.03557523 0.0124673555
0001b0 c5 00 09 be 11 a3 da bb 83 01 9b bd 05 09 42 bd
       -0.133792 -0.006672271 -0.07568648 -0.047371883
0001c0 5e e2 78 bd b3 93 a7 3d 99 68 f0 3b d0 d4 90 3d
       -0.060762756 0.08182468 0.0073366878 0.07071841
0001d0 84 b9 90 3d 7a 7a b3 3c 2f d0 81 bd 29 8a 0c bd
       0.07066634 0.021908987 -0.06338536 -0.034311447
0001e0 c6 b8 02 3d cb e3 9f 3c 61 02 85 3d 8e f3 99 bb
       0.031914495 0.0195178 0.06494594 -0.0046982234
0001f0 c3 9a 01 3e 28 aa d9 3d 11 da c1 3c ce bb e6 bb
       0.12656693 0.10628158 0.023663552 -0.007041431
000200 d8 9d 12 3d ba 9a 02 3d 5f b9 6a 3e 05 22 31 bc
       0.035795063 0.03188584 0.22922276 -0.010811334
000210 76 5d 96 3c 7a e0 1a 3d e5 6e bd 3b ca ab 05 3e
       0.018355113 0.037811734 0.005781042 0.13053814
000220 ae 02 0e be e1 84 33 bd 67 c3 10 3e ff c9 87 bd
       -0.1386821 -0.043827895 0.1413704 -0.066303246
000230 2b 58 6d 3d 5f 61 ee bd 8e 47 e5 3d 2d 23 ea bd
       0.05794541 -0.11639666 0.111952886 -0.114324905
000240 7c 4f 51 3d a4 4d 7c bd 80 24 70 3d 34 b3 db bc
       0.051101193 -0.06159748 0.05862856 -0.02681885
000250 81 31 9d bd a8 a5 75 bd 08 5f 8b 3d e2 ec 12 bc
       -0.07675458 -0.059972435 0.06805235 -0.00896761
000260 4a d4 a3 3d 7f 0e 49 3c 1b 5d 47 3b 97 c2 b1 3a
       0.07999475 0.012271523 0.0030420485 0.0013562021
000270 ee b9 ef bd c4 86 16 bc 76 f7 ec 3d f3 90 34 be
       -0.11705385 -0.009187404 0.11570637 -0.17633419
000280 3b f3 b9 3d 70 88 5b bd 9e 02 53 3b 94 68 a2 3b
       0.09079596 -0.053596914 0.0032197605 0.0049563143
000290 86 63 21 bd 7f ff 53 bd 72 75 f6 bd 45 d4 bc ba
       -0.039401554 -0.051757332 -0.1203412 -0.0014406523
0002a0 58 6f 6c 3c 57 1b d4 bc c3 47 99 bd b9 17 0a bd
       0.014430843 -0.025891943 -0.074843906 -0.03371403
0002b0 58 3d 84 3c c4 47 65 3c dc 55 3d bc 62 b8 35 3d
       0.016142532 0.013994161 -0.011556115 0.044365294
0002c0 89 23 0c 3d cb 16 41 3d d3 65 41 bc a6 02 16 3d
       0.034213576 0.047140878 -0.011804062 0.03662362
0002d0 59 e9 5b bc 3a ca 97 bc af 33 9f 3b 80 87 42 3d
       -0.013422334 -0.018529046 0.004858456 0.047492504
0002e0 b7 d8 af 3c 89 60 22 3e 09 d4 61 bc 1c 9e 99 3d
       0.021465642 0.15857138 -0.013783463 0.0750086
0002f0 b7 79 89 bc 1d 20 79 3d a0 60 51 3c 57 9d 00 3e
       -0.016781671 0.06082164 0.012779385 0.1256002
000300 51 7c 0b 3e 27 6d a4 bd fe 27 ec 3c 5a 8e 02 3c
       0.13621642 -0.08028632 0.028827664 0.00796851
000310 9f c2 a7 39 b1 2b 1e 3d 26 12 13 3d b1 d6 df bd
       0.00031997726 0.038615886 0.03590598 -0.10929621
000320 4a d7 c3 3b f0 f2 6d 3d eb 1c 99 bc 62 c6 fa bc
       0.005976592 0.05809301 -0.018690547 -0.030612174
000330 b3 12 72 3c 23 7b ea bd cd dc ab ba a7 46 96 bb
       0.014774966 -0.11449268 -0.0013112068 -0.004586059
000340 c5 15 e9 bc d2 ce 10 bc 4c b6 00 bd 64 b1 c1 39
       -0.028452763 -0.008838372 -0.03142385 0.00036943995
000350 fb 05 d4 3c 35 f0 1a 3e 8d 74 a3 bb 57 f4 35 bd
       0.025881758 0.15130694 -0.004988259 -0.044422474
000360 0d 6e 4f 3d 1c 47 27 3c bc 14 a2 bb 92 6f 89 bd
       0.050642062 0.010209825 -0.0049463194 -0.067107335
000370 f8 55 75 bc 2f 61 c1 bd 7b b0 db bc 64 23 fd bc
       -0.01497411 -0.094423644 -0.02681755 -0.030900665
000380 eb a7 28 bd ad 4f 79 bd 4e b5 cf bb 3d 4e 7f 3d
       -0.041175764 -0.060867 -0.006338752 0.062330473
000390 7c fa f0 3d cb 8e e6 bd e7 3b 6e 3c 95 70 40 3c
       0.11766526 -0.11257704 0.014540649 0.011745592
0003a0 7b f3 4a 3d 86 77 32 bc f6 76 85 3d 37 4c a7 bd
       0.049548607 -0.010892754 0.065168306 -0.08168834
0003b0 c2 b1 af 3d 14 22 ba bc 08 a6 f3 bc d2 5c ef 3b
       0.085788265 -0.022721328 -0.029742256 0.007304766
0003c0 cc 16 07 bd 81 75 03 bb cf 67 9c 3c a2 84 17 3c
       -0.032980725 -0.0020059051 0.019092469 0.009247931
0003d0 eb 4b 3a bd e4 55 12 bc 12 01 22 3d 3f d9 2c 3d
       -0.045482557 -0.008931611 0.039551802 0.04219937
0003e0 84 b3 1d 3e 94 07 40 bc 58 37 c4 bd ab 53 67 3c
       0.15400511 -0.011720557 -0.095808685 0.014119069
0003f0 49 52 d0 3b 21 a2 02 bc 6b 48 55 bc 6e 34 c5 bd
       0.0063574654 -0.007973225 -0.013017754 -0.09629141

encoder.6.bias f4 [9]
000000 0b 23 2f bc 84 f7 0e 3d d8 aa af bd 3f a2 3e bc
       -0.010689507 0.034904018 -0.08577508 -0.011635362
000010 8a 8f fa bd 8d 15 40 bd 40 5f 9b 3d 88 59 f8 bc
       -0.12234409 -0.046895552 0.07586527 -0.03031613
000020 ac 6e 31 bd
       -0.043318436

encoder.7.weight f4 [9]
000000 77 45 19 3f fd e7 3d 3f a7 c5 2b 3f 9c 1a 46 3f
       0.5987162 0.7418211 0.6709847 0.7738435
000010 d2 24 4b 3f fb 16 4c 3f 99 67 39 3f d0 e1 6a 3f
       0.7935306 0.79722565 0.724237 0.9175081
000020 96 75 5e 3f
       0.8689817

encoder.7.bias f4 [9]
000000 4f de 09 3d 1d f8 21 3d 4a ad 4d bd 5a 14 d9 bc
       0.033659276 0.03954326 -0.05021409 -0.026498962
000010 45 90 b9 3c 74 b3 83 bd 8f 5b 50 bc 02 04 24 bd
       0.0226518 -0.06430712 -0.012717142 -0.040042885
000020 a0 62 80 bd
       -0.06268811

encoder.7.running_mean f4 [9]
000000 0b d0 e2 bd 8b f9 27 3e 60 38 21 be c5 21 10 be
       -0.11074837 0.16403787 -0.15744162 -0.14075382
000010 17 67 c1 bd 0c 1c fa bc b1 54 00 3e c2 fc aa bd
       -0.09443491 -0.030530952 0.12532307 -0.08348991
000020 17 e4 d0 bd
       -0.10199755

encoder.7.running_var f4 [9]
000000 4b 1d 7b 3f cf 7f 03 40 88 df 73 3f ec 57 6a 3f
       0.9809157 2.0546758 0.95262957 0.9154041
000010 c1 77 d2 3f 2e 86 6d 3f 9b a2 6b 3f 00 49 e7 3f
       1.6442796 0.92782867 0.9204499 1.8069153
000020 38 f7 96 3f
       1.1794195

decoder.0.weight f4 [9, 9, 7]
000000 f0 70 2a bd e0 5a 2c bd bb 42 2e be 81 fb 06 bc
       -0.04161161 -0.042078853 -0.17017643 -0.008238674
000010 c7 4b 18 3e ed 13 45 3d 25 fb 17 3d d3 bb 0d 3d
       0.14872657 0.048114706 0.037104744 0.03460295
000020 a0 a0 20 3d 66 b9 a9 bd f8 25 26 3e 5e 27 1e 3d
       0.039215684 -0.08287315 0.16225421 0.038611762
000030 d6 de 4f bd 46 39 65 3d 6f fb 8a 3d 8e 2a 8f 3d
       -0.050749622 0.055962823 0.067862384 0.069905385
000040 a6 25 2d 3d df e9 01 3e ea 61 e0 bd 47 dd 0a bd
       0.042272232 0.12686871 -0.109561756 -0.033902433
000050 63 90 ee bd c1 62 fa 3b 16 51 3b bd c9 87 0f be
       -0.11648633 0.007641167 -0.045731626 -0.14016642
000060 6e d1 b4 bd da f2 bc bd 11 45 a9 bc 4f 11 2b 3d
       -0.08829008 -0.09226008 -0.020662816 0.041764554
000070 2e 91 ae 3c 16 40 d4 bd bf 64 eb bd 43 d8 0f 3d
       0.021309461 -0.10363786 -0.11493825 0.035118353
000080 99 20 9e 3d 7d e4 8c bc e2 3d a4 bd 38 bd 91 bc
       0.07721061 -0.017198795 -0.08019616 -0.017790422
000090 0c 70 9d 3c d9 ba 0e bd 16 02 e9 bd 55 b8 fc 3d
       0.019218467 -0.03484616 -0.11377351 0.12339846
0000a0 61 df 1d bd 84 68 39 3c b5 e3 f7 bb 74 76 7b 3d
       -0.03854311 0.011316422 -0.0075649866 0.061392263
0000b0 d7 92 24 3d 87 79 34 3d bd 8c 3e bd 68 44 00 be
       0.0401791 0.04406121 -0.046520937 -0.12526095
0000c0 08 0d 53 3c 58 c5 07 be 03 f4 29 3e 6b 39 4b 3c
       0.012881525 -0.13258874 0.1659699 0.012403826
0000d0 b7 d8 a7 bc d8 84 68 3d b5 d3 34 3e 23 9b 39 bd
       -0.02048908 0.056767315 0.17658885 -0.045313966
0000e0 77 76 72 bb 69 65 17 3e b1 6a 1e be 6d 8f a4 bd
       -0.003699688 0.14784779 -0.15470387 -0.08035169
0000f0 2f 05 b2 bb c6 18 2b 3d d3 70 e2 bc e3 f5 49 bd
       -0.005432747 0.041771673 -0.02764169 -0.04930676
000100 1b ff 7b 3d e5 11 8d bd 06 7e 50 bb 7a e5 89 bc
       0.061522584 -0.06888179 -0.0031813397 -0.016833056
000110 d2 69 b7 3d cb b3 87 3b f5 ea 59 bd 0b 11 9b 3d
       0.089557305 0.004141306 -0.053202588 0.0757161
000120 18 36 2a bb f2 f5 0d 3e 4d 54 42 3d 1f 79 cb bd
       -0.0025972184 0.13863352 0.047443677 -0.099352114
000130 c1 0e a0 3d 15 cb b1 bc 98 03 73 bc 8c 5a 69 bc
       0.07815314 -0.021703282 -0.0148324 -0.014242779
000140 45 06 88 3d f1 31 14 3a ad d7 94 3d bd 0c 07 39
       0.06641821 0.0005653194 0.072676994 0.00012879349
000150 8f 2e eb bc 92 9f 8a bc a3 65 62 3c 28 20 db 3d
       -0.028708724 -0.016921792 0.013818177 0.10699493
000160 c5 ea 2e 3e 70 5e b9 3d e5 87 7f bd 51 58 72 bd
       0.17081745 0.09051216 -0.06238546 -0.059166256
000170 3b 31 99 3d c8 ab eb bd 2d ed 37 3d 3f 83 6b 3e
       0.07480093 -0.11507374 0.044903923 0.22999285
000180 9a 18 12 3e 6a b1 b9 3d 4e a7 9c 3c 44 42 81 bd
       0.14267197 0.09067042 0.019122746 -0.06311467
000190 dd 69 a6 bd c9 ac f0 3c 75 b9 62 3e 54 f2 75 3c
       -0.081256606 0.029379265 0.22141059 0.015011389
0001a0 bd 7c 07 3e 9e 42 02 bc be 25 c9 bc e1 ac 77 3d
       0.13231178 -0.007950453 -0.02455413 0.060467605
0001b0 5d 05 0b 3c 62 30 d8 bd 29 a6 0d 3c e2 03 27 3d
       0.008485165 -0.10556103 0.008645573 0.040775187
0001c0 05 40 ae bc f3 60 23 bd 58 12 c4 3c cb f3 24 3e
       -0.021270761 -0.03988738 0.023934528 0.16108625
0001d0 ea 47 c7 bd c2 64 2a 3d 2a 7f 12 3e 54 5c 3a 3e
       -0.097305134 0.041599996 0.14306322 0.18199283
0001e0 97 23 8c bd 4f d2 39 3e cf 12 e4 bd 06 93 b2 bd
       -0.06842726 0.18146633 -0.111364 -0.08719449
0001f0 9e 1a 9c 3d 28 11 08 3e 80 0a e8 3b d1 e6 c1 bd
       0.07622264 0.13287795 0.00708133 -0.09467853
000200 b0 31 a3 3c df 30 a2 bd 64 7d 99 bd 1a 32 14 3e
       0.019921154 -0.07919478 -0.074946195 0.14472237
000210 5c 7f df 3c 0b b5 13 3d 6a 60 56 bd 08 28 ad 3d
       0.02728241 0.036061328 -0.05233804 0.08454901
000220 85 d1 7f bd 97 d2 ac 3d fb 4b 8a bc 9a f7 33 3c
       -0.062455673 0.08438604 -0.016881933 0.010984326
000230 55 31 76 3d 60 fa 22 bd cd 8c 29 3d 68 8c 6b 3c
       0.06010564 -0.039789557 0.041394044 0.014376737
000240 9f 00 ae 3d a9 71 ae bd 34 30 32 bc db 6e c1 3a
       0.08496212 -0.08517773 -0.01087575 0.0014757769
000250 28 8c 0b bd 4b a1 94 3d 27 5d d0 bc ab 60 9a bc
       -0.03406921 0.07257327 -0.025435043 -0.018844923
000260 d9 0e 52 3d 42 a4 72 bd df d7 55 bd 90 08 6a bd
       0.05128369 -0.05923868 -0.052207824 -0.057137072
000270 74 ee bd bb d5 80 0b 3d bd 6e fa 3d 42 e6 ac 3a
       -0.005796248 0.03405841 0.12228153 0.0013191181
000280 bc af 3c bd 3c 19 df bc 24 74 97 bd 7a d1 1c 3d
       -0.04606603 -0.027233712 -0.07395199 0.03828571
000290 5b 65 8e 3d 59 36 cf bd 4e 6b 9f bc bd 15 57 3d
       0.06952926 -0.10117788 -0.019460347 0.052510966
0002a0 b9 07 0b bd 18 47 da 3b 40 e7 19 3e 47 56 95 bd
       -0.03394291 0.006661307 0.15029621 -0.07291847
0002b0 39 b6 1a be a4 17 42 bd 6f 0f 2a 3d c1 61 87 3d
       -0.15108575 -0.047385827 0.041518625 0.06610442
0002c0 30 10 c8 bd 78 38 49 3e 08 c9 b0 3d a6 33 aa 3c
       -0.097687125 0.19650447 0.08632094 0.020776581
0002d0 a0 6c 57 3c 22 bd 91 3d b2 df c5 bc 42 69 2a 3e
       0.013148457 0.07116152 -0.024154518 0.16641715
0002e0 09 29 62 3d ed 0f 16 be 9e d3 6e bd d2 d0 2e bd
       0.055214915 -0.14654513 -0.058307283 -0.042679615
0002f0 a9 ce 94 3d b1 ec 39 bd 4d 84 a3 3d 2c 4e 06 3d
       0.0726598 -0.045391742 0.07984219 0.032789394
000300 1a a7 70 3d dc fa ef 3d ad cf 1a 3b c7 7b 97 bd
       0.05875311 0.117177695 0.002362232 -0.073966555
000310 db be 7d 3c 2d 20 a9 3d d0 9c 91 bc 8a 44 0e 3e
       0.015487398 0.0825809 -0.01777497 0.13893333
000320 ab 50 b3 3d 62 15 b3 bd 68 7a cd bd 87 83 7d 3d
       0.087556206 -0.08744313 -0.10033113 0.061893012
000330 91 d4 ee 3d 2d a0 17 bd 17 f2 f3 3d 14 1b 13 3d
       0.116616376 -0.03701799 0.11911409 0.035914496
000340 b5 b8 11 bd fa c6 a1 3d 08 f3 54 bc 03 71 89 3d
       -0.03557654 0.0789928 -0.012997396 0.067110084
000350 94 c1 94 bc 7c 7b 6f 3d fb 92 80 3d 9d 6a 0e be
       -0.018158711 0.058467373 0.06278034 -0.13907857
000360 9c ee 88 bd 3f 35 64 bd 50 e3 ce 3d e2 29 16 3d
       -0.06686136 -0.055714842 0.1010195 0.036661036
000370 8e 8d 4a bd 09 55 1f be f7 93 c0 bd de 1b 42 3d
       -0.049451403 -0.15559782 -0.09403222 0.047389857
000380 9c a1 18 bd 84 65 6c bd af 1f d2 3c ce 20 02 3e
       -0.037263498 -0.057714 0.025649874 0.12707826
000390 01 dc f5 bc 32 88 c0 bd ef 65 98 bd 37 4e 83 bc
       -0.030012133 -0.09400977 -0.07441317 -0.016028507
0003a0 44 1d 03 3c 2a 35 00 3e 09 13 04 bd 6f 0c 5f bd
       0.008002583 0.1252028 -0.032244716 -0.054455217
0003b0 e9 af 0a 3d 5c 6c 77 bd 48 40 d4 3b a4 8d ea 3c
       0.033859167 -0.060406074 0.0064773895 0.028631993
0003c0 20 c2 13 3e 8e bb 3f bb 21 71 ac 3d 92 ec 37 bd
       0.14429522 -0.0029256078 0.08420015 -0.044903345
0003d0 11 a3 90 bc 73 e6 a9 bd 39 cf 16 bb 1b 8a c1 bd
       -0.017655881 -0.08295908 -0.0023011698 -0.0945017
0003e0 a9 e3 e0 bd 34 df dc 3d e0 da 2d be 64 e6 89 bd
       -0.10980923 0.1078476 -0.16978025 -0.06733397
0003f0 35 4b 0b 3d cc 88 09 3d b8 d8 fe bc 03 71 a0 3d
       0.03400727 0.033577725 -0.031109199 0.07834055

decoder.0.bias f4 [9]
000000 f1 2b e5 3d 5e c3 3e 3d 2c b7 b9 bc da 8e 37 bd
       0.11190022 0.046573035 -0.022670351 -0.04481397
000010 76 b9 73 bd 10 49 03 3e 49 f4 13 be a9 71 39 3d
       -0.05950304 0.1282084 -0.14448656 0.04527441
000020 a8 84 26 3d
       0.040653855

decoder.1.weight f4 [9]
000000 2c 46 6e 3f 45 3c e9 3e e9 43 50 3f 60 41 6e 3f
       0.93075824 0.45553795 0.8135362 0.93068504
000010 1d f4 54 3f 8e 25 67 3f 37 c2 34 3f f5 dd 43 3f
       0.8318499 0.9029168 0.7060885 0.76510555
000020 b8 72 32 3f
       0.69706297

decoder.1.bias f4 [9]
000000 5f b4 83 bd 95 45 d3 bd 70 1d a9 bd 88 a2 18 bd
       -0.064308874 -0.10316006 -0.08257568 -0.037264377
000010 70 ce aa bd 93 60 59 bd 24 2a e6 bd 92 86 c9 bd
       -0.08340156 -0.053070616 -0.112385064 -0.098401204
000020 e1 2d d9 bc
       -0.026511135

decoder.1.running_mean f4 [9]
000000 5f b3 c8 3d f0 0e 34 3d ca 0d 0d bd 5b 65 96 bd
       0.09799837 0.043959558 -0.03443698 -0.07343551
000010 e9 d7 44 bd 93 47 e3 3d d9 99 05 be 6d 73 a9 3c
       -0.04805747 0.11097636 -0.1304697 0.020684922
000020 b3 37 2d 3d
       0.042289447

decoder.1.running_var f4 [9]
000000 40 b7 19 3e e6 8f 45 3e 29 43 5d 3e a0 2e 39 3e
       0.1501131 0.19293174 0.21607651 0.18084192
000010 0d c2 49 3e b0 8c 88 3e fc fe 2b 3e 94 a9 9a 3e
       0.19702931 0.26669836 0.16796488 0.30207503
000020 d1 26 b1 3e
       0.34599927

decoder.3.weight f4 [9, 18, 5]
000000 e2 bb 57 bd 65 c4 28 bd 37 dc f9 bd 39 8f 9e 3d
       -0.052669413 -0.04120292 -0.12200206 0.07742161
000010 df 8a 3a 3d 11 79 03 3c d3 ec 1b bb 89 c3 e5 3c
       0.045542594 0.00802447 -0.0023792281 0.02804734
000020 26 c2 24 b9 08 d5 0c 3d c2 78 e3 3c 54 3b 46 3d
       -0.00015712585 0.03438285 0.027767543 0.048396423
000030 bf ef de 3d 71 a1 c8 bc ef e2 4d 3d a8 e5 b4 bb
       0.10885572 -0.024491044 0.05026525 -0.005520541
000040 e2 c2 2e bd c8 a3 4b bd e1 a4 a9 bd 23 72 06 3d
       -0.042666323 -0.04971674 -0.08283401 0.032823693
000050 a8 78 54 3c af 49 42 bb 2b 2a 16 3e 98 9a 09 3e
       0.01296822 -0.002964597 0.14664523 0.13437879
000060 59 06 2a bd c5 13 e5 3c 7b 68 fc 3d 1d 9d 21 3e
       -0.04150996 0.027963528 0.123246156 0.1578259
000070 01 0a cc bc 37 7b 15 3d cc b7 34 3d cc 9f 38 3b
       -0.024907114 0.03649446 0.044120595 0.0028171418
000080 4b 33 6f bd 5a f2 a9 3d 93 59 3e 3d 4e ea ab bd
       -0.058398526 0.08298178 0.046472143 -0.083942994
000090 ba 1c 83 bd 01 7c 6d bd 3f 42 8c 3d c9 fb ea bd
       -0.064019635 -0.057979587 0.06848573 -0.114738055
0000a0 a0 7c 93 bc 1e 40 17 3d 63 0e 8e 3c 5e 73 66 bd
       -0.018003762 0.03692638 0.017340844 -0.056262366
0000b0 38 4e 69 bb 13 3a 00 bc d9 ee 51 bd 51 dc 3e bd
       -0.00355996 -0.007826346 -0.051253174 -0.04659683
0000c0 a7 db 8e bd b0 60 88 bd 11 a2 50 3c e7 8c 1f 3e
       -0.06975489 -0.06659067 0.012733952 0.15581094
0000d0 21 ff 76 3d 03 b8 9e 3d 02 c8 fd 3d 55 ab d4 bc
       0.060301904 0.07749941 0.12391664 -0.025960604
0000e0 5a e9 61 bd 36 29 69 3d dd 52 7e bd 11 b9 d9 39
       -0.055154182 0.056924067 -0.062090743 0.0004152735
0000f0 1a ef 25 3c 4f 84 06 bd 40 49 af bd 84 41 83 bd
       0.010127807 -0.032841023 -0.08558893 -0.064089805
000100 a2 a8 05 bd 6e 0e 62 bd bf f5 0c bc c5 f4 45 3d
       -0.032631524 -0.055189542 -0.008603512 0.048329134
000110 cd cc 90 3d b0 fd 46 3b e5 4b be 3c 10 05 2e 3d
       0.07070313 0.0030363612 0.023229549 0.042485297
000120 4c fe c0 3b aa d6 80 bd 08 93 d6 bc 21 db 00 3d
       0.0058896895 -0.06290944 -0.026193157 0.031458978
000130 c6 2b 91 bd 5e 77 eb 3c 0c cc 49 3d fd 19 bf bd
       -0.07088427 0.028743442 0.04926686 -0.09331129
000140 86 90 f8 3c 3f 3c 56 bd f2 44 00 3d 51 bd 96 3d
       0.030342352 -0.05230355 0.03131575 0.07360328
000150 6b e1 02 bd 75 df aa bd 66 94 84 bd a5 e6 75 3d
       -0.031953257 -0.08343402 -0.06473617 0.060034413
000160 46 a3 eb 3d a3 7c c0 bc 7f 3e 5d 3d 2a 8b 9e 3c
       0.11505751 -0.023496931 0.05401468 0.019353468
000170 e9 6d 2f 3d 45 5d 54 3d e1 ca bb bd 22 97 fd bc
       0.042829428 0.05184676 -0.091695555 -0.030955855
000180 30 f7 d3 3c bf cd b3 bd 10 fd a2 3c 01 c2 43 3d
       0.025874704 -0.08779477 0.01989606 0.04779244
000190 9a 3e 93 bd e9 48 09 3d 53 b0 d3 bd ce 01 ad bd
       -0.07189675 0.0335168 -0.103363656 -0.0844761
0001a0 71 85 9f bd 8a 03 a2 bd 86 b6 64 3d c4 90 9f bd
       -0.07789124 -0.07910831 0.05583813 -0.07791284
0001b0 eb 8e 1a 3e cf 76 cd 3c 46 c9 bd bd e8 5d 09 be
       0.15093581 0.025081066 -0.092669055 -0.13414729
0001c0 f4 23 ac 3c c9 63 ce bc cd 2b 0a bc ef ee f7 bc
       0.021013238 -0.025194066 -0.0084332945 -0.0302653
0001d0 2b 7b 85 be e5 a9 f7 bd fc b2 69 3d ca e2 3f bd
       -0.26070532 -0.12092952 0.05705546 -0.046847142
0001e0 e0 53 8f 3d 1b 7a 92 3e 49 56 23 3e 07 ef 10 3e
       0.0699842 0.28608784 0.15950884 0.14153682
0001f0 74 16 57 bd 11 24 04 3e 72 0a 77 bd e3 5e d4 3d
       -0.052511647 0.12904383 -0.060312696 0.10369661
000200 c9 b2 3e bd 39 ad 8e 3c 8c f2 1d bd 28 1e 78 3d
       -0.04655722 0.017416583 -0.03856139 0.060575634
000210 31 f0 00 bb 93 ea 18 bb ac 17 59 3c 4c 0a 2d 3d
       -0.0019674415 -0.0023333177 0.013250273 0.042246148
000220 bf 9c e4 3d c0 b4 14 3d 5c a9 87 bd 3c b9 8d bc
       0.111627094 0.03630519 -0.066240996 -0.01730024
000230 96 bd a8 3d 95 1b 74 3d f4 61 91 3d 4f d8 ff 3d
       0.08239286 0.059596617 0.07098761 0.124924295
000240 e2 53 ac bd ea ee 64 bb 5b 24 6c 3d f8 bd fa ba
       -0.08414437 -0.0034932443 0.05765186 -0.0019130101
000250 c1 e3 64 3a 83 9a 01 bd 47 19 bb 3d cb df bf 3d
       0.0008731448 -0.031641494 0.09135681 0.09368857
000260 94 b9 ba 3c d5 fa a5 bd e9 2b b0 3d c5 e7 93 3d
       0.022793569 -0.08104483 0.08602125 0.07221941
000270 18 a6 0f bd 99 92 86 3e fb 4c d3 3d 65 4e d5 3c
       -0.03507051 0.2628372 0.10317417 0.026038358
000280 5b 7c 02 3e 37 49 62 3e 55 ba 7b 3d 2f 45 a0 bb
       0.1274275 0.22098242 0.061456997 -0.00489106
000290 fd f8 47 bd 36 02 d3 bd 24 11 97 bd e8 15 89 bd
       -0.048821438 -0.10303156 -0.07376316 -0.066936314
0002a0 8e 85 88 bd a7 83 8f bd cb 79 60 bd 3e 2d 07 ba
       -0.066660985 -0.070075326 -0.05480365 -0.0005156583
0002b0 80 40 01 3d 77 cb 70 bd e8 1b 34 bd df 44 52 3c
       0.031555653 -0.05878779 -0.043971926 0.012833803
0002c0 ff 49 38 bd 0b 43 6c 3c e2 e4 8f 3d bf 3d f1 bc
       -0.044992443 0.014420281 0.07026078 -0.029448388
0002d0 85 2a ff bd 70 8c 24 bd 3a 22 b6 3d 4b 42 8c 3d
       -0.12459282 -0.040172994 0.08893247 0.06848582
0002e0 4c d8 10 3e 65 45 44 be ea f5 ab bd 05 09 75 bd
       0.1414501 -0.19167097 -0.08396514 -0.059823055
0002f0 c7 56 28 3d 4d 38 93 3d a8 03 2e 3c af 78 f0 bc
       0.041098382 0.07188473 0.010620989 -0.029354421
000300 63 97 c7 3b cc dd e3 bc f5 ac 48 3d ff f0 b7 3c
       0.0060910448 -0.027815722 0.04899307 0.022453783
000310 37 a1 23 3d c9 46 8b 3c f0 e9 a5 3d dd c1 4c 3d
       0.03994867 0.017001526 0.08101261 0.04998957
000320 00 a6 31 bc e7 1e 8d bd 27 48 1a bc b7 6d a6 bc
       -0.0108428 -0.0689066 -0.0094166165 -0.020315988
000330 84 08 fa bd 25 12 5d 3c c2 03 8d 3b ab 00 94 3d
       -0.122086555 0.0134930955 0.0043034265 0.0722669
000340 07 37 99 3d 49 35 df 3d 41 4f 80 bc 1b ea d5 3b
       0.07481199 0.10898835 -0.015662791 0.0065281517
000350 c6 c0 aa bd d9 1a e4 bd dd ea 8a bd e9 8d 10 3d
       -0.0833755 -0.11137933 -0.06783078 0.035291586
000360 6e b3 41 bd 51 7c 7c bc 6a 17 55 3b 23 55 cd bd
       -0.047290258 -0.015410499 0.0032515177 -0.10026004
000370 fb 2e 85 bd 40 f3 09 bc 66 6b fd bc b4 bf b9 3b
       -0.065031014 -0.008419812 -0.030935 0.0056686047
000380 24 b6 ee 3c 2b ec 6e bd c7 91 1f 3d 50 8c 48 3d
       0.029139586 -0.058330696 0.038957383 0.048961937
000390 8a aa a9 3b e3 cf 1f bd b3 a1 02 bd e0 d9 4a 3d
       0.0051778005 -0.039016616 -0.03189249 0.049524188
0003a0 18 c2 80 3d 48 83 4a 3d ef 92 84 3b b2 5f 48 3d
       0.062870204 0.049441606 0.004045836 0.048919387
0003b0 d6 94 28 bd 29 3a b0 3c ec 85 36 bd 89 92 05 bd
       -0.041157566 0.021512108 -0.04456131 -0.03261045
0003c0 00 59 c6 bb d5 2f da 3c b3 f4 de 3c 27 31 f4 3c
       -0.00605309 0.026634136 0.027216291 0.029808594
0003d0 90 e6 1a 3d ff 16 72 3c cd 2f ff 3a c2 37 01 bc
       0.037817538 0.0147759905 0.0019469202 -0.007886829
0003e0 7c 80 d6 bc db fe f8 bd d5 86 aa bb 99 0e 5d bd
       -0.026184313 -0.12157985 -0.0052040615 -0.053969
0003f0 c9 e7 9b 3c b4 94 ed 3c 11 5e fb bb fc 66 a0 bc
       0.019031422 0.029001571 -0.0076711257 -0.019580357

decoder.3.bias f4 [18]
000000 30 6c 15 3e 6a e5 10 3d 37 3b 85 bc 89 0b 85 3c
       0.14592052 0.035375036 -0.016263587 0.016240852
000010 50 65 b4 3d 89 f6 7d 3d ab f6 96 3d 2d 7e d2 3d
       0.08808386 0.062002692 0.07371267 0.10277972
000020 d0 5b f4 3d 67 03 0a bc 9f 49 cf bc 0a b5 18 3c
       0.11931574 -0.008423663 -0.02530366 0.009320507
000030 a9 91 ad 3d 3c 7e 59 3c 94 6f 91 bc 2a 8f 65 3b
       0.08475048 0.0132747255 -0.0177534 0.003502796
000040 1a 1b 25 3d 65 d8 ab 3c
       0.04030905 0.020977208

decoder.4.weight f4 [18]
000000 52 27 70 3f 74 f0 5c 3f 07 fe 5f 3f 98 f1 50 3f
       0.9381 0.863044 0.8749699 0.8161864
000010 05 ea 69 3f e6 64 77 3f b1 d3 5d 3f 09 f0 50 3f
       0.9137271 0.96638334 0.8665114 0.81616265
000020 05 1f 5f 3f fc ad 5d 3f 16 23 79 3f 87 5e 8c 3f
       0.8715671 0.86593604 0.9731916 1.0966347
000030 39 14 88 3f e4 14 66 3f 6f 25 62 3f 91 a2 55 3f
       1.0631171 0.89875627 0.8833837 0.8345118
000040 65 d0 85 3f c3 d9 84 3f
       1.0454222 1.0378956

decoder.4.bias f4 [18]
000000 75 dc 57 3c 7a af 92 bd 7a f7 dc bd 6e 66 d5 bd
       0.01317512 -0.07162376 -0.1078939 -0.104199275
000010 2d c7 4a bd 5c ae ae bd c5 88 f3 bc 38 fc 1d 3d
       -0.049506355 -0.0852935 -0.029728303 0.038570613
000020 82 7c 74 bd 2e 81 a4 bb d6 d9 ca bd 04 95 1f bd
       -0.059689052 -0.005020282 -0.0990483 -0.03896047
000030 3b 7c c9 bc 4c bb a9 bc b9 1a 5e bc fb be 2a bc
       -0.02459537 -0.020719193 -0.013556176 -0.01042151
000040 ef d8 06 bc 6f bd 7a bd
       -0.008230432 -0.061215814

decoder.4.running_mean f4 [18]
000000 16 49 f2 3d 24 be 9c bc 89 54 24 3d 7e 5e b1 3c
       0.11830346 -0.019133635 0.04011968 0.021651503
000010 92 90 1b bd ff f6 41 3d f5 44 b0 3c b3 d8 ec 3d
       -0.03797967 0.047354694 0.021517256 0.115647696
000020 be c6 8e 3d e5 4d 1e bd a6 e2 0a bd b2 cf 6c bd
       0.06971501 -0.038648505 -0.033907555 -0.05781526
000030 36 bb e6 bc a0 4d 94 bc 10 c7 0b be 8f 99 f3 bc
       -0.028165441 -0.01810342 -0.13650155 -0.029736308
000040 9e 9a d3 3a 63 9f 67 bc
       0.0016144102 -0.014137122

decoder.4.running_var f4 [18]
000000 50 e3 6e 3e d5 ac db 3e 39 e0 9a 3e 52 7c 2c 3e
       0.233289 0.42905298 0.30249193 0.168443
000010 77 b2 72 3e 9f 1c b5 3e f6 e2 76 3e 53 ab ec 3e
       0.23700891 0.353734 0.24110016 0.4622446
000020 8b 30 1e 3e 6d b4 58 3e e3 7c 8c 3e 2d c9 9a 3e
       0.15448205 0.21162577 0.2743903 0.3023161
000030 f3 52 90 3e 39 07 9f 3e 37 32 b2 3e 29 97 1b 3f
       0.28188285 0.31060198 0.34803936 0.6077753
000040 4d 79 57 3e c7 aa 4c 3e
       0.21042366 0.19987021
