trained_models/8636:1A5C:CCDF:ED29.pt (torch, 289011 bytes, 60 tensors)

encoder.0.0.weight f4 [36, 36, 7]
0	0xbd0f3fff	-0.03497314
1	0xbde1f406	-0.11032872
2	0xbd9d53a0	-0.07681966
3	0xbca1146e	-0.019663062
4	0xbdd32157	-0.103090934
5	0xbd4bfc72	-0.049801297
6	0xbd81268a	-0.06306179
7	0xbcaa5852	-0.020794068
8	0xbd5cdb18	-0.05391988
9	0xbdb59bde	-0.0886762
10	0xbd809c53	-0.062798165
11	0x3baf2fae	0.00534626
12	0xbc8de743	-0.017322188
13	0xbd6b40a7	-0.057434704
14	0x3d06f7b5	0.032951076
15	0xbd127e16	-0.035764776
16	0x3b39ee96	0.0028370968
17	0x3ca933af	0.020654527
18	0x3b61a783	0.003443212
19	0x3d2b72c5	0.0418575
20	0xbd431e9b	-0.04763661
21	0xbc8745da	-0.0165128
22	0x3ccb7054	0.024833836
23	0xbd2a4f9e	-0.041579835
24	0x3d5a4f49	0.05329827
25	0x3d45acfb	0.04826067
26	0x3d47cfe9	0.048782263
27	0xbcd2ba61	-0.025723638
28	0x3d28d0de	0.041214816
29	0xbd31961a	-0.04335604
30	0xbc6879e6	-0.014189219
31	0xbd275bb9	-0.040858958
32	0x3d5ce1f8	0.053926438
33	0x3d8a5e08	0.06756216
34	0xbd57db71	-0.05269951
35	0x3d034eef	0.0320577
36	0xbd8588e9	-0.06520254
37	0xbd82902e	-0.06375156
38	0xbd8ac7d3	-0.06776395
39	0xbd4db242	-0.050218828
40	0x3d23ec99	0.04002056
41	0xbcb6202a	-0.022232134
42	0x3cf3b45e	0.029749092
43	0x3d808e01	0.06277085
44	0x3bd644f5	0.006538982
45	0xbcc30128	-0.023804262
46	0xbbec3501	-0.007208467
47	0x3ccdd315	0.025125066
48	0x3d5ae684	0.053442493
49	0x3cf038cd	0.02932396
50	0xbd5094b8	-0.05092308
51	0x3c2e95b1	0.010655806
52	0xbbe6757d	-0.0070330487
53	0x3c1f17fa	0.009710306
54	0x3c36e41c	0.011162784
55	0xbc9d5076	-0.019203406
56	0x3d2c0579	0.041997407
57	0x3ca6d466	0.020364951
58	0xbd053d3a	-0.032529093
59	0x3d1762d4	0.036959484
60	0x3c63805a	0.013885582
61	0x3cfa2a80	0.030537844
62	0x3cc41c4c	0.023939274
63	0xbce882f3	-0.028382754
64	0xbd4aa7e9	-0.049476538
65	0x3d220679	0.039556954
66	0xbcb21ba1	-0.02174169
67	0xbd6b739e	-0.057483308
68	0x3bb8df62	0.0056418637
69	0x3d4c8cc8	0.049938947
70	0x3c7f8e47	0.015597886
71	0xbd19abc3	-0.03751732
72	0xbcec25c6	-0.028826606
73	0x3cb98115	0.022644559
74	0xbcf80a59	-0.030278372
75	0xbd26cb41	-0.04072118
76	0xbd17365d	-0.03691708
77	0x3ce7a20c	0.028275512
78	0xbd1e5ac9	-0.0386608
79	0xbd89c2a6	-0.06726579
80	0x3ca07a8d	0.019589687
81	0x3d3d5465	0.046223063
82	0x3c8fbd56	0.017546337
83	0x3c0b9327	0.008518971
84	0xbcd36651	-0.025805624
85	0xbd7ce878	-0.061745137
86	0xbd788b0b	-0.060679477
87	0xbc203637	-0.009778551
88	0xbdb650e7	-0.0890215
89	0x3b030bbb	0.0019996006
90	0xbda14e60	-0.07876277
91	0xbcc2fd6f	-0.023802487
92	0xbd8e82dd	-0.06958554
93	0xbd8f1f09	-0.06988341
94	0xbcf260af	-0.029587118
95	0x3b624d2c	0.0034530861
96	0xbc851be9	-0.01624866
97	0xbd011c8f	-0.031521376
98	0xbb75523b	-0.0037433046
99	0xbdbe7bd3	-0.09300961
100	0xbdc67687	-0.09690576
101	0x3c632176	0.013862958
102	0xbcaff72c	-0.021480165
103	0xbd281c13	-0.0410424
104	0xbd7518c3	-0.059838068
105	0xbc099183	-0.008396509
106	0xbd3bcfe8	-0.04585257
107	0xbc6eeedc	-0.014583316
108	0xbd18e96f	-0.037331995
109	0xbd21e438	-0.039524287
110	0xbc1c8f07	-0.009555585
111	0xbd3618dc	-0.0444573
112	0x3c05d6b3	0.008168864
113	0x3cc3d1ed	0.023903811
114	0xbc46e521	-0.0121395895
115	0xbd21d916	-0.03951367
116	0x3c5ee555	0.013604482
117	0x3c159cac	0.009131592
118	0x3ab296d4	0.0013625273
119	0x3ab90f21	0.0014118889
120	0x3d33bcc7	0.043881204
121	0x3c8f948a	0.017526884
122	0x3ce093a2	0.027414147
123	0xbd2dd071	-0.042435113
124	0x3d90fc8c	0.070794195
125	0xbce4af15	-0.027915517
126	0xbce54561	-0.027987184
127	0x3d71b503	0.059010517
128	0x3b9ec49b	0.0048452145
129	0x3cd02437	0.025407894
130	0x3cc2070b	0.023684999
131	0x3d572d0f	0.052533206
132	0x3d819b95	0.06328503
133	0xbd52ad82	-0.051435
134	0x3c97d794	0.018535413
135	0x3cb5eea5	0.022208521
136	0x3cdd678b	0.027026912
137	0xbc790e9f	-0.01520124
138	0x3bedbce9	0.007255186
139	0x3d0ca18c	0.03433375
140	0xbc25c771	-0.010118351
141	0xbcd17336	-0.025567632
142	0xbb86d903	-0.0041152253
143	0xbb99023f	-0.004669457
144	0xbccb1496	-0.02479009
145	0xbd7c33ad	-0.06157272
146	0x3ca9ff58	0.02075164
147	0x3db4c045	0.08825735
148	0x3d3f202e	0.04666155
149	0x3d8afe65	0.06786803
150	0x3d067d37	0.032834258
151	0x3d972e2d	0.07381854
152	0x3d1b709f	0.0379492
153	0x3d6687a6	0.05628171
154	0x3d7b09e0	0.061288714
155	0x3c6cd45e	0.014454929
156	0x3d58a65d	0.05289303
157	0xbce93a51	-0.02847019
158	0xbd36f81e	-0.044670217
159	0x3b74cfc8	0.0037355293
160	0xbc5f4762	-0.013627859
161	0x3d80955b	0.06278487
162	0x3c77c7a3	0.015123281
163	0xbb813a25	-0.003943699
164	0xbd0f8b84	-0.03504516
165	0xbd0f42bb	-0.03497575
166	0xbbd06ef6	-0.006360884
167	0x3cadf6a8	0.021235779
168	0xbc90af28	-0.017661646
169	0x3d6964d4	0.056980923
170	0x3bcd97cb	0.0062741986
171	0xbc392136	-0.011299422
172	0x3bc8423c	0.0061114114
173	0x3b81d8b8	0.0039626025
174	0xbd458df8	-0.048231095
175	0x3c1c519f	0.009540944
176	0xbc4e6aa2	-0.012598665
177	0x3d1d64e0	0.03842628
178	0x3d3a178a	0.045432605
179	0x3c8effdd	0.01745599
180	0xbcaa75cb	-0.020808121
181	0x3cdc794e	0.026913311
182	0xbc3ed2be	-0.011646925
183	0xbd661a68	-0.056177527
184	0x3c607688	0.013700135
185	0xbcab3ec3	-0.02090395
186	0x3d867f68	0.065672696
187	0x3d52256f	0.05130523
188	0x3d63a72d	0.055579353
189	0x3c9e3f2d	0.019317234
190	0x3cc9fe53	0.024657404
191	0x3d3eaacf	0.046549615
192	0xbbefd8c1	-0.0073195403
193	0xbd0145ef	-0.031560834
194	0xbc219df6	-0.009864321
195	0x3d1dc102	0.038514145
196	0x3d3471eb	0.044053953
197	0xbcbcb089	-0.023033397
198	0x3d81d0a1	0.06338621
199	0x3d587bce	0.052852444
200	0xbd1ad59a	-0.037801363
201	0x3b5e9cc9	0.0033967963
202	0xb802e1a4	-3.120456e-05
203	0x3c928ac0	0.017888427
204	0xbce66537	-0.028124435
205	0x3bcb1347	0.0061973664
206	0x3cf70cb5	0.030157426
207	0xbc779fc4	-0.015113775
208	0x3c981198	0.018563077
209	0xbc9a7c1e	-0.018858012
210	0x3c85c32c	0.016328417
211	0x3d04c88b	0.032417815
212	0x3c919514	0.017771281
213	0xbc44145c	-0.011967745
214	0xbd24572b	-0.040122192
215	0xbc846ad1	-0.016164215
216	0x3c426b73	0.011866438
217	0x3d86957d	0.065714814
218	0xbc806e47	-0.015677584
219	0x3c476b71	0.012171612
220	0x3ce9de91	0.02854851
221	0x3d412ead	0.047163654
222	0x3d7b0e6e	0.061293058
223	0xbd6578f0	-0.056023538
224	0x3ce05e8f	0.027388839
225	0x3ce160c0	0.027511954
226	0xbceb91a7	-0.028755976
227	0x3da19283	0.07889273
228	0x3da777d3	0.081771515
229	0x3ce16a75	0.027516583
230	0xbc0d563d	-0.008626518
231	0x3d88539a	0.06656571
232	0xbc96f48f	-0.018427161
233	0x3d06c8ac	0.03290622
234	0x3d25f7e7	0.04051962
235	0xbc28928b	-0.010288845
236	0xbd2f91a9	-0.04286352
237	0x3c72e309	0.014824637
238	0xbd4ee756	-0.050513588
239	0xbc849ffb	-0.016189566
240	0x3d5cd74d	0.053916264
241	0x3d21e0d8	0.03952107
242	0x3cd439c8	0.025906458
243	0xbd6fe482	-0.05856753
244	0x3969004d	0.00022220724
245	0x3c25c17e	0.010116933
246	0xbb3adb74	-0.0028512152
247	0x3c79dfc9	0.015251108
248	0xbcfc181c	-0.030773215
249	0xbd0bd4ae	-0.034138374
250	0xbd2aaed2	-0.041670628
251	0xbd88f405	-0.06687168
252	0x3d89513b	0.067049466
253	0x3d717be3	0.05895604
254	0x3d821f83	0.06353667
255	0xbc582f46	-0.013194865

encoder.0.0.bias f4 [36]
0	0xbd12d6d7	-0.03584942
1	0xbce0a614	-0.027422942
2	0xbccceb5a	-0.025014568
3	0xbcd34ad4	-0.025792517
4	0x3c350480	0.011048436
5	0xbd715ac3	-0.058924448
6	0xbcc5ebb3	-0.024160242
7	0x3a8b936c	0.0010648794
8	0xbd163331	-0.036669914
9	0xbd5f9564	-0.05458583
10	0x3da56634	0.08076134
11	0xbc985db1	-0.018599363
12	0xbd2afdbd	-0.04174589
13	0x3ce9bbb7	0.028531892
14	0xbd990c9b	-0.074731074
15	0xbcad80af	-0.021179525
16	0x3d84c86c	0.0648354
17	0xbd756f58	-0.05992064
18	0xbd8f8e4c	-0.07009563
19	0xbd98b464	-0.07456282
20	0x3cef956a	0.02924605
21	0x3d74f962	0.059808142
22	0x3d25b5ea	0.04045669
23	0x3c795c9d	0.015219835
24	0xbd1f50a6	-0.03889527
25	0xbce41d9d	-0.027846152
26	0xbd4a09b3	-0.049325656
27	0xbd312a5e	-0.043253295
28	0x3d1e600b	0.038665812
29	0xbcfe282e	-0.031025019
30	0x3b7b5b40	0.003835395
31	0xba8871d1	-0.0010409896
32	0x3d9a641c	0.075386256
33	0x39593e94	0.00020718045
34	0xbd06f9a4	-0.03295292
35	0x3d21f901	0.03954411

encoder.0.1.weight f4 [36]
0	0x3f1a882c	0.6036403
1	0x3f8694ed	1.0514199
2	0x3f7801fd	0.96878034
3	0x3f490a76	0.7853159
4	0x3f902814	1.1262231
5	0x3f7dfac7	0.9921078
6	0x3f8cbff1	1.0996076
7	0x3f7b4752	0.981557
8	0x3f216edd	0.6305979
9	0x3f6fb9d6	0.9364294
10	0x3f752e39	0.95773655
11	0x3f822e5c	1.0170398
12	0x3f878521	1.0587503
13	0x3f7a1e18	0.9770217
14	0x3f5dcd2f	0.8664121
15	0x3f7ea3ea	0.99468863
16	0x3f869ff8	1.0517569
17	0x3f77ce6f	0.9679937
18	0x3f8b5bec	1.0887427
19	0x3f6b3911	0.9188395
20	0x3f7aaac9	0.9791685
21	0x3f811d76	1.0087116
22	0x3f81739f	1.011341
23	0x3f7f9ffb	0.99853486
24	0x3f755bd6	0.95843256
25	0x3f5b15f2	0.8558036
26	0x3f7b2339	0.9810062
27	0x3f78b539	0.97151524
28	0x3f8a37ea	1.0798314
29	0x3f7d9231	0.99051195
30	0x3f93947c	1.1529689
31	0x3f83ff7c	1.0312343
32	0x3f704f4e	0.9387101
33	0x3f7d7a50	0.9901476
34	0x3f80049f	1.000141
35	0x3f35fd2b	0.7108943

encoder.0.1.bias f4 [36]
0	0xbcdcde31	-0.026961418
1	0xbcb26997	-0.021778865
2	0xbc6a8ed4	-0.014316279
3	0xbd376928	-0.04477802
4	0x3d294b42	0.041331537
5	0xbd1ec316	-0.038760267
6	0x3cf8cf59	0.030372309
7	0x3d33193b	0.043725234
8	0xbbbaa6df	-0.005696162
9	0xbc9d836b	-0.019227704
10	0xbafd7c7e	-0.001933947
11	0xbd97ebae	-0.07417999
12	0xbd169037	-0.036758628
13	0xbcf7d0f0	-0.030250996
14	0xbcd77c0b	-0.026304265
15	0xbcd10151	-0.025513323
16	0x3cf068b1	0.029346796
17	0xbd859468	-0.06522447
18	0xbd83a27a	-0.06427474
19	0x3c02b616	0.007977983
20	0xbc9963d0	-0.018724352
21	0xbc327fef	-0.01089476
22	0x3c7bf411	0.015378014
23	0xbd11cebb	-0.035597544
24	0xbcecb62e	-0.028895464
25	0xbd1bad1b	-0.038006883
26	0xbcadecd5	-0.021231094
27	0xbca6a74a	-0.020343442
28	0xbd04d162	-0.032426246
29	0xbcc2f61d	-0.023798997
30	0xbd2d5b93	-0.04232366
31	0xbc744d2d	-0.014910978
32	0x3cdf6511	0.027269872
33	0xbb7e5076	-0.0038805283
34	0xbc35c1fc	-0.011093613
35	0x3ce9bb20	0.028531611

encoder.0.1.running_mean f4 [36]
0	0xbebdafa4	-0.37048066
1	0xbe61fe62	-0.22069696
2	0x3de90016	0.113769695
3	0xbeb3acfc	-0.35092914
4	0xbe3d2bd2	-0.18473747
5	0xbd44514a	-0.047929086
6	0xbdbc902a	-0.092071846
7	0x3ebae210	0.36500597
8	0xbf1d01d7	-0.6133093
9	0xbef7b6c1	-0.48381618
10	0xbefb3a6b	-0.49068007
11	0x3ede6db6	0.43443078
12	0x3d9ac055	0.07556216
13	0x3e911698	0.2833755
14	0x3f0bf1e5	0.54665977
15	0xbdaef254	-0.08542314
16	0xbec6765e	-0.38762182
17	0x3e9285d9	0.28617743
18	0x3bf7a0e1	0.00755702
19	0xbe8437ed	-0.25823918
20	0xbf168d0a	-0.5880896
21	0xbd81ee2e	-0.06344257
22	0xbf762fea	-0.9616686
23	0xbd27bd79	-0.04095218
24	0xbda7c6af	-0.08192193
25	0xbc9a3796	-0.018825334
26	0xbc9cd7de	-0.019145902
27	0x3c94f3a0	0.018182576
28	0xbcce43db	-0.02517884
29	0xbf2029d1	-0.62563807
30	0x3c115dbb	0.008872445
31	0xbdb27551	-0.087137826
32	0xbdc7d508	-0.09757429
33	0xbe66d772	-0.22543123
34	0xbf060d5f	-0.5236415
35	0x3e171924	0.14755684

encoder.0.1.running_var f4 [36]
0	0x3aa7c89c	0.0012800875
1	0x3ae644a9	0.001756807
2	0x3ab50d2b	0.0013813128
3	0x3a9db50a	0.0012032103
4	0x3aa68f34	0.0012707473
5	0x3acd9ba9	0.0015686649
6	0x3ab62bd0	0.0013898555
7	0x3afdbc79	0.0019358537
8	0x3ad0313f	0.0015883817
9	0x3aa3ab9b	0.0012487056
10	0x3a93311a	0.0011229843
11	0x3a90717b	0.0011020148
12	0x3af6022e	0.001876896
13	0x3ab463c8	0.0013762647
14	0x3a9f4669	0.0012151721
15	0x3ad5a0ec	0.0016298569
16	0x3acfc746	0.0015852235
17	0x3a717b25	0.00092117704
18	0x3a939c1a	0.0011261732
19	0x3abbaad2	0.0014317876
20	0x3a96a934	0.0011494518
21	0x3ac6bb26	0.0015161976
22	0x3aa3ca3f	0.0012496187
23	0x3a7d599e	0.0009664538
24	0x3a9bb364	0.0011879024
25	0x3a832b25	0.0010007365
26	0x3ac42d67	0.0014967144
27	0x3ad68f46	0.0016369603
28	0x3ad23706	0.0016038127
29	0x3ab121d7	0.0013514113
30	0x3acc0dd2	0.0015568084
31	0x3abaadcf	0.0014242473
32	0x3b0c2baf	0.0021388342
33	0x3a959ad0	0.0011413936
34	0x3a810fda	0.0009846643
35	0x3ad8463c	0.0016500424

encoder.1.0.weight f4 [36, 36, 7]
0	0x3ced2591	0.028948577
1	0x3c89e20b	0.016831418
2	0x3c83ca02	0.016087536
3	0xbcfa0b1e	-0.03052288
4	0xbc85785e	-0.016292747
5	0xbd339940	-0.043847322
6	0x3c3daca7	0.011576808
7	0x3d7d3df7	0.061826672
8	0xbcf60bbb	-0.03003489
9	0xbc9a1025	-0.018806526
10	0xbd28a615	-0.041174013
11	0x3ca54e60	0.020178974
12	0xbcb28965	-0.02179403
13	0xbc983452	-0.018579636
14	0x3d05d9d8	0.032678455
15	0x3d4dc4d6	0.050236546
16	0x3c24f5f6	0.010068407
17	0xbcdf772f	-0.02727851
18	0x3c4ef52d	0.012631697
19	0x3d42d155	0.047562916
20	0x3c1a1a0b	0.009405623
21	0x3bb53dcc	0.0055310484
22	0xbc649d02	-0.013953449
23	0xbd2cf2a9	-0.042223606
24	0xbd9cbab6	-0.076528
25	0xbda3bcd2	-0.07994999
26	0xbcfccf14	-0.030860461
27	0x3c8063c6	0.015672576
28	0xbcd945ff	-0.026522635
29	0x3d8ac87e	0.06776522
30	0x3cea3494	0.028589524
31	0xbd4d6b60	-0.05015123
32	0xbd252495	-0.04031809
33	0x3c731557	0.014836631
34	0x3b3cc484	0.0028803656
35	0x3d31c883	0.043404114
36	0xbb2aef5a	-0.0026082606
37	0x3d950470	0.07276237
38	0x3d930d00	0.07180214
39	0x3cb30df2	0.021857236
40	0x3c6bff3c	0.014404114
41	0x3cd5e91b	0.02611213
42	0x3ad0638e	0.001589881
43	0x3d487861	0.048942927
44	0xbcef8d4f	-0.029242186
45	0xbb61994f	-0.0034423654
46	0x3e08dcf3	0.13365535
47	0xbcfcfe95	-0.030883113
48	0xbd92cde9	-0.071681805
49	0xbd25f929	-0.04052082
50	0x3ce09342	0.027413968
51	0xbd75fa6b	-0.06005327
52	0xbd03534d	-0.032061864
53	0xbbd07663	-0.006361769
54	0xbd88170c	-0.06645021
55	0x3cd9b62a	0.02657612
56	0xba00f23a	-0.0004918907
57	0x3babb6d5	0.005240301
58	0x3da68ee7	0.08132725
59	0x3dba7146	0.091036364
60	0x3dc9df06	0.098569915
61	0x3b7fdabf	0.0039040295
62	0x3d16d994	0.036828592
63	0x3bc36d62	0.005963967
64	0x3da5eea3	0.08102157
65	0xbd40e1eb	-0.047090452
66	0xbd826366	-0.06366615
67	0xbce61db6	-0.02809034
68	0xbbcddda9	-0.0062825275
69	0xbd89c4e0	-0.06727004
70	0x3d08f4d7	0.033436622
71	0x3d168f3d	0.036757696
72	0x3d18e25d	0.03732525
73	0xbd326602	-0.043554313
74	0xbb5471cb	-0.0032416459
75	0xbd82a732	-0.06379546
76	0xbd869c23	-0.065727495
77	0xbbf01847	-0.007327113
78	0xbd9c3a7d	-0.07628343
79	0x3cd0574d	0.025432253
80	0xbcc8681b	-0.024463704
81	0x3cbbeba7	0.022939516
82	0x3c9989df	0.0187425
83	0x3cae1ceb	0.021254024
84	0x3cc10476	0.023561697
85	0x3d18e39b	0.037326436
86	0x3cf70e5b	0.030158212
87	0x3c1bff6c	0.009521347
88	0x3d4029ac	0.04691474
89	0xbd300094	-0.0429693
90	0x3bbbfe8c	0.0057371315
91	0xbd448323	-0.047976624
92	0xbd1c4f6b	-0.038161676
93	0x3d339b55	0.043849308
94	0xbd38cf26	-0.045119427
95	0xbd5d65de	-0.054052226
96	0x3d41b7cc	0.047294423
97	0x3d285f4c	0.041106507
98	0xbcedf134	-0.029045679
99	0xbd3b9bd5	-0.04580291
100	0xbc4426f7	-0.011972181
101	0x3d6d5fa8	0.057952553
102	0xbd15e8e5	-0.03659906
103	0x3c7416ae	0.014897985
104	0xbaf1458d	-0.0018407569
105	0x3dc0f54f	0.09421789
106	0x3d2df7a4	0.042472497
107	0x3d61e9f8	0.05515477
108	0x3c74ada6	0.014933979
109	0x3da35371	0.079748996
110	0xbc9c8cc3	-0.01911009
111	0x3b9acb6d	0.0047239573
112	0xbd4518d9	-0.0481194
113	0x3d85e21c	0.065372676
114	0x3d672748	0.056433946
115	0x3cab09b2	0.020878647
116	0x3cda1a9c	0.026624016
117	0xbae65137	-0.0017571811
118	0x3d885350	0.066565156
119	0xbd4f2828	-0.050575405
120	0xbd6a3ac4	-0.05718495
121	0x3c4cd3f8	0.012501709
122	0x3d63e08c	0.055634066
123	0xbd00c045	-0.031433363
124	0xbcece72f	-0.02891883
125	0xbd0256bb	-0.031820994
126	0xbd0860bb	-0.033295374
127	0x3c8f8357	0.017518682
128	0x3c2c3166	0.010509824
129	0xbd874338	-0.06604618
130	0xbc6faaa0	-0.0146280825
131	0x3d15d622	0.036581166
132	0xbd6e9319	-0.058245752
133	0xbb47088e	-0.003037009
134	0xbccc483b	-0.024936786
135	0x3d100eda	0.035170414
136	0x3c851be5	0.016248653
137	0x3bebfec6	0.007202002
138	0x3d2f84f7	0.042851415
139	0xbd21b3fc	-0.039478287
140	0x3c8b6c47	0.017019404
141	0x3a17cc2a	0.00057906157
142	0x3cc83b08	0.02444221
143	0xbcc17fce	-0.023620512
144	0x3c342e7e	0.010997413
145	0xbbf8b1f3	-0.0075895726
146	0xbd1c4304	-0.03814985
147	0x3d3758dd	0.04476248
148	0x3d0bc858	0.03412661
149	0x3cb51003	0.022102362
150	0xbd55582e	-0.052086048
151	0xbd7e5127	-0.06208911
152	0xbd6084b9	-0.054814074
153	0xbd8b6d6e	-0.068079814
154	0xbcd08a25	-0.025456497
155	0x3d3890cd	0.045059968
156	0x3d555f4b	0.05209283
157	0x3a455c1e	0.000752868
158	0x3d5ec783	0.054389488
159	0x3d170fa0	0.036880136
160	0x3d795eaa	0.060881294
161	0x3c8f458c	0.017489217
162	0x3d1ee655	0.03879388
163	0x3d0c0d51	0.034192387
164	0xbd3ccfd5	-0.04609664
165	0xbd7e7384	-0.062121883
166	0xbd15957e	-0.03651952
167	0xb9439f44	-0.0001865598
168	0x3d0a6da3	0.033795964
169	0xbcf36886	-0.029712927
170	0xbcb34ef2	-0.02188823
171	0x3c7be91b	0.015375401
172	0xbd1b0f23	-0.037856232
173	0x3c9530c4	0.01821173
174	0xbb56338c	-0.0032684533
175	0xbc46e65e	-0.012139885
176	0x3c8413aa	0.016122658
177	0xbd853ee8	-0.06506139
178	0x3c9dd264	0.019265361
179	0x3d56b740	0.052420855
180	0x3d17327e	0.036913387
181	0x3cb06f90	0.021537572
182	0x3ba367ae	0.004986725
183	0xbd7b933e	-0.061419718
184	0xbd80966a	-0.06278689
185	0x3b5b1ebb	0.0033435065
186	0xbd883408	-0.06650549
187	0xbd5b9b9e	-0.053615205
188	0xbb30c93f	-0.002697542
189	0x3d84d90c	0.06486711
190	0x3c3c43b4	0.011490751
191	0xbd0ae05d	-0.033905376
192	0x3c27e0a1	0.010246427
193	0x3d068d3f	0.032849547
194	0xbd35522d	-0.044267822
195	0xbd1a461c	-0.037664518
196	0xbc42956f	-0.011876448
197	0x3bf193c6	0.0073723523
198	0x3b24b959	0.002513489
199	0x3d93f9db	0.072253905
200	0x3d4f8d31	0.05067176
201	0x3d857818	0.06517047
202	0x3d4e3fdd	0.050353874
203	0x3c21fa34	0.009886313
204	0xbb4b54be	-0.0031025852
205	0x3cdead80	0.02718234
206	0xbbf08cca	-0.007341002
207	0xbc97838e	-0.018495347
208	0xbbe3dc97	-0.0069537866
209	0xbd9e76e6	-0.07737522
210	0x3cace226	0.02110393
211	0x3d51eb39	0.051249716
212	0xbc997854	-0.018734135
213	0x3c64517e	0.013935445
214	0x3cb54200	0.022126198
215	0xbc9c377d	-0.019069428
216	0x3ae36bec	0.0017350889
217	0x3cb3d75c	0.021953277
218	0x3d08be2e	0.033384494
219	0xbd301a1b	-0.042993646
220	0x3d1fdc3e	0.0390284
221	0x3c50006d	0.012695414
222	0xbcd1e371	-0.025621148
223	0xbcdf70eb	-0.027275523
224	0xbd4b083a	-0.049568392
225	0xbbbe91ab	-0.005815705
226	0x3d406302	0.04696942
227	0xbc1a6000	-0.009422302
228	0x3d7aea26	0.061258458
229	0xbd82dacb	-0.06389388
230	0xba66b601	-0.00088009244
231	0x3d75c8ce	0.060005955
232	0xbc41d5f7	-0.011830798
233	0x3d864484	0.06556037
234	0x3c14ce19	0.009082341
235	0x3ca2a460	0.01985377
236	0x3d26fc7c	0.04076813
237	0xbcc60af9	-0.024175154
238	0x3d7cd47f	0.06172609
239	0xbcc80d24	-0.024420328
240	0x3c702a35	0.0146585
241	0x3a8caf87	0.0010733464
242	0xbc54b8e6	-0.012983536
243	0xbd2064a0	-0.039158463
244	0xbd8da2d9	-0.06915826
245	0xbc862e0d	-0.01637938
246	0x3c24c98b	0.010057817
247	0x3ba3760a	0.0049884366
248	0xbc37f897	-0.011228702
249	0x3c8a935e	0.016915973
250	0xbbc77c4b	-0.006087815
251	0x3d1a7702	0.03771115
252	0x3d4ce182	0.05001975
253	0x3b853e7b	0.004066286
254	0xbd36170c	-0.044455573
255	0x3cabbf90	0.020965368

encoder.1.0.bias f4 [36]
0	0x3d7df241	0.06199861
1	0x3d9ec786	0.077529
2	0x3d2617e4	0.040550128
3	0xbd285252	-0.04109413
4	0xbd749fbb	-0.059722643
5	0xbcfad37f	-0.030618427
6	0x3c8c85c5	0.01715363
7	0xbccc37f6	-0.024929028
8	0x3d1d3203	0.038377773
9	0xbdb6ccf1	-0.08925808
10	0x3c320f90	0.010867968
11	0xbd5f70f9	-0.0545511
12	0xbd113037	-0.035446372
13	0x3cfb3fcd	0.030670071
14	0x3b9c8465	0.004776525
15	0x3d04bc3c	0.032406077
16	0xbd2243a1	-0.039615277
17	0x3b7e85f5	0.0038837169
18	0xbd2ebf19	-0.042662714
19	0x3d654f5b	0.055983882
20	0xbab08b5c	-0.0013469267
21	0x3cfeccf2	0.031103585
22	0xbd819fb4	-0.06329289
23	0x3d070436	0.032963
24	0xbd216935	-0.039406974
25	0xbd5722b3	-0.052523326
26	0x3bbc7a16	0.0057518585
27	0xbd0fb5c6	-0.035085462
28	0x3d46269b	0.04837666
29	0xbd659109	-0.05604652
30	0xbc13f7d1	-0.009031252
31	0x3c744535	0.014909078
32	0xbd26a313	-0.040682863
33	0xbda06bc9	-0.078330584
34	0xbc69e2e5	-0.014275287
35	0xbd8c7083	-0.068573974

encoder.1.1.weight f4 [36]
0	0x3f4017b5	0.75036174
1	0x3f748a15	0.95523196
2	0x3f0486fb	0.51768464
3	0x3f500f8c	0.8127372
4	0x3f764fdb	0.962156
5	0x3f4f350e	0.8094033
6	0x3f7d48b8	0.98939085
7	0x3f497833	0.78699034
8	0x3f4fbf61	0.81151396
9	0x3f6b5975	0.91933376
10	0x3f37832f	0.71684545
11	0x3f8d38bd	1.103294
12	0x3f7100c3	0.9414179
13	0x3f6fe66f	0.9371099
14	0x3f6d7ca0	0.9276829
15	0x3f8525c3	1.0402149
16	0x3f648f5a	0.8928124
17	0x3f701552	0.9378253
18	0x3f707c7a	0.93939936
19	0x3f5d06ca	0.86338484
20	0x3f7c8d0a	0.9865271
21	0x3f763b43	0.96184176
22	0x3f15c0b2	0.58497155
23	0x3f3cb869	0.7371889
24	0x3f6f8440	0.9356117
25	0x3f70f71f	0.94127077
26	0x3f3224ee	0.695876
27	0x3f390648	0.7227521
28	0x3f632663	0.8873045
29	0x3f7875dc	0.9705484
30	0x3f5c03e1	0.8594342
31	0x3f75fc6a	0.9608828
32	0x3f60d7bf	0.878292
33	0x3f57bc1a	0.84271395
34	0x3f709efd	0.93992597
35	0x3f651256	0.89481103

encoder.1.1.bias f4 [36]
0	0xbd25e66c	-0.04050295
1	0x3d082517	0.033238497
2	0x3c44c768	0.012010433
3	0xbd4dd959	-0.050256107
4	0xbd730496	-0.059330545
5	0xbc779c5f	-0.015112965
6	0xbd1c1c39	-0.038112853
7	0xbd52ee00	-0.051496506
8	0xbba51148	-0.0050374605
9	0xbd3a8ddb	-0.04554544
10	0x3b003614	0.0019563483
11	0xbd6223ea	-0.05521003
12	0xbc1e4885	-0.009660845
13	0x3ac7e76d	0.0015251465
14	0x3c83a925	0.016071865
15	0xbd8a46b9	-0.067517705
16	0xbd14f589	-0.036366973
17	0xbad16fb9	-0.001597873
18	0xbcbd2af3	-0.023091769
19	0x3caf93d8	0.021432802
20	0xbd0f3bdb	-0.034969192
21	0xbd58a5ca	-0.052892484
22	0xbd2902e6	-0.04126253
23	0x3ce74919	0.028233098
24	0xbd87e4bf	-0.06635427
25	0xbcd6af3c	-0.026206605
26	0xbd2eff6c	-0.042724058
27	0xbcd775d1	-0.026301296
28	0x3cd00969	0.025395112
29	0xbb89de64	-0.004207419
30	0xbc91202d	-0.017715538
31	0xbd95472b	-0.07288965
32	0x3bee3542	0.0072695324
33	0xbd8c362e	-0.068462715
34	0x3d40016f	0.046876367
35	0xbd60d70e	-0.054892592

encoder.1.1.running_mean f4 [36]
0	0x3e5bfcbf	0.21483134
1	0xbd9c0a3c	-0.076191396
2	0xbc17d22d	-0.009266418
3	0xbd2656fe	-0.040610306
4	0x3cc6463a	0.024203409
5	0xbe549d53	-0.2076314
6	0x3b903c43	0.004401715
7	0x3e884892	0.26617867
8	0xbd58fd0a	-0.05297569
9	0xbd3c98bf	-0.046044108
10	0xbb6c72b7	-0.0036079118
11	0x3e39baa4	0.18137604
12	0xbca6c5bd	-0.02035796
13	0x3b2d0df2	0.0026406017
14	0xbdda6962	-0.106646314
15	0x3eab8cd2	0.33505875
16	0xbe2c8bb4	-0.16850168
17	0x3e20fa7b	0.1572055
18	0xbe054f02	-0.1301842
19	0xbe6e8a3e	-0.23294923
20	0x3e18b103	0.14911275
21	0xbe2a738d	-0.16645642
22	0xbe95eb9a	-0.29281312
23	0xbe300fdc	-0.1719355
24	0x3e301bf1	0.17198159
25	0x3e115b43	0.1419497
26	0xbe212b89	-0.15739264
27	0x3dfb1f3e	0.12261818
28	0xbe0f0504	-0.13966757
29	0xbe58a3aa	-0.21156183
30	0x3d42a0cb	0.047516625
31	0x3e7addd3	0.24498682
32	0xbe5f09cb	-0.2178108
33	0x3d2b86da	0.04187665
34	0xbe186fdc	-0.14886421
35	0x3de394de	0.111123785

encoder.1.1.running_var f4 [36]
0	0x3faea632	1.3644469
1	0x4011b90a	2.276919
2	0x3f6aff44	0.91795754
3	0x3fb8ff06	1.4452827
4	0x3fda9d13	1.7079185
5	0x401ce148	2.45125
6	0x3f94aaf7	1.1614674
7	0x3fbe0053	1.4843849
8	0x404aea11	3.1705363
9	0x3f5b18b8	0.8558459
10	0x3fa7249c	1.3058047
11	0x40034267	2.0509279
12	0x3fbfd8cf	1.498804
13	0x405f0186	3.484468
14	0x3fb4d3a5	1.4127089
15	0x3f01442f	0.50494665
16	0x3f7448c3	0.95423526
17	0x3fbafe4e	1.4608858
18	0x402b0f0f	2.672794
19	0x3e456847	0.1927806
20	0x40247389	2.5695517
21	0x3f1da225	0.6157554
22	0x3f3a5a97	0.7279448
23	0x403648b0	2.8481865
24	0x3fbd797e	1.4802701
25	0x3f8da44b	1.1065763
26	0x3f228f30	0.63499737
27	0x3fe4fd50	1.7889805
28	0x40220c1f	2.5319898
29	0x3fdc0571	1.718916
30	0x3fb0fb1a	1.382663
31	0x3fd5e1ef	1.6709574
32	0x3fa0ec49	1.2572109
33	0x3fc6e3c6	1.5538261
34	0x40079486	2.1184402
35	0x40156dab	2.3348186

encoder.2.0.weight f4 [36, 36, 7]
0	0x3d3c3992	0.04595334
1	0xbd86dc23	-0.065849565
2	0xbca9d4d9	-0.020731376
3	0xbd09ad84	-0.033612743
4	0x3bd335a2	0.0064456025
5	0xbd69b283	-0.057055008
6	0x3d0a1122	0.033707745
7	0xbd30aa44	-0.043131128
8	0x3d1bef43	0.038069975
9	0xbcb4f9e1	-0.022091808
10	0xbd815f96	-0.0631706
11	0xbcb24cae	-0.02176508
12	0xbc4e8ec4	-0.01260728
13	0x3cd649e1	0.026158275
14	0xbd4abeed	-0.049498487
15	0xbd612cdf	-0.054974433
16	0xbd7244de	-0.059147708
17	0x3d25038a	0.04028658
18	0x3b066f3b	0.0020513076
19	0x3d657c45	0.056026716
20	0x3d69e963	0.05710734
21	0xbd55aa5a	-0.052164413
22	0xbca3cd6f	-0.01999542
23	0x3cb33455	0.02187554
24	0x3b9c0c43	0.004762204
25	0x3cf54cac	0.029943787
26	0x3d52668a	0.05136732
27	0x3d096f85	0.03355362
28	0x3cf4f262	0.029900733
29	0x3d737cbd	0.05944513
30	0xbd23a806	-0.03995516
31	0x3d2d7f94	0.042357996
32	0x3d4aaa33	0.04947872
33	0xbd1a9054	-0.0377353
34	0xbc83dba1	-0.016095938
35	0xbd2de251	-0.04245216
36	0xbd7c4a01	-0.061594013
37	0x3c5a1bfc	0.013312336
38	0x3d5997c9	0.05312327
39	0x3b321ea5	0.002717891
40	0xbc830793	-0.015994823
41	0x3d37f625	0.044912476
42	0x3d3cda1e	0.04610645
43	0x3b298a45	0.0025869769
44	0xbc61c4dd	-0.013779846
45	0x3bb8412f	0.005623005
46	0xbce65636	-0.02811728
47	0x3b318f1a	0.0027093352
48	0x3b8e4768	0.0043420084
49	0xbb8f2b14	-0.004369149
50	0xbc88bc19	-0.016691254
51	0x3cc4afa9	0.024009543
52	0xbd4fe63a	-0.05075667
53	0x3d2674d7	0.04063877
54	0x3db090dc	0.0862138
55	0x3c384c73	0.011248696
56	0xbe3ad347	-0.18244658
57	0xbdf4197b	-0.119189225
58	0xbaceb942	-0.0015771764
59	0x3d89d29e	0.06729625
60	0x3d7b4777	0.06134745
61	0xbb899446	-0.004198584
62	0xbd1e4b40	-0.038645983
63	0xbc7d5312	-0.0154617
64	0xbd1aed63	-0.037824046
65	0x3a8baf06	0.001065702
66	0x3dae4277	0.08508771
67	0x3dd846c7	0.10560375
68	0x3d90df58	0.070738494
69	0xba95155c	-0.0011374163
70	0x3d620b01	0.055186275
71	0x3d56a6b7	0.052405085
72	0xbd7ef0ae	-0.06224125
73	0xbabf85d5	-0.0014612029
74	0xbce40260	-0.027833164
75	0xbccb968b	-0.024852058
76	0xbc7eb5f6	-0.015546313
77	0x3d9e15f8	0.07719034
78	0x3d989643	0.07450535
79	0x3d306deb	0.043073576
80	0xbcbc519b	-0.022988131
81	0xbd4ac3f2	-0.049503274
82	0x3dc625f0	0.09675205
83	0x3d155584	0.036458507
84	0xbc95a404	-0.018266685
85	0xbc760ac3	-0.015017214
86	0xbcb6c646	-0.022311341
87	0xbcecc3fa	-0.028902043
88	0x3c6051a2	0.013691338
89	0xbcc21e87	-0.023696197
90	0x3d83ded4	0.064389855
91	0x3c23d0fa	0.009998554
92	0x3b9c14d1	0.0047632237
93	0x3c8558bd	0.016277665
94	0xbc89c2f6	-0.016816597
95	0x3d173c44	0.03692271
96	0x3bd26353	0.006420532
97	0x3d427357	0.047473278
98	0xbd92b288	-0.071629584
99	0x3cf2ecb3	0.029653883
100	0x3d45d6ad	0.048300434
101	0x39510838	0.00019934855
102	0xbd099470	-0.033588827
103	0x3da3cd07	0.0799809
104	0x3daa2bd7	0.08309143
105	0x3cb6dc24	0.022321768
106	0x3db800df	0.08984541
107	0xb90753c7	-0.00012905813
108	0x3c20c297	0.009812019
109	0x3d1a6ffc	0.037704453
110	0x3dcadc5b	0.09905311
111	0x3e3723f8	0.17884815
112	0x3c81f623	0.015864437
113	0xbce08100	-0.027405262
114	0xbd444d71	-0.047925416
115	0xbd3952b8	-0.045244902
116	0xbc48db15	-0.0122592645
117	0xbc8707ea	-0.016483266
118	0x3cb4e039	0.022079574
119	0xbcc4268a	-0.023944158
120	0x3d816a2f	0.06319081
121	0x3d8c5b61	0.06853367
122	0xbcb3860f	-0.02191451
123	0x3d8de9e7	0.06929379
124	0x3c6a495c	0.014299717
125	0x3d5db8aa	0.054131187
126	0xbc309d2a	-0.010779658
127	0x3d66bcd4	0.056332424
128	0xbcdb52dd	-0.02677291
129	0x3d2a82f6	0.0416288
130	0x3d9921dd	0.07477162
131	0x3d791161	0.06080759
132	0xbcba9f68	-0.022781089
133	0x3ccc6d69	0.024954515
134	0x3c5522f3	0.013008821
135	0xbcc7105a	-0.02429979
136	0xbd0aeb9e	-0.03391611
137	0x3d403479	0.04692504
138	0xbd4463c9	-0.047946725
139	0xbc9dd8e8	-0.019268468
140	0x3d42be21	0.047544602
141	0x3d3ff02c	0.046859905
142	0xbd777d33	-0.060422134
143	0xbd472530	-0.04861945
144	0xbdd2305d	-0.10263131
145	0xbc8b6004	-0.017013557
146	0x3d83ede0	0.064418554
147	0x3ce29db0	0.027663082
148	0x3bcec02a	0.006309529
149	0x3d3e63ef	0.046482023
150	0x3d22985d	0.039696086
151	0x3c79ec4d	0.015254092
152	0x3d4378a3	0.04772247
153	0xbc15fb04	-0.009154085
154	0x3cd3dd83	0.025862461
155	0x3d87e317	0.06635111
156	0x3dd84d85	0.10561661
157	0x3dbfbf8b	0.09362706
158	0xbcfd2ec2	-0.030906085
159	0x3c52452f	0.0128338775
160	0x3d8f56ed	0.06999002
161	0xbd645d00	-0.055752754
162	0x3cf5a2c1	0.029984834
163	0x3d042921	0.032265786
164	0xbd4071e7	-0.046983626
165	0xbc288d4c	-0.010287594
166	0xbd8c810b	-0.068605505
167	0xbc7a49d0	-0.015276387
168	0xbad86f3e	-0.0016512645
169	0x3d45eb84	0.04832031
170	0x3cdbf12f	0.026848404
171	0xbd288776	-0.04114481
172	0xbb81b0da	-0.00395785
173	0xbcc16a81	-0.023610355
174	0xbc9267ad	-0.017871702
175	0xbb1607c2	-0.0022892808
176	0x3cd86c49	0.026418822
177	0x3d82e535	0.06391374
178	0x3d328fce	0.043594174
179	0xbd3bae54	-0.04582055
180	0x3d54d9ad	0.051965404
181	0x3db262f7	0.08710282
182	0x3e1290a7	0.14312993
183	0x3d94b438	0.072609365
184	0xbdb875ce	-0.090068445
185	0x3d21a1d4	0.039460972
186	0xbcbd4e26	-0.023108553
187	0x3d472cfb	0.04862688
188	0xbd10f94c	-0.035393998
189	0x3d604de1	0.05476177
190	0xbc432825	-0.011911427
191	0xbd56f5c8	-0.05248049
192	0xbc3ffde1	-0.011718244
193	0xbcd65742	-0.026164655
194	0xbd8c493b	-0.06849905
195	0x3d1793ee	0.03700631
196	0xbd242e24	-0.040083066
197	0xbd25c772	-0.04047341
198	0x3d16b022	0.036789067
199	0x3d01e561	0.031712893
200	0x3d3b77bc	0.045768484
201	0x3c9054c8	0.017618552
202	0xb9882c17	-0.0002597279
203	0xbd3fec66	-0.046856306
204	0x3c92b882	0.017910246
205	0xbcf5e3b3	-0.030015802
206	0xbc5fa1a9	-0.013649383
207	0xbd163278	-0.036669225
208	0x3d0498ce	0.03237229
209	0x3d6122c1	0.054964785
210	0xbd077d13	-0.033078264
211	0x3cbdf9c1	0.023190381
212	0xbc87f89d	-0.01659804
213	0xbcc6daf7	-0.024274332
214	0xbd871f28	-0.065977395
215	0xbd18748a	-0.037220515
216	0xbcdf5367	-0.027261449
217	0xbc907e7d	-0.01763844
218	0xbcb8712d	-0.022514904
219	0xbd94fc98	-0.07274741
220	0xbda98267	-0.082768254
221	0xbd638d1b	-0.05555449
222	0xbc7d576a	-0.015462736
223	0xbc9e185e	-0.019298729
224	0x3d0cb954	0.03435643
225	0x3ce735fc	0.028223984
226	0x3b74da89	0.0037361702
227	0xbc585905	-0.013204818
228	0xbd05b888	-0.032646686
229	0x3ce154e9	0.027506309
230	0x3cdc95f8	0.02692698
231	0x3d6d5281	0.05794001
232	0xbce66b2d	-0.028127277
233	0xbb0ab0a6	-0.002116242
234	0x3c59ebb9	0.01330083
235	0x3d43b4e9	0.04777995
236	0xbc913f61	-0.017730417
237	0xbc3ca5b2	-0.011514114
238	0x3c8e61b0	0.017380565
239	0x3da7469f	0.08167767
240	0x3bc78336	0.0060886396
241	0xbc77ce72	-0.015124904
242	0xbbe22616	-0.006901513
243	0x3d56114d	0.052262593
244	0x3d2ac4f1	0.041691724
245	0xbc652d67	-0.013987876
246	0xbd2138e5	-0.0393609
247	0x3cc016b2	0.023448322
248	0xbd727168	-0.059190184
249	0x3ca57c33	0.020200824
250	0x3c17c20c	0.009262573
251	0x3d8b150f	0.06791126
252	0xbca8bc2f	-0.020597545
253	0x3d13e4cc	0.03610687
254	0x3d97b617	0.07407778
255	0xbbd8e62a	-0.0066192346

encoder.2.0.bias f4 [36]
0	0x3cc2f444	0.023798116
1	0x3cbfa527	0.02339418
2	0xbdb442d1	-0.08801807
3	0xbd96b48b	-0.073586546
4	0x3cb9a974	0.02266381
5	0x3c828ccf	0.015936283
6	0xbddbca1c	-0.10731909
7	0x3cad173e	0.021129247
8	0xbcb165fb	-0.021655073
9	0xbc40893e	-0.011751471
10	0x3d05a964	0.032632247
11	0x3cabc097	0.020965857
12	0x3c3e73eb	0.011624317
13	0xbd775f95	-0.06039389
14	0x3c8c7172	0.017143939
15	0x3d393862	0.045219786
16	0x3c2901ec	0.0103154
17	0xbd7eaf5d	-0.06217896
18	0x3b02f274	0.001998094
19	0xbcfffb9c	-0.031247906
20	0x3c0725ee	0.008248789
21	0xbdf8fdfd	-0.121578194
22	0xbd23b014	-0.039962843
23	0x3ca071b4	0.019585468
24	0x3d3a8ded	0.045545507
25	0xbe001737	-0.12508856
26	0x3d2083dd	0.039188255
27	0xbd7af08a	-0.061264552
28	0x3c32e3cd	0.01091857
29	0x3b66049b	0.003509796
30	0x3b96e88e	0.0046053594
31	0xbda44135	-0.0802025
32	0x3d69bc7c	0.05706452
33	0xbcad26c2	-0.021136645
34	0x3bbdbe2f	0.005790494
35	0xbc235dd3	-0.0099711

encoder.2.1.weight f4 [36]
0	0x3f480243	0.7812845
1	0x3f670a4a	0.90250075
2	0x3f7c01d0	0.98440266
3	0x3f45788f	0.7713708
4	0x3f71de9d	0.94480306
5	0x3f2a8c7c	0.6662061
6	0x3f6a9a34	0.91641545
7	0x3f6d2213	0.9263012
8	0x3f410a5c	0.7540643
9	0x3f3db3bd	0.74102384
10	0x3f5da54a	0.86580336
11	0x3f2fed72	0.6872169
12	0x3f5e75e8	0.8689866
13	0x3f502e13	0.81320304
14	0x3f15f408	0.5857549
15	0x3f55aba0	0.83465004
16	0x3f42fecd	0.76170045
17	0x3f7ccb52	0.9874774
18	0x3f44aa77	0.7682261
19	0x3f2201d0	0.63284016
20	0x3f3480ba	0.7050892
21	0x3f6ff15d	0.93727666
22	0x3f33d815	0.7025159
23	0x3f5cf008	0.8630376
24	0x3f69c74f	0.91319746
25	0x3f7f134a	0.9963881
26	0x3f27a88a	0.65491545
27	0x3f583442	0.8445474
28	0x3f498b92	0.7872859
29	0x3f656928	0.8961358
30	0x3f7dc485	0.9912799
31	0x3f3aeabd	0.7301443
32	0x3f2e08b3	0.67982024
33	0x3f4d9366	0.8030304
34	0x3f6cc64c	0.92490077
35	0x3f4fa9f0	0.8111868

encoder.2.1.bias f4 [36]
0	0xbcf2ad33	-0.029623603
1	0xbc350a40	-0.011049807
2	0xbd9f81b2	-0.07788409
3	0xbd492888	-0.04911092
4	0xbd46ca11	-0.04853255
5	0xbd8d872d	-0.06910548
6	0xbd6ad950	-0.05733615
7	0xbca0adc3	-0.019614106
8	0xbd3812b0	-0.044939697
9	0xbd52c551	-0.051457707
10	0xbce75d80	-0.028242826
11	0xbc546791	-0.012964145
12	0xbd308708	-0.043097526
13	0xbcd1504a	-0.02555098
14	0xbda6684d	-0.081253625
15	0x3c82ce98	0.015967652
16	0xbcdb0fe0	-0.026740968
17	0xbdbcce6b	-0.092190586
18	0xbd0504f2	-0.03247542
19	0xbc557a5b	-0.01302966
20	0xbbae7cde	-0.005324944
21	0xbd8700a3	-0.06591918
22	0xbd4faa5a	-0.05069957
23	0xbd48ebf9	-0.049053166
24	0x3c0494ca	0.008092115
25	0xbddaeebb	-0.106900655
26	0xbd2459a0	-0.040124536
27	0xbdc4e6bc	-0.096143216
28	0x3ca9d40f	0.020731
29	0xbd9f0120	-0.077638865
30	0xbc4bab65	-0.012431
31	0xbd67cfe4	-0.056594744
32	0x3b753a72	0.003741887
33	0xbcbd8b75	-0.023137787
34	0xbc97dbfc	-0.018537514
35	0xbc65dd68	-0.014029838

encoder.2.1.running_mean f4 [36]
0	0xbdc7746d	-0.09739003
1	0xbdb40942	-0.08790828
2	0x3dacbc00	0.08434296
3	0xbc8db544	-0.017298348
4	0x3e9f2797	0.31084892
5	0xbd03edd6	-0.03220924
6	0xbd88573d	-0.066572644
7	0x3da1a94e	0.078936204
8	0xbe14c8ef	-0.14529775
9	0xbe3c066e	-0.18361828
10	0x3dbd91e9	0.09256346
11	0x3ce0df84	0.02745033
12	0x3e0453c3	0.12922578
13	0xbdb852be	-0.09000157
14	0xbd27548c	-0.040852115
15	0x3d3b2147	0.045686033
16	0x3eaea09f	0.3410692
17	0x3e1438df	0.1447482
18	0x3b86992d	0.0041076154
19	0xbd1a93d5	-0.03773864
20	0xbcc45894	-0.023968019
21	0xbdb43081	-0.08798314
22	0x3df76a01	0.120807655
23	0x3d9503a5	0.07276086
24	0x3d30c7ec	0.04315941
25	0x3d420f67	0.04737797
26	0x3e381804	0.17977911
27	0x3e346152	0.1761525
28	0xbda6802a	-0.08129914
29	0x3e3247ee	0.17410251
30	0xbdcd738a	-0.10031803
31	0xbdabdf43	-0.08392193
32	0x3dffdb47	0.12492996
33	0xbe460864	-0.19339138
34	0x3e5f009a	0.21777573
35	0xbd694a7e	-0.056955807

encoder.2.1.running_var f4 [36]
0	0x3fdd77e5	1.7302214
1	0x40172949	2.3618948
2	0x402eb077	2.7295206
3	0x3fe05605	1.7526251
4	0x3eb6c32c	0.3569578
5	0x3eafc1c8	0.3432753
6	0x4005ff90	2.0937233
7	0x3fcbf90c	1.5935378
8	0x3f143b4e	0.5790299
9	0x3fea2bec	1.8294654
10	0x3fcf3a53	1.6189674
11	0x3e7a71e7	0.24457513
12	0x3fc9036b	1.5704168
13	0x40105184	2.2549753
14	0x3f860355	1.0469767
15	0x3fcd5ffc	1.6044917
16	0x3fb2d4bc	1.3971171
17	0x3f07ffb8	0.5312457
18	0x40336372	2.8029447
19	0x3fe38756	1.7775676
20	0x3f99b9fd	1.2009884
21	0x3faa7a6c	1.331861
22	0x3f9e5735	1.2370363
23	0x3fb25f85	1.39354
24	0x4000272d	2.002391
25	0x3f54a5cb	0.8306548
26	0x3f086853	0.53284186
27	0x3e43cb4b	0.19120519
28	0x3f632c7e	0.88739765
29	0x3efd1677	0.49431202
30	0x3fca31ef	1.5796489
31	0x3f83aa93	1.028643
32	0x3f77c8f9	0.96791035
33	0x3f54deba	0.83152354
34	0x3f662851	0.8990527
35	0x3fda69ce	1.7063539

encoder.3.0.weight f4 [36, 36, 7]
0	0x3d43b888	0.047783405
1	0x3d5f1fee	0.05447381
2	0xbd1ab41e	-0.03776943
3	0xbda22998	-0.0791809
4	0x3d80107f	0.062531464
5	0x3cd55c7d	0.026045078
6	0xbd1450d6	-0.036209904
7	0x3d9118a6	0.070847794
8	0xbc11d321	-0.008900435
9	0x3c97e007	0.018539442
10	0xbc785cbc	-0.015158828
11	0x3dbd4c9b	0.09243127
12	0x3d1a2d78	0.03764102
13	0x3cdfdc36	0.027326684
14	0x3cb5f53e	0.022211667
15	0xbd2577a7	-0.040397312
16	0xbd107d91	-0.035276
17	0x3da4e71d	0.08051894
18	0x3c7a3061	0.0152703235
19	0xbc5d5957	-0.01351007
20	0xbd9def2b	-0.07711633
21	0x3d4b24ba	0.049595572
22	0xbcbbdc22	-0.022932116
23	0x3d94bad9	0.07262201
24	0xbb9a2e26	-0.0047052084
25	0x3cb0de0c	0.021590255
26	0xbd41912d	-0.04725759
27	0x3d7ae348	0.06125191
28	0xbd26b67d	-0.040701378
29	0x3d501648	0.0508025
30	0xbd57f71f	-0.052725907
31	0x3addc5e2	0.0016919936
32	0xbcd71595	-0.026255408
33	0x3d505bf7	0.050868955
34	0xbd2a8a65	-0.04163589
35	0x3cdf5ac3	0.027264958
36	0xbd27528e	-0.040850215
37	0xbc6ff0cc	-0.014644813
38	0x3da3b050	0.07992613
39	0xbc5c6272	-0.013451206
40	0xbd2a6f0e	-0.041609816
41	0xbd1de342	-0.038546808
42	0x3d13ce3e	0.03608536
43	0xbd4755a6	-0.048665665
44	0x3d4fb2e6	0.05070772
45	0x3d15e4d9	0.0365952
46	0xbd79739e	-0.060901277
47	0xbcb0a39c	-0.02156239
48	0x3d360bba	0.044444777
49	0xbca8f025	-0.020622322
50	0xbbcd2c9e	-0.0062614223
51	0xbd135a40	-0.03597474
52	0x3c6dd075	0.014515032
53	0xbd2446e8	-0.040106684
54	0x3d3dca86	0.04633572
55	0x3cafd9fe	0.021466251
56	0x3d026655	0.031835873
57	0xbd5fe9e7	-0.054666426
58	0x3d480191	0.04882962
59	0x3d156c3a	0.036480166
60	0xbca97763	-0.02068681
61	0xbc03afa8	-0.008037485
62	0xbc7a4375	-0.015274872
63	0x3c2fef82	0.010738255
64	0xbc9ff48e	-0.019525792
65	0x3a370b9e	0.0006982627
66	0xbc77372d	-0.0150888385
67	0x3ccbc51e	0.024874266
68	0xbd6a8664	-0.05725707
69	0xbd0c7ce7	-0.034298804
70	0xbc685873	-0.014181244
71	0x3cb86eb3	0.022513723
72	0x3ccd5093	0.025062835
73	0x3c4b5001	0.012409211
74	0x3c36b616	0.011151811
75	0xbd8cf119	-0.06881923
76	0xbcb9a4c0	-0.022661567
77	0x3d2ab767	0.041678812
78	0x3d1a8b79	0.037730668
79	0x3c81f344	0.015863068
80	0x3d4e8faf	0.050429996
81	0xbd05db72	-0.032679982
82	0xbd2f2669	-0.04276124
83	0xbd2e885e	-0.04261052
84	0xbd2fbb57	-0.04290327
85	0x3d2b2faa	0.041793503
86	0xbcb3eefc	-0.021964543
87	0x3c3a084f	0.01135452
88	0xbd79d89c	-0.06099759
89	0x3b9f2e43	0.0048578097
90	0xbb3e32b5	-0.0029021923
91	0x3d2dbf87	0.042418983
92	0x3d218f5a	0.03944335
93	0xbc254687	-0.010087616
94	0xbd3a4084	-0.045471683
95	0xbcec3c91	-0.028837474
96	0x3ce5528a	0.02799346
97	0x3d8b4192	0.06799616
98	0x3cbe68ab	0.023243269
99	0x3cbf4407	0.023347868
100	0xbd64ae59	-0.055830333
101	0x3cef59bf	0.029217599
102	0x3d1054d5	0.035237152
103	0xbc882b1c	-0.016622119
104	0xbcbe89d3	-0.02325908
105	0xbbce4051	-0.006294288
106	0x3c7c5f07	0.015403516
107	0xbd1ef48b	-0.038807433
108	0x3a68b9d8	0.00088777905
109	0x3d1fd0e2	0.039017566
110	0xbcd73a7e	-0.026273008
111	0xbdac1763	-0.08402898
112	0x3afec0f8	0.0019436171
113	0x3d2e7724	0.04259409
114	0x3c91fc0e	0.017820384
115	0x3ca9be4e	0.020720627
116	0x3d9306ae	0.071790084
117	0x3b476ad8	0.0030428674
118	0x3d903e9f	0.07043194
119	0xba08f0b0	-0.00052238535
120	0x3d6b0320	0.057376027
121	0xbd2c83da	-0.04211793
122	0x3ccc0cbd	0.024908418
123	0x3d231138	0.039811343
124	0x3d4ae6d3	0.049536537
125	0xbbf9208e	-0.007602758
126	0xbd8a7d80	-0.067622185
127	0x3cd520f0	0.026016682
128	0xbd52c787	-0.051459815
129	0x3c1c7b6e	0.009550912
130	0xbd11e247	-0.035616186
131	0xbd21dd53	-0.03951771
132	0x3d272e8d	0.04081588
133	0xbd83fbf6	-0.06444542
134	0x3cbe4af7	0.023229105
135	0x3d0a6d6a	0.03379575
136	0x3bf0cb78	0.007348474
137	0xbc1537e1	-0.009107561
138	0xbc570435	-0.013123562
139	0x3bdd9401	0.006762028
140	0x3ce18c38	0.027532682
141	0xba254e94	-0.00063059595
142	0xbda1e764	-0.079054624
143	0xbc76facf	-0.015074446
144	0x3d29ed4d	0.041486073
145	0x3d199c8a	0.037502803
146	0xbc92e251	-0.017930182
147	0x3d326137	0.043549743
148	0xbb87d8fb	-0.004145739
149	0xbd70a3e3	-0.058750045
150	0x3cad6160	0.021164596
151	0x3b8a0af8	0.0042127334
152	0x3ca14c36	0.01968966
153	0x3d5cb15e	0.053880088
154	0xbb155b8e	-0.0022790167
155	0x3bd43054	0.0064754877
156	0x3d1659e0	0.036706805
157	0xbdbfb2ed	-0.09360299
158	0x3b42cbb9	0.002972348
159	0xbd38e463	-0.04513968
160	0x3d741007	0.059585597
161	0xbdb6179d	-0.088912226
162	0x3ba571aa	0.00504895
163	0xbd029f35	-0.031890113
164	0x3cc5b672	0.024134848
165	0xbbedb1d3	-0.0072538643
166	0x3b8d0ac1	0.0043042605
167	0xbd8df2fa	-0.0693111
168	0x3b2cb13f	0.0026350764
169	0x3dd6c386	0.10486512
170	0x3dab3d9e	0.08361362
171	0x3db1b2f7	0.08676713
172	0x3d7fc571	0.062444154
173	0x3c0c251e	0.008553771
174	0x3d8d6561	0.06904102
175	0x3d7a5012	0.061111517
176	0xbc125bf6	-0.008933058
177	0x3bc4b2f5	0.0060027787
178	0x3cc456b2	0.02396712
179	0x3dd19b46	0.10234694
180	0x3d9dee1f	0.077114336
181	0x3dbe8340	0.09302378
182	0xbbb60a35	-0.005555416
183	0xbd113aab	-0.03545634
184	0xbbbe4be4	-0.0058073867
185	0x3d6ab53a	0.057301737
186	0x3cac8913	0.021061456
187	0xbcb3d3d7	-0.021951599
188	0xba2eca3a	-0.00066677073
189	0x3d8fcebd	0.07021854
190	0x3c775739	0.015096479
191	0x3d128249	0.03576878
192	0xbc7580e3	-0.014984342
193	0x3d042e7c	0.032270893
194	0x3d95ed69	0.07320673
195	0x3d3eb0d0	0.04655534
196	0xbd3ce427	-0.04611602
197	0xbca33cf5	-0.019926528
198	0x3c9c4a9b	0.019078543
199	0xbd43b627	-0.047781136
200	0xbb934d87	-0.004495326
201	0x3cb89109	0.022530096
202	0x3c18d0ea	0.009327153
203	0xbc6001b8	-0.013672285
204	0x3d3b7d45	0.045773763
205	0x3c1a285b	0.009409036
206	0x3d21ce65	0.039503474
207	0x3d21e17d	0.039521683
208	0x3db40390	0.08789742
209	0x3b160794	0.00228927
210	0xbd1b99fe	-0.037988655
211	0x3d173775	0.036918122
212	0xbdb8f354	-0.09030786
213	0xbd61496d	-0.055001665
214	0x3d24a847	0.040199544
215	0x3d6a757b	0.057240944
216	0x3d1cf1af	0.038316425
217	0xbcb97fe8	-0.022643998
218	0x3d1a4bd2	0.037669964
219	0xbd759309	-0.059954677
220	0xbc1339e2	-0.008985968
221	0xbd2c03f4	-0.041995957
222	0xbcb4fe54	-0.02209393
223	0x3d2c534d	0.04207163
224	0x3d294630	0.0413267
225	0x3d27f4fc	0.04100512
226	0x3d2e62f5	0.04257484
227	0xbccf0447	-0.025270594
228	0x3cc497bf	0.02399814
229	0x3d0866f4	0.03330131
230	0xbbee57c6	-0.007273647
231	0xbc32729a	-0.010891581
232	0x3d1f155b	0.038838726
233	0x3c6e5844	0.014547411
234	0xbca63c7b	-0.020292511
235	0x3d127b18	0.035761923
236	0xbd004230	-0.03131312
237	0xbd5b0dff	-0.053480145
238	0x3c91a514	0.01777891
239	0xbbd8a40c	-0.006611353
240	0x3c8e0044	0.017334111
241	0x3d06add9	0.032880638
242	0x3d23d91a	0.040001966
243	0x3bfa2aca	0.0076344954
244	0x3d20445a	0.039127685
245	0x3d217ba4	0.039424554
246	0xbb31dc02	-0.0027139192
247	0xbce483ee	-0.02789494
248	0x3d78b9ca	0.060724057
249	0xbd5dbabd	-0.054133166
250	0x3cb8aa7e	0.022542235
251	0xbd35c47e	-0.044376843
252	0xbdac829c	-0.08423349
253	0x3cd5c149	0.026093142
254	0x3d806350	0.06268942
255	0x3ca46591	0.020067962

encoder.3.0.bias f4 [36]
0	0xbd1787ef	-0.03699487
1	0xbd1037f1	-0.0352096
2	0xbd4c9f3e	-0.049956553
3	0xbc0d892e	-0.008638663
4	0x3d39db5b	0.04537521
5	0x3d755b77	0.05990168
6	0xbcb1d87e	-0.021709677
7	0xbd04400d	-0.032287646
8	0xbddad64b	-0.106854044
9	0xbdbdcc50	-0.09267485
10	0xbe04e637	-0.12978445
11	0xbd5caead	-0.05387752
12	0xbda356b4	-0.07975522
13	0xbcdb259b	-0.02675133
14	0xbdac380b	-0.08409127
15	0x3d9c645b	0.07636329
16	0xbcefe34f	-0.029283194
17	0x3c89ca91	0.016820224
18	0xbd7a2809	-0.061073337
19	0x3cb642f7	0.022248728
20	0xbccc8a31	-0.024968239
21	0x3c1ee054	0.009697039
22	0xbcb61cba	-0.022230495
23	0xbc66bfef	-0.0140838465
24	0xbd5d9219	-0.054094408
25	0x3c5964dc	0.013268676
26	0x3b613977	0.0034366527
27	0xbcf6d689	-0.030131595
28	0x3d92bf75	0.07165424
29	0xbd4dcbde	-0.05024325
30	0x3c8674e0	0.016413152
31	0x3c835a5c	0.016034298
32	0xbb10eb65	-0.0022112962
33	0xbd60c1a9	-0.05487219
34	0x3cc126c5	0.023578057
35	0x3b962643	0.004582198

encoder.3.1.weight f4 [36]
0	0x3f5474fb	0.82991
1	0x3f5770d8	0.8415656
2	0x3f447224	0.76736665
3	0x3f614bdd	0.88006383
4	0x3f49a53a	0.7876774
5	0x3f68d658	0.9095206
6	0x3f24d084	0.6438067
7	0x3f70ccdb	0.94062585
8	0x3f1ede95	0.62058383
9	0x3f5b8036	0.8574251
10	0x3f8244da	1.0177262
11	0x3f3896af	0.72104925
12	0x3f49a219	0.78762966
13	0x3f6d4c91	0.92694956
14	0x3f6edd59	0.933065
15	0x3f3b1f6d	0.73094827
16	0x3f0af8c5	0.5428584
17	0x3f519895	0.81873447
18	0x3f4ef595	0.8084348
19	0x3f1259a1	0.5716801
20	0x3f18c603	0.5967714
21	0x3f38c076	0.7216867
22	0x3f5463b6	0.82964647
23	0x3f65cdd5	0.897672
24	0x3f4b9031	0.79516894
25	0x3f4e910b	0.8069007
26	0x3f6a1730	0.9144163
27	0x3f51481d	0.8175066
28	0x3f2f9a0c	0.6859443
29	0x3f2f6175	0.6850808
30	0x3f7793bc	0.967098
31	0x3f3ec22e	0.74515045
32	0x3f6b25d1	0.9185458
33	0x3f6bdc62	0.9213315
34	0x3f4a47cd	0.7901581
35	0x3f5e5dea	0.8686205

encoder.3.1.bias f4 [36]
0	0xbda2b0e7	-0.07943898
1	0xbd8889ba	-0.06666894
2	0xbbce81b9	-0.0063020852
3	0xbc81837d	-0.015809769
4	0xbbef7e94	-0.0073087905
5	0x3d0b6520	0.034031987
6	0xbcc8c187	-0.024506344
7	0xbd7fca26	-0.062448643
8	0xbcbc3c9f	-0.022978125
9	0xbe36a2e1	-0.17835571
10	0xbdf2f0df	-0.11862349
11	0x3ba9953d	0.0051752613
12	0xbd3d010b	-0.046143573
13	0xbdb29ec0	-0.087216854
14	0xbe150797	-0.14553677
15	0x3c0c3580	0.008557677
16	0xbd8d89aa	-0.06911023
17	0xbc0e7a43	-0.008696142
18	0xbd29e329	-0.041476402
19	0xbd2e1982	-0.042504795
20	0xbdd58e28	-0.10427505
21	0xbce67235	-0.02813063
22	0x3cef0667	0.029177858
23	0x3caae936	0.020863157
24	0xbc9a3f23	-0.018828934
25	0xbd650137	-0.05590936
26	0xbcb9124a	-0.022591729
27	0xbc84f06e	-0.016227927
28	0x3d145e51	0.03622276
29	0xbd8bc8ba	-0.06825395
30	0xbd1c1e0f	-0.038114604
31	0xbd376f66	-0.044783972
32	0xbca7806f	-0.020446984
33	0xbd293ba6	-0.04131665
34	0x3c34cad1	0.011034683
35	0xbb9d39c3	-0.0047981455

encoder.3.1.running_mean f4 [36]
0	0xbc5f9106	-0.013645416
1	0x3e46db8b	0.19419686
2	0xbdc86bb3	-0.09786167
3	0xbe350018	-0.17675817
4	0x3d6a7c41	0.057247404
5	0x3b4726a0	0.0030388013
6	0x3c1bfac5	0.009520237
7	0xbddcc430	-0.10779607
8	0xbd12eb7c	-0.035869107
9	0x3de43a0e	0.111438856
10	0x3df53ed0	0.11974871
11	0xbc71de2a	-0.014762441
12	0xbdf43ec1	-0.11926032
13	0x3e1d74a3	0.15376525
14	0xbe101491	-0.14070345
15	0xb9f68887	-0.00047022497
16	0x3e218d35	0.15776522
17	0x3cffb6fa	0.03121518
18	0xbdda5621	-0.10660959
19	0x3c195055	0.009357532
20	0xbce3c027	-0.027801586
21	0x3de53910	0.111925244
22	0xbe200f83	-0.15630917
23	0xbe2b4bb3	-0.16728096
24	0xbdf59161	-0.119906195
25	0x3e318001	0.17333986
26	0x3ddd07d4	0.10792509
27	0xbcd00ecd	-0.025397683
28	0xbdb1c209	-0.086795874
29	0xbe88cd5e	-0.26719183
30	0x3dd8286c	0.10554585
31	0x3e26757d	0.16255756
32	0x3d886638	0.06660122
33	0x3da32870	0.07966697
34	0xbca332ba	-0.01992165
35	0xbdc5ea70	-0.09663856

encoder.3.1.running_var f4 [36]
0	0x3e5fef78	0.21868694
1	0x3ef9db93	0.48800334
2	0x3f3c6da6	0.7360481
3	0x3f98259c	1.1886477
4	0x3f4e2005	0.8051761
5	0x3f0ea696	0.5572294
6	0x3ebd2144	0.36939442
7	0x3f101521	0.5628224
8	0x3e1caf0e	0.15301153
9	0x3da08c86	0.07839303
10	0x3d6b9cfd	0.057522763
11	0x3f734cb5	0.9503892
12	0x3f5810bb	0.8440053
13	0x3de3bc47	0.111198954
14	0x3f566331	0.83745104
15	0x3fa2d16c	1.272016
16	0x3dfc3bb7	0.12316077
17	0x3fa35e06	1.2763069
18	0x3f623d30	0.88374615
19	0x3dfcc7c5	0.123427905
20	0x3d8d2b92	0.06893076
21	0x3f4c1420	0.7971821
22	0x3f0aad61	0.54170805
23	0x3ee5e2a1	0.44899467
24	0x3f96f177	1.1792439
25	0x3fba7d51	1.4569494
26	0x3ee8e393	0.45486125
27	0x3f4845b1	0.7823134
28	0x3f2d23f1	0.6763297
29	0x3f45a4a2	0.77204335
30	0x3f853505	1.0406805
31	0x3f4a07b6	0.78918016
32	0x3f1868a4	0.5953467
33	0x3f984efa	1.1899102
34	0x3fb2ea42	1.397774
35	0x3e9c1f4f	0.30492637
