trained_models/964D:8D1B:0377:CD4A.pt (torch, 173367 bytes, 36 tensors)

encoder.0.0.weight f4 [36, 36, 7]
000000 60 47 11 be 40 af 00 be 17 e5 d6 bd fc ea af bd
       -0.14187384 -0.12566853 -0.10492914 -0.085897416
000010 3d 6c 0a be 18 b7 0f bb 6f e3 f1 bc 45 19 71 bd
       -0.13517852 -0.00219292 -0.029527394 -0.05886199
000020 1e 4e f1 bd 49 44 0e be bf a9 f0 bd 52 51 cf bd
       -0.11782478 -0.13893236 -0.117511265 -0.101229325
000030 3c 5d 90 bc d4 c3 fb bc a8 45 0a 3d b8 c4 26 3d
       -0.017622583 -0.030733027 0.033757836 0.04071495
000040 62 ab 03 3d 9d cd 8a 3d a3 a9 82 3d 4c 8d 3a 3d
       0.032145865 0.06777499 0.06380012 0.045544907
000050 88 9c 22 3d 8a 8f 9c bc 6b 4e 65 bc 2b 31 46 3c
       0.03970006 -0.019111414 -0.013995747 0.0120966835
000060 7a d3 1c bc dd 85 42 bd c5 0c 2c 3c a8 78 bc 3b
       -0.009571904 -0.047490943 0.010501091 0.005751688
000070 27 95 64 3c f9 9c ed bc 41 e6 52 bc 22 24 70 3d
       0.013951576 -0.029005514 -0.01287228 0.05862821
000080 cb e0 e9 bc f7 6d 09 bd 8b 27 d4 bc dd 18 f2 3c
       -0.028549572 -0.033552136 -0.025897762 0.029552871
000090 7c 03 8a 3c 31 52 44 bd 6f 45 73 bc 2b ab 45 bd
       0.016847365 -0.047929946 -0.014848097 -0.04825894
0000a0 7f f3 c9 bc 23 40 9b 3c 04 8c 82 bc cf 86 bd 3b
       -0.02465224 0.018951481 -0.015935905 0.0057838927
0000b0 b9 62 3f bb 46 2c e2 3c f9 c2 b0 3c fb 47 f4 3c
       -0.002920313 0.027609002 0.021577345 0.02981948
0000c0 19 ca c5 bc c4 84 ef 3c b2 f5 29 bc 7b 4f c6 3c
       -0.02414422 0.029238112 -0.01037352 0.024207821
0000d0 a0 59 1c 3d 1f cb 8a bc b2 37 c9 3c 3f 1a 5e bc
       0.03817141 -0.016942559 0.02456269 -0.013556062
0000e0 7a 08 1d bd c9 ad ff 3c 61 74 0d 3c cb 4d 51 3d
       -0.038338162 0.031210797 0.008633704 0.05109958
0000f0 4e 36 3d 3a 7f f8 32 3d 8c 6b 06 3d c2 a9 13 3d
       0.000721787 0.043694016 0.03281741 0.036050566
000100 b8 91 e1 bc af 03 1c 3c 2f a6 c4 bc 2e df 63 3c
       -0.027535304 0.009522363 -0.024005024 0.013908191
000110 14 eb ce bc 36 4f 0e 3c 38 2f 4c ba e4 a3 e6 3a
       -0.025258578 0.008685878 -0.00077890186 0.0017596451
000120 f9 ef 03 3d e1 cb 3c 3d 92 22 1b 3d f0 2b 8d ba
       0.032211278 0.04609287 0.037874766 -0.0010770541
000130 d2 bd 70 3d 8f 50 12 bd 7a 4c 70 bd f2 0a eb bc
       0.058774777 -0.035721358 -0.058666684 -0.028691743
000140 22 d8 8f 3d 43 b2 3d 3c 51 80 5c 3d 6b 61 a8 bc
       0.07023646 0.011578145 0.05383331 -0.020554265
000150 5a 8a 75 bd c7 ac b8 bd 57 ae c3 bc b1 46 ea ba
       -0.059946395 -0.0901733 -0.023886843 -0.0017873851
000160 0b 28 68 bd 0b e5 df bb 18 41 10 3d c3 80 4c 3c
       -0.056678813 -0.006832724 0.03521833 0.012481871
000170 69 40 15 bd 4d 0b 3a bd 5c bc 71 3b c0 a2 df 3c
       -0.03643838 -0.045420934 0.0036885953 0.027299285
000180 70 31 31 3d ef c4 ae bc 6d a7 65 bc 63 df 99 bd
       0.043260038 -0.02133414 -0.014016968 -0.07513311
000190 02 de c9 3c cb 96 a1 bc 66 7c c9 bd 9b 12 ab bd
       0.024641994 -0.019725224 -0.0983818 -0.08353158
0001a0 7b 51 27 bd 2e 5a f5 3c 5c aa e5 3c 89 2a 9a bc
       -0.04084919 0.029950228 0.028035335 -0.01881911
0001b0 00 d8 c0 bd 01 a8 7f bd e3 7a db bd bf 6d c6 bd
       -0.09416199 -0.06241608 -0.10716798 -0.09688901
0001c0 18 55 83 bb 94 89 f7 3c 07 77 8c 3c 19 bc 38 bc
       -0.0040079467 0.03021697 0.0171466 -0.011275315
0001d0 df 15 0d bd 3d 60 a0 bd a0 a4 3f bd ed 78 19 3c
       -0.034444686 -0.07830856 -0.046787858 0.00936721
0001e0 42 40 1a 3d aa b0 05 3c a6 c8 8a bc f8 af 2e bc
       0.037658937 0.008159796 -0.01694138 -0.010662071
0001f0 ce b5 b0 3c 6f af 34 bd 9d e6 e7 3c c9 f1 fe 3c
       0.021571066 -0.04411262 0.028308207 0.031121152
000200 fb b5 fe 3b f5 f1 11 3b 3d de 30 bc b9 39 dd 3b
       0.0077731586 0.0022269462 -0.010795173 0.006751266
000210 3c 54 33 bc 6c c3 30 bc e8 68 c5 bc 88 76 50 bc
       -0.010945376 -0.01078878 -0.024097875 -0.012723573
000220 8f e2 62 3b f6 f7 a0 bd a1 a1 0b bd 11 91 d5 bb
       0.0034619903 -0.07859795 -0.03408969 -0.0065175374
000230 ba b1 17 bd a7 f8 12 bc c8 32 7b bc d0 f5 83 3a
       -0.037034728 -0.008970416 -0.015331931 0.0010067765
000240 82 59 c1 bc 6b 44 ba bc ef 4f 9b bc 16 ab 18 3b
       -0.023602251 -0.022737702 -0.018959014 0.0023295335
000250 7f 1e 1f bc af 1c 2f 3c 74 fc 46 bb a4 c6 1f bd
       -0.009711861 0.010687991 -0.0030362876 -0.039007798
000260 a5 55 c9 3c 44 5b 89 bc f0 54 65 3c 7c d6 06 3d
       0.024576971 -0.016767152 0.013997301 0.032919392
000270 cb d2 4a 3c 87 37 51 bb a0 69 26 3d c2 2c 51 bb
       0.0123793585 -0.0031923966 0.040628076 -0.0031917547
000280 b4 35 de 3c 71 c5 ec bb bf 3c 8d 3c c8 2d 00 3d
       0.027125217 -0.0072256853 0.01724088 0.03129366
000290 76 81 9a 3c f1 8c 0b bd 0f 19 39 3d a2 7c 38 3d
       0.01886056 -0.03406996 0.045189913 0.045040734
0002a0 56 c2 c3 bc 5c 71 4a 3d be fa 30 3d db 76 a8 3c
       -0.023896378 0.049424514 0.043207876 0.020564487
0002b0 1b 27 56 3d 70 94 1f 3b 97 bf 58 3d ca 81 df 3c
       0.052283388 0.002434995 0.05291709 0.027283568
0002c0 ea 20 de 3c b8 ba b7 3c 33 3f 88 ba 9c 52 19 3d
       0.027115304 0.022427902 -0.0010394811 0.037432298
0002d0 aa 1e 02 bb ea e9 2e 3d e9 e5 bb bc 8e fa 3e 3d
       -0.0019854703 0.042703547 -0.022936778 0.046625666
0002e0 32 44 c3 3c 0d 49 44 3d 81 cc 34 bb d8 5d 60 3d
       0.023836229 0.04792123 -0.0027587714 0.054776996
0002f0 5e 93 78 3d 5f 17 0c bd e4 dd 2e bd 7f c7 2a bc
       0.060687415 -0.034201976 -0.04269208 -0.01042354
000300 d0 cb 8c 3c 4b 35 b9 3c 26 0b f2 3c e9 45 f0 3c
       0.01718703 0.02260842 0.029546332 0.02933021
000310 59 72 73 3c 8a 3f 2e bd de 44 9f 3c 78 4f 5f 3c
       0.014858806 -0.042541064 0.019442018 0.013629787
000320 c9 d2 73 3d 97 c2 4b 3d f6 1b 4a 3d 7f 1b d5 bc
       0.059527192 0.049746122 0.049343072 -0.026014088
000330 33 32 f4 3b 07 a7 8d bc eb 4c d6 bc ab 51 14 3c
       0.0074522733 -0.017291559 -0.026159724 0.009052674
000340 42 93 f3 3c dc 4e 4b 3d 26 36 66 bd a6 fa 70 ba
       0.029733304 0.049635753 -0.056203984 -0.0009192623
000350 04 39 07 3d f4 3e 32 3b 54 0c 2e bd c2 d0 f3 bc
       0.03301336 0.0027198168 -0.042492226 -0.02976263
000360 1f 0b a6 3c cb fc bc 3c 6b 52 46 bc 41 e9 19 3d
       0.020268975 0.02306976 -0.012104611 0.037575964
000370 72 3e 12 b9 a2 47 78 3b ab f6 76 3c 95 f3 87 3a
       -0.00013946908 0.0037884493 0.015073459 0.0010372276
000380 7c 7a c0 3c 8f 9f 51 3d 96 14 c7 3c e7 72 75 3d
       0.023495905 0.051177558 0.024301808 0.059924033
000390 a3 2c 43 3d 85 28 22 3c 31 17 4d 3d 62 d1 a8 3b
       0.04764999 0.009897356 0.050070945 0.0051519135
0003a0 d5 0e 9b bc 48 01 0b 3d 7d 59 19 3d d9 09 fa ba
       -0.01892797 0.03393677 0.03743886 -0.0019076421
0003b0 42 ef f1 bc 28 f1 f1 bb 98 90 ca 3c c4 c0 01 bd
       -0.029533032 -0.0073834844 0.02472715 -0.031677976
0003c0 4b c0 06 3c fb 64 95 bd d7 49 09 bd 62 f8 11 3d
       0.008224557 -0.07294651 -0.033517685 0.035637267
0003d0 26 3d a9 3d be e0 c6 bc 9c 7c 7c bd 23 44 64 bd
       0.08263616 -0.024277087 -0.061642274 -0.055729043
0003e0 f8 a8 e8 bd e1 98 bd bc c1 0b e6 3c 7f f5 66 3d
       -0.11360353 -0.023144187 0.028081777 0.056386467
0003f0 33 fb 3d bd 25 87 a2 3c 07 c1 0a 3b 05 06 b5 39
       -0.04638214 0.019839833 0.0021172182 0.00034527495

encoder.0.0.bias f4 [36]
000000 52 b9 9b bd 06 29 16 bc 78 88 08 3d 14 1a c3 bc
       -0.076037064 -0.009165054 0.03333327 -0.023816146
000010 4f b4 88 3c ef e7 67 bc 8a dc 21 3d 8c 0b 5e 3d
       0.01668754 -0.014154418 0.039516963 0.05421023
000020 8b b2 8b bd c9 a6 80 bc 15 30 6e bc 54 f1 50 3c
       -0.06821164 -0.01570453 -0.014537831 0.01275285
000030 1e fd a9 3c 94 23 cf bc 3d 53 69 3c 36 23 df bc
       0.020750578 -0.02528552 0.014241037 -0.02723847
000040 63 b6 48 bd 8c 32 09 3c 2b d3 33 bd bd b3 28 3a
       -0.049002063 0.008373868 -0.043902557 0.00064354745
000050 cf 32 c0 39 5a 26 20 3d d4 30 90 bc cd 68 84 3c
       0.0003665895 0.039099075 -0.017601408 0.016163254
000060 1d d4 1a 3a 8e 16 25 bd 8e e0 61 bc 09 bd 7a bc
       0.0005906241 -0.040304713 -0.013786448 -0.015303859
000070 2d c8 f9 3a a7 e4 ab 3d ac f7 0d 3d 3b 8d 24 3d
       0.0019056849 0.08393221 0.034660026 0.04017375
000080 df ae 9f bc 33 e2 ad 3b 5f b2 e4 ba 29 5f 16 bd
       -0.019492565 0.005306506 -0.0017448178 -0.036711846

encoder.0.1.weight f4 [36]
000000 b1 f6 38 3f 01 3f 61 3f d3 9e 38 3f 54 f6 68 3f
       0.7225142 0.8798676 0.72117347 0.91000867
000010 b6 73 7a 3f 69 9b 85 3f ec 6b 36 3f 3c b6 3d 3f
       0.9783281 1.0438052 0.71258426 0.7410619
000020 41 72 78 3f 88 03 81 3f 7e b1 65 3f b8 1f 5d 3f
       0.9704934 1.0079203 0.89723957 0.86376524
000030 5b 82 10 3f f1 20 6d 3f f8 27 50 3f 23 95 8d 3f
       0.56448907 0.9262839 0.8131099 1.1061138
000040 b8 30 3d 3f 0d c4 86 3f b8 c3 96 3f 42 c6 4f 3f
       0.73902464 1.052858 1.1778479 0.8116189
000050 fc 1c 5a 3f 12 a7 51 3f fc 4f 4b 3f 1c c0 5e 3f
       0.85200477 0.81895554 0.7941892 0.87011886
000060 d9 2d 73 3f b2 45 4e 3f 91 47 83 3f e3 9b 5f 3f
       0.9499183 0.80575097 1.0256215 0.8734724
000070 c3 48 53 3f 82 da 8a 3f 3b 8b 86 3f ff 4a 78 3f
       0.825329 1.0847933 1.051124 0.96989435
000080 46 15 51 3f ce 81 7a 3f 09 8a 64 3f d8 46 1d 3f
       0.81673086 0.97854316 0.89273125 0.61436224

encoder.0.1.bias f4 [36]
000000 a9 44 1d bd 20 16 e6 bc 7c 52 e8 3b c9 06 b6 bc
       -0.038395558 -0.028086722 0.007089911 -0.022220032
000010 2d f3 f7 bc e0 9b 94 bd 3a e2 81 bc 3f 4a cc bc
       -0.030267322 -0.07256293 -0.015854944 -0.024937747
000020 73 d9 88 bd fb bc 68 bd 05 ed cd bc 39 b7 90 bc
       -0.066821 -0.05682085 -0.025137434 -0.017665492
000030 26 7a f6 bb 15 ac a1 bc c2 d5 45 bc 2b bf 35 bd
       -0.0075218854 -0.019735375 -0.01207489 -0.044371765
000040 33 eb a9 bb a2 08 13 bd 50 ca 52 bd 09 cf 8f 3b
       -0.0051855086 -0.035896905 -0.05146247 0.004388694
000050 a7 ca e2 bc d1 eb 4f bc 6b f2 f0 bb d7 a4 87 bd
       -0.027684523 -0.0126905 -0.007353117 -0.066232376
000060 8b c3 22 bc e4 97 4b bd 0c 55 87 bd ee 3c 24 bd
       -0.009934316 -0.0497054 -0.06608018 -0.04009717
000070 7d 09 2e bd c4 59 ba bc 16 f3 26 bd 94 0d ce bc
       -0.042489517 -0.022747882 -0.04075917 -0.025152959
000080 c4 5a 13 bd e4 ab da bc 6d ba 94 bc fe d3 e0 bc
       -0.035975233 -0.026693292 -0.018155301 -0.027444836

encoder.0.1.running_mean f4 [36]
000000 fe 09 71 bf 8f c6 75 3f 0a 8b 1e 3f a8 48 e1 3f
       -0.9415587 0.960061 0.61930907 1.7600298
000010 8d 12 77 bf ef 11 55 be 6e 02 ba 3f 49 bb 06 bc
       -0.9651268 -0.20807622 1.4531991 -0.008223363
000020 13 e4 15 bf 43 44 49 bf 66 74 4f bf a8 86 82 3f
       -0.5855114 -0.78619784 -0.81036985 1.0197344
000030 7b d3 3e 3f 36 97 ac bf 73 40 a1 3e d6 2f a8 bf
       0.74541444 -1.3483646 0.31494483 -1.3139598
000040 68 b3 16 3e 28 79 3c bf dd 3f 21 bf a9 79 26 bf
       0.14716876 -0.7362237 -0.6298807 -0.6502939
000050 eb d3 9f 3f d6 aa b6 3f a6 b7 97 3f 8c 0d 1b bf
       1.2486547 1.4270885 1.185292 -0.60567546
000060 8a ac 1b bf d5 0e f4 be 9d 2e de be 11 b8 94 bf
       -0.6081015 -0.47667566 -0.43394938 -1.1618673
000070 5e b9 d0 bf 2b aa 06 bf 36 79 12 bf b0 0e bc 3f
       -1.630657 -0.52603406 -0.57216203 1.4691982
000080 56 1f 70 bd 1b 12 5a be b0 c2 88 3d 33 ad 84 bf
       -0.058623634 -0.21295969 0.06677759 -1.0365356

encoder.0.1.running_var f4 [36]
000000 31 2d ac 3a 09 62 33 3b 54 20 f9 3a 14 d0 3c 3b
       0.0013136027 0.0027371666 0.0019006827 0.0028810548
000010 f5 47 3f 3b be 9c 38 3b 82 35 67 3b 23 3c 1d 3b
       0.0029187177 0.0028169597 0.0035279696 0.0023992143
000020 5a cf 54 3b 7f 1e 0d 3b 7e 18 60 3b de 77 83 3b
       0.0032472224 0.002153307 0.0034194286 0.004012092
000030 8a e5 d5 3a 8e 05 82 3b 89 03 a7 3a b0 78 5e 3b
       0.0016319018 0.0039679473 0.0012742142 0.0033946447
000040 17 dd 5e 3b b2 54 97 3a 94 c4 41 3b ae b9 c7 3a
       0.0034006292 0.0011545627 0.0029566633 0.0015237832
000050 7a 05 45 3b 0d 0c 2a 3b 86 61 2d 3b 58 f3 34 3b
       0.0030063079 0.0025947124 0.0026455834 0.0027610864
000060 83 0d c1 3a f8 42 18 3b c9 05 cd 3a ed 35 ad 3b
       0.0014728758 0.0023233276 0.0015641983 0.0052859695
000070 ef e4 57 3b 9c 9e 04 3b 17 cc 0c 3b 4f 9c 1f 3b
       0.0032942852 0.002023614 0.0021483952 0.0024354642
000080 cb c5 13 3b f6 4e e2 3a e9 2e 0c 3b 05 80 60 3b
       0.0022548314 0.0017265964 0.0021390265 0.0034255993

encoder.1.0.weight f4 [36, 36, 7]
000000 ed aa c6 bc cd a2 61 bc 7c e1 c9 bd d3 13 b5 bc
       -0.024251426 -0.013771725 -0.09857461 -0.02210418
000010 18 af 56 3d b2 8e 22 bc 3f b6 e0 bb 39 3c 62 3c
       0.052413076 -0.0099217165 -0.006857663 0.0138083035
000020 b8 5d 3a bb 92 6a 4e 3d 53 4e 71 bd a5 e0 18 3d
       -0.0028437208 0.050394602 -0.058912586 0.037323613
000030 3c 08 b3 3c e8 e0 42 bc 50 34 da bd 15 c2 cb bb
       0.021854512 -0.011894442 -0.10654509 -0.0062182047
000040 28 91 19 be c9 22 ed bc f5 50 f8 3b 22 24 cc 3d
       -0.14996779 -0.02894725 0.00757801 0.09967829
000050 40 38 cc 3c 0a b4 0e bc 8d fe e6 bc b5 0d 44 bd
       0.024929166 -0.008709917 -0.028197551 -0.047864635
000060 50 22 f0 bc d0 f8 60 bb 49 85 ac bc cf 41 6d 3d
       -0.029313236 -0.0034327991 -0.021059649 0.057924088
000070 d4 99 d0 3c 59 96 de 3c 46 23 83 bc 48 51 8e bd
       0.025463976 0.0271713 -0.01600803 -0.06949097
000080 8b b6 b7 bc 1c 4f 4b bd 4e 17 1b bd 57 9e 18 3a
       -0.02242591 -0.04963599 -0.037864022 0.00058219343
000090 41 fd d9 bc 29 19 c2 bc aa f5 8b 3c 4a d7 04 3d
       -0.026610019 -0.023693638 0.017084915 0.03243188
0000a0 76 13 b2 bc 12 f6 28 bd 57 fb 54 3d 0d e7 35 bd
       -0.021737795 -0.041250296 0.05199751 -0.0444098
0000b0 dd 97 de 3b fe 57 95 bc 4e bd e6 3b 8c be 18 3d
       0.006793006 -0.018230435 0.00704161 0.037291095
0000c0 8d f5 e8 bc fb 48 85 bc 7b 08 65 bd 7e be 65 bc
       -0.0284374 -0.016270151 -0.05591629 -0.014022468
0000d0 ad 1a db bd 64 2a c9 3c ed 45 0e 3c ce ad fe 3c
       -0.106984474 0.024556346 0.008683664 0.031088736
0000e0 03 4c da 3a 13 9e 65 bb 4e 7d ea 3c b6 55 e9 3c
       0.0016654733 -0.0035036847 0.028624203 0.028483253
0000f0 39 da 78 bc 32 3b d8 3c 9c 34 3c 3d a8 a7 0d bd
       -0.015188747 0.026395414 0.04594861 -0.034583718
000100 62 e8 b8 3c fa e1 64 bc 12 e6 97 bd d1 5f 28 bc
       0.022571746 -0.013969893 -0.07416929 -0.010276751
000110 36 da 81 bd c7 f4 39 3b 28 26 59 bc 18 27 5b bc
       -0.063404486 0.0028374658 -0.013253726 -0.01337602
000120 03 ae 3b bc ee bb 7d 3d bf d0 88 3d ca 70 d4 bc
       -0.011455062 0.0619468 0.0668044 -0.025932688
000130 aa 88 21 3a 8a ca 55 bd f6 d4 85 3d 34 d9 9e 3b
       0.0006162027 -0.05219511 0.0653476 0.00484767
000140 f5 d5 b8 bc 35 95 86 3c d3 d9 ca bc 66 33 cf bc
       -0.02256296 0.01642857 -0.02476207 -0.025293063
000150 db d8 f0 3c 18 22 e1 3c b8 99 8a bc 48 7d e1 bc
       0.02940028 0.027482077 -0.016919002 -0.027525559
000160 e8 8e a2 3c c7 73 30 bd 6b 9c 6c bc 3d 2c 07 3d
       0.019843534 -0.043079164 -0.01444159 0.033001173
000170 e3 3c 04 3d 1f 55 6d 3c 6a a2 ff 3c cf c9 0e 3d
       0.03228463 0.0144856265 0.031205375 0.03486043
000180 08 a9 16 bd f4 e0 47 bd 84 9c 30 3b a6 59 22 3d
       -0.036782295 -0.048798516 0.002694876 0.039636277
000190 b8 db 2a 3c 0a cd f9 bc c6 f2 31 3d 56 9f d5 3b
       0.010428362 -0.030493278 0.043444417 0.0065192385
0001a0 24 1e da 3c c7 13 01 bc 0e 7f 71 3d d5 f6 30 3d
       0.0266257 -0.00787825 0.05895906 0.043204147
0001b0 94 67 93 3d a0 50 83 3c 56 41 33 bc e6 a5 8d bc
       0.0719749 0.016029656 -0.01094087 -0.01729102
0001c0 94 e1 f2 bc e5 46 6d bc 9c 76 cf bc 40 15 e3 3c
       -0.02964858 -0.014482235 -0.025325112 0.027720094
0001d0 d3 29 de 3c c2 99 8b bc 4d 4b 84 3d 69 ee dd 3c
       0.027119553 -0.01704109 0.06459675 0.027091222
0001e0 8d 3d 64 bd 50 2a 20 bd 0c 10 a9 3b b6 3f 7f bb
       -0.055722762 -0.039102852 0.0051593836 -0.0038947887
0001f0 16 04 83 bc d3 a5 ac 3b 16 86 f1 3b 1c 87 bb 3c
       -0.01599316 0.005268791 0.0073707206 0.022891574
000200 06 88 89 3c 5e 84 3c 3d 67 fc 0f 3d bc 91 bd bc
       0.016788494 0.046024673 0.03515282 -0.02314078
000210 21 68 24 3d d1 f2 fe 3c dc 59 25 bb 8c 09 f6 bc
       0.040138368 0.031121643 -0.0025230562 -0.03003385
000220 45 df 9f 3d 35 07 50 bd 85 66 b8 3d 6d 8b df bd
       0.07806257 -0.050788123 0.09003929 -0.10915265
000230 9c 5a f0 3c 3b 39 06 bd 26 21 81 3d 02 35 ab bd
       0.02934008 -0.032769423 0.06305151 -0.0835972
000240 fd 3b 83 3d 8f 70 57 3d 0f 8e 48 3d 47 a4 12 bc
       0.06407926 0.05259758 0.048963603 -0.0089503
000250 c4 cb 7d 3c ef 50 f5 3c 82 27 8a bd 33 b6 0f 3b
       0.015490476 0.029945819 -0.06745817 0.0021928668
000260 39 63 57 bd b5 e7 10 bc ef c9 f1 bc 7d ad 9f 3b
       -0.05258486 -0.008844306 -0.029515235 0.0048729763
000270 74 54 6a 3c c6 86 fd 3c 3e ff 9b 3c eb 7c d5 3c
       0.014302362 0.030948054 0.019042607 0.026060542
000280 29 95 e0 3c 28 51 2d bd 76 75 b6 3d d0 f2 c3 3c
       0.027414875 -0.042313725 0.08909123 0.023919493
000290 98 d8 fc 3d c2 6b b2 bd d6 04 4d 3d d3 76 51 bd
       0.123459995 -0.087119594 0.05005344 -0.05113871
0002a0 f5 d2 c5 bc e1 fc 44 bc f0 13 b7 bc e4 42 3f 3d
       -0.024148444 -0.012023182 -0.022348374 0.04669465
0002b0 da 5e 04 bc 11 1a 0c bc 94 5a f2 bc db ab 2e bd
       -0.008079255 -0.008551137 -0.029584207 -0.042644363
0002c0 e8 58 9b bc 31 98 3a 3d 03 37 89 3d 1a d8 3f 3c
       -0.018963292 0.045555297 0.06699946 0.0117092375
0002d0 ba be 6e 3c de 14 47 bb 43 15 78 3c 74 47 ae 3c
       0.01457184 -0.0030377428 0.015141788 0.021274306
0002e0 ad bd ea 3c 32 95 c3 3c e4 cd c6 bc 63 2a 81 3c
       0.028654898 0.023874853 -0.024268098 0.015767282
0002f0 fc 7e 66 3d 52 2d e7 bc 56 23 66 bc b4 e0 25 bc
       0.056273445 -0.028219853 -0.014046511 -0.010124374
000300 3e cc 4e 3d 6f b0 46 bd c4 53 da 3c 1b b1 33 bb
       0.05048775 -0.048508104 0.02665127 -0.0027418796
000310 0b 64 68 3d 37 09 57 3a bc 40 1d 3d 01 f5 b9 3c
       0.056736033 0.0008202972 0.038391814 0.022699835
000320 c3 7b 88 3d ae b1 2f 3c e7 8c 7e bd e5 f3 25 3c
       0.06664231 0.0107235145 -0.062146094 0.01012895
000330 1e 9d 1c 3d 11 49 62 3c 6a 9c dc bc a2 f4 cd 3c
       0.038235776 0.013811366 -0.026930053 0.025141064
000340 41 be 68 3c 7c 64 ce bc 19 59 4d bd 45 d2 72 bc
       0.014205516 -0.025194399 -0.0501338 -0.01482064
000350 2f 3d 61 bd 07 72 da bc f6 6a 6e 3d cb 05 18 3d
       -0.05498999 -0.0266657 0.058207475 0.0371149
000360 2b 8f fb 3c b8 2b 27 bd 0c f7 af 3c 80 fa 38 bd
       0.030707916 -0.040813178 0.021480106 -0.04516077
000370 ad cf 06 bd d3 41 e2 3a 3a 5a 16 bd 6b c4 7f bd
       -0.0329129 0.0017262049 -0.03670714 -0.06244318
000380 50 7b dd 3d 6d e3 1a bc 2e 88 7d bd 33 d8 e6 bc
       0.108145356 -0.009453637 -0.06189745 -0.028179264
000390 e1 0b a3 bc ce 21 ee 3d c2 96 b6 bd 6e 2e 03 3c
       -0.019903125 0.116275415 -0.089154735 0.008006675
0003a0 fa 2d 83 ba 8b e7 80 bc 3b f6 54 3d bb cc a7 3c
       -0.0010008209 -0.015735408 0.051992636 0.020483365
0003b0 d4 ba 25 bc a7 e7 56 3d 06 46 b6 3b 8d 67 42 bd
       -0.010115344 0.052467015 0.0055625467 -0.047462035
0003c0 24 5d 4e 3c 95 94 72 bb 26 fb 27 bd 19 db bf bd
       0.012595449 -0.0037014831 -0.041011 -0.093679614
0003d0 f7 54 1f 3c ab 70 22 bd 9b 72 8e 3c b2 10 5c bc
       0.009724847 -0.03965823 0.017388633 -0.013431715
0003e0 e1 94 55 3d e1 d0 8c 3d b9 88 c7 bc e9 29 49 bd
       0.052143935 0.06875778 -0.024357187 -0.049112234
0003f0 a8 ea 24 bd ae 8f 04 bd 19 98 f0 bc f7 ea a1 3d
       -0.04026285 -0.032363586 -0.0293694 0.07906144

encoder.1.0.bias f4 [36]
000000 d7 b8 12 bd f4 c4 04 bd 95 9a 3e bc c7 44 98 3d
       -0.03582081 -0.03241439 -0.011633535 0.07434993
000010 b7 38 cd 3a 77 8a bb 3c 93 f4 43 bd b1 84 02 bb
       0.0015657161 0.022893174 -0.047840666 -0.0019915516
000020 37 bb 82 3c 61 76 78 3d 96 89 4f bd 57 d1 26 bb
       0.015958412 0.06065977 -0.05066832 -0.0025454366
000030 3a 70 99 bd b5 05 02 bc bc 5c 98 bd c9 8c 19 bd
       -0.07492109 -0.007935931 -0.07439563 -0.03748778
000040 2a 38 f3 3c b5 77 38 3c 71 72 4e bd 1e d1 7f bc
       0.029689867 0.011259009 -0.05040211 -0.015613822
000050 57 12 b3 bc 42 bb 6e 3c ef bf 93 3c f7 d2 65 bc
       -0.021859331 0.014571013 0.018035857 -0.014027349
000060 be 33 5d bd 67 f2 b2 3c f6 fe 89 bd 6d b1 26 bd
       -0.054004423 0.021844102 -0.06738083 -0.04069655
000070 ba f3 58 bd f8 fc 98 bc d2 b7 23 bc e6 7c f1 3c
       -0.05296681 -0.018675312 -0.009992557 0.029478502
000080 4d 30 36 bd 71 25 c5 bc 55 18 72 bd 1f 7a 42 3d
       -0.044479657 -0.024065705 -0.059105236 0.047479745

encoder.1.1.weight f4 [36]
000000 9c 77 40 3f 1a ff 64 3f e4 04 61 3f 6f a6 42 3f
       0.7518251 0.89451754 0.8789809 0.7603521
000010 53 0d 14 3f 8c 18 60 3f 0d f5 5a 3f 05 3f 5f 3f
       0.5783283 0.87537456 0.8553017 0.87205535
000020 48 69 3e 3f 4c e0 67 3f 39 d9 44 3f 0f 0c 6d 3f
       0.74379396 0.90576625 0.76893955 0.92596525
000030 d7 0b 5d 3f 5d 6e 38 3f 67 0f 73 3f c1 21 28 3f
       0.8634619 0.720434 0.9494538 0.65676504
000040 b5 5f 56 3f 33 a9 3a 3f 9e fc 3c 3f cf ba 37 3f
       0.8373979 0.7291443 0.73822963 0.7176942
000050 89 de 59 3f bd 7c 60 3f 47 1f 68 3f df 65 38 3f
       0.85105187 0.87690336 0.90672725 0.7203044
000060 b5 54 66 3f db 27 6a 3f 7c a0 4b 3f 72 d3 46 3f
       0.89973 0.91467065 0.79541755 0.7766639
000070 dd cd 1f 3f 92 52 34 3f 32 83 44 3f a9 09 65 3f
       0.624235 0.7043849 0.7676269 0.89467865
000080 72 d6 69 3f d8 d3 3a 3f de 15 2e 3f cb 79 4a 3f
       0.9134284 0.729795 0.68002117 0.7909209

encoder.1.1.bias f4 [36]
000000 bf e1 40 bd d1 a4 28 bd 1a f4 7e bc 9d 44 41 bc
       -0.04709029 -0.041172806 -0.015561128 -0.011796144
000010 34 49 d0 bc 71 7e 0a bd e8 03 0b bc f8 85 73 bd
       -0.025425531 -0.03381199 -0.008484818 -0.059453934
000020 a8 32 cf bb a2 78 14 bd 86 cf a1 bc 92 24 0e bd
       -0.0063231774 -0.036247857 -0.019752275 -0.034702845
000030 0d e7 e3 bc ff 89 89 bd 34 8f b3 bc ed 86 3a bd
       -0.027820135 -0.06715774 -0.02191887 -0.04553883
000040 6e 70 ff bc ba 2c fe bc 13 fb 36 bd 29 79 0f bd
       -0.03118154 -0.031027187 -0.044673037 -0.035027657
000050 66 18 f1 3b a5 71 7a bc cf f0 0c bd 2e c9 eb bc
       0.007357645 -0.015285884 -0.03440934 -0.028782453
000060 24 ba fa bc 95 f8 31 bd b6 f4 24 bd 28 ce 0e bd
       -0.030606337 -0.043449957 -0.040272437 -0.034864575
000070 2b 08 97 bc 1f f7 2d bd a2 a2 2f bd 0f a1 3f bd
       -0.018436512 -0.042472 -0.042879708 -0.046784457
000080 a6 a5 35 bd 8a fb 02 bd 79 87 05 bd a6 0e 12 bd
       -0.044347428 -0.031978168 -0.0325999 -0.0356585

encoder.1.1.running_mean f4 [36]
000000 a8 ca 8a bc e2 61 6e bd 7b 58 70 bd f3 9d 2e 3d
       -0.016942337 -0.058198817 -0.05867813 0.0426311
000010 3b 1b f5 ba 07 bb 2d bd 49 00 7a bc e7 4e 99 3d
       -0.0018700132 -0.04241469 -0.015258857 0.074857526
000020 5e 45 e8 bc be 42 0d 3e 69 d0 08 be 22 31 d4 3c
       -0.02835339 0.13794991 -0.13360752 0.025902335
000030 f1 92 2b be db 43 8f 3d 0f 0f 81 bb 1d 62 a6 3c
       -0.16755272 0.06995364 -0.0039385627 0.020310456
000040 7d 45 f2 3b 28 17 bb 3c e3 10 cd bd 6e a3 b8 3c
       0.0073935376 0.02283819 -0.100129865 0.022538867
000050 79 54 d7 bc 19 f1 53 bd 1a a3 77 3a dd 7b b8 bc
       -0.026285397 -0.0517436 0.0009446606 -0.02252
000060 6b 60 8d bd 16 ca 71 3d 6d c2 85 3c 74 ed 27 3d
       -0.06903156 0.059030615 0.016328061 0.040997937
000070 69 4c 66 bc 3f 6d e8 bc 80 6e 20 bd e8 3a 71 3d
       -0.014056304 -0.028372405 -0.03916788 0.058894068
000080 9a 17 c7 bc 28 53 36 bd 82 f3 ba bc ef 70 86 3d
       -0.024303246 -0.044512898 -0.022821192 0.06564509

encoder.1.1.running_var f4 [36]
000000 82 a3 41 3f e1 82 9c 3f bd 51 e8 3e c5 8f 64 3f
       0.7564012 1.2227441 0.4537486 0.89281875
000010 7f 38 9b 3f 66 77 9a 3f 63 20 a2 3f 73 a5 5c 3f
       1.2126616 1.2067688 1.2666134 0.86189955
000020 e3 73 82 3f 88 16 31 3f 4a 4e 21 3f 3c 7f 67 3f
       1.0191616 0.69175005 0.63010085 0.9042852
000030 68 95 e6 3e 25 48 62 3f 41 f4 8b 3f 88 b1 3e 3f
       0.45035863 0.88391334 1.0933915 0.7448964
000040 ad fe 80 3f f7 cf 84 3f b8 e8 96 3f 3a 73 36 3f
       1.0077721 1.0375966 1.178977 0.7126957
000050 11 9e 1f 3f c8 21 0f 3f 5e 98 62 3f 02 f9 81 3f
       0.62350565 0.5591092 0.88513744 1.0154116
000060 35 ee 2a 3f 67 01 81 3f 86 1f 36 3f 58 62 92 3f
       0.66769725 1.0078553 0.7114185 1.1436262
000070 a2 82 43 3f 51 74 1b 3f 23 6e aa 3f 83 91 89 3f
       0.76371205 0.6072436 1.3314861 1.0747532
000080 c7 b0 53 3f 97 59 70 3f 31 01 13 3f bf f0 25 3f
       0.82691616 0.93886703 0.5742369 0.64820474

encoder.2.0.weight f4 [36, 36, 7]
000000 a6 86 ec bb 35 bc fe 3b 36 08 04 3e 43 f9 5c 3c
       -0.0072182 0.007773901 0.12893757 0.013487163
000010 d3 29 14 bd f3 28 04 3d 9b 1b ac 3a 78 96 48 3c
       -0.0361727 0.032265615 0.0013130786 0.012242906
000020 db 23 da bc 4c c4 43 bd 1c a1 f1 bc e8 9d cf bd
       -0.026628425 -0.047794625 -0.029495768 -0.1013754
000030 c9 00 66 bd 7e 3d 8d bd 86 6e b0 3c d7 9a 82 bb
       -0.056153093 -0.06896494 0.021537077 -0.0039857435
000040 b2 09 8c 3c fd 1a 81 3c 58 cf fb 3c b9 b3 89 bb
       0.017094467 0.01575994 0.030738518 -0.004202333
000050 8b d5 e3 3b 82 07 25 bd 0f 39 b3 bc 7c 75 3c be
       0.0069529465 -0.040290363 -0.021877794 -0.18404192
000060 d7 c8 a7 3c a9 2f 86 3e 45 bb b8 3d 6e 9e 8a bc
       0.02048151 0.26208237 0.09020094 -0.016921248
000070 76 a1 4f bd 69 96 a2 bb e6 7f 59 3d 6d 38 58 3d
       -0.05069109 -0.004961778 0.05310049 0.052788187
000080 83 34 1a bd 26 f6 13 3d 67 62 f0 3b 44 1d 8d 3d
       -0.037647735 0.036123417 0.007335949 0.068903476
000090 b7 0f 5f 3d 2b a4 28 be fe e6 93 3d 8a 91 fe bc
       0.054458346 -0.16468875 0.07221793 -0.031075258
0000a0 51 80 54 bc d2 c0 0c 3d 1e a0 95 3c 3e c8 49 3d
       -0.012970046 0.034363575 0.018264826 0.04926323
0000b0 2e d9 0f bd df 02 6c bc 52 65 37 3d 1b 86 18 bd
       -0.035119228 -0.014404981 0.04477436 -0.037237268
0000c0 4d bf d0 bc 43 38 da 3c f8 7b 43 bc c6 e6 9b bc
       -0.025481844 0.026638156 -0.011931412 -0.01903094
0000d0 ef a7 4a bd 77 1e c6 ba 19 1b 95 3c eb 76 c3 3c
       -0.04947656 -0.001511528 0.018201398 0.023860415
0000e0 9d 1e 8d 3a 02 0d 52 bb 3e 0b 37 bd 60 bb 3f bd
       0.001076657 -0.003205121 -0.044688456 -0.046809554
0000f0 07 6e 36 3d 82 d1 87 3d 5c 6d 9a 3c 45 e7 2d bd
       0.044538524 0.06631757 0.018850975 -0.042456884
000100 c6 fc d7 3c ee 7a f0 bc f7 8c 51 bd dc 7b 1e bd
       0.026365649 -0.029355492 -0.051159825 -0.03869234
000110 db 43 8c bd 6b d7 5d 3c e6 05 ae 3c 87 93 d3 3c
       -0.0684888 0.013540129 0.021243047 0.025827182
000120 43 a5 e4 bd 37 be 29 3d 98 17 b4 bb 6a b8 25 bd
       -0.11164334 0.04144117 -0.0054959767 -0.040459074
000130 94 0b 03 3d c7 b5 35 3d ab 3d 8b 3d b9 7b dc 3d
       0.031993464 0.04436281 0.067988716 0.10765786
000140 e1 fb be bd 67 f5 48 bd e9 2a 3b 3d 1e 48 5d 3d
       -0.09325386 -0.04906216 0.04569522 0.054023854
000150 b6 bd e5 3c ff 89 84 bc 9d 43 ec 3c c2 1b 19 bd
       0.028044563 -0.016179083 0.028840834 -0.037379988
000160 18 28 1d 3d 7d 48 b0 bc 98 19 09 bd 9c 0d 04 bb
       0.038368315 -0.02151894 -0.033471674 -0.0020149713
000170 a0 8d f5 3d 57 2e 91 bc 43 8f 23 3e a1 06 20 be
       0.119899035 -0.017722292 0.15972619 -0.15627529
000180 01 f8 01 3d 6b 92 72 bb 4e 7d 20 3c 59 13 ca 3c
       0.031730656 -0.0037013541 0.0097955 0.024667429
000190 88 00 9b 3d 19 3b 11 bd ef e5 a1 3d 6a 0c bd bc
       0.07568461 -0.03545675 0.079051845 -0.023077209
0001a0 a8 9f ef 3b 14 a7 17 bc ed 6a a2 bc 18 16 07 bd
       0.0073127337 -0.009256143 -0.019826377 -0.032980055
0001b0 1f c5 f8 3d 7a 2c df 3c ba 80 3c 3d a1 70 23 bd
       0.12146973 0.027242888 0.0460212 -0.039902333
0001c0 3e 51 cc 3c 86 34 87 3c e9 10 b4 3d d9 92 06 3e
       0.024941083 0.016504537 0.08792288 0.13141955
0001d0 36 f9 f9 bd 7a fc 8c 3d 02 48 43 39 c5 ed 28 3d
       -0.12205736 0.068840936 0.00018623474 0.04124238
0001e0 b6 24 e7 3c 46 05 d3 3c 23 5a 9b bd 38 17 80 3c
       0.028215747 0.02575935 -0.075855516 0.015636072
0001f0 3f 13 e6 b9 33 e0 33 3c bc 6f b0 bd e4 f3 18 3d
       -0.00043883358 0.010978746 -0.08615062 0.037341967
000200 c3 d8 17 bd 09 cd 83 3d 10 77 36 3d 3d 3e 2f 3d
       -0.037071954 0.06435592 0.04454714 0.042783964
000210 3e 9f 78 3d 82 70 0f bd d4 f5 98 bb a7 b1 a7 bd
       0.06069874 -0.035019405 -0.004667977 -0.08188181
000220 39 e3 85 3d ae e0 0b bd df 4b de ba 7d 47 ae bb
       0.0653748 -0.034149818 -0.0016959867 -0.0053185807
000230 9a e5 5b 3d 4c 6b e4 bc 1c b1 38 3d 14 2d 1c 3c
       0.053685762 -0.027883194 0.04509078 0.009532232
000240 e2 58 46 3d fc 7b 2f 3c 2c 66 f6 bc 64 b7 33 3d
       0.04842461 0.0107107125 -0.030078016 0.043876067
000250 e7 0b 4c 3c de bc 0d 3d 03 0f 14 bd ba 71 2d bd
       0.01245401 0.034603946 -0.03614713 -0.042344786
000260 d2 de 04 bc c3 77 15 bd cd 69 bc 3c 15 5f 17 bd
       -0.008109765 -0.036491167 0.022999668 -0.03695591
000270 c6 dd 60 bd 2a 0e fe bc 72 f0 4d 3b c6 d2 d1 3c
       -0.054899 -0.031012613 0.0031423834 0.0256132
000280 59 88 30 3c 55 79 cb 3c a3 c3 7d 3d 5e ee 9c 3d
       0.010774695 0.024838129 0.06195415 0.076626524
000290 69 05 07 3e 95 c4 c4 bc 6a cd 52 3c d8 64 8d bc
       0.13185658 -0.024019519 0.012866357 -0.01726
0002a0 23 91 9d bb c4 80 91 bc 3f 6b cd 3c be 7b dd bc
       -0.0048085614 -0.017761596 0.025075553 -0.027036544
0002b0 8d 46 1b bd 1b c9 44 3b 62 de 67 3c 8c 05 0c bd
       -0.03790908 0.0030027095 0.014152141 -0.034184977
0002c0 45 69 88 bc 09 6a cc 3a f7 5b 7e 3d 8b 19 1e 3d
       -0.016651759 0.0015595566 0.062099423 0.03859858
0002d0 f8 25 0b bd dc de b2 3c 9d b7 60 bc c5 4d 9f 3c
       -0.033971757 0.021834783 -0.013715652 0.019446263
0002e0 4c 80 cb bc e7 d6 6f 3d 6e d6 b8 bc 11 ad 1e 3d
       -0.02484145 0.058554556 -0.022563186 0.038739268
0002f0 fc 1d fd 3c 93 32 96 bc 49 63 4d bd d0 7e 20 bc
       0.030898087 -0.018334663 -0.050143514 -0.009795859
000300 54 1c 58 3d 26 2f e0 bc c8 6e 2a bd ad 60 9b bc
       0.05276139 -0.027366232 -0.041609555 -0.018966997
000310 28 fa 1b bc fb bd ea bc d2 c5 ae 3d ad a9 a3 bd
       -0.009520091 -0.028655043 0.08533825 -0.079913475
000320 0c 89 53 bd c3 c8 0b bd 1a ba 8c 3c 7d 1a 66 bc
       -0.05164437 -0.03412701 0.017178584 -0.014044401
000330 d3 20 7d 3d 02 fb ea 3c 0b 1c ad bd a4 ee f1 bd
       0.06179888 0.028684143 -0.084526144 -0.11813095
000340 b7 36 c4 3d 86 df 01 3c 08 ee 07 3d 64 0e 29 bd
       0.095807485 0.007926827 0.03318599 -0.04127349
000350 3f df 1b 3d 91 32 e5 bd 1f d6 8d bd 1e c0 b1 3c
       0.0380547 -0.111912854 -0.06925606 0.021698054
000360 40 91 7f 3b bf df a7 bc 18 65 8c bc 53 b9 c0 3c
       0.0038996488 -0.020492433 -0.017138049 0.02352587
000370 06 45 8f bc e2 2e 47 bd 70 0b eb 3c a6 6f f7 bc
       -0.017488968 -0.048628695 0.028691977 -0.030204605
000380 3e d2 68 3d 69 4f 01 3d 2b 11 09 3d fb 9c 80 3d
       0.056841128 0.031569872 0.03346364 0.06279942
000390 1f 0d cb 3c c6 b6 a4 bc 14 5f 12 bd 94 22 67 3c
       0.02478653 -0.020106684 -0.035735205 0.014107365
0003a0 ac fa dc 3d fa b4 7b 3b 59 13 4d bd c3 d1 f2 bd
       0.10789999 0.003840743 -0.05006728 -0.11856415
0003b0 b3 12 6b bd 0a cd e7 bc 4a bc 57 3c 5b ad 26 3d
       -0.05739088 -0.028296012 0.01316745 0.04069267
0003c0 fb ac d0 bd 57 f1 9f 3d e2 35 da 3c 58 4b e5 bc
       -0.101892434 0.07809704 0.026637021 -0.027990028
0003d0 fc 4a 3a bc 9d c7 ec bc e0 f1 6a bd 48 c9 82 3d
       -0.011370417 -0.028903777 -0.057359576 0.063860476
0003e0 c0 6f 11 bd 54 18 f2 3d 0b 88 28 bc 45 d6 ed bc
       -0.035506964 0.118210465 -0.010286341 -0.029032836
0003f0 3e 46 ea bb 99 27 8f 3c 2d 4e 09 bd 33 38 c5 3d
       -0.007149487 0.017474936 -0.03352182 0.0962986

encoder.2.0.bias f4 [36]
000000 f8 6c 10 3d 24 7c 5e bd 25 c9 11 bd 6e 2b 8b bd
       0.03526017 -0.05431761 -0.035592217 -0.06795393
000010 da 1f 3f bc 28 5d 9d 3d f0 8a 19 bd d8 79 46 bd
       -0.011665309 0.07683784 -0.037486017 -0.048456043
000020 a1 5e fd 3c 97 41 70 3d 7e 62 cf bb 06 52 e8 bc
       0.030928912 0.0586563 -0.00632888 -0.028359424
000030 61 8b b8 3c f0 ea 53 3d e8 11 98 3c 7f 28 83 3d
       0.022527399 0.051737726 0.018563226 0.064042084
000040 1d df 80 3d b8 b1 7b bc 34 e3 a7 bc 29 45 15 3d
       0.062925555 -0.015362196 -0.020494081 0.03644291
000050 2a 9a 9d 3c ce f6 44 bc ef 2d 31 bc 81 ed cb bc
       0.01923855 -0.012021733 -0.010814174 -0.024893524
000060 34 bd 62 bb 54 a0 99 3c ff 50 75 bc b0 8b 5a bd
       -0.0034597637 0.018753208 -0.014972924 -0.053355873
000070 53 86 a3 3b ab 5d ec 3c b3 0d b9 bb ca 79 88 bd
       0.004990378 0.028853258 -0.005647385 -0.066638544
000080 0b 0a 75 3d a6 8f 54 bc 98 01 8c bc 3c 8d 10 3d
       0.05982403 -0.012973702 -0.017090604 0.03529094

encoder.2.1.weight f4 [36]
000000 a0 9c 42 3f f9 a0 72 3f f8 51 10 3f 56 06 1b 3f
       0.7602024 0.94776875 0.56375074 0.6055654
000010 51 9f 3e 3f 85 df 29 3f 38 5e 35 3f af a6 19 3f
       0.7446185 0.6635669 0.7084689 0.60019964
000020 4c de 69 3f 17 f7 1e 3f 79 13 34 3f b3 ed 65 3f
       0.91354823 0.6209578 0.7034221 0.89815825
000030 a0 55 21 3f a1 11 73 3f 24 bc 64 3f a2 9d 1f 3f
       0.6302128 0.94948775 0.8934958 0.62349904
000040 ff da 79 3f 08 7e 57 3f 2c 34 5b 3f 40 13 5f 3f
       0.97599787 0.84176683 0.8562648 0.8713875
000050 3b f0 44 3f 01 44 5d 3f f9 0f 48 3f d1 eb 2b 3f
       0.7692906 0.8643189 0.7814937 0.671567
000060 6e 55 4c 3f 1d cf 4a 3f 3a 08 2c 3f 68 cd 67 3f
       0.79817855 0.7922228 0.6720005 0.905478
000070 a6 3c 55 3f 47 fc 4d 3f 2e 1e 04 3f 98 96 50 3f
       0.8329567 0.8046307 0.5160855 0.8147979
000080 e7 c4 25 3f f9 2c 3a 3f 2d e6 2d 3f f7 18 49 3f
       0.64753574 0.7272487 0.67929345 0.7855372

encoder.2.1.bias f4 [36]
000000 a0 b2 f7 3b 6e e0 b9 3c ad 1e 45 bb c9 b3 67 3c
       0.0075591356 0.022690024 -0.0030078099 0.014141985
000010 4a 7a d2 3c e4 77 38 3d 50 9c c4 3c f1 65 01 3b
       0.025693078 0.04503621 0.024000317 0.00197446
000020 a3 29 48 3c ea 09 c6 bc 9d 53 19 bd b5 96 35 3c
       0.012216958 -0.02417465 -0.037433255 0.011083295
000030 1d f0 21 3c 20 8d 6b 3c fc b4 83 3c 02 0a 91 3c
       0.009883908 0.014376909 0.016077511 0.017704967
000040 d4 06 0a 3d cb 48 96 bc 0e 01 22 bc 16 d3 ca 3c
       0.033697918 -0.018345257 -0.009887947 0.024758857
000050 02 9e 62 3c 6e a4 dd 3b e2 12 cd 3c 39 f2 36 3c
       0.013831617 0.0067639863 0.025033418 0.011166149
000060 a1 a2 ad 3b 74 0b b2 3c ae cd 5b 3c 39 44 28 bd
       0.005298928 0.021733977 0.013415737 -0.041080687
000070 c9 82 08 bd 72 e5 16 bb e3 db bb 3c 9d c6 b0 bb
       -0.03332785 -0.0023024944 0.022931999 -0.0053947703
000080 e3 12 53 bb 5d 8f c2 3c 48 43 16 3c e0 27 14 bd
       -0.0032207302 0.023750002 0.009171315 -0.03617084

encoder.2.1.running_mean f4 [36]
000000 f3 a2 b9 3c f4 ec 5d 3c 7e ed ea bd 32 b6 be bd
       0.022660708 0.013545264 -0.11471079 -0.09312095
000010 e6 32 d0 3c b7 64 86 3d f3 67 6f 3d 6a b9 2a 3d
       0.025414895 0.065621786 0.058448743 0.04168073
000020 de ea f3 bc 4d 88 c3 3d 57 23 08 bc 6d bf d2 bc
       -0.02977508 0.09547482 -0.008309207 -0.025726045
000030 5a 8a 86 3d 8e 6f ba 3d dc 52 8d 3c a3 83 d9 3d
       0.06569357 0.091033086 0.017251424 0.10620811
000040 bc 6e aa 3d 88 0b 05 bd d5 54 9c 3d 92 28 04 3e
       0.08321902 -0.0324817 0.07633368 0.12906101
000050 4e 88 bf 3d 29 55 53 3d 85 75 14 3d 8b 5c c6 bc
       0.0935217 0.051594887 0.036244888 -0.02421405
000060 f9 78 7c 3d 78 d5 2f 3d af cd ac 3c de 47 32 be
       0.061638806 0.04292819 0.021094171 -0.17410228
000070 60 d9 62 3d ad 6f 98 3d 20 b6 60 3c b1 9b 88 bc
       0.055383086 0.074431755 0.013715297 -0.016675802
000080 d5 52 b7 3d 61 f2 63 bd 65 ad e8 3c 10 33 11 3d
       0.08951346 -0.055651072 0.028402993 0.035449088

encoder.2.1.running_var f4 [36]
000000 01 f0 12 40 56 1f cd 3f 01 07 cd 3f ba 74 f0 3f
       2.2958987 1.6025188 1.6017762 1.8785622
000010 fc 23 07 40 60 cb fa 3f 85 2a fe 3f 0e 3e a0 3f
       2.1115713 1.9593315 1.9856726 1.2518938
000020 90 17 06 40 f5 d5 dc 3f 19 4a b1 3f 9f 8f f5 3f
       2.0951881 1.7252795 1.3850738 1.9184455
000030 72 db 9d 3f df 13 16 40 df 79 ab 3f db 88 d1 3f
       1.2332594 2.3449628 1.3396567 1.636989
000040 21 ed e8 3f a2 36 1c 40 67 0e d1 3f 05 60 c2 3f
       1.8197366 2.4408345 1.633252 1.5185553
000050 de b8 c2 3f 1d a4 ac 3f 9f fc c2 3f ac 0a c8 3f
       1.5212667 1.3487583 1.5233344 1.5628257
000060 d0 ad ba 3f a6 6e 03 40 a4 64 09 40 f5 5b 1e 40
       1.4584293 2.0536284 2.1467676 2.4743626
000070 f8 0e c2 3f 41 1d c0 3f 7f 21 8d 3f 5d 34 0f 40
       1.5160818 1.5008928 1.1025847 2.237571
000080 2f 6b 8c 3f ce 2d fb 3f 0a c2 ae 3f b3 5d cb 3f
       1.097021 1.9623353 1.3652966 1.588797

decoder.0.0.weight f4 [36, 36, 3]
000000 9d 52 9b 3d 5c 3d 01 3e d0 bc 6f 3c 8a 5a 64 bd
       0.075841166 0.12621063 0.014632419 -0.055750407
000010 bb 2c 3a bc ee f4 fd bb ef 57 58 bd b4 9b 32 bd
       -0.011363204 -0.007750145 -0.052818235 -0.04360552
000020 6e 29 16 3e 29 fb 63 3d 47 35 bb bc 78 2f 22 3c
       0.14664242 0.055659447 -0.022852553 0.009899013
000030 a8 1f 27 bd 2b 79 17 3d fe 8b bd 3d f3 6a b5 3d
       -0.040801674 0.03698079 0.09255217 0.088582896
000040 cd cd 35 3d 2c 3b 86 bc d2 76 66 bd 02 c0 96 ba
       0.04438572 -0.016385637 -0.05626566 -0.0011501315
000050 ff 5c bb 3d f8 d2 45 bd 92 d9 d8 3d 09 3a 1a 3e
       0.09148597 -0.0482969 0.10588373 0.15061201
000060 dd 55 33 3d 50 d2 a8 bc 35 70 8e 3c 4a 4f 6c ba
       0.043783057 -0.020608097 0.017387489 -0.00090145005
000070 99 4e 87 bc 01 4d 73 bd ab 95 f2 bd 3e c0 6c 3d
       -0.01651697 -0.05939961 -0.11844953 0.057800524
000080 ba 24 72 bd 71 06 8e bd d8 de 4b 3d d3 6c 81 bd
       -0.059117056 -0.06934822 0.049773067 -0.06319585
000090 58 61 a7 bc af 9a 64 bd 97 eb ea bd f5 b5 18 3d
       -0.02043216 -0.05581158 -0.114707164 0.037282903
0000a0 a2 17 69 3d 6e dc 85 3d 96 cf 60 bd d6 82 1e 3d
       0.056907304 0.06536184 -0.05488547 0.038698994
0000b0 61 f8 72 bd 6b 06 80 3d 5c 26 89 bd 4d 70 9e 3b
       -0.059318904 0.06251224 -0.066967696 0.0048351646
0000c0 02 64 26 bd 99 1e d0 3d 4c bb 50 bd d1 3d 26 3d
       -0.04062272 0.10162086 -0.05095987 0.040586296
0000d0 00 56 8f 3c a6 f7 c7 bc ca d8 7e bc b3 ee a1 3d
       0.017497063 -0.02441008 -0.015554616 0.079068564
0000e0 b1 cf d6 3c d6 7e 94 3b 2a 65 88 bd 62 34 0b be
       0.026222082 0.0045317216 -0.066599205 -0.13594201
0000f0 b7 1a bd 3c ed c6 b1 bc 7d 7d 86 3c 81 15 db bd
       0.023084028 -0.0217013 0.01641726 -0.10697461
000100 b9 16 56 3d 59 7f 3c bd 72 1d 46 bd d0 e9 80 bd
       0.052267764 -0.046019886 -0.048367925 -0.06294596
000110 ad 60 9b 3d b1 00 e6 3b 7d 5d f7 bc 9c be 81 3d
       0.07586799 0.0070191254 -0.030195946 0.06335184
000120 d9 61 fc bd bd 97 8a 3a 79 6b a4 3d 08 75 c9 bc
       -0.123233505 0.0010573786 0.08028311 -0.024591938
000130 fd 88 68 3d c5 6f 38 3c 7f 68 16 bd 39 04 3f bd
       0.056771267 0.011257117 -0.03672075 -0.046634886
000140 bf a1 39 3d 2d 03 8b bd 85 6d ee 3c a1 69 f0 bd
       0.04532027 -0.06787715 0.029104957 -0.11738897
000150 7f 82 66 3b 12 b2 46 3d 14 11 b8 bd 0f 7e 23 bc
       0.0035172997 0.048509665 -0.089876324 -0.009978785
000160 ea 30 95 3d 22 2e c9 3d c9 e6 41 3d 5a b8 39 3d
       0.0728472 0.09823252 0.047339235 0.045341827
000170 fd 28 72 3b cb 6c cf ba 25 b1 3f 3c ed c5 a0 3d
       0.00369507 -0.001582527 0.011699949 0.07850251
000180 e6 08 eb bc bb b2 c0 bd c1 59 94 3b 9a 87 8c 3d
       -0.028690767 -0.0940909 0.004527301 0.068618014
000190 58 44 16 3c 06 af 17 3c 60 01 ab 3c 2d bd 87 3d
       0.009171568 0.009258037 0.02087468 0.06627879
0001a0 fb a1 f3 bd 25 0e 87 bc 2e 81 96 bd c8 ac 53 bc
       -0.1189613 -0.016486237 -0.07348858 -0.012919612
0001b0 6a 5e f7 bc 07 a7 c6 bc 1f 7f 06 3d d8 4e 72 bd
       -0.030196387 -0.024249567 0.032836076 -0.059157223
0001c0 26 6c 2c 3d f5 76 1b 3d 41 29 91 3d 34 3b 77 3d
       0.042095326 0.037955243 0.07087947 0.060359195
0001d0 44 54 45 3d b6 48 3b 3d bd c3 92 3d a9 91 41 3a
       0.048176065 0.04572364 0.0716624 0.0007384071
0001e0 e8 d9 01 3c 5a ab 86 bd b3 75 91 3c 64 b8 20 3b
       0.007925488 -0.065756515 0.017756319 0.0024523968
0001f0 9e da 52 bd 68 df 56 bc d2 db 9e bd 8f 29 a7 bb
       -0.05147802 -0.013114788 -0.07756771 -0.0051013897
000200 45 5c 93 3d 78 eb 4e bd d6 cc 80 3d af 8c 76 39
       0.071953334 -0.05051753 0.06289069 0.00023512797
000210 9a 2b 5f 3d 96 33 b9 b9 34 1d 08 3d 6c b5 0b bc
       0.05448494 -0.00035324384 0.033230975 -0.008527141
000220 fb d8 32 3d e9 23 53 3d 08 f9 06 bd 27 8e 6b 3b
       0.04366396 0.05154792 -0.03295234 0.0035942884
000230 08 69 3a bd 1f 7c cd bd 9b 22 20 bc 8d fe 59 bc
       -0.04551032 -0.1003344 -0.009773876 -0.013305319
000240 8c 7f 59 3d 03 cc 6c bd c4 6a 48 3d 48 ee b2 bc
       0.053100154 -0.05781175 0.048929945 -0.021842137
000250 d7 42 5a 3b 1b 38 2c 3d 9c 18 b2 3b f0 97 c8 3d
       0.0033304 0.042045694 0.0054350626 0.09794605
000260 d1 55 1a 3d 3a 64 9a bd 6d 14 00 bd 9a 18 43 3d
       0.037679497 -0.07538648 -0.03126948 0.047630884
000270 17 41 ab 3c ae e2 42 3c 79 29 88 bd c0 1f 3d 3c
       0.02090506 0.011894865 -0.06648535 0.011543214
000280 e0 52 e3 bc 98 97 9e 3c 3a 15 4e bd 5e 0e 95 3d
       -0.027749479 0.019359395 -0.050313212 0.07278131
000290 b6 8e 86 3c a5 8e 76 3d 37 2b a1 3d 79 52 c7 bc
       0.016425472 0.06019463 0.07869571 -0.024331318
0002a0 7e a8 ad 3c af 6b f6 3c 50 38 2e 3d 51 10 25 bb
       0.021198507 0.030080644 0.042534173 -0.0025186727
0002b0 a1 9e 21 3d b4 b0 70 bd 38 f5 3a bd 59 59 cb 3d
       0.03945792 -0.058762267 -0.045644015 0.09929151
0002c0 68 61 73 3d 14 5e a6 3d b2 87 8a bd 15 a8 16 3c
       0.059419066 0.08123413 -0.06764163 0.009195347
0002d0 cf 6b 7f 3c a5 b9 00 3d c6 8a 9c bd 0e e3 40 bd
       0.015589668 0.031427044 -0.076436564 -0.047091536
0002e0 dd c3 07 bc e6 df cf 3d df a7 30 bd eb 5b 8b bd
       -0.008286444 0.10150127 -0.043128844 -0.06804641
0002f0 40 a7 94 3c 71 86 94 3d e7 eb 06 bd a1 dd 7a 3d
       0.018146157 0.07252205 -0.032939818 0.061246518
000300 ad 50 70 3d ee 29 c3 3d 3a bb 0a 3b f8 cf 63 3d
       0.05867069 0.09529482 0.0021168725 0.055618256
000310 aa 18 8c bc d4 1e e0 bb f0 b4 3f 3d 66 15 7a bc
       -0.017101604 -0.0068396125 0.046803415 -0.015263891
000320 52 cb f0 bb 71 aa b2 bd 57 bb b1 3d bb 58 b5 3d
       -0.0073484564 -0.08723915 0.0867831 0.088548146
000330 e5 bb b3 bd 73 ed 52 3d d2 9b 5d 3c 5d 35 1e bd
       -0.087760724 0.05149598 0.01352592 -0.03862511
000340 21 14 98 3c 6a e3 85 3d f5 a0 fd bd 85 37 b9 bc
       0.018564286 0.065375164 -0.12384216 -0.022609482
000350 e1 24 8b 3d e2 6f 1d 3d fd 99 59 3d 08 e8 c4 3d
       0.067941435 0.038436778 0.05312537 0.09614569
000360 b0 55 04 3d 3a 75 92 bd e5 f5 02 be 5e 6c 2a 3d
       0.03230828 -0.071512654 -0.12789114 0.041607253
000370 44 a4 cf bc 9f e8 9f bc 5f 03 c7 bc 31 ec fa 3c
       -0.025346883 -0.019520102 -0.0242936 0.030630203
000380 49 30 a2 3b ad 00 00 bd 35 4a 27 3d e6 56 9d bc
       0.0049496037 -0.031250644 0.040842254 -0.019206475
000390 0d ca 7e bd fc bb 2a bd 42 72 7a 3d da 3e 05 3d
       -0.06220441 -0.041683182 0.06114412 0.032530643
0003a0 7f 5a 1d 3b c8 08 f2 bc 18 ec 71 bd ef 2b 0e be
       0.0024010239 -0.029545203 -0.059063047 -0.13883947
0003b0 1d 3c fd 3d 66 17 8b bd b3 ba 16 bd 7d bb 8a 3d
       0.12364981 -0.06791572 -0.036799144 0.06774042
0003c0 3a 4d 3a bd ab b6 ca bc f8 a4 42 3d 53 71 b3 bd
       -0.045483805 -0.024745306 0.047520608 -0.08761849
0003d0 4f ab 37 bd 4c a5 1c 3d 3e e4 9a bc 5e 29 db bc
       -0.044841107 0.038243577 -0.018907662 -0.026753124
0003e0 4c c8 69 3d 0b 2a 12 bd 39 cc cf 3c 50 d6 11 bd
       0.057075784 -0.035684627 0.025365936 -0.035604775
0003f0 1a f0 01 bd 28 c8 c1 3d 21 ea 16 3d 99 e9 97 3d
       -0.03172312 0.09462005 0.036844376 0.07417602

decoder.0.0.bias f4 [36]
000000 7a 30 89 3d 68 bc eb 3c 92 aa 8e bd 96 43 ef bb
       0.06698699 0.028776363 -0.069661275 -0.007301758
000010 dd 83 af 3d 3f 81 b2 bd db 81 15 3d 21 8c 4b bd
       0.08570073 -0.08716058 0.036500793 -0.049694184
000020 f5 2c f6 3c ea a3 ed bc 2b 1d 1d bd 93 bb 22 3d
       0.030050734 -0.029008824 -0.038357895 0.039729666
000030 a9 d2 6e bd a0 d7 a1 3d 04 c9 37 3d 2d d0 2d 3d
       -0.05830637 0.07902455 0.044869438 0.04243486
000040 d5 6a 93 bd de 14 ce bd e1 cb 0a 3d f1 6f 9a bd
       -0.07198111 -0.10062574 0.03388584 -0.075408824
000050 87 ec a3 3b 7a 16 9e 3d 8e ea 84 3d 48 9c 6a 3d
       0.0050025615 0.07719131 0.0649005 0.057277948
000060 5d f2 e6 3b a8 cc 84 bc 7c c1 d7 3d 17 e8 4d bc
       0.007047935 -0.016210869 0.10534951 -0.012567542
000070 83 fc 7f 3d 60 78 59 bd 9b 42 a7 bd fd f6 2b 3a
       0.062496673 -0.053093314 -0.08167001 0.00065599364
000080 f0 dc a5 bd 39 a2 5e 3d 7d 18 ab 3b 27 82 a8 bc
       -0.08098781 0.054353926 0.005221425 -0.020569874

decoder.0.1.weight f4 [36]
000000 be b4 24 3f e2 7f 79 3f da f7 4b 3f 1e 52 71 3f
       0.6433829 0.9746076 0.79675066 0.94265926
000010 6a 5c 39 3f 85 00 31 3f 1a 52 4a 3f 17 b8 50 3f
       0.7240664 0.6914142 0.7903153 0.815309
000020 aa e2 65 3f 00 7c 66 3f e1 4b 45 3f db 6a 62 3f
       0.89798987 0.9003296 0.7706891 0.884443
000030 b6 5c 64 3f 5f e3 6e 3f 62 a6 74 3f d2 03 50 3f
       0.89203966 0.9331569 0.9556638 0.8125583
000040 a2 2a 44 3f 73 f5 58 3f c5 d0 5e 3f dc 87 61 3f
       0.7662755 0.84749526 0.8703731 0.8809793
000050 94 f8 4e 3f d3 4b 77 3f 8f 92 71 3f 47 87 67 3f
       0.8084805 0.96600074 0.94364256 0.9044079
000060 11 db 65 3f 78 95 6c 3f fb c2 47 3f 86 27 65 3f
       0.89787394 0.9241557 0.7803189 0.8951343
000070 bd 78 47 3f c5 6b 5c 3f fe ee 48 3f 43 6e 40 3f
       0.77918607 0.86101943 0.78489673 0.75168246
000080 a1 0a 48 3f e9 8a 75 3f 47 c8 46 3f 83 e8 69 3f
       0.7814122 0.95915085 0.7764935 0.9137041

decoder.0.1.bias f4 [36]
000000 08 be cb 3b a6 d8 e1 3c 90 5a f9 3c 2c 02 c3 3c
       0.006217722 0.027569126 0.030438691 0.023804747
000010 86 10 9c 3c 4e 40 e6 3c 6b 26 77 bb 67 2d d5 bb
       0.019050848 0.028106835 -0.0037712108 -0.0065056565
000020 05 f9 eb 3c 80 8c 12 bd f9 86 2c 3c df 23 4d bd
       0.028805265 -0.035778522 0.010530227 -0.050083037
000030 15 3b e5 bb d1 7a 5d bb e2 7d 18 3d 07 f3 96 3b
       -0.0069955685 -0.0033795128 0.037229426 0.004606608
000040 84 28 5a 3c 0e 58 9a bc 8a 56 b1 3c 5b ed 00 bd
       0.013315324 -0.018840816 0.02164771 -0.03147636
000050 7e 12 f4 ba 07 11 41 3d 81 42 07 3c 77 06 50 bc
       -0.0018621234 0.04713538 0.008255602 -0.012696854
000060 f0 44 0e bc f6 76 25 3d b5 6b 21 3d 5b 9e 89 bd
       -0.008683428 0.040396653 0.039409358 -0.06719657
000070 c4 68 91 3c 1d 12 2c bd 9b 80 b4 3b 2d f9 e4 3a
       0.017750151 -0.04200946 0.005508495 0.001746928
000080 7f 29 1f bc 01 5e 09 3d 92 8c 34 3d fb b6 90 3c
       -0.009714483 0.033536915 0.04407937 0.017665377

decoder.0.1.running_mean f4 [36]
000000 b6 8a 13 3d 0b 6c 91 3c 6a 1d 41 bd 66 a8 91 bb
       0.036020957 0.017751714 -0.047147192 -0.0044451235
000010 2a 37 c5 3d 68 01 82 bd 6c 2f 42 3d c7 90 93 bc
       0.09629662 -0.063479245 0.047408506 -0.018013371
000020 ba 1e 4f 3d 30 75 cb bb f2 df aa bc f8 7c 57 3d
       0.050566413 -0.006209038 -0.020858739 0.052609414
000030 d0 52 a9 bd 5e f0 d1 3d 76 85 0b 3d 2d 00 b1 3d
       -0.08267748 0.102509245 0.034062825 0.08642612
000040 b1 23 61 bd 71 32 ae bd 54 fc ca 3c aa 6c 7f bd
       -0.05496568 -0.08505715 0.024778523 -0.06235949
000050 63 d3 59 3c 3a 4c c4 3c 10 bb fc 3d ae 51 c8 3d
       0.013295027 0.023962129 0.12340367 0.09781204
000060 09 56 de 3c 5c 37 17 3d ad f7 02 3e 9a a7 01 3d
       0.027140634 0.03691803 0.12789793 0.031653978
000070 7a 84 5f 3d f2 70 8f bd 37 66 5e bd 17 d3 10 3d
       0.0545697 -0.070039645 -0.0542967 0.03535756
000080 67 8d 46 bd bf df 7c 3d f5 62 6c 3c a8 e9 e7 bc
       -0.048474696 0.06173682 0.01442789 -0.028309658

decoder.0.1.running_var f4 [36]
000000 a1 16 ce 3e 27 a4 ae 3e f1 11 ea 3e d3 45 2b 3f
       0.4025164 0.34109613 0.45716813 0.6690342
000010 7c a9 bb 3e d6 4d e8 3e e2 a6 55 3f 5b 94 d2 3e
       0.36652744 0.45371884 0.8345777 0.4112881
000020 4c 3c 9c 3e 8a 14 c3 3e 28 ef 41 3f b1 fd 03 3f
       0.30514753 0.38101608 0.7575555 0.5155898
000030 38 96 74 3f 55 aa e7 3e 6d 0a 25 3f b8 b9 cc 3e
       0.95541716 0.4524714 0.64469033 0.39985442
000040 3d 07 0e 3f a0 46 1c 3f 4b ce d8 3e 39 69 a4 3e
       0.55479795 0.61045265 0.4234489 0.3211153
000050 3e c9 09 3f 8c fb 6e 3f 66 79 42 3f 2a 34 d2 3e
       0.53822696 0.9335258 0.7596649 0.41055423
000060 f1 1c 38 3f ed a7 08 3f 7a f1 f2 3e ba df d5 3e
       0.7191916 0.53381234 0.47449857 0.41772252
000070 e6 6f ca 3e 8c fe 11 3f bc b0 07 3f 9b 41 0a 3f
       0.39538497 0.5702903 0.5300405 0.54006356
000080 1b 0e 7c 3f 7a e4 2e 3f 9a 1f 10 3f c7 d1 e7 3e
       0.98459023 0.6831738 0.5629822 0.45277235
