trained_models/A3B3:8C1F:43AC:7718.pt (torch, 254297 bytes, 52 tensors)

encoder.encoder.0.0.weight f4 [36, 36, 7]
00000000: 5116 2dbd 2a79 983c b081 81bc 2ab0 c83c
00000010: cd1f f8bc 3242 8cbc 32fd f43c d40a 193d
00000020: cb13 36bd 32d9 4e3c 37ae 943c 2004 073d
00000030: 952b 043d daff 413d df0c 473d c449 433d
00000040: d6bd 4b3d 6a41 943d 5911 8e3c 26dd 523d
00000050: e274 3f3c 5ac1 ba3c d853 5f3d de49 a13c
00000060: 4962 c23c 4293 82bc 1ed4 273d 407d 5d3c
00000070: c2c5 8b3c 406f 98bc ee33 493d 29ac 22bc
00000080: f0e3 8b3b 6dc2 07bc a08c 153d 8cc8 713d
00000090: 1ac1 9bbc ea12 363d b98d 40bc cb5d 413d
000000a0: e118 5d3d c7b0 923c 2ec6 cebc c4ca d4bc
000000b0: c520 4f3d a19c b1bc fd97 2f3c 6860 313d
000000c0: 1f2d 963c 6d96 363c 68db 33bd ad32 143c
000000d0: e664 553d 112f ffbc ee7d eb3b 6d3c 5438
000000e0: d494 89bb 34fd 113d d260 6e3d a184 5bbc
000000f0: 921b 3c3d b49b 82bc ad37 34bc 2e86 0dbc
00000100: db01 f7bc bb26 db3b 2082 483d 9668 9c39
00000110: 7ba6 53bc d3db d9bc ce4c 163d 752b e43c
00000120: 1b88 85bc 8a52 ad3a 7385 393c e3aa 9bbc
00000130: 24ea f83c 1037 66bc 87a5 10bd 19df b7b9
00000140: 7759 6f3d e2d0 2dbd 8265 e63c 39da 9b3c
00000150: 860b 40bd ae94 e0bc b3de d4bc a115 523d
00000160: 8f23 cabc b6a8 78bc 4542 a13c 5015 32bb
00000170: b62f 2dba 1194 a73c 41be 7d3d f8c8 663d
00000180: 867d f93a 209c aabc abb3 92bc cd81 3dbc
00000190: 023d 43bd 6f9b 1f3d e920 d2bc 077e 533c
000001a0: 46af 703d 8e5e 0d3d a0a7 1d3d 39a9 8fbc
000001b0: 2bc5 f13b 181d af3c 9750 1a3d 5cbb b93c
000001c0: 03ad 173d 8820 7e3d e0e8 b6bc 0d1a 883d
000001d0: d57c 0ebc f955 2fbd 8476 d6bc c77c 783d
000001e0: 3c9f ca3c 63e5 723d 4dd6 593d f110 2c3d
000001f0: 12c0 553c d83e a73c cf0d 27bc e717 753d
00000200: 2ce7 403d dcdc de3c 67c7 3c3d 8391 093d
00000210: 6fb0 f4bc b5c0 5c3d d7b3 adbc 993b 413d
00000220: abe7 cb3c da1d f43c 6fee 96bc 1afb f43b
00000230: 895d f03c 7cd3 9bbc 83c1 27bd 21b3 173d
00000240: 5ca1 523d d6e8 823c 8807 3d3d 021d 943b
00000250: 1e89 553d 8239 373d 337a 8d3c bd56 d7bc
00000260: 9f89 38bd 868c 853c e0aa 453c 0741 3abd
00000270: a46a 01bd 116f c53c 44b6 313d 4467 2f3c
00000280: 723f 183d e4ca fdbc 1a5d f63c 2296 db3b
00000290: 718b c5bc bec1 653d 9760 0ebc 2c36 093d
000002a0: 3a86 6a3c 53f6 6d3d 6a65 fb3c a1a2 143d
000002b0: a583 323d 84cf 873c 16e8 a1bc b09e 713d
000002c0: e640 69bc 4581 7d3d 693a 313d 42ef a1bc
000002d0: 123a 7bbc cf73 343b c9c9 623d 8529 4b3c
000002e0: d270 4d3c 357e 3fbd 4b52 61bc 0129 adba
000002f0: c185 f1bc 645b ddbc 317b 8b3c 6294 49bd
00000300: 53a9 d33c d7af 503d 6d11 65bc 56f2 c73c
00000310: f5a4 d9bc 935f 4b3d 28a1 1e3d cc20 f6bc
00000320: 82f9 c8bc ec68 283c 4bf2 1f3d 510a 833d
00000330: c66c 833c 2aec 363b 76c7 dc3b ec6d 3cbd
00000340: e1f4 673c 2034 123d 0c43 8abc 2fff a43c
00000350: 2168 9d3c 5daf 173d e70d 193c 8f48 4ebd
00000360: 27be 22bd 9e24 b83c dded 233d a81d 4fbd
00000370: 4c04 bebc 708a ef3c ce26 073d c4fd 383d
00000380: f1bb 5d3d b544 99bc df9d 563c 017c 403d
00000390: e2d8 82bc 0d84 ef3c ecac f93c ecb2 c33c
000003a0: d2ae f43c 948a 10bd 9f2e 2a3d bc0b 5ebc
000003b0: 4aff 343d 5597 cbbc 392a 183d 6782 2d3d
000003c0: 289e 0ebd 50d9 f13c 3723 b5bc 62fa 2abd
000003d0: e540 c83c 8cb0 ff3c 6662 25bc 0df6 eb3c
000003e0: 9442 85bc b628 a239 057c b03c 3d99 1b3d
000003f0: 7d69 bc3d 9a35 8abd c80a 8dbd 8284 fcbc
-0.04225761 0.018612463 -0.01580891 0.024498064 -0.030288601 -0.017121408 0.02990589 0.037363842
-0.04445247 0.012625026 0.018149478 0.03296292 0.032268126 0.04736314 0.04859626 0.04767777
0.04974159 0.07239039 0.017342256 0.051480435 0.011685582 0.022797275 0.05452332 0.019688543
0.023728507 -0.015939359 0.040973775 0.013518631 0.017062072 -0.018607736 0.04912179 -0.0099287415
0.0042691156 -0.008286101 0.036511064 0.059029147 -0.019012976 0.04445163 -0.011752539 0.04720859
0.053978804 0.01790656 -0.025240984 -0.025975592 0.05056836 -0.021681132 0.010717389 0.04330483
0.018332062 0.011144263 -0.043910414 0.009045285 0.052098177 -0.031150373 0.007186643 5.0601015e-05
-0.00419865 0.035641864 0.058197804 -0.01339832 0.04592473 -0.015943386 -0.010999602 -0.008637948
-0.030152252 0.0066879666 0.048952222 0.0002983256 -0.01291811 -0.026594078 0.03669434 0.027852753
-0.016300252 0.0013223451 0.011323321 -0.019002384 0.030385084 -0.014051214 -0.03531411 -0.000350707
0.05843493 -0.042435534 0.028124575 0.019024955 -0.04688599 -0.027414646 -0.025985098 0.05129016
-0.024675159 -0.015176943 0.01968492 -0.0027173348 -0.0006606536 0.020456346 0.06194902 0.056344002
0.0019034601 -0.0208264 -0.017907938 -0.011566591 -0.047665603 0.038966592 -0.025650458 0.012908465
0.058760904 0.034514003 0.038489938 -0.017536746 0.0073782406 0.021376178 0.037674513 0.022672348
0.03703023 0.062042743 -0.02232784 0.06645594 -0.008696754 -0.0428066 -0.02617956 0.060665872
0.024734132 0.05930079 0.05318289 0.042008344 0.013046281 0.020415708 -0.010196163 0.05983725
0.047095463 0.027204923 0.046088602 0.033586036 -0.029869286 0.053894717 -0.021203918 0.047175977
0.024890741 0.02979939 -0.01842424 0.0074762227 0.029341476 -0.019021742 -0.04095603 0.037036065
0.051423416 0.015980165 0.04614976 0.0045200596 0.05213272 0.044732578 0.017270183 -0.026286477
-0.04505312 0.016302358 0.012064666 -0.04547217 -0.03159584 0.024100812 0.043386713 0.010705773
0.03716988 -0.030980535 0.030073691 0.006701247 -0.024114342 0.05609297 -0.008690021 0.033498928
0.014314229 0.05809624 0.030688006 0.036287908 0.043582577 0.016578443 -0.019763988 0.058989227
-0.014236664 0.06189086 0.043268595 -0.019767407 -0.015333669 0.0027534848 0.05536822 0.012400036
0.0125391055 -0.04675122 -0.01375253 -0.0013211073 -0.029482724 -0.027021118 0.017026516 -0.049213775
0.025837576 0.050948944 -0.013981205 0.024407547 -0.026567915 0.049651694 0.03872791 -0.030044936
-0.024533037 0.010278922 0.039049428 0.06398452 0.016043078 0.002791176 0.006737645 -0.046003267
0.014157505 0.03569424 -0.016877674 0.020141212 0.019214692 0.037032474 0.0093416935 -0.050362166
-0.039732125 0.022478398 0.040021766 -0.05056539 -0.023195408 0.029240817 0.03299599 0.045163885
0.054134313 -0.01870952 0.013099163 0.04699326 -0.015972558 0.029237771 0.030477963 0.023889028
0.029868517 -0.03528841 0.041548368 -0.013552602 0.044188775 -0.024852434 0.03714964 0.04236069
-0.0348188 0.029522568 -0.022111518 -0.04174269 0.024445007 0.031212114 -0.010094261 0.02880385
-0.016267098 0.0003092938 0.021543512 0.037987936 0.09199808 -0.06748505 -0.06886822 -0.030824903

encoder.encoder.0.0.bias f4 [36]
00000000: 6d82 823c d42b 2c3c d880 1a3d e2e5 5a3d
00000010: 5b0f 89bd 8827 a63d 3109 5a3d 4a9a 593d
00000020: 48ef ac3c d896 89bc f1d2 edbb 7e55 513d
00000030: 3a3e 893c 6a7b efbc 0e00 ee3c ede7 3d3d
00000040: bce1 8bbd c3e9 08bc ef12 1e3c e9ce 303d
00000050: 84f0 5cbd 41f3 1b3d a16e 53bd a194 273d
00000060: 48b8 58bb a8d9 0dbd cfa2 32bd ff8f 7f3d
00000070: 2141 5ebd 452a 6b3d a2bd 5e3d b0cd 1fbd
00000080: 0fe9 2bbd 163f 95bc 98b5 f5bc 28d9 2b3d
0.015931332 0.010508496 0.03772053 0.05344189 -0.06692382 0.08113009 0.05323142 0.053125657
0.021110192 -0.01679556 -0.007257812 0.051106922 0.016753305 -0.029233653 0.02905276 0.04636376
-0.06830165 -0.008356514 0.009648069 0.043166075 -0.05394031 0.038073782 -0.051619176 0.040913228
-0.0033068825 -0.0346314 -0.043612298 0.062393185 -0.05426133 0.05741336 0.054380067 -0.03901452
-0.04197031 -0.018218558 -0.029993817 0.041955143

encoder.encoder.0.1.weight f4 [36]
00000000: 5e67 7b3f cc1a 653f 4998 353f c9a4 703f
00000010: a452 833f 0fab 903f 0998 733f f207 f83e
00000020: 3646 823f d59d 7c3f eb51 553f 7269 3c3f
00000030: 66bd 523f 6dbc 7e3f 6763 723f b801 733f
00000040: ef5a 813f 623b 653f 21ef 6d3f d3e3 2a3f
00000050: be85 5f3f 8ff2 7b3f 45e8 813f c7c5 7d3f
00000060: 3f16 643f c600 5f3f 6ff2 7f3f 32c8 853f
00000070: fb50 733f a1db 563f db1a 463f c436 523f
00000080: 1157 6c3f 6475 2a3f 393d 923f 2560 633f
0.982046 0.89494014 0.70935494 0.9400144 1.0259595 1.1302203 0.9515386 0.48443562
1.0177677 0.9867833 0.8332812 0.73598397 0.8232025 0.99506265 0.94682926 0.949245
1.0105876 0.89543736 0.92943007 0.6675388 0.8731345 0.9841699 1.0149008 0.9912991
0.89096445 0.87110555 0.999793 1.045172 0.9504544 0.8392888 0.7738473 0.82114816
0.9232035 0.66585374 1.1424934 0.8881858

encoder.encoder.0.1.bias f4 [36]
00000000: c51f 1bbc 8f8f 2ebd 4d0d 10bd 7460 b9bc
00000010: 8a3a 30bd febf 303d 5fdb 063c 3c1b 4ebc
00000020: ae50 3bbd edb4 afbc e5e2 ccbc ed2a 24bc
00000030: f49d bcbc 0fef c5bb 987c 4c3b 2349 66bc
00000040: 62db 06bd 1804 b3bc 2ec0 843a b5b9 e7bc
00000050: 0245 d3bc f511 79bc a45f 3bbd 31ce a5bc
00000060: 0c16 71bd acdc 8dbc a6e6 60bd 0e4e 21bc
00000070: e683 d3bc 4a08 42bc 5e70 7fbc 6358 943c
00000080: 05c1 0bbd ba5c 723c c699 14ba 4014 d5bc
-0.009468024 -0.042617377 -0.035168935 -0.022629 -0.043024577 0.043151848 0.008231013 -0.012579735
-0.04573124 -0.021448577 -0.025010535 -0.01002 -0.023024537 -0.006040461 0.0031202193 -0.014055523
-0.032924064 -0.021852538 0.0010128075 -0.028286794 -0.025789741 -0.015202035 -0.045745507 -0.020239921
-0.058858916 -0.017317139 -0.054907463 -0.00984527 -0.02581973 -0.011842797 -0.015590755 0.018108552
-0.034119625 0.014792616 -0.0005668666 -0.026010633

encoder.encoder.0.1.running_mean f4 [36]
00000000: f4a6 2cbf 42bc 6a3e 1861 1e3f 30a7 47bf
00000010: 0357 30bf 22b4 94bd 8291 0fbf 7825 4b3f
00000020: 5bfa 143e 68f2 413f 2e4b 193f df70 85be
00000030: f4db 6b3e 3e06 28bf d4e7 6abf 4bed 30bf
00000040: c150 c3be 9634 57bd cba8 6cbf db91 d6bd
00000050: e403 debe e6e6 8c3f 8d8a 25bf 3538 963f
00000060: 2a8a a7bc 427f bebe f478 80bc 1f33 3abf
00000070: 85f5 523f dde5 c63e 3286 eb3e e350 8bbe
00000080: e679 343f e147 c6be 8694 33bf db09 6b3f
-0.6744225 0.22923377 0.61866903 -0.7798948 -0.6888277 -0.0726092 -0.560814 0.7935405
0.14548628 0.7576051 0.5988034 -0.26062676 0.23033124 -0.65634525 -0.9175999 -0.6911208
-0.38147548 -0.052540384 -0.9244506 -0.104770385 -0.43362343 1.1007965 -0.64664537 1.1735903
-0.020451624 -0.37206465 -0.015682675 -0.72734255 0.82405883 0.38847247 0.4600082 -0.2721015
0.704985 -0.38726714 -0.70148504 0.91811913

encoder.encoder.0.1.running_var f4 [36]
00000000: e08d ca3a 6b19 103a 0589 a53a eec1 713b
00000010: 952e e13a c2d4 643a 3f59 823a 7cd2 053b
00000020: d703 593a f92a af3a 265b e13a 9c24 753a
00000030: 90cc cc3a c004 fc3a 9bcf da3a a183 283b
00000040: de7b 6f3a 8073 003b 41bd 2c3b 2227 5a3a
00000050: 59db 4c3a 83f0 ed3a 472e 033b 1dc5 1e3b
00000060: 9382 be3a 3734 c73a 6918 263a 964a df3a
00000070: 3eb9 be3a d7c5 883a 8823 b93a b0ef 093b
00000080: 6c07 b63a 0ca4 dc3a 3fff 693a cf70 363b
0.0015453659 0.00054969516 0.0012629336 0.0036889273 0.001718002 0.0008729213 0.000994481 0.0020419648
0.0008278465 0.0013364247 0.0017193302 0.00093514635 0.0015624929 0.001922749 0.0016693951 0.0025713223
0.0009135584 0.0019600093 0.0026357921 0.0008321871 0.0007814668 0.0018153343 0.0020016597 0.0024226375
0.0014534764 0.0015198056 0.0006336035 0.0017035778 0.0014551056 0.0010434937 0.0014124969 0.0021047406
0.001388771 0.0016833558 0.0008926279 0.0027838235

encoder.encoder.1.backbone.0.0.weight f4 [36, 36, 3]
00000000: 142f fc3d ac45 eb3d 891e d43d d3db b0bc
00000010: ffea ac3d 5f16 01bd eedb 2a3d ab8a 4abd
00000020: 083e 22bd 0e59 21bd cca2 0c3c 33b8 843b
00000030: ae31 edbb b8de a63d 9b0f 953d 024a c6bc
00000040: 838a f93d d6eb 803d 68b4 973d 1682 28bd
00000050: beab 613c 3652 9bbd e708 583d dec7 82bd
00000060: 005e 613d 38b8 8dbd 3e54 28bd 170f c33d
00000070: 922a 8cbd 4b3b 013d 01d3 a43c f8a3 d13d
00000080: 68af 213c fc3c 233d ad2f 803d 06a1 a1bd
00000090: e6bd a53c a894 b0bd a9d5 b0bd 94aa dc3d
000000a0: bddb 053e 922b 453d 4635 dabc ded9 b93c
000000b0: aab2 243d 89f5 78bd 20ef 1f3d e08a a33b
000000c0: 7be8 bd3d 2ee7 c2bc 2ec7 e0bc 9f91 3bbc
000000d0: c013 d63c c752 9dbd 31bf b73d 216d d6bb
000000e0: 2efc b93d 72b1 5fbd 102c 51bd 9016 e2bc
000000f0: ea29 a63d 37c7 55bc 302e 483d 8b6f ba3d
00000100: 362f 89bd b16b a9bd a32a f53d 3403 2dbc
00000110: a3d6 d83d 83bd 81bd e43f a53d a37a d53d
00000120: 3e66 083d 5ded 8fbc 488d 4c3d c575 97bc
00000130: b808 773d 440d da3c 0df5 be3d 22d9 503c
00000140: 5120 fdbc 3251 9a3d 0445 2abd d518 fb3c
00000150: 5d8d 883b 24d5 363b 18cb 13be 34c7 84bc
00000160: 3a7c debc eb7a 8abd ef2b 973d c9e9 9abd
00000170: 11fb bb3d 7661 5c3d b5dd 71bd d31a 85bd
00000180: 0a0a 5abd dd02 45be cddf d3bd d719 96bd
00000190: ecf1 a4bd d59b acbc e21e bd3d 69d9 b1bc
000001a0: eeaa 5439 671f acbb 709f ebbc 22e4 8c3c
000001b0: b885 86bc 1ef7 703d 4bf6 ba3d dc10 b63d
000001c0: 304b a4b9 95c6 c1bd f4e9 7cbc 4159 883d
000001d0: 2dc2 35bd 6f97 943d 9006 c63d e62d 893d
000001e0: 8471 ab3d cdba b1bc eb40 7ebd 6add f5bb
000001f0: 7e43 06be 4dc8 20bc cd54 c53d e78d 13bd
00000200: 36dc b03b b424 6d3d 6401 9bbc 90ed 34bd
00000210: c047 16bd efda 963c d26e 8f3d b490 a93c
00000220: 4862 61bc 2d00 5a3d b139 1b3d c16c 753d
00000230: e7cb 453d b74c c33c e5c0 d6bd 37e9 3a3a
00000240: 870e 74bd a5e9 e23c 84ef 8fbd 6ff4 563d
00000250: 742d 0c3d 158e 9dbc 1d89 86bd 143e 0a3d
00000260: ad50 4d3d e70e 81bc 21af 5e3d 1b73 bcbc
00000270: c31e 7bbd 5042 643d 43d2 58bc 3870 fabc
00000280: 8f9f 68bd 278f ac3c 3edc abbb 8d2a cc3d
00000290: 2a5f a7bc 946f 05bd 7cf0 04bd 6ab1 8f3d
000002a0: fcc6 4d3c 1e3c cd3d 86c4 a13d f2e1 bd3d
000002b0: c50b b63c ad99 5ebd 3a7b 96bd 0f97 813d
000002c0: 8d81 103d 0e9f af3d 151a ee3c 3bd9 78bd
000002d0: 1467 b73d 9310 013d 2f5a fe3d 4bec 2a3c
000002e0: 3f4b ba3d 9cfd ea3d 8ec3 5f3d 1275 8d3d
000002f0: 4f23 e73d efcf 893c b73a 933d 5506 983d
00000300: 2dd5 4abc a866 0abd 5fca 993d 2fa1 543d
00000310: 6018 9cbc 14ec 343d 9af1 733a 2e80 f73c
00000320: 3cd2 2f3c 7ef5 67bd 2734 63bd 422e a8bd
00000330: 2ca3 423d 1f9f 3a3d 799f 1ebd a6a9 c63d
00000340: 5155 ed39 4bf7 ab3a 13f6 8e3d 7ce3 9b3d
00000350: 9c03 a13d 41c8 af3d 7cbc 803d 3711 d4bc
00000360: ab93 d63d 0ec5 2b3c 7445 93bd 2f05 bb3d
00000370: 5090 203d fd72 533d 0fed abbc 5693 653c
00000380: 9ca8 c4bd d070 37bd cede 703c 1045 523d
00000390: d070 d63d 897f 723d 897b af3d 8f03 e93d
000003a0: 5628 1b3e 2f4d 2a3d 5f00 a63b fe50 e03d
000003b0: 4e21 f63d 49a5 c43c 1af5 c93d 4890 5a3d
000003c0: be5c 09bd cd11 8b3d c743 b73d 8d4e eb3c
000003d0: 832b 843d 8405 7d3d f478 99b9 6f62 8dbd
000003e0: 3589 ed3c 821d d7bc 1636 20bd fdbf 8e3d
000003f0: c766 963d 4ed1 6ebd 86b0 323d 215c c23c
0.12313667 0.11487898 0.103573866 -0.021589195 0.084432594 -0.031515475 0.041713648 -0.04944865
-0.03960994 -0.03939157 0.008583736 0.0040502786 -0.0072385883 0.08147949 0.07278367 -0.024205212
0.12184622 0.06294982 0.07407457 -0.041139685 0.013773857 -0.0758404 0.052742865 -0.06385778
0.055021286 -0.069199026 -0.041095965 0.095243625 -0.06844057 0.031550687 0.020120146 0.10236353
0.00986848 0.03985308 0.062590934 -0.07892041 0.020232152 -0.08622104 -0.086345024 0.10774723
0.13072105 0.048137255 -0.02663673 0.022686895 0.04020945 -0.060781036 0.039046407 0.0049909204
0.09272858 -0.023791876 -0.027438726 -0.011448293 0.026132464 -0.07681804 0.08972014 -0.006543771
0.090813026 -0.054612584 -0.051067412 -0.02759865 0.08113463 -0.013047985 0.048872173 0.091033064
-0.06698458 -0.08272494 0.11971023 -0.010559846 0.10587814 -0.063349746 0.08068827 0.10423782
0.03330063 -0.017569238 0.049939424 -0.018488774 0.06031105 0.026617654 0.093240835 0.012747081
-0.030899199 0.07535018 -0.041569725 0.03065149 0.0041672424 0.0027898038 -0.14432943 -0.016208269
-0.027158845 -0.06761726 0.073814265 -0.07564122 0.091787465 0.053803883 -0.059049327 -0.06499257
-0.05323223 -0.19239374 -0.10345421 -0.07329147 -0.080539554 -0.0210704 0.09234406 -0.021710115
0.00020281572 -0.005252767 -0.02876255 0.017198626 -0.016421184 0.05882942 0.09129008 0.088899344
-0.00031336537 -0.09461705 -0.015436638 0.06657649 -0.044374634 0.07255446 0.096692204 0.066982076
0.08371261 -0.021695519 -0.06207363 -0.0075032013 -0.13111684 -0.00981338 0.09635315 -0.036024
0.005397345 0.05789633 -0.018921562 -0.04417187 -0.03668952 0.018414943 0.07003559 0.020698883
-0.013756342 0.053222824 0.037896816 0.05991817 0.04829016 0.023840291 -0.104860105 0.00071300886
-0.059584167 0.027699301 -0.07028106 0.052479204 0.034223035 -0.019232789 -0.06569121 0.03375061
0.050125767 -0.015754176 0.054366235 -0.023004105 -0.061308634 0.055727303 -0.013233724 -0.030571088
-0.056792792 0.021064354 -0.005244761 0.099690534 -0.02043112 -0.032577112 -0.032455906 0.07016261
0.012559649 0.10021232 0.07898812 0.09271611 0.022222409 -0.054345775 -0.07347722 0.0632764
0.0352798 0.08575259 0.029065171 -0.060754042 0.089552075 0.031509947 0.12419545 0.010432313
0.09096383 0.114741534 0.054629855 0.06907095 0.112860315 0.016822783 0.07188933 0.07423083
-0.012379927 -0.033789307 0.07509302 0.05191153 -0.019054592 0.044170454 0.0009305716 0.030212488
0.010731276 -0.056630604 -0.05546966 -0.08211948 0.047518894 0.045561906 -0.038726304 0.097003266
0.00045267728 0.0013119964 0.06980529 0.076117486 0.078620166 0.08583117 0.062859505 -0.025887115
0.10477384 0.010483993 -0.071909815 0.09131848 0.039200127 0.051623333 -0.020987062 0.014012178
-0.09602472 -0.04478532 0.014701558 0.051335394 0.10470736 0.05920366 0.08568484 0.11377632
0.15152106 0.041577514 0.005065962 0.10952948 0.12018071 0.024004595 0.098612025 0.053360254
-0.03353571 0.067905046 0.089484744 0.02872398 0.06453612 0.06177284 -0.0002927255 -0.0690354
0.02899609 -0.026259188 -0.03911408 0.069702126 0.07343822 -0.058305077 0.043625377 0.023725571

encoder.encoder.1.backbone.0.0.bias f4 [36]
00000000: 3696 983d 4710 5abd 8964 b1bd 26aa fb3c
00000010: 11d0 19bd 89c7 ac3c 3806 afbd 23d5 94bd
00000020: d9c0 c83d a7e4 9e3d 24b1 93bd b9d7 9ebd
00000030: 7d44 b4bc 1962 6c3d ed3c e23c e9b1 90bd
00000040: 4a5e 793c ec1a ce3c e8ed 223d b17d c8bd
00000050: f559 d3bb 5f8c 153c 705d 1cbd 73ac d03c
00000060: d157 083d a6da 36bd 093f a73d 4c88 6339
00000070: cc7e 6dbd b740 37bd 4791 b2bd fc69 01be
00000080: 961f dbbc 965f aebb d56b a3bd 6a96 da3c
0.074505255 -0.05323818 -0.08661754 0.030720782 -0.037551943 0.02109124 -0.08546108 -0.07267215
0.09802408 0.07758456 -0.07211521 -0.077559896 -0.022005314 0.05771074 0.027616942 -0.07065184
0.015220234 0.025159322 0.039777666 -0.09789599 -0.0064499327 0.009127705 -0.038175046 0.025472855
0.033286873 -0.044642113 0.0816632 0.00021699182 -0.05798225 -0.04473945 -0.08719116 -0.12638086
-0.02674846 -0.0053214533 -0.07979552 0.026683051

encoder.encoder.1.backbone.0.1.weight f4 [36]
00000000: 550d 823f ac09 783f 2382 723f 1c58 863f
00000010: a512 7c3f ab48 6f3f 77d2 763f 4201 683f
00000020: 0c12 6f3f d58b 6c3f 0653 793f 668e 723f
00000030: 423c 5c3f b2b1 843f 8cdc 7b3f eafd 823f
00000040: d89a 8a3f 3f00 653f 459e 553f af0a 6a3f
00000050: e9f6 6f3f 336d 6e3f 3d03 863f 2d65 733f
00000060: 1052 803f 6394 5d3f d4e4 733f 200b 703f
00000070: 3708 7a3f 1d4d 6f3f 0735 793f 12e0 7d3f
00000080: 74f4 793f 42b1 6e3f b027 803f c3bd 733f
1.0160319 0.9688976 0.9472982 1.0495639 0.9846595 0.9347026 0.96414894 0.9062692
0.9338691 0.92400867 0.9739231 0.9474853 0.86029446 1.0366728 0.983834 1.0233738
1.0828505 0.894535 0.83444625 0.9142255 0.9373613 0.93135375 1.0469738 0.95076257
1.0025043 0.86554545 0.9527104 0.93766975 0.97668785 0.9347704 0.9734654 0.9917003
0.9763863 0.93239224 1.0012112 0.9521143

encoder.encoder.1.backbone.0.1.bias f4 [36]
00000000: 6389 d9bc 52af 0fbd 6ca8 82bd 73ca 7cbc
00000010: 1835 01bc 4c2a 3bbc 86b9 07bd b8cd 2abd
00000020: a1f1 bf3c f589 cabc 9e70 4b3c 8bd1 51bd
00000030: f41e fdbc 339d 2fbd 0a87 8bbb 634d adbd
00000040: 09e5 6bbd 1b91 0dbd 9bc8 1abc 7e64 f3bb
00000050: 6ad9 c0bb 2e52 07bd 569a 4ebd 6d8b 8ebc
00000060: e6a4 ef3b 2bc5 03bd 5f4e 97bc 45bf 9ebc
00000070: cfe3 213c 49b3 96bb 72c2 47bc b9b8 55bd
00000080: 1209 aebb 99f2 d1bc 279a 4ebd 5a8d 42bc
-0.026554769 -0.035079308 -0.0637978 -0.015429127 -0.007886194 -0.011423659 -0.033135913 -0.041700095
0.023430647 -0.024723986 0.012416987 -0.051225226 -0.030898549 -0.042874526 -0.0042580413 -0.08462026
-0.05759147 -0.03456221 -0.009447242 -0.007427751 -0.005885293 -0.033037357 -0.050440155 -0.017400468
0.0073133586 -0.032170456 -0.018469987 -0.019378314 0.009880974 -0.004599009 -0.0121923555 -0.05217812
-0.00531114 -0.025628375 -0.05043998 -0.011874521

encoder.encoder.1.backbone.0.1.running_mean f4 [36]
00000000: 07af 143d 3189 ab3c b70e c53c b444 3e3b
00000010: 0d53 1dbe 3d5e debb 56c1 85bd 3236 b8bd
00000020: d946 f83c 073c db3d c715 73bd baa7 683d
00000030: 88ad 283c 60bb 173e c383 3c3d 152a 54bc
00000040: 6cc3 423e 22f4 9a3d 9d96 d93d 94e3 84bd
00000050: 322c e8bc a94e 1e3d 8948 ba3c 8ab1 9b3d
00000060: 822a d43d 72ec 0d3d 5b4a df3d 9728 b5bd
00000070: be96 23be e137 99bd f251 9fbc 89c5 bfbb
00000080: aae0 50bd 95d1 383d 1662 193d 8973 3fbd
0.03629973 0.020939441 0.024054868 0.002903265 -0.15363713 -0.0067861364 -0.065310165 -0.08994712
0.03030722 0.10704809 -0.05934694 0.05680058 0.010295279 0.14817572 0.046024095 -0.012949486
0.1901986 0.07566096 0.1062443 -0.064887196 -0.028341386 0.038649235 0.022739666 0.07602222
0.1035967 0.03464932 0.10902854 -0.088456325 -0.15975472 -0.07481361 -0.019448254 -0.0058524054
-0.050995506 0.045121748 0.037447058 -0.046741042

encoder.encoder.1.backbone.0.1.running_var f4 [36]
00000000: f225 973e 1daf a23e 76e3 ca3d 48d2 f93e
00000010: 851d a83e d20d 4c3e bd89 423e 386c 3d3e
00000020: 4f73 2b3e 2c38 d83e fe0d a93d 6d77 943e
00000030: d170 4f3e c675 7d3e 7fd1 bc3e e5e7 f63d
00000040: a276 0d3e 738f 813e 6ab9 633e c47e 863e
00000050: fff2 bb3d 5214 a63e 97f7 d53e d813 0c3e
00000060: bfd8 4d3e eb26 933e 76aa 773e 08da d43e
00000070: 14ac cb3e a7d8 c43e be8a 143e 5b49 973e
00000080: d5b9 df3e 8cbe c63e 8416 ed3d bfcd f23e
0.29521137 0.31774226 0.09906666 0.48793244 0.32835022 0.19927147 0.18997855 0.18498313
0.16743205 0.42230356 0.08254622 0.28997365 0.2025788 0.24751958 0.36878583 0.12055949
0.13814786 0.25304756 0.22238699 0.2626859 0.09177207 0.32437378 0.4179046 0.13679445
0.20102213 0.2874063 0.2418612 0.41572595 0.39779723 0.38446543 0.14506051 0.29548153
0.43696466 0.3881725 0.1157656 0.47422597

encoder.encoder.1.backbone.1.0.weight f4 [36, 36, 3]
00000000: bd37 cbbd 3ef9 abbc 74cd 463d 8dd7 4d3d
00000010: 61b6 9abd 56bf 79bd 856b 923d 2667 2b3d
00000020: 492c 85bd 4c68 0b3c cc6a 703d ffb4 a03c
00000030: 3ae4 353d 7c1b d63d f164 54bc 9558 a63c
00000040: 529f 80bd e941 233a 0734 f7bc 2cd0 cc3d
00000050: 8a08 083d ffd0 a53b 1303 483c de27 753d
00000060: 2044 a3bd 73a9 a0bd e999 e3bc 2ff4 3cbd
00000070: 85ad 2d3d fb54 88bc 2ef3 d03d 97e0 90bd
00000080: c307 edbc 8441 2bbb 56ae 94bd b7c8 523d
00000090: e2f3 9bbd b054 08bb b578 623c dbd1 26bd
000000a0: 0a3b 08bb 27ed abbc c1da c3bd 3f64 f4bd
000000b0: 3664 02bb 486f 00bd 5b84 e43c 1a3e 3e3c
000000c0: 0392 d4bb bdb6 9e3d d4ab ee3c a915 01bd
000000d0: c88c c3bd a681 a43c ca5c aebd e892 7fbd
000000e0: 7cd8 e53d 83a4 acbd 944e 8b3c c98c 50bd
000000f0: 829a aa3d 8ca0 39bd b665 91bd 984a 89ba
00000100: ebc6 7f3c c78c c53c 272e 2fbe 55f9 cdbd
00000110: 743d eabd d572 783d 9e5a da3c b096 823d
00000120: f486 18bb 9dd3 15bb 3a2e b4bd 2855 dd3c
00000130: f42c b13d e694 23bd 022f 653d af48 533d
00000140: eccf 893d d4ef 51bd a479 c9bc 6a96 5fbd
00000150: 4cdd 753c b644 54bd 3dce 933d e563 893d
00000160: 061b 993c 5d54 dc3d c119 103d 0711 ea3d
00000170: 2150 dbbd c650 82bd 5d86 533d aed4 23bd
00000180: e418 a13d 7851 03be 465a 4fbd 875f 11bd
00000190: d591 c2bd 190e 863c 78e5 e1bd 14df 053d
000001a0: 9bee 763d e9bf 33bd d2ca 463d 6265 0fbe
000001b0: ae97 a73b 21b5 09bc 71a2 b63d 2358 763c
000001c0: 6d30 de3c 535b 23bd c566 313b 323b 03be
000001d0: a38b 743d 6f71 28bd dc89 90bd 029e 4ebd
000001e0: 0ed3 a23d 0b4f 4bbd 8b96 99bc 90cf 28bd
000001f0: c878 fbbd daee a33c d5e4 ad3d 9dc1 2ebd
00000200: 81b3 95bd faf0 553d ca48 1d3d 4ffc 723c
00000210: 2391 07bc bf26 143d 5478 36bb 79ce fdbd
00000220: 36af aebd a3ec ce3c 7296 3f3d d387 d3bd
00000230: 7194 a33d dcb3 d2bb 1f51 1d3d db2c bd3c
00000240: c794 783d d55a 8abd a38d a3bb e966 e2bd
00000250: 4dc9 c2bd cb98 c9bd ba61 33bd b890 08be
00000260: 6dda 03bd 51e8 c0bc 7962 66bd b5e2 ecbc
00000270: 1243 5dbd 81da de3d dde4 b63c 0b02 c4bd
00000280: a53a 9dbc a67b b0bc 4d39 5f3a 84e9 523c
00000290: c36a 5cbd 0138 a73d a369 803a d943 ed3d
000002a0: 3439 e43c 156c 943d 3c0d 36bd 3e13 b13b
000002b0: 4edc 84bc a71b 8d3c 31a4 c03c 4c65 eebd
000002c0: 57bf eeba 749f 593c f9f7 4bbd 6976 35bd
000002d0: 16bc 35bd 9d0d dd39 d5de 663c 7be8 363b
000002e0: 5f4d a6bc 0262 8abc 489b d6bd 5a14 133e
000002f0: 42c3 d1bc fd32 8d3d ddd7 1cbd c222 353d
00000300: ae8a 78bb f317 f6bc 9937 80bd 4a49 353c
00000310: bcee ed3d e835 23bd da02 9f3d 6e5f 0abd
00000320: 476e 9e3d 6a69 dd3d 0447 b83c 1cfa 013d
00000330: d85b 0a3e dea6 78bd e6bb 963d 62c5 f93c
00000340: 80e8 a13d 2741 b43d 8df8 18bd 217f 3b3d
00000350: 9b1f a8bc a04a ecbd ec68 9c3d 981c 79bd
00000360: 0dd2 a4bd db63 d1bc 59bd a7bc b672 97bd
00000370: 943a 3bbd 2510 b7bc 3698 83ba 9618 fd3c
00000380: 65e5 023d f52d a3bd 580d 4bbd eb48 583d
00000390: 73a4 9fbc ed08 37bc a752 ba3c 7974 07bb
000003a0: 6c7f cebd fc04 493d 8cc6 8bbb 27aa 0dbd
000003b0: c2b2 61bd 9684 babc b664 9d3d 1e83 823d
000003c0: 45cc 293d 948b 34bd 646b b33d 2082 b1bd
000003d0: c1ac dd3d 516a 833d 3a60 e6bc d1bd ce3c
000003e0: 01ee 163c d784 a2bd 47fd 3bbb 6985 31bd
000003f0: 2978 a9bb ac82 98bd b308 ac3d f0fd 0d3c
-0.099227406 -0.020992871 0.04853578 0.050254393 -0.07554317 -0.060973488 0.07149414 0.041846417
-0.06502587 0.008508753 0.0586956 0.019617556 0.044407107 0.10454461 -0.012963519 0.020305911
-0.06280388 0.0006227778 -0.030176176 0.10000643 0.03321127 0.0050603147 0.012207764 0.059852473
-0.07971978 -0.0784482 -0.027783351 -0.04613131 0.04240181 -0.016642084 0.10202633 -0.07074087
-0.028934365 -0.002613158 -0.072598144 0.051460948 -0.07614876 -0.002080243 0.013822724 -0.040727478
-0.0020787143 -0.020987106 -0.09563208 -0.11933183 -0.0019896156 -0.031356126 0.027895143 0.011611486
-0.0064871325 0.07749698 0.029134668 -0.031514797 -0.09548336 0.020081352 -0.08513792 -0.06239596
0.11222932 -0.084298156 0.017005242 -0.050915513 0.08330251 -0.045319125 -0.07099478 -0.0010474501
0.015611391 0.02411498 -0.1710745 -0.10057322 -0.114375025 0.060656387 0.026654538 0.063763976
-0.0023273798 -0.0022861727 -0.087978795 0.027018145 0.08651152 -0.039936922 0.055953033 0.05158299
0.06729111 -0.05125411 -0.024594136 -0.054586805 0.015006375 -0.05182334 0.07217071 0.067085065
0.018689644 0.107582785 0.03518081 0.11429029 -0.10708643 -0.063630626 0.05164181 -0.03999775
0.07866076 -0.12824047 -0.0506232 -0.035491493 -0.095004715 0.016364144 -0.11030096 0.032683447
0.060286146 -0.04388419 0.04853327 -0.14003518 0.005114517 -0.008405001 0.08917702 0.015035662
0.0271227 -0.039882015 0.0027069312 -0.1281555 0.05970348 -0.041123804 -0.070575446 -0.050443657
0.07950412 -0.049635928 -0.018748542 -0.041213572 -0.122788966 0.020011354 0.08490912 -0.042665113
-0.07309628 0.052231766 0.038399495 0.014830663 -0.008274349 0.036169764 -0.0027842717 -0.12392897
-0.085295126 0.025259322 0.046774335 -0.10328641 0.07987297 -0.0064301323 0.03840744 0.023092678
0.06068876 -0.06755606 -0.0049912496 -0.11054785 -0.09511051 -0.09843596 -0.04379437 -0.13336456
-0.03219073 -0.023548277 -0.056246255 -0.028916696 -0.05401904 0.1088152 0.022325927 -0.09570702
-0.019193003 -0.021543335 0.00085153134 0.012873057 -0.053812753 0.08164979 0.0009797107 0.115852065
0.027859308 0.072471775 -0.044446215 0.005403905 -0.01621833 0.0172251 0.023515793 -0.116404146
-0.0018214983 0.0132826455 -0.049797032 -0.044302378 -0.044368826 0.00042162547 0.014091213 0.0027909565
-0.020300565 -0.016892437 -0.10478836 0.14363232 -0.025605801 0.06894491 -0.0382918 0.0442226
-0.0037924456 -0.030040717 -0.062606044 0.011064837 0.116178006 -0.03984633 0.07764216 -0.033782415
0.077358775 0.10811122 0.0224948 0.031732664 0.13511598 -0.060706012 0.073600575 0.030489627
0.07905674 0.08801489 -0.03734641 0.045775536 -0.020522883 -0.11537671 0.076372 -0.060818285
-0.080478765 -0.02556031 -0.02047603 -0.07394926 -0.04571016 -0.022346565 -0.0010039869 0.030895513
0.03195705 -0.0796775 -0.049573272 0.052803915 -0.019487595 -0.011171562 0.02274449 -0.0020668788
-0.100828975 0.04907702 -0.004265612 -0.034586098 -0.055102117 -0.0227683 0.07685225 0.06372665
0.041454572 -0.044078425 0.087607175 -0.086673975 0.10823966 0.064167626 -0.028122056 0.025236996
0.009212018 -0.079354934 -0.00286849 -0.04334012 -0.005171795 -0.07446799 0.08400097 0.0086665

encoder.encoder.1.backbone.1.0.bias f4 [36]
00000000: 8774 553d 4494 b03d 8643 c2bd dd17 d63d
00000010: 26e4 1ebb 9886 47bd a1f3 50bd 0236 9fbd
00000020: 9d4c 9d3d 4432 513d a1fc b43d 8b13 93bd
00000030: 2f10 bcbd db14 1b3d 1037 4f3d 8737 1b3d
00000040: d184 803d 7dba 2d3d b209 513d 6736 c9bd
00000050: 68ea 2abd 8d8c b53d a386 abbc 0075 52bd
00000060: 1b93 4b3d db4d b83d 95bd 59bc bb8f 0ebd
00000070: c8e0 21be 05e3 14bd 4f94 72bd 1197 57bd
00000080: 4e26 fb3c d4fd 09be 7a37 9a3c e9db 55bd
0.052113082 0.086220294 -0.09485535 0.1045377 -0.0024244874 -0.048712343 -0.051013593 -0.07773973
0.076806284 0.051073328 0.08837248 -0.07181462 -0.09182774 0.037861686 0.05058962 0.037894752
0.06275333 0.042414177 0.051034637 -0.098248295 -0.041727453 0.088646986 -0.020938223 -0.05138111
0.049700838 0.08999225 -0.013289829 -0.03480504 -0.15808403 -0.036349315 -0.05922347 -0.052634303
0.030657914 -0.13475734 0.018825281 -0.052211676

encoder.encoder.1.backbone.1.1.weight f4 [36]
00000000: 682b 7f3f 980a 743f 6a0b 6b3f 413e 753f
00000010: 097e 703f 329a 613f 5a55 5e3f 338b 6e3f
00000020: e97a 603f 925a 773f c77e 813f 8a1f 823f
00000030: 761d 843f 39ac 6d3f e696 853f 49eb 5c3f
00000040: 87e0 713f c207 503f dbc7 723f 6a33 823f
00000050: 4d78 763f e288 5b3f f4ce 6d3f 113b 653f
00000060: dd0a 6d3f 41e5 7c3f 4674 703f 20a9 733f
00000070: ee23 773f 436d 5b3f 945a 6e3f a3a4 4f3f
00000080: 575f 7e3f eba2 6a3f 2d21 723f c35c 633f
0.9967561 0.95328665 0.9181429 0.95798117 0.93942314 0.8812591 0.86848986 0.9318115
0.87687546 0.96622574 1.0116814 1.0165875 1.0321491 0.92840916 1.0436676 0.86296517
0.94483227 0.8126184 0.94836205 1.017194 0.96277314 0.8575574 0.9289391 0.89543253
0.925947 0.98787314 0.9392742 0.9517994 0.965392 0.85713595 0.9310696 0.8111059
0.9936423 0.91654843 0.9458187 0.8881342

encoder.encoder.1.backbone.1.1.bias f4 [36]
00000000: 08f2 b03c ae26 dd3c cf20 80bc 9165 203c
00000010: e789 173c 6a7b 2abc e4fe 49bc 184a d73b
00000020: f3de f53c df23 11bb 38ca 273d 1a75 12bd
00000030: d931 a1bd 5d46 a13c 2640 bbbc d12d 85bc
00000040: 3ddd 293b dac9 d2bb 9964 c1bc 3837 2cbd
00000050: 425a 653c c29a 013b cd17 643c 0a27 833c
00000060: a110 2cbc d8d0 be3c 64c6 03ba b63e 98bc
00000070: ba4c aebd 44f5 8bbd 135f 8b3b 85a4 cdbd
00000080: 4d49 0ebd a6c3 91bd d4a1 edbb 9acb 47bc
0.021599784 0.026995983 -0.015640644 0.00978984 0.009249187 -0.010405401 -0.012328837 0.006570112
0.030013537 -0.0022146625 0.040964335 -0.035756208 -0.07870836 0.019686872 -0.022857737 -0.016257199
0.0025919222 -0.006432754 -0.023607539 -0.04204485 0.01399857 0.001977608 0.01392169 0.016009826
-0.0105020115 0.023292944 -0.0005026816 -0.01858459 -0.08510728 -0.0683389 0.004253277 -0.10041145
-0.034737874 -0.07117395 -0.0072519574 -0.0121945385

encoder.encoder.1.backbone.1.1.running_mean f4 [36]
00000000: e210 d03d 5454 123c 93e4 81bd 6cf6 9a3d
00000010: 7c20 11bd dc4e 97bd 890a 88ba fd26 d1bd
00000020: e274 563d 6534 673d d957 0f3e f21e 063d
00000030: 9486 01bd da3c 283e b6ba fd3d 6d94 c13d
00000040: ea04 9f3c 9e1f 283c e076 8c3d 9186 48bd
00000050: 6f0c 0bbe 1851 303e ebf0 1a3b 3613 9bbd
00000060: 29b2 233d cb3e fa3d 5dd2 143d 7826 67bd
00000070: 021e a4bc 227b 993d 4458 06be 4c3d 753d
00000080: 4692 be3c d734 d5bd 7ee1 943c e366 b0bd
0.1015947 0.008931238 -0.06342425 0.075665325 -0.03543137 -0.07388088 -0.0010379116 -0.102125145
0.052357562 0.05644645 0.13998355 0.032744355 -0.031622484 0.16429463 0.12389128 0.09452138
0.019411523 0.010261444 0.06858611 -0.048956458 -0.13578962 0.17218435 0.0023642133 -0.075720236
0.03996483 0.12219008 0.03633343 -0.05643317 -0.02003384 0.07494189 -0.13119608 0.05987291
0.023263108 -0.10410469 0.01817393 -0.08613374

encoder.encoder.1.backbone.1.1.running_var f4 [36]
00000000: 34e2 e23e 74fc d63e 032b ea3e c019 643e
00000010: 5d28 ef3e ba31 f23e 5c28 bc3e d42c 153f
00000020: 3643 8e3e c660 913e be4a 903e 1702 c13e
00000030: 0cf4 b23e b1ca 413f c8d8 dc3e db88 8d3e
00000040: 48bc 803e 46fe 193e bda2 a83e 7540 263f
00000050: ab3e fb3e 050d 733e 71da ae3e f676 953e
00000060: d572 a93e 735f 6a3e 525b 0c3f 858a 883e
00000070: 65fe 7d3e 53d6 1c3e bc55 ac3e 7da8 693e
00000080: 94be 953e bc7d f33e 9fd8 fe3e a01c 453e
0.44313204 0.4198948 0.4573594 0.22275448 0.46710482 0.47303563 0.36749542 0.5827153
0.27785653 0.28394145 0.28182024 0.37696907 0.34951818 0.7569991 0.4313414 0.27643475
0.25143647 0.15038404 0.3293666 0.64942104 0.4907125 0.23735435 0.34151033 0.29192322
0.33095422 0.22887973 0.54826844 0.26668182 0.24804075 0.15316133 0.3365916 0.2281818
0.29246962 0.47556865 0.49774644 0.19249201

encoder.encoder.1.downsampling.weight f4 [36, 36, 7]
00000000: 299e a2bc bcbc 503c 588d e53b c31c b63c
00000010: a773 f2bb 540e 8e3c a393 a1bc fada f73b
00000020: 2eeb 53bd 0477 3f3d b1fd 95bc 6158 b23c
00000030: 3be1 0ebc 9458 d63d b475 123c 3472 07bc
00000040: 441c a8bc 263d d33b 50bd 843d e971 c7bc
00000050: 8e0c 8c3b 03cc c2bd bd27 a5bc c4e3 c2bd
00000060: b8ba a0bc 7da8 9bbd 68bf 66bd 7ed6 bebc
00000070: e709 173c 1180 2c3d 2f32 0b3d feba 2f3c
00000080: 6745 b6ba 3489 a23d 7a5b 5a3d 6ba0 54bc
00000090: 4d3f 413c 23b1 723d 80fc d8bd c620 7e3d
000000a0: 31ef a1bc 4a9c 7f3c a66d 353d d86f 48bb
000000b0: 049d 44bd 7822 eebc 25c1 583d 2adc 3cbc
000000c0: db2c 323d ae00 673c 1b14 66bd f0b1 49bd
000000d0: 9d03 9b3a 4374 0fbd 4464 f7bc ea2d cf3c
000000e0: 2824 223d b92c 5ebd a901 42bd d2e6 35bc
000000f0: 3181 673c bb39 babc 2fb1 05bc 27c4 39bc
00000100: ad35 7abd 3fc6 cbba e575 14bd 0341 c13c
00000110: a04c 84bd 0d43 97bc da0a a13d 022f f7bc
00000120: 2ff2 9fbb 950a 5e3c 160c d1bc 25ab 4a3d
00000130: 34b7 3c3c 38ed b7bc 3fef e9bc 3802 14bd
00000140: d263 55bd 14d6 14bd ad24 1b3c 8fa3 153d
00000150: 7416 a3bc 6be1 7f3d 0d0e 66bc 7e8e 4c3d
00000160: 8d6d e63c e644 bd3c 82f5 173d 0174 4e3d
00000170: 0c30 aaba 26eb 7e3d d32a 653d 9061 953c
00000180: 58e6 0c3d 0772 063b 4715 87bb 903d 42ba
00000190: bf10 bc3c 9fc8 43bc 5e83 853d c561 eeba
000001a0: 0829 883d 1b27 4a3c c1a8 2bbd 6802 8dbc
000001b0: f645 ebbc 197f 143d 3d93 80bc cab9 e6bc
000001c0: e4d4 e73b e0c2 efbc 186e 1bbd 4e3f cabd
000001d0: 0f15 953c 40b8 0ebc 0193 b2bd 1d34 873d
000001e0: 2579 5d3c 2117 c03c 401d c83d a7d2 823c
000001f0: 5684 ca3d f861 8a3c 9d55 1e3d 4d87 d03b
00000200: 65d2 873d ba1e 6f3d 2ae3 49bc 7d88 7d3c
00000210: 9770 9b3c f5a0 83bc 2c13 8c3c e430 a93d
00000220: f4c3 70bc 060f f5bb 7a97 fa3c 325b 02bc
00000230: e4bf 9c3b 441f 22bd e352 1b3d 4bc8 b4bd
00000240: f265 83bd cb99 86bc 1ee6 9c3d 2637 113a
00000250: d63b 62bb 6efe 0cbd 662f 47bc 8ef8 23bc
00000260: 5a77 19bd e586 993c 961e 3e3b ef79 263d
00000270: 243f dd3c d3a9 8bbc 5369 093c f658 433d
00000280: 63a6 59bd dcb8 7cbd 9d48 88bb 1dd8 653d
00000290: f555 c73c 2c5f 18bd 5677 7abc 53f1 5ebc
000002a0: 97f5 f0bb 1d42 8abd b303 b43c db97 893b
000002b0: 3559 b8bc a473 2ebd bd0c 193c 4fd0 dfbc
000002c0: 68b9 6fbd 6592 33bc 0434 61bd 2319 963c
000002d0: c48b 8ebd 0789 103b c51b f53c e117 583b
000002e0: 88cc 923d 2569 b8bb f1cd 6fbb a451 413d
000002f0: d04e 283d a25b 573d 469a b63c b810 853d
00000300: 47fc 0abd 269b 9a3d b9b3 8e3d 1c77 3b3d
00000310: 3565 8e3c 1667 d43c 1837 eb3c 5a70 043d
00000320: 3c54 6c3c f26b 31bd 6861 6139 0bf0 7c3c
00000330: b7f5 d23b 2f7f 8dbd 02ba f83c 61cc 93bd
00000340: 7482 203d 9c41 1b3d 1239 05bb 547b 253c
00000350: bbc4 a03b 415e 623c ae7a eebc a299 6e3d
00000360: e02f f73c 3b52 8dbc e398 30bc 24c7 6c3b
00000370: 9d11 92bd b638 51bd d8b3 0dbc 983a 0dbc
00000380: ce43 2cbd 4204 e9bc c265 3bbd f9b5 42bc
00000390: 93eb 0d3d d6ae 3b3d cd94 d1bc 385d 6fbd
000003a0: 7814 dbbc ef51 353c 26fd 173d 5d7b 803d
000003b0: e4e7 8dbc d1b6 fe3c b57c 113d 6057 823b
000003c0: cfad 55bc 9888 113d f9ea c3bc 5823 a53c
000003d0: cd1f 31bd aaca 813b b5b6 84bb 01bd 6d3d
000003e0: 42fe 673d fcb9 113d 6ca9 f83c c20f ae3d
000003f0: 2081 023d f942 d2bb e0c5 3ebc 8390 2ebc
-0.019850807 0.01274031 0.007005375 0.022230512 -0.0073990407 0.017340817 -0.019723719 0.007563946
-0.051737957 0.04674436 -0.018309446 0.021770658 -0.008720691 0.10466114 0.008939195 -0.008266974
-0.02052129 0.0064464984 0.06481421 -0.024346309 0.0042739576 -0.095115684 -0.02016055 -0.09516099
-0.019620284 -0.07600496 -0.056334883 -0.023295637 0.0092186695 0.04211432 0.033983406 0.010725735
-0.0013906182 0.07936326 0.053309895 -0.0129777 0.011794877 0.059250962 -0.105950356 0.062042974
-0.019767376 0.015601227 0.044294022 -0.0030584242 -0.048001304 -0.02906917 0.052918572 -0.011527101
0.04349981 0.014099283 -0.056171518 -0.04924196 0.0011826638 -0.035022985 -0.030199178 0.025290448
0.039585263 -0.05424187 -0.047364864 -0.011102395 0.014129923 -0.022732606 -0.00815992 -0.01133827
-0.061086345 -0.0015546753 -0.036245245 0.02359057 -0.064599276 -0.01846459 0.07863398 -0.030173782
-0.0048811655 0.013552328 -0.025518458 0.049479622 0.011518288 -0.022451982 -0.028556464 -0.03613493
-0.05209715 -0.036336973 0.009469193 0.036532935 -0.019908167 0.062470835 -0.014041436 0.04994058
0.02812841 0.023104142 0.03709937 0.0504036 -0.001298429 0.062235974 0.055949043 0.018234998
0.03439936 0.0020514743 -0.0041224095 -0.0007409686 0.022957204 -0.011949687 0.06519197 -0.0018187097
0.06648451 0.012338425 -0.041908983 -0.017213061 -0.028719883 0.036254022 -0.015695209 -0.028164763
0.007074939 -0.029267728 -0.03794679 -0.09875356 0.018198518 -0.008710921 -0.08719445 0.06601737
0.013517653 0.023448529 0.09771204 0.015969587 0.09888522 0.016892418 0.038655866 0.0063637854
0.066319264 0.058378913 -0.012322227 0.015474436 0.018974585 -0.016067961 0.017098986 0.08261278
-0.014695156 -0.0074785976 0.030589808 -0.007956313 0.0047836173 -0.0395806 0.037920844 -0.08827265
-0.06415929 -0.016430756 0.07661079 0.0005539529 -0.0034520528 -0.03442233 -0.012157297 -0.0100079905
-0.03746734 0.01874108 0.002900993 0.04064363 0.027007647 -0.017048752 0.008386928 0.04769226
-0.053137194 -0.061699733 -0.004159047 0.056114305 0.02433298 -0.037200138 -0.015287241 -0.013607341
-0.0073534953 -0.06750891 0.02197442 0.004199011 -0.022503475 -0.042590752 0.009341416 -0.027321009
-0.058526427 -0.010960196 -0.054981247 0.018322533 -0.06960252 0.002205433 0.029920468 0.0032973217
0.071679175 -0.0056277686 -0.0036591257 0.047197 0.041090786 0.052577622 0.02229036 0.064973295
-0.033931997 0.075491235 0.06967873 0.04576789 0.017382244 0.025928061 0.028712794 0.03233371
0.01442438 -0.043315835 0.00021493959 0.01543809 0.006437983 -0.06909024 0.030362133 -0.072167166
0.03918691 0.037904367 -0.0020328206 0.0101002045 0.0049062646 0.013816417 -0.029111233 0.058251984
0.030174196 -0.017251125 -0.0107786385 0.003612944 -0.07132266 -0.051079474 -0.008648835 -0.008619927
-0.04205685 -0.028444413 -0.04575134 -0.011884206 0.03464849 0.045821033 -0.025583649 -0.05843851
-0.026743159 0.011066898 0.037106656 0.0627353 -0.017322488 0.031093033 0.03551932 0.003977701
-0.0130419275 0.035530657 -0.023915755 0.020158455 -0.04324322 0.003960927 -0.0040501007 0.058041576
0.056638964 0.03557776 0.030354224 0.08499099 0.031861424 -0.006416675 -0.011643857 -0.0106545715

encoder.encoder.1.downsampling.bias f4 [36]
00000000: c24f 8e3a ee35 01bd 56ad 143d 4648 5bbd
00000010: f3ab f1bc 422c be3c 83ae 1bbc c711 87bd
00000020: f5ad 95bc 9250 803c 4483 81bd c410 923d
00000030: c9c5 61bd bf8e c7bc 2a3b da3c de10 4abd
00000040: f601 a53d b4a4 9bbd 6a48 8fbd b072 26bd
00000050: 6533 ad39 5189 cd3b 2b95 97bd a24e cd3c
00000060: 639c e33b ca16 803d a2f8 433d 6d48 ae3b
00000070: b2cf 993c 4192 dcbc 23b6 2cbd dace 2b3d
00000080: b86c d13b 0c22 d03c 64d0 febc ce7e b23c
0.001085751 -0.031545572 0.03629812 -0.053535722 -0.029500937 0.023214463 -0.009502056 -0.06595188
-0.018271426 0.015663419 -0.06323865 0.07132104 -0.055120263 -0.024360059 0.02663954 -0.049332492
0.08057015 -0.07599774 -0.06996234 -0.04063672 0.00033035423 0.006272473 -0.074014984 0.02506191
0.006946133 0.06254347 0.047844537 0.0053186924 0.018775795 -0.026925208 -0.042165887 0.041945316
0.006391134 0.02540686 -0.031105228 0.02178898

encoder.encoder.2.0.weight f4 [36, 36, 7]
00000000: c4c9 383d 2b08 863c 4113 1bbd d8e4 093d
00000010: c7de 57bd 996e 08bc deb6 cf3c 6611 b03b
00000020: d189 fabb 381d 8abb 082b d13c b935 69bd
00000030: dbaf 663d 9232 99ba 3566 b6bc 43bc 1ebd
00000040: 8c39 6bbc ad07 38bc ea66 aabb a310 793d
00000050: 831a b5bc 74a2 df3a 2400 243d 3a37 023c
00000060: 81a0 493d 6a92 2ebd 6d3f 89bc b8a2 983c
00000070: f521 50bb 9a49 f63c 9634 ca3c f9c4 a5bd
00000080: 5857 db3c 6775 da3c f064 b7ba eeec db3c
00000090: 2f7e fd3c a60b 5c3c dde4 a2bb a1ad 313d
000000a0: 4de2 4fbc 85df 75bd 2054 c2bc e725 b7bc
000000b0: 62d3 bb3b 4eb3 c43d 4b06 51bc 6083 213b
000000c0: 03a8 8f3c 4f66 a03c 1a71 37bc 264d 363d
000000d0: ba8d c2bc 5a49 90bc 3ec1 853c 4123 babc
000000e0: f248 863c 05d6 a73c 2dba bdbb 0254 ecbb
000000f0: 6801 d23b 81cf 183d f51f 9f3d a526 83bc
00000100: 7821 93bc fd8d 2e3d 9c6a 823c f44c 2f3d
00000110: aa6c 19bd d19c 52bb 4b3c 2cbc b434 1e3d
00000120: 969d 013d bf1a b4bd 2e2d ef3c d6c3 823b
00000130: 5631 2abc db67 61bc 81d6 543c 23dc b6bc
00000140: d918 38bd 7d52 e1bc 987c 093d 91c9 0abc
00000150: 750f 57bc 0e3b 04bd 3fe0 51bd fb6b 5abd
00000160: 08ee 22bd cf0b a93c d131 39bd 1915 293c
00000170: 5280 27bd 21d6 a13c 6670 3b3d 768e 263d
00000180: c5b3 453d f201 bebc f260 cbbc 6007 bdbc
00000190: b6a4 21bd ec5c dfbb 156b e63b fab0 803c
000001a0: 9ece e23c b372 2cba d4d6 58bd f380 08bd
000001b0: 01cf debb d07d c53c b762 ee3c a70f 333d
000001c0: e9b6 2bbd c1f9 04bd eb18 a13b 7bd1 0fbc
000001d0: f829 80bd 2c41 c0bb ac60 8c3a 4fdb 983c
000001e0: 555d 143d 135f eebb ca6d 2abc dc64 2fbd
000001f0: 9419 4bbb 9b04 e3bc bb38 1a3c 2937 27ba
00000200: 5250 6d3c bd1f bc3c 5c9d 44bd 9b58 853d
00000210: ba08 08bd 96cd b0bc f3d0 cab9 e187 283a
00000220: b5c2 533d c4a8 05bc ac8e 213d 0fdb d6bc
00000230: 3dc5 3bbc 6cc1 983d fede 623a 0108 67bd
00000240: e1d7 a7bc 050e dd3c aae2 d1bc 2747 9b3c
00000250: d037 c8bc 663d 3f3d fd42 45bc 2aba 883d
00000260: 3bd8 3fbd eb00 01bb 8cd0 e43c 09a5 a3bc
00000270: b491 4c3d 34e7 4fbc 1416 e33c 9b8b 093d
00000280: fae9 b93c 3718 50bb 7ac9 66bb 1e83 1bbc
00000290: 715c 963d c72e cabc 5409 103c af35 373c
000002a0: 9833 023d dbaf 903b 9904 00bd 8b4f b83c
000002b0: 7ffd 6cbd 16e4 7fbb 7ddc d03c 19fc 2ebb
000002c0: 99cc bdbc 0487 723b dfa8 a4bc ebdc ecbc
000002d0: 6fc3 083d 84f9 993c 8f6d 21bc 34d6 12bb
000002e0: 8380 debc d8d0 29bd 200c 113b c718 053d
000002f0: 4d44 9ebb 5f0d d73c 895d 9f3b 3e20 23bd
00000300: 042b 69ba 0dd0 0dbd 9e76 183c fcb0 ee3c
00000310: cf02 24bd 7828 c2bc 2d29 bd3c 875e 773d
00000320: f39f 9e3c b17e d03a a952 013d 36dc dd3c
00000330: dced 213c 0b3f 45bd d9ce 94bc 0550 68bc
00000340: 2dff 14bd dbda 81bd ad05 a0bb c958 d9bc
00000350: df41 25bb c266 033d b1f5 3f3b 2d4a 023c
00000360: 5cf5 733b b408 39bc f683 ee3c f2db 05bd
00000370: baa1 3c3d ee87 06bd a79d 3f3d c12b 363b
00000380: 711c dc3b 68e5 60bd 20d3 503c e2cd cc3c
00000390: e11f 323d 6bcb 13bc 4e88 af3a af74 803c
000003a0: c933 4d3b f55b 6a3d aab6 043c 4246 bd3a
000003b0: 0df2 76bc 1c09 1f3c 667c 6dba 8755 86bc
000003c0: bfcc 83bb 7d8f ff3c 0713 f5bc 7662 843d
000003d0: 43ab 503d d047 253c 152a aabc fa63 6f3c
000003e0: 1b33 463d 6991 b53c 86cf 363c abdd 1f3d
000003f0: fa91 5dbd 8bdb f4bc bfa5 6abc dc80 143c
0.045114294 0.016361317 -0.03786016 0.033665508 -0.05270269 -0.00832715 0.025355753 0.005373168
-0.0076458235 -0.004214909 0.025533214 -0.056936 0.056320053 -0.0011688045 -0.022265533 -0.03875376
-0.014356982 -0.011232299 -0.0052002566 0.06080688 -0.022107368 0.0017061965 0.040039197 0.007947737
0.049225334 -0.0426201 -0.016753877 0.018632278 -0.0031758521 0.030064393 0.024683278 -0.0809421
0.026775047 0.02666731 -0.0013991874 0.026846375 0.030943958 0.013430512 -0.0049711303 0.043378476
-0.012688232 -0.060027618 -0.023721755 -0.02235694 0.005731986 0.09604512 -0.012757848 0.0024644956
0.017536169 0.019580035 -0.011196399 0.04450717 -0.023749221 -0.017613102 0.016327497 -0.022721888
0.016392205 0.020487795 -0.005790016 -0.007212163 0.006408859 0.037307266 0.07769767 -0.016009638
-0.017960295 0.04261588 0.015919976 0.042797998 -0.037457146 -0.0032136927 -0.010512422 0.03862448
0.031644426 -0.08794164 0.029196348 0.0039906306 -0.010387739 -0.013757671 0.012990595 -0.022321766
-0.04494557 -0.027505154 0.033566087 -0.008470909 -0.013126244 -0.03228288 -0.05123925 -0.053325634
-0.039777786 0.020635514 -0.045213524 0.0103199715 -0.04089386 0.019755425 0.04576149 0.040663205
0.048267145 -0.023194287 -0.0248265 -0.023074806 -0.03946372 -0.006816497 0.007031808 0.015709389
0.027686413 -0.0006578371 -0.05293925 -0.0333261 -0.006799579 0.024107844 0.029099805 0.0437161
-0.041922484 -0.032464746 0.0049163005 -0.008777971 -0.06258005 -0.005867144 0.0010709963 0.018659262
0.03622182 -0.0072745173 -0.010402152 -0.042820796 -0.0030990588 -0.027712157 0.00941294 -0.0006378764
0.014484482 0.022964353 -0.048001632 0.06511041 -0.033211447 -0.021582406 -0.00038684122 0.0006428939
0.05169936 -0.008157913 0.039442703 -0.026227502 -0.0114605995 0.07458767 0.0008654444 -0.056404117
-0.020488681 0.026984224 -0.025620777 0.018954827 -0.024440676 0.046689413 -0.012039897 0.06676133
-0.046837073 -0.0019684385 0.027931474 -0.019976156 0.04994364 -0.0126894 0.027720489 0.033580404
0.022694577 -0.0031752714 -0.0035215304 -0.00949171 0.073418505 -0.024680508 0.0087912865 0.011182233
0.031787485 0.004415495 -0.031254385 0.022498867 -0.05785894 -0.0039045862 0.025495762 -0.0026700555
-0.023168849 0.0037006745 -0.020100055 -0.028913936 0.033389505 0.018795736 -0.009852781 -0.0022405507
-0.027160889 -0.041458935 0.0022132471 0.032494333 -0.0048299194 0.026251493 0.004863445 -0.03982567
-0.00088946545 -0.03462224 0.009305624 0.029137127 -0.04004174 -0.023700938 0.023090923 0.060392883
0.01936338 0.0015906898 0.03157297 0.027082544 0.00988337 -0.048155826 -0.018165039 -0.014179234
-0.036376167 -0.063405715 -0.004883489 -0.026531594 -0.0025216264 0.03208042 0.002929073 0.007952255
0.0037225103 -0.011293579 0.029115658 -0.03268046 0.046052672 -0.032844476 0.04678121 0.0027797075
0.0067172577 -0.05490628 0.012745649 0.025000516 0.043487433 -0.009020667 0.0013392062 0.01568064
0.0031311384 0.057216603 0.008100191 0.0014440494 -0.015072358 0.009706762 -0.00090593693 -0.016398204
-0.0040222104 0.03119635 -0.0299163 0.064640924 0.050944578 0.010087922 -0.02077202 0.014611239
0.04838858 0.022164064 0.011157876 0.03902976 -0.054094292 -0.029889842 -0.0143217435 0.009063926

encoder.encoder.2.0.bias f4 [36]
00000000: a58d 883d 76e4 aabc bc8d 8a3d d9e4 f93c
00000010: 3658 03bd bea7 423c 5f14 773d 58d4 38bb
00000020: 42eb 6abd b56e b33d a836 60bd c38f dd3b
00000030: 4e31 3d3b 791a edbd 19d3 cc3c e48c eabd
00000040: c296 80bd 5bfc 8abc 8422 4c3d f1f0 69bd
00000050: 0262 013c 1b5c 463c 8168 313c 60c8 2c3c
00000060: 29db 403d a669 b23d ea74 79bc 87d8 a53b
00000070: 1553 12bb 1e74 4d3c 508f b4bc fcc5 fa39
00000080: 1c24 4e3d ec4e dabc 716d d6bc 6be1 b5bc
0.066676416 -0.020860892 0.06765315 0.03050463 -0.032066546 0.011880813 0.06032216 -0.0028202739
-0.057353266 0.0876135 -0.054739624 0.0067615225 0.00288685 -0.11577315 0.025003003 -0.11452654
-0.06278755 -0.016966036 0.049837604 -0.057114545 0.007896902 0.012106921 0.010828138 0.01054582
0.047084007 0.08711557 -0.015225628 0.0050612125 -0.0022327353 0.0125398915 -0.022040993 0.00047831226
0.050327405 -0.026648961 -0.026175233 -0.022202214

encoder.encoder.2.1.weight f4 [36]
00000000: 0652 5f3f 8453 2f3f c2f6 333f b8da fb3e
00000010: 6f71 6b3f 6807 663f e448 243f 3778 123f
00000020: 8fc5 663f 031d 0f3f fe81 2d3f b273 443f
00000030: 4c9a 163f 9644 1f3f 1794 1e3f 5a43 643f
00000040: 04aa 1c3f 6d41 123f d527 383f 6839 2d3f
00000050: b73d 3d3f 0e21 6a3f 8846 263f 54f5 2a3f
00000060: c7ac 3e3f 2f67 103f b709 673f d549 693f
00000070: fd0f 6b3f f6f5 003f a78b 473f 693d 5c3f
00000080: e52c 383f e1d3 733f 70e0 603f a769 3b3f
0.8723453 0.6848681 0.702984 0.49190307 0.9196996 0.8985505 0.6417372 0.57214683
0.901452 0.55903643 0.6777648 0.7673904 0.5882919 0.6221403 0.6194472 0.8916527
0.61196923 0.5713108 0.7193578 0.6766572 0.73922294 0.9145669 0.6495137 0.6678059
0.7448239 0.56407446 0.902492 0.91128284 0.9182127 0.50375307 0.7794747 0.86031204
0.71943504 0.95245177 0.87842464 0.7320809

encoder.encoder.2.1.bias f4 [36]
00000000: 17df 353b 0d7c 0e3d bf69 ae3c 68f7 b73b
00000010: c480 fdbc 0674 63bb 90f8 b63c dd15 2b3c
00000020: b6d6 413c c061 483d 0f49 b0bb 7422 c9bb
00000030: f2bc a13b 0510 73bd 98bd 043d f04d 8dbd
00000040: bbf0 ccb9 0cea 85bd fdc8 513c 1038 b5bc
00000050: 38c2 22bd d3c5 77bc 9b4e 5abd 5ac7 5fbc
00000060: 63a6 b8bc 35a8 373d c3a9 513c 087e 93bc
00000070: f02b 583b 2564 1abb 3171 033d 025d 6ebc
00000080: 9759 873d 9ff7 30bd b08a a2b9 cee8 51bd
0.002775138 0.034786273 0.021290658 0.00561421 -0.03094519 -0.0034706607 0.02233532 0.010442224
0.011830976 0.048921347 -0.005379803 -0.0061381403 0.004935854 -0.05934145 0.032407373 -0.06899631
-0.0003908927 -0.065387815 0.012804267 -0.02212146 -0.039736003 -0.015122849 -0.05329762 -0.013658369
-0.022540277 0.04483815 0.012796822 -0.018004432 0.0032985173 -0.0023558226 0.03209037 -0.014548542
0.06608885 -0.0432049 -0.00031002378 -0.05124741

encoder.encoder.2.1.running_mean f4 [36]
00000000: 315f 633e 6c17 1a3e d37d 6f3e f42a aa3d
00000010: e8c5 9cbe 102c 663e 6572 613e f09e d93d
00000020: ac05 24bd 466c 533e 3ae1 82be 5932 273e
00000030: fe68 453e e2c6 acbe 670d 793d d858 b83c
00000040: 4e2d 92be 267b 7cbe dfb0 303e 0188 ca3c
00000050: f458 64be fb8c 79be 59b2 7ebd 3d71 9abd
00000060: f514 23be 17a3 9f3e 4ac5 133e 6cb9 c63c
00000070: 3dbb 24be 8d77 e83c 99c4 da3d 0f90 633e
00000080: be16 833e ae14 38be a8d3 2b3e ba9d 3d3e
0.22204281 0.15047997 0.23387842 0.08308974 -0.3061974 0.22477746 0.22016294 0.10626018
-0.04004447 0.20646772 -0.2556246 0.163278 0.19278333 -0.33745486 0.060803797 0.022503302
-0.2855019 -0.24656352 0.17254971 0.024723055 -0.22299558 -0.24370186 -0.062181804 -0.0754113
-0.15925963 0.31179115 0.14430729 0.024258338 -0.1608705 0.028377319 0.10682029 0.22222923
0.25603288 -0.17976639 0.16779959 0.18517199

encoder.encoder.2.1.running_var f4 [36]
00000000: d8f6 6540 78e5 4e40 c761 9340 23a2 0540
00000010: 51c0 2540 121d 3040 61d1 3740 4ed6 1d40
00000020: 5cec 5940 4546 0640 97cd 5040 a916 1540
00000030: 1e11 3140 0473 4f40 a4c6 1940 ba05 0c40
00000040: 3af2 2e40 90d6 4140 0861 2040 82d3 2240
00000050: f360 0c40 454d 2740 79ad 0540 3df2 8240
00000060: 2a13 6840 5af3 4e40 8ea7 3840 e00c 1040
00000070: 9dcc 1e40 c5c7 0240 ede4 5140 8a36 4440
00000080: 4c88 7940 01b2 4540 f4ae 4240 62d7 ff3f
3.5931911 3.2327557 4.6056857 2.088021 2.589863 2.7517743 2.8721545 2.4662051
3.4050512 2.098039 3.2625482 2.329508 2.7666698 3.241395 2.402749 2.1878495
2.7335343 3.0287209 2.5059223 2.5441594 2.1934173 2.6140912 2.088713 4.09207
3.6261697 3.233603 2.8852267 2.2507858 2.4812386 2.043443 3.2795975 3.0658288
3.898944 3.0889895 3.0419283 1.9987605
