trained_models/A633:CD85:C46A:3C27.pt (torch, 42809 bytes, 24 tensors)

encoder.0.0.weight f4 [18, 36, 5]
00000000: e729 3abd f8d1 f7bc fe31 0bbc 4245 25be
00000010: dc9e 0d3e 0551 0a3c 9502 4b3b 6e8a 783d
00000020: f2df c2bc 6c5c 873d 2352 f83c ce64 21bd
00000030: a950 7e3c 54a7 c639 ed3a 42bd ad17 b63c
00000040: e1e5 183d 8a16 993d bbe7 32bd 2f07 9a3d
00000050: 5d01 253d 526e 1fbd 6287 a53d 1a36 b5bc
00000060: 512a 783d d4f2 753d 2cd2 bc3c 12eb 923d
00000070: c82c fc3c a1ac 6d3d 0a22 abbc d782 0c3d
00000080: fda7 ca3c cbc1 adbc 2a2d 8b3d 8567 9abc
00000090: 364a a2bc be76 a83d 63bf 173d 53f8 093e
000000a0: 2add 233d 4ca7 d4bc 4a07 673c 6cb0 a73c
000000b0: 8bb9 c93c 0bd1 833d ab5b 78bb 423d 1b3b
000000c0: 81ae f4bc 7792 7a3d 1bcf c93c b9a8 463b
000000d0: 46a7 8c3c 8e59 083b a45b cb3d 5078 493d
000000e0: 84ae 9a3d 3f18 313d 28ad 393d b8cd a43d
000000f0: c40e 0e3d f123 2abc 4fc9 e13c 10c6 e3bc
00000100: 3bd7 073e 022b 2ebc 9230 423d 5127 c13c
00000110: 81b0 27bd 5bc8 7c3d 190c 2abd f0ec 803b
00000120: 2da5 33bc 0242 243d 4b6e 41be bebd 0fbd
00000130: ce39 02bc 87e8 a8bc 9f51 80bd 564f 09be
00000140: 5650 2ebd 5005 3abd c38d 5bbd 5550 d3bc
00000150: 51ef 9dbd 1533 0ebe ef86 3abe 09fc 23be
00000160: 28ef f43b dc6c 8a3c 5e4f 14bb 55ad 8b3b
00000170: 4c39 3a3c 0f3f 4c3d 2214 783c ff15 ac3c
00000180: 854e 3dbd 5af8 003d 6773 e8bc 01be 8a3d
00000190: 05dd 8a3c 5853 d4bc f0b6 f8bc dc78 91bd
000001a0: ba29 d53d 9ae7 e13b fdf2 77ba 5d2f d2bc
000001b0: 3ced 2c3d ba6f 3d3d 2900 8c3c 1447 473d
000001c0: b5f6 f03c 95fa 20bc 444b a13d 88c3 173d
000001d0: d6ab a63c f965 28bd f1e4 fc3c ab3e 093e
000001e0: b3a4 cb3c b176 6ebc 7f55 c4bc 88ce cd3c
000001f0: 88af 3a3e fece eb3c bfd8 1c3c 5b46 803c
00000200: 5fbd d2bb a3d1 903d 5eab c3bc 099d 993c
00000210: cab8 423d 43ac 8abd 0a29 e23d 34e8 7cbc
00000220: c091 f43c 69ed fd3c bf2e 8ebc 39cd dc3d
00000230: 9681 ec3c 7b9e 173c a5a1 383c b2bc 233c
00000240: 6199 c63d 133e c6bc b175 5d3d 8a3d 6e3d
00000250: 0901 87bc cf60 323d 1999 1b3d 3f90 0f3d
00000260: 7774 3abd 1a8b 4dbd 9d89 e03d 2366 7f3c
00000270: 20fc 3a3d 3008 14bc 7344 3e3d eb96 dd3d
00000280: 387f 1c3d 5d08 993b fb38 863b 1fcc d3bc
00000290: a9ba 323c 9f4c b2bc 6dd7 853d 3544 65bc
000002a0: 5204 c53b 24de 033e a329 27bb 1856 093b
000002b0: ca1f 5cbb b7d5 d6bd cb37 a63b fa9d 9abd
000002c0: c96c b4ba cf2b 3fbd 6424 25bd 0963 c83d
000002d0: cafd 083d eebb 8f3c 63ac 9c3d 7e9b 443d
000002e0: 7558 743d d848 20bd 61dd 0dbd 7326 ad3d
000002f0: 6ac7 c2bd 227b 6dbd e41f 003d 01ce e53d
00000300: e7e6 f93c 3b80 353d c2b9 b23d 6168 80bb
00000310: 0819 e83d 0e48 f63c 02f1 dbbc 9b91 39bd
00000320: ee7d 2abd 7e28 b03d 27e1 a7bc 2cff b13c
00000330: f4f3 983d 14e3 91bc 70ab a8bb 3288 d93c
00000340: d96f a8bd 75df 47bd cf88 c33c dfdd fa3d
00000350: d74d 753d 9c98 46bb f24b 4bbd b3ed a23b
00000360: 1763 893d 3a74 5e3d fbb7 8dbc 3da3 82bc
00000370: 4ee3 893c f752 b03d 591e 653c 7220 55bb
00000380: 8d15 e8bc 0788 81bb 448a ae3d 96cb 92bd
00000390: 9c08 de3c 8962 5fbc 835a a13d d990 423d
000003a0: 43ed c6bd 8a00 42bd bc36 f7bc 09b9 e1bc
000003b0: d887 0d3d 3bfd 89bd f5c8 38bd 611e 58bd
000003c0: db28 cb3c 5e59 e73d 8a90 a13c bbbd 3cbd
000003d0: ef65 903c df25 653d 2344 de3d b6b7 c13a
000003e0: c8a3 68bd 1b8a c83c f560 043d e380 1a3d
000003f0: 011a 02bd b643 033e 87d9 1e3e 4e1e 5abd
-0.045450117 -0.030251488 -0.008495806 -0.16139701 0.13830131 0.008442168 0.003097688 0.06067889
-0.023788426 0.06609425 0.030312603 -0.039402775 0.015522161 0.00037890172 -0.047419477 0.022228086
0.037328605 0.07475002 -0.043678027 0.075209014 0.040284503 -0.03892357 0.08082463 -0.022120524
0.06058723 0.060046032 0.023049437 0.07173742 0.030783072 0.05802596 -0.020890255 0.034304466
0.024738306 -0.021210572 0.06795724 -0.01884819 -0.019810777 0.08225773 0.037047755 0.13473634
0.04000584 -0.02595868 0.014100859 0.020469867 0.024624607 0.06436356 -0.0037896435 0.0023687636
-0.029868366 0.061174836 0.024634888 0.003031297 0.017169606 0.0020805332 0.099295884 0.049187005
0.075528175 0.043236014 0.04533115 0.0804705 0.03468205 -0.010384546 0.027561812 -0.027804404
0.13265698 -0.010630371 0.0474096 0.023578318 -0.04093981 0.06171451 -0.041515443 0.003934495
-0.010964674 0.040102012 -0.1888973 -0.03509306 -0.007948352 -0.02061869 -0.06265568 -0.1340917
-0.042557083 -0.045415223 -0.05360199 -0.025795141 -0.077116616 -0.13886674 -0.18215536 -0.16014113
0.0074747987 0.016897611 -0.0022630314 0.004262606 0.0113662 0.049864825 0.015141519 0.021006582
-0.04621746 0.031486847 -0.02837534 0.067745216 0.016951093 -0.025918648 -0.030360669 -0.0710313
0.10408349 0.006894064 -0.00094585103 -0.02565735 0.04221843 0.04624913 0.01708992 0.04865177
0.029414514 -0.009825368 0.07875684 0.037051708 0.02034561 -0.041112874 0.030870887 0.13402812
0.024858808 -0.014554665 -0.023966549 0.025122896 0.18231022 0.028785225 0.009573161 0.015658548
-0.006431266 0.07071235 -0.023885425 0.018751638 0.04753951 -0.067711376 0.11042984 -0.015436221
0.029854655 0.030996995 -0.017356275 0.107813306 0.028870385 0.009254093 0.011269008 0.009993719
0.096972235 -0.024199521 0.054067317 0.058164157 -0.016479986 0.043549355 0.037987802 0.035049673
-0.045521226 -0.050181486 0.10963748 0.015588316 0.0456506 -0.009035155 0.046451997 0.10819801
0.038207263 0.0046701864 0.004096148 -0.025854168 0.010908761 -0.021765051 0.0653523 -0.013993313
0.006012478 0.12877709 -0.0025506995 0.0020955857 -0.0033588284 -0.104899816 0.005072569 -0.07549663
-0.0013765331 -0.04667264 -0.040317908 0.097845145 0.033445157 0.017545667 0.07650068 0.04799985
0.05965467 -0.03913197 -0.03463495 0.08454599 -0.095106915 -0.057978757 0.031280413 0.11220933
0.03050561 0.044311743 0.08726837 -0.003918693 0.11332899 0.030063655 -0.02684832 -0.045304876
-0.041624002 0.08601473 -0.020493103 0.02172812 0.07468405 -0.017808475 -0.00514739 0.0265542
-0.08224458 -0.04879709 0.023868946 0.1224935 0.059888687 -0.0030303365 -0.049632974 0.0049721836
0.06708353 0.05431006 -0.017299643 -0.015946979 0.01683202 0.08609574 0.013984286 -0.003252056
-0.028330589 -0.0039529833 0.08522466 -0.07167737 0.027103715 -0.013634332 0.07878592 0.04750142
-0.09713223 -0.047363795 -0.030177467 -0.027554052 0.03455338 -0.06737753 -0.045113523 -0.052763347
0.024799755 0.11296342 0.019722242 -0.04607938 0.01762673 0.05594432 0.1085284 0.0014779482
-0.05679682 0.024479916 0.032319028 0.037720572 -0.03176308 0.12818798 0.15512668 -0.053251557

encoder.0.0.bias f4 [18]
00000000: e906 4fbd 8c1b 38bd aeed 593d b249 03be
00000010: 5c4e 2abd 956d 683d f8b3 50bd 1dba ae3d
00000020: f7f2 5f3e 02c2 0abc 0d0e 093d c9a1 2dbb
00000030: c4a2 8d3b 698e 38bd b01b 2fbd 68cc a13d
00000040: 128d 973b b15c 043d
-0.0505437 -0.044948146 0.053205185 -0.12821081 -0.041578636 0.05674513 -0.05095288 0.08531592
0.21870027 -0.008469107 0.033460665 -0.0026494137 0.0043223817 -0.045057688 -0.042751014 0.079003155
0.004624971 0.03231496

encoder.0.1.weight f4 [18]
00000000: 1090 0d3f fb8b 1f3f d8df 373f bb97 823f
00000010: 8bc9 373f 3e6d 513f 55ce 4c3f 715f 743f
00000020: 0c3b 133f 9ce9 7a3f c6ec 4a3f ee00 163f
00000030: d3fc 103f 9173 373f 7531 3b3f 3973 453f
00000040: 9551 483f ae5d 5f3f
0.55297947 0.6232297 0.71825933 1.0202554 0.71791905 0.81807315 0.8000234 0.9545813
0.57511973 0.9801271 0.7926754 0.5859517 0.5663578 0.71660715 0.7312234 0.7712894
0.78249484 0.8725232

encoder.0.1.bias f4 [18]
00000000: 8754 8bbd dd91 b2bb 9f7b 88bd a300 ccbd
00000010: 7b85 19be 4464 073b 2e86 7bbc 68e8 cebc
00000020: 77a2 fd3d 8cce 8ebd 8771 b6bc 592c c1bc
00000030: 1d09 753c 7c0e c33b c039 8abc b08e e83c
00000040: 1597 a1bd 98a1 8b3b
-0.06803232 -0.005449517 -0.06664204 -0.09961059 -0.14992325 0.0020659128 -0.015351815 -0.025257304
0.12384503 -0.069729894 -0.02227093 -0.023580717 0.014955786 0.0059526544 -0.01687324 0.028388351
-0.07890145 0.004261207

encoder.0.1.running_mean f4 [18]
00000000: 9bd2 2dbf b97f a13e f3f3 92bf 6229 0dbf
00000010: 4af8 02bf 4733 983e 62af 19bf 0248 f23e
00000020: a552 a23f 95b2 86bf 8402 543e a906 61be
00000030: af1a 8b3f b431 a33f 4863 af3e 6b89 763f
00000040: bc7f ecbe 9913 973f
-0.67899483 0.31542757 -1.1480697 -0.5514127 -0.5116011 0.29726622 -0.6003324 0.47320563
1.2681471 -1.0523249 0.20704085 -0.21975197 1.0867518 1.2749543 0.34255433 0.96303433
-0.46191204 1.1802856

encoder.0.1.running_var f4 [18]
00000000: f011 9a3a 399b 923a 61c3 153b 1072 b53a
00000010: 8604 b73a bdaa 903a 81c0 513a ab72 833a
00000020: 4745 8e3a f579 9a3a 5b58 853a 650d 063a
00000030: e812 a73a bce8 e03a 28ea 253a 8d60 b33a
00000040: e0fc b63a 56f7 e33a
0.0011754613 0.0011185176 0.002285205 0.0013843197 0.001396314 0.0011037212 0.00080014026 0.001002868
0.0010854386 0.0011785614 0.0010173427 0.000511369 0.0012746723 0.0017159204 0.00063291425 0.0013685391
0.0013960861 0.0017392437

encoder.1.0.weight f4 [9, 18, 5]
00000000: d1a8 a33d 5a8b 1e3e 5707 243c fa70 e3bd
00000010: 6b96 b43d a79a acbd 8c0d e0bd 2dc8 67bc
00000020: c7fa d83d 1cc7 313d e1ba f03b b8ab ae3c
00000030: 1e3a d73c 2964 3abe 0496 093e 614f 183e
00000040: fded 003e 89c7 80bd 1621 3e3d 64c5 b6bd
00000050: d0f1 773d bd74 f93d 47f3 483d 9c3f 3dbc
00000060: 9821 873d 09f8 0abd 7ad2 3fbd d50c 72bd
00000070: 68df d3bc 5867 14be 7c19 62bd 7a8e dc3c
00000080: d40d 4f3c 95af a23d cf4d 0ebe 6c61 483c
00000090: 20b1 993d dd73 283d 919f 493d 0a5e 1b3d
000000a0: 66bd 0b3e d353 553a 1282 e1bb fa73 48bd
000000b0: e011 e13d a3af 0e3e 54a8 933d 1682 013d
000000c0: 5828 503d b728 ad3c 2e06 88bd 07ff 183c
000000d0: b4b6 86bd 0285 cfbc ad5e e7bc c7f0 6a3d
000000e0: 1964 c73c 0a8c 40bd bcc2 123e 0aae 5cbd
000000f0: 1b00 e83d ba38 8f3d 0cd8 533d b2bc 8abd
00000100: bca1 3abd 7951 2a3e 95d9 4ebc e8be d83d
00000110: 10e8 b6ba b4aa 2a3d 85cf 853d de29 0f3c
00000120: 7b25 0f3d 15a4 1dbe 8fda 30be 4c86 1bbb
00000130: a7d2 533c 277d c03c beef a33d cbde 823a
00000140: 9b9b bf3d 380f 1bbc 808f d83d 5638 7a3c
00000150: c58f dfbc dd1e f33b dfd9 5abd a07c 0cbe
00000160: 144a 61bd 9388 71be d4fc 093e 4d59 47bb
00000170: 684f 04be 1742 b2bd 9f7e 9bbd f213 26be
00000180: 32ec 2d3d a0b6 b2bd 526d fa3c 259b 1abd
00000190: dda0 683e c9de 983c 1497 1b3c 3579 5dbd
000001a0: 1809 ba3d 61f8 273e 3a26 533d f942 82bd
000001b0: c10b 0cbd a7fb 0ebc 9c0c 033d 8eea 673d
000001c0: 77a3 1bbd 738c 33bd 55f6 023e 2bd0 90be
000001d0: 1792 10bb d7f4 113c 6d01 443c c346 013c
000001e0: 7237 71bd 3b03 ae3c 5475 d03c c89a 363b
000001f0: 246f aebd 16c7 3e3e 06cd 8abd c29f b93d
00000200: 8edb 68bc 7289 a33d 234e 3f3e bdea 1fbd
00000210: e788 a43c 72d0 2cbd aca6 06bc d093 ee3d
00000220: 0b0e 993c 6650 613d 6550 ebbb bc1c 9c3c
00000230: 9ede 13be 356f 32bd 95e9 26bc 07bc 323d
00000240: e680 8b3c ed76 bfbd dd24 673d 799d 3c3c
00000250: 6282 91bd 009d 25bc 55bb 2d3e bb3b 5f3c
00000260: cca5 a8bc ff06 2dbc 307a 713d 11ea 5c3d
00000270: ec2b 2f3d ece9 803d 3504 e03c f01d 9f3d
00000280: fa16 b33b eae4 0c3e 0cf5 3ebc 2876 d7bc
00000290: a5da e23c f56e 8c3d dea2 903d 91b5 0c3e
000002a0: becd 10bd d6a4 173d ec7c e53d 327a 623d
000002b0: a31e 3dbd 4b5b debd 125e 903d b6fc 8fbe
000002c0: 87cc cebd 044d 16bd 345d aebb 9baa bebb
000002d0: 4892 1ebd b782 55bc b5e9 763d 0ab8 0c3e
000002e0: 381f a03c b324 49bc 9590 a93c 5866 c23d
000002f0: 6373 0c3e fdc7 1e3d 6dea 84bd addf c4bd
00000300: 5bca 543d b011 313d e0c3 80bb 1852 99bd
00000310: 9765 c4bd 50ff 5f3d 84e7 0f3b 5375 6a3b
00000320: d3cb 663b 9122 9abd 6e20 783d 9c1d 0e3b
00000330: 04ac 91bb 0285 9fbb f76d a43b 82b2 9dbd
00000340: db58 47bc bbe6 f6bc 381f 8fbc 4299 c5bd
00000350: 9de0 5abc 20e6 79bd 60e8 ae3d 0dd4 423d
00000360: 872d 293d b033 04bd 04be 7c3c 5f0a 9b3d
00000370: 8e1e 413d 582e cabd f870 acbc 35c8 363d
00000380: 88ee 283d ca48 6ebc ef30 5d3c 1aeb 3b3d
00000390: 948e 493c 6999 353d 32c3 023c b34b d3bc
000003a0: 1586 51bd a046 fdbc 6a2c 803d 3b4f 003d
000003b0: a4e5 1a3d d803 a9bd 55ef 413d fdff c3bd
000003c0: b559 abbb 942c 39bd 8ccf c6bc c9e3 6bbd
000003d0: 1abd 3ebd ed83 8ebd 5cf6 953d c8b6 40bc
000003e0: 95e6 0dbd 5890 29bd e723 c8bb c770 053e
000003f0: c73a db3d 4223 8bbd e6bc 0cbd 7057 173d
0.079911835 0.15482846 0.010011516 -0.11105533 0.088177525 -0.08427935 -0.10940084 -0.014146847
0.10594707 0.043402776 0.0073464965 0.021322116 0.02627283 -0.1820227 0.13436133 0.1487403
0.12590785 -0.06288058 0.046418272 -0.08924368 0.060533345 0.12180469 0.049060132 -0.01155081
0.065982044 -0.03392795 -0.046831585 -0.05909427 -0.025863364 -0.14492548 -0.055200085 0.026923407
0.012637574 0.07943646 -0.13896869 0.012230258 0.07504487 0.04112612 0.04922444 0.03793148
0.13646469 0.0008137796 -0.0068819607 -0.04893873 0.109897375 0.13934188 0.072098404 0.0316182
0.050819725 0.021137578 -0.06641804 0.009338147 -0.065778166 -0.025331978 -0.028243387 0.05735853
0.024339722 -0.04700855 0.14332098 -0.053876914 0.11328145 0.069932416 0.05171971 -0.06774272
-0.0455644 0.16632642 -0.012625118 0.105832875 -0.0013954658 0.0416667 0.06533722 0.008738009
0.034947854 -0.15394624 -0.17270873 -0.002373117 0.012928641 0.023497177 0.080047116 0.000998461
0.09355851 -0.009464078 0.105742455 0.015272221 -0.027290234 0.0074194507 -0.053430434 -0.13719416
-0.055002287 -0.23587255 0.13475353 -0.0030418218 -0.12920916 -0.08704012 -0.075925104 -0.16218546
0.04246158 -0.08726239 0.030569706 -0.037745614 0.22717614 0.01866092 0.009496469 -0.05407067
0.09083766 0.16403343 0.051550128 -0.0636043 -0.034190897 -0.008726991 0.031994447 0.056620173
-0.03799769 -0.043835115 0.1278928 -0.2828382 -0.0022059733 0.008908472 0.011963231 0.007890406
-0.058890767 0.021241775 0.025446571 0.0027863253 -0.08517292 0.18630633 -0.06777386 0.090636745
-0.014212502 0.079852 0.1868215 -0.039042223 0.020084811 -0.042190976 -0.008218449 0.11649287
0.018683454 0.055008315 -0.0071812146 0.01905667 -0.1444039 -0.043563087 -0.010187526 0.043636348
0.017029237 -0.09348855 0.05643164 0.011512154 -0.07104947 -0.0101082325 0.16965993 0.013625081
-0.02058687 -0.01056075 0.058954418 0.05393416 0.042766497 0.06294617 0.027345756 0.07769382
0.0054653855 0.13759199 -0.011655103 -0.026301458 0.027692148 0.06857101 0.070623145 0.13741137
-0.03535246 0.037022434 0.112054676 0.055292316 -0.046171796 -0.108572565 0.070491925 -0.2812249
-0.10097604 -0.03669454 -0.0053211693 -0.0058186776 -0.038713723 -0.013031653 0.060281474 0.1374208
0.019546136 -0.012276816 0.020698825 0.09492177 0.13715892 0.038764942 -0.06490026 -0.09612975
0.051950794 0.04322976 -0.0039296 -0.07486361 -0.09589689 0.054686844 0.0021958062 0.0035775497
0.0035216704 -0.07526124 0.060577802 0.002168513 -0.0044455547 -0.0048681507 0.0050179916 -0.07700063
-0.012167181 -0.030139318 -0.017470941 -0.09648372 -0.013359216 -0.06101048 0.08540416 0.04756551
0.041303184 -0.032275856 0.015426163 0.075703375 0.04714828 -0.098721206 -0.021049961 0.044624526
0.041243106 -0.014543721 0.013500436 0.045878507 0.01230206 0.044335756 0.0079811085 -0.025792932
-0.05115326 -0.030917466 0.06258471 0.03132556 0.03781666 -0.08252686 0.047347385 -0.0957031
-0.0052292 -0.04520853 -0.024268888 -0.05759028 -0.04656706 -0.069587566 0.0732238 -0.011762328
-0.03464373 -0.041397423 -0.0061077955 0.13031302 0.1070457 -0.06793834 -0.034359835 0.03694862

encoder.1.0.bias f4 [9]
00000000: 5be9 c6bd 1770 85bd 6298 71bd 3ff9 d6bc
00000010: 2f38 773d c97d 433a 975b bc3d a1cf 3abd
00000020: 7bad c1bd
-0.09712478 -0.0651552 -0.058983214 -0.026241897 0.060356315 0.0007457403 0.09197157 -0.045608167
-0.09456917

encoder.1.1.weight f4 [9]
00000000: 4369 603f f1a0 353f 86d4 f63e 88bd 323f
00000010: 50ca 163f 1394 583f a6e0 3a3f f019 3d3f
00000020: e3c1 5c3f
0.87660617 0.709487 0.48209018 0.6982045 0.58902454 0.84600943 0.72999036 0.738677
0.8623335

encoder.1.1.bias f4 [9]
00000000: 5596 b0bd 0403 6abd f764 03bd 839b f9bc
00000010: f248 a0bd 51ce bfbc 302c 33bd a04c debc
00000020: 3feb b7bd
-0.086224236 -0.057131782 -0.03207871 -0.030469662 -0.07826413 -0.023413809 -0.043743312 -0.027136147
-0.089804165

encoder.1.1.running_mean f4 [9]
00000000: 9c9e f1bd 8e61 2d3c 9c07 29bd 65f2 e2bc
00000010: c5f5 bb3d f9f9 953c bc2f 453e 4bdb 43bd
00000020: f702 28bd
-0.117978305 0.010582341 -0.041267022 -0.027703473 0.09177736 0.018307673 0.1925649 -0.047816556
-0.041018452

encoder.1.1.running_var f4 [9]
00000000: f142 913e fd78 693e 702b 813e 8a0a 1b3f
00000010: e474 623e defd 9e3e 5ddd d23e 8bc4 b13e
00000020: 131e 7c3e
0.28371385 0.2280006 0.25228453 0.60562956 0.22114903 0.3105306 0.41184512 0.34720263
0.24620847

decoder.0.0.weight f4 [9, 18, 5]
00000000: 80fe 233d 003e 33bd 8c58 39bc f8a0 613b
00000010: 89ae 653a d920 aebd c6f8 58bd b322 9c3d
00000020: 05fb b0bd 1166 8d3c 6a53 2abd 6a26 acbd
00000030: 30d7 2bbd b596 ff3c bace 01bd edc7 d2bd
00000040: 212c 21bc aa9a 24bd 45d9 c73c 244d 81bb
00000050: f98b 3c3c b94d a43d 6a25 85bd 6a6b 8d3d
00000060: 5c94 9e3c 7727 473c d7e1 5b3d 0261 8c3d
00000070: 8fc5 693b 7bca a6bd e7e0 453b 28e9 94bd
00000080: fed3 2d3d 2149 85bd 1dd4 643d d5ab a3bd
00000090: 3ec5 4cbd 7fe9 813d 24c0 823d 21ff 1b3d
000000a0: 2575 bbbd 764f c5ba 845e 253d 2eaa 303d
000000b0: ba54 82bd ef1b 19bd 474a d9bb 02d7 203d
000000c0: f352 913d 4f7b 5fbd 37f3 563d e07d 213c
000000d0: d157 543e 3d79 fd3d 9525 013e 88bb 8abb
000000e0: 6812 70bd ffae 8ebd 5fe9 24bd 0974 7ebd
000000f0: 569d 543d e7bf e63d 03a7 81bd e73d 1bbd
00000100: 5d98 023d 333c 94bd e27b 15bd eb60 95bd
00000110: 071d 3c3d 6d15 4c3c 88ff 9d3c a6a9 73bc
00000120: 1f61 c33d 3562 9b3d 8d4b 4f3d 4576 42bd
00000130: 3c1d 2fbc 9830 a0bd a56b 093a 92fe 0f3d
00000140: 8255 9d3c 6951 0e3d 0a09 faba 0c8d 513d
00000150: cdd5 05bc 4f41 86bd fa37 db3b 0598 d13d
00000160: e55c 7c3d c722 af3d c1b0 3cbd a255 41bc
00000170: 1f3c c7bd b0e9 c83d 714c e03d 547c 293d
00000180: fee6 4e3d 28f1 9e3c 1357 35bd a32c 49bd
00000190: 9117 eb3c c644 863d 9936 d13c f613 a2bb
000001a0: 7b58 523c 2eac 733c ed41 ecbc 1850 91bb
000001b0: 6213 0dbd 6c11 b9bc 61f8 95bd 3a86 23bd
000001c0: b9ff 3dbd 44b8 8abd 506f 6bbd c80e 17bd
000001d0: 1e83 19bd 0da5 89bd 0616 1e3d 9713 963b
000001e0: 2721 66bd 9067 563d 8153 7fbc 9aab 143d
000001f0: c1d6 f8bc d38a 9abd e359 6b3d bcf7 84bd
00000200: 8410 83bd 1afc 8dbd fe53 96bd 5e19 033d
00000210: c419 85bd 7b9d 45bd 3845 513d 3007 793d
00000220: fbba 09bd 95ba 4ebb ab82 86bd 5af1 8dbd
00000230: 44cd 083e 21cf ee3d 34ce 983d 252f 9d3d
00000240: c7bd 283e 6d93 b4bd 6a30 b7bd c831 b93d
00000250: ee84 ba3d dadb 4abd ac8c 81bd e3e1 ecbc
00000260: 7ce6 d8bd ee3e d23c 37de f13c 4928 98bd
00000270: 5db7 09bb 4a7f 16bc 66ce 07bd c627 5ebd
00000280: e37d b03d 129b ebbc e472 70bb 8ea1 5abd
00000290: 5800 10bc 50d2 91bd 9b30 7139 b28a c43d
000002a0: cace b03d 41b1 39bd 87ba 0bbd f4eb e23c
000002b0: 6111 9bbd 0c6a 193d 0ac9 acbd 68db 143d
000002c0: b424 ac3c 8452 0c3d b8e7 a13b 2f0c 1b3d
000002d0: 148d 65bc d93c 3c3d 957a 7abd b840 a93d
000002e0: 37c0 05bd 7eba d7bc 32fb fb3c 253a a23d
000002f0: 2490 33bd c8e6 dd3b 421d cc3b 5fbe d63d
00000300: 20db dc3d 1d56 a8bc 2edd 953d c2c4 1f3b
00000310: 6fd8 1bba cb8d 15bd fa4b 3dbc 26ba d5bc
00000320: a475 06bc 2aa4 04bd d266 493c 6f01 8a3c
00000330: f466 e0bb b256 06bd d788 403d 8454 12bd
00000340: f645 a1bd 9ae8 433d c362 1f3d ab39 3dbd
00000350: 038d 5cbd 54da 6abd 108c 6c3d fac6 b03c
00000360: 23de dcbc 97ec 923d 06ab 1f3c d806 85bd
00000370: 222e 9c3c 1b7c 4b3d 5fef 1b3d b0e2 5d3b
00000380: 1668 cabd 1986 e13a 45cd 433d 9592 b2bd
00000390: 110a 703d b3fa 813d a8dd 69bc e911 f8bc
000003a0: e803 dd3c fa7d c63d 20b8 373e 27fe 6e39
000003b0: b35b ad3d a648 3bbd 0ebe fb38 ec18 c2bb
000003c0: 306d c93b cf99 67b9 0d20 27be 8eb0 843c
000003d0: e89c a23d c73b 223d b193 d7bc 049f a13d
000003e0: a803 673d 0bbf 9cbc 03e2 d5bb 36f0 853d
000003f0: a5b4 9b3c 631f 993d 30c2 163c 21a1 51ba
0.040037632 -0.0437603 -0.011312615 0.003442822 0.00087616645 -0.08502359 -0.052971624 0.07623806
-0.08641628 0.017260583 -0.041583456 -0.084057644 -0.041953266 0.031199792 -0.03169129 -0.10292039
-0.009837181 -0.04018656 0.024395594 -0.0039459635 0.011507981 0.08022637 -0.06501277 0.06905253
0.019357853 0.012155405 0.053682175 0.0685444 0.0035670733 -0.08144089 0.0030193867 -0.072710335
0.0424385 -0.06508089 0.05586635 -0.07991759 -0.049992792 0.06343364 0.06384304 0.038085107
-0.09153203 -0.0015053588 0.04037334 0.043131046 -0.063638166 -0.037380155 -0.006631169 0.039267547
0.070958994 -0.054560956 0.05247804 0.009856671 0.20736624 0.1237664 0.12611993 -0.0042337812
-0.058611304 -0.069669716 -0.040261623 -0.06212238 0.05190786 0.11267071 -0.06330683 -0.03790083
0.031883586 -0.072380446 -0.036495097 -0.07293876 0.04592612 0.01245628 0.019286886 -0.01487199
0.09540009 0.07587091 0.05060916 -0.047476072 -0.010688122 -0.078217685 0.00052421755 0.035154887
0.019205812 0.034745608 -0.001907618 0.051159903 -0.00816865 -0.065554254 0.0066900225 0.102340735
0.06161203 0.08551555 -0.046067003 -0.011800202 -0.09728264 0.09810197 0.1095208 0.041378334
0.05051326 0.019402102 -0.044272494 -0.049114835 0.02869776 0.06556086 0.02553873 -0.004946227
0.012838478 0.014872594 -0.02884003 -0.0044345967 -0.034442313 -0.022591315 -0.07322765 -0.03992293
-0.046386454 -0.06773427 -0.057479203 -0.03687933 -0.03747856 -0.06720934 0.038595222 0.004579972
-0.05618396 0.05234486 -0.015583874 0.036296465 -0.03037584 -0.0754601 0.05745877 -0.06492564
-0.063996345 -0.0693285 -0.07340239 0.032006614 -0.06499055 -0.04824589 0.051091403 0.06079787
-0.033625584 -0.0031544317 -0.06567892 -0.069308 0.13359553 0.116606005 0.07461205 0.07675008
0.16478644 -0.08817182 -0.08944781 0.09042698 0.091073856 -0.049526073 -0.06325659 -0.028916305
-0.105908364 0.025664773 0.029524906 -0.07429559 -0.0021013834 -0.0091856215 -0.03315582 -0.05423715
0.08617761 -0.028760467 -0.0036689574 -0.053376727 -0.008789144 -0.07120192 0.00023001658 0.095967665
0.08633192 -0.045335058 -0.034113433 0.027700402 -0.07571674 0.03745465 -0.08436783 0.036342055
0.021013595 0.03425838 0.004940953 0.037853416 -0.014010686 0.045956466 -0.06115206 0.08264297
-0.032654013 -0.026334044 0.030759428 0.079212464 -0.043838635 0.006771896 0.0062290737 0.10485529
0.10783982 -0.020548875 0.07317577 0.0024378751 -0.0005945032 -0.036512177 -0.011553759 -0.026089739
-0.008206759 -0.03238312 0.012292581 0.016846387 -0.0068482105 -0.032797523 0.0470055 -0.03572513
-0.07874672 0.047829248 0.038912546 -0.046197575 -0.053845417 -0.05733712 0.05775076 0.021579254
-0.026961392 0.07174032 0.009745365 -0.06495446 0.019064967 0.049678903 0.03807008 0.003385704
-0.09883134 0.0017206102 0.047803182 -0.087193646 0.05860335 0.06346645 -0.014274038 -0.030281978
0.026979402 0.09691997 0.17941332 0.00022792128 0.08464756 -0.04572358 0.00012004013 -0.005923381
0.0061470494 -0.00022087175 -0.1632082 0.01619747 0.07940084 0.03960779 -0.026315542 0.07891658
0.05639997 -0.019134065 -0.006527187 0.06539957 0.019007036 0.0747669 0.009201571 -0.00079967274

decoder.0.0.bias f4 [18]
00000000: a62c ebbd d176 a6bd d1b7 a9bd c0c5 04bc
00000010: 57f3 253d f363 d3bd c90e d6bb f2f0 e33b
00000020: d274 c8bc b97d c9bd e944 25be 7a22 bfbd
00000030: d6bb 16bd a79f dc3c 08ef 95bd 1ccb b83d
00000040: 3520 87bd 6c63 d13c
-0.114831254 -0.08128131 -0.08287013 -0.008103788 0.04051527 -0.10321798 -0.0065325242 0.006956213
-0.024469767 -0.09838433 -0.16139568 -0.09332748 -0.036800228 0.026931597 -0.07320982 0.09023115
-0.0659794 0.025560103

decoder.0.1.weight f4 [18]
00000000: bd06 3f3f aa51 493f de5e 543f d637 483f
00000010: 8a4b 303f fe62 333f a886 2d3f 2473 463f
00000020: 1c9c 753f 6dc4 0f3f 17eb 883f ea82 5b3f
00000030: b2e0 383f 693f 6a3f 1782 603f 4f2c 473f
00000040: 832b 7a3f 4dcf 753f
0.74619657 0.78640234 0.82957256 0.782102 0.68865263 0.70072925 0.67783594 0.7751944
0.9594133 0.56159097 1.0696744 0.85746634 0.7221786 0.91503006 0.876985 0.77801985
0.97722644 0.9601944

decoder.0.1.bias f4 [18]
00000000: 2a4b 91bc 48f2 84bd 85c7 10bd 8cd8 1bbd
00000010: 075b 8bbd c58f 6cbd 4a7e 86bd 61a4 5abd
00000020: 9f18 3fbd 6022 97bd 3689 3bbe fb9f 42bd
00000030: a73b 80bd ff8b 2abd 8d9e c6bd 46f9 17bd
00000040: 3820 e8bc f14a c3bd
-0.017736036 -0.06491524 -0.035346527 -0.038048312 -0.068044715 -0.057754297 -0.065670565 -0.05337942
-0.04665434 -0.073796034 -0.1831406 -0.04751585 -0.06261378 -0.041637417 -0.0969821 -0.03710296
-0.028335676 -0.09535778

decoder.0.1.running_mean f4 [18]
00000000: b796 babd 35c2 bebd c8aa e3bd b0fa 21bd
00000010: 8d7b 183d fa87 d8bd 3c99 e9bc 5a60 a43c
00000020: 9512 43bd 0bef 03be 9e7f 1bbd 4875 02be
00000030: 5a33 c1bc 1b4e 003c bbdf 52bd 6ad7 693d
00000040: 913b 72bd d9f2 9a3d
-0.09110778 -0.09314386 -0.11116558 -0.039545715 0.037227202 -0.105728105 -0.02851545 0.020065475
-0.047625143 -0.12884156 -0.037963502 -0.12740052 -0.023584057 0.007831122 -0.051482897 0.0570902
-0.05913884 0.07565851

decoder.0.1.running_var f4 [18]
00000000: 5c57 cc3e 9a67 873e 3cf0 423f 4628 c23e
00000010: bd7c 6e3e 963b d13e 7abe 8b3e 6dc3 8a3e
00000020: bd00 c23e 55a4 6f3e 531a 313e b550 ab3e
00000030: 9dbf 863e 9762 993e aadc 333e 474d e03e
00000040: bcd7 c83e 764a b23e
0.399104 0.2644623 0.7614782 0.3792135 0.23289771 0.40865773 0.2729376 0.27102223
0.37891188 0.23402531 0.17295198 0.33460012 0.26318064 0.2995803 0.17564645 0.43808958
0.39227092 0.34822434

decoder.1.0.weight f4 [18, 36, 5]
00000000: a251 633d 25bc c6bd bd72 b13c 0494 1bbd
00000010: 62ef 0c3d 3d70 4a3d 964c 73ba 6dd1 d83b
00000020: 7e19 6abd b78b e239 e294 8a3c 84e3 313d
00000030: dd59 3ebd 2f88 213d be16 28bc dfc3 87bc
00000040: 2074 5dbd e5e8 f33d 0726 50bd 485f 53bb
00000050: b8da 1e3c 5f25 623c 8801 143d 7ff1 573c
00000060: b6bc 023d cca9 103c f06b 573c ef57 4e3d
00000070: 7f02 3a3b 4fca 2a3b ef28 0a3a 3046 a63d
00000080: 0011 143d 7226 fa3c b661 343d 1f7e 253d
00000090: 7f10 da3b e816 f5bc 102c 473d 420f 083c
000000a0: 057b ae3d 9e04 893d 5687 b8ba f749 a7bc
000000b0: 192d 7e3c c275 f8bc 31a9 433d 0ffe 823c
000000c0: ed0c 6d3d 714c a93d b371 d73d 03a9 b53c
000000d0: 7088 b1bc 167a 063e 1796 013c c92c 313d
000000e0: 32e2 be3d 7686 ef3a f0b8 ac3d d11d 4ebd
000000f0: a094 f5bc 67dc abbc 5557 f93c f137 223e
00000100: 7520 463d 62a7 133d 7c0e 073d 6501 b53d
00000110: 5cff 493d 096c 223d d954 e8bc 037c 123b
00000120: 1233 123d f04a 693c 0948 e23c 6cb3 e5bb
00000130: 9038 3f3c d608 0abc 22fc 8fbc 2308 633c
00000140: e1de a1bc 60b6 c2bc 11b3 113d 727a 92bd
00000150: 4792 6d3d 1b6d 313d a522 b7bd 01a4 44bc
00000160: 7abd 5abc b1ca 213d 25ac b83d 683e babd
00000170: 2abd 8fbd 8460 023c a0d3 f939 4fb9 9a3b
00000180: 157d 38bd b833 453c 42ac 603c a06f 1e3c
00000190: 456b a93c 013b 29bd 0104 8bbd 586a 273d
000001a0: 87fd d3bb 0339 093d 7e74 87bc d3a4 b4bd
000001b0: 375e c5ba 9274 12bc 5d3e 9f3d 3e21 aebd
000001c0: c391 04bc 201a 88bd 719d c83c 49c7 5c3d
000001d0: 09cf 223c bb4d bbbc aa48 acbd 0457 c73c
000001e0: bfda 1e3c 7c84 a0bd d0b1 7c3d 175f ecbd
000001f0: 0de8 39bb 9f9e bf3c 01af 17bd cdf2 d1bd
00000200: 50ef 093b 508d babd 82c5 473a f8f8 2bbd
00000210: 41dc 27bd 2f68 2a3d dc27 67bd a255 ebbd
00000220: 572f f5bd eea9 55bd 19db 563d bc25 d33d
00000230: b59f a8bc 39ee 62bd 17d6 a3bd b8d5 893d
00000240: 0c17 883d 0572 6abd 2a47 94bc 7387 d1bd
00000250: 98ea 173d 962a 193d d192 dcbc fc65 d8bd
00000260: 9dc5 8f3c 2705 083b 418f f33c 58fb 88bd
00000270: 4b1d 4bbd 58db 85bd 7bbe ad3d acf3 e63b
00000280: 52f6 82bb 008c 863c 3f9b a3bd 3294 4c3d
00000290: 935d f9bc c951 4e3d 87b5 64bd ead6 30bd
000002a0: 999a 563c be82 1f3d bfc6 0fbd 4467 5cbd
000002b0: 295d 083d 45d0 e93d 4bde da3c b176 003e
000002c0: ccbf b63d 6bdd 94bc 9929 703d cf70 2abd
000002d0: 49bf 763d 3507 cebd 9d13 983d d75d d0bc
000002e0: 9fd7 df3d cbab 463c 1224 a0bd 9747 db3d
000002f0: 7b53 143d 57fe f7bc 9825 06bc b499 dc3b
00000300: 939f 5cbd 027f 72bd b073 743d b719 ae3a
00000310: a055 74bd 0631 d33d a26c 88bc 9b3c 2cba
00000320: 0685 b0bc bb15 19bc c022 b9bc 9321 b1bc
00000330: 2e90 9a3d e410 433c 7f94 8abd 7ff9 6f3d
00000340: 2388 76bc 67c6 96bc ae7f 1abd 8958 2bbd
00000350: 47df 1f3e a0c9 fc3d 8b6d 5cbd 99bb 073a
00000360: 269d dfbb 5f4a 933c 5e70 4d3d ef10 ea3c
00000370: a46a b3bc 1ec2 063d 40b9 813d a8c3 9c3d
00000380: c563 6bbd 2935 bb3a c0cf 6a3c db86 2e3d
00000390: 33d6 a93d cedb 4c3d aa38 1cbd ee66 3a3d
000003a0: 9eef 05bd 1ac9 b23d 919b 793d ed2c dabc
000003b0: 1654 8ebc 0f05 9d3d 4f0f cab9 9e67 b2bc
000003c0: 74d8 6dbd 46ac 9cbd 531e 483e 3d4d bb3c
000003d0: 7fc6 ab3b 4316 86bd 336e 85bd fda8 743d
000003e0: 1430 1b3d 67e4 b2bc 2faa 003b dc33 05bd
000003f0: 2297 f2bb 63b9 48bc 9d15 4c3d 86b1 643c
0.055497773 -0.097038545 0.021661157 -0.037982956 0.03440798 0.049423445 -0.00092811265 0.0066167624
-0.057153217 0.00043210175 0.016916696 0.043429866 -0.04647242 0.039436515 -0.010259328 -0.01657289
-0.054065824 0.119096555 -0.050817516 -0.0032252837 0.009695701 0.013802855 0.036134273 0.013180136
0.03191825 0.008829545 0.013148293 0.05037683 0.0028382835 0.0026060527 0.0005270382 0.08118856
0.036149025 0.03053591 0.044038497 0.04040348 0.0066547985 -0.02991815 0.048626006 0.008304419
0.08519558 0.06690334 -0.0014078419 -0.020421011 0.015513682 -0.030329589 0.047768775 0.015990285
0.057873655 0.08266533 0.10519733 0.022175318 -0.021671504 0.1313251 0.007909319 0.0432556
0.09320487 0.0018274325 0.084337115 -0.050321404 -0.029978096 -0.02097912 0.030437151 0.15841652
0.048370797 0.0360483 0.032972798 0.088381566 0.049315795 0.03965381 -0.028360771 0.0022351749
0.035693236 0.014239058 0.02762224 -0.007009914 0.0116712 -0.008424958 -0.017576281 0.01385692
-0.019759597 -0.023768604 0.03557116 -0.07152261 0.05800083 0.04331694 -0.08942155 -0.012001992
-0.013350839 0.039499942 0.09017209 -0.09093934 -0.07018502 0.007957581 0.00047650654 0.0047217975
-0.045041163 0.0120362565 0.013712944 0.009670168 0.020681033 -0.041316036 -0.06787873 0.0408729
-0.006469432 0.033501636 -0.01653504 -0.088205 -0.0015057985 -0.008938925 0.07775567 -0.08502434
-0.008091393 -0.06645608 0.024489136 0.05390099 0.009937056 -0.022864213 -0.08412297 0.024333484
0.009695708 -0.078377694 0.061693013 -0.115415744 -0.0028367073 0.023391066 -0.03703213 -0.10251389
0.0021047182 -0.091089845 0.00076206785 -0.041985482 -0.040981535 0.041603263 -0.056434497 -0.114909425
-0.1197192 -0.05216401 0.05245504 0.10309932 -0.020583967 -0.055402968 -0.07999819 0.06730217
0.06645021 -0.057237644 -0.01810034 -0.10230913 0.03708896 0.03739413 -0.026925476 -0.10566327
0.017550284 0.0020755024 0.029731395 -0.06688565 -0.049588483 -0.06535977 0.08483597 0.007048091
-0.003996649 0.01642418 -0.07988595 0.049946018 -0.030440127 0.050370965 -0.05583718 -0.043173708
0.013098382 0.038943045 -0.03510165 -0.05380942 0.03329197 0.114166774 0.026717326 0.12545277
0.08923301 -0.018171987 0.05863342 -0.04161149 0.060241017 -0.100599684 0.07425616 -0.025435371
0.10929798 0.01212592 -0.0781938 0.10707014 0.036212426 -0.030272646 -0.008187674 0.00673219
-0.05386312 -0.059203155 0.05968064 0.001328281 -0.05965197 0.10312085 -0.016653363 -0.000657031
-0.021547806 -0.00934356 -0.022599578 -0.021622455 0.07547031 0.0119058825 -0.06766605 0.058587547
-0.015047106 -0.018405152 -0.03771942 -0.04183248 0.15612517 0.123431444 -0.053815406 0.00051777955
-0.0068241535 0.017979799 0.05015599 0.028572528 -0.021901436 0.03289997 0.06334162 0.07654506
-0.057468195 0.0014282811 0.014331758 0.042609077 0.082928084 0.05001431 -0.038139977 0.045508318
-0.03269922 0.08729763 0.060939375 -0.02663275 -0.01737408 0.076669805 -0.00038539848 -0.021777924
-0.058067754 -0.07650046 0.19542818 0.022863979 0.0052421684 -0.06547215 -0.065151595 0.059731472
0.037887648 -0.021837426 0.0019632687 -0.03252016 -0.0074032703 -0.012251231 0.0498253 0.0139583405

decoder.1.0.bias f4 [36]
00000000: e589 a4bc 6ee7 593c 9a6e d23b bb9c 85bd
00000010: 4fb0 d3bd 1719 ebbd 0f3c 953b da0e 50bc
00000020: c3d5 21bd 8790 d3bd 2839 00bc 8ef6 c13c
00000030: a323 0fbe dd87 9fbb 52b6 7a3d 60c0 e43d
00000040: ae1c 183e a7ca 50bb 83ec 19bd c9c8 2f3b
00000050: d8c4 2b3c 8a92 313c ee8a 5cbd 7374 50bd
00000060: cddd a9bd a90d 0cbd 12d6 c7bd c36b 15be
00000070: aa0e 3dbd bf86 12bd dd77 dabc 368c 1ebe
00000080: 1d56 edbd edc8 bbbc 48df d03c df78 39bd
-0.020085284 0.013299806 0.006421876 -0.065240346 -0.103363626 -0.11479395 0.0045542787 -0.012698853
-0.0395105 -0.10330301 -0.007826127 0.023677137 -0.13978438 -0.004868491 0.06120903 0.11169505
0.1485469 -0.0031859071 -0.03757907 0.0026822558 0.010483943 0.01083816 -0.05384343 -0.050892305
-0.08294258 -0.034192715 -0.097576275 -0.14591889 -0.046156563 -0.035773035 -0.026668483 -0.15483174
-0.115886904 -0.022922957 0.025497094 -0.045281287

decoder.1.1.weight f4 [36]
00000000: fbe6 3c3f 625c 2f3f a9ab 3d3f d336 453f
00000010: b906 423f e0ac 453f 93e8 5f3f 1d4b 563f
00000020: 3538 633f 142d 503f 630c 633f c997 5b3f
00000030: a9cc 6a3f 2ed9 5f3f 4848 6b3f 802a 823f
00000040: 19b2 303f 5a86 113f 0b6f 363f 38b3 3f3f
00000050: 1044 3a3f 8806 523f 496c 5f3f 01e5 603f
00000060: 125c 643f 7263 6b3f 237c 643f cc3a 623f
00000070: d721 623f 0af3 5d3f 5cbf 4e3f 07ee 533f
00000080: 99e3 5e3f 9b6d 5d3f 8af2 523f 864b 2c3f
0.7378995 0.6850034 0.7409006 0.7703678 0.7579151 0.7721691 0.87464255 0.83708364
0.8875764 0.81318784 0.88690776 0.8577848 0.91718537 0.87440765 0.9190717 1.016922
0.69021755 0.5684563 0.7126319 0.7488284 0.72760105 0.82041216 0.87274605 0.8784943
0.8920299 0.91948617 0.8925192 0.88370967 0.88332886 0.86698973 0.8076074 0.82785076
0.87066036 0.8649537 0.82401335 0.6730274

decoder.1.1.bias f4 [36]
00000000: 6206 6ebd 856b a4bd 9be8 a4bd ae4d babd
00000010: 8c74 bdbd 070c dcbd 8802 c0bd a4d1 e8bd
00000020: 8b42 d1bd 2ee1 00be b8ac fabd ec3e d3bd
00000030: 2bd1 0abe b188 ddbd 8f9a 033e 6c37 223e
00000040: 1286 ea3d 8b39 4bbd 8fa7 81bd 63d5 bcbd
00000050: 5218 89bd 6e1c dabd 711c f2bd 8555 f8bd
00000060: 4921 08be 58ca 1bbe 2d9d 0bbe 183d 0dbe
00000070: d739 0fbe b97c f0bd 778b f1bd 01aa 05be
00000080: 9d3d dcbd cf2c d5bd e4fd 84bd 4f4a 96bd
-0.058111556 -0.0802832 -0.080521785 -0.090968475 -0.09250745 -0.107444815 -0.09375483 -0.11368111
-0.1021777 -0.12585899 -0.12239975 -0.10314736 -0.13556354 -0.108170874 0.12851928 0.15841454
0.11451353 -0.049615424 -0.063307874 -0.09220388 -0.06694092 -0.10649954 -0.11821831 -0.121256866
-0.13293947 -0.15213907 -0.13634177 -0.13792837 -0.13986908 -0.11742539 -0.11794179 -0.13053133
-0.10753939 -0.10408937 -0.06493738 -0.07338392

decoder.1.1.running_mean f4 [36]
00000000: 373f d23a ee6b 483d 4b08 5c3d cfd3 5fbc
00000010: f4ac 9abd 56d1 98bd 3475 47bd 5960 363d
00000020: 69c9 60bd d998 63bd 2450 d13d 7377 ec3d
00000030: 4e73 b0bc 8887 973d 6f6b 9c3d 28eb 943d
00000040: 506f 213e 4097 c7ba b7e0 043c d3c3 173d
00000050: 9c45 1e3d c1e5 3f3d e6d7 abbd b1a6 13bd
00000060: 2e64 a03c 984c b63d d480 eb3c 3b21 0ebe
00000070: 93fb 7cbd 1f38 6cbd e33f a43c 6443 67bd
00000080: a350 86bd f4b5 7e3d bd2e c0bc e2d0 49bd
0.0016040568 0.048931055 0.053718846 -0.013661339 -0.075525194 -0.07461803 -0.048695758 0.044525478
-0.05487958 -0.05556569 0.10220364 0.11546221 -0.021539357 0.073988974 0.07637679 0.07271415
0.15765119 -0.0015227571 0.008110217 0.037051987 0.038640603 0.04684997 -0.08390789 -0.03604764
0.01957902 0.08901328 0.028747953 -0.13879864 -0.061763357 -0.05767071 0.020049995 -0.056460753
-0.06558349 0.062185243 -0.023459787 -0.04927147

decoder.1.1.running_var f4 [36]
00000000: d345 a83f 612e 353f afdd 5a3f 3b3e 083f
00000010: 83a0 e63e 3bca b03e e7e1 f13f 2412 f23e
00000020: 5c30 ad3f cf42 0d3f c27a 5b3f 5990 fc3e
00000030: f06a a33f b6e2 a73f 6c5a 1b3f b63a fb3e
00000040: f453 c13f 0d8a 573f cd25 423f a258 5d3f
00000050: 0d9e b83e 1528 693f 8ba3 e73f 3e69 423f
00000060: 540b 3f3f 3ca4 813f afa3 643f 519c c83f
00000070: 6ec1 1a40 ee3c bc3f e69b 153f 05d5 8e3f
00000080: 3bcc dc3f 4cb2 8e3f e107 b23f f45a 213f
1.3146309 0.70773894 0.8549451 0.53219956 0.45044336 0.3452929 1.8897065 0.47279465
1.3530383 0.55180067 0.8573419 0.4932888 1.276701 1.3116062 0.6068485 0.4906823
1.5103745 0.84195024 0.7583893 0.8646337 0.36058083 0.91076785 1.8096784 0.75941837
0.7462666 1.0128245 0.8931226 1.5672704 2.418056 1.4706094 0.5844101 1.1158758
1.7249826 1.1148162 1.3908654 0.6302941
