trained_models/A807:55B7:1F8A:9ABC.pt (torch, 54453 bytes, 48 tensors)

encoder.0.0.weight f4 [18, 36, 5]
0.023990115 0.03514595 0.054273523 0.025227427 0.14230832 0.03650269 -0.0074749077 0.035490956
-0.043306988 0.13128632 0.14032504 0.043333143 0.02471774 0.028537612 -0.07603855 -0.03501538
-0.002985021 -0.03794596 -0.006010764 0.06967305 -0.077696964 -0.049744166 0.0040361956 -0.0034380893
0.14365067 -0.019493148 -0.06396314 -0.010232422 0.019994402 0.12016297 0.006860428 0.059971925
0.01758949 -0.036752526 0.10932033 0.013230952 0.051304273 -0.0086239865 0.035550732 0.12911266
0.060856152 0.0866388 0.088598415 -0.07250237 0.18442054 0.022967972 -0.021707278 0.042875156
0.019198302 0.1496284 0.06830642 0.026712803 0.017934086 -0.052298024 0.116044 0.06942184
0.029107273 0.04258033 -0.05526718 0.10406455 0.085382454 0.0618118 0.0042939847 0.024044048
0.11818487 0.0059020333 0.12586136 0.07473137 0.058967933 0.120843455 0.108707294 -0.009599721
0.039414544 0.032001257 -0.16430147 0.03833318 -0.065579005 0.022424206 -0.0690242 -0.17683788
-0.008196863 -0.09538715 -0.097183645 -0.004597413 -0.19992977 -0.09188539 -0.03818804 0.014607784
-0.057367247 -0.038433276 -0.14208299 -0.12705164 0.009857972 -0.10210259 -0.01731663 -0.060128093
-0.0067051915 0.01795507 -0.1031259 0.049438737 -0.022701055 0.018953923 -0.05359881 -0.0021757635
0.06195671 -0.0051805214 -0.0781569 0.013169079 -0.10877895 0.111803934 0.006394443 -0.043435358
0.025012312 -0.017893199 0.044771325 -0.0058031827 0.0064893276 -0.05795108 -0.100691974 0.05105354
0.026931018 -0.04569912 -0.0317912 0.0019028408 0.1408931 -0.04919989 -0.048099287 -0.016287563
-0.003926672 0.14579782 -0.03778363 -0.09205762 0.0058160676 -0.025412928 0.07499566 0.025910953
-0.0455763 0.0029387767 -0.103779964 0.13391547 -0.05215148 -0.06153413 -0.010764585 0.009447524
0.09743831 0.035903893 -0.06662963 -0.059108824 -0.071580105 0.11136862 0.0042296764 -0.02769465
0.023787113 0.0105584515 0.04668123 -0.03390621 -0.055013265 0.04115562 -0.08438744 0.06888109
-0.08331027 -0.04570054 0.006837731 -0.016032653 0.064508215 -0.048942342 0.011875911 0.016251443
-0.0062982137 0.108784005 0.00012798033 0.037222523 -0.046700552 0.04298071 0.047052525 0.10403856
0.025422683 -0.052872088 0.04707338 0.12125403 -0.09913598 -0.07363483 -0.0042807152 0.0004499963
0.049468007 -0.15115654 -0.036406163 -0.0030378425 0.010380422 -0.04069736 -0.05423915 -0.004809777
0.026984835 0.038549237 0.0072171437 -0.094123155 0.03210135 0.019740865 0.029116005 -0.029580304
-0.034767084 0.020051971 -0.0070277215 0.026887393 0.030919492 -0.023373717 0.03169491 0.0039024395
-0.0061417017 -0.006191769 -0.005636621 0.078968935 0.026824709 0.0017127495 0.04024106 -0.029751312
0.054556824 0.03287402 0.035458595 -0.019260487 0.033929 0.06513651 0.043165952 0.042734303
-0.025125895 -0.045469556 0.0063786907 0.066280566 0.040876493 0.03614531 -0.0073356405 -0.01042697
0.04731067 0.0027227201 0.0053101135 -0.07722574 -0.013361327 -0.015245516 -0.005277249 -0.013734185
-0.037517942 0.008901852 0.038602594 -0.00039922394 -0.008960882 -0.032228846 -0.009164168 0.004684246
-0.024004811 0.042374846 0.005476151 0.062260527 -0.0063924477 -0.022513818 -0.031092271 -0.0634936
00000000: eb86 c43c 33f5 0f3d ea4d 5e3d c0a9 ce3c
00000010: 46b9 113e d883 153d 12f0 f4bb f75e 113d
00000020: ab62 31bd ec6f 063e 5eb1 0f3e 187e 313d
00000030: dc7c ca3c b6c7 e93c 19ba 9bbd 496c 0fbd
00000040: 58a0 43bb 396d 1bbd f1f5 c4bb beb0 8e3d
00000050: 961f 9fbd 8ac0 4bbd 1042 843b 9151 61bb
00000060: 2919 133e 18b0 9fbc 1bff 82bd e3a5 27bc
00000070: 4dcb a33c 0118 f63d 71cd e03b 1fa5 753d
00000080: d617 903c d189 16bd 56e3 df3d a3c6 583c
00000090: 6e24 523d 9f4b 0dbc a59d 113d 1c36 043e
000000a0: 4d44 793d af6f b13d 1673 b53d 1f7c 94bd
000000b0: bdd8 3c3e 5427 bc3c 76d3 b1bc dc9d 2f3d
000000c0: c245 9d3c 3038 193e 3de4 8b3d cfd4 da3c
000000d0: 81ea 923c 7436 56bd 7aa8 ed3d 0a2d 8e3d
000000e0: 6072 ee3c b668 2e3d d75f 62bd cb1f d53d
000000f0: ffdc ae3d 5f2e 7d3d 8eb4 8c3b 06f8 c43c
00000100: e90a f23d d865 c13b cde1 003e c30c 993d
00000110: 5c88 713d c67c f73d eea1 de3d 2648 1dbc
00000120: 2571 213d c013 033d a53e 28be 4103 1d3d
00000130: 494e 86bd f8b2 b73c 8f5c 8dbd fd14 35be
00000140: 234c 06bc 575a c3bd 3808 c7bd e5a5 96bb
00000150: 64ba 4cbe 682e bcbd 106b 1cbd 7d55 6f3c
00000160: ebf9 6abd 366c 1dbd 347e 11be d319 02be
00000170: 5583 213c 2a1b d1bd 9bdb 8dbc e048 76bd
00000180: 39b7 dbbb 8316 933c ac33 d3bd 4680 4a3d
00000190: 90f7 b9bc 4245 9b3c 6d8a 5bbd 4197 0ebb
000001a0: 52c6 7d3d 5dc1 a9bb ba10 a0bd 1fc3 573c
000001b0: 80c7 debd 76f9 e43d 7a88 d13b 46e9 31bd
000001c0: 9fe6 cc3c c294 92bc 2362 373d a028 bebb
000001d0: 6da4 d43b 1d5e 6dbd 9837 cebd 841d 513d
000001e0: 709e dc3c 002f 3bbd 7d37 02bd be68 f93a
000001f0: 4846 103e d385 49bd c203 45bd 7f6d 85bc
00000200: 50ab 80bb 064c 153e 02c3 1abd b588 bcbd
00000210: b694 be3b c62e d0bc 5397 993d 3543 d43c
00000220: 37ae 3abd 7e98 403b 978a d4bd 2321 093e
00000230: ca9c 55bd 360b 7cbd f15d 30bc cac9 1a3c
00000240: bd8d c73d f60f 133d 1e75 88bd 181c 72bd
00000250: 9798 92bd 3b15 e43d 1999 8a3b e4df e2bc
00000260: 31dd c23c 5bfd 2c3c d134 3f3d 3de1 0abd
00000270: 9755 61bd cc92 283d 52d3 acbd 8711 8d3d
00000280: 939e aabd 7d30 3bbd 0c0f e03b e956 83bc
00000290: e21c 843d c477 48bd 2e93 423c bf21 853c
000002a0: 3f61 cebb 26ca de3d 7532 0639 a576 183d
000002b0: 1449 3fbd 8a0c 303d 26ba 403d 2b12 d53d
000002c0: 3b43 d03c 6790 58bd 04d0 403d 0854 f83d
000002d0: ce07 cbbd dccd 96bd 3e45 8cbb 7bed eb39
000002e0: f79e 4a3d c8c8 1abe a11e 15bd 8a16 47bb
000002f0: a512 2a3c 46b2 26bd df29 5ebd 559b 9dbb
00000300: 4d0f dd3c cee5 1d3d ca7d ec3b a4c3 c0bd
00000310: b57c 033d 98b7 a13c b084 ee3c 6552 f2bc
00000320: ee67 0ebd 0844 a43c cd48 e6bb f342 dc3c
00000330: e04a fd3c 3d7a bfbc 86d2 013d 12c0 7f3b
00000340: 5440 c9bb 53e4 cabb 67b3 b8bb 77ba a13d
00000350: 7ebf db3c 567e e03a cfd3 243d 06b9 f3bc
00000360: fa76 5f3d e9a6 063d 083d 113d 2bc8 9dbc
00000370: 23f9 0a3d 4a66 853d c8ce 303d 2a0a 2f3d
00000380: d2d4 cdbc 493e 3abd 5604 d13b 1bbe 873d
00000390: 1c6e 273d 1b0d 143d d05f f0bb e2d5 2abc
000003a0: d5c8 413d aa6f 323b 7600 ae3b 8728 9ebd
000003b0: 78e9 5abc 54c8 79bc c6ec acbb 5905 61bc
000003c0: 6aac 19bd 13d9 113c c11d 1e3d ee4e d1b9
000003d0: aad0 12bc 6502 04bd 4e25 16bc 4e7e 993b
000003e0: bda5 c4bc 3f91 2d3d 4971 b33b e504 7f3d
000003f0: bd77 d1bb e66e b8bc 38b5 febc ef08 82bd

encoder.0.0.bias f4 [18]
-0.03971099 -0.012995037 -0.012941767 -0.017629204 0.06531662 -0.0042112204 0.09536606 0.070877485
-0.013781225 -0.0069057206 -0.012785596 -0.0096618775 -0.02874503 0.0049084635 -0.008707903 -0.044892754
-0.01460872 0.07765549
00000000: fea7 22bd 23e9 54bc b509 54bc 1f6b 90bc
00000010: b8c4 853d 47fe 89bb 484f c33d 3728 913d
00000020: a6ca 61bc 6249 e2bb ad7a 51bc da4c 1ebc
00000030: b27a ebbc 2dd7 a03b 98ab 0ebc 77e1 37bd
00000040: 6a59 6fbc d709 9f3d

encoder.0.1.weight f4 [18]
0.77545744 0.6711773 0.9947234 0.7912005 0.85149145 0.93476564 0.92941624 0.9858914
0.99360883 0.99615586 0.9312223 0.94122297 0.9859749 0.93739223 0.9199716 1.0718396
0.9356968 0.9833952
00000000: 6184 463f 47d2 2b3f 31a6 7e3f 1e8c 4a3f
00000010: 58fb 593f cd4c 6f3f 39ee 6d3f 6163 7c3f
00000020: 265d 7e3f 1204 7f3f 9664 6e3f fdf3 703f
00000030: da68 7c3f f0f8 6f3f 4283 6b3f 0a32 893f
00000040: d389 6f3f cabf 7b3f

encoder.0.1.bias f4 [18]
0.026301293 -0.002230887 0.016879821 0.035873335 0.0039987187 -0.03861828 0.013129832 0.054858252
-0.019375566 0.051450584 0.0012750204 -0.008064156 -0.012397691 0.045531683 0.011737135 -0.023588894
-0.04027908 0.0028261757
00000000: cf75 d73c 1334 12bb 8d47 8a3c ebef 123d
00000010: af07 833b 342e 1ebd 821e 573c 0cb3 603d
00000020: 82b9 9ebc d9bd 523d 961e a73a 861f 04bc
00000030: af1f 4bbc 6e7f 3a3d 1d4d 403c 7f3d c1bc
00000040: adfb 24bd 5c37 393b

encoder.0.1.running_mean f4 [18]
-0.029270027 -0.23956321 -0.007966666 -0.04866162 0.24503346 0.67859423 -0.11524264 -0.097640224
0.6586925 0.22394544 -0.11504669 -0.7051045 -0.38171235 -0.022839235 -0.055925965 -0.27780935
-0.06736342 -0.4158162
00000000: b2c7 efbc 0f50 75be 9e86 02bc 6851 47bd
00000010: 0dea 7a3e 5ab8 2d3f 5504 ecbd 99f7 c7bd
00000020: 12a0 283f f451 653e 999d ebbd ba81 34bf
00000030: cd6f c3be 5919 bbbc a012 65bd 073d 8ebe
00000040: d5f5 89bd dce5 d4be

encoder.0.1.running_var f4 [18]
0.00093584595 0.0003462937 0.0005458113 0.00068758783 0.00021264811 0.0011221413 0.0006181404 0.00013255642
0.00054826355 0.001276406 0.00018675732 0.00029682595 0.00067534833 0.00027765016 0.00095909246 0.0003945563
0.00065594766 0.0005776944
00000000: 8f53 753a c18e b539 c714 0f3a 3d3f 343a
00000010: 4bfa 5e39 d014 933a b30a 223a d8fe 0a39
00000020: 58b9 0f3a 144d a73a 49d4 4339 4e9f 9b39
00000030: dc09 313a 9391 9139 9b6b 7b3a 73dc ce39
00000040: e7f3 2b3a 6a70 173a

encoder.1.0.weight f4 [9, 18, 5]
0.07754801 0.047937557 -0.11611464 -0.011854275 -0.038482826 0.13068958 -0.009994593 -0.08687458
-0.018695202 -0.0098020565 -0.031360492 -0.036851034 0.09175828 0.10879192 0.041635107 -0.026775511
-0.04548575 0.038825557 0.029496847 -0.02499484 0.026865724 -0.0089780325 0.02635063 -0.013913253
0.013038733 -0.028461212 -0.09029303 -0.10955211 -0.06285227 0.09548892 0.06642035 0.06835101
0.014124839 -0.02183857 0.032127287 0.056549825 0.066384174 -0.06571612 -0.13442901 0.0020268578
-0.097878285 0.05825658 -0.042298343 -0.08504078 -0.10293269 -0.11802469 -0.019507945 -0.12830877
-0.045701686 -0.036492206 0.008729146 0.05308477 0.04760735 -0.010731351 -0.0069222255 0.09987678
0.14920089 0.016285233 -0.06071638 0.011435231 -0.020729909 0.045638226 0.020479813 -0.12563525
-0.10114314 0.053911872 -0.032200526 0.01959781 0.0015628319 0.034929287 0.009610153 -0.19493458
0.0056517688 -0.059392992 -0.021047857 0.0349267 -0.015535521 -0.038803253 -0.076023415 -0.047169507
0.02539955 0.10488002 0.020034969 -0.11306104 0.05497299 0.025243673 -0.05516018 0.048717484
-0.09629906 0.033880766 -0.0697698 0.017226318 -0.10766825 0.054579716 -0.0060285944 0.08024273
0.03964599 -0.03152705 0.04201266 0.060491912 0.023634855 0.07770685 0.13114025 0.15195078
-0.031853613 -0.015140635 -0.09120067 0.029686198 0.096336104 -0.047541786 0.00937673 -0.0056287698
0.14489345 -0.048927948 0.009473606 0.06945283 -0.04526235 -0.036710057 0.026579626 0.015772678
-0.02100675 -0.040664602 -0.056038935 -0.04936304 -0.0058909394 0.062250596 -0.09057409 -0.088217966
-0.057307176 0.13031562 -0.044004142 -0.014075581 -0.042504527 -0.047683977 -0.065955825 0.07544884
0.070009895 -0.089698486 0.083617814 -0.048100762 -0.06345483 -0.017514862 -0.06727308 -0.0102379285
0.0210315 0.03032312 -0.02319047 0.072277844 0.006941954 -0.057922132 0.0064401627 -0.08183619
-0.12885357 0.024265975 0.03287069 -0.04464932 -0.017261848 0.06271324 0.03285765 0.029057102
-0.038079645 -0.040497817 0.011919865 0.039751813 -0.004756818 -0.037654288 0.06912965 0.012182746
-0.078528814 -0.03138014 0.00052310876 -8.083918e-05 -0.066485696 -0.044450697 -0.07279989 0.0031403152
0.08011209 -0.10224647 -0.097619906 0.043989133 -0.0028290052 -0.047785435 -0.028050967 0.011768258
-0.019349644 -0.0725828 0.033152696 0.070147105 -0.016412973 0.11362889 -0.055991475 0.12820722
0.000809118 -0.054164592 -0.018987253 0.06020503 -0.078495316 -0.016883349 -0.020523211 0.07937247
0.024799634 -0.011796797 -0.08948231 -0.020093642 0.008277127 -0.07932299 0.046595957 -0.14348629
-0.07778422 -0.15623236 0.035559196 0.049234603 -0.018528461 0.009482775 -0.007197032 0.08455249
-0.02948101 -0.0020645102 -0.080781974 -0.011995899 0.10117217 0.101541966 -0.04469495 0.011714367
-0.03847645 0.0653156 -0.039411116 0.050155878 0.050284732 0.01872061 0.16324988 0.011543599
-0.046253096 0.014580117 0.027342144 0.036274944 0.14872696 0.075313665 -0.11529375 0.011294846
-0.027019845 -0.14689285 -0.056986157 0.018111056 0.019707182 -0.063789256 0.112592146 -0.009164738
-0.013745727 -0.12334059 -0.06915382 0.053150475 -0.00024593092 0.06971421 -0.036622286 -0.012326318
00000000: 7ed1 9e3d 2c5a 443d 83cd edbd 6f38 42bc
00000010: 2ba0 1dbd 7dd3 053e 5dc0 23bc 4deb b1bd
00000020: ae26 99bc ce98 20bc dc73 00bd 1cf1 16bd
00000030: c4eb bb3d 4cce de3d 9389 2a3d 5158 dbbc
00000040: 444f 3abd 8c07 1f3d 5fa3 f13c fbc1 ccbc
00000050: 8215 dc3c 9918 13bc 47dd d73c 6af4 63bc
00000060: 69a0 553c 7d27 e9bc 8deb b8bd db5c e0bd
00000070: b1b8 80bd b28f c33d 6407 883d 9dfb 8b3d
00000080: de6b 673c cde6 b2bc e797 033d caa0 673d
00000090: 6df4 873d 2c96 86bd c2a7 09be 08d5 043b
000000a0: 6974 c8bd 749e 6e3d 0741 2dbd dc29 aebd
000000b0: 60ce d2bd eeb6 f1bd 20cf 9fbc 6063 03be
000000c0: b131 3bbd da78 15bd b104 0f3c 6a6f 593d
000000d0: edff 423d 8cd2 2fbc d6d3 e2bb 328c cc3d
000000e0: 1ec8 183e 9c68 853c bdb1 78bd d65a 3b3c
000000f0: c5d1 a9bc 26ef 3a3d 48c5 a73c 87a6 00be
00000100: 2224 cfbd b2d2 5c3d b3e4 03bd 968b a03c
00000110: f0d7 cc3a 0312 0f3d e773 1d3c ee9c 47be
00000120: 7932 b93b 1146 73bd 8e6c acbc 4d0f 0f3d
00000130: b388 7ebc 29f0 1ebd 2ab2 9bbd d034 41bd
00000140: b812 d03c 56cb d63d 6020 a43c 8c8c e7bd
00000150: 5c2b 613d d2cb ce3c a4ef 61bd fc8b 473d
00000160: 7138 c5bd 8fc6 0a3d 78e3 8ebd 351e 8d3c
00000170: 2c81 dcbd fb8e 5f3d 848b c5bb 4d56 a43d
00000180: d563 223d 8222 01bd 7815 2c3d 5ec6 773d
00000190: e29d c13c c524 9f3d a149 063e fc98 1b3e
000001a0: ef78 02bd 6d10 78bc 6bc7 babd 7830 f33c
000001b0: dd4b c53d 2dbb 42bd dba0 193c 8b71 b8bb
000001c0: f35e 143e ac68 48bd 2f37 1b3c 493d 8e3d
000001d0: 0465 39bd 495d 16bd 84bd d93c b435 813c
000001e0: 5916 acbc ed8f 26bd 1589 65bd e630 4abd
000001f0: c808 c1bb 7bfa 7e3d e97e b9bd 9fab b4bd
00000200: eeba 6abd 7571 053e b03d 34bd 449d 66bc
00000210: 3a19 2ebd 4650 43bd d913 87bd ec84 9a3d
00000220: 5961 8f3d d7b3 b7bd d13f ab3d 4e05 45bd
00000230: 9bf4 81bd 547b 8fbc 78c6 89bd fcbc 27bc
00000240: 414a ac3c 3168 f83c f1f9 bdbc 6806 943d
00000250: 5579 e33b c23f 6dbd 0008 d33b bb99 a7bd
00000260: 31f2 03be 70c9 c63c 6ba3 063d 35e2 36bd
00000270: b868 8dbc cd6f 803d be95 063d 2909 ee3c
00000280: 67f9 1bbd 0ae1 25bd 8a4b 433c ccd2 223d
00000290: 15df 9bbb 623b 1abd d993 8d3d 249a 473c
000002a0: b7d3 a0bd 7688 00bd 3c21 093a 3488 a9b8
000002b0: a729 88bd ef11 36bd 1c18 95bd bfcd 4d3b
000002c0: cf11 a43d 9966 d1bd f2ec c7bd f32d 343d
000002d0: d566 39bb a9ba 43bd 24cb e5bc a7cf 403c
000002e0: 2583 9ebc 4ba6 94bd 1fcb 073d 49a9 8f3d
000002f0: 8074 86bc 43b6 e83d 5157 65bd c148 033e
00000300: fd1a 543a b1db 5dbd 288b 9bbc 8d99 763d
00000310: 27c2 a0bd f34e 8abc 4b20 a8bc 098e a23d
00000320: 9a28 cb3c 5a47 41bc 8042 b7bd 6c9b a4bc
00000330: c99c 073c 1774 a2bd 67db 3e3d 12ee 12be
00000340: 554d 9fbd 60fb 1fbe 85a6 113d 39aa 493d
00000350: 00c9 97bc a45d 1b3c 15d5 ebbb db29 ad3d
00000360: 2982 f1bc bc4c 07bb 0571 a5bd 728a 44bc
00000370: 5b33 cf3d 3cf5 cf3d 0d12 37bd 9eed 3f3c
00000380: 7b99 1dbd 2fc4 853d 8d6d 21bd 4070 4d3d
00000390: 5df7 4d3d f75b 993c fa2a 273e 5d21 3d3c
000003a0: e373 3dbd 71e1 6e3c a2fc df3c 0995 143d
000003b0: e14b 183e 0d3e 9a3d 211f ecbd 050e 393c
000003c0: b958 ddbc 146b 16be 516a 69bd a35d 943c
000003d0: f570 a13c f1a3 82bd b696 e63d b227 16bc
000003e0: c235 61bc fe99 fcbd 85a0 8dbd 50b4 593d
000003f0: 4af0 80b9 53c6 8e3d 4001 16bd 53f4 49bc

encoder.1.0.bias f4 [9]
-0.00076846493 0.079104975 -0.10477426 0.105400264 0.072641775 -0.0020290357 -0.020763272 0.025233597
-0.14229931
00000000: cf72 49ba ca01 a23d e393 d6bd 18dc d73d
00000010: 36c5 943d 92f9 04bb bd17 aabc b0b6 ce3c
00000020: e9b6 11be

encoder.1.1.weight f4 [9]
0.7288754 0.73331946 0.91257864 0.77571416 0.88261044 0.81095266 0.8620095 0.96886015
0.73906237
00000000: 9497 3a3f d3ba 3b3f c19e 693f 3495 463f
00000010: c2f2 613f 989a 4f3f a8ac 5c3f 3807 783f
00000020: 3133 3d3f

encoder.1.1.bias f4 [9]
0.0053971517 -0.020200038 0.009572015 0.0100836 0.017928854 0.0482776 -0.044274196 0.0112163145
-0.022979897
00000000: 97da b03b 8d7a a5bc f1d3 1c3c af35 253c
00000010: 88df 923c bcbe 453d dc58 35bd a2c4 373c
00000020: 5640 bcbc

encoder.1.1.running_mean f4 [9]
-0.08339785 0.0972656 -0.15957592 0.13877998 -0.026902013 -0.08789265 -0.004556601 -0.0037035919
-0.24872035
00000000: 7ecc aabd 3033 c73d df67 23be 571c 0e3e
00000010: 9c61 dcbc 1001 b4bd 8a4f 95bb f6b7 72bb
00000020: 8cb0 7ebe

encoder.1.1.running_var f4 [9]
0.11249497 0.38354433 1.1721545 0.5646336 0.14034581 0.21241608 0.357189 0.5239458
0.10564047
00000000: c363 e63d ec5f c43e 2909 963f d48b 103f
00000010: d0b6 0f3e 9a83 593e 7ae1 b63e 5021 063f
00000020: 085a d83d

encoder.2.0.weight f4 [5, 9, 5]
0.117339335 -0.01688916 0.065781824 -0.08868116 0.036823586 0.09232645 -0.17746748 0.026312372
0.0053200554 -0.031105274 0.09820997 -0.04396002 0.04650083 0.08616923 -0.033109233 -0.0837329
0.026376415 0.032989286 0.036448922 0.0135894995 -0.012998033 -0.05288457 -0.1814272 0.06604097
-0.18298057 0.019544695 -0.013443364 -0.06253804 0.0016061534 0.0784732 0.06788338 -0.10907111
-0.060266532 -0.020815905 -0.10211889 -0.06934205 -0.038069334 0.01609996 -0.021546142 -0.026389437
0.09496025 -0.024995169 0.07887579 -0.030499225 0.06998137 -0.13206378 0.014950674 -0.012033135
-0.003672356 -0.13918798 0.1678732 -0.0006724808 -0.042822104 -0.08614034 -0.08563029 -0.14144081
0.011189918 0.15342012 -0.07978245 -0.06012651 -0.06439573 -0.06586583 0.055225752 -0.12764165
0.059796773 -0.16534431 -0.0059677092 0.113945514 -0.0027752824 -0.11003372 0.036167275 0.034065805
-0.049981136 0.06703677 -0.058483362 0.08989875 0.05029026 0.034182962 -0.14206886 0.077335194
-0.057367735 0.046866216 -0.12201283 -0.034046426 -0.0034153392 0.02404215 0.1612052 -0.029574433
-0.051946025 0.12925684 0.14518121 -0.031569343 -0.08225651 0.12461924 -0.010855471 0.042334158
-0.15030244 0.015989305 -0.060774304 -0.08301962 -0.011717333 0.21374889 0.13510291 0.05603093
0.06917626 0.120292164 0.10621197 0.06925141 -0.118895 0.07338478 -0.0028586213 -0.03165885
-0.07780279 -0.076793626 0.046059813 -0.06938397 0.021465497 0.0006798724 0.020051217 0.13225019
0.13026044 0.2509038 0.06566774 0.13438404 0.21492992 0.1289678 -0.1571221 -0.11232528
-0.048237737 -0.06614732 0.11330078 0.11186067 -0.016088145 0.037891947 -0.10954014 0.05095358
-0.090142645 0.072632715 0.09828154 -0.03674192 -0.083317794 -0.051832072 0.010819142 0.15448654
-0.07122851 0.07594883 0.07232376 0.0038099817 -0.025955163 -0.060035944 0.0037330273 -0.036958944
0.04085443 0.10221254 -0.038073864 0.027507462 -0.0031690253 0.038469296 0.08835636 -0.05269231
-0.035676084 -0.013258163 0.008397612 0.08847195 0.119725816 -0.11635177 0.08044828 -0.050665602
0.031215709 -0.016805023 0.059928752 0.102574356 -0.05203843 -0.10434026 -0.02135689 -0.0025813107
-0.19367845 0.06702613 0.10630082 -0.15110004 0.037045155 0.08959466 -0.03282405 -0.13574514
0.03450835 0.054599456 0.12942365 -0.09910281 -0.042089608 -0.014116481 0.018393215 -0.18453191
-0.052281316 -0.13602425 -0.14326319 0.08094033 0.020169951 0.03040718 -0.12167478 0.095601805
0.08849048 0.08781196 -0.0020707692 -0.074492544 0.051147766 -0.044656694 -0.078098945 0.052513223
0.13859051 -0.00860298 0.10862699 0.12706605 0.14797208 0.023528831 -0.054569498 0.06313481
-0.087972105 -0.12698562 -0.079878695 -0.00069813733 0.09456216 0.036332976 -0.01400835 0.08101754
0.12731248
00000000: 9b4f f03d 235b 8abc 9fb8 863d 789e b5bd
00000010: 54d4 163d a615 bd3d 09ba 35be 0b8d d73c
00000020: dc53 ae3b 7dd0 febc 4f22 c93d 6c0f 34bd
00000030: a877 3e3d 7e79 b03d 8c9d 07bd 287c abbd
00000040: 5a13 d83c c61f 073d 774b 153d 7ea6 5e3c
00000050: b4f5 54bc 7e9d 58bd 0dc8 39be 7d40 873d
00000060: 425f 3bbe 321c a03c 8e41 5cbc f213 80bd
00000070: 9185 d23a 8fb6 a03d 7106 8b3d ad60 dfbd
00000080: 0ada 76bd 1e86 aabc b523 d1bd 3403 8ebd
00000090: 97ee 1bbd 10e4 833c 8981 b0bc a92e d8bc
000000a0: 857a c23d abc2 ccbc a189 a13d 83d9 f9bc
000000b0: 6452 8f3d ba3b 07be acf3 743c a026 45bc
000000c0: e9ab 70bb 4b87 0ebe f4e6 2b3e 6c49 30ba
000000d0: 3b66 2fbd 596a b0bd ef5e afbd dcd5 10be
000000e0: eb55 373c 2a1a 1d3e fb64 a3bd 3747 76bd
000000f0: e9e1 83bd aae4 86bd 6634 623d 7eb4 02be
00000100: 76ed 743d 0550 29be c68c c3bb 445c e93d
00000110: 83e1 35bb 5c59 e1bd 2324 143d 9688 0b3d
00000120: 05b9 4cbd 934a 893d 408c 6fbd d61c b83d
00000130: 29fd 4d3d 6f03 0c3d 807a 11be ea61 9e3d
00000140: 6efa 6abd caf6 3f3d dde1 f9bd 4474 0bbd
00000150: e2d3 5fbb 0bf4 c43c fa12 253e 1546 f2bc
00000160: 5bc5 54bd e85b 043e 62aa 143e db4e 01bd
00000170: 1a76 a8bd 5f38 ff3d 25db 31bc 9566 2d3d
00000180: e2e8 19be 01fc 823c 7aee 78bd 3106 aabd
00000190: 0ffa 3fbc fde0 5a3e 6b58 0a3e b080 653d
000001a0: 48ac 8d3d bd5b f63d a985 d93d afd3 8d3d
000001b0: 397f f3bd c24a 963d b557 3bbb b6ac 01bd
000001c0: 1257 9fbd fa45 9dbd 37a9 3c3d 2f19 8ebd
000001d0: 69d8 af3c 7739 323a 7342 a43c 986c 073e
000001e0: fe62 053e 7676 803e cf7c 863d f89b 093e
000001f0: 9716 5c3e 2310 043e 9ee4 20be cc0a e6bd
00000200: ef94 45bd 3f78 87bd 3d0a e83d 3517 e53d
00000210: 49cb 83bc 9634 1b3d 9556 e0bd b3b4 503d
00000220: b59c b8bd 76c0 943d d547 c93d b27e 16bd
00000230: 85a2 aabd de4d 54bd c542 313c b831 1e3e
00000240: 41e0 91bd 0f8b 9b3d 7b1e 943d e3b0 793b
00000250: ec9f d4bc 40e8 75bd cea5 743b 4362 17bd
00000260: fa56 273d cf54 d13d 57f3 1bbd 5457 e13c
00000270: 6caf 4fbb fb91 1d3d 2ef4 b43d e4d3 57bd
00000280: 1621 12bd c438 59bc 2396 093c c830 b53d
00000290: cf32 f53d d649 eebd 11c2 a43d bc86 4fbd
000002a0: 16b8 ff3c b0aa 89bc da77 753d 8112 d23d
000002b0: 4026 55bd 59b0 d5bd a5f4 aebc 352b 29bb
000002c0: a553 46be ff44 893d 3fb4 d93d f8b9 1abe
000002d0: a9bc 173d 687d b73d 8372 06bd c600 0bbe
000002e0: a158 0d3d aea3 5f3d a287 043e 6af6 cabd
000002f0: 2766 2cbd d048 67bc 5ead 963c eff5 3cbe
00000300: ef24 56bd f149 0bbe 96b3 12be 0bc4 a53d
00000310: 743b a53c 7a18 f93c a130 f9bd e1ca c33d
00000320: 7f3a b53d c2d6 b33d beb5 07bb 8c8f 98bd
00000330: 5280 513d f0e9 36bd 57f2 9fbd 1b18 573d
00000340: acea 0d3e 83f3 0cbc d477 de3d 9a1d 023e
00000350: fe85 173e 89bf c03c 4484 5fbd d34c 813d
00000360: b82a b4bd 8508 02be 7197 a3bd 3403 37ba
00000370: cea9 c13d e3d1 143d 4783 65bc 86ec a53d
00000380: 345e 023e

encoder.2.0.bias f4 [5]
0.1439066 -0.04149704 -0.16979615 -0.085133955 -0.10048603
00000000: 405c 133e cdf8 29bd 0bdf 2dbe b65a aebd
00000010: 9fcb cdbd

encoder.2.1.weight f4 [5]
0.79446083 0.6978536 1.005865 0.8656285 0.61509997
00000000: c961 4b3f 89a6 323f 2fc0 803f d499 5d3f
00000010: 3177 1d3f

encoder.2.1.bias f4 [5]
0.026681956 -0.00188959 -0.14722884 0.012758669 -0.010267596
00000000: 1e94 da3c 1fac f7ba 28c3 16be bd09 513c
00000010: 6b39 28bc

encoder.2.1.running_mean f4 [5]
0.20062226 -0.038627595 -0.00824136 -0.054415576 -0.09345255
00000000: ec6f 4d3e f837 1ebd c506 07bc dee2 5ebd
00000010: 0d64 bfbd

encoder.2.1.running_var f4 [5]
0.1314651 0.10318906 0.43127185 0.19588272 0.3516929
00000000: ca9e 063e c954 d33d aacf dc3e 7b95 483e
00000010: 1711 b43e

encoder.3.0.weight f4 [2, 5, 5]
0.015894437 0.13107659 -0.008710101 -0.031317167 0.09710055 0.08884733 -0.01228615 0.03915535
-0.0058301864 0.10137026 -0.01673814 -0.22216824 -0.2991945 -0.017314916 -0.082657486 -0.079622634
0.04963036 -0.01627875 0.04022721 -0.067036115 0.09256039 -0.10876172 -0.058581695 0.06490579
-0.043895666 -0.1444338 -0.07756937 0.15788259 0.04219409 -0.06585734 -0.002725309 -0.008079618
0.06959376 0.042673126 0.026755283 -0.018420381 0.112692125 -0.027386192 0.1181372 0.18320535
-0.006470538 -0.059475943 0.06779536 -0.041724116 0.025238734 -0.14435413 -0.115144424 0.008477533
-0.115272865 -0.20360021
00000000: 0d35 823c f138 063e d0b4 0ebc 6e46 00bd
00000010: a7dc c63d 97f5 b53d d94b 49bc 5c61 203d
00000020: 260b bfbb 369b cf3d 6c1e 89bc 1280 63be
00000030: 0630 99be 03d8 8dbc 5448 a9bd 3111 a3bd
00000040: 3449 4b3d 035b 85bc 49c5 243d 3b4a 89bd
00000050: 4d90 bd3d 77be debd 5cf3 6fbd 54ed 843d
00000060: f1cb 33bd 74e6 13be b1dc 9ebd f9ab 213e
00000070: b6d3 2c3d 37e0 86bd 199b 32bb 6060 04bc
00000080: 2c87 8e3d 04ca 2e3d e52d db3c 57e6 96bc
00000090: 21cb e63d 0259 e0bc ebf1 f13d 2f9a 3b3e
000000a0: cf06 d4bb 0c9d 73bd 4bd8 8a3d e8e6 2abd
000000b0: 76c1 ce3c 92d1 13be d7d0 ebbd 5ae5 0a3c
000000c0: 2e14 ecbd 937c 50be

encoder.3.0.bias f4 [2]
0.16887456 -0.22726615
00000000: 74ed 2c3e 75b8 68be

encoder.3.1.weight f4 [2]
0.7933726 0.68403554
00000000: 771a 4b3f f41c 2f3f

encoder.3.1.bias f4 [2]
0.1046436 -0.17620474
00000000: 624f d63d 046f 34be

encoder.3.1.running_mean f4 [2]
0.18837094 -0.25388694
00000000: 50e4 403e 78fd 81be

encoder.3.1.running_var f4 [2]
0.33223736 0.1057592
00000000: 041b aa3e 4898 d83d

decoder.0.0.weight f4 [2, 5, 5]
0.047561683 -0.10209448 0.2420186 -0.028481245 -0.10143235 0.13295871 0.013268805 -0.038113873
-0.17106557 -0.11223313 -0.110418454 -0.064023696 -0.0672318 -0.06740704 -0.064247064 -0.12658848
-0.20520972 0.08099607 0.006986782 -0.01812851 -0.039817095 0.029883739 0.05128475 -0.01432491
-0.05879208 0.025129007 -0.058697432 0.12187035 -0.02980088 0.11927043 -0.00013816978 0.024993831
-0.009881968 0.0020600404 0.009308671 -0.116603225 0.082887724 0.13527273 0.14644025 -0.046471708
0.0037168239 -0.16776615 0.07041552 0.017021472 0.15077937 0.036867376 -0.04113548 0.01476384
0.0027711343 0.017204015
00000000: 0ad0 423d e916 d1bd b9d3 773e 8051 e9bc
00000010: c4bb cfbd 5426 083e 6765 593c 4b1d 1cbd
00000020: d02b 2fbe 7cda e5bd 1223 e2bd db1e 83bd
00000030: d3b0 89bd b40c 8abd f793 83bd 69a0 01be
00000040: 7f22 52be 44e1 a53d 60f1 e43b 3e82 94bc
00000050: 4017 23bd bece f43c f50f 523d 07b3 6abc
00000060: f7cf 70bd 59db cd3c b86c 70bd 2997 f93d
00000070: fa20 f4bc 0e44 f43d abe1 10b9 ddbf cc3c
00000080: fae7 21bc be01 073b 6583 183c accd eebd
00000090: 0ac1 a93d ef84 0a3e 6ff4 153e 1e59 3ebd
000000a0: f595 733b e4ca 2bbe 0336 903d 9d70 8b3c
000000b0: e865 1a3e 3f02 173d ad7d 28bd 08e4 713c
000000c0: eb9b 353b 6fef 8c3c

decoder.0.0.bias f4 [5]
-0.018977616 -0.06916472 0.15082021 0.22436915 0.14390275
00000000: f276 9bbc 3ca6 8dbd 9d70 1a3e 07c1 653e
00000010: 3e5b 133e

decoder.0.1.weight f4 [5]
0.87446785 0.89771307 0.87136966 0.9037668 0.9001707
00000000: 20dd 5f3f 86d0 653f 1512 5f3f 435d 673f
00000010: 9671 663f

decoder.0.1.bias f4 [5]
-0.014960248 -0.048098784 -0.018755255 -0.015616628 0.045945734
00000000: d41b 75bc 3b03 45bd 9fa4 99bc e3dc 7fbc
00000010: 9831 3c3d

decoder.0.1.running_mean f4 [5]
-0.08504086 -0.11118975 0.017497934 0.15891895 0.17733201
00000000: e729 aebd 74b7 e3bd d457 8f3c a6bb 223e
00000010: 8696 353e

decoder.0.1.running_var f4 [5]
0.15558445 0.049102645 0.35857415 0.09658292 0.08621393
00000000: 8851 1f3e db1f 493d 0897 b73e 44cd c53d
00000010: ee90 b03d

decoder.1.0.weight f4 [5, 9, 5]
-0.19661227 0.023016047 0.045267534 -0.091898635 -0.06536574 -0.1846186 -0.049206983 0.049645446
0.09144856 -0.03766755 0.07779212 -0.106178075 0.06613681 -0.009890804 0.08033257 0.11838132
0.07251386 -0.033775024 0.021765187 0.047305193 -0.02208379 -0.07238774 0.020419594 -0.030584581
0.054402135 -0.001962764 -0.093506806 -0.0117690945 -0.049857102 -0.07069938 -0.10401761 -0.005961228
-0.11835056 0.029049229 -0.033031277 0.05799989 -0.07785759 -0.091999136 0.0036553808 0.037954405
-0.016410444 0.022757273 -0.033754237 -0.029747019 0.0018461519 0.11936171 0.034099564 0.04943308
-0.040842783 0.20121327 0.021553632 -0.003997774 -0.070911266 -0.17039834 -0.14121264 -0.105530694
0.15345229 -0.07509327 0.095507756 0.12849663 0.027850768 -0.07332175 0.0024425038 0.025109416
-0.09770655 0.08377053 -0.11891688 -0.05313152 0.07214779 -0.11017323 -0.07064421 0.08120468
0.0033257208 0.13112229 0.036426127 -0.048605077 0.0074858116 0.13173304 0.026953159 -0.029860232
-0.0254813 -0.1283289 -0.046002932 -0.079580754 -0.09083046 -0.04014612 -0.045977782 0.04324215
-0.06386695 -0.047793914 -0.09555261 -0.17287304 -0.03774706 -0.1854908 0.060207464 0.09959642
0.055429835 -0.024858886 0.0073555345 -0.110997945 0.039874185 0.005293796 0.036720037 -0.12081389
-0.10891206 -0.029846631 -0.10885624 -0.11192805 0.10695996 0.023821605 -0.021013232 0.064451285
0.00456094 0.05999729 0.08344606 -0.02766114 -0.118118085 0.086892165 0.08378227 0.011294963
0.120293416 0.033651255 0.0855858 -0.02560817 -0.069157735 0.07651369 0.07105699 0.0034932212
0.025876256 -0.089371316 0.07604852 -0.039787248 0.12639657 0.05044625 -0.07167046 0.033061665
-0.26526198 0.059745632 0.09499361 -0.0020132258 0.11248237 0.026690992 0.12528102 0.021463571
0.051100284 0.061737973 0.05179172 0.07710896 -0.15329541 -0.09990933 -0.05608408 0.06097117
0.106942475 0.09553727 0.04780467 0.10766178 0.0067026545 -0.13983388 0.08302336 -0.13616155
0.002049026 -0.13881154 -0.15665603 0.05027815 -0.006822173 -0.02714112 -0.036499973 0.07504127
-6.9701666e-05 0.028801493 0.18669301 0.16591921 0.027030177 0.04469587 0.07659555 -0.06323954
0.05717068 0.00031014852 0.09668588 0.024657603 0.022448123 0.01499369 0.08223105 -0.13317625
-0.018373562 -0.015348291 -0.039424654 -0.049288034 -0.11243935 0.16404533 -0.05966531 0.1768257
0.16031097 0.07395431 -0.0019994874 0.122299895 -0.13038917 -0.12114598 -0.11695221 -0.085379526
0.07347684 0.10576683 0.07118256 -0.13532346 0.13012479 0.0387381 0.061145008 0.09482969
-0.039676238 -0.098048314 -0.011006355 0.1071722 0.011647515 0.06733465 0.053611513 0.05527925
-0.054100327 -0.1557171 -0.0849556 -0.066326976 0.1835385 -0.08341602 0.058367822 -0.05887557
-0.09852067
00000000: ba54 49be 268c bc3c 736a 393d 5a35 bcbd
00000010: 79de 85bd a90c 3dbe 438d 49bd 0659 4b3d
00000020: 6249 bb3d 4a49 1abd 7a51 9f3d e473 d9bd
00000030: bc72 873d 0a0d 22bc 6785 a43d e871 f23d
00000040: 2682 943d ae57 0abd e84c b23c 17c3 413d
00000050: 10e9 b4bc 0640 94bd fe46 a73c 848c fabc
00000060: c6d4 5e3d b7a1 00bb 7f80 bfbd 29d3 40bc
00000070: f636 4cbd d6ca 90bd 2f07 d5bd 6856 c3bb
00000080: c761 f2bd a6f8 ed3c ce4b 07bd 4b91 6d3d
00000090: cd73 9fbd 0b6a bcbd 1d8f 6f3b 1476 1b3d
000000a0: 326f 86bc 766d ba3c e241 0abd 05b0 f3bc
000000b0: 94fa f13a ea73 f43d fcab 0b3d 577a 4a3d
000000c0: c34a 27bd da0a 4e3e 3e91 b03c c2ff 82bb
000000d0: ed39 91bd e77c 2ebe 0c9a 10be 7a20 d8bd
000000e0: 9922 1d3e 80ca 99bd 9299 c33d 9f94 033e
000000f0: 4b27 e43c b729 96bd 6a12 203b 43b2 cd3c
00000100: 5f1a c8bd e28f ab3d b18a f3bd 70a0 59bd
00000110: 38c2 933d 81a2 e1bd e9ad 90bd a44e a63d
00000120: 56f4 593b ec44 063e 9033 153d 1e16 47bd
00000130: 8a4b f53b 07e5 063e dfcc dc3c 729d f4bc
00000140: 29be d0bc a768 03be 926d 3cbd 3cfb a2bd
00000150: 5205 babd 4270 24bd 3353 3cbd ae1e 313d
00000160: adcc 82bd 8dc3 43bd 16b1 c3bd a105 31be
00000170: a99c 1abd 4df1 3dbe 1a9c 763d 35f9 cb3d
00000180: 650a 633d dda4 cbbc b206 f13b e452 e3bd
00000190: 1d53 233d 9477 ad3b c067 163d 466d f7bd
000001a0: 490d dfbd ec80 f4bc 05f0 debd 893a e5bd
000001b0: d30d db3d 8725 c33c f123 acbc 09ff 833d
000001c0: f073 953b b8bf 753d c5e5 aa3d 9d99 e2bc
000001d0: e5e7 f1bd 85f4 b13d 0a96 ab3d 820e 393c
000001e0: 655c f63d e6d5 093d 9c47 af3d 3ac8 d1bc
000001f0: 92a2 8dbd 36b3 9c3d 5486 913d 87ee 643b
00000200: 71fa d33c 4f08 b7bd 54bf 9b3d f4f7 22bd
00000210: 1a6e 013e baa0 4e3d f6c7 92bd ab6b 073d
00000220: 6bd0 87be d6b7 743d 038c c23d 53f0 03bb
00000230: 285d e63d 11a7 da3c ab49 003e 5fd4 af3c
00000240: 884e 513d f5e0 7c3d 8e23 543d 4deb 9d3d
00000250: 79f9 1cbe 439d ccbd 6cb8 65bd e8bc 793d
00000260: a804 db3d 0ba9 c33d d4ce 433d c87d dc3d
00000270: f1a1 db3b 9d30 0fbe 2708 aa3d ef6d 0bbe
00000280: f448 063b 9d24 0ebe 706a 20be 76f0 4d3d
00000290: 898c dfbb 0e57 debc ff80 15bd 3daf 993d
000002a0: cc2c 92b8 1cf1 eb3c 742c 3f3e bae6 293e
000002b0: 646e dd3c 0413 373d 21de 9c3d bb83 81bd
000002c0: ce2b 6a3d 6e9b a239 3f03 c63d befe c93c
000002d0: 20e5 b73c 18a8 753c c168 a83d 5b5f 08be
000002e0: 2784 96bc 6677 7bbc bf7b 21bd 40e2 49bd
000002f0: 9a46 e6bd 80fb 273e 9d63 74bd cc11 353e
00000300: 8f28 243e 5b75 973d d509 03bb 5e78 fa3d
00000310: bd84 05be 621b f8bd a484 efbd 76db aebd
00000320: 077b 963d 489c d83d 29c8 913d 3c92 0abe
00000330: 6f3f 053e d8ab 1e3d 3073 7a3d 1236 c23d
00000340: 8d83 22bd 8ecd c8bd 0054 34bc 197d db3d
00000350: 38d5 3e3c c0e6 893d bf97 5b3d 7f6c 623d
00000360: 4e98 5dbd 4e74 1fbe 34fd adbd 70d6 87bd
00000370: 84f1 3b3e 05d6 aabd 1913 6f3d 8227 71bd
00000380: 34c5 c9bd

decoder.1.0.bias f4 [9]
-0.011700387 0.009599544 0.06647446 0.033102363 0.091915704 0.12034112 0.17738213 0.06579769
-0.15633018
00000000: fbb2 3fbc 6847 1d3c c323 883d 5896 073d
00000010: 4d3e bc3d 6875 f63d a9a3 353e f0c0 863d
00000020: 0515 20be

decoder.1.1.weight f4 [9]
0.8427712 1.1223761 0.9153377 0.71681345 0.78408587 0.86653966 0.8652299 0.7504495
0.7928807
00000000: dabf 573f 05aa 8f3f 9253 6a3f 1681 373f
00000010: dab9 483f 8bd5 5d3f b57f 5d3f 751d 403f
00000020: 3bfa 4a3f

decoder.1.1.bias f4 [9]
-0.019192161 -0.02300083 0.050000474 0.008037382 -0.0033094573 0.065233625 0.024111992 -0.038854018
0.023152655
00000000: e138 9dbc 3d6c bcbc 4ccd 4c3d 39af 033c
00000010: 7be3 58bb 3599 853d 8386 c53c 6425 1fbd
00000020: a3aa bd3c

decoder.1.1.running_mean f4 [9]
0.014310373 0.009531683 0.089456625 0.058655486 0.06141146 0.08186084 0.19054188 0.105514176
-0.17970873
00000000: 0e76 6a3c c72a 1c3c 0935 b73d bc40 703d
00000010: 958a 7b3d a8a6 a73d 691d 433e d117 d83d
00000020: 9105 38be

decoder.1.1.running_var f4 [9]
0.3094783 0.14771281 0.32813972 0.15053937 0.101416595 0.15072928 0.21800782 0.17622054
0.12954418
00000000: f173 9e3e 0742 173e ee01 a83e fe26 1a3e
00000010: 81b3 cf3d c758 1a3e 713d 5f3e 2873 343e
00000020: 3ba7 043e

decoder.2.0.weight f4 [9, 18, 5]
-0.041604176 -0.018381052 0.09551027 -0.008241019 -0.037250992 -0.034442127 -0.029419076 0.08908192
-0.03865846 -0.01438413 0.0474685 0.0029409626 -0.0017837643 0.040166322 0.021249922 0.007633929
0.15051708 0.10648303 0.04763001 0.1167579 0.09778706 -0.08950865 -0.10135702 -0.054476596
0.0023566075 0.07618229 0.010355237 -0.05445682 -0.046632897 -0.02957771 -0.057372022 0.13720496
-0.0982757 0.008243334 0.018383581 0.019861352 0.0124252355 0.0012564656 -0.0024746128 0.032934275
0.050319314 -0.0024495749 -0.0010255054 0.021213189 -0.09754491 0.011016365 0.03624489 -0.03302904
0.05649089 0.05478918 0.02935724 -0.013451507 -0.016821519 0.114479564 -0.0057113995 -0.0653886
-0.0038085666 0.043169565 -0.08263882 0.00066060986 0.08415319 -0.052657038 0.11332758 0.09123525
-0.010905026 -0.013140626 -0.01283168 -0.05641169 0.0010636334 0.068043634 0.0024978167 -0.11627805
-0.05791981 -0.024693359 -0.063199334 0.09767852 -0.020131236 0.0687992 -0.024822718 -0.07402362
-0.08009755 0.032520175 -0.12641023 -0.15011017 0.036514703 -0.007704684 -0.018749667 -0.060849812
-0.08298566 0.036424804 -0.08352765 -0.04522928 0.024930336 0.044593252 -0.041581925 -0.07564384
-0.21431354 -0.074607864 -0.0122880805 -0.07374248 0.078064345 -0.04366832 -0.081262626 -0.17896649
-0.096136115 0.114141226 0.037530676 -0.08185606 0.1539435 0.1374287 0.09291939 0.066187866
-0.16992672 -0.04849274 -0.14393052 0.12532079 0.088083744 0.092654414 0.16158898 0.021142554
0.045992296 -0.0041356273 -0.15611379 -0.25134623 -0.05055824 0.0064341947 -0.04726618 0.04958189
-0.020747209 -0.18926068 -0.08489589 -0.033182487 0.029178992 0.020491496 0.059840303 -0.06858402
-0.15646842 -0.042985283 0.0788161 0.09609097 0.101614885 -0.17925107 -0.06300405 -0.0019306624
0.022533718 -0.048107162 0.04599803 -0.044525918 -0.02279824 0.05338409 0.100499846 0.049310032
-0.024526482 0.07295095 0.05604986 0.044791806 0.0428978 0.066825114 -0.16710839 -0.108971365
0.005393297 0.0962703 -0.046160314 -0.18272553 0.061594527 0.02264183 -0.06138789 -0.0030765375
-0.087761246 0.033357598 -0.14613909 -0.26711842 -0.046975352 -0.030692035 0.03745247 0.0026004491
-0.009491372 0.072734125 -0.1341763 -0.024002193 0.11750125 0.08224047 -0.053937066 0.0579682
-0.06054038 -0.106032215 -0.013172585 -0.052936092 -0.01701965 0.001661947 -0.098989666 -0.029074723
0.12754819 0.0013286086 -0.013786315 -0.00022232787 -0.007283808 0.077710144 -0.09253731 -0.05389928
-0.03544433 0.08165266 -0.0022849168 -0.017467624 -0.07416203 0.024191536 -0.020213189 -0.0030421247
-0.07621453 -0.00376469 0.047509667 0.071630776 -0.07445895 -0.055661302 0.080692776 0.067558505
-0.024973677 0.0009277549 -0.086079106 -0.07295799 0.04628548 -0.03634884 -0.034961436 -0.039783303
-0.0930644 -0.027006794 -0.0016946011 -0.056293078 -0.055145327 0.0033357022 -0.0055289827 -0.04478536
-0.050446715 -0.036701456 -0.008932652 0.057910834 -0.035979554 0.094715916 0.060154095 0.009067073
-0.00787207 0.07234712 0.0972971 0.03288523 0.03507859 0.04611508 -0.05587348 0.0036366938
0.04094341 0.026476417 -0.07956142 -0.1597415 -0.13518886 -0.0013360503 -0.10817952 0.050243273
00000000: 2469 2abd dc93 96bc e39a c33d 5705 07bc
00000010: 7f94 18bd 3013 0dbd 4600 f1bc 9570 b63d
00000020: 5558 1ebd 6aab 6bbc 546e 423d 2abd 403b
00000030: 33cd e9ba 7185 243d 5114 ae3c 0a26 fa3b
00000040: 2621 1a3e c613 da3d af17 433d c41e ef3d
00000050: 9544 c83d 5050 b7bd 4594 cfbd da22 5fbd
00000060: 5071 1a3b 7605 9c3d 03a9 293c 1d0e 5fbd
00000070: 2302 3fbd f44c f2bc edfe 6abd 757f 0c3e
00000080: c544 c9bd 0c0f 073c 2a99 963c 46b4 a23c
00000090: 3793 4b3c fdaf a43a 1d2d 22bb 17e6 063d
000000a0: a01b 4e3d 0c89 20bb 406a 86ba 48c7 ad3c
000000b0: a0c5 c7bd fc7d 343c 8675 143d 7549 07bd
000000c0: fe62 673d 9f6a 603d 987e f03c b663 5cbc
000000d0: 48cd 89bc 4374 ea3d b126 bbbb 75ea 85bd
000000e0: 2599 79bb 92d2 303d 8b3e a9bd c72c 2d3a
000000f0: 8258 ac3d e8ae 57bd 4a18 e83d 8cd9 ba3d
00000100: ffaa 32bc c84b 57bc f73b 52bc f20f 67bd
00000110: 9d69 8b3a 765a 8b3d 69b2 233b 3023 eebd
00000120: 533d 6dbd ba49 cabc a76e 81bd ad0b c83d
00000130: 43ea a4bc 98e6 8c3d 0359 cbbc b299 97bd
00000140: 2f0a a4bd e033 053d af71 01be 7bb6 19be
00000150: 7190 153d 9377 fcbb e798 99bc a73d 79bd
00000160: 63f4 a9bd 2d32 153d 8b10 abbd 5642 39bd
00000170: b43a cc3c 6aa7 363d cf51 2abd 28eb 9abd
00000180: 0275 5bbe 02cc 98bd f253 49bc 4c06 97bd
00000190: 33e0 9f3d 8ddd 32bd 056d a6bd fe42 37be
000001a0: 03e3 c4bd e0c2 e93d c4b9 193d 26a4 a7bd
000001b0: 5da3 1d3e 1cba 0c3e 854c be3d 818d 873d
000001c0: 4501 2ebe 53a0 46bd 8662 13be 1854 003e
000001d0: 4065 b43d 99c1 bd3d 9577 253e 2633 ad3c
000001e0: 6b62 3c3d 2884 87bb 4bdc 1fbe 74b0 80be
000001f0: 2816 4fbd f0d5 d23b 2f9a 41bd 6116 4b3d
00000200: 0df6 a9bc 8dcd 41be e5dd adbd 5cea 07bd
00000210: c808 ef3c c8dd a73c 1b1b 753d c775 8cbd
00000220: 4239 20be 5611 30bd 566a a13d 58cb c43d
00000230: 771b d03d 988d 37be 4408 81bd 480e fdba
00000240: a298 b83c 040c 45bd 6e68 3c3d cf60 36bd
00000250: 60c3 babc 47a9 5a3d ddd2 cd3d 51f9 493d
00000260: c3eb c8bc 4f67 953d 8a94 653d 9d77 373d
00000270: 9bb5 2f3d 9bdb 883d 761e 2bbe 612c dfbd
00000280: 41ba b03b 5d29 c53d 9912 3dbd 671c 3bbe
00000290: 8b4a 7c3d 5c7b b93c de71 7bbd bc9f 49bb
000002a0: 2bbc b3bd faa1 083d 7ca5 15be bfc3 88be
000002b0: 3a69 40bd dd6d fbbc c367 193d 4c6c 2a3b
000002c0: b381 1bbc a1f5 943d 8365 09be 3fa0 c4bc
000002d0: 7fa4 f03d b16d a83d 1ded 5cbd 1070 6d3d
000002e0: 31f9 77bd 6b27 d9bd d3d1 57bc 84d3 58bd
000002f0: cb6c 8bbc b0d5 d93a 18bb cabd 1d2e eebc
00000300: fe9b 023e b524 ae3a ffdf 61bc af20 69b9
00000310: 03ad eebb 7f26 9f3d 3484 bdbd 7ec5 5cbd
00000320: 132e 11bd 8339 a73d 8bbe 15bb 4318 8fbc
00000330: 43e2 97bd 542d c63c 2196 a5bc 625e 47bb
00000340: 5d16 9cbd 04b9 76bb 7f99 423d 28b3 923d
00000350: ef7d 98bd 1bfd 63bd 4142 a53d 1d5c 8a3d
00000360: 9995 ccbc 9434 733a 3e4a b0bd 006b 95bd
00000370: d895 3d3d 85e2 14bd b933 0fbd d1f3 22bd
00000380: 8c98 bebd 5a3d ddbc 611d deba 9293 66bd
00000390: 11e0 61bd cc9b 5a3b 782c b5bb db70 37bd
000003a0: 37a1 4ebd 4454 16bd 425a 12bc e933 6d3d
000003b0: 4c5f 13bd 6bfa c13d 2464 763d 108e 143c
000003c0: dbf9 00bc ba2a 943d b443 c73d aab2 063d
000003d0: 91ae 0f3d 2be3 3c3d 97db 64bd 9955 6e3b
000003e0: 47b4 273d 12e5 d83c 19f1 a2bd 4793 23be
000003f0: f36e 0abe 691e afba 398d ddbd e4cb 4d3d

decoder.2.0.bias f4 [18]
0.046547484 0.0795492 -0.096204035 0.124170184 -0.034805104 -0.11707611 -0.098467164 -0.036844507
-0.012988469 0.0041991533 -0.023177408 -0.11517113 -0.11533835 0.022594636 -0.01824808 -0.05325202
0.10418122 -0.034900915
00000000: 93a8 3e3d b1ea a23d 9f06 c5bd f04c fe3d
00000010: cc8f 0ebd 99c5 efbd 27a9 c9bd 44ea 16bd
00000020: 96cd 54bc 0d99 893b 8cde bdbc d7de ebbd
00000030: 8336 ecbd 6318 b93c ff7c 95bc ca1e 5abd
00000040: f75c d53d 43f4 0ebd

decoder.2.1.weight f4 [18]
0.49423248 0.5395896 0.4931664 0.69046676 0.35674113 0.79165286 0.4707465 0.37471527
0.9260287 0.7285203 0.4815085 1.0336779 0.96649426 0.47500998 0.43123195 0.56620276
0.57845527 0.738632
00000000: 0a0c fd3e 8b22 0a3f 4e80 fc3e 6ec2 303f
00000010: c6a6 b63e c3a9 4a3f af05 f13e aeda bf3e
00000020: 3810 6d3f 4e80 3a3f 4888 f63e 8f4f 843f
00000030: 2b6c 773f 8234 f33e 6fca dc3e aaf2 103f
00000040: a515 143f fd16 3d3f

decoder.2.1.bias f4 [18]
-0.0035333266 -0.020505559 -0.010202768 0.057261936 0.008335762 0.027936356 0.0060420614 -0.014415063
0.039485138 -0.012778922 0.031362854 -0.16714515 -0.09438096 -0.0064704763 -0.038629353 -0.055158958
-0.021129547 -0.04363586
00000000: 628f 67bb 46fb a7bc 8329 27bc 7e8b 6a3d
00000010: b892 083c c9da e43c 7cfc c53b 282d 6cbc
00000020: 2bbb 213d af5e 51bc 5676 003d 1928 2bbe
00000030: ce4a c1bd 4a06 d4bb d039 1ebd 5cee 61bd
00000040: df17 adbc 84bb 32bd

decoder.2.1.running_mean f4 [18]
0.08468008 0.17702302 -0.0956368 0.1258778 0.026787087 -0.107052945 -0.18454221 -0.007832699
-0.16790949 -0.015255433 -0.04850199 -0.07154419 -0.16597584 0.07186995 0.064739555 -0.06791281
0.13962966 0.083501466
00000000: c06c ad3d 8645 353e 3add c3bd 1ce6 003e
00000010: 9870 db3c 933e dbbd a2f8 3cbe b954 00bc
00000020: 77f0 2bbe ecf1 79bc 06aa 46bd c385 92bd
00000030: 92f5 29be 8d30 933d 2c96 843d df15 8bbd
00000040: 14fb 0e3e d102 ab3d

decoder.2.1.running_var f4 [18]
0.15520462 0.051395558 0.14798546 0.1304408 0.046616785 0.4165604 0.0535013 0.014504366
0.024784064 0.12626603 0.10183379 0.36405897 0.44416776 0.034725044 0.016788859 0.24538773
0.09759165 0.029079584
00000000: f6ed 1e3e 2684 523d 8089 173e 4692 053e
00000010: 3ef1 3e3d 6847 d53e 2e24 5b3d b8a3 6d3c
00000020: f307 cb3c e24b 013e 3c8e d03d f065 ba3e
00000030: f569 e33e d93b 0e3d ca88 893c ec46 7b3e
00000040: 22de c73d 4f38 ee3c

decoder.3.0.weight f4 [18, 36, 5]
0.0012141467 -0.017431889 0.07892223 0.043109667 -0.042228658 -0.028436575 0.04046177 0.091940284
-0.042237867 0.002761287 -0.020407574 -0.018372534 0.069900446 -0.04615729 -0.0074564866 -0.012849347
-0.010726008 -0.012416339 0.0050225393 -0.058795027 -0.020732695 0.021591602 0.028731428 0.026180154
-0.05125543 -0.06933829 -0.030805523 0.12650819 -0.007108205 -0.07608835 -0.01004515 0.007079603
-0.03274394 -0.017666006 -0.05985862 -0.0508223 -0.0053625996 0.014175092 -0.039130256 0.05980045
-0.020208417 0.0027166028 0.03083336 -0.0582339 0.050628137 0.03131501 0.04722693 -0.024121644
-0.013284062 0.008882137 0.017798766 0.04312673 0.023808824 -0.015828576 -0.01807644 0.0064860187
0.003013683 -0.0048925844 -0.15655595 0.042911667 0.054654613 0.02432333 0.011756462 -0.06807362
0.0037332186 0.07498248 0.01606536 0.008333704 -0.046359688 -0.07516157 0.052281927 -0.07284988
0.0142361345 -0.039951585 0.0064883432 -0.014515232 -0.11220136 -0.013798416 0.016858088 0.09886129
-0.06289911 -0.06583573 -0.028352154 0.075547464 0.04466175 -0.032259014 -0.036510974 -0.032161403
0.09576741 0.073301844 -0.0573937 0.0072067245 0.07668398 0.025461696 0.012094101 -0.038951512
0.008631101 -0.02642796 0.0017420314 0.03522877 0.01055823 -0.021270849 0.027606837 0.017352384
-0.022239085 -0.034752518 0.054329522 0.0072772116 -0.04033144 0.021296717 -0.039549682 0.035271876
-0.01627828 0.019866254 0.029167844 -0.043893527 -0.006074971 -0.022117143 -0.055970706 0.0066284225
-0.010747524 -0.010926217 0.033686146 0.021159353 -0.07987469 0.04932823 -0.03907395 0.049451303
-0.037425928 -0.063645184 0.020151455 -0.011703989 0.03521365 -0.03197419 -0.029153861 -0.037006676
0.0023653966 0.035815522 0.0021290064 0.042687174 -0.04116722 -0.035520863 0.06345805 0.018348845
-0.01595478 -0.031063203 0.019493144 0.069227315 0.036673225 -0.007672504 -0.011136422 0.01768669
-0.0094513185 -0.03298007 -0.033831462 -0.024592387 0.010797436 0.045008644 -0.029264506 0.050242268
-0.027690925 -0.0074267923 0.022136446 -0.020976566 -0.050147887 0.018596843 -0.058810446 0.010658853
0.030786315 0.036459506 0.021990381 -0.055974256 0.033715907 0.0074435403 -0.03733098 0.05238723
-0.06857497 -0.030957635 0.05047033 -0.032415792 0.031562563 0.056286566 0.10451954 0.04194263
0.0730655 -0.023550332 0.031602155 0.054794308 -0.009907986 -0.029503541 -0.034048386 0.032144237
-0.0057552657 -0.041776642 0.019283567 -0.051148884 -0.046461746 0.06405555 0.013142423 -0.02431128
-0.03164957 -0.031455424 0.06753492 -0.08720517 -0.03560316 -0.028444298 -0.0067962147 0.038768325
-0.03820676 -0.049973987 -0.057511505 0.018113874 0.037861805 -0.13738471 -0.016274162 -0.047569204
-0.006108548 0.054119363 -0.13722587 0.004644045 -0.04530319 -0.006042564 0.02113233 -0.08291326
-0.035623904 -0.0391591 0.020406237 0.033960883 -0.050014425 -0.01844201 0.01802914 -0.040763084
-0.068360135 -0.029005457 0.0033608375 -0.030720511 -0.00974987 0.044104956 -0.12646692 -0.022193942
-0.04988521 -0.032142352 0.0016133983 -0.090590686 -0.06809884 -0.017746402 -0.019697675 -0.0032554297
-0.05296794 -0.07509833 0.012081449 -0.049237978 -0.045605425 -0.033837248 0.012096494 -0.04395449
00000000: 0124 9f3a 52cd 8ebc faa1 a13d c393 303d
00000010: f5f7 2cbd d2f3 e8bc 3ebb 253d 304b bc3d
00000020: 9d01 2dbd b5f6 343b c92d a7bc ff81 96bc
00000030: f727 8f3d 6d0f 3dbd 8b55 f4bb 1186 52bc
00000040: 23bc 2fbc e66d 4bbc 1d94 a43b 0ed3 70bd
00000050: 9dd7 a9bc dfe0 b03c 2c5e eb3c c377 d63c
00000060: 37f1 51bd 3c01 8ebd dd5b fcbc 5d8b 013e
00000070: f2eb e8bb 35d4 9bbd 6a94 24bc 04fc e73b
00000080: 821e 06bd 4db8 90bc 502e 75bd 0b2b 50bd
00000090: bfb8 afbb a53e 683c 0c47 20bd 51f1 743d
000000a0: 1f8c a5bc 0809 323b 3e96 fc3c ac86 6ebd
000000b0: 735f 4f3d 2b44 003d 0671 413d c19a c5bc
000000c0: 65a5 59bc 6286 113c b8ce 913c a7a5 303d
000000d0: b90a c33c eeaa 81bc 0b15 94bc ab88 d43b
000000e0: 3681 453b f951 a0bb 3450 20be 25c4 2f3d
000000f0: 84dd 5f3d b841 c73c 2d9e 403c 2f6a 8bbd
00000100: 04a9 743b 6a90 993d 809b 833c 178a 083c
00000110: a8e3 3dbd 4fee 99bd 9325 563d 5132 95bd
00000120: ad3e 693c 46a4 23bd 2b9c d43b 4cd1 6dbc
00000130: d4c9 e5bd c012 62bc f919 8a3c ca77 ca3d
00000140: 40d1 80bd e2d4 86bd c742 e8bc a1b8 9a3d
00000150: 3def 363d 0722 04bd 888c 15bd adbb 03bd
00000160: b421 c43d 471f 963d a815 6bbd 6326 ec3b
00000170: 7e0c 9d3d 0c95 d03c 5626 463c 9f8b 1fbd
00000180: 7669 0d3c 737f d8bc e054 e43a 0b4c 103d
00000190: 6dfc 2c3c 3440 aebc bc27 e23c 9626 8e3c
000001a0: be2e b6bc a858 0ebd a288 5e3d ad75 ee3b
000001b0: 9432 25bd 7476 ae3c d9fe 21bd 3e79 103d
000001c0: 075a 85bc 8ebe a23c 67f1 ee3c b3c9 33bd
000001d0: 8d10 c7bb 032f b5bc 8a41 65bd 3d33 d93b
000001e0: 6216 30bc e003 33bc 7cfa 093d 6156 ad3c
000001f0: 5795 a3bd 660c 4a3d 020c 20bd 738d 4a3d
00000200: ee4b 19bd 6858 82bd aa14 a53c 16c2 3fbc
00000210: 303c 103d 5ef7 02bd 14d4 eebc 5094 17bd
00000220: c504 1b3b 4cb3 123d cd86 0b3b bfd8 2e3d
00000230: f59e 28bd 537e 11bd 4bf6 813d 5150 963c
00000240: 99b3 82bc 4278 febc 16b0 9f3c 0dc7 8d3d
00000250: aa36 163d a169 fbbb 8a75 36bc ade3 903c
00000260: b4d9 1abc 1c16 07bd dc92 0abd f975 c9bc
00000270: bbe7 303c fc5a 383d 1ebc efbc d6ca 4d3d
00000280: 14d8 e2bc 735c f3bb 7e57 b53c 0cd7 abbc
00000290: df67 4dbd 6858 983c 39e3 70bd 78a2 2e3c
000002a0: 9533 fc3c 9056 153d 2c25 b43c 4345 65bd
000002b0: b119 0a3d f1e8 f33b 5fe8 18bd fe93 563d
000002c0: 0971 8cbd de9a fdbc fab9 4e3d 6cc6 04bd
000002d0: bf47 013d be8c 663d 570e d63d 09cc 2b3d
000002e0: 5da3 953d a0ec c0bc 4371 013d ff6f 603d
000002f0: 1b55 22bc 69b1 f1bc 5276 0bbd ada9 033d
00000300: ab96 bcbb fc1d 2bbd 92f8 9d3c 7e81 51bd
00000310: ac4e 3ebd 8e2f 833d 5153 573c 7328 c7bc
00000320: fba2 01bd 67d7 00bd c04f 8a3d a098 b2bd
00000330: 9ed4 11bd 0404 e9bc c8b2 debb 89cb 1e3d
00000340: b17e 1cbd 86b1 4cbd 2f91 6bbd 8c63 943c
00000350: fb14 1b3d 94ae 0cbe 6451 85bc edd7 42bd
00000360: 372a c8bb 44ac 5d3d f084 0cbe 132d 983b
00000370: d68f 39bd b300 c6bb b51d ad3c 6dce a9bd
00000380: 5fea 11bd 4b65 20bd fb2a a73c 911a 0b3d
00000390: eddb 4cbd b313 97bc d9b1 933c 31f7 26bd
000003a0: 6600 8cbd da9c edbc 7f41 5c3b 95a9 fbbc
000003b0: ebbd 1fbc 66a7 343d 8b80 01be 12d0 b5bc
000003c0: 6f54 4cbd b3a7 03bd aa78 d33a 9c87 b9bd
000003d0: 6877 8bbd e760 91bc 055d a1bc 0c59 55bb
000003e0: e9f4 58bd 27cd 99bd 45f1 453c c3ad 49bd
000003f0: c1cc 3abd ed98 0abd 6030 463c a009 34bd

decoder.3.0.bias f4 [36]
-0.06571706 0.025878675 0.08297421 -0.032695908 -0.013654758 -0.011464714 -0.0882055 -0.1345745
-0.13750854 -0.07350659 -0.11922507 -0.10922923 -0.10877152 -0.12165958 0.06351814 0.17794256
0.10718087 0.061648868 0.021175861 -0.06612572 -0.03465494 -0.06002247 -0.08140486 -0.10081021
-0.15128513 -0.14058968 -0.11319421 -0.18680775 -0.12623262 -0.004845733 -0.08902085 -0.066490434
-0.096071936 -0.07418339 -0.114068195 -0.06706158
00000000: aa96 86bd 84ff d33c 62ee a93d 25ec 05bd
00000010: 35b8 5fbc 7fd6 3bbc 16a5 b4bd e6cd 09be
00000020: 0acf 0cbe a08a 96bd 462c f4bd 93b3 dfbd
00000030: 9ac3 debd a828 f9bd cc15 823d 9336 363e
00000040: a581 db3d 8683 7c3d 0079 ad3c ec6c 87bd
00000050: 57f2 0dbd 1fda 75bd 97b7 a6bd 9575 cebd
00000060: 7dea 1abe bef6 0fbe 5ed2 e7bd 884a 3fbe
00000070: 2043 01be f4c8 9ebb 9050 b6bd 232c 88bd
00000080: 5dc1 c4bd 76ed 97bd 969c e9bd 9557 89bd

decoder.3.1.weight f4 [36]
0.49755132 0.5777299 0.6731768 0.6967304 0.7539938 0.7520507 0.83154845 0.8180005
0.84575564 0.7456386 0.8479457 0.8718882 0.78319126 0.78175074 0.91279936 1.0992973
0.60206395 0.18486868 0.6301314 0.65220076 0.70723206 0.7602062 0.82386875 0.88646424
0.8825955 0.92435133 0.7499151 0.8503513 0.8459039 0.80457973 0.80527884 0.7481817
0.7388919 0.78472364 0.61357594 0.497248
00000000: 0cbf fe3e 1be6 133f 5155 2c3f ec5c 323f
00000010: bd05 413f 6586 403f 5ce0 543f 7b68 513f
00000020: 7183 583f 2ce2 3e3f f812 593f 1134 5f3f
00000030: 397f 483f d120 483f 38ad 693f c6b5 8c3f
00000040: dd20 1a3f 374e 3d3e 4b50 213f a1f6 263f
00000050: 290d 353f e09c 423f 10e9 523f 52ef 623f
00000060: c7f1 613f 4aa2 6c3f 70fa 3f3f 9fb0 593f
00000070: 288d 583f f0f8 4d3f c126 4e3f d688 3f3f
00000080: 0528 3d3f a6e3 483f 5013 1d3f 4a97 fe3e

decoder.3.1.bias f4 [36]
-0.07232481 -0.07750853 -0.04083801 -0.07882372 -0.121767804 -0.12287843 -0.08454519 -0.1418622
-0.13389221 -0.141246 -0.1646074 -0.15779322 -0.12266202 -0.1260054 0.16618815 0.20300405
0.08128179 -0.06772554 -0.08663122 -0.11906357 -0.11827471 -0.13634303 -0.15484181 -0.14555322
-0.15758908 -0.18744637 -0.14177799 -0.16779321 -0.14734799 -0.12684797 -0.13273709 -0.12624101
-0.10087261 -0.108023845 -0.111119375 -0.11735561
00000000: 081f 94bd cbbc 9ebd c245 27bd 556e a1bd
00000010: 6661 f9bd b0a7 fbbd 0726 adbd 5344 11be
00000020: 0a1b 09be cba2 10be d88e 28be 8c94 21be
00000030: 3a36 fbbd 8f07 01be 3a2d 2a3e 4be0 4f3e
00000040: 1177 a63d b0b3 8abd b66b b1bd 9ad7 f3bd
00000050: 033a f2bd 829d 0bbe da8e 1ebe e70b 15be
00000060: 085f 21be f1f1 3fbe 402e 11be fcd1 2bbe
00000070: 64e2 16be 6fe4 01be 3bec 07be 5345 01be
00000080: 4d96 cebd 9b3b ddbd 8e92 e3bd 2358 f0bd
