trained_models/B4AD:31CC:3620:B782.pt (torch, 254297 bytes, 52 tensors)

encoder.encoder.0.0.weight f4 [36, 36, 7]
-0.051354572 -0.0651685 -0.077877425 -0.016988985 -0.06055955 0.0061972598 0.005129948 -0.07456795
0.032251466 -0.0017424368 0.028628357 0.000565181 0.053973157 0.072079845 -0.07941846 -0.037689645
-0.07465123 -0.0037092543 -0.0062883883 0.06714345 0.06494377 -0.023658307 0.024774622 0.01277297
-0.04356403 -0.06707757 0.045050196 0.044697825 -0.05479175 -0.016233305 -0.08028298 -0.06938504
-0.04168164 0.04359736 0.08780249 -0.0020481504 -0.008432579 0.00839272 -0.042287283 0.006289076
0.08567349 -0.014031203 -0.023374304 -0.01719892 -0.016510645 -0.048244845 -0.061830726 0.005372671
0.0947411 -0.011089908 -0.020765075 -0.059605394 -0.04305119 -0.07037049 0.0130793 0.016640576
-0.054803293 0.0011382909 0.021622734 -0.035934687 -0.04225658 -0.0044874693 0.01090664 -0.0057133054
-0.01908674 -0.067683235 -0.050152402 0.01740097 0.07025305 0.0063177305 0.002163014 0.007407165
-0.025152814 -0.013428832 0.004279949 0.08084225 0.100757726 -0.052864287 0.03259879 -0.07167643
-0.022630488 -0.036838844 0.06907346 0.048527837 -0.019768678 -0.040964484 0.0051741167 -0.056257956
-0.047101796 0.046400182 0.07674083 -0.106058426 -0.021410739 -0.07169556 -0.089653164 -0.061130375
0.03546705 0.07042908 -0.030219125 -0.03406781 -0.049263876 -0.05634767 -0.048390526 0.0028679676
-0.0782589 0.0099249715 -0.0607626 -0.05970288 -0.06151205 -0.073901616 -0.10271922 -0.04135847
-0.013001096 -0.010313117 0.021230906 -0.026068259 -0.05128669 -0.08874871 -0.00912897 0.03934111
0.03462907 0.061716974 0.03318792 -0.0069082207 0.038370244 0.062540144 0.022892572 0.005458286
0.0119105885 -0.028611217 -0.052528847 0.09247654 0.10076078 -0.049156006 0.016265413 0.0058154208
0.0036194874 0.01656499 0.006008321 0.029186256 0.019553186 -0.04233109 0.026088916 0.031742927
-0.078802414 0.012303518 0.08245124 -0.04312889 0.007257313 0.010971241 -0.0064556072 0.0042048236
0.08938277 0.0035624392 -0.018462017 -0.013127108 -0.030506583 0.012178391 -0.01119495 0.083254844
0.09346308 -0.0122145 0.02316263 -0.044586405 -0.03905138 -0.053167876 0.00757859 0.03225128
-0.0074737496 0.008978466 0.02630054 -0.012274854 -0.018633658 0.015426078 0.030864723 -0.036464777
0.00970855 0.025189066 0.032564048 0.013719189 0.00023173001 0.0749864 0.013923348 0.0113264
-0.043032303 -0.049552 0.015166087 0.005044495 -0.00466541 -0.04804731 -0.0398478 -0.052250084
-0.016856985 0.03814439 0.08067296 0.071811184 0.03613618 0.009561633 -0.034366254 -0.01985041
-0.06946652 0.08882357 0.03268236 -0.0038218575 -0.0021430203 0.012399436 -0.079438925 -0.06354909
0.02258257 0.10996977 -0.030814085 -0.0037218232 -0.06361857 -0.019534497 -0.06611766 0.08777763
-0.007773759 -0.0150211705 -0.050344054 -0.04577939 -0.050603572 -0.04691173 0.027166108 0.0012269964
-0.029181184 -0.06426798 -0.0308428 -0.011066558 -0.0005491995 0.10423252 0.09469389 -0.035342257
-0.048967473 -0.009684149 0.017309338 -0.024241269 0.073264405 0.08939371 -0.04066734 0.016059805
-0.018759655 -0.06135687 -0.053143367 0.09502713 0.035633855 0.013486341 0.03757722 -0.0028101502
-0.041806236 -0.008491897 -0.0054167397 -0.005782749 -0.07925612 -0.07102754 -0.02550975 -0.11134746
00000000: 2c59 52bd 1077 85bd 337e 9fbd 7c2c 8bbc
00000010: 4a0d 78bd 6212 cb3b 1f19 a83b 15b7 98bd
00000020: 1d1a 043d 7a62 e4ba 0486 ea3c a828 143a
00000030: f512 5d3d 999e 933d 25a6 a2bd 7560 1abd
00000040: bee2 98bd f616 73bb d30e cebb 8182 893d
00000050: 3d01 853d 11cf c1bc 26f4 ca3c b845 513c
00000060: 3270 32bd f75f 89bd 8e86 383d 1115 373d
00000070: 506d 60bd b5fb 84bc 676b a4bd be19 8ebd
00000080: 5eba 2abd 2593 323d cbd1 b33d 433a 06bb
00000090: cd28 0abc 9e81 093c 6e35 2dbd 9814 ce3b
000000a0: 9575 af3d 22e3 65bc 787b bfbc c0e4 8cbc
000000b0: 5541 87bc 639c 45bd 3742 7dbd 3b0d b03b
000000c0: 9f07 c23d 72b2 35bc 851b aabc c924 74bd
000000d0: 7256 30bd 671e 90bd 8f4a 563c d151 883c
000000e0: 6b79 60bd b432 953a 2922 b13c 4030 13bd
000000f0: 3c15 2dbd 9f0b 93bb c4b1 323c ae36 bbbb
00000100: cc5b 9cbc 829d 8abd 9b6c 4dbd 7b8c 8e3c
00000110: d5e0 8f3d f704 cf3b 5ac1 0d3b ceb7 f23b
00000120: 460d cebc 9b04 5cbc d03e 8c3b 9f90 a53d
00000130: 115a ce3d 3988 58bd 4f86 053d 18cb 92bd
00000140: 9363 b9bc 54e4 16bd 6376 8d3d 20c5 463d
00000150: ecf1 a1bc 60ca 27bd a38b a93b be6e 66bd
00000160: d0ed 40bd 1e0e 3e3d 4c2a 9d3d 2935 d9bd
00000170: 9365 afbc 1fd5 92bd 149c b7bd d863 7abd
00000180: e645 113d 1f3d 903d 198e f7bc b08a 0bbd
00000190: ebc8 49bd d0cc 66bd 2535 46bd 83f4 3b3b
000001a0: 3446 a0bd 599c 223c 34e2 78bd 028b 74bd
000001b0: 0ff4 7bbd bb59 97bd 745e d2bd 8067 29bd
000001c0: 8d02 55bc 59f8 28bc 70ec ad3c 1a8d d5bc
000001d0: fe11 52bd e2c1 b5bd ad91 15bc 2524 213d
000001e0: 36d7 0d3d f0ca 7c3d 0ef0 073d 5b5e e2bb
000001f0: 1e2a 1d3d 0c15 803d 3489 bb3c 6cdb b23b
00000200: a124 433c 1262 eabc 7d28 57bd 5764 bd3d
00000210: ab5b ce3d cf57 49bd 0b3f 853c 498f be3b
00000220: ec34 6d3b 4db3 873c 73e1 c43b 0418 ef3c
00000230: 012e a03c 5d63 2dbd 6cb8 d53c df04 023d
00000240: 2963 a1bd b294 493c 32dc a83d eba7 30bd
00000250: c1ce ed3b b8c0 333c 8f89 d3bb 9ec8 893b
00000260: 500e b73d d077 693b a83d 97bc 1513 57bc
00000270: f1e8 f9bc e087 473c 066b 37bc 8481 aa3d
00000280: 9269 bf3d 541f 48bc 8ebf bd3c 3ca0 36bd
00000290: 57f4 1fbd 8fc6 59bd d255 f83b eb19 043d
000002a0: 5be6 f4bb 6a1a 133c 3b74 d73c 781c 49bc
000002b0: 9da5 98bc a9bd 7c3c 04d8 fc3c 175c 15bd
000002c0: 9c10 1f3c 4d59 ce3c e161 053d 73c6 603c
000002d0: 8dfc 7239 7892 993d c11e 643c 5d92 393c
000002e0: a442 30bd 0af7 4abd 2e7b 783c 4b4c a53b
000002f0: 4ce0 98bb 42cd 44bd 7237 23bd 2f04 56bd
00000300: a917 8abc 4b3d 1c3d dd37 a53d be11 933d
00000310: 8803 143d 65a8 1c3c a1c3 0cbd 549d a2bc
00000320: 7644 8ebd 22e9 b53d f0dd 053d 2178 7abb
00000330: ea71 0cbb 0127 4b3c e0b0 a2bd 0626 82bd
00000340: 15ff b83c d537 e13d d26d fcbc d5e9 73bb
00000350: 744a 82bd cf06 a0bc b268 87bd c2c4 b33d
00000360: 04bb febb 5b1b 76bc 9135 4ebd 2b83 3bbd
00000370: b145 4fbd 8426 40bd 758b de3c 2bd3 a03a
00000380: 610d efbc ee9e 83bd 0aaa fcbc 8250 35bc
00000390: 28f8 0fba dc77 d53d dfee c13d 0bc3 10bd
000003a0: 1e92 48bd 44aa 1ebc 50cc 8d3c a095 c6bc
000003b0: a60b 963d 0d14 b73d cc92 26bd da8f 833c
000003c0: d9ad 99bc 5751 7bbd dcac 59bd 959d c23d
000003d0: cef4 113d d0f5 5c3c 92ea 193d 7f2a 38bb
000003e0: 043d 2bbd 9921 0bbc e87e b1bb 377d bdbb
000003f0: 0851 a2bd e376 91bd d3f9 d0bc 230a e4bd

encoder.encoder.0.0.bias f4 [36]
-0.03837888 0.02659431 -0.06404405 0.04548388 -0.043199684 0.020693488 -0.023249827 -0.010836722
0.04022107 -0.013839581 0.042201765 -0.00727051 0.0027771015 0.014642214 0.061679754 -0.059162315
0.016922656 -0.020484885 -0.030293334 0.01445121 0.00927163 -0.057211854 -0.075798325 -0.05005548
-0.023676056 -0.016122887 0.039367963 -0.051782854 -0.066683546 -0.093217015 0.042877723 0.015762895
0.016760845 0.054633588 -0.06434118 -0.054797374
00000000: 2c33 1dbd 4fdc d93c 8729 83bd 4e4d 3a3d
00000010: 27f2 30bd 6485 a93c 6c76 bebc 828c 31bc
00000020: d9be 243d 69bf 62bc c2db 2c3d 753d eebb
00000030: 0800 363b e6e5 6f3c e9a3 7c3d 2f54 72bd
00000040: 62a1 8a3c ebcf a7bc ba29 f8bc c5c4 6c3c
00000050: 09e8 173c fa56 6abd 273c 9bbd fa06 4dbd
00000060: 4af4 c1bc 2514 84bc 4d40 213d 421a 54bd
00000070: 6291 88bd 90e8 bebd 8da0 2f3d 3021 813c
00000080: 0a4e 893c 78c7 5f3d 4fc5 83bd 3673 60bd

encoder.encoder.0.1.weight f4 [36]
1.080692 0.84349066 0.6590624 0.87918335 0.9860136 0.93440014 0.9614151 1.2437341
0.8559847 1.1018829 0.9229875 0.9407576 1.0691258 0.66682565 1.0129973 0.61726165
1.2990654 1.0365099 0.99070597 0.9578665 0.76376987 0.84627473 0.97474176 0.8434091
0.92355555 1.0004041 0.9729996 0.95756567 0.7813801 1.0066394 0.8772595 0.9747034
1.0142012 0.97730196 0.99196035 1.0096618
00000000: 1e54 8a3f 01ef 573f 50b8 283f 2912 613f
00000010: 636b 7c3f d934 6f3f 4d1f 763f ae32 9f3f
00000020: d021 5b3f 800a 8d3f e948 6c3f 7dd5 703f
00000030: 1dd9 883f 16b5 2a3f e5a9 813f dc04 1e3f
00000040: c647 a63f 5bac 843f e89e 7d3f bd36 753f
00000050: 6c86 433f 76a5 583f ad88 793f a9e9 573f
00000060: 236e 6c3f 3e0d 803f 8016 793f 0623 753f
00000070: 8708 483f 8fd9 803f 1494 603f 2986 793f
00000080: 58d1 813f 7630 7a3f 1df1 7d3f 993c 813f

encoder.encoder.0.1.bias f4 [36]
-0.047631975 -0.010745962 -0.013017702 -0.019013487 -0.0192534 -0.05541334 0.0014180179 -0.056490533
-0.020086775 0.051467054 -0.022322103 -0.0051124543 -0.04738797 -0.008711719 -0.009847462 -0.0080704475
0.021208167 -0.02003453 -0.00615801 -0.04406953 -0.0124245845 -0.026597926 -0.027134854 -0.0003224161
-0.0020672034 -0.030401016 -0.028890021 -0.027585782 -0.019188248 -0.06136278 -0.015439901 -0.018537859
-0.03967269 -0.020632608 -0.018078495 -0.032995295
00000000: bf19 43bd d50f 30bc 3348 55bc 2cc2 9bbc
00000010: 4eb9 9dbc 19f9 62bd c9dc b93a 9e62 67bd
00000020: 058d a4bc 1ecf 523d d8dc b6bc 6086 a7bb
00000030: e319 42bd 99bb 0ebc 4057 21bc e939 04bc
00000040: c0bc ad3c 741f a4bc 22c9 c9bb 4082 34bd
00000050: 7c90 4bbc e5e3 d9bc ea49 debc f509 a9b9
00000060: eb79 07bb 8d0b f9bc c4aa ecbc 94fb e1bc
00000070: ac30 9dbc 8a57 7bbd a3f7 7cbc b5dc 97bc
00000080: d57f 22bd b705 a9bc 5a19 94bc 1326 07bd

encoder.encoder.0.1.running_mean f4 [36]
0.11261141 -0.69699645 0.6879855 -0.49026626 -0.4520328 0.06272122 -0.36054564 0.7000387
0.13682365 -0.26087603 0.75515133 -0.7265128 0.6511525 0.031167526 -0.61796516 0.7885802
0.11408103 -0.24730064 0.396019 -0.113181315 0.04407004 0.15395242 1.0934571 -0.9640283
-0.43174827 -0.5908655 -0.5839334 0.7477821 0.20020875 -0.43764234 -0.56376326 0.6077028
-0.21308379 0.34900796 0.6391813 -0.14502461
00000000: d0a0 e63d 5c6e 32bf d11f 303f 2e04 fbbe
00000010: d870 e7be fc73 803d 7099 b8be bc35 333f
00000020: 801b 0c3e 8b91 85be 9951 413f befc 39bf
00000030: eeb1 263f 0a53 ff3c f732 1ebf 64e0 493f
00000040: 51a3 e93d 613c 7dbe 01c3 ca3e 9bcb e7bd
00000050: c982 343d b4a5 1d3e 67f6 8b3f 8fca 76bf
00000060: 1c0e ddbe f642 17bf a97c 15bf a66e 3f3f
00000070: 8603 4d3e a812 e0be ca52 10bf 6992 1b3f
00000080: a332 5abe 2cb1 b23e 63a1 233f 5581 14be

encoder.encoder.0.1.running_var f4 [36]
0.0007696454 0.0012923357 0.0010335385 0.0011598256 0.00077600614 0.00045959192 0.0012316612 0.0017310065
0.000494868 0.00083627616 0.0012030696 0.0009655914 0.0017309695 0.0014744069 0.0019035978 0.0013660098
0.0010514817 0.0008508284 0.0016589925 0.000834174 0.0012883678 0.00038431698 0.0017796484 0.001501695
0.00096004526 0.0007838463 0.0009795965 0.0014184187 0.0012144677 0.0009810448 0.0018003187 0.00079461985
0.0012107741 0.00078162947 0.0014009088 0.0008934718
00000000: 07c2 493a 9763 a93a cc77 873a 4a05 983a
00000010: e46c 4b3a 62f5 f039 b16f a13a f1e2 e23a
00000020: 08ba 013a 8b39 5b3a 51b0 9d3a be1f 7d3a
00000030: b3e1 e23a e340 c13a 2582 f93a af0b b33a
00000040: dfd1 893a 210a 5f3a 8d72 d93a 78ac 5a3a
00000050: 73de a83a 277e c939 1743 e93a 86d4 c43a
00000060: 8cab 7b3a 097b 4d3a ce65 803a 3cea b93a
00000070: c62e 9f3a 6796 803a acf8 eb3a 094e 503a
00000080: d6b2 9e3a 44e6 4c3a b39e b73a e137 6a3a

encoder.encoder.1.backbone.0.0.weight f4 [36, 36, 3]
-0.07501892 0.05144299 0.003807858 -0.10380196 0.034731995 0.025028776 -0.03854317 -0.02628307
0.06876015 -0.08290687 -0.0014594754 -0.059692126 -0.04558117 0.05420215 -0.021029806 0.07524085
-0.054802928 0.02785513 -0.0021848558 -0.0062976736 0.0054745306 0.016272161 0.016191378 -0.007023903
-0.07989078 -0.027275637 -0.07842921 -0.06031766 -0.06605597 0.062249366 0.06039766 0.07959085
0.058078945 0.0021006323 -0.04127329 -0.06535086 0.003994222 0.07000652 0.022118803 -0.013233121
0.03893643 -0.05215762 -0.014504858 -0.080920845 -0.038621355 -0.06209908 -0.06408071 -0.0171721
-0.08605287 0.035711706 0.07157206 0.10425686 0.10550258 -0.030513247 -0.06588792 -0.06311394
0.040921193 0.0130167175 0.03648602 0.043814708 0.0028854562 0.03077638 0.061692208 0.086317435
-0.0009993456 -0.084330246 -0.08230518 0.012798043 0.0072705816 0.017032975 -0.118974246 -0.118095376
0.09218434 -0.04299252 0.052775625 -0.04891134 -0.08140065 0.05917709 -0.0066365274 -0.062063742
-0.06700252 -0.04657879 -0.03293389 -0.030004574 0.06259895 -0.017819993 -0.0635624 0.125924
0.08804785 -0.07848254 0.0973962 -0.08490376 -0.021192053 0.06835415 -0.0023563956 0.08970225
0.016711038 -0.067526475 0.022167068 -0.07434411 0.08960836 0.02492341 0.046270505 0.09400208
-0.010947431 -0.032937627 -0.046412528 0.08781333 0.004231718 0.050878078 -0.09794815 -0.02210249
-0.0120282 0.02369679 -0.0009442827 -0.103932016 0.048906613 0.03763577 0.110473536 -0.022133632
-0.044455793 -0.051323675 0.014046443 -0.018505124 -0.0155743165 0.08365793 -0.021603398 -0.04276358
0.015732812 0.06416326 -0.037615765 -0.090968005 0.07668444 0.0048960573 0.0698114 -0.109823324
-0.090641886 0.013817326 0.03393668 -0.07057342 -0.0022044706 0.031192752 0.04941191 0.063806266
-0.02760588 0.00067022047 -0.090575285 -0.018729776 0.04001558 0.012186389 0.052033685 0.07434432
0.06261737 -0.026601464 0.037377752 0.072588354 -0.06578897 -0.061869916 -0.087034956 -0.061917037
-0.020635428 -0.00309283 -0.074273445 -0.010842471 -0.04051121 0.06302668 -0.023298657 -0.07245456
0.1359019 -0.0256067 0.14081939 0.07242971 0.011328244 -0.0003873661 -0.00064116734 -0.031081486
-0.05386489 -0.16455959 -0.0066537033 -0.11067924 0.07612057 -0.04353493 -0.016734147 0.07885871
-0.072510056 0.0006430802 -0.044650566 0.05832572 0.073010825 0.104045294 -0.0225692 0.05008538
0.05507054 -0.038747642 -0.027374137 -0.04186327 0.005461582 0.063983254 0.0021053161 -0.063637346
0.0798974 0.07732395 -0.055702433 0.06803734 0.07843391 0.072656564 -0.043950673 -0.08946678
-0.043986347 -0.0785782 -0.06438153 0.0019841115 -0.033693936 -0.006445044 -0.0065940637 0.08276612
-0.023512205 -0.050967984 0.122429185 0.09560994 0.06387982 0.01338619 -0.092897214 0.052412007
-0.0071042767 -0.123494424 -0.09082342 0.04178888 -0.031751998 0.079745986 0.07226551 0.0785138
0.062337857 0.058395937 0.005465506 -0.027173558 -0.028739158 -0.03998301 0.0030536551 -0.097629905
-0.022935452 -0.14677253 -0.09355995 0.0037530635 0.0020829488 -0.011548696 0.030524636 -0.05254321
-0.016073821 0.062412005 0.07335127 -0.015292518 0.04539163 -0.0027267088 0.026957294 0.017995592
00000000: 85a3 99bd e2b5 523d 428d 793b 1f96 d4bd
00000010: 2343 0e3d 2609 cd3c 71df 1dbd 984f d7bc
00000020: 1fd2 8c3d 14cb a9bd de4b bfba bb7f 74bd
00000030: 52b3 3abd 1303 5e3d b346 acbc e017 9a3d
00000040: 0979 60bd 7130 e43c cc2f 0fbb b75c cebb
00000050: b163 b33b 324d 853c c8a3 843c c528 e6bb
00000060: c79d a3bd 2871 dfbc 7e9f a0bd a70f 77bd
00000070: 5a48 87bd 31f9 7e3d 8963 773d 8700 a33d
00000080: 30e4 6d3d c3aa 093b 2e0e 29bd acd6 85bd
00000090: f6e1 823b 945f 8f3d 7e32 b53c bbcf 58bc
000000a0: ce7b 1f3d 3ba3 55bd c9a5 6dbc d4b9 a5bd
000000b0: 6d31 1ebd 9b5b 7ebd bf3c 83bd 81ac 8cbc
000000c0: 7d3c b0bd 7046 123d 5f94 923d 9f84 d53d
000000d0: bd11 d83d ebf6 f9bc 3ff0 86bd e241 81bd
000000e0: fb9c 273d 1244 553c 5d72 153d 0d77 333d
000000f0: ec19 3d3b bf1e fc3c f8b0 7c3d 32c7 b03d
00000100: 79fc 82ba 56b5 acbd 9e8f a8bd e2ae 513c
00000110: 0f3e ee3b bd88 8b3c c5a8 f3bd fddb f1bd
00000120: 25cb bc3d ed18 30bd 412b 583d 4257 48bd
00000130: 62b5 a6bd ad63 723d 3a77 d9bb 8d36 7ebd
00000140: 9e38 89bd 67c9 3ebd b0e5 06bd 27cc f5bc
00000150: e133 803d 3cfb 91bc 012d 82bd 39f2 003e
00000160: 6e52 b43d 74bb a0bd a977 c73d 06e2 adbd
00000170: f59a adbc 43fd 8b3d c26d 1abb d0b5 b73d
00000180: 96e5 883c 524b 8abd b697 b53c ba41 98bd
00000190: 9684 b73d 2e2c cc3c 2486 3d3d 2a84 c03d
000001a0: db5c 33bc 9be9 06bd 101b 3ebd 7ad7 b33d
000001b0: 39aa 8a3b 8865 503d 0a99 c8bd 4810 b5bc
000001c0: ed11 45bc c51f c23c bd89 77ba 4fda d4bd
000001d0: 4d52 483d f727 1a3d f33f e23d 9751 b5bc
000001e0: 4717 36bd c638 52bd 0d23 663c 0f98 97bc
000001f0: 6b2b 7fbc d954 ab3d 9cf9 b0bc dd28 2fbd
00000200: 19e2 803c 0768 833d fd12 1abd 6f4d babd
00000210: bb0c 9d3d 1b6f a03b 47f9 8e3d 0deb e0bd
00000220: 74a2 b9bd 1162 623c 3001 0b3d cc88 90bd
00000230: e178 10bb f187 ff3c 2564 4a3d dcac 823d
00000240: ba25 e2bc bcb1 2f3a 897f b9bd 306f 99bc
00000250: 60e7 233d 6ca9 473c 4621 553d d641 983d
00000260: 893d 803d 50eb d9bc 6a19 193d 34a9 943d
00000270: 5ebc 86bd 4f6b 7dbd 623f b2bd b89c 7dbd
00000280: a10b a9bc 14b1 4abb ad1c 98bd 9fa4 31bc
00000290: 15ef 25bd 2214 813d d3dc bebc 0e63 94bd
000002a0: de29 0b3e 24c5 d1bc f532 103e 0756 943d
000002b0: 199a 393c 6617 cbb9 0314 28ba 9a9e febc
000002c0: 6ea1 5cbd 4f82 28be 4f07 dabb ccab e2bd
000002d0: 1ae5 9b3d af51 32bd 0d16 89bc ad80 a13d
000002e0: 2780 94bd 6294 283a 83e3 36bd f3e6 6e3d
000002f0: b386 953d b315 d53d 0be3 b8bc 5426 4d3d
00000300: a691 613d d9b5 1ebd ba3f e0bc d278 2bbd
00000310: 12f7 b23b a709 833d 58f9 093b 4c54 82bd
00000320: 40a1 a33d 055c 9e3d 3c28 64bd 2957 8b3d
00000330: f5a1 a03d f7cc 943d 9f05 34bd 5c3a b7bd
00000340: 072b 34bd 9bed a0bd 77da 83bd de07 023b
00000350: a702 0abd f330 d3bb 0413 d8bb 4981 a93d
00000360: ab9c c0bc cec3 50bd 27bc fa3d 25cf c33d
00000370: 6cd3 823d c051 5b3c e540 bebd f9ad 563d
00000380: feca e8bb a5ea fcbd a101 babd d12a 2b3d
00000390: 620e 02bd dd51 a33d f1ff 933d d8cb a03d
000003a0: fb55 7f3d 9430 6f3d fd17 b33b 159b debc
000003b0: 626e ebbc 3ac5 23bd d51f 483b 30f2 c7bd
000003c0: 21e3 bbbc 8a4b 16be 5c9c bfbd f5f5 753b
000003d0: 1582 083b be36 3dbc cd0e fa3c 8d37 57bd
000003e0: 3fad 83bc bba3 7f3d 3139 963d 788d 7abc
000003f0: 93ec 393d 95b2 32bb 8bd5 dc3c 7e6b 933c

encoder.encoder.1.backbone.0.0.bias f4 [36]
-0.06857066 0.080140404 0.05754659 -0.036098693 -0.026361665 -0.088136755 -0.05205387 0.041459087
-0.08741189 -0.016423699 -0.048575945 0.062751375 -0.03389845 -0.0019816295 -0.029499875 0.05716826
-0.0983233 0.04216597 -0.12865444 0.012068409 0.063988544 -0.06271747 0.0015149716 -0.08876736
-0.038204834 0.09365038 -0.032108743 0.0157155 -0.029397966 -0.073926605 0.00256056 0.028970031
0.054137472 0.011329426 -0.03805612 0.049454607
00000000: c66e 8cbd a720 a43d f9b5 6b3d 39dc 13bd
00000010: 6bf4 d7bc 0b81 b4bd 7036 55bd 01d1 293d
00000020: 0105 b3bd fe8a 86bc 92f7 46bd cb83 803d
00000030: 1ad9 0abd 3ade 01bb b9a9 f1bc 4429 6a3d
00000040: ba5d c9bd 39b6 2c3d fdbd 03be 93ba 453c
00000050: 6d0c 833d 0472 80bd 0392 c63a a9cb b5bd
00000060: ac7c 1cbd c5cb bf3d 7584 03bd cbbd 803c
00000070: 01d4 f0bc d566 97bd 11cf 273b 8f52 ed3c
00000080: 41bf 5d3d 0f9f 393c bce0 1bbd ea90 4a3d

encoder.encoder.1.backbone.0.1.weight f4 [36]
0.876674 0.9905343 0.8107673 0.68192613 0.9820382 0.77412283 1.1022402 0.82832575
0.96154 0.91187173 0.97831297 0.89884377 0.772331 1.0003912 1.0377512 0.9430071
0.9734709 0.99030936 1.0274677 0.7681756 0.90113086 0.99216926 0.7514516 0.8328834
0.95125467 0.9509574 0.98977035 1.1118171 0.9742427 1.055525 0.92091185 0.8364714
0.8490103 0.9494077 0.9614929 0.88950473
00000000: b56d 603f a893 7d3f 728e 4f3f b692 2e3f
00000010: db66 7b3f ea2c 463f 3516 8d3f 280d 543f
00000020: 7c27 763f 6d70 693f b872 7a3f a01a 663f
00000030: 7cb7 453f d20c 803f 08d5 843f ea68 713f
00000040: 6435 793f ea84 7d3f 1084 833f 28a7 443f
00000050: 83b0 663f cefe 7d3f 225f 403f d937 553f
00000060: 6d85 733f f271 733f 9761 7d3f 0650 8e3f
00000070: f867 793f 711b 873f e1c0 6b3f fd22 563f
00000080: bd58 593f 620c 733f 6624 763f 95b6 633f

encoder.encoder.1.backbone.0.1.bias f4 [36]
-0.0038807676 -0.007829291 -0.004117175 0.0007716695 -0.07265168 -0.0139765395 0.00038682314 -0.0053332928
-0.008728439 -0.04986436 -0.0038469145 -0.046158858 -0.024651017 -0.02298642 0.0021559966 -0.01589127
-0.01598814 -0.016943516 -0.05691195 -0.02093784 -0.0146703515 -0.033828657 -0.012306577 -0.021717558
0.0085681 0.011044352 -0.05036676 -0.071368575 -0.014304277 -0.03143826 -0.044969987 0.002030967
-0.015951414 -0.004884351 -0.052922968 -0.015268618
00000000: 7a54 7ebb 6d46 00bc 5ee9 86bb dd49 4a3a
00000010: 67ca 94bd dbfd 64bc 86ce ca39 e7c2 aebb
00000020: ba01 0fbc 923e 4cbd 841c 7cbb 1211 3dbd
00000030: eef0 c9bc 044e bcbc 9f4b 0d3b 692e 82bc
00000040: 8ff9 82bc 21cd 8abc 811c 69bd d585 abbc
00000050: ea5b 70bc eb8f 0abd 86a1 49bc 05e9 b1bc
00000060: 3761 0c3c 5ff3 343c 604d 4ebd b029 92bd
00000070: 7c5c 6abc 68c5 00bd 7332 38bd f919 053b
00000080: 8aac 82bc e80c a0bb c1c5 58bd 3a29 7abc

encoder.encoder.1.backbone.0.1.running_mean f4 [36]
-0.07462801 0.039170936 0.022979967 -0.099739924 -0.012021142 -0.045460615 -0.005324194 0.06799801
-0.07804053 0.04192966 -0.061259776 0.058353055 0.037172005 0.12441736 0.003586383 -0.014196404
-0.047000453 -0.0025707732 -0.03270725 0.028978197 0.016281273 -0.06438186 0.010542607 -0.095893905
-0.081174076 0.113234155 0.04229924 0.029860081 -0.0125769405 -0.02987269 0.04629608 -0.0717119
0.025936266 0.019708574 0.09762469 0.004377356
00000000: 92d6 98bd b471 203d 7c40 bc3c 7244 ccbd
00000010: 53f4 44bc e934 3abd 9476 aebb 8a42 8b3d
00000020: b7d3 9fbd 6fbe 2b3d 88eb 7abd 9d03 6f3d
00000030: ac41 183d 87ce fe3d 8609 6b3b 0998 68bc
00000040: 8c83 40bd 6b7a 28bb 0af8 05bd af63 ed3c
00000050: 4e60 853c a3da 83bd e6ba 2c3c 0664 c4bd
00000060: 983e a6bd 4fe7 e73d f841 2d3d 219d f43c
00000070: 830f 4ebc 92b7 f4bc f5a0 3d3d b0dd 92bd
00000080: 4b78 d43c e073 a13c 74ef c73d ec6f 8f3b

encoder.encoder.1.backbone.0.1.running_var f4 [36]
0.22187272 0.43534255 0.12020893 0.082615934 0.2517384 0.19366316 0.22605512 0.22717185
0.2183359 0.3995119 0.385568 0.11756072 0.14390226 0.16558518 0.38344765 0.29228356
0.21995074 0.25816473 0.17251924 0.22004624 0.3994095 0.07258711 0.15133569 0.114861004
0.22588323 0.21913552 0.275198 0.31104353 0.14503169 0.24852833 0.26762867 0.09557369
0.17550442 0.39371523 0.38755196 0.30047905
00000000: 9a32 633e 38e5 de3e 1930 f63d 8b32 a93d
00000010: dbe3 803e a34f 463e fe7a 673e bd9f 683e
00000020: 7293 5f3e d38c cc3e 2b69 c53e adc3 f03d
00000030: 1d5b 133e 298f 293e 4053 c43e 31a6 953e
00000040: c43a 613e 2b2e 843e e2a8 303e cd53 613e
00000050: 677f cc3e 8da8 943d bef7 1a3e 3f3c eb3d
00000060: ef4d 673e 1065 603e c1e6 8c3e 1941 9f3e
00000070: 3083 143e 367e 7e3e a006 893e 24bc c33d
00000080: 6eb7 333e 0b95 c93e 366d c63e 64d8 993e

encoder.encoder.1.backbone.1.0.weight f4 [36, 36, 3]
-0.062932275 0.07903975 0.10989039 0.104903154 -0.08192176 -0.095841065 0.0072086793 0.024909139
-0.020644907 0.0057338756 -0.02274429 0.0068170913 -0.027745897 -0.03125126 -0.045264583 0.0023707456
-0.04008578 0.023954326 0.052772377 -0.012035713 0.030756947 -0.03601654 -0.01252475 -0.025509508
0.06015469 0.052308895 0.04646069 -0.044988677 -0.12183799 -0.04222675 -0.074874416 0.016544366
-0.031950586 -0.061555553 0.0029740948 -0.037513684 0.066953346 0.008801301 -0.05287435 -0.06377034
-0.10354766 -0.059302162 0.036781847 0.13442078 -0.026962547 0.0346983 0.031982042 0.09427768
0.037575863 -0.0312973 -0.043112066 -0.10666864 -0.029986389 0.045455795 -0.03186854 0.014362257
0.06663333 0.03599695 0.03436182 -0.06000389 0.056194246 -0.020806877 0.0766197 -0.038928557
0.06848576 0.058185395 -0.07360614 0.11595293 0.0022819543 0.092894346 -0.07288843 0.09763585
-0.03825444 -0.07367903 -0.02534452 -0.093694575 0.04816539 -0.010920168 0.005133197 -0.026124857
-0.062074114 0.061525177 0.050474964 -0.010515791 0.008015708 0.02287128 0.032078136 0.11067802
0.099974476 0.10515361 -0.039407127 -0.09455742 -0.004948829 0.04510249 -0.06274908 -0.01924828
-0.04798241 -0.087301366 0.008361442 0.036410905 -0.046362933 -0.00753787 0.055168923 -0.012622736
-0.018408876 -0.020716654 0.030243589 0.08902312 0.06331758 0.015630228 -0.008986616 0.062242728
-0.06809683 -0.055855386 0.010411656 0.08171795 -0.022606527 0.02638488 -0.029719502 -0.035174172
-0.0628641 0.060822412 0.04686629 -0.116326705 0.0007182731 0.08284558 -0.0043046502 0.041723914
0.042547747 0.041404586 -0.08357444 -0.014353556 0.06702668 -0.061042998 -0.027606808 0.10012163
0.041601885 -0.023884391 -0.040012706 0.02253064 0.036327377 -0.09577423 0.005275245 -0.070225
0.031033142 0.0015646365 0.06619541 -0.033146992 0.0057170107 0.048327055 0.083951786 -0.064822674
-0.01860192 0.0010608059 0.06822948 0.092427365 -0.102788135 0.0010018933 -0.029131426 -0.12722848
-0.020666922 0.016203491 0.08666114 0.021772817 -0.06444659 0.042137627 0.060788974 -0.045918882
-0.07234003 -0.12393375 -0.04098876 0.011431833 0.017227424 -0.045371857 0.057756845 0.0046059503
0.08861991 0.040152088 0.05524804 -0.031168079 -0.040947977 -0.04272558 0.022600768 0.11379201
-0.0478703 -0.0028146834 -0.046628788 -0.06525164 -0.06126887 -0.01143346 -0.012458537 -0.06619542
0.013084843 -0.0396426 0.004721891 -0.038053676 -0.010630364 0.081810534 -0.066966146 0.021566082
0.058216996 0.0021278712 -0.11251057 -0.0069411644 -0.036528975 0.10331619 0.10552454 0.035448227
-0.060704883 0.02541432 -0.023067128 -0.06974594 -0.025296364 0.0043617724 -0.0093853 -0.087478854
-0.062792815 0.032476272 0.06925076 -0.041113492 -0.0075742365 -0.09282001 0.02268959 0.040394034
0.022633228 0.005136201 0.07930815 0.012795949 -0.00046361118 -0.0035500433 -0.06043699 -0.030037612
0.06622237 -0.04661568 -0.09293822 0.039842878 -0.059917156 -0.119156435 -0.032692395 0.059513543
-0.05666183 -0.04167789 0.09384262 -0.10436028 -0.0012162193 -0.061555836 -0.018890765 -0.00041755557
-0.13800223 -0.057181567 -0.079806805 0.050455566 -0.024927212 -0.089543246 0.004319731 0.0063225343
00000000: a3e2 80bd 98df a13d 360e e13d 77d7 d63d
00000010: 99c6 a7bd 5248 c4bd c936 ec3b 400e cc3c
00000020: 821f a9bc 3ce3 bb3b 3c52 babc e861 df3b
00000030: 5d4b e3bc 5201 00bd 5b67 39bd 835e 1b3b
00000040: fd30 24bd dd3b c43c d927 583d 7031 45bc
00000050: fef5 fb3c 1486 13bd 9c34 4dbc 51f9 d0bc
00000060: c464 763d da41 563d 914d 3e3d 0c46 38bd
00000070: 3286 f9bd f5f5 2cbd c257 99bd 0d88 873c
00000080: 9ede 02bd ad21 7cbd 08e9 423b f3a7 19bd
00000090: d61e 893d 5533 103c c692 58bd 069a 82bd
000000a0: cc10 d4bd d3e6 72bd 90a8 163d 9aa5 093e
000000b0: 8fe0 dcbc ce1f 0e3d 9aff 023d a814 c13d
000000c0: 26e9 193d 9931 00bd 4796 30bd 1775 dabd
000000d0: 04a6 f5bc db2f 3a3d 9688 02bd ac4f 6b3c
000000e0: 0e77 883d 8a71 133d fbbe 0c3d a4c6 75bd
000000f0: f02b 663d 2f73 aabc caea 9c3d 8d73 1fbd
00000100: 4342 8c3d cf53 6e3d d1be 96bd bb78 ed3d
00000110: d78c 153b 643f be3d 8746 95bd 4ef5 c73d
00000120: b0b0 1cbd 08e5 96bd 509f cfbc f1e2 bfbd
00000130: 1249 453d 81ea 32bc 6134 a83b cc03 d6bc
00000140: 6d41 7ebd d301 7c3d d6be 4e3d 6d4a 2cbc
00000150: 5154 033c 8d5c bb3c 5d64 033d 28ab e23d
00000160: 6bbf cc3d c75a d73d 5e69 21bd 52a7 c1bd
00000170: c929 a2bb 63bd 383d 9782 80bd 92ae 9dbc
00000180: 3489 44bd 0fcb b2bd 6efe 083c 9a23 153d
00000190: 0fe7 3dbd 3d00 f7bb cff8 613d 98cf 4ebc
000001a0: 36ce 96bc f9b5 a9bc 67c1 f73c c151 b63d
000001b0: a6ac 813d f70a 803c 993c 13bc 3bf2 7e3d
000001c0: 5a76 8bbd 9ec8 64bd a795 2a3c be5b a73d
000001d0: 5331 b9bc 1b25 d83c 5076 f3bc cb12 10bd
000001e0: e5be 80bd ec20 793d def6 3f3d b23c eebd
000001f0: 7e4a 3c3a f2aa a93d 060e 8dbb b2e6 2a3d
00000200: 8c46 2e3d db97 293d 1329 abbd 2d2b 6bbc
00000210: 4945 893d 3908 7abd ac27 e2bc 920c cd3d
00000220: bd66 2a3d 33a9 c3bc 5de4 23bd 2d92 b83c
00000230: 04cc 143d 4825 c4bd f6db ac3b 20d2 8fbd
00000240: 3739 fe3c 7d14 cd3a 7691 873d 24c5 07bd
00000250: c355 bb3b 97f2 453d eaee ab3d c0c1 84bd
00000260: 0e63 98bc bd0a 8b3a e6bb 8b3d 8f4a bd3d
00000270: 9682 d2bd f651 833a 07a5 eebc 2f48 02be
00000280: ad4d a9bc 2fbd 843c 657b b13d e85c b23c
00000290: 93fc 83bd 8198 2c3d dcfd 783d 7015 3cbd
000002a0: 0227 94bd fad0 fdbd d4e3 27bd 954c 3b3c
000002b0: 8720 8d3c d7d7 39bd 7192 6c3d 83ed 963b
000002c0: 5b7e b53d 8476 243d c54b 623d 3354 ffbc
000002d0: 11b9 27bd 0501 2fbd 3f25 b93c c90b e93d
000002e0: a613 44bd 8d76 38bb d4fd 3ebd a7a2 85bd
000002f0: 11f5 7abd 6853 3bbc e41e 4cbc 7791 87bd
00000300: cf61 563c 4760 22bd 18ba 9a3b 2cde 1bbd
00000310: fa2a 2ebc 488c a73d 8c25 89bd 5aab b03c
00000320: f274 6e3d c173 0b3b f16b e6bd b572 e3bb
00000330: 689f 15bd 7097 d33d 401d d83d 2932 113d
00000340: afa5 78bd b131 d03c 46f7 bcbc f6d6 8ebd
00000350: 523a cfbc 33ed 8e3b cdc4 19bc 1d28 b3bd
00000360: 8599 80bd d705 053d 58d3 8d3d 9f66 28bd
00000370: 4d31 f8bb 6b18 bebd 85df b93c 3774 253d
00000380: 5269 b93c 944d a83b 506c a23d 1aa6 513c
00000390: d710 f3b9 d8a7 68bb c78c 77bd 7011 f6bc
000003a0: 989f 873d 15f0 3ebd 6556 bebd 4932 233d
000003b0: b16b 75bd 4a08 f4bd 76e8 05bd 79c4 733d
000003c0: 3c16 68bd 6fb6 2abd 8f30 c03d d8ba d5bd
000003d0: 8c69 9fba f921 7cbd cec0 9abc 5ceb dab9
000003e0: 7550 0dbe 3837 6abd c071 a3bd 7faa 4e3d
000003f0: 2734 ccbc 7362 b7bd 888c 8d3b 432d cf3b

encoder.encoder.1.backbone.1.0.bias f4 [36]
-0.032147452 0.018537762 -0.04854421 0.06630774 0.020644037 -0.11386077 0.024018422 0.045143757
0.0035740568 0.06213971 0.0747326 -0.03182284 -0.05119448 -0.019713838 -0.059665132 0.10805098
0.053896032 -0.008991741 -0.017428007 -0.055981386 -0.009139988 -0.052459124 -0.17156541 0.0067234547
0.07633407 -0.019599354 0.028269446 -0.04676427 -0.080799505 0.102256395 0.012093922 -0.014619962
0.028850801 0.018685736 0.037164014 0.053358864
00000000: 0cad 03bd 81dc 973c 4bd6 46bd 5acc 873d
00000010: af1d a93c d62f e9bd 48c2 c43c a9e8 383d
00000020: b93a 6a3b 3586 7e3d 680d 993d ab58 02bd
00000030: 4eb1 51bd ea7e a1bc 6d63 74bd d549 dd3d
00000040: 16c2 5c3d 1852 13bc 2ec5 8ebc bd4c 65bd
00000050: e3bf 15bc 61df 56bd d8ae 2fbe 6d50 dc3b
00000060: 0955 9c3d d38e a0bc 5395 e73c e48b 3fbd
00000070: 367a a5bd cd6b d13d 9625 463c 9188 6fbc
00000080: 8458 ec3c d412 993c 4b39 183d d38e 5a3d

encoder.encoder.1.backbone.1.1.weight f4 [36]
0.9878845 0.8515891 0.8968547 0.93692625 0.9734702 0.9213633 0.9887881 0.90152717
0.8513192 0.99664366 0.94225943 0.9532112 0.9516007 0.97957236 0.89065886 0.9170517
0.8848869 0.9554626 0.8725764 0.9451623 0.95289075 0.88836175 1.0482271 0.988871
0.9391492 0.79593265 0.9480868 0.89899737 0.9209855 0.9842638 0.94082534 0.9067074
0.8323124 0.89367956 0.9875261 1.0212809
00000000: 00e6 7c3f be01 5a3f 4598 653f 66da 6f3f
00000010: 5835 793f 77de 6b3f 3821 7d3f 7cca 663f
00000020: 0ef0 593f 0a24 7f3f ea37 713f a605 743f
00000030: 1a9c 733f 41c5 7a3f 3802 643f e6c3 6a3f
00000040: f387 623f 3299 743f 2b61 5f3f 28f6 713f
00000050: a6f0 733f ad6b 633f 4e2c 863f a626 7d3f
00000060: 156c 703f 3ec2 4b3f d1b5 723f b124 663f
00000070: b5c5 6b3f b6f8 7b3f eed9 703f fa1d 683f
00000080: 6d12 553f 2fc8 643f 83ce 7c3f 55b9 823f

encoder.encoder.1.backbone.1.1.bias f4 [36]
-0.006737414 -0.029303279 0.02921184 -0.018133001 -0.010022335 -0.020825282 0.015206796 -0.022252567
-0.03221309 -0.0077298237 0.009011829 -0.016618548 0.0053438563 -0.088842146 -0.0051825237 0.0047417837
0.0081884 0.016657036 0.011125285 0.018398138 -0.04304441 -0.013404568 -0.0899127 -0.061861955
0.019899298 0.00997625 -0.023125587 -0.025438333 -0.09834036 0.025115723 0.009307854 0.04646056
0.0047229105 -0.02581082 0.0039641475 0.01055712
00000000: 86c5 dcbb 6e0d f0bc ab4d ef3c a98b 94bc
00000010: b834 24bc c899 aabc ed25 793c 044b b6bc
00000020: e0f1 03bd 764a fdbb 5aa6 133c 9f23 88bc
00000030: 841b af3b dff2 b5bd 29d2 a9bb f760 9b3b
00000040: a428 063c 5674 883c d446 363c b1b7 963c
00000050: 564f 30bd d59e 5bbc 2624 b8bd f662 7dbd
00000060: da03 a33c 6d73 233c df71 bdbc 0d64 d0bc
00000070: ac66 c9bd 7dbf cd3c f87f 183c 6e4d 3e3d
00000080: a5c2 9a3b 3671 d3bc aee5 813b c5f7 2c3c

encoder.encoder.1.backbone.1.1.running_mean f4 [36]
-0.074093774 0.007211428 -0.064350955 0.010000889 0.10519242 -0.25409546 -0.04646856 -0.027121224
0.018525772 0.12911627 0.09373386 0.0020095608 0.0011931898 0.06511925 -0.024186816 0.08172633
0.040263522 -0.017210867 -0.0037146755 -0.10664683 0.0099610705 0.030083394 -0.0393229 0.17986417
0.12760527 0.042564735 -0.01646391 -0.0030958715 -0.013284182 0.08518951 -0.0074914945 -0.0183536
0.032149628 0.038192667 0.06601199 0.1491777
00000000: 7abe 97bd d84d ec3b 6fca 83bd c5da 233c
00000010: 206f d73d cd18 82be d155 3ebd 542d debc
00000020: 5cc3 973c 0e37 043e 8af7 bf3d d6b2 033b
00000030: ce64 9c3a 3e5d 853d 6e23 c6bc 2260 a73d
00000040: 5deb 243d cefd 8cbc ea71 73bb a769 dabd
00000050: c233 233c 7371 f63c 0d11 21bd 502e 383e
00000060: f5aa 023e 5c58 2e3d 52df 86bc 1be4 4abb
00000070: e6a5 59bc d677 ae3d 367b f5bb 4a5a 96bc
00000080: 54af 033d ea6f 1c3d 4b31 873d 0ac2 183e

encoder.encoder.1.backbone.1.1.running_var f4 [36]
0.25355488 0.43117997 0.32152084 0.2138646 0.32574514 0.38413307 0.4999348 0.29253802
0.28735712 0.24541612 0.40792963 0.41858003 0.39106596 0.3200522 0.3293772 0.21106352
0.15175143 0.4398281 0.11257817 0.33142936 0.35834113 0.1530607 0.27258202 0.61709404
0.33801338 0.6068412 0.30622432 0.50933397 0.21672104 0.44507027 0.2661693 0.14276704
0.20480457 0.21439771 0.4079362 0.5470768
00000000: f2d1 813e 9fc3 dc3e 619e a43e 52ff 5a3e
00000010: 11c8 a63e 17ad c43e 74f7 ff3e 8bc7 953e
00000020: 7920 933e 5d4e 7b3e 27dc d03e 1f50 d63e
00000030: cc39 c83e e2dd a33e 21a4 a83e 0921 583e
00000040: ba64 1b3e 2631 e13e 628f e63d 1cb1 a93e
00000050: 7d78 b73e f2bb 1c3e df8f 8b3e e0f9 1d3f
00000060: 1710 ad3e f259 1b3f 6fc9 9c3e b663 023f
00000070: 1fec 5d3e 40e0 e33e 5847 883e 8631 123e
00000080: 4ab8 513e 138b 5b3e 03dd d03e 3a0d 0c3f

encoder.encoder.1.downsampling.weight f4 [36, 36, 7]
-0.009698547 -0.0075681293 0.033890422 -0.088788494 -0.047822736 -0.014072311 0.007522645 -0.06989906
-0.0142858615 -0.0028759604 0.011102387 0.11725737 -0.0492981 0.01818672 -0.028371518 -0.007766009
-0.0035582613 0.004625971 0.082124606 0.011072976 0.03596497 -0.09472809 0.050247103 -0.048796624
-0.027236646 0.11235205 -0.005902453 -0.050364837 0.0033260852 0.013630632 -0.008061561 -0.00069281465
0.06697859 0.05816769 -0.029140666 -0.010639021 -0.09673182 0.04407451 0.052682314 -0.04531838
0.06871228 -0.046988085 0.00043560643 0.03460768 -0.050441004 0.01601626 -0.006937404 0.06119938
-0.0035772654 0.05203213 -0.038293507 0.02460145 0.018094389 -0.012152871 -0.021847906 0.004064727
0.08147434 0.08362639 -0.07278734 -0.001635562 -0.051710512 -0.007639693 -0.056461107 0.008243624
-0.06249777 0.039964855 0.009554238 -0.043906715 -0.004835546 -0.060177714 0.056343943 -0.041483417
-0.0050420933 0.09687407 0.012084699 -0.012778595 -0.05947468 -0.039683614 -0.030916262 0.038521927
0.051136404 -0.0004059487 -0.030165363 -0.0054689394 0.0012456496 0.0031324746 -0.04319963 0.0028961059
-0.03782027 0.039188318 -0.066147536 -0.1318005 0.0040033427 -0.086412676 0.07870801 -0.11293055
-0.0013693038 0.0061548236 0.0058336006 0.0018521752 -0.01110585 -0.02692888 0.009711165 -0.009425236
0.0030246163 -0.13286206 0.03434664 -0.029561482 0.0059351036 -0.09773728 0.0608396 0.054463785
-0.00094168406 -0.0022031383 0.095618814 -0.035190996 0.14102048 0.06352633 0.013695752 -0.009514122
-0.034886938 -0.009161816 -0.043978244 0.0819438 0.018944802 0.06317886 0.036962006 -0.098832585
0.0027949924 -0.017021274 0.070290335 -0.15003598 0.005516864 -0.018905455 -0.034853686 0.054699074
-0.032701425 -0.05320534 0.019907456 0.001189006 0.0034408155 -0.007889162 -0.01611253 -0.030225273
-0.01796084 -0.013157704 0.094545126 -0.010737324 0.081261106 0.02569571 0.03263052 0.019940464
0.039339516 0.058646806 0.0019084418 0.07674868 0.0115528805 0.0094020795 -0.07691988 0.034406543
0.014226964 0.011913858 -0.04707137 0.033075854 0.01754505 0.06410436 0.011174467 0.07031133
-0.031616643 -0.024825677 -0.017522888 -0.035313964 -0.073524155 -0.016630702 -0.05265882 0.012219611
-0.026321648 -0.005762844 0.024279967 0.0487173 -0.008965839 0.10166927 -0.012415145 0.034153167
-0.05724901 0.014628632 0.083127156 -0.03366727 -0.03602551 0.015078506 -0.024940057 -0.018298471
0.004882601 0.028766505 -0.043199707 -0.011543902 -0.003583049 0.033649705 -0.10995804 -0.04438076
0.023292443 0.007360347 0.06503792 -0.036563486 0.06653328 -0.03147533 -0.016388776 -0.015888616
0.019613292 0.024328876 -0.015885854 0.0416363 -0.016735017 0.07600984 0.069291085 -0.034760904
-0.04217303 -0.03721415 0.0036159111 -0.0075441455 -0.06058764 0.029978529 0.003600355 -0.025010586
0.12463807 0.00939257 0.0481132 0.055736233 0.05540823 0.0727109 0.012460468 -0.076871105
0.1067616 -0.04257047 0.028570315 -0.022163788 -0.04953332 0.07639666 -0.04751238 0.024994282
-0.047871344 0.03004026 0.002666075 0.053113855 -0.018704426 -0.0050809127 -0.020240543 0.030541021
-0.017704321 0.036172982 0.06472046 0.022361664 -0.006510567 0.01970812 -0.03392203 -0.052329194
00000000: a8e6 1ebc 12fe f7bb afd0 0a3d bed6 b5bd
00000010: c6e1 43bd 8d8f 66bc 8580 f63b 3d27 8fbd
00000020: 3f0f 6abc 9c7a 3cbb c9e6 353c a224 f03d
00000030: ceec 49bd 51fc 943c 636b e8bc 017a febb
00000040: b831 69bb 7595 973b f230 a83d 6d6b 353c
00000050: 0150 133d cd00 c2bd e8cf 4d3d f8de 47bd
00000060: 631f dfbc d518 e63d 5d69 c1bb 5c4b 4ebd
00000070: 73fa 593b 0453 5f3c a314 04bc 019e 35ba
00000080: 122c 893d 3e41 6e3d 68b8 eebc 4a4f 2ebc
00000090: 551b c6bd 7987 343d 69c9 573d c49f 39bd
000000a0: 06b9 8c3d 9476 40bd 1b62 e439 c8c0 0d3d
000000b0: 3a9b 4ebd 8834 833c 2a53 e3bb 33ac 7a3d
000000c0: 8e70 6abb a51f 553d a7d9 1cbd fb88 c93c
000000d0: af3a 943c d61c 47bc 61fa b2bc 6731 853b
000000e0: 05dc a63d 5044 ab3d 8711 95bd 5b60 d6ba
000000f0: 67ce 53bd 6456 fabb c343 67bd 4410 073c
00000100: a9fd 7fbd 30b2 233d 6189 1c3c 87d7 33bd
00000110: 8073 9ebb e87c 76bd e8c8 663d 84ea 29bd
00000120: 2538 a5bb ea65 c63d e7fe 453c 505d 51bc
00000130: b99b 73bd 498b 22bd 1a44 fdbc 2bc9 1d3d
00000140: 6874 513d 83d5 d4b9 5a1d f7bc ca34 b3bb
00000150: 1145 a33a 344a 4d3b 18f2 30bd 98cc 3d3b
00000160: 6de9 1abd ee83 203d 5c78 87bd b6f6 06be
00000170: 792e 833b 21f9 b0bd aa31 a13d 2248 e7bd
00000180: 367a b3ba 67ae c93b ca27 bf3b b0c4 f23a
00000190: 50f5 35bc f499 dcbc 941b 1f3c 4e6c 1abc
000001a0: a438 463b fe0c 08be 10af 0c3d ec2a f2bc
000001b0: 427b c23b 7c2a c8bd f232 793d 6b15 5f3d
000001c0: 59db 76ba 8762 10bb ccd3 c33d 6f24 10bd
000001d0: ac67 103e 181a 823d 2664 603c 1fe1 1bbc
000001e0: 9be5 0ebd 711b 16bc 8822 34bd 27d2 a73d
000001f0: 2132 9b3c eb63 813d 7965 173d bd68 cabd
00000200: 312c 373b 3370 8bbc 61f4 8f3d 08a3 19be
00000210: cfc6 b43b 9ddf 9abc bdc2 0ebd 230c 603d
00000220: eef1 05bd d8ed 59bd f614 a33c 6cd8 9b3a
00000230: 4e7f 613b 8b41 01bc 6dfe 83bc fe9a f7bc
00000240: 9d22 93bc 6993 57bc e0a0 c13d 9aeb 2fbc
00000250: 396c a63d cf7f d23c 95a7 053d 2f5a a33c
00000260: 7922 213d a237 703d ae24 fa3a 692e 9d3d
00000270: 4b48 3d3c 2e0b 1a3c 2c88 9dbd e0ed 0c3d
00000280: 3618 693c 5832 433c e9cd 40bd 8c7a 073d
00000290: a3ba 8f3c 2649 833d 1d15 373c 63ff 8f3d
000002a0: 7480 01bd 385f cbbc 298c 8fbc 60a5 10bd
000002b0: d593 96bd 1c3d 88bc c6b0 57bd c334 483c
000002c0: 7fa0 d7bc 3dd6 bcbb c8e6 c63c cb8b 473d
000002d0: 74e5 12bc fa37 d03d e468 4bbc 31e4 0b3d
000002e0: f07d 6abd eeac 6f3c 923e aa3d b1e6 09bd
000002f0: 7c8f 13bd d70b 773c 174f ccbc ade6 95bc
00000300: 3afe 9f3b bca7 eb3c 2df2 30bd a222 3dbc
00000310: 96d1 6abb 46d4 093d ae31 e1bd 9ac8 35bd
00000320: cbcf be3c 112f f13b 9a32 853d 98c3 15bd
00000330: 9a42 883d 47ec 00bd c141 86bc d828 82bc
00000340: 0eac a03c 5a4d c73c 0d23 82bc d38a 2a3d
00000350: e017 89bc 0cab 9b3d 7ce8 8d3d 7361 0ebd
00000360: a1bd 2cbd dd6d 18bd ecf8 6c3b e134 f7bb
00000370: bf2a 78bd 8895 f53c eff3 6b3b 00e3 ccbc
00000380: 3f42 ff3d 4be3 193c 5912 453d ad4b 643d
00000390: bdf3 623d 74e9 943d fe26 4c3c 996e 9dbd
000003a0: d3a5 da3d 605e 2ebd 4b0c ea3c d590 b5bc
000003b0: 73e3 4abd da75 9c3d 579c 42bd cfc0 cc3c
000003c0: be14 44bd fe16 f63c 51b9 2e3b ea8d 593d
000003d0: 063a 99bc c97d a6bb 7fcf a5bc 2a31 fa3c
000003e0: a708 91bc 1f2a 143d 298c 843d cf2f b73c
000003f0: 9856 d5bb ec72 a13c d4f1 0abd 2357 56bd

encoder.encoder.1.downsampling.bias f4 [36]
-0.04058338 0.0067450036 -0.042448327 -0.044493277 -0.06461472 -0.032586712 0.0042916173 0.0025717719
0.0040335534 0.03079625 0.019764498 -0.010545262 0.093237445 0.10903861 0.027591571 -0.028995713
0.058350675 -0.033648968 0.027481316 -0.0036948794 0.048581414 -0.0015965138 0.0073487004 0.0007560875
0.004475353 0.054655295 -0.03191518 -0.06075996 0.021424618 0.027666282 0.06764837 0.057748128
-0.063372195 0.026501061 0.02642794 -0.017269239
00000000: c23a 26bd 3105 dd3b 4cde 2dbd 953e 36bd
00000010: b954 84bd a579 05bd b2a0 8c3b 2c8b 283b
00000020: e62b 843b 6b48 fc3c 28e9 a13c 09c6 2cbc
00000030: 46f3 be3d a24f df3d b807 e23c 6b88 edbc
00000040: 1e01 6f3d 80d3 09bd 7f20 e13c ca25 72bb
00000050: 4efd 463d 1d42 d1ba 5ecd f03b 2c34 463a
00000060: fba5 923b 3bde 5f3d 7eb9 02bd 70df 78bd
00000070: ae82 af3c 66a4 e23c 3b8b 8a3d 4d89 6c3d
00000080: 48c9 81bd c118 d93c 687f d83c 3878 8dbc

encoder.encoder.2.0.weight f4 [36, 36, 7]
-0.002450456 0.035496995 0.03146025 -0.019074932 -0.096977 -0.038756903 0.054940723 -0.0297082
-0.048985302 0.034814723 0.016093679 0.04314216 0.044266626 -0.0024033405 0.03409094 0.003806004
-0.056283478 0.053931385 -0.021715207 0.0060812007 -0.011621891 -0.040283933 -0.01819195 0.06496278
-0.005250592 -0.02673555 0.004420293 0.03210351 -0.011878502 0.0021184536 -0.061331823 -0.049304243
-0.04221845 0.023923824 0.010501797 0.025910135 -0.0016327848 0.07855396 0.026425121 0.03516705
0.0455494 0.024152683 0.013396143 -0.049838696 0.015241607 -0.0024106135 -0.058862444 0.03648434
-0.0034298545 0.024711538 -0.0030028722 0.005420175 0.053383198 -0.0019188386 -0.033965107 0.022634119
0.083743766 -0.037509255 -0.031744335 -0.0285166 0.025975214 -0.048279114 -0.017657539 0.0013534221
0.00893958 0.010508565 -0.024546944 0.037326466 0.0023290443 0.032063443 0.016111363 0.017228521
0.047394037 -0.008678064 -0.0074876156 -0.047246214 0.019625673 -0.04602662 -0.015817648 -0.014042568
0.023799317 0.0063738725 0.04592161 -0.048649646 0.036206424 -0.024251794 0.017054088 0.058261048
-0.04063716 -0.04174005 0.0604935 0.021393023 -0.014250713 0.044750035 0.017206782 0.03154944
-0.02906598 0.004336357 -0.009483551 -0.04102459 0.02209346 -0.09245846 -0.015991671 -0.018979551
-0.042811565 -0.03263457 0.029282657 -0.048299264 -0.045915723 0.029496761 -0.0039067795 -0.023925705
0.034047753 -0.021233702 0.059218068 0.0664914 -0.055184625 -0.007079377 -0.008589274 0.0298142
-0.009211749 0.037168484 -0.046865907 0.009894887 0.04310035 0.02741276 0.028374244 0.02612559
-0.015737453 0.0015066462 -0.035451025 0.04212527 0.009027905 -0.035166893 -0.040144082 -0.05349059
-0.00079822855 0.011708799 0.0031575297 0.00073167577 0.016401578 -0.027924262 -0.024267772 0.0049533546
0.00093930843 0.0027283723 0.0026196148 0.004254778 0.025001297 0.006864709 0.015807567 0.03428799
0.024651634 0.046498757 0.010989983 0.0056790286 0.008524143 -0.046224173 -0.008891069 -0.025269486
-0.0017173976 -0.006332683 -0.029960537 0.023547819 -0.012475578 -0.046097025 -0.02045343 -0.022739328
-0.017706329 0.04621079 0.016336063 -0.021579847 0.0481756 -0.025175912 0.023383072 -0.002608729
0.038121253 -0.04365691 -9.460692e-05 0.008879344 -0.03864361 0.019232586 0.014501061 -0.052368812
-0.03574508 -0.055414792 0.007981084 -0.007557352 -0.010805871 -0.014362858 -0.011672551 -0.016920269
0.10254765 -0.032829743 -0.03243341 -0.019038927 0.0048434986 0.0008752174 0.012552156 -0.020188631
-0.038776323 0.0641862 -0.005078655 0.008779825 0.011548015 -0.025219398 0.016413279 -0.055415638
0.028822783 0.06123861 -0.016409773 -0.02521836 -0.014984158 0.020561315 -0.067775585 0.0007368866
-0.014437453 -0.048548594 0.020968003 -0.010839891 -0.051914345 0.037920795 -0.004070618 0.039785426
-0.053440448 -0.025588647 0.006822456 -0.0039104787 -0.01042468 0.017372783 0.0473203 0.026397953
0.037913494 -0.004070189 -0.10578295 0.039153263 0.05183482 0.017965525 -0.02546981 0.024456397
-0.018020015 -0.013478655 0.08083297 0.024138726 0.033481207 0.010489631 0.029699055 0.034404147
0.013070795 -0.012249653 -0.0021027254 -0.04612908 0.014406887 -0.053628426 -0.05717778 0.0106760645
00000000: d497 20bb 4c65 113d 77dc 003d 0843 9cbc
00000010: e19b c6bd 8fbf 1ebd 8609 613d 9c5e f3bc
00000020: d0a4 48bd e299 0e3d e4d6 833c d5b5 303d
00000030: ec50 353d 5d81 1dbb f1a2 0b3d 276e 793b
00000040: 8189 66bd 28e7 5c3d 17e4 b1bc cf44 c73b
00000050: be69 3ebc c400 25bd 4907 95bc 350b 853d
00000060: 280d acbb 8304 dbbc 1bd8 903b f87e 033d
00000070: 0c9e 42bc c1d5 0a3b 1437 7bbd 3ff3 49bd
00000080: 41ed 2cbd e5fb c33c bb0f 2c3c 7e41 d43c
00000090: 2b03 d6ba e6e0 a03d 7f79 d83c 530b 103d
000000a0: 0292 3a3d d9db c53c 7f7b 5b3c a923 4cbd
000000b0: efb7 793c 62fb 1dbb bf19 71bd 9a70 153d
000000c0: 69c7 60bb da6f ca3c d6cb 44bb b99b b13b
000000d0: 57a8 5a3d 8a81 fbba ff1e 0bbd 306b b93c
000000e0: da81 ab3d 4ea3 19bd 5906 02bd a59b e9bc
000000f0: f9c9 d43c 52c0 45bd 8ba6 90bc 4f65 b13a
00000100: 5177 123c 1e2c 2c3c ac16 c9bc a3e3 183d
00000110: e1a2 183b f554 033d fafb 833c d422 8d3c
00000120: 4020 423d 702e 0ebc ac5a f5bb 3f85 41bd
00000130: 05c6 a03c 6986 3cbd 0394 81bc cd12 66bc
00000140: c9f6 c23c ebdb d03b 4c18 3c3d da44 47bd
00000150: 304d 143d b3ab c6bc 04b5 8b3c 23a3 6e3d
00000160: 2773 26bd 9df7 2abd 08c8 773d 6c40 af3c
00000170: d37b 69bc d04b 373d 3df5 8c3c fc39 013d
00000180: c71b eebc 0018 8e3b e560 1bbc 6709 28bd
00000190: 58fd b43c dc5a bdbd f700 83bc 017b 9bbc
000001a0: 2e5b 2fbd d4ab 05bd 2fe2 ef3c 73d5 45bd
000001b0: 2012 3cbd 31a3 f13c 7104 80bb d7ff c3bc
000001c0: a875 0b3d 4df2 adbc a58e 723d a52c 883d
000001d0: 4609 62bd 1efa e7bb 07ba 0cbc e93c f43c
000001e0: e0ec 16bc fb3d 183d 77f6 3fbd 2a1e 223c
000001f0: fe89 303d b990 e03c 1a71 e83c 5505 d63c
00000200: d5eb 80bc a87a c53a 1835 11bd 8c8b 2c3d
00000210: c7e9 133c 290b 10bd 1f6e 24bd f318 5bbd
00000220: 3640 51ba 43d6 3f3c 8fee 4e3b eecd 3f3a
00000230: 9a5c 863c 6cc1 e4bc 35cd c6bc c04f a23b
00000240: ec3b 763a 7ece 323b d8ad 2b3b aa6b 8b3b
00000250: 85cf cc3c 5af1 e03b df7e 813c 9071 0c3d
00000260: 39f2 c93c 7b75 3e3d 540f 343c 2517 ba3b
00000270: d9a8 0b3c 8f55 3dbd d9ab 11bc f401 cfbc
00000280: 4d1a e1ba 6582 cfbb cd6f f5bc 5be7 c03c
00000290: 5e66 4cbc 3cd0 3cbd f48d a7bc d447 babc
000002a0: dd0c 91bc 8647 3d3d 35d3 853c 38c8 b0bc
000002b0: c753 453d b73d cebc db8d bf3c 36f7 2abb
000002c0: 0825 1c3d 97d1 32bd b467 c6b8 ab7a 113c
000002d0: c348 1ebd a88d 9d3c dc95 6d3c ae80 56bd
000002e0: 6f69 12bd 9ffa 62bd 18c3 023c aaa3 f7bb
000002f0: 1c0b 31bc 3152 6bbc 3a3e 3fbc 609c 8abc
00000300: 8104 d23d 7b78 06bd e5d8 04bd 86f7 9bbc
00000310: 36b6 9e3b d86e 653a 8fa7 4d3c a162 a5bc
00000320: ecd3 1ebd 0e74 833d d96a a6bb 41d9 0f3c
00000330: e333 3d3c e998 cebc 2475 863c 82fb 62bd
00000340: c21d ec3c 56d5 7a3d ca6d 86bc bc96 cebc
00000350: 1d80 75bc 3470 a83c edcd 8abd 9f2b 413a
00000360: 118b 6cbc e4da 46bd 17c5 ab3c cc99 31bc
00000370: 23a4 54bd d652 1b3d d262 85bb 0bf6 223d
00000380: 5fe4 5abd 489f d1bc e98e df3b 7923 80bb
00000390: 47cc 2abc 5e51 8e3c eed2 413d 8540 d83c
000003a0: 2e4b 1b3d 385f 85bb bba4 d8bd 2c5f 203d
000003b0: c050 543d 702c 933c 10a6 d0bc c858 c83c
000003c0: b69e 93bc 94d5 5cbc c28b a53d 94be c53c
000003d0: 9723 093d b4dc 2b3c 6f4b f33c 5deb 0c3d
000003e0: e326 563c c5b2 48bc e1cd 09bb d9f1 3cbd
000003f0: dd0a 6c3c 7ba9 5bbd 3f33 6abd a9ea 2e3c

encoder.encoder.2.0.bias f4 [36]
-0.046060145 0.014155964 0.030612456 -0.06115258 -0.047952607 0.014317046 0.009830575 -0.050501455
-0.13347283 -0.02060695 -0.07155036 -0.052530933 0.050166633 -0.05155452 -0.019282805 0.023220735
-0.025253732 -0.048047338 0.014603826 0.0520659 -0.059005335 -0.0060779797 -0.004227954 0.07146406
-0.073446795 -0.060503237 -0.040238395 -0.10728095 0.063297614 -0.085156895 -0.017050726 0.10936689
-0.0059936773 0.04527681 -0.112257704 -0.004634504
00000000: 90a9 3cbd 6bee 673c f9c6 fa3c 217b 7abd
00000010: f469 44bd 0b92 6a3c 6c10 213c 9dda 4ebd
00000020: 1aad 08be e8cf a8bc ff88 92bd ad2a 57bd
00000030: 877b 4d3d d52a 53bd f9f6 9dbc 6939 be3c
00000040: eae0 cebc 49cd 44bd e344 6f3c 0e43 553d
00000050: 94af 71bd ca29 c7bb a68a 8abb c05b 923d
00000060: 466b 96bd 3ed2 77bd 04d1 24bd 1db6 dbbd
00000070: 2ea2 813d bd66 aebd f7ad 8bbc bffb df3d
00000080: 9c66 c4bb 2d74 393d 5ee7 e5bd 0add 97bb

encoder.encoder.2.1.weight f4 [36]
0.79070604 0.92504454 0.46456918 0.46216387 0.66320056 0.70448405 0.57693547 0.9730156
0.98896414 0.91594005 0.90697056 0.6344452 0.7177395 0.69257253 0.7988738 0.68897444
0.5845914 0.5425068 0.9638807 0.63826954 0.9108154 0.76761967 0.8842826 0.8132287
0.9320427 0.90740556 0.54279304 0.958735 0.759289 0.80977947 0.5475764 0.8702466
0.67693776 0.7581148 0.9622522 0.73598546
00000000: b66b 4a3f b8cf 6c3f 03dc ed3e bea0 ec3e
00000010: 83c7 293f 1159 343f 0bb2 133f 8d17 793f
00000020: c12c 7d3f 0c7b 6a3f 392f 683f 006b 223f
00000030: c7bd 373f 6f4c 313f fe82 4c3f a160 303f
00000040: c8a7 153f bae1 0a3f e3c0 763f a265 233f
00000050: 332b 693f b982 443f 5860 623f c22f 503f
00000060: 5a9a 6e3f bb4b 683f 7cf4 0a3f a86f 753f
00000070: c460 423f b54d 4f3f f82d 0c3f 7bc8 5e3f
00000080: cb4b 2d3f d013 423f 2956 763f 8b69 3c3f

encoder.encoder.2.1.bias f4 [36]
-0.026722154 0.008490744 -0.021322653 -0.014261564 -0.017733492 -0.005476874 -0.025849652 -0.098780885
-0.10423699 -0.0038742153 -0.04285545 -0.016831538 0.030760083 -0.036704175 -0.029639602 -0.02473859
0.036985148 -0.02494407 0.0015267549 -0.01617194 -0.055806402 0.016001068 -0.0017555144 0.03602349
-0.0078021935 -0.021113995 -0.04587504 -0.07600495 0.0029775845 -0.09727283 -0.014555651 0.047198396
0.032594275 0.04832588 -0.05336485 0.06285351
00000000: 6be8 dabc c31c 0b3c d8ac aebc 56a9 69bc
00000010: d445 91bc 5977 b3bb a6c2 d3bc a24d cabd
00000020: 347a d5bd 8ce6 7dbb 3289 2fbd 4be2 89bc
00000030: 92fc fb3c 1e57 16bd c0ce f2bc 95a8 cabc
00000040: bd7d 173d 8257 ccbc 651d c83a 047b 84bc
00000050: 4195 64bd ac14 833c 4a19 e6ba 5e8d 133d
00000060: 8ba9 ffbb 42f7 acbc 77e7 3bbd 7ca8 9bbd
00000070: 9423 433b fa36 c7bd d37a 6ebc 1b53 413d
00000080: 9381 053d 5cf1 453d 1a95 5abd 57b9 803d

encoder.encoder.2.1.running_mean f4 [36]
0.20472716 -0.16328588 0.021700094 0.09084101 0.11808393 -0.23630151 0.3225301 0.16740498
0.026196277 0.18280905 -0.34939426 -0.12007958 0.1545533 0.18488151 -0.01987897 -0.19720179
-0.14080939 0.18192685 -0.30343354 0.17548315 0.19287555 0.16409346 0.13577357 -0.09405811
-0.079294145 0.09710541 0.20533295 0.13902144 -0.208028 -0.018503617 0.19001055 0.12955308
0.1190393 0.16716735 0.091861375 0.14455396
00000000: ffa3 513e 6a34 27be 65c4 b13c da0a ba3d
00000010: fdd5 f13d 06f9 71be aa22 a53e 366c 2b3e
00000020: 9399 d63c 4c32 3b3e cee3 b2be 48ec f5bd
00000030: 3843 1e3e 9451 3d3e 39d9 a2bc 44ef 49be
00000040: 5630 10be 084b 3a3e a45b 9bbe dbb1 333e
00000050: 2b81 453e 1e08 283e 3a08 0b3e 8aa1 c0bd
00000060: f864 a2bd 34df c63d cd42 523e a35b 0e3e
00000070: 4b05 55be e694 97bc 2092 423e 90a9 043e
00000080: e0ca f33d eb2d 2b3e d121 bc3d f405 143e

encoder.encoder.2.1.running_var f4 [36]
2.708617 2.5448127 1.3729872 1.9915507 3.2275665 4.3700323 2.6508589 2.8897467
2.488708 3.2344863 6.04354 2.7147639 3.4849548 3.5864308 3.3909414 4.2659097
3.1366107 3.0504553 5.372374 3.8260036 2.7462206 1.9503682 3.7424843 2.549228
4.0899973 2.242251 2.5115025 2.4666696 3.2998033 1.8933811 2.641297 1.9411961
3.30074 3.4068086 2.8249931 2.3661005
00000000: fb59 2d40 36de 2240 0bbe af3f 22eb fe3f
00000010: 7390 4e40 4ed7 8b40 aca7 2940 9cf1 3840
00000020: fe46 1f40 d301 4f40 ae64 c140 b1be 2d40
00000030: 8009 5f40 1588 6540 2f05 5940 5582 8840
00000040: 3bbe 4840 a93a 4340 7dea ab40 3edd 7440
00000050: 14c2 2f40 aaa5 f93f dd84 6f40 8d26 2340
00000060: 42e1 8240 0a81 0f40 75bc 2040 eadd 1d40
00000070: fa2f 5340 505a f23f 030b 2940 1d79 f83f
00000080: 533f 5340 2709 5a40 b0cc 3440 316e 1740
