trained_models/BCA1:9E02:6DF4:F5EE.pt (torch, 57915 bytes, 12 tensors)

encoder.0.weight f4 [36, 36, 7]
000000 8f 43 94 bc 41 20 b6 3b 76 be 66 bd ac 43 8f 3d
       -0.01809862 0.005558044 -0.05633398 0.06995329
000010 91 93 fc bd 51 f3 8a bc d9 ab ac b9 da 18 b6 3a
       -0.123328336 -0.016961725 -0.00032934433 0.0013892904
000020 30 1a 26 bc 04 22 1d bd 2e 4c cc 3d 04 2e 96 3d
       -0.0101380795 -0.038362518 0.099754676 0.073329955
000030 11 46 93 3c dc 2c c3 39 02 05 80 bb 7b 41 0e bb
       0.017977746 0.0003722672 -0.003906847 -0.002170651
000040 b7 b3 8e bc 3b bd 62 bd 82 9e 08 bd 40 c9 a0 ba
       -0.01741968 -0.055356245 -0.03335429 -0.0012267008
000050 50 70 3b 3c 5c 79 ad ba e6 73 9b 3b 68 ff 9a 3c
       0.011440352 -0.001323502 0.004744041 0.018920615
000060 72 da 1e 3d 76 03 2f bd 47 b0 04 3d 59 95 1c 3c
       0.038782544 -0.04272791 0.032394674 0.009557092
000070 57 60 98 bc 49 ed e2 3a d9 25 c7 bc 19 70 26 3d
       -0.018600626 0.0017313148 -0.02431004 0.04063425
000080 50 66 2f bd 88 f0 ec 3c 4b 6a 64 3c 12 38 9d 3b
       -0.042822182 0.028923288 0.013941358 0.004797944
000090 ab eb 11 bb 40 3d d5 bc 27 56 38 bd e3 d9 45 3c
       -0.0022265713 -0.026030183 -0.045004036 0.012075874
0000a0 1b 61 fe 3b 68 12 b4 3c eb 16 94 ba 09 4b 46 3c
       0.0077630407 0.021981433 -0.0011298334 0.012102851
0000b0 06 a7 75 3c aa 29 5d 3d 01 88 9a bd a9 f1 73 3d
       0.014993435 0.053994812 -0.07545472 0.059556637
0000c0 43 41 cb 3c 65 70 0b bc 44 45 59 3c 14 ae 22 3b
       0.024811393 -0.008510684 0.013261143 0.0024822997
0000d0 1c 40 0a bb 58 f4 51 bd 10 66 56 3d bd 4e 98 3c
       -0.002109534 -0.051258415 0.052343428 0.018592233
0000e0 41 6f f5 bb bd 7d 11 3c 23 21 27 3d bd 38 c3 3c
       -0.007490069 0.008880076 0.040803086 0.023830766
0000f0 5a a0 d9 3d 86 79 ee 3c 5f cc fb 3b 41 eb 9d bc
       0.10626288 0.029110681 0.007684275 -0.019277217
000100 78 5c 0c 3c 2b cd e3 3b df 63 1d bd b3 80 2d 3c
       0.008566968 0.006951948 -0.038425323 0.010589766
000110 8b 3a 2a 3c 57 15 98 3c 85 08 89 3c a4 8a 51 3c
       0.010389934 0.018564863 0.016727695 0.012789402
000120 e0 28 29 3d 2e fd e5 bc 57 73 dd bd ae 1c 03 3d
       0.041298747 -0.028074827 -0.10813015 0.032009773
000130 01 9b eb 3c c2 33 36 bc 7e 4f 3b 3c c3 73 1b 3d
       0.028760435 -0.011120738 0.011432527 0.037952196
000140 9d 06 dd 3c a8 f7 3d bd a5 e9 2d 3d 0f 04 a7 3c
       0.026980693 -0.04637876 0.04245915 0.020387677
000150 2c 05 02 bc 97 06 0b bb 62 5f 84 bc ee d0 a6 bb
       -0.007935803 -0.0021213645 -0.016158763 -0.0050908243
000160 69 d9 3b bd 13 f2 c7 3c cf 23 1b 3d ed 6a e0 bb
       -0.045861635 0.024407422 0.037875947 -0.006848684
000170 bc 7a 19 bc 94 5e 81 3c 28 4b de bc d3 e4 61 bd
       -0.009367641 0.015792169 -0.027135447 -0.055149864
000180 f4 7d c6 3b 6e 07 31 3a 3e ed 0f bd b9 80 4d bd
       0.0060574953 0.0006753121 -0.03513836 -0.050171588
000190 63 37 6f bd 3e 26 12 b9 a4 44 c8 3d aa 09 7f bd
       -0.05840243 -0.00013937891 0.09778717 -0.062265076
0001a0 be b4 0d bd ff 5d b6 bc 0f e2 84 bc c4 d8 f3 bc
       -0.034596197 -0.022261618 -0.016221074 -0.029766448
0001b0 52 79 5b bc 9f 90 78 3c c8 ef 9b bd 53 75 52 bd
       -0.013395624 0.015171199 -0.07614094 -0.05138142
0001c0 96 fa 1f bc c6 39 8c bc 59 27 d8 3b de 7b 4a 3e
       -0.009764334 -0.017117392 0.0065964875 0.19773814
0001d0 35 37 da 3b ec 1c e3 bc 48 af 1c bd ac c2 40 bc
       0.006659413 -0.027723752 -0.0382531 -0.011765163
0001e0 48 f3 df 3a 63 16 0d bc 15 98 31 be 68 49 df 3b
       0.0017086053 -0.008611294 -0.17343171 0.0068141706
0001f0 1b fe d9 bc fc cb c9 bc c2 c7 2f bc 95 50 f5 bc
       -0.026610425 -0.0246334 -0.010728778 -0.029945651
000200 aa 86 2c 3c 63 25 59 bd 82 ec 3c ba dd 7e dc bc
       0.010530153 -0.05301417 -0.0007206873 -0.026915962
000210 af 72 9a ba 8a ae 11 bb 5a 07 4b bc 54 fa 97 3d
       -0.0011783446 -0.0022229278 -0.0123918895 0.07420793
000220 d8 17 1f 3d de e8 a4 3d 1a 5a 23 3c a9 c4 ac bb
       0.0388411 0.080522284 0.009970212 -0.005272467
000230 7f eb 5b bc b3 98 74 3a 5c 75 7a bd c8 3b 9a bd
       -0.013422846 0.0009330615 -0.06114708 -0.075309336
000240 79 52 c1 3c ee f6 b6 3c f7 4d d7 bb d8 d2 8e 3c
       0.023598896 0.022334542 -0.0065705734 0.017434523
000250 a6 91 a5 3b 6f a1 a1 3d 1f 81 c9 39 39 1f 13 3b
       0.005052763 0.07892119 0.0003843391 0.002244903
000260 93 5c 06 3d 2a 9c 54 3c 50 d3 9a 3b 0d f0 10 3c
       0.03280313 0.012976686 0.0047248974 0.008846295
000270 a7 3a 40 bc 9e 3c 01 bd ea 2b bb bc 99 f2 81 3c
       -0.011732734 -0.03155195 -0.022848088 0.01586275
000280 10 86 a6 3c 8c 50 67 3c 98 20 41 3c f3 2e 26 bd
       0.020327598 0.014118325 0.011787556 -0.040572118
000290 fe 98 5a bc cc 8a 84 3c 6b 4c c0 3c be 94 ac 3c
       -0.01334214 0.016179465 0.023473939 0.02106702
0002a0 ad 52 46 3b b3 36 15 3c 9c 1b f3 3b c8 bc bc 3b
       0.003026168 0.00910728 0.007419063 0.005759809
0002b0 4d 3b b9 bb 25 da fb 3c 23 35 01 3d d6 d3 f4 3b
       -0.005652821 0.030743668 0.031544816 0.007471542
0002c0 aa 30 11 3c fb de f9 bc 81 60 28 bc bc 80 3b bd
       0.0088617 -0.030501833 -0.010276915 -0.045777068
0002d0 8d bf 1f 3d 55 a3 e1 3c 3f ab f8 3b 3a 73 f9 3b
       0.039001036 0.027543703 0.0075887735 0.007612613
0002e0 29 c8 11 3d ca 77 b4 bc b3 04 a3 bd 2d bd 6b 3d
       0.03559128 -0.022029776 -0.07959881 0.05755346
0002f0 c0 ed 1e 3d c1 aa 36 bc a5 8c 28 3b ff c6 0e 3b
       0.038800955 -0.011149109 0.0025718596 0.0021786091
000300 2c 89 71 bd 13 e5 07 bd 11 5a a1 3c 76 ba 37 3d
       -0.058968708 -0.033177447 0.019696267 0.044855557
000310 61 07 c7 bb 52 3b cf 3b 44 d1 1d 3c 7c 88 11 bd
       -0.0060738777 0.00632421 0.009632412 -0.035530552
000320 e0 7e bc bb d9 15 1f 3d cd 06 25 3d c2 25 c3 bb
       -0.0057524294 0.038839195 0.04028969 -0.005955429
000330 9e 62 3d 3a 10 b6 a5 bb a2 03 1f bc a0 c3 7d bc
       0.0007224473 -0.005057104 -0.009705456 -0.015488535
000340 46 43 c9 3c 88 b6 1f 3d 1a 70 88 3b 08 0f 10 ba
       0.024568211 0.038992435 0.004163754 -0.0005495404
000350 cf c8 8f ba d0 da 19 bd 28 e4 ed 3c 04 a6 b7 3c
       -0.001096988 -0.03756219 0.029039457 0.02241803
000360 84 24 84 3c 0d 30 40 ba 87 7d 02 3c 03 11 a0 bc
       0.016130693 -0.0007331379 0.007964498 -0.019539362
000370 de a9 4e bd 9f 24 21 ba e2 a3 de 3b e3 0c 96 3c
       -0.050454967 -0.00061471196 0.0067944387 0.018316692
000380 1b f7 6d 38 e5 af 5e 3b ff d9 b8 bc 68 2e 3e bc
       5.6735338e-05 0.0033979353 -0.022564886 -0.011607744
000390 e0 88 9d 3c a5 18 35 3d b9 5e 01 3d f8 23 85 b9
       0.019230306 0.044212956 0.031584475 -0.00025394536
0003a0 8b 9f 7f bc cb 9a 81 ba 6b 4d f7 bc 39 2a 02 bd
       -0.015602003 -0.0009888051 -0.030188283 -0.031778548
0003b0 b4 aa 90 39 b5 63 88 bc 13 9d 42 bc 77 4c ed bb
       0.00027593004 -0.016649107 -0.01187827 -0.0072417813
0003c0 a8 3c bb bc 7e b1 9e bc 93 e2 f7 bc cc 49 73 3c
       -0.022856072 -0.019371744 -0.030259406 0.0148491375
0003d0 4d 01 7c bb 9f 72 72 bb d6 91 34 bc 24 04 31 3d
       -0.0038452924 -0.003699459 -0.011021098 0.04321684
0003e0 bc 83 cb bd 19 ad c4 3d 1d ba d3 39 df a0 84 3a
       -0.09937236 0.09603328 0.0004038372 0.0010118744
0003f0 1b d2 c8 bb 78 bc 82 39 58 e4 b1 3c 37 75 87 bd
       -0.006128562 0.00024935952 0.021715328 -0.06614154

encoder.0.bias f4 [36]
000000 44 ed fe 3c 24 9b af bd 9c e6 8d bd f3 c5 b0 bb
       0.031118996 -0.085745126 -0.06928751 -0.005394691
000010 53 de e5 3a ed 9e 57 3d de 6e ac bd f3 0f 6d bc
       0.0017537571 0.052641798 -0.08419584 -0.014469135
000020 e4 2a 72 bc 1c 94 be 3c 12 5d b7 3d 60 38 b7 3c
       -0.014780734 0.023263983 0.08953299 0.022365749
000030 17 bf 8a bd 8e 93 01 3e 71 33 97 3d 05 67 5f 3c
       -0.06774729 0.12653944 0.073828585 0.013635402
000040 14 f6 5d bd b3 4f 88 3c 1e b0 79 bd 4c 46 87 bc
       -0.054189757 0.016639566 -0.060958974 -0.016513012
000050 bc e5 da 3c 52 aa 7c bc 0b a5 1b 3d ca bf 93 bd
       0.026720874 -0.015421467 0.037999194 -0.07214315
000060 f2 d8 a4 3d 37 2b 32 3c 95 18 cd 3c b7 7b 31 bc
       0.080491915 0.010874561 0.025036136 -0.010832719
000070 7e 05 38 3d b3 9b 90 3a 26 d1 1f bd c8 24 45 3b
       0.044927113 0.001103273 -0.03901782 0.0030081738
000080 9b cd 33 bc 8f 42 0e bd f0 6d 22 bd a5 6b c4 bd
       -0.010974313 -0.034731444 -0.039655626 -0.09590844

encoder.1.weight f4 [36]
000000 0b 4e 60 3f 10 4c 6b 3f 77 55 67 3f 72 c9 59 3f
       0.87619084 0.9191294 0.90364784 0.85073006
000010 e3 3b 76 3f a7 56 19 3f 74 34 56 3f d5 39 73 3f
       0.9618513 0.59897846 0.8367379 0.9501012
000020 0b ac 58 3f fe c0 5b 3f 0b 92 29 3f ae 3f 12 3f
       0.84637517 0.8584136 0.6623847 0.5712842
000030 fb 8d 65 3f ee 95 01 3f af 42 56 3f a0 18 66 3f
       0.8966977 0.506194 0.836955 0.89881325
000040 c5 a3 5e 3f bc e4 66 3f 6e ba 0b 3f 8b 87 57 3f
       0.8696864 0.9019277 0.54581344 0.841912
000050 37 7d 3d 3f 02 dc 3c 3f 10 87 3e 3f 38 6a 1c 3f
       0.7401919 0.73773205 0.7442484 0.61099577
000060 f7 ad 17 3f 8a 7c 40 3f d7 db 44 3f d1 73 79 3f
       0.59249824 0.7519003 0.7689795 0.97442347
000070 fe c4 73 3f a3 9a 61 3f 6a ee 42 3f 07 19 2a 3f
       0.9522246 0.8812658 0.7614504 0.6644444
000080 0b 5e 80 3f d7 ab 7f 3f f2 f0 76 3f 21 00 5c 3f
       1.00287 0.9987158 0.96461403 0.85937697

encoder.1.bias f4 [36]
000000 bf 69 ba 3b 54 03 1c bd 91 52 93 bd 62 f2 b8 3c
       0.0056888754 -0.03808911 -0.07193483 0.022576515
000010 ed 1e 0f bd 5a 96 97 3c 1e f1 af bc b4 d0 b0 bd
       -0.034941602 0.01850431 -0.021477278 -0.08633557
000020 c3 06 19 bd 59 7c ab bd 67 66 80 3d 0b 86 54 3d
       -0.037359964 -0.08373327 0.06269532 0.051885646
000030 b1 d8 35 bc 53 13 e3 3d a1 0c 9e 3d 48 ab 38 bd
       -0.011099027 0.1108767 0.077172525 -0.04508522
000040 68 c0 d4 bd ad d5 05 bd c0 f6 82 bd c7 23 8a bc
       -0.10388261 -0.03267448 -0.0639472 -0.016862763
000050 a0 af 27 3a 4c ae a3 bd 57 19 79 3d c8 58 e9 bc
       0.00063967146 -0.07992229 0.06081518 -0.028484717
000060 bc 85 23 3d 20 c8 82 3d 79 33 ee bb 8f 97 f3 bd
       0.03992246 0.06385827 -0.0072693196 -0.11894142
000070 bc bd 9f bd b9 0b 92 bd b5 b2 01 bc a3 82 4e 3d
       -0.07799861 -0.07131142 -0.007916142 0.050417554
000080 bc a9 ab bd 78 e6 a2 bc c3 0b 0d be 28 94 44 bd
       -0.08381984 -0.019885287 -0.13774018 -0.047992855

encoder.1.running_mean f4 [36]
000000 a8 7d 02 bf cc bd 13 c0 a8 0a ca bf 39 db 33 3d
       -0.50972986 -2.3084593 -1.5784502 0.04391024
000010 e2 71 03 c0 09 3e d6 3f a3 5a 33 c0 ac 81 ad bf
       -2.0538259 1.6737682 -2.802407 -1.3555198
000020 93 a6 90 bf b0 96 e0 bf 07 cb 9b 3f 4a 81 68 3f
       -1.1300834 -1.7545986 1.2171334 0.9082228
000030 51 9f 09 c0 11 49 5e 40 11 7c cb 3f 03 13 78 bf
       -2.150349 3.4732096 1.5897237 -0.9690401
000040 c3 6d d8 bf ec 94 04 c0 d4 3c b2 bf 00 2e a9 3f
       -1.6908497 -2.0715895 -1.3924813 1.3217163
000050 d0 71 ac 3e d9 9e bd bf 49 1b 24 40 ef a0 82 bf
       0.33680582 -1.4814101 2.5641654 -1.0205363
000060 6d 74 bd 3f ed a8 2f 40 1b d9 fe bf 7c 38 9c bf
       1.4801155 2.7446854 -1.9910005 -1.2204738
000070 52 e7 82 bf 09 61 d2 bf 2e 96 80 be a9 92 f8 3f
       -1.0226843 -1.6435863 -0.25114578 1.9419757
000080 98 9f ec bf b8 4d c2 bf 4b d1 df bf 10 02 2d c0
       -1.8486204 -1.5179968 -1.7485746 -2.703251

encoder.1.running_var f4 [36]
000000 18 f5 72 3c ae 06 05 3d 7d 0e 9c 3c 8e 9b 9b 3c
       0.014828943 0.032477073 0.019049877 0.018995073
000010 c4 d9 27 3d e8 a7 11 3d 92 c6 08 3d 75 38 b6 3c
       0.04097916 0.03556052 0.033392496 0.022243718
000020 d5 79 99 3c c1 8a 05 3d 17 9d fc 3c 25 62 f9 3c
       0.018734852 0.03260303 0.030836625 0.030442307
000030 dd fc e3 3c 6f e9 c5 3c c4 be 69 3d ad c2 aa 3c
       0.027830536 0.024159161 0.057066694 0.020844782
000040 0e 0c c5 3c 23 0d 01 3d fd 2b a2 3c af 06 b6 3c
       0.0240536 0.03150667 0.019796366 0.022219984
000050 84 6e 04 3d 32 f3 c0 3c 57 19 46 3d 82 42 03 3d
       0.03233196 0.023553465 0.04836401 0.03204585
000060 b6 1c eb 3c 6b af ef 3c ba 6e 04 3d ca 76 e0 3c
       0.028700214 0.02925845 0.03233216 0.027400393
000070 4f 81 a7 3c 73 fa 99 3c 19 e5 b2 3c 44 07 14 3d
       0.020447401 0.018796181 0.021837758 0.03613974
000080 80 d2 ba 3c 67 61 cf 3c 2a b6 06 3d 46 3c d7 3c
       0.022805452 0.025315 0.03288857 0.026273858

decoder.0.weight f4 [36, 36, 3]
000000 f3 ac 9b bc 8d 8b 89 3d 68 71 09 be 23 ba 50 bd
       -0.019003367 0.0671607 -0.13422167 -0.050958764
000010 66 cc cb 3d 62 73 82 3d 88 4b b4 3b a1 8d 0f bd
       0.09951095 0.06369664 0.005502168 -0.035047177
000020 3c 7f 50 3d b3 7d 8c 3c d7 0c 1f 3d 05 f3 28 bd
       0.05090259 0.017149782 0.038830604 -0.041247386
000030 81 88 94 bd cb 01 7d 3d 2e 67 54 bd a5 6f 56 bd
       -0.072525986 0.061769288 -0.051856212 -0.052352566
000040 77 ff 99 bd 1b 91 90 3d fd 68 c6 3c 89 ce a1 3d
       -0.07519429 0.07058927 0.024219984 0.079007216
000050 0a dd c5 bd 76 9c 11 bd 71 b7 3e bb 21 3d ca bd
       -0.096613005 -0.035549603 -0.0029101039 -0.09874941
000060 a3 ce 6e 3d 13 2d 03 3d a4 fa 01 3e 24 87 42 bd
       0.058302533 0.032025408 0.12693268 -0.04749216
000070 27 82 3a bd a0 c2 47 3d ec 72 76 3d d1 a9 32 bd
       -0.04553428 0.048769593 0.06016819 -0.04361898
000080 df 09 11 be e2 8b 85 3d 21 7f 99 3d 2f 78 66 bd
       -0.14163922 0.06520821 0.07494951 -0.05626696
000090 c5 63 4d bd 0f 4a fc 3b 0c 62 92 bc 58 0b 76 3d
       -0.050143976 0.007699258 -0.017869018 0.060069412
0000a0 bd 24 2d bd db 54 c7 bd d1 2e 0b bd 14 93 88 3c
       -0.042271364 -0.09732982 -0.033980194 0.016671695
0000b0 67 25 a8 3d 62 93 80 bb 67 4b 28 bc 5c a0 d1 3c
       0.08210259 -0.0039238194 -0.010271884 0.02558916
0000c0 90 d9 07 3c ca c7 8b 3d cc 53 db 3b bb 19 ba 3c
       0.008291617 0.06825216 0.006693339 0.022717347
0000d0 06 d4 42 bd 14 34 4c bc 6d 09 76 3d be 18 84 bc
       -0.047565483 -0.012463588 0.060067583 -0.01612508
0000e0 a5 06 51 bc 02 1d 37 3d 11 76 0e 3d b6 2a 90 3d
       -0.012757932 0.0447054 0.034780566 0.070393965
0000f0 42 80 ae bd 14 be b8 bd f6 b2 89 3c 99 2e cf 3d
       -0.08520557 -0.090206295 0.016808968 0.1011631
000100 d4 82 30 bc d0 45 f7 bb 50 34 36 bd c6 2f 95 bd
       -0.010773379 -0.007546164 -0.044483483 -0.07284503
000110 e3 d5 a0 bc 3a 32 2e bd 70 91 32 bd 62 d7 99 3d
       -0.01963324 -0.04252837 -0.04359573 0.07511784
000120 8e a4 28 bd 38 b5 9e bc cf a5 58 3c 8d 44 6e bd
       -0.041172557 -0.019373521 0.013223126 -0.058170844
000130 2b a5 4c bd 73 95 2c bd c3 11 07 3d 15 97 81 bd
       -0.049962204 -0.042134713 0.032975923 -0.06327645
000140 ab 2b 04 be e1 31 69 bd 46 57 0e be a7 6e 7c bc
       -0.12907283 -0.056932334 -0.1390048 -0.015407241
000150 0a 86 d8 bc 12 47 aa bd 44 24 1e 3d 41 20 e5 bc
       -0.026431102 -0.08314337 0.038608804 -0.027969481
000160 6d bb 80 bd 9d 3d 25 3d 96 22 20 bd f0 98 e4 bd
       -0.06285749 0.040341962 -0.039095484 -0.11161983
000170 cd 2b ac 3d 9b 41 44 bd b8 10 ae bd 12 13 53 3d
       0.08406792 -0.04791413 -0.084992826 0.05153186
000180 a0 e9 8b bd ae 98 00 bd 23 2d b3 3d e2 c6 90 bc
       -0.0683167 -0.031395607 0.087488435 -0.01767296
000190 d5 7e bd bd ba 9a 9e 3c c1 03 6b bc 9e d2 6c bc
       -0.09252707 0.019360889 -0.014344157 -0.014454512
0001a0 b1 20 70 bd 30 9c 33 3d e1 43 a1 bd db c0 82 3d
       -0.058624927 0.043850124 -0.07874275 0.063844405
0001b0 60 36 16 bc 1e f3 5d bd 4c 9c 83 bd ff c4 ba bd
       -0.009168237 -0.054186933 -0.06426296 -0.09119605
0001c0 8d f4 29 bd 55 62 82 bd 2a 64 71 3d 37 f6 3e bd
       -0.041492987 -0.063664116 0.058933415 -0.046621528
0001d0 8f 00 be bd 0a b1 99 3c 90 b2 f7 bd 12 48 b7 bd
       -0.0927745 0.018761177 -0.12094605 -0.08949293
0001e0 a8 31 9b 3d aa a3 72 bd 5d 54 78 3d f0 8d 6a bd
       0.075778306 -0.059238113 0.06062733 -0.05726427
0001f0 5e 0a aa bd f4 af 81 3c 79 86 ce 3c f9 e5 93 bd
       -0.08302759 0.015830971 0.025210606 -0.07221598
000200 0d 9e aa 3c 5b e6 46 3d 99 4f 4a be 69 5a 9c 3b
       0.020827318 0.048559528 -0.19756927 0.00477152
000210 8c a5 a6 3d 7c 94 aa bc 36 d0 cb bd 65 90 4d 3d
       0.08137044 -0.020822756 -0.099518225 0.050186533
000220 6c bb 76 bd 1e 9d 58 bd 96 4b 20 be 30 d2 a8 bd
       -0.060237333 -0.052884214 -0.15653834 -0.08243215
000230 5d 7e 14 3c c1 1a c4 3d f8 05 6f bd 8c 98 14 bd
       0.0090633305 0.095754154 -0.0583553 -0.036278293
000240 6c c5 b3 3d f5 75 82 3d 59 58 66 bc 74 d2 3c 3d
       0.087778896 0.06370155 -0.01405915 0.04609914
000250 4c 1d f6 3d 6b 7d 0c 3d 62 6c 32 3c 48 99 e4 3c
       0.12017307 0.034299295 0.010890098 0.027905121
000260 71 83 85 3d e6 e7 0c bd 6d 91 16 bd 56 4b 53 bd
       0.06519211 -0.034400843 -0.036759783 -0.051585518
000270 f7 83 48 bc 52 de ef bc 0c 21 95 bd 24 06 9e 3d
       -0.012238494 -0.029280815 -0.07281694 0.07716015
000280 fe 82 58 3d 83 d1 88 bd 11 80 c9 ba 97 70 9d bb
       0.0528593 -0.06680586 -0.001537325 -0.0048046815
000290 8e 33 71 3d 2f cc c1 3d c2 a5 ae bc 26 6f ba 3c
       0.058887057 0.09462773 -0.021319274 0.022758078
0002a0 c4 be eb 3d 30 0a c6 bd 9e 25 fd 3c 5a 17 21 be
       0.11510995 -0.09669912 0.030901726 -0.15731564
0002b0 ff 94 54 bd 8d f6 51 3e 1e ff 95 3c a9 ce 23 bd
       -0.051899906 0.20504208 0.018310126 -0.03999201
0002c0 17 54 b4 3b b6 f4 99 3d 85 eb b0 bd f4 2a af bd
       0.0055031884 0.07517378 -0.08638672 -0.085531145
0002d0 71 39 e0 bc fc 31 b8 3c 4f 21 75 bd 31 5a 66 3d
       -0.02737114 0.022484772 -0.05984622 0.056238357
0002e0 19 2c 63 bd 9b 0d 93 bd 76 7a 06 3e 4d 1f 77 bd
       -0.055461977 -0.071803294 0.13132653 -0.060332585
0002f0 4f 38 cd bd a0 c5 47 bd fa 95 0d 3d da 70 9b bd
       -0.10020506 -0.048772454 0.034566857 -0.07589884
000300 b2 ef d0 3c e0 5c 05 bd 01 af 85 3d 71 89 90 bb
       0.02550492 -0.032559276 0.0652752 -0.0044109155
000310 06 5c 84 3d 5e cf f7 3a ac 33 8e bd 84 4a 57 3d
       0.064628646 0.0018906405 -0.069434494 0.052561298
000320 fe 9f 9d bc 6f bd b6 bc 14 a4 dd 3c cd 84 d9 3d
       -0.01924133 -0.022307126 0.027055778 0.10621033
000330 c6 96 f8 3b 57 3a a0 bc c3 94 be bc 8f e9 79 3c
       0.007586333 -0.019559069 -0.023264294 0.015253439
000340 8e 27 fc 3c b5 0f 2e bd 4c 47 28 be 72 52 60 3c
       0.03078058 -0.04249545 -0.16433448 0.0136915315
000350 f8 c3 9e 3d f1 3f 3f 3d eb bf a3 3e d2 99 5b 3e
       0.07752222 0.04669184 0.3198236 0.21445397
000360 af 48 ac 3d 10 e2 b1 be 97 e5 b7 bd ed c7 76 bd
       0.08412301 -0.34742785 -0.08979338 -0.060249258
000370 42 45 fe bd 2c 8e 94 3d 78 64 36 3d 29 14 89 3d
       -0.12415554 0.0725368 0.04452941 0.06693298
000380 8d 70 2c 3e b1 2f a5 3c 73 7e 06 bd 2a b9 0d 3e
       0.1683981 0.020164343 -0.032835435 0.13840166
000390 5b 1f af 3d 19 2d 45 3c a6 68 98 bb 47 4b 91 3d
       0.085509025 0.012034678 -0.004651147 0.07094436
0003a0 d9 b0 f4 3b 8a a9 19 bd 2e dd ca 3a ff 3a 12 3d
       0.007467371 -0.0375152 0.0015477294 0.035700794
0003b0 af 07 e2 3a 6d 1e 30 3d 40 fb fa 3c 05 82 11 bc
       0.0017244722 0.042997766 0.030637383 -0.008881097
0003c0 5c 81 9d 3c e3 02 8c 3d e7 34 0d 3e 1e 35 1a bd
       0.019226722 0.06836488 0.13789712 -0.037648313
0003d0 c3 ae 14 bb a0 e1 a3 3d c3 15 2d be 9e 0e 1b 3d
       -0.0022687174 0.08002019 -0.16902833 0.037855737
0003e0 d2 f4 f6 bd ea 78 92 3d 3a 21 aa bb 49 7a 13 3d
       -0.120584145 0.07151969 -0.005191949 0.036005292
0003f0 84 f1 a6 38 3b 88 ce bd 87 d6 84 bc c0 5d 93 3d
       7.9604826e-05 -0.10084578 -0.016215576 0.07195616

decoder.0.bias f4 [36]
000000 14 9d 30 bd 48 0e 62 bd 9d 92 44 bd 2d 79 c2 bc
       -0.04311855 -0.0551894 -0.047991384 -0.023739422
000010 c0 b8 f7 bd b1 8f 6c be d8 e7 3e bd 29 e1 e1 bd
       -0.12095785 -0.23101689 -0.046607822 -0.11029274
000020 17 89 b5 bd 0d f5 1b be bf d9 5a be 16 83 e6 bc
       -0.088640384 -0.15230198 -0.21372126 -0.028138679
000030 20 94 6a be ae f6 f1 bd df 34 57 3e 89 7c 39 3c
       -0.22908068 -0.118146285 0.21016262 0.011321195
000040 b4 35 25 3d c2 a7 90 3d f8 e7 12 bd 34 c2 35 bd
       0.04033442 0.07063247 -0.035865754 -0.04437466
000050 f3 8f c3 bc 73 fe 4b 3d 9c 3b 47 be 8f 75 cd bd
       -0.023872351 0.04980321 -0.19456333 -0.10032188
000060 ac d4 52 be f2 52 17 be e6 e1 0b be fc b2 53 be
       -0.2058894 -0.14777735 -0.13660392 -0.20673746
000070 f7 3f 1b be cb 75 a0 3d c2 0b f8 bd 29 b5 65 be
       -0.1516112 0.07834967 -0.121116176 -0.22432388
000080 4e 4c 9e 3d aa 89 23 be f8 8a 02 bc a5 cb 5c bc
       0.07729398 -0.15970483 -0.007967703 -0.013476287

decoder.1.weight f4 [36]
000000 b2 23 a1 3e 1a 25 cf 3e 4a f6 c6 3e 24 7e d0 3e
       0.31472546 0.40457994 0.3885978 0.40721238
000010 20 bc a3 3e 47 97 b0 3e 7e 79 b4 3e 4b 12 bc 3e
       0.31979465 0.34490415 0.3524894 0.36732706
000020 1e 99 dd 3e dd 54 f2 3e 65 99 e3 3e d9 bb b5 3e
       0.43280882 0.4733037 0.44452968 0.3549488
000030 56 64 e4 3e a3 e5 b8 3e b4 da 2a 3f 3d de 5f 3f
       0.446078 0.361127 0.66739964 0.87448484
000040 ea 9c b7 3e 20 9d a7 3e 53 7c 00 3f fc 89 e3 3e
       0.35861903 0.32737064 0.50189704 0.4444121
000050 e4 ed f4 3e 41 37 c6 3e 5d d6 92 3e c6 c3 c4 3e
       0.47837746 0.3871403 0.2867917 0.38430613
000060 8b ac c3 3e f9 00 e6 3e ed 92 de 3e 9f 67 c2 3e
       0.38217577 0.44922617 0.4347147 0.37969682
000070 bd 78 98 3e 05 00 b5 3e 7b 47 b2 3e a3 a6 c6 3e
       0.29779616 0.35351577 0.3482016 0.3879901
000080 1a 2e aa 3e 45 d3 a2 3e 52 51 d9 3e 36 59 81 3e
       0.33238298 0.3180181 0.42444855 0.25263375

decoder.1.bias f4 [36]
000000 70 2f 0b be 67 a3 19 be da e4 25 be 8c 83 f2 bd
       -0.13592315 -0.1500374 -0.16200581 -0.11841497
000010 76 12 2b be d6 27 93 be 8c 73 26 be 7f f1 57 be
       -0.16706261 -0.2874133 -0.16255015 -0.21088217
000020 7f 22 81 be 1d c8 a2 be f4 c2 6d be 65 cd 4b be
       -0.2522163 -0.317933 -0.232189 -0.1990257
000030 57 dc 98 be 49 62 50 be bf c4 84 3e 66 70 48 3e
       -0.29855606 -0.20349993 0.25931355 0.19574127
000040 82 c0 44 3e 67 74 c6 bd 88 91 17 be 54 ed 14 be
       0.19214061 -0.09690171 -0.1480161 -0.14543658
000050 fa 3e e2 bd da f3 10 be 95 0a 87 be 6f 79 90 be
       -0.11047168 -0.14155522 -0.2637526 -0.28217646
000060 29 77 89 be d5 b8 75 be 53 42 12 be 14 6f 9a be
       -0.26848724 -0.23996289 -0.14283113 -0.3016287
000070 f6 2b 80 be a1 32 fa bd 1f bd 17 be e6 a4 68 be
       -0.2503354 -0.12216688 -0.14818238 -0.22719154
000080 54 e1 91 bd 22 c9 3d be 52 86 2c be 53 a8 33 be
       -0.07123056 -0.18533757 -0.16848114 -0.1754468

decoder.1.running_mean f4 [36]
000000 57 41 bc bd cd 69 d1 bd b7 6c ab bd db be c1 bd
       -0.0919215 -0.10225258 -0.08370345 -0.09460231
000010 49 36 0c be 5a e8 08 be 1f 88 a6 bd df a1 ad bd
       -0.13692583 -0.13369885 -0.08131432 -0.0847814
000020 2d 68 21 bc 77 81 8a bc 06 2f 39 be 35 a5 72 bc
       -0.009851498 -0.016907437 -0.18084344 -0.014809896
000030 30 8a ee bd da 0f da bd ff 0f 91 3d 2b ad 7e bd
       -0.11647451 -0.10647555 0.07083129 -0.062176865
000040 5a 23 87 bd 3c 2a 04 3b 5d b3 95 bd d3 f2 a8 bd
       -0.0659854 0.0020166775 -0.073096015 -0.0824944
000050 50 37 e5 bd af 4c 16 3c b9 47 ff bd c5 43 f5 b8
       -0.11192191 0.009173556 -0.12464852 -0.000116951334
000060 4d 46 08 be 9e 06 b8 bd 57 56 3d be d5 0a e2 bd
       -0.13308068 -0.08985637 -0.18489967 -0.11037222
000070 a8 2c 41 bd 23 8b bd 3c bf 04 1b be 6e 48 47 be
       -0.04716173 0.023137635 -0.15138529 -0.19461223
000080 0e 1b 16 bd 8a cf 22 be 59 c5 00 bd ae d0 7d bc
       -0.036646895 -0.15899482 -0.031438205 -0.015491648

decoder.1.running_var f4 [36]
000000 65 68 8f 3e fe 0c 6f 3e bb 9e 85 3e 1a 4b 33 3e
       0.28009334 0.233448 0.26097664 0.17509118
000010 a7 3c 96 3e ce e1 7b 3e 77 5c 82 3e 7f bf b8 3e
       0.2934315 0.24597856 0.2546117 0.360836
000020 5d 1f 69 3e 69 9e 91 3e ca ff 44 3e 02 8c 87 3e
       0.2276587 0.2844117 0.19238201 0.26474005
000030 3a b2 8d 3e eb 79 9c 3e 00 4f 56 3e b3 d3 0d 3e
       0.2767504 0.30561766 0.20928574 0.13850288
000040 32 2b 82 3e f1 19 46 3e ba 96 3b 3e a6 86 7a 3e
       0.2542358 0.19345833 0.18319216 0.24465427
000050 f9 67 bf 3e 2a 35 88 3e 6f 12 4f 3e 46 b3 a1 3e
       0.37384012 0.2660306 0.20221876 0.31582087
000060 64 4d 95 3e 60 a7 a0 3e bf 76 8b 3e ab c1 89 3e
       0.29160607 0.31377697 0.27239034 0.2690557
000070 69 19 7a 3e 25 27 6d 3e c4 e8 a2 3e c1 54 7e 3e
       0.24423756 0.23159464 0.3181821 0.24837019
000080 6f 3f c6 3e 3d 63 68 3e 6f 91 2c 3e 75 fc 0a 3e
       0.3872027 0.22694106 0.16852354 0.13572867
