trained_models/CA5B:E21B:71ED:3A1C.pt (torch, 254297 bytes, 52 tensors)

encoder.encoder.0.0.weight f4 [36, 36, 7]
00000000: 35b2 91bc ba79 09bd 97b4 53bd 0ef2 113c
00000010: ac6b 87bd f609 3fbd a58e 4dbd 4c0d 52bc
00000020: 05a4 2f3c 36bf afbc 7d72 813c 0edc 2cbd
00000030: a156 413b 51f6 62bc e8c5 5fbc 29b0 aebb
00000040: ee07 93bc edc1 cebc 9c7c f1bc a251 a6bd
00000050: f832 2bbd a1f0 273d 678b 543d e236 66bc
00000060: 8210 f63c b3a1 2abd 639f 85bc d5fe f9bc
00000070: 3ecd 17bb 7026 d53c 161d d1bc fd37 35bc
00000080: 8ee0 76bd 411f 2ebd 6c6d c3bc 0230 1a3d
00000090: 5440 1c3d 4fe9 143c 5958 26bb 4122 5abc
000000a0: 0feb 953a 50fc e73b 6a59 22bc 3637 283d
000000b0: d173 b8bb 1129 efba 8c66 58bd f4f6 dabc
000000c0: c5a4 8bbc 4067 633c e340 3b3d bf80 60bc
000000d0: 128d 233b a7b0 5bbd b936 68bb 9bb0 ccbc
000000e0: 81f4 11bc 4fbf cc3c 0844 5fbd 9ee4 923b
000000f0: cb22 81bd 0e48 39bd 255e 14bd 4661 483c
00000100: f3af 333d 0171 2e3c 52df 663c 07b3 61bd
00000110: df0e 11bc 5b33 abbb 633e 65bb fefe 173c
00000120: 61f8 70bc 3216 4cbd 5846 d2bc 3085 f1bc
00000130: 8e2c 2ebd e5b9 4c3b 7a84 cf3c 9e59 73bd
00000140: 74ae 5ebd 0b55 c1bd f947 3abd c2f5 82bd
00000150: 7738 cf3c 11aa 7c3d 2a4f cbbc a46d d3bc
00000160: 75c9 31bd 6ef3 08bd acef 19bc 55f3 0b3d
00000170: 86dd b53c 5677 c9bd f984 cebd 1dd5 85bd
00000180: 3886 2abd a871 12bd 75c4 4a3d 6a37 413d
00000190: 7f34 90bd 89bd fabd 9ee8 8bbd 30fd 2abd
000001a0: 2287 bdbc 6725 16bb e06b 92bc 6e2a 46bb
000001b0: 6d8b 5cbc 6bb3 2abc a76d e63c 841b 723d
000001c0: 0dc2 69bd e13a 64bd e163 543d 1090 f63d
000001d0: 1217 9b3c 0b39 d3bb cf18 02bc 240b 77bd
000001e0: d69f 79bd 1828 2c3d 3b14 da3d f32d bcbc
000001f0: b75f 18bb 1150 c53c 8132 94bd ba50 87bd
00000200: 1ba6 a43c d505 a23d 3c39 34bd 0f9f 11bd
00000210: af72 0f3c 767a 49bc 3618 41bd 21b4 193d
00000220: c996 d93d 2790 953c e5b0 a9ba 6a1c c23c
00000230: 060c d4bb 5c57 73bd e008 ae3b 860d 5c3d
00000240: 5b94 203d cb21 593c b32f 1f3d d180 01bb
00000250: 7c66 1bbd d7ad 843c cc93 d43c 7877 ad3c
00000260: fef8 48bb 490e 1b3d 3153 72bc 5424 32bd
00000270: f076 513c 6f08 263d cac3 323d 0ff1 1dbd
00000280: e0a7 3a3c 1b43 b3bb 6030 f2bc 191d 6f3d
00000290: 659b c13c fc1a 653d d76f d0bc 179b d63c
000002a0: eaf4 11bc 44a5 18bd 6831 313d 192f fc3c
000002b0: 43cb ad3c 8ac2 82bc 19b9 aa3c a6bc 85bc
000002c0: e161 0fbc 79bc 363d f7ec 2d3d 997c 903d
000002d0: d491 44bc 5cfc a43c b8bb c9bc 428b 98bc
000002e0: 7c99 2ebb 3dc4 eb3b 8888 033d d742 ae3b
000002f0: ca6b 703c 3161 253d b060 0dbd 5403 563d
00000300: 58ed ef3c 2b1a 153d e443 813c 694b 1c3d
00000310: 3d7e 263c bf62 43bd 11f7 903c 4f20 f7bb
00000320: f1a4 593d 6833 33bc a363 393d 0900 cf3c
00000330: 7451 6ebc 9f8c b93d ada9 8e3d ed3f 543d
00000340: 8c11 38bc 986f 0d3d 3512 8e3c 5b44 01bb
00000350: bf10 6e3d 2a03 723d bc5d e53c 4817 03bd
00000360: db2c 553d fa15 27bd ff88 0fbd 9e34 023d
00000370: 082f e83b 0b4c 763b e955 2cbd 6b51 283c
00000380: 4f0a 443c 3351 61bc b018 933d b50a 453d
00000390: 6e3d 813d 9882 0a3a 59eb 653d ab1a bdbc
000003a0: 4c78 fdbd 8122 0bbe 742d e4bd 8c2b 2b3d
000003b0: cb7d 79bd 0e1b b9bd 41e4 f7bd 1c25 5fbe
000003c0: 6436 5dbe d6eb 4cbe b9c9 dbbc 111d 0dbe
000003d0: d7d0 efbd e3e3 d93d 7587 683e b1d6 773e
000003e0: 988d ed3e 73aa 423e 6d7f 7b3d 5211 6e3e
000003f0: 2cf7 5dbd ac07 83bd 8eb3 8dbd b852 c2bd
-0.017785171 -0.033563353 -0.051685896 0.008907808 -0.06612334 -0.04664036 -0.050184865 -0.012820553
0.010720258 -0.021453481 0.015801663 -0.042202048 0.0029501098 -0.013852672 -0.013658024 -0.0053310585
-0.017948117 -0.025238955 -0.029478364 -0.08121039 -0.041796654 0.041000966 0.051890757 -0.014051171
0.030037168 -0.041658115 -0.016311353 -0.030517021 -0.0023163105 0.026019305 -0.025526565 -0.011060712
-0.060272746 -0.042510275 -0.023855887 0.03764344 0.038147286 0.009088828 -0.002538225 -0.013313831
0.0011437851 0.0070796385 -0.009909013 0.04106828 -0.0056290408 -0.0018246492 -0.05283217 -0.026729085
-0.017046342 0.013879597 0.045716178 -0.01370257 0.002495591 -0.053635266 -0.0035433008 -0.024986556
-0.008908392 0.024993567 -0.05450824 0.0044828197 -0.06305464 -0.045234732 -0.036222596 0.012230223
0.04386897 0.010647059 0.01409133 -0.055102374 -0.008853643 -0.005224628 -0.0034979812 0.0092771035
-0.014707656 -0.049825855 -0.025668308 -0.029482454 -0.04252296 0.0031238731 0.025331724 -0.059411637
-0.05436559 -0.09440049 -0.045478795 -0.06394531 0.02529548 0.061685625 -0.024818022 -0.025809117
-0.043405015 -0.033435278 -0.009395521 0.034167606 0.022200357 -0.09837215 -0.10083956 -0.06534789
-0.041631907 -0.035752922 0.049503762 0.047171988 -0.07041263 -0.12243182 -0.068314776 -0.041745365
-0.023135725 -0.0022910477 -0.017873704 -0.0030237692 -0.013460976 -0.010418753 0.028128458 0.059108272
-0.057069827 -0.055720214 0.051853064 0.120391965 0.0189319 -0.006446009 -0.007940485 -0.06031336
-0.060943447 0.042030424 0.1064839 -0.022971129 -0.002325041 0.02408603 -0.07236195 -0.06607194
0.020098737 0.079112686 -0.043999895 -0.03555208 0.00875537 -0.012297263 -0.04714223 0.0375253
0.10624463 0.018257214 -0.0012946395 0.02369519 -0.00647116 -0.059409484 0.0053111166 0.053723834
0.039203983 0.013252686 0.03886385 -0.0019760618 -0.037939534 0.016196175 0.025949381 0.021175131
-0.003066599 0.03785542 -0.014790342 -0.043491676 0.012784705 0.040535387 0.04364375 -0.03855997
0.011392564 -0.005470646 -0.029564083 0.05837736 0.023633668 0.055933937 -0.025443954 0.026197
-0.00890849 -0.037266985 0.043260008 0.030784177 0.021215087 -0.015961904 0.020840215 -0.016325306
-0.0087513635 0.044613335 0.042462315 0.07055015 -0.011997659 0.020139866 -0.024625644 -0.01862109
-0.0026641777 0.0071950243 0.03211263 0.0053180265 0.014674136 0.040375892 -0.034516037 0.052249268
0.029287979 0.03640191 0.015779443 0.038157854 0.0101619335 -0.047701593 0.017695935 -0.0075416933
0.053135816 -0.010937549 0.045261037 0.025268571 -0.014545787 0.090600245 0.06965957 0.051818777
-0.011234652 0.034530252 0.017342666 -0.001972458 0.05812144 0.05908505 0.027998798 -0.032004625
0.05204473 -0.040792443 -0.03504276 0.03178846 0.0070856847 0.0037581946 -0.042074118 0.010273318
0.011965348 -0.01375227 0.07182443 0.048105914 0.06310545 0.0005283742 0.05613265 -0.023084005
-0.123764604 -0.13587381 -0.11141482 0.041789576 -0.06091098 -0.090383634 -0.12104083 -0.217915
-0.2160278 -0.2001184 -0.026829587 -0.13780619 -0.11709755 0.10639169 0.22707923 0.24202992
0.4639709 0.19010334 0.06140082 0.23248795 -0.0541908 -0.06397948 -0.06919013 -0.094884336

encoder.encoder.0.0.bias f4 [36]
00000000: 72ac 3ebc 6528 723d 959c 8abb a077 32bd
00000010: b448 963d b513 943d 8f78 ad3c f7a4 1a3c
00000020: ebe3 163d 8b92 1ebc db91 513d 114f 043d
00000030: 2ba7 2f3d 2130 c9bd 51c2 dcbc 4c3f 313d
00000040: 654f bc3d daae 2a3d 03fb 65bd a3b4 e73c
00000050: d7e8 8cbd cb1a 19bd 166e d1ba bd70 be3c
00000060: f571 87bd 64f7 473d 2047 853b 997c 07bd
00000070: 2679 3fbd a9b8 72bc 3726 78bd 98d8 3d3d
00000080: 2c22 c1bc 68fd 203d fe8f 6d3c c30d af3c
-0.011637794 0.059120554 -0.004230092 -0.043571115 0.07338086 0.07230321 0.02117565 0.009438745
0.036838453 -0.009678493 0.05116449 0.032301966 0.042884033 -0.09823633 -0.026948126 0.043273255
0.09194831 0.041670658 -0.056147587 0.028284376 -0.06880348 -0.037379067 -0.0015978243 0.023247117
-0.066135325 0.048819914 0.0040673167 -0.03307781 -0.046746396 -0.014814534 -0.06058332 0.046349138
-0.023575865 0.039304167 0.014499662 0.021368867

encoder.encoder.0.1.weight f4 [36]
00000000: ae6d 223f f809 433f 7138 463f e034 383f
00000010: e360 533f 45fc 563f 8fb6 e23e 2815 5b3f
00000020: 44be 333f 08d5 7c3f a60b 623f d8e4 333f
00000030: e7fa 543f 8023 2e3f b2b1 413f 58b6 623f
00000040: 91fc 073f db51 0e3f e774 433f 003d 573f
00000050: 39ec 993e 5b60 cd3e bd85 443f 0f4a 003f
00000060: 8d14 7e3f eb11 4a3f 4184 4e3f 4280 df3e
00000070: 250e 663f 23b2 603f 08c5 823f 7ceb 203f
00000080: 7dd6 383f c6b9 5d3f 1d88 6b3f 2e7e a13f
0.6344861 0.76187086 0.7742987 0.7195568 0.8256971 0.8397868 0.44279906 0.85579157
0.702122 0.9876256 0.88299024 0.7027106 0.83195347 0.6802292 0.75661767 0.88559484
0.5311976 0.5559365 0.76350254 0.84077454 0.30063036 0.40112576 0.7676657 0.50113004
0.9925011 0.7893359 0.80670553 0.4365254 0.8986533 0.87771815 1.0216379 0.6285932
0.72202283 0.8661159 0.9200457 1.2616632

encoder.encoder.0.1.bias f4 [36]
00000000: e473 013d 9cd7 1a3d 4dfb 8cbc 345e 55bd
00000010: 3339 46bb 6862 653c 5b4c 3fbd 5f77 653b
00000020: 66fe ca3a 28d6 cdbc 9a13 443d b5f1 bcbc
00000030: 9a55 6e3d cf28 8ebd 946d 4cbc de3a 163d
00000040: 7ca9 9dbc 1c19 c3bd 9bec a5bc 49f7 fabc
00000050: 5196 91bd 5c6e 78bd 9d88 ed3c 8deb 253d
00000060: 8f74 e9bc 43f3 d83c eef9 8b3c 70a2 95bd
00000070: 7463 3cbd 5c67 f93c bf69 63bd ae8e 643c
00000080: 674f 10bb 14a7 533c 2572 94bc 8a62 81bc
0.031604663 0.037803277 -0.017209673 -0.052091792 -0.0030246496 0.014000513 -0.046703678 0.0035013778
0.0015487194 -0.025126532 0.047870256 -0.023064474 0.058187105 -0.06941377 -0.012477297 0.036677234
-0.019245856 -0.095262736 -0.020254424 -0.030635493 -0.07108749 -0.060652122 0.028995806 0.04050784
-0.028497962 0.026483184 0.01708695 -0.07306373 -0.045993283 0.030444793 -0.05552077 0.013950033
-0.0022019984 0.0129182525 -0.018120835 -0.015794057

encoder.encoder.0.1.running_mean f4 [36]
00000000: e9c4 cebd f61f 38bf 6058 e1be 5c58 7c3e
00000010: 33a4 e8be f2ac 8c3e 59fb 8f3e a0e4 893e
00000020: d5ec 7fbf 283a 453f f4f8 fabe 34aa 013f
00000030: b3fc 6fbf 228f 213f 83a8 873f 1ecf 56bf
00000040: 50d4 9c3f e254 9d3e 86fe 2b3f 159b 203d
00000050: 8c06 3c3e ae18 afbd d013 3cbf ae01 ae3e
00000060: c220 293f a9b0 d3bd 4610 43be 8ab5 ea3e
00000070: 660b 313e 82cd 21bf ca11 173e 6c97 8f3b
00000080: 6127 173f 9cc5 0ebf 2f87 a13e 4b13 0a3f
-0.100961514 -0.7192377 -0.44012737 0.24643081 -0.45437774 0.27475697 0.2812145 0.2693224
-0.9997075 0.77041864 -0.4901806 0.50650334 -0.93744963 0.6310903 1.0598301 -0.83909786
1.2252293 0.30728823 0.67185247 0.039210398 0.18361872 -0.08549629 -0.7346773 0.33985656
0.6606561 -0.103364296 -0.19049177 0.45841628 0.17289504 -0.63204205 0.1475288 0.0043820646
0.5904446 -0.5577028 0.3154845 0.5393569

encoder.encoder.0.1.running_var f4 [36]
00000000: 5638 0c3b 4489 543b 6fe6 093b 2cfe 023b
00000010: d609 753b 8dd6 543b 88df 8b3a f1c3 883b
00000020: ade4 aa3b 1971 763b 110d 1c3b a7c3 4e3b
00000030: a9df 593b 3103 853b e439 df3b fe88 8a3b
00000040: 377b c93b f77f 5c3a ee49 633b da10 7a3b
00000050: cd99 6a3a e22a 673b d3d8 303b 59b5 043b
00000060: 117c df3b 5506 b63a 6051 953b 9741 283a
00000070: 7f25 353a 15d7 db3a f860 733a c984 a13a
00000080: d41b a23b e857 8c3b bae3 153b aace 9b3b
0.0021395884 0.003243045 0.002104189 0.0019987924 0.0037389896 0.0032476515 0.0010671476 0.0041737487
0.0052152486 0.0037604033 0.00238115 0.0031549723 0.0033244884 0.0040592183 0.006812321 0.0042277565
0.0061487216 0.0008411402 0.0034681517 0.0038157017 0.00089493097 0.0035273363 0.0026984706 0.0020249693
0.00682021 0.0013887385 0.00455682 0.0006418465 0.00069101894 0.0016772473 0.0009284164 0.0012322898
0.004947165 0.00428294 0.0022871331 0.004754861

encoder.encoder.1.backbone.0.0.weight f4 [36, 36, 3]
00000000: a842 af3c 4848 d9bc 9c85 ca3c 35b3 cabb
00000010: 1db8 62bd ce7c 84bd cac0 a9bd b8ee babc
00000020: 23fa 51bd 78ba 213c e77d 31bd 462c a2bd
00000030: 5121 b83c 8771 14bc da28 853d 0afe d4bc
00000040: d10b 903d 797f 8bba 8693 e8bc de32 0ebe
00000050: d96e 1abd a0ed b13c 9e14 bfbc 922c 99bd
00000060: be8d 023d 09b3 eb3d 4402 63bd 8a5c 9fbd
00000070: f091 ff3c 26c0 d1bd 9dc3 803d 4621 8e3d
00000080: d6d3 9a3c 5329 8c3d edb1 d63c 7263 d43c
00000090: 7af7 393d 7e06 61bc f4d1 ad3d bf30 953d
000000a0: 3754 103d 0af7 a63d d689 903c b64d 90bd
000000b0: f21f 8d3c 3304 4f3c 476b 4cbd 242e afbd
000000c0: 5a67 96bd 4ae8 4a3d e857 fabc f7f5 ddbd
000000d0: dd39 453d e452 f9bd a658 383d 6904 cabd
000000e0: 95ba 29bd 683e 8aba c223 953d b35e ae3d
000000f0: 4129 5fbd 7c9a f6bd 4b20 51bd 2391 393c
00000100: 7b18 073c bb3d 65bd 0cf2 ff3d a807 ff3d
00000110: de69 9a3d 0984 bebb 7712 78bd 0ac6 e33c
00000120: 77d0 bfbd e5d1 a0bd 6ee3 723d a025 79bc
00000130: 4be1 9f3d 6770 cdbd e90b 953b d92d 143d
00000140: f430 0f3b cb40 b2bd de6a 6fbd 520c 11be
00000150: 4187 fdbc 58af ddbd e899 d03c 5afd a0bd
00000160: 35cd 8cbc 7827 3ebb aa37 efbc 728e 41bc
00000170: 5996 a5bd f66c 033d f817 3fbc 8d99 b7bc
00000180: e526 b43c bbc1 f8bc 7a62 843d 43fd 92bc
00000190: 1c3c a1bc dbec 38bd 5b4d dcbc 461c ae3c
000001a0: c78e b1bd bdde eabb 989c 88bd 278c 53bd
000001b0: d810 913d c79a cabc 3951 e7bc 5bb5 a13c
000001c0: 5d5e c03c dc81 92bc 85a7 9a3b 1a07 acbd
000001d0: 50d9 8a3c 9c64 1b3e 66d3 92bd 5fa3 2ebd
000001e0: a42e f5bd 89dc 723d 61c6 943d 51c9 523d
000001f0: 10d4 453d b783 03bd 738b 9f3d 4bd7 09bb
00000200: 2b59 5cbd 2006 643c 2934 8abd 69e1 9cbc
00000210: da0c bc3d 7e29 a73d 28a3 613d d815 6abd
00000220: 5a65 90bd 420c 573d ab5e a83d 8127 a4bd
00000230: 46a8 61bd 8103 e1bb 8bdd 9f3c c71a 6d3d
00000240: 8a8c ba3c dc45 86bc aea4 8bbc 5a60 46bc
00000250: 3717 a93d feb7 37bd 0fec 87bd 5c1c a43d
00000260: 3dcd dd3c 8862 9ebc fb84 763d 4b93 7bbc
00000270: 090c e33c 7caa 85bd b9a1 a93c bf51 b4bc
00000280: 1b66 3cbd e565 7abd adeb 25bd 094f b7bd
00000290: 6bac 8a3d 7c37 ed3d bd8d 053c c7a8 68bd
000002a0: 75d3 8dbd b570 8d3d 7968 a4bd 163a 723b
000002b0: edf1 253c ec52 093d 83e2 1f3e cd52 c23d
000002c0: c27b 5b3d 0a7a 0f3d ab21 213d c890 b13c
000002d0: fc00 80bc cb8d b9bd 6401 b0bd d90e 08bd
000002e0: 8f12 423d 0864 493c bfb5 6fbd da69 d23b
000002f0: 7670 dabb db8f f93c 68ac 1cbd fbbf 943d
00000300: d748 dc3b def5 39bb c72c 08bd 02f2 d1bc
00000310: d86f cc3d 46f3 4e3d 6229 3dbc 4ec1 4abd
00000320: 16de d53c 66b2 2bbd b590 cf3c 8528 4ebc
00000330: 417f 683d c6ab 4cbd 1177 133d 316a cf3d
00000340: b5fe d6bd 38a5 be3d 30f9 e6bc e4fe b1bc
00000350: 9a4c 263d bcd5 b9bd bf5f d0bc b297 3bbd
00000360: 6870 bc3d 7fa4 253e 8f56 d73d 1aa5 b9bd
00000370: 682b cb3d 13e3 293e f390 b93c 0469 533d
00000380: d2d6 603d 5693 c5bd 3d08 a9bd 5b83 10be
00000390: 2911 cb3d 9cbc 703d 4360 cebd d29c 2c3e
000003a0: 8ecd 263d 6107 023d 9adf 873d 6d8a c73c
000003b0: db5a b7bd 2e47 f3ba c6cc dc3d b0de c23d
000003c0: 770c b73c 18ae 023e 4bf6 04be 2ef0 5c3d
000003d0: 8984 fb3c cdd1 853d 13f6 70bd 71d2 eabb
000003e0: 1faf edbc b575 5d3d dec5 a33d b6bb 4dbd
000003f0: 6b99 3a3d f9ac 0d3d 1af3 ae3d a80a bdbc
0.021394089 -0.026523724 0.024721913 -0.006185914 -0.055351365 -0.06469117 -0.08288725 -0.022818908
-0.05126394 0.009871118 -0.04333296 -0.07918601 0.022476824 -0.00906027 0.065019324 -0.026000042
0.07033504 -0.0010642848 -0.028390657 -0.13886592 -0.03770337 0.021719754 -0.02332526 -0.07479204
0.031873457 0.115087576 -0.055422083 -0.07781322 0.031197518 -0.102417275 0.0628731 0.0693994
0.01889984 0.068438195 0.026207888 0.025926325 0.045402028 -0.013734458 0.08487311 0.07284688
0.035236564 0.08152588 0.01764385 -0.07046072 0.017227147 0.0126352785 -0.049906995 -0.085537225
-0.073439315 0.049537934 -0.030559495 -0.1083793 0.048150886 -0.12174013 0.045006417 -0.098641224
-0.041437704 -0.0010547163 0.07282211 0.08514156 -0.054482702 -0.12041184 -0.051056188 0.011326107
0.008245583 -0.055967074 0.12497339 0.12452632 0.07539724 -0.0058140797 -0.060564484 0.027804393
-0.093659334 -0.07852534 0.059298925 -0.015206724 0.07806643 -0.10031205 0.004548539 0.036176536
0.0021849247 -0.087037645 -0.058451526 -0.14164856 -0.030948283 -0.1082446 0.025464013 -0.07860823
-0.017187694 -0.0029015224 -0.029201347 -0.011813747 -0.08085317 0.032086335 -0.011663429 -0.022412086
0.021991203 -0.030365815 0.064640954 -0.01794303 -0.019681983 -0.045147758 -0.026892355 0.021253716
-0.08669811 -0.0071676658 -0.06670493 -0.05164733 0.07083291 -0.024732007 -0.028236972 0.019739797
0.023482496 -0.017884187 0.004719677 -0.08399792 0.016949326 0.15175098 -0.07169227 -0.04263627
-0.119717866 0.05929235 0.072644 0.05146152 0.04829794 -0.032108035 0.0779027 -0.0021032866
-0.053795975 0.013917476 -0.0674823 -0.019150453 0.09182139 0.08162211 0.05508724 -0.057149738
-0.07050581 0.052501924 0.082211815 -0.08015347 -0.05509212 -0.006866873 0.01951482 0.057886865
0.022772092 -0.016390733 -0.017046299 -0.012107933 0.08256381 -0.044853203 -0.066368215 0.080132216
0.027075404 -0.019334093 0.060185414 -0.015354942 0.0277157 -0.06526658 0.020706998 -0.022011636
-0.045995813 -0.06113233 -0.04050796 -0.08950622 0.06771167 0.115828484 0.008151469 -0.056801584
-0.06925098 0.06906263 -0.08027739 0.0036960891 0.01012848 0.033526346 0.15613751 0.09488449
0.05358482 0.035028495 0.03933875 0.021675482 -0.01562547 -0.09060248 -0.08594015 -0.033217285
0.04738098 0.012291916 -0.058522936 0.00642131 -0.0066662384 0.030464103 -0.038250357 0.0726318
0.0067225504 -0.0028375308 -0.033245828 -0.025628094 0.0998227 0.050524972 -0.011545511 -0.049500756
0.026106875 -0.04191818 0.025337556 -0.012582903 0.056761984 -0.049968503 0.036002222 0.10127676
-0.104978 0.09308857 -0.028194994 -0.021727987 0.040600397 -0.0907397 -0.02543628 -0.045798965
0.09201127 0.16176032 0.105145566 -0.09064694 0.099203885 0.16590528 0.022652125 0.051613823
0.05489237 -0.09647243 -0.082535245 -0.14112608 0.099153824 0.058773622 -0.10076954 0.16856697
0.040723376 0.03174532 0.066344455 0.024357999 -0.08952876 -0.0018560642 0.10781245 0.095151305
0.02234481 0.12761724 -0.12984578 0.05393999 0.030702846 0.06534157 -0.058828425 -0.0071662
-0.029014168 0.054067332 0.079967245 -0.050227843 0.045556467 0.034588788 0.08542462 -0.02307637

encoder.encoder.1.backbone.0.0.bias f4 [36]
00000000: 9c55 003c f5db d9b9 00cf cfbd 7fa9 c0bc
00000010: 62eb f0bd 14cd 0d3d ff94 29bd 523e 8e3c
00000020: 57d9 2c3c 9ec8 8c3b 08a1 633d 1503 e8bc
00000030: dbc9 643d 0958 54be 554a b938 d999 4db9
00000040: 4772 d6bd b709 42bd 7007 76bd 2057 df3d
00000050: 0aef adbc 7a9b c83d 217c bc3d 0da8 0bbc
00000060: 1527 583d 4e36 dabc e056 363d fe03 e73d
00000070: 99d4 ef3d ca65 e23d 6b4d f4bc d775 7c3c
00000080: b03c 43bc 17fc 8dbc 3620 b0bc 6e84 eabd
0.007832911 -0.00041553346 -0.10146904 -0.023518322 -0.11763646 0.034619406 -0.04140186 0.017363701
0.010549865 0.0042963764 0.055573493 -0.028321782 0.055856567 -0.20736708 8.835333e-05 -0.00019607636
-0.104710154 -0.047372546 -0.060065687 0.1090529 -0.021232147 0.0979528 0.09203363 -0.008523953
0.052771647 -0.026637223 0.044516444 0.11280058 0.11710472 0.11054571 -0.029822072 0.015408955
-0.0119163245 -0.01733212 -0.021499734 -0.1145104

encoder.encoder.1.backbone.0.1.weight f4 [36]
00000000: 0f38 4f3f 627a 633f ff19 473f de54 463f
00000010: af15 8e3f 26b7 353f 2aa5 803f 73f7 773f
00000020: afdc 143f 7e61 283f 12b3 343f e0ab 623f
00000030: 967a 5d3f 4df2 6a3f 107b 3d3f 92d6 983f
00000040: bd34 473f aa4c 453f 0a95 7a3f 16af 3e3f
00000050: b2f5 603f 03e8 5a3f a9e6 703f fa39 7f3f
00000060: 96a8 513f f8df 503f 2ebc 343f 5b1f 863f
00000070: 6ff0 623f 5508 793f 3e3c 2c3f 7e1e 6f3f
00000080: fa30 4a3f 30f4 543f 45d1 443f 209c 773f
0.80944914 0.88858616 0.7777404 0.7747325 1.1100367 0.7098259 1.0050404 0.9686195
0.58149236 0.6577376 0.7058574 0.8854351 0.86515176 0.9177597 0.74015903 1.1940482
0.7781485 0.77070105 0.97883666 0.7448591 0.878749 0.8551027 0.9410196 0.9969784
0.81897867 0.8159175 0.7059964 1.0478319 0.8864812 0.9727834 0.6727942 0.934059
0.7898098 0.831851 0.7688182 0.967226

encoder.encoder.1.backbone.0.1.bias f4 [36]
00000000: 0077 533d bfed 083c b38a 8bbd bdb2 42bd
00000010: ec49 8fbd 6b17 8fbb 0793 9abb 2f35 48bd
00000020: 6bc7 2abd 5bc8 9bbd 54ad d5bb fe30 71bc
00000030: 6a0c 0cbc ac6f 2abe 5841 83bd 15c7 20bd
00000040: d93b 15bc 06ea 43bd e323 89bd 218c e83b
00000050: cf29 eabc 0e65 453d 6725 8fbc 3fb5 c2bb
00000060: 1b5e 99bc 271e 593c b915 c63c 5801 833c
00000070: 7772 bd3b a756 093d 16c0 76bd 5571 84bc
00000080: 2cd8 5abc 966e bdbb e59f 61bc 5ec8 a1bd
0.05162716 0.008357464 -0.06813564 -0.04753374 -0.06996521 -0.0043668053 -0.004717234 -0.048878845
-0.041694086 -0.07606574 -0.0065209065 -0.014721153 -0.008547882 -0.16644162 -0.06408948 -0.03925236
-0.009108507 -0.047830604 -0.06696298 0.007096783 -0.028584389 0.048192076 -0.01747389 -0.0059420164
-0.01872163 0.013251818 0.02418028 0.015991852 0.0057814675 0.033529904 -0.06024178 -0.016167322
-0.013357203 -0.005781005 -0.013771032 -0.07899545

encoder.encoder.1.backbone.0.1.running_mean f4 [36]
00000000: 22f3 16be ea5d 59bd 6f53 f43c c027 37bd
00000010: a191 61bd 32c0 98bc b43c bfbd 97e9 183d
00000020: 2887 e83d 23cd 2f3e 8ded af3d 84bb 08be
00000030: fa99 09bd 513e 393d 619a 0a3e eaa2 1a3e
00000040: 3f79 90bd 305c 223e 7a72 0c3e 3057 c63d
00000050: b7f4 b4bd 9fff 3ebc 35de 1b3e b6ed 46bd
00000060: 0e22 e33c b65f 1ebe 1fb4 34bc 78fe 173e
00000070: 9c89 4f3e 11f0 07bd 60a3 013e cc38 56bc
00000080: cbb6 673c 2a99 5f3d 9f8f bc3d a6f3 11bd
-0.14741185 -0.05306808 0.02982494 -0.044715643 -0.055070523 -0.018646333 -0.0933775 0.037332144
0.11353904 0.17168097 0.08590231 -0.13352782 -0.03359411 0.045225445 0.13535453 0.1510121
-0.07054376 0.15855479 0.13715544 0.096845984 -0.08835738 -0.0116576245 0.15221484 -0.048566543
0.0277262 -0.15466198 -0.011029272 0.14843166 0.20267338 -0.03318793 0.12659979 -0.013075065
0.014142702 0.054589428 0.09207081 -0.035632752

encoder.encoder.1.backbone.0.1.running_var f4 [36]
00000000: 0505 933e 9a96 873e 90a9 473e 8f07 113e
00000010: f32d 183f f385 b93e 86e8 bb3e bc2f 8b3d
00000020: a3d0 0d3e 3622 743e 54ff 863e c339 b63e
00000030: 18f1 cd3e 9752 743e 5bd0 7c3e 87c2 c53e
00000040: 46cb e23e 3898 623e d735 d93e a53f 163f
00000050: 3c38 b23e e3c0 4b3f e07c 7d3d 52c0 213f
00000060: 82be dc3e 53f8 b13e d02c b23e cf0a 9b3e
00000070: 56de df3d 263b bb3e 0d18 253e c428 c53e
00000080: 727e 9f3e 3a76 c23e 9326 1f3e 75a6 843e
0.28714767 0.26482087 0.19498277 0.1416304 0.5944511 0.36235008 0.3670084 0.06796214
0.1384912 0.23841175 0.26366675 0.35590944 0.40223002 0.2385963 0.24688856 0.38624975
0.4429571 0.2212838 0.4242389 0.58690864 0.34808528 0.79591197 0.06188667 0.6318408
0.43114096 0.3475977 0.34799814 0.30281684 0.10931079 0.36568564 0.16122456 0.38507664
0.31151158 0.37980825 0.15542059 0.25908247

encoder.encoder.1.backbone.1.0.weight f4 [36, 36, 3]
00000000: 6023 6d3d e452 b53d 6907 be3d 8bbb 93bd
00000010: c237 0bbe 6754 533d 349d 68bd a543 c23d
00000020: b979 4e3e dc6c 953d 83f1 b2bd e149 db3c
00000030: fa28 03bd ee7c ba3d 87ef c63d 4e8f 823d
00000040: 0abe 833d db7c 57bd 3057 4e3c 3813 12bd
00000050: 3985 4dba 92b9 be3c 6ca0 2cbd 0f5b d83d
00000060: 0319 58bc d9e3 513c 0686 85bd 2104 113e
00000070: 8746 71bd 4812 2b3d 3d51 93bb d0ac adbd
00000080: 9e8b 873d dd9e a1bc 2a14 3bbe d52c 76bd
00000090: c10f 213c 7b60 d73b 451f a33d 3125 033e
000000a0: c0b3 cb3d 4db5 7d3d 747e 85ba f720 a1bd
000000b0: 5cd8 d5bb 7eee bf3d 97c7 743d 9a0d 3abd
000000c0: d9bb 3c3c 6fe1 bbbc 2fe1 4fbc 5dfe 763d
000000d0: c515 f33d 107a 763d 229c 0fbd f418 c33d
000000e0: ba86 bdbd fcc5 dbbc ea1b edbd db9a d3bd
000000f0: e38f 9c3d c117 80bd df29 833d 0e58 a83d
00000100: a3ff 37bd 70d1 883c a677 663d e0fd 75bc
00000110: 482a 073e 3c89 12be 1e71 0e3e 7168 ffbd
00000120: 4c28 49bd a582 ab3d a38c af3d 72b7 bfbd
00000130: 9e79 873d c6c8 b73d a646 97bc 32e6 7a3c
00000140: c9aa bcbc 3488 5e3d 9510 ee3d 3744 9d3c
00000150: a1fb 423d 2829 0a3d a80b 973c 5363 bd3d
00000160: 1823 233e 324d 873d 6f84 b6bd f27d 04be
00000170: a9d1 08be af3d 98bd c7e7 153d dd73 9dbc
00000180: 65fc 64bc cdbc 9f3d a3fc 35bd 7fc4 aabd
00000190: 755c 20be 4e25 aabd ec43 0c3e 6441 9ebc
000001a0: 923e 5abd 11fc 333d ef14 bcbd b773 ca3d
000001b0: 2115 29bd c8cc 6fbc 9d12 e1bc fe86 563d
000001c0: ad96 67bd ce54 9cbb e5be d2bd 5084 4b3d
000001d0: 2a1b 91bd ac88 33bd 6b8a 3f3b 0a7d cd3d
000001e0: d8bf 56bd 465c 2d3d 9b14 713d 6388 8dbd
000001f0: 161d 78bd 3fa3 17bd 1fe6 59bd 5eb4 7c3b
00000200: f622 12bd 64b2 08be e842 7e3c 45c2 3c3c
00000210: 6116 95bd 440e f73c f931 21bd fba2 553d
00000220: fce9 b93d 6c3f 14bd 3df2 a23c 66d7 3ebc
00000230: 8491 cf3d bb2e f93a 1804 1abc ee2f 7a3d
00000240: 769f 8fbc 12bf 87bd 7a1b 4ebc 606b bfbd
00000250: 4ee6 943d 54ac aebd 2614 c0bd d364 023d
00000260: 50c5 483d 436a 423d 97fa 97bc d10c 423c
00000270: 67ba 47bd cb74 4cbc e83d a7bd 9aa3 dbbd
00000280: 55a3 86bc 0991 6abc 0453 89bd 86cb 66bd
00000290: 8d3b 7fbd 67f9 d43d adcf cf3c 6313 8aba
000002a0: a32c 013c 9d58 cfbd 47d8 e53a 413d e23c
000002b0: 4e84 c33c 8a32 253d 0799 40bd 0564 50bd
000002c0: 3000 94bd 3602 a5bc 0261 493d 0b29 a13d
000002d0: bab9 b2bd 5cde fbbd e635 fbbc dc51 103c
000002e0: bc69 3d3d 1a35 40bc f960 4dbd ca27 bc3d
000002f0: 6a17 d3bb 864b 763d 0969 31bd c160 8abd
00000300: 0c6a 8abc 93cc 193d 3c5a fbbc 47c3 5f3d
00000310: e697 523d db88 803d 4a23 06bd 4d49 9dbd
00000320: c2fd d53c 7c50 0e3d d362 d5bd 4fe2 96bc
00000330: 2c3c ffbc 1669 9dbd bdbb 2f3a 4587 9e3d
00000340: 44df 37bc adea 083d b740 53bb 66f9 4b3d
00000350: 3606 8bbd 61d1 103d c059 cbbb fb17 383d
00000360: 1363 6ebd 91c8 b33d dc47 15bc 209a a839
00000370: e10a 57ba a1ee d1bc fba7 ac3d 0323 5a3e
00000380: a14f b93d 8de7 9c3d eba0 133d e793 33bd
00000390: 36fd 46bc 2c87 a23d 6fd1 503e 3d42 fdbd
000003a0: 5abe 263c 7521 993d 1f79 d3bd 8b1e 20bd
000003b0: 5c1d 223d e022 23bd f630 07bd 0837 1bbd
000003c0: 3302 3c3e 516a 483d 8564 bf3d 29e0 763d
000003d0: 9a0d b63d bcdc f9bd 1692 c6bc 40ba ca3d
000003e0: adaf 0e3d e077 3abe 3e8c 3bbc cef5 6e3e
000003f0: 1917 a1bd af09 ffbc 7e05 0e3d 20d3 253d
0.057895064 0.08853701 0.09278757 -0.07213505 -0.13595489 0.051594164 -0.056790546 0.094855584
0.20163621 0.07296154 -0.08737471 0.026768627 -0.0320215 0.0910586 0.09713655 0.063749894
0.064327314 -0.052609306 0.012594029 -0.03566286 -0.0007839981 0.023281846 -0.042145178 0.10564243
-0.013189557 0.012810671 -0.065197036 0.14161731 -0.05890515 0.04176548 -0.0044957683 -0.08480227
0.06618427 -0.019729072 -0.1826941 -0.06010135 0.009830416 0.0065727807 0.079649486 0.12807156
0.09946394 0.06194048 -0.0010184781 -0.07867616 -0.006526036 0.09371661 0.059760656 -0.045423128
0.011519396 -0.022934644 -0.012687965 0.060301173 0.118693866 0.060175 -0.03506101 0.09526244
-0.09254213 -0.026827805 -0.1157759 -0.10332271 0.07644632 -0.06254531 0.06404471 0.0821992
-0.04492153 0.01670143 0.05626645 -0.015014142 0.13199723 -0.14310163 0.13910338 -0.124710925
-0.049110696 0.08374528 0.08571746 -0.09361161 0.066149935 0.08973841 -0.018466305 0.015313672
-0.023030655 0.054329112 0.116242565 0.019197566 0.047603253 0.033730656 0.018438175 0.0924746
0.15931356 0.06606521 -0.089119785 -0.1293867 -0.13361229 -0.0743364 0.036597993 -0.019220287
-0.013976191 0.07799683 -0.044430386 -0.0833826 -0.1566027 -0.083078966 0.13697785 -0.01931829
-0.053282328 0.04394156 -0.0918368 0.09885352 -0.041279916 -0.014636226 -0.027474696 0.052374832
-0.05654018 -0.0047708517 -0.102903165 0.04968673 -0.07085259 -0.043831512 0.002922679 0.10033615
-0.05242905 0.042324327 0.05885754 -0.06910779 -0.060574614 -0.037020918 -0.053197976 0.0038559656
-0.035677873 -0.133493 0.015518881 0.011520927 -0.07279659 0.03015817 -0.0393543 0.052157383
0.09077832 -0.036193296 0.019890899 -0.011648035 0.10135177 0.0019011119 -0.00940039 0.061080866
-0.017532092 -0.06628241 -0.012579793 -0.09346652 0.0727049 -0.08528963 -0.09378843 0.031834435
0.049016297 0.04746462 -0.018552108 0.011843876 -0.04876175 -0.0124790175 -0.081661046 -0.10724564
-0.016435305 -0.014316806 -0.06705287 -0.05634644 -0.06231265 0.10399132 0.025367582 -0.0010534342
0.007884177 -0.101243235 0.0017535769 0.027617099 0.023866799 0.0403314 -0.04702094 -0.050876636
-0.07226598 -0.020142656 0.04916478 0.078691565 -0.08726831 -0.12298271 -0.03066535 0.008808579
0.046243414 -0.01173141 -0.05014131 0.09187277 -0.006442 0.06013062 -0.04331306 -0.067567356
-0.01689627 0.037548613 -0.030682676 0.05462959 0.051414393 0.06276103 -0.032748498 -0.07679997
0.026121978 0.034744725 -0.1041924 -0.01841846 -0.031156622 -0.07686059 0.00067036954 0.07740644
-0.011222664 0.03342693 -0.0032234618 0.04979839 -0.06788294 0.03535593 -0.0062057674 0.044944745
-0.058199953 0.087784894 -0.009111371 0.0003215829 -0.000820322 -0.025626482 0.08430477 0.21302418
0.09048391 0.07661352 0.036042135 -0.043842223 -0.012145331 0.07935938 0.20392393 -0.123661496
0.010177219 0.074770845 -0.103258364 -0.039091628 0.03957878 -0.03982818 -0.033005677 -0.03789428
0.18360214 0.048929516 0.093453445 0.06027237 0.08889313 -0.12200305 -0.024239581 0.098988056
0.034835506 -0.18209791 -0.011447011 0.23335955 -0.07865734 -0.031132547 0.034673207 0.040484548

encoder.encoder.1.backbone.1.0.bias f4 [36]
00000000: fbc2 6fbd 57dd 95bd 9e5d debd dc97 bdbc
00000010: 1744 9f3d cf12 333d c970 66bc b4b8 a5bd
00000020: b5a1 9bbd 8531 a83d 4cdb 9abd 9db4 b6bd
00000030: 1269 e33c 2b59 4fbd 6d32 9cbc 8141 843c
00000040: 3aee a73d b028 afbd 1135 c43d e98c 9dbd
00000050: 18cf 16bd 9f45 59bd a8c9 a1bd 86a4 14bc
00000060: e53a 96bd 994a 643d ed77 5a3d 9666 993c
00000070: 7c3a 953d 9297 1fbd 7a07 8dbd 0785 60bd
00000080: a4e2 0cbd 0e75 94bd ee2b a03b 1b92 b73d
-0.058535557 -0.07317608 -0.108577 -0.023143701 0.07776659 0.04371911 -0.014064976 -0.0809187
-0.075992025 0.0821257 -0.07561359 -0.08921168 0.027760062 -0.050622147 -0.019067014 0.016144516
0.08199735 -0.085526824 0.09580434 -0.07692892 -0.036818594 -0.05304491 -0.07899791 -0.009072429
-0.07335452 0.055735204 0.053337026 0.018725675 0.07286546 -0.038962908 -0.06886192 -0.054814365
-0.03439583 -0.07248889 0.0048880493 0.08963414

encoder.encoder.1.backbone.1.1.weight f4 [36]
00000000: 7df3 663f ba46 5d3f 471d 9c3f b8ad 643f
00000010: b8f2 8b3f 6d9d 313f f5d2 273f 3daa 633f
00000020: c655 863f d964 513f 9619 813f 5da3 823f
00000030: 8f0b 593f d72f 493f 6f8a 1d3f ef01 683f
00000040: 588e 753f 8abb 7c3f 2dba 503f 2a0a 3c3f
00000050: 5b3a 463f ba8c 473f f26e 7a3f b8f2 633f
00000060: 545f 813f 16e6 503f 88a0 6d3f 8488 853f
00000070: ccd8 473f 9c21 883f 9f3f 3e3f b6f5 3f3f
00000080: 03bb 433f 494c 733f 5f88 813f 3ccb 623f
0.90215284 0.86436045 1.2196435 0.89327574 1.0933447 0.6938084 0.6555627 0.8893164
1.0494926 0.81794506 1.0085933 1.0206105 0.8478326 0.7858862 0.6153936 0.9062795
0.95920324 0.9872366 0.8153408 0.7345301 0.77432793 0.77949107 0.9782554 0.89042234
1.0107217 0.81601083 0.92823076 1.0432286 0.7806518 1.0635257 0.7431583 0.749843
0.7645723 0.95038277 1.0119742 0.8859136

encoder.encoder.1.backbone.1.1.bias f4 [36]
00000000: d7a1 9bbd bc43 b1bc d1fd b0bd 0452 c4bd
00000010: fc57 20bd 4eb8 f4b9 8972 82bc 18f7 cabc
00000020: 4afa 64bb 3cb1 cabb 555a 283c 5504 2bbb
00000030: 64c6 cbba 1123 0dbc 9ac1 e9bb 3c7f 6fbd
00000040: 9cac 983c 446e abbd 8643 093d 7ca0 a8bd
00000050: 52c9 39bc 587f bbbd 2105 e13b 9aba 62bc
00000060: 1e93 0cbd 3aeb 50bb 077c 99bd 64f2 99bd
00000070: 36b5 4ebd 015d eabb e7ae 5fbc 9025 b2bd
00000080: 6d8c efbc 7032 50bd a196 96bd 5749 58bc
-0.07599228 -0.021638744 -0.08642162 -0.09585956 -0.03914641 -0.00046676624 -0.015923755 -0.024776027
-0.0034939223 -0.0061856788 0.010275443 -0.0026095111 -0.0015546796 -0.0086143175 -0.007133675 -0.05847095
0.018636994 -0.08370641 0.03351166 -0.08233735 -0.011339502 -0.09155148 0.0068670665 -0.013838435
-0.03431999 -0.0031878487 -0.074943595 -0.075169355 -0.050465785 -0.0071522 -0.01365254 -0.08698571
-0.029241765 -0.05082935 -0.07352949 -0.013201079

encoder.encoder.1.backbone.1.1.running_mean f4 [36]
00000000: 4662 3bbe ce28 9e3d 80ad 823d c6b5 563e
00000010: 5aa9 563e 19a1 86bd 7466 943d 3482 ee3d
00000020: ad9f 99bd a921 1bbc 4d12 93be 1542 88be
00000030: 2520 eabd c4a8 2c3d 502a 3cbe 423a 493e
00000040: 7d6f 14be 3658 ff3d 370a 0cbe d0bb e3bd
00000050: 21a5 953d d44d e53d 7b82 e4bd b315 2a3d
00000060: 1dba 39be 8a60 403e a0a8 933e 07fe a93e
00000070: 1c04 463e 8039 67be 226f 3abe 9db3 03be
00000080: 5829 1f3e d813 003e f7b7 373e 31bc 993e
-0.18299207 0.077226266 0.06380749 0.20967779 0.2096304 -0.06573696 0.07246104 0.11645928
-0.07501159 -0.009468474 -0.287249 -0.26612917 -0.11431912 0.042153135 -0.18375516 0.1965113
-0.14495654 0.12467997 -0.13675772 -0.11119807 0.073068865 0.11196485 -0.111577 0.0415246
-0.18137403 0.18786827 0.28839588 0.3320162 0.19337505 -0.22580528 -0.18206456 -0.12861486
0.15543115 0.1250757 0.17941271 0.3002639

encoder.encoder.1.backbone.1.1.running_var f4 [36]
00000000: 9753 9f3e b242 a73e 418a ca3f 2968 7e3e
00000010: d614 053f 3bff 7c3d ff86 733e 38ed c93e
00000020: 546c 733f e800 9d3e a046 b63f 2f27 683e
00000030: 8ec1 6a3e 06cf 1a3e b1b7 803e 30bb 083e
00000040: 8785 ec3e 32f6 b83d 39fc 3f3e f7c2 6c3e
00000050: 12d8 613d f47c 7f3d a6d8 ea3e 6010 bc3e
00000060: e3aa 2d3e 38e8 d03e f530 573e 4fe0 7d3d
00000070: 9d2f 703d 631b 363e b590 103e a858 ee3d
00000080: 72e7 a03d 3baa 1b3f 08b8 803e 91e9 df3e
0.3111846 0.32668072 1.5823442 0.24844421 0.5198492 0.061766844 0.23781966 0.39438796
0.9508717 0.30664754 1.4240303 0.22671197 0.22925398 0.15118036 0.25140145 0.13352656
0.46195623 0.09031333 0.18748559 0.23121248 0.0551377 0.062375024 0.45868415 0.36731243
0.1695972 0.4080217 0.2101477 0.061981495 0.058639158 0.17783885 0.14117701 0.116380036
0.07856645 0.60806626 0.25140405 0.43732885

encoder.encoder.1.downsampling.weight f4 [36, 36, 7]
00000000: 30ff afbc da43 9c3d 6a21 89be bb6b 1bbe
00000010: 7e0c bebc c8a0 803d 3faf 21bd 3f92 bc3c
00000020: 2b19 aa3d 5f71 d23c fa77 803d 914f ac3c
00000030: 9410 62bc 15a2 0e3d 86b5 38bb 28d0 293d
00000040: d58c 613e 899b 94bd 92ff 1abd 959e c9bd
00000050: e96e 1f3d 3369 753d 69ee ad3c 7386 013e
00000060: 777a 1cbc 3167 143d 9fae 43bd 772f cf3c
00000070: 8d08 033d ff3f f13c 60a8 863d 4f3a 393d
00000080: cc08 543c e37f 5fbd e078 70bd a69d 733d
00000090: 10d9 413c 2512 16bd e026 febc c661 883c
000000a0: 8345 25bb a209 a4bc 133b b6bd 666e 023d
000000b0: 219d 9cbd 9a58 dd3c c882 313c a1ef 863d
000000c0: 8074 dbbb 8a70 f8bc d49a 633c d1b2 523c
000000d0: 8c5d f23c 565e 9fbd 3200 cebc 7c17 c83c
000000e0: 2690 023e e546 d43d 6bb0 753c fa66 4dbd
000000f0: d44b 513b 10e0 c6bc 33da 743d 443d 13bc
00000100: 98e8 98bd fcec d93c dc96 40bd 05df b23c
00000110: d876 1ebd 6d9b f5ba 3fc8 b5bc 2c45 6fbd
00000120: 7b78 a8bc 18fc 8b3d 54fc debc e97b 6ebd
00000130: a03f 9dbd c4cc 813c d15a 0ebc 9726 223e
00000140: 675e 5e3d 8811 81bc 99a7 823d 604f 6d3d
00000150: 2542 5f3d e47b e03c c75f 97bc efd1 e53c
00000160: af77 a53b e50f 3ebc b0f3 7a3c bde8 b2bc
00000170: 16ea 49bd c642 ba3b 6872 373c b81e 073d
00000180: c645 8dbb 640c f83c 80b4 763c 9f57 043c
00000190: b55e 63bc c0bc 63bd 9c53 363c e8ce 31b9
000001a0: 1c60 e03c e50d 203d 635b fb3c f15f 883d
000001b0: 6982 a63c 0e15 ae3d fc38 693b e1e1 583b
000001c0: b991 c83c 9bc2 cdbc 519f 713c 7f86 da3c
000001d0: ee31 c8bd 8ba1 78bc e7ed 9c3c 5685 72bd
000001e0: 8cf3 48bd ca50 8bbd 5398 053d e7eb 8bbd
000001f0: 5c08 1fbd 5388 153d 646a 4dbd 67c0 7d3d
00000200: 6813 313d 7970 c93c a848 513d 82f1 26bd
00000210: 6c40 8ebc e3cd f8bc 242b b3bd 48f0 f8bd
00000220: adda 7cbd fa1e 2b3c 3de4 ca3d 8293 183d
00000230: 844b 093d 836b 0a3c 953f 03bd a010 163b
00000240: f0eb 2b3d de0b 57bc e56d 103d 0d2a 93bd
00000250: 3c48 00bd 13d4 b33b 5e9a 39bd 670e 403d
00000260: 912e b6bc d52b febc 5c95 1dbd 8bbc 86bd
00000270: 6989 a8bd 2ebb 593c 33eb af3d e536 853c
00000280: 8f3a b23c 9e70 61bb 96a7 103e 48c1 c2bc
00000290: d712 4d3d f66e 833d c0d3 40bc daa6 b23c
000002a0: 0229 83bd c572 b9bd 76f0 96bd fe88 82bd
000002b0: fad2 1abd 227f 5fbc c412 38bd 8932 afbb
000002c0: 7a56 eb3c 91be c4bd 46be 82bd 7642 c63b
000002d0: 14ad 19bd a945 8ebd fc03 c73c af24 e23c
000002e0: 84fd 6cbc 9890 4a3d 6239 bc3d 4d0f bfbd
000002f0: c969 af3c df59 9a3c 7377 6cbd 21f1 14bd
00000300: 3f41 d93c 222d e53a 734c 5b3d 41a4 84ba
00000310: 4830 de3c a50f 5f3c 1e63 9d3c 9778 94bc
00000320: 51c8 d33c 8eb7 153d df5a 323d ede8 a9bc
00000330: 22f3 75bb bae1 16bc fd9c 303c 34f5 75bd
00000340: ff36 9abd fa48 27bd 675f 9c3d 0005 2cbd
00000350: 8b5f f33d f83f 96bd 233d 86bd c88a 37ba
00000360: d7e9 f0bb 7e64 703d 7d05 bbbc ea27 c33a
00000370: a213 0b3d b7d5 7ebd c1e3 553d d374 1e3d
00000380: 844b 4f3d 751c e9bd aa68 aa3c 58a2 49bd
00000390: 2738 853d 9e44 693d 312e 0cbd ea36 ec3b
000003a0: 4b15 acbd 3447 293d 7d76 263d fcd3 09be
000003b0: 3c0d ff3a a34f 843d 6321 4fbd 0d89 f7bb
000003c0: c9d5 debb 8892 73bc bb62 83bd 5bf8 903c
000003d0: f647 a2bb c816 eb3c 4af5 a8bc 0f97 b23d
000003e0: 33b7 153c 770b 93bb 97d7 9cbd 5014 c1bd
000003f0: 9909 f03b 3591 e13d 8dd1 cbbc f51a b0bd
-0.021483988 0.07630129 -0.26783305 -0.15177815 -0.023199316 0.062806666 -0.03947377 0.023018954
0.08305582 0.025688825 0.06272884 0.021034034 -0.013797898 0.034822542 -0.0028184368 0.04145828
0.2202638 -0.072562285 -0.037841387 -0.098447 0.03892413 0.05991478 0.021231847 0.12648945
-0.009550682 0.036231223 -0.047773954 0.025291188 0.031990577 0.029449461 0.06575084 0.045221623
0.01294155 -0.05456532 -0.058709025 0.059476517 0.011831537 -0.036638398 -0.031024396 0.016648185
-0.0025218434 -0.020024125 -0.08897986 0.031843565 -0.076471575 0.027019788 0.010834403 0.06588674
-0.0066972375 -0.0303271 0.013891894 0.012860016 0.029585622 -0.07781665 -0.025146578 0.02442526
0.12750301 0.103650846 0.014995675 -0.050147034 0.0031936066 -0.024276763 0.059778403 -0.008986775
-0.07466239 0.02660226 -0.04701887 0.02183486 -0.038687557 -0.0018738337 -0.022190211 -0.058415577
-0.020565262 0.068351924 -0.027219929 -0.05822364 -0.07678151 0.01584471 -0.0086886445 0.15835033
0.054289248 -0.01575543 0.06379623 0.057937026 0.05450644 0.027402826 -0.018478287 0.028054206
0.005049668 -0.011600469 0.015316889 -0.021839494 -0.049295507 0.0056842295 0.01119671 0.03298828
-0.004311296 0.030279346 0.015057683 0.008077531 -0.01387756 -0.055599928 0.0111283325 -0.00016957114
0.027389579 0.03907575 0.030683225 0.06658924 0.020325856 0.085001096 0.0035586944 0.0033093619
0.024483548 -0.02511721 0.014747457 0.02667546 -0.09775148 -0.015175234 0.01915641 -0.05920919
-0.04906039 -0.06802519 0.03261597 -0.06832104 -0.03882633 0.036506962 -0.05015029 0.061951067
0.043231398 0.024589764 0.05109468 -0.040757664 -0.017364703 -0.030371612 -0.08748463 -0.12155205
-0.061731983 0.010444397 0.09906814 0.03725005 0.033519283 0.008448484 -0.03204306 0.0022898093
0.041973054 -0.013125388 0.035261054 -0.07185755 -0.031318888 0.0054879277 -0.04531323 0.046888735
-0.022239001 -0.03102676 -0.03847252 -0.065789305 -0.08229334 0.013289256 0.085897826 0.016261527
0.021756439 -0.00343994 0.14126429 -0.023773804 0.050066795 0.064176485 -0.011769235 0.021808077
-0.06404306 -0.09055094 -0.07370083 -0.063737854 -0.03779886 -0.013641151 -0.04493977 -0.0053466004
0.028727759 -0.0960666 -0.06383948 0.006050403 -0.037518576 -0.0694688 0.024293892 0.027605383
-0.01446474 0.0494543 0.091906324 -0.0932909 0.021412747 0.018841682 -0.057731103 -0.03636277
0.02652037 0.0017484764 0.053539705 -0.0010119752 0.027122632 0.01361457 0.019212302 -0.018123908
0.025852354 0.036552005 0.043543693 -0.02074095 -0.0037528952 -0.009209091 0.010779616 -0.060048297
-0.07530021 -0.04084108 0.07635384 -0.041996956 0.11883458 -0.0733642 -0.0655463 -0.0007001576
-0.0073520946 0.058689587 -0.022829765 0.0014889215 0.03395427 -0.062215533 0.052219156 0.03868563
0.050609127 -0.11382381 0.02080186 -0.04922709 0.06504851 0.056950204 -0.03422374 0.0072086947
-0.08402499 0.04132767 0.040640343 -0.13459772 0.00194589 0.06460502 -0.05056895 -0.0075541795
-0.0068003875 -0.014866479 -0.06415316 0.01769655 -0.004952426 0.028697386 -0.020624775 0.087202184
0.009137916 -0.0044874507 -0.07658308 -0.094277024 0.007325363 0.11014024 -0.024880195 -0.08598892

encoder.encoder.1.downsampling.bias f4 [36]
00000000: 0f4a 153d caac c9bb 3456 5a3d b6f8 13bd
00000010: bb2e 2e3d e1f5 5e3b ac07 f9bc 800e 313d
00000020: 145e 3dbd 2a33 23bd e42b 3f3d ea74 de3c
00000030: 744c 483c 7c86 523a c99e 453d 042b 1fbd
00000040: 9c66 fcbc a1d0 943c b9a7 5fbd a55c ec3c
00000050: 0afe 12bd 6a95 883c aafa 353d b074 a9bc
00000060: c80b d0bc a397 cc3c 7404 32bd 14ad 3abd
00000070: c0ab 45bd 9525 34bb 76d0 5dbd 63ef ae3b
00000080: 09b1 44bd 9454 323d d0ee 1a3d 04cd 073d
0.03644758 -0.0061546313 0.053304866 -0.03612586 0.042525034 0.0034021067 -0.030399166 0.04322672
-0.046232298 -0.039843716 0.046672717 0.027155358 0.012225259 0.0008030904 0.048247132 -0.038859382
-0.030810647 0.018165888 -0.054603312 0.02885277 -0.0358868 0.016672809 0.044428505 -0.020685524
-0.025396243 0.02497465 -0.043461278 -0.045575216 -0.048259497 -0.002748822 -0.054153882 0.0053385957
-0.048020396 0.04353769 0.037825406 0.033154503

encoder.encoder.2.0.weight f4 [36, 36, 7]
00000000: 744b 8ebc 48af 563d 09d0 8dbd f912 e53c
00000010: 60d6 b9ba 2b34 eabb 0279 f03c 46a6 2cbc
00000020: 1061 ccbb 6468 3c3d 938c 963b 5ddb e63a
00000030: c2cc f0bc 9e30 1dbd f843 883b c5e0 d93b
00000040: 1607 c23d 41e3 51bd 67e4 2f3c 3d1c 46bd
00000050: 5bf9 373c 897c a63c 9499 8dbd 2c76 633d
00000060: e493 07bd 877e acbd acbc a43b 3d98 44bc
00000070: 68cb 013d 54ea 463d de51 71bb 6557 c03c
00000080: de12 d0bd de3c 3dbd ae1a 313c a7b4 60bc
00000090: 99ce cd3c 1efb 23bd 096e 933d 7ca2 703d
000000a0: fa28 80bd 10a0 443d 3c59 14bd d268 d73c
000000b0: 3254 cbbd bc7a f23c 780b d93d ef3e 10bd
000000c0: c11a 85bb cb30 1ebb 32e3 95bc e54f 993c
000000d0: dd48 2a3c 6ac9 d33b 1501 73bd 6bc4 a7bc
000000e0: fcbe b2bc a9ac e5b8 0a39 013c f150 623d
000000f0: e92d b6bd 97a2 333d 481c c93c 99bd 903c
00000100: 5a25 92bd f3b9 bf3d f220 83bd 157c 9d3d
00000110: 64c6 4bbd dee7 c53a 9f17 243c 786a 89bd
00000120: a356 2ebc e943 433d 663f cabd aaed 993d
00000130: 7a37 013c 1f2e 063d 6d43 70bd 5c52 75ba
00000140: 4311 0ebd 6257 af3d 9153 41bd c5ff 93bc
00000150: 1394 ef3b 1935 dc3a 72a2 c0bd cdb3 bcbc
00000160: 7a69 353d 640e 303d 9747 5ebc 8309 593c
00000170: 0db1 26bd 4f25 3bbd 74bb 6f3d c616 563c
00000180: 818f 223d 789f aebb 1453 07bd 673d 433d
00000190: bbe8 f0bd dcf7 f53d 6deb ca3b a663 9cbc
000001a0: c141 18bd b4e4 f3bb ce1b 01bd 00a2 1c3d
000001b0: 2327 703c d213 a7bd 9106 8ebc 0b0e 423d
000001c0: d56a 9abc 4a0f 333d 7381 84bd 5a70 72bd
000001d0: 68b8 ff3c 188f 523d 99fb 2d3d ab6a 04bc
000001e0: 7bd6 7cbc b1eb 8dbc 1260 2ebd a7a4 c83d
000001f0: 5a47 5f3d 6b6f c43c 91c5 e6ba 6524 54bd
00000200: e18a 8d3c cfeb 11bd e487 eabc e288 89bb
00000210: f12b a2bc 8712 aabc 9f3b 7ebc b547 5d3d
00000220: 45ba f6bc 79b1 463c d6f0 c4bc 6808 4e3d
00000230: 9da4 6a3c 24b2 8dbc f4bc 023d 008a 60bd
00000240: f493 113c a1c6 853c 58ed 8e3b b9b1 f1ba
00000250: 11bc 4abc 556c 843d 5eec 05be ad98 a63c
00000260: dd84 41bc 02a8 893d b615 723c a2f4 22bd
00000270: 1791 b43b b156 293e 6cf5 f3bd 38c1 293c
00000280: 9c40 b1bc dbed 043b c3c3 ff3c ac76 22bd
00000290: 5f7d 1bbc 48f5 10bd 0a8e 3a3d efb5 0a3d
000002a0: 77dd 463c 518a a83c 7d01 37bd 2c67 fc3b
000002b0: e38c 31be b7a3 083c 5f8c be3c e40a 8b3c
000002c0: 5eb5 07bd 4146 9b3c 8cd0 b23b 8030 a53c
000002d0: 4165 96bb 074a 3abc 67e8 27bc 0078 28bb
000002e0: cf74 ac3c 5a0d 9ebd f591 243e 4dc5 8cbd
000002f0: 365a b23c 8435 b5bb 9552 c03c 89a3 20bd
00000300: aeef b3bd d4a6 be3d c900 90bc 88d6 a83c
00000310: dad8 20bc b546 adbc d443 e9bd 42e6 953d
00000320: f9d4 b83d 80d7 32bb b8a1 8fbb bb67 3ebc
00000330: bd5b 8dbc 4db0 5d3b bff0 86bd a950 7a3c
00000340: d7ec c73c 97ad 7abc 8651 a5bc 516e fc3c
00000350: d027 29be 58ef b03d bb78 a0bd 4a51 113d
00000360: 730f 0e3d dba5 e63b 8ee8 213d f1a8 683c
00000370: 65a0 623d 85a3 a13c 870f 62bc 5a61 963c
00000380: f5fc afbb 176d 743d 4aef ffbc 93b2 1d3d
00000390: 1324 2fbd e0b5 a7ba c3d1 76bc 880e e3bb
000003a0: 8524 253d 2f53 53bd 5059 223e c534 36be
000003b0: dadb c73d 2714 55bd f4ce ee3b 4c64 9dbc
000003c0: 2842 82bd 51e0 853d 84af 7abd c08a acbc
000003d0: 7210 073b 04b4 283b 5af6 b13c fefd bdbd
000003e0: 1459 933d 298c bcbc 1ac7 9e3c a7b5 e1ba
000003f0: 0eb8 cd3c f200 d5bc f20f 49bd a417 a3bc
-0.017369963 0.052413255 -0.06924445 0.027963148 -0.0014178269 -0.007147332 0.029354576 -0.01053769
-0.0062371567 0.045997992 0.0045943945 0.0017612983 -0.029394511 -0.038376443 0.004158493 0.006649109
0.09474008 -0.051242117 0.010735608 -0.048366774 0.011228885 0.020323055 -0.06914058 0.05553262
-0.033100024 -0.08422571 0.0050273743 -0.011999187 0.031688124 0.048563316 -0.0036822478 0.023479173
-0.10159849 -0.046200626 0.010809584 -0.013714946 0.025122928 -0.040034406 0.07198722 0.058748707
-0.06257816 0.04800421 -0.036217913 0.0262951 -0.09928168 0.02959954 0.105978906 -0.03521627
-0.004062027 -0.002413797 -0.018296812 0.018714854 0.0103933485 0.0064632194 -0.059327204 -0.020479402
-0.021819584 -0.000109517314 0.007887134 0.055252973 -0.088954754 0.04385623 0.024549618 0.017668532
-0.071360305 0.09361639 -0.06402768 0.076896824 -0.049749747 0.0015099009 0.010015397 -0.067097604
-0.010640773 0.047672186 -0.098753735 0.07516034 0.007886762 0.03275883 -0.058658052 -0.0009358281
-0.03468443 0.08561589 -0.047198836 -0.018066296 0.007311353 0.0016800492 -0.09405984 -0.023034954
0.044290043 0.042982474 -0.013566873 0.013246897 -0.040696193 -0.045689877 0.05852838 0.013066953
0.039687637 -0.0053290688 -0.033038214 0.04766598 -0.1176314 0.12010166 0.0061926157 -0.019090485
-0.037172083 -0.007443035 -0.031520657 0.038240433 0.014657768 -0.08158077 -0.017337115 0.047376674
-0.01884977 0.043715753 -0.06470003 -0.059189178 0.031215861 0.051405996 0.04247627 -0.008082072
-0.0154319955 -0.0173243 -0.04257209 0.0979703 0.054511406 0.02397891 -0.0017606487 -0.05179252
0.017278137 -0.035625275 -0.02862925 -0.004197226 -0.019796344 -0.020760788 -0.015517144 0.054023463
-0.030118117 0.012127274 -0.02404062 0.050300986 0.014321473 -0.017296858 0.03191848 -0.054819107
0.008885372 0.016330065 0.0043617897 -0.0018439806 -0.01237394 0.06465975 -0.13078448 0.020336473
-0.011811462 0.06721498 0.014775684 -0.03978408 0.00551046 0.16536976 -0.11912045 0.010361008
-0.021637253 0.0020283374 0.031221276 -0.039663956 -0.00949034 -0.03539017 0.045545615 0.03386491
0.012137762 0.020573767 -0.044679154 0.0077027287 -0.173389 0.008339814 0.023260294 0.016972966
-0.03313195 0.018954398 0.0054569896 0.020164728 -0.004589707 -0.011370189 -0.01024828 -0.0025706291
0.021051792 -0.0771739 0.16071303 -0.0687357 0.021771532 -0.005530061 0.023476878 -0.03921846
-0.0878595 0.09309164 -0.0175785 0.020610109 -0.009817326 -0.02115188 -0.1138989 0.07319309
0.09024996 -0.0027289093 -0.004383292 -0.011621411 -0.017255658 0.0033827007 -0.065888874 0.01527802
0.024404926 -0.015300176 -0.020180475 0.030814322 -0.16519094 0.08639401 -0.078355275 0.035477914
0.034682702 0.0070388145 0.039528422 0.014200435 0.055328745 0.019731293 -0.013797647 0.018356968
-0.005370731 0.05967435 -0.031242032 0.03850038 -0.042759012 -0.0012795292 -0.0150646595 -0.0069292225
0.04031803 -0.051593002 0.15854383 -0.17793567 0.0975873 -0.052021172 0.0072878543 -0.019212864
-0.063602746 0.065369256 -0.06120254 -0.021062255 0.0020609167 0.0025742063 0.021723915 -0.09276961
0.07194725 -0.023016052 0.019382048 -0.0017220274 0.025112178 -0.026001427 -0.049087472 -0.019908734

encoder.encoder.2.0.bias f4 [36]
00000000: 6ed6 733d a7d1 12bb 75ce 9f3d 963a 673d
00000010: 8b7b fa3c add4 053c e573 5c3d 514c afbc
00000020: 6b68 93bd f5c1 cebc 2fb8 6a3d 827c ca3d
00000030: 71b2 7dbc ad19 41bb 52f9 7c3d f915 bc3c
00000040: 27b5 f73c 0a2c dcbb 226f ca3c adae 483b
00000050: 7d91 02bc 93ab 9fbd 6d11 41bd f63d a33c
00000060: d78e 763c 61d8 323d 08c5 253c 96b1 6abd
00000070: afd6 653d bf03 dcba 827c f7bc fb44 a9bb
00000080: c2b7 ce3c 8c97 bb3c b1a5 3a3a e185 76bc
0.059530668 -0.0022402795 0.078030504 0.056452356 0.030576488 0.008168382 0.053821463 -0.021398695
-0.071976505 -0.02523897 0.057304557 0.09887029 -0.015484438 -0.0029464767 0.061761208 0.022959696
0.030237747 -0.006719117 0.024711195 0.0030621693 -0.007969257 -0.07796397 -0.04713576 0.019927006
0.015048704 0.043663386 0.010117777 -0.057298265 0.05611294 -0.0016785784 -0.030210737 -0.005165694
0.025234107 0.022899412 0.0007120027 -0.015046568

encoder.encoder.2.1.weight f4 [36]
00000000: 1904 7e3e 5000 be3e 4cb9 fa3e f1d9 643f
00000010: 701d 5d3f 02a3 5d3f 64f6 d53e 010f e93e
00000020: 21a3 233f b6a1 1d3f 8d00 e43e 23e0 403f
00000030: e6c0 ba3e 2dd7 5c3f 7bab e03e 7b18 a73e
00000040: 7261 bd3e 8c13 293f 24f2 113f 8007 a43e
00000050: 8cfb e13e 47a0 043f 4722 fd3e d1e1 c53e
00000060: 46bb da3e 6f9c f33e a51b a13e bc4a 263f
00000070: c38f ea3e a078 b43e 56a5 453f 7fb8 0d3f
00000080: 78fa de3e e2e7 f33e 401e a63e 1345 c83e
0.2480625 0.37109613 0.48969495 0.8939505 0.86373043 0.86576855 0.41789544 0.4551926
0.6392079 0.61574876 0.4453167 0.75342005 0.36475295 0.8626583 0.4388083 0.32635865
0.36988407 0.6604545 0.570101 0.32036972 0.44137228 0.51807064 0.49440214 0.38648847
0.42721003 0.47580287 0.31466404 0.64957786 0.45812806 0.3524828 0.7720541 0.55359644
0.43550467 0.4763785 0.32444954 0.391152

encoder.encoder.2.1.bias f4 [36]
00000000: 22c5 07bd 2b7d 653d ad6e c13d 85d8 fe3c
00000010: 2699 293c e4ce 49bd 873f 8abc 3d8f 83bc
00000020: e3c4 91bd 1375 7dbd d70d 073b 8abb b63c
00000030: 3a62 4bbc 1932 743c 5ca0 10bd b191 d93c
00000040: a32f 163c a793 37bd 2958 54bc fc09 553d
00000050: 5531 a7bb 8215 60bd fe6d 013d ab2f ccbc
00000060: fddb 4c3c b477 4ebc 7a08 a73b 92a7 003c
00000070: 617c 1a3c 3d7d 843d ef57 f2bc 0678 88bc
00000080: f0a3 003d 8dea 24bd 497a 073d 25ae dd3c
-0.033146985 0.056027573 0.09444938 0.031109104 0.010351455 -0.049269572 -0.016875995 -0.016059512
-0.07117631 -0.06187923 0.0020607614 0.022306222 -0.012413556 0.014904522 -0.03530918 0.026558729
0.009166631 -0.044818547 -0.012960472 0.052011475 -0.0051023164 -0.05470801 0.031599037 -0.024925074
0.012503621 -0.012601782 0.005097446 0.007852452 0.009429068 0.064692 -0.029582946 -0.016658794
0.031406343 -0.040262748 0.033075605 0.027060578

encoder.encoder.2.1.running_mean f4 [36]
00000000: 9207 12be a719 153e b896 233e 78b2 e33b
00000010: a79f 6d3d 2a43 7abc 14b4 dcbd a764 3dbe
00000020: f0c0 79be b1cd 19be bab8 213d 51b8 dabc
00000030: 8f02 23bd 6213 8fbd 609e debd 43c8 253d
00000040: 9f5c a43d 14e0 5cbd c29b 46bd 9841 1abb
00000050: a280 9dbd a672 61be 6065 733c c654 a6bd
00000060: 983b 2bbc d955 8bbd 586f 0fbc 1b30 52bc
00000070: 1a6e 823d a13f f63d 2e37 0f3e 966e b7bd
00000080: 18d4 96bd 4470 aabd 52fc 1ebc 6ad2 aa3c
-0.142607 0.14560567 0.15975463 0.0069487654 0.058013584 -0.015274802 -0.10776535 -0.18495427
-0.24390006 -0.15019871 0.03948281 -0.026699217 -0.039797362 -0.06986119 -0.108700514 0.040474188
0.080254786 -0.053924635 -0.048488386 -0.0023537632 -0.076905504 -0.22016391 0.014855713 -0.08121638
-0.01045122 -0.068034835 -0.008754574 -0.012828852 0.063686565 0.12023855 0.13985893 -0.089566395
-0.073646724 -0.08322194 -0.009703713 0.020852286

encoder.encoder.2.1.running_var f4 [36]
00000000: 2860 613f 9e7f df3f 5545 dd3f f913 0940
00000010: e298 1440 37c8 c63f 4449 c83f f00a d13f
00000020: 3053 de3f 280a a53f 40f3 1a40 5851 a03f
00000030: 4983 e63f 3db3 fa3f 8baa ca3f 0e97 2240
00000040: a3b5 d43f 00c1 d03f b1ae da3f 8786 ee3f
00000050: 534f bf3f 5b01 1040 ff84 0e40 36cd b83f
00000060: 0d1f da3f 07d9 f63f 43f2 af3f fbb9 d03f
00000070: d592 1b40 6934 d23f 4948 c73f e728 903f
00000080: 7b26 0440 1a2b d53f 5c6c f23f 13b5 f93f
0.8803735 1.7460821 1.7286783 2.141844 2.3218312 1.5529851 1.5647359 1.6331463
1.7369137 1.2893724 2.4210968 1.2524824 1.8008815 1.9585949 1.5833296 2.5404696
1.6617931 1.6308899 1.7084562 1.8634804 1.4946083 2.2500827 2.2268674 1.4437625
1.7040726 1.9284981 1.3745807 1.6306757 2.430837 1.6422244 1.5568935 1.1262482
2.0648487 1.6653779 1.8939319 1.9508384
