trained_models/CC45:CCC9:6F62:BAD2.pt (torch, 57915 bytes, 12 tensors)

encoder.0.weight f4 [36, 36, 7]
0.002844632 -0.008325717 0.061999414 -0.04286456 -0.019909844 -0.014494307 -0.01626853 0.02427854
0.0067648594 0.16334948 -0.049464926 -0.03512052 0.0049077086 -0.0060906284 -0.0094142165 -0.002796072
-0.05212924 -0.088739835 0.0109565 -0.018673463 -0.018400026 -0.019030504 -0.0053795585 -0.10698923
0.082533285 0.046399727 -0.0053477143 0.012126611 -0.0056158775 0.010713733 0.014148995 0.030699724
-0.06746557 0.002218744 -0.026355552 -0.014207166 -0.0093763545 0.053449214 0.06980795 -0.009594893
-0.020948367 -0.020317791 -0.016660864 -0.012782985 0.009637778 -0.008252513 -0.051508397 -0.022898542
-0.010225617 0.0003780312 -0.02259411 0.027993638 -0.0015922731 -0.03238448 -0.019737089 0.006258897
-0.03208914 -0.019776637 -0.03708546 -0.06595619 -0.01831072 -0.017232098 -0.0062606926 -0.013748789
-0.033759415 0.008747848 -0.063878655 0.040515117 -0.03379171 -0.0053672646 -0.02388291 -0.029342147
-0.060578927 -0.006184539 -0.019307176 -0.02919253 -0.025002787 -0.027191749 -0.011037688 -0.022162199
-0.0347192 -0.0024639352 -0.0138320625 -0.014495422 -0.011131681 -0.040892635 0.027637986 0.0039468193
-0.046923798 -0.018765489 -0.028329032 0.006684209 0.0033223217 0.050570138 -0.06322858 -0.005636294
-0.0073437435 -0.004829253 0.049111452 0.056342296 0.08507928 -0.04566545 0.14018968 0.042752683
0.06718054 0.061742887 0.012290418 0.07931288 0.039965678 0.04763531 0.0635376 0.052379817
0.05137561 0.019999456 0.0053173355 0.013987017 0.15295462 0.020296205 0.055913936 0.03701217
0.039965123 -0.017504603 0.39837906 0.059542842 0.040621657 0.06462011 -0.025495386 -0.007864528
0.007864628 0.09442807 0.050586328 0.004926734 -0.0055235242 -0.0014302073 -0.015718224 -0.072540365
0.11620793 0.0016000207 -0.02175107 -0.004840096 -0.008652793 0.0021065723 -0.0046337685 0.14362724
-0.03236488 0.0069338623 -0.024274502 -0.01591741 -0.009531388 0.0062807463 0.09567762 0.008534255
-0.019586915 -0.011542493 -0.019623749 -0.024121184 -0.029648608 -0.03535988 0.01726146 -0.00828224
-0.028386982 -0.041672055 -0.01907835 -0.052200288 0.07536375 -0.0264736 -0.0068952236 0.00203182
-0.019820591 -0.019516977 -0.0327042 0.04405797 -0.011838046 -0.0036003222 -0.023856128 -0.030611208
-0.045924112 -0.032916535 0.02637423 0.000968332 -0.012249419 -0.003372992 -0.038750246 -0.03941984
-0.029604759 0.031239845 0.014264924 -0.02348754 -0.002482947 -0.027125487 -0.0076730982 -0.07985312
0.013135265 0.028089661 -0.025800923 -0.035179205 -0.020644177 -0.038530838 -0.03940291 0.040820442
-0.021832792 -0.02350755 -0.010058709 0.0040616277 0.016989315 -0.052457705 0.08361314 0.019336049
-0.004221299 0.004871402 -0.025212625 -0.02493996 -0.017994028 0.04403654 0.033453453 -0.007978672
-0.015215386 -0.019182445 -0.002400967 0.00044415978 0.039347272 -0.0118728 0.0012507932 -0.0032423818
-0.010428547 -0.005315256 -0.10044332 -0.04693752 0.014265031 -0.002580017 -0.011542547 -0.02638679
-0.014229017 0.024435164 0.07170435 -0.002089744 0.0015658976 -0.015750809 -0.0019362988 -0.019724771
-0.020691229 0.010925845 -0.040162224 -0.017449174 -0.012431089 -0.03970946 -0.015722709 -0.15986837
-0.054617304 0.011038281 -0.0036597042 -0.006185544 -0.0070760874 0.0065561044 -0.038468007 -0.11251836
00000000: 016d 3a3b 9768 08bc 19f3 7d3d c092 2fbd
00000010: f819 a3bc 8879 6dbc 9545 85bc cae3 c63c
00000020: c1ab dd3b 1645 273e bc9b 4abd 89da 0fbd
00000030: d8d0 a03b e593 c7bb 163e 1abc 4e3e 37bb
00000040: 7885 55bd 3bbd b5bd e482 333c 17f9 98bc
00000050: a7bb 96bc dce5 9bbc 0247 b0bb 2b1d dbbd
00000060: 3607 a93d a40d 3e3d e13b afbb b1ae 463c
00000070: 6505 b8bb a788 2f3c 30d1 673c fd7d fb3c
00000080: 642b 8abd 5968 113b 99e7 d7bc 2cc5 68bc
00000090: 489f 19bc 90ed 5a3d 78f7 8e3d e633 1dbc
000000a0: e99b abbc 7f71 a6bc 5d7c 88bc ba6f 51bc
000000b0: c5e7 1d3c 8c35 07bc 78fa 52bd b995 bbbc
000000c0: 5989 27bc 7d32 c639 4817 b9bc ea52 e53c
000000d0: d2b3 d0ba 97a5 04bd adaf a1bc 6f17 cd3b
000000e0: e76f 03bd 9d02 a2bc ece6 17bd 0a14 87bd
000000f0: 5d00 96bc 542a 8dbc 7f26 cdbb 9a42 61bc
00000100: 5047 0abd 2253 0f3c d0d2 82bd 2ef3 253d
00000110: 2d69 0abd e1df afbb 18a6 c3bc f15e f0bc
00000120: 9c21 78bd aca7 cabb 152a 9ebc 2c25 efbc
00000130: a5d2 ccbc 3bc1 debc 6bd7 34bc 808d b5bc
00000140: b835 0ebd f979 21bb e09f 62bc 357e 6dbc
00000150: a761 36bc 097f 27bd 0f69 e23c 5254 813b
00000160: 2b33 40bd 15ba 99bc 4912 e8bc 3607 db3b
00000170: 4fbb 593b a222 4f3d fc7d 81bd a9b0 b8bb
00000180: c9a3 f0bb b63e 9ebb 1729 493d 2ec7 663d
00000190: 0c3e ae3d b20b 3bbd e28d 0f3e 701d 2f3d
000001a0: f395 893d 1ce6 7c3d c05d 493c cb6e a23d
000001b0: 0db3 233d 3e1d 433d 0020 823d 388c 563d
000001c0: 3b6f 523d e6d5 a33c 0b3d ae3b cd29 653c
000001d0: 23a0 1c3e 3a44 a63c 0306 653d 139a 173d
000001e0: 78b2 233d d065 8fbc 57f8 cb3e 32e3 733d
000001f0: e562 263d 8c57 843d b3db d0bc 39da 00bc
00000200: a4da 003c 8163 c13d 9c33 4f3d 7170 a13b
00000210: aefe b4bb cb75 bbba 81c3 80bc 0b90 94bd
00000220: 6cfe ed3d c9b7 d13a 4d2f b2bc ab99 9ebb
00000230: 72c4 0dbc 6b0e 0a3b ded6 97bb 0513 133e
00000240: 0991 04bd 7435 e33b 52db c6bc 3a65 82bc
00000250: 8a29 1cbc b8ce cd3b a1f2 c33d 43d3 0b3c
00000260: bd74 a0bc b91c 3dbc fcc1 a0bc ca99 c5bc
00000270: a3e1 f2bc 86d5 10bd e867 8d3c 3bb2 07bc
00000280: d18b e8bc 51b0 2abd 334a 9cbc f8cf 55bd
00000290: 4f58 9a3d 2adf d8bc 54f1 e1bb 4828 053b
000002a0: cb5e a2bc 11e2 9fbc d7f4 05bd 2176 343d
000002b0: 5df4 41bc 62f3 6bbb ed6d c3bc 5bc4 fabc
000002c0: ec1a 3cbd 7dd3 06bd c50e d83c a9d7 7d3a
000002d0: cab1 48bc 6a0d 5dbb 94b8 1ebd b376 21bd
000002e0: ae85 f2bc b4ea ff3c 6eb7 693c f168 c0bc
000002f0: f0b8 22bb 4536 debc 9d6e fbbb 088a a3bd
00000300: 4b35 573c 4a1c e63c 755c d3bc 1218 10bd
00000310: fa1d a9bc 83d2 1dbd f264 21bd 5633 273d
00000320: afda b2bc e892 c0bc 49cd 24bc 6717 853b
00000330: 2d2d 8b3c e4dd 56bd 5e3d ab3d a266 9e3c
00000340: d352 8abb 48a0 9f3b b58a cebc e34e ccbc
00000350: 3668 93bc a95f 343d 7d06 093d fab8 02bc
00000360: f449 79bc 8124 9dbc 8b59 1dbb 1ede e839
00000370: 9b2a 213d 2286 42bc a8f1 a33a 247e 54bb
00000380: 7fdc 2abc 992b aebb 3ab5 cdbd 8f41 40bd
00000390: e0b7 693c 8115 29bb f31c 3dbc 1c29 d8bc
000003a0: d320 69bc 412c c83c bbd9 923d 16f4 08bb
000003b0: ce3e cd3a d707 81bc 68cb fdba d895 a1bc
000003c0: a780 a9bc 5102 333c 2581 24bd 92f1 8ebc
000003d0: c4ab 4bbc 63a6 22bd e9cc 80bc 89b4 23be
000003e0: 65b6 5fbd e8d9 343c a6d7 6fbb 1bb0 cabb
000003f0: 86de e7bb 97d4 d63b a190 1dbd 0770 e6bd

encoder.0.bias f4 [36]
0.034748007 0.010642953 -0.043035097 -0.06452749 0.0016127438 0.03846678 0.039201986 0.026657294
-0.0071975477 -0.06518455 -0.090060815 -0.037826397 0.049404975 0.017395569 -0.04584822 -0.016931687
-0.012259939 -0.015622319 0.06475498 0.002331366 -0.08883435 -0.06484442 -0.072154835 0.036518842
-0.06212516 -0.04232189 0.051295754 -0.05618327 -0.07078529 0.01777469 0.0208758 -0.035452608
-0.046366584 0.00055490766 -0.009316572 0.044576045
00000000: ed53 0e3d c85f 2e3c 9245 30bd fd26 84bd
00000010: b462 d33a 588f 1d3d 4392 203d 6660 da3c
00000020: 68d9 ebbb 7a7f 85bd ce71 b8bd daef 1abd
00000030: df5c 4a3d 2781 8e3c 58cb 3bbd 52b4 8abc
00000040: e9dd 48bc c1f4 7fbc 429e 843d d5c9 183b
00000050: c9ee b5bd 27cd 84bd eac5 93bd c894 153d
00000060: f476 7ebd b859 2dbd 7f1b 523d 6e20 66bd
00000070: e1f7 90bd 3a9c 913c ba03 ab3c c136 11bd
00000080: e3ea 3dbd 3977 113a 89a4 18bc 5f95 363d

encoder.1.weight f4 [36]
0.53447926 0.62346727 0.5546494 0.7269271 0.782541 0.7444756 0.5817759 0.47108477
0.460564 0.75148225 0.5730963 1.0609407 0.66765255 0.6151439 1.0129508 0.7720688
0.9063638 0.86980784 0.5743185 0.5902195 0.99693036 0.612004 1.0302936 0.2898918
0.96274173 0.6983413 0.65980184 0.910937 1.0190808 0.5722215 0.62899756 0.5160753
0.3952324 1.2296062 1.0166548 0.67765117
00000000: a2d3 083f 8d9b 1f3f 81fd 0d3f e517 3a3f
00000010: 9b54 483f f495 3e3f 44ef 143f 0632 f13e
00000020: 0bcf eb3e 2461 403f 70b6 123f e8cc 873f
00000030: 47eb 2a3f 127a 1d3f 5fa8 813f 4da6 453f
00000040: 7507 683f baab 5e3f 8a06 133f a018 173f
00000050: d436 7f3f 4bac 1c3f a9e0 833f b36c 943e
00000060: 3e76 763f 7fc6 323f c6e8 283f 2b33 693f
00000070: 3d71 823f 1c7d 123f fc05 213f 831d 043f
00000080: e75b ca3e bc63 9d3f bf21 823f 8c7a 2d3f

encoder.1.bias f4 [36]
-0.027905095 -0.021194046 -0.07617307 -0.06585631 -0.05069561 0.0006194632 0.055135686 0.02254937
-0.10608073 -0.05764531 -0.06657065 -0.08867777 0.08737354 0.032249328 -0.0790813 -0.051971667
-0.07942297 -0.079075366 0.028389359 -0.029768318 -0.069092125 -0.047341 -0.09385926 -0.05332355
-0.07232869 -0.046938516 0.019988343 -0.0700331 -0.085670546 0.07513533 -0.047377888 0.036861666
-0.08117814 -0.057523545 -0.0766389 0.044959303
00000000: 3a99 e4bc 239f adbc a000 9cbd acdf 86bd
00000010: 33a6 4fbd 7963 223a f5d5 613d 75b9 b83c
00000020: db40 d9bd 7d1d 6cbd 3156 88bd b19c b5bd
00000030: e6f0 b23d df17 043d 60f5 a1bd 3ee0 54bd
00000040: 83a8 a2bd 44f2 a1bd cd90 e83c b0dc f3bc
00000050: 2c80 8dbd a3e8 41bd 4939 c0bd cb69 5abd
00000060: 1021 94bd 9a42 40bd 98be a33c 846d 8fbd
00000070: 0a74 afbd 8de0 993d 510f 42bd 42fc 163d
00000080: ba40 a6bd cf9d 6bbd dbf4 9cbd 3f27 383d

encoder.1.running_mean f4 [36]
1.5190493 0.26772445 -0.4589368 -1.3992376 -1.0453086 1.7355884 2.3997061 2.2087717
-1.2109877 -0.8297961 -1.4864395 -0.652852 1.8180181 0.73186797 -0.7472874 -0.7151166
-1.1845202 -0.66485214 1.3374541 -0.5209799 0.048507333 -1.3556979 -1.4058267 -0.45628563
-1.4317125 -1.0065737 1.8460842 -0.63475084 -0.67777777 2.1023128 -0.7205553 1.113115
-1.0030899 -0.94858205 -0.73124593 0.81476855
00000000: 3570 c23f 2e13 893e c4f9 eabe 381a b3bf
00000010: accc 85bf c327 de3f c994 1940 845c 0d40
00000020: a501 9bbf 846d 54bf a643 bebf 4f21 27bf
00000030: d1b4 e83f b35b 3b3f 3a4e 3fbf e211 37bf
00000040: 5c9e 97bf c033 2abf b231 ab3f f05e 05bf
00000050: a0af 463d 8287 adbf 21f2 b3bf 459e e9be
00000060: 5b42 b7bf 68d7 80bf 7d4c ec3f 087f 22bf
00000070: d882 2dbf 4b8c 0640 5076 38bf 8d7a 8e3f
00000080: 4065 80bf 46d6 72bf ef32 3bbf ac94 503f

encoder.1.running_var f4 [36]
0.005660847 0.004304213 0.003427881 0.005583318 0.0037723894 0.0050857565 0.009098504 0.00828376
0.00499787 0.005475126 0.004754087 0.005189728 0.0076958216 0.009069387 0.00415499 0.0045902943
0.006177104 0.0041327584 0.0069281063 0.0040142634 0.004164114 0.0041080797 0.0051432755 0.00228075
0.0059994515 0.0056983675 0.006396081 0.0040394436 0.0045270114 0.008720405 0.005634035 0.008013519
0.00357378 0.0064598606 0.0042567886 0.006998952
00000000: a07e b93b 5b0a 8d3b 4da6 603b 44f4 b63b
00000010: 313a 773b 6ba6 a63b e411 153c 9cb8 073c
00000020: 2cc5 a33b b068 b33b 2cc8 9b3b 980e aa3b
00000030: 3b2d fc3b c497 143c 9526 883b 2e6a 963b
00000040: 4e69 ca3b 176c 873b 2b05 e33b 158a 833b
00000050: 1f73 883b 129d 863b ec88 a83b a378 153b
00000060: 0c97 c43b 5fb9 ba3b 3796 d13b 4f5d 843b
00000070: 5357 943b 08e0 0e3c b69d b83b 234b 033c
00000080: 1436 6a3b 3dad d33b 887c 8b3b 7757 e53b

decoder.0.weight f4 [36, 36, 3]
0.091040365 -0.019576889 -0.01592299 0.10071989 -0.025443703 -0.031313367 -0.06558594 -0.08935586
-0.018826148 -0.050188277 0.022426542 0.017727377 0.037483547 -0.013571194 -0.078493886 0.048619345
0.038435496 -0.004651975 0.009275569 -0.04124217 -0.06588127 0.027774176 -0.029139599 -0.040747665
-0.017694293 -0.08191792 -0.009977103 0.046715908 -0.071645044 0.035917096 -0.0621998 -0.035533715
-0.02316489 0.010276554 -0.04255048 -0.019850744 0.038871255 -0.053631626 -0.083794646 0.023646664
-0.09567505 -0.03481751 0.0002953707 -0.031034779 0.031317487 0.013676192 0.0006699149 0.012349726
-0.054037962 -0.016455896 0.10238087 -0.07790963 0.22146425 0.0917219 0.008627348 0.06528084
0.03277284 -0.013559825 0.10531242 -0.022474114 0.034763824 0.11435098 -0.037979905 0.05878139
0.08260266 -0.0016308288 0.014677395 -0.0050843894 0.016767606 -0.03583057 0.10969812 -0.004998202
0.0018858328 0.06616877 -0.0002783274 0.01903599 0.043441303 0.022032933 0.020770518 0.023514675
0.02402488 -0.02432069 0.054200966 0.040995512 -0.0053575845 0.05807973 -0.008275499 -0.023569433
0.06334928 0.0114691295 -0.029860208 0.06365005 0.028145852 -0.014097837 0.043113563 -0.010554025
-0.07323652 -0.019980012 -0.0018294281 0.0102118915 0.075756975 0.0064807045 0.023419494 0.01912571
-0.025393022 -0.03680979 0.011228038 0.013318529 -0.058078542 -0.12150406 0.052960176 -0.03239866
-0.070259474 -0.056538343 0.053445686 0.07452928 0.07755134 -0.024907775 0.030158034 -0.044498183
-0.035461254 0.0062430413 0.0566589 0.023907645 0.054675613 0.031222122 -0.017650908 0.02896117
0.02624727 0.01264598 0.020970942 -0.045051567 -0.028923625 -0.020563962 -0.053518776 0.037317123
0.019559324 -0.07408926 0.016277505 0.0489859 0.009985567 0.023663776 -0.02590353 -0.033002973
-0.022300994 -0.017738204 0.034105893 0.018737884 0.040285375 0.0286911 -0.019306507 -0.012162975
0.070644274 0.008499884 0.0047290185 0.012818047 0.0043245973 -0.04777556 -0.058365937 0.005264022
-0.024997903 0.09882791 0.013741185 -0.09056129 0.038801476 0.022857556 0.030516297 0.02346065
-0.044413686 0.013611401 0.04695049 -0.017860418 0.03252126 0.0071186097 0.024007857 0.019910999
0.004872883 -0.012024101 0.011319152 0.021487465 -0.0227632 0.034462247 -0.007204989 -0.023195997
0.015229016 0.02916291 0.02242419 0.012738652 -0.00810311 0.0058781863 -0.00020612334 0.014455361
0.05084488 0.021825625 0.016811946 -0.037625536 -0.0012080342 0.020464752 -0.024640406 -0.024367517
0.04935699 -0.039865788 0.019655952 0.018353447 0.01716553 -0.022355488 0.01293256 0.0097969
-0.010914043 0.0044224495 0.07700431 -0.07388756 -0.033996575 0.016149862 -0.08375686 0.060472444
-0.04173174 -0.008828759 -0.12349409 0.027998475 -0.034777734 0.04228769 0.014305554 0.049581528
0.097222716 0.03614005 0.02208773 -0.015124877 -0.052317772 0.012410616 0.029549984 0.037405223
-0.001468953 0.000106518724 -0.007930036 0.02033372 -0.011971879 -0.026914014 0.02449376 -0.031164788
-0.02776509 0.03483869 -0.026109627 -0.03285282 -0.01935379 -0.013449632 -0.035446864 0.047515318
-0.0036207775 0.0005661351 0.051195487 -0.016494378 -0.062028043 -0.014451057 0.0073300856 0.009308113
00000000: 5f73 ba3d b65f a0bc ee70 82bc 3b46 ce3d
00000010: 506f d0bc 7242 00bd ec51 86bd 3500 b7bd
00000020: 4b39 9abc 3992 4dbd deb7 b73c 0139 913c
00000030: 5988 193d b759 5ebc 67c1 a0bd 1425 473d
00000040: 8a6e 1d3d 986f 98bb 8ef8 173c 8ded 28bd
00000050: c2ec 86bd ab86 e33c 2bb6 eebc 06e7 26bd
00000060: 9ff3 90bc 95c4 a7bd 0177 23bc 2e59 3f3d
00000070: a3ba 92bd ce1d 133d 38c5 7ebd cd8b 11bd
00000080: 4cc4 bdbc fe5e 283c 6a49 2ebd 079e a2bc
00000090: 7737 1f3d d6ac 5bbd 879c abbd a6b6 c13c
000000a0: 48f1 c3bd ce9c 0ebd fcdb 9a39 a63c febc
000000b0: c446 003d 1b12 603c 3a9d 2f3a 8156 4a3c
000000c0: e956 5dbd 84ce 86bc 10ad d13d 168f 9fbd
000000d0: 86c7 623e b1d8 bb3d b859 0d3c f6b1 853d
000000e0: d03c 063d 072a 5ebc 0aae d73d a21b b8bc
000000f0: 8364 0e3d d930 ea3d d190 1bbd c1c4 703d
00000100: 952b a93d 89c1 d5ba 7579 703c f39a a6bb
00000110: 385c 893c 13c3 12bd 68a9 e03d f5c7 a3bb
00000120: 0c2e f73a 7e83 873d 79ec 91b9 5df1 9b3c
00000130: 82ef 313d 697e b43c ef26 aa3c d9a1 c03c
00000140: d3cf c43c 2f3c c7bc d501 5e3d e9ea 273d
00000150: ad8e afbb 03e5 6d3d f595 07bc af14 c1bc
00000160: 44bd 813d 04e9 3b3c 659d f4bc f55a 823d
00000170: 2192 e63c 9dfa 66bc d997 303d caea 2cbc
00000180: 07fd 95bd 1fad a3bc 6cc9 efba c74f 273c
00000190: 7926 9b3d 175c d43b 3dda bf3c 85ad 9c3c
000001a0: 0705 d0bc ddc5 16bd cef5 373c f635 5a3c
000001b0: c4e3 6dbd 1fd7 f8bd c5ec 583d 75b4 04bd
000001c0: 33e4 8fbd c094 67bd dde9 5a3d cfa2 983d
000001d0: 3dd3 9e3d 640b ccbc fb0d f73c ba43 36bd
000001e0: d23f 11bd 6d92 cc3b 2a13 683d f7d9 c33c
000001f0: 89f3 5f3d 89c5 ff3c a398 90bc fa3f ed3c
00000200: 8404 d73c 1631 4f3c 41cb ab3c fe87 38bd
00000210: 3df1 ecbc c175 a8bc 8136 5bbd d7d9 183d
00000220: e03a a03c 1cbc 97bd 6758 853c 70a5 483d
00000230: 819a 233c 89da c13c a433 d4bc 202e 07bd
00000240: 93b0 b6bc b64f 91bc 9fb2 0b3d 3180 993c
00000250: 4702 253d 9909 eb3c ae28 9ebc 3747 47bc
00000260: f2ad 903d 1943 0b3c e2f5 9a3b c902 523c
00000270: 5ab5 8d3b 4eb0 43bd 1f11 6fbd d17d ac3b
00000280: 67c8 ccbc 4a66 ca3d b522 613c 3378 b9bd
00000290: 4cee 1e3d c53f bb3c 50fd f93c 8d30 c03c
000002a0: 20eb 35bd 5b02 5f3c 284f 403d 0350 92bc
000002b0: 0335 053d 3a43 e93b 20ac c43c 641c a33c
000002c0: b5ac 9f3b bc00 45bc f773 393c 7b06 b03c
000002d0: e479 babc 4928 0d3d d417 ecbb 8805 bebc
000002e0: 1f83 793c 0ee7 ee3c efb2 b73c c7b5 503c
000002f0: e8c2 04bc cd9d c03b d022 58b9 2ed6 6c3c
00000300: b942 503d a7cb b23c 35b9 893c 3c1d 1abd
00000310: e756 9eba b2a5 a73c adda c9bc 639e c7bc
00000320: 8e2a 4a3d 4f4a 23bd 8505 a13c f859 963c
00000330: ba9e 8c3c db22 b7bc 17e3 533c 2d83 203c
00000340: d0d0 32bc 32ea 903b 70b4 9d3d 5c52 97bd
00000350: fe3f 0bbd b74c 843c b788 abbd f4b1 773d
00000360: e7ee 2abd 80a6 10bc 78ea fcbd 0f5d e53c
00000370: 1973 0ebd db35 2d3d d861 6a3c 0016 4b3d
00000380: b41c c73d 9707 143d 54f1 b43c 55ce 77bc
00000390: 294b 56bd e555 4b3c cf12 f23c 3836 193d
000003a0: e289 c0ba ce62 df38 fbec 01bc e792 a63c
000003b0: b325 44bc c77a dcbc 23a7 c83c 4c4d ffbc
000003c0: 9d73 e3bc 04b3 0e3d dbe3 d5bc ae90 06bd
000003d0: d78b 9ebc d85b 5cbc bb30 11bd 6c9f 423d
000003e0: 914a 6dbb af68 143a 5cb2 513d 381f 87bc
000003f0: 1e11 7ebd 20c4 6cbc 3731 f03b 0e81 183c

decoder.0.bias f4 [36]
0.018584218 -0.047864143 -0.015799232 0.005671502 -0.03503079 -0.11223823 -0.09720446 -0.14969204
-0.080744565 -0.18093924 -0.073270455 -0.05461427 -0.057884526 0.027116679 -0.05008388 0.1224518
0.04867449 0.016655369 -0.07592255 0.01416445 -0.07555382 -0.06783351 -0.0032373893 -0.03399804
-0.15821292 -0.11454566 -0.06839065 -0.14515442 -0.15236692 -0.12053396 -0.17114168 -0.061574113
-0.03513696 -0.02670685 0.043990314 -0.080748126
00000000: ee3d 983c 310d 44bd 646d 81bc 02d8 b93b
00000010: 727c 0fbd 28dd e5bd 2213 c7bd df48 19be
00000020: 685d a5bd 2348 39be d20e 96bd 36b3 5fbd
00000030: 5318 6dbd cc23 de3c c124 4dbd 02c8 fa3d
00000040: e75e 473d d770 883c 487d 9bbd 0212 683c
00000050: f6bb 9abd 4cec 8abd 612a 54bb 8741 0bbd
00000060: 9102 22be ea96 eabd 6610 8cbd 5ca3 14be
00000070: 1306 1cbe 82da f6bd c43f 2fbe 2335 7cbd
00000080: c6eb 0fbd 53c8 dabc 302f 343d 465f a5bd

decoder.1.weight f4 [36]
0.4686064 0.53550977 0.50710577 0.4127061 0.6421315 0.7043349 0.65596545 0.6840628
0.7569541 0.7008064 0.7256045 0.752333 0.7842574 0.7423529 0.656062 0.78679353
0.38634428 0.33097658 0.5073704 0.54601693 0.6157172 0.6335578 0.727193 0.7637194
0.7548578 0.75734764 0.67260396 0.7771525 0.7696656 0.6612008 0.7258748 0.6843629
0.6795956 0.691875 0.6160501 0.58444476
00000000: 2eed ef3e 2b17 093f afd1 013f 374e d33e
00000010: bb62 243f 4b4f 343f 5aed 273f bd1e 2f3f
00000020: bec7 413f 0c68 333f 37c1 393f e598 403f
00000030: 18c5 483f d70a 3e3f aef3 273f 4d6b 493f
00000040: ebce c53e c375 a93e 07e3 013f c4c7 0b3f
00000050: a49f 1d3f d830 223f 5229 3a3f 1d83 433f
00000060: 5c3e 413f 89e1 413f c62f 2c3f 77f3 463f
00000070: ce08 453f 7544 293f eed2 393f 6832 2f3f
00000080: faf9 2d3f b81e 313f 76b5 1d3f 2c9e 153f

decoder.1.bias f4 [36]
-0.104941025 -0.096967 -0.08723207 -0.107006 -0.09728069 -0.1007785 -0.106761515 -0.1383005
-0.121246316 -0.13084376 -0.13191082 -0.1341021 -0.096393995 -0.09783223 0.07601819 0.1074721
0.070079006 -0.06790987 -0.1004888 -0.081116386 -0.094539426 -0.066563874 -0.14001393 -0.13483155
-0.12194172 -0.14360131 -0.11232621 -0.118962765 -0.109515116 -0.115326144 -0.1232151 -0.097021
-0.08077628 -0.07550435 -0.1057581 -0.107447565
00000000: 52eb d6bd a296 c6bd baa6 b2bd f625 dbbd
00000010: 193b c7bd f564 cebd c8a5 dabd a59e 0dbe
00000020: fd4f f8bd e8fb 05be a113 07be 1052 09be
00000030: 376a c5bd 445c c8bd 6daf 9b3d 551a dc3d
00000040: 9585 8f3d 5414 8bbd 12cd cdbd 5920 a6bd
00000050: e39d c1bd a452 88bd d05f 0fbe 4811 0abe
00000060: 95bc f9bd 390c 13be 490b e6bd c0a2 f3bd
00000070: 7649 e0bd 1d30 ecbd 3358 fcbd f2b2 c6bd
00000080: 096e a5bd 06a2 9abd b497 d8bd 780d dcbd

decoder.1.running_mean f4 [36]
0.033760384 -0.03413065 -0.0143309925 0.035176735 -0.015046305 -0.07127512 -0.06373 -0.08828218
-0.042641766 -0.12646405 -0.012525534 -0.0068491125 -0.032819584 0.05401944 -0.061084874 0.0928758
0.019329192 -0.004418655 -0.05869602 0.016966123 -0.063944176 -0.061524957 0.045841306 0.02734804
-0.115914084 -0.0445706 -0.036634665 -0.10016815 -0.11698428 -0.08575766 -0.124362834 -0.04268241
-0.024358593 -0.013760975 0.05908376 -0.055633783
00000000: 5448 0a3d 95cc 0bbd 8acc 6abc 7b15 103d
00000010: c784 76bc b1f8 91bd e084 82bd 4acd b4bd
00000020: 22a9 2ebd cb7f 01be e637 4dbc 856e e0bb
00000030: d46d 06bd 7d43 5d3d 2234 7abd ab35 be3d
00000040: 4158 9e3c 5dca 90bb 3d6b 70bd 8afc 8a3c
00000050: 2af5 82bd 9801 7cbd 18c4 3b3d ff08 e03c
00000060: 5d64 edbd a98f 36bd 3b0e 16bd f624 cdbd
00000070: 7495 efbd b6a1 afbd f1b1 febd c0d3 2ebd
00000080: ac8b c7bc b675 61bc d001 723d 40e0 63bd

decoder.1.running_var f4 [36]
0.67100674 0.5135872 0.7982832 0.13118325 0.7950965 0.8308148 0.7566383 0.9629333
0.79499024 0.5586028 0.70648915 0.42435503 0.7280032 0.8274097 0.38221866 0.22786137
0.57294434 0.67780066 0.48791552 0.9122877 0.7598232 0.9348037 0.44499606 1.0074615
0.591557 0.46828613 0.10615859 0.43160343 0.94007456 0.45150182 0.75376976 0.631767
0.6273897 0.63322103 0.44418985 0.59418315
00000000: 19c7 2b3f 737a 033f 4a5c 4c3f e754 063e
00000010: 728b 4b3f 47b0 543f 0cb3 413f cc82 763f
00000020: 7b84 4b3f 9800 0f3f 79dc 343f 1045 d93e
00000030: 6b5e 3a3f 1fd1 533f 2ab2 c33e 7e54 693e
00000040: 7bac 123f 5884 2d3f 10d0 f93e b08b 693f
00000050: c683 423f 4c4f 6f3f 86d6 e33e 80f4 803f
00000060: 4870 173f 33c3 ef3e ad69 d93d 20fb dc3e
00000070: baa8 703f 3f2b e73e 0ef7 403f 7bbb 213f
00000080: 9d9c 203f c61a 223f da6c e33e 631c 183f
