trained_models/D678:00AD:DD65:52D8.pt (torch, 51703 bytes, 36 tensors)

encoder.0.weight f4 [18, 36, 5]
000000 19 02 57 bd d7 83 89 3d f5 73 04 be 10 7e ac 3c
       -0.052492235 0.067145996 -0.12934859 0.021056205
000010 a6 67 d5 3c a6 b4 00 bd a5 d2 a8 b9 ff 4e f5 bb
       0.0260504 -0.03142228 -0.000322004 -0.0074862237
000020 e5 d3 d0 bc 2e a6 2c bc 3d 5c 67 3c 69 83 5b bc
       -0.025491664 -0.010537667 0.014121112 -0.01339803
000030 06 f6 63 bc b8 f0 1a 3c 6b ef 85 3d ee 88 95 bd
       -0.013913637 0.009456806 0.06539806 -0.07301508
000040 0c 5a 53 3c 34 88 d3 bd 66 ae e1 3c 84 53 51 3c
       0.012899887 -0.10328713 0.02754898 0.012776259
000050 ac 8e fb bc 99 43 d0 3b c3 92 a7 bd 4f 1b fb 3c
       -0.03070768 0.0063557145 -0.081822895 0.03065267
000060 5c 71 d4 bc 4f 62 3f bd d7 7a b4 bc 03 c2 b3 bd
       -0.02593296 -0.046724614 -0.02203123 -0.08777239
000070 c6 2e ab bc 2a 07 ac 3c b0 d2 a6 bd da 39 24 bd
       -0.020896327 0.02099951 -0.08145654 -0.040094234
000080 b7 a5 ab bd 17 6c b7 3c 68 25 5f 3c c6 2f e4 bc
       -0.08381217 0.022390408 0.013619758 -0.027854811
000090 7b 81 67 bd ef b1 87 bd 6d c0 8e 3d ea c9 8e bc
       -0.056519967 -0.06625735 0.06970296 -0.017430265
0000a0 24 9d a7 bc e2 d4 54 3c 35 21 55 bd 7d 3f 98 3d
       -0.020460673 0.012990208 -0.05203362 0.074339844
0000b0 f2 f3 c2 3c 3b 7f c8 bc b5 03 92 bd f3 d8 69 bd
       0.023797963 -0.02447473 -0.07129613 -0.057091665
0000c0 a9 18 ca 3c cc 57 1a bc f3 a6 98 bc 5c 7d 60 bd
       0.024669962 -0.0094203465 -0.018634295 -0.054807052
0000d0 93 ce 9e bd 71 77 5d 3d ec 22 28 3d b9 be df bc
       -0.07754245 0.054068986 0.04104893 -0.027312623
0000e0 76 1f 1a bd d5 4b 34 bd 7b 7c 65 3d 3a 80 4b 3d
       -0.03762766 -0.04401763 0.056026917 0.049682833
0000f0 d3 df 04 3d 68 e7 22 bc 2c 0c 84 bd cb ac 48 bd
       0.032440018 -0.009942867 -0.06447634 -0.048992913
000100 e4 ac a0 b9 5c 25 96 3b ec 14 90 bc b2 fe 1c bb
       -0.00030646392 0.0045820903 -0.017588101 -0.0023955521
000110 bc 60 2a 3d 05 ea a0 3d 81 c2 b7 bc 62 8e 3b 3d
       0.04159616 0.07857136 -0.022431614 0.045790084
000120 3f f7 dd bc f2 4e 9a 3c 07 ab 18 3d 91 cb d3 3c
       -0.027095435 0.018836472 0.03727248 0.025853904
000130 ec ae 64 bc d1 c5 83 3d 7d 4a 09 bd bc 45 92 bc
       -0.01395772 0.06434215 -0.033518303 -0.017855518
000140 11 70 58 3c f4 40 77 bd 1c e9 63 bd cc f1 4d bd
       0.013210312 -0.06036468 -0.055642232 -0.050279424
000150 e2 a5 61 bd 00 97 db 3c a5 62 c2 bc 2b 7a 3d bd
       -0.05508984 0.0268054 -0.023728678 -0.046259087
000160 7a 4b 8d 3b 41 c8 98 ba 66 ea 90 bd f3 47 fd 3a
       0.004311976 -0.001165636 -0.07075958 0.0019323811
000170 f6 0d eb bd ff 65 d7 3c 1b 1a 39 bd e8 72 a9 bd
       -0.11477272 0.026293753 -0.04519091 -0.0827387
000180 75 5a b5 ba 0b 3d 04 bd 78 15 cf 3c f0 ee 92 bd
       -0.0013836162 -0.032284778 0.025278792 -0.0717448
000190 40 d3 18 bd c3 22 2e 3b d4 07 9b bc 20 6a 15 bd
       -0.03731084 0.0026571013 -0.018924631 -0.03647816
0001a0 55 d0 7f 3c 65 6c 83 bd 80 41 b2 bb 8e fe e3 bd
       0.015613635 -0.06417159 -0.005439937 -0.11132537
0001b0 87 7c 62 3c 15 20 c6 3c 8a 92 67 bd 43 78 c5 bd
       0.013823635 0.02418522 -0.056536235 -0.09642079
0001c0 45 0b 7d bd aa a4 af 3c c9 f6 9f 3c 36 be 2d bd
       -0.061778326 0.021440823 0.019526856 -0.042417727
0001d0 a7 f6 b0 bd c1 c7 8d bd b6 ab 8f 3c 23 e4 a9 3d
       -0.08640795 -0.06922866 0.017537933 0.08295467
0001e0 d9 bd 4a bd 72 f2 83 bd 68 35 81 bd e5 b2 13 3d
       -0.04949746 -0.06442727 -0.063090146 0.03605928
0001f0 01 3b 7a 3d 15 f0 27 bd 2d fa 02 bd 9d 01 0e 3c
       0.061091427 -0.041000444 -0.031976867 0.008667377
000200 21 fb 45 3d 3d 40 e6 3c de 55 3b bd 54 16 be bd
       0.0483352 0.028106803 -0.045736186 -0.092816025
000210 93 bc b5 bc 34 5d 11 bd cc 18 9b 3c ec f2 ac 3c
       -0.022184646 -0.035489276 0.018932723 0.021111928
000220 04 3f 8b bd 71 75 24 3c dc 14 3b 3c 84 ac 15 3d
       -0.06799129 0.010037766 0.0114185475 0.036541477
000230 f8 cc 97 3b f0 4f 36 bc 9a 8b ab bd 76 53 69 bd
       0.0046325885 -0.011127457 -0.08376236 -0.05696436
000240 26 f2 03 bb 8e e7 a9 ba c8 fb ad bd 57 6a 18 3c
       -0.0020133345 -0.0012962685 -0.08495289 0.009302697
000250 7b 9a ef 3b a0 49 71 3d 48 70 55 bd 22 67 36 bd
       0.0073121167 0.058908105 -0.052109033 -0.04453195
000260 7b 9b 12 bd 4c eb b7 3c c3 f5 e1 bb 1a c9 7e bd
       -0.03579281 0.022451065 -0.006895752 -0.062203504
000270 1b 5b e2 bb c0 c6 3f bc 38 0f 4b 3a 33 72 bc bc
       -0.0069078333 -0.011705101 0.0007746103 -0.023003673
000280 7b ec 0e bc d3 cf 6a bd 39 06 52 bd ce 14 80 bc
       -0.0087233735 -0.057327103 -0.051275466 -0.01563492
000290 c0 95 53 3d 78 68 2e bd 04 37 88 bd 61 47 a4 bd
       0.051656485 -0.042580098 -0.066511184 -0.08021427
0002a0 32 15 25 b9 bd cf 4b 3d 69 44 50 3c 33 68 b1 bd
       -0.00015743522 0.04975866 0.012711623 -0.086624525
0002b0 06 10 ae 3b a8 ce fd 3c 67 6e a0 3d 02 d8 38 bd
       0.0053119687 0.03098233 0.078335576 -0.045127876
0002c0 f4 c3 ec 3d 6b 48 e1 bc b0 bb be 3c bf 4b 1b 3e
       0.115608126 -0.027500352 0.023282856 0.15165614
0002d0 60 e3 fe bd 90 c2 11 be d1 bd f0 bd 5a 1e c8 bc
       -0.12445712 -0.14234376 -0.117549546 -0.024428535
0002e0 b5 6f e7 bd df 2e 21 bb 0d bf c2 bd fc 2a 2a 3c
       -0.11300603 -0.0024594588 -0.09509096 0.010386225
0002f0 57 6e 70 bd 4d 9f 2b bd c6 73 9e bc 56 9a 67 3c
       -0.05869898 -0.041899968 -0.019342314 0.014135918
000300 96 67 1e 3d 26 bf 83 3c 4d 4b d8 3c 39 ec 1b 3c
       0.038673006 0.016082358 0.026403094 0.009516769
000310 1f 34 d1 3c c5 48 07 bc 0b 2a 42 3d 33 5f 05 bc
       0.025537549 -0.008257096 0.047403377 -0.008140373
000320 00 ea 1d 3d 00 89 c3 3b 57 c7 1d bc 76 c6 2b bc
       0.038553238 0.0059672594 -0.009630046 -0.0104843285
000330 df 89 7c 3d cf d4 84 3d 9e e5 93 bb a2 a4 2b 3d
       0.06165492 0.064859025 -0.0045134565 0.041905053
000340 d3 31 08 bd 89 91 3c 3d af c8 de bc 8a 80 80 3c
       -0.03325064 0.04603723 -0.027195303 0.015686292
000350 d4 91 87 bc 66 1a 86 3d e8 9c 2f 3d b4 aa 47 3d
       -0.016549028 0.06548004 0.042874247 0.04874678
000360 03 d9 39 bd e6 23 b8 3d 93 ff ec 3c e9 09 3a bb
       -0.045372974 0.08991222 0.028930461 -0.0028387255
000370 b5 89 4a bd ec 36 87 3d 5e 0b 30 bc e1 cd b0 3d
       -0.049447734 0.066022724 -0.010744898 0.08633018
000380 bf e8 b6 3d 22 3d fc bb 42 00 27 3d dc d8 27 bd
       0.089311115 -0.0076977173 0.04077173 -0.040978298
000390 91 51 e3 3c 8d c9 0d 3d 90 d7 6b 3d a7 9a 87 3d
       0.027748855 0.034616042 0.057578623 0.066212945
0003a0 1f ba 22 bd 8f d9 e0 3b 9c 76 0f 3d a7 62 18 bd
       -0.03972828 0.0068618725 0.035025224 -0.037203457
0003b0 28 6b fd bb e0 e5 62 3d 18 dc cf 3c d4 e0 d6 bc
       -0.0077337213 0.055395007 0.025373504 -0.026230253
0003c0 6a 07 6e bd 3f 9b 88 bd d3 da aa bd b6 b2 26 3c
       -0.05811254 -0.06670236 -0.08342519 0.010174444
0003d0 72 e1 55 3d 4e 26 23 bd 98 b0 37 3d 91 14 99 3d
       0.052216955 -0.039831452 0.044846147 0.07474626
0003e0 e3 2a e4 bc a6 b3 8f 3d da d4 07 bb 22 4c 14 bb
       -0.027852481 0.07016687 -0.0020726235 -0.0022628387
0003f0 f7 85 54 3c 8d 16 c4 3d a8 1d 6e 3c 38 a4 4f 3d
       0.012971393 0.09574614 0.014533438 0.05069372

encoder.0.bias f4 [18]
000000 2f aa 6f 3d a5 27 7e bd aa 52 61 3d 93 76 c4 bb
       0.05851191 -0.062049527 0.055010475 -0.0059955805
000010 90 09 82 bb fc 4e cf 3c 85 14 30 3d 44 0a c6 bb
       -0.003968425 0.025306217 0.04298832 -0.006043704
000020 b7 5a e1 3b 63 df f6 3d ed 5b 27 bc e0 fd 71 3d
       0.006877269 0.120543264 -0.010214788 0.059080005
000030 b1 7c 8f 3d bb 32 24 bd 58 ff 22 3d a4 e8 09 bd
       0.07006205 -0.040087443 0.039794296 -0.03366913
000040 72 c9 1f 3d 77 6a bb 3d
       0.039010473 0.09151166

encoder.1.weight f4 [18]
000000 80 7e 55 3f 9a ac 41 3f 39 39 64 3f cb dc d7 3e
       0.8339615 0.75653994 0.89149815 0.4216064
000010 30 bc 71 3f 26 df 93 3f fa 00 53 3f 50 67 5f 3f
       0.94427776 1.1552474 0.82423365 0.8726702
000020 00 ef 46 3f 01 6e 53 3f d4 65 5a 3f 69 72 70 3f
       0.77708435 0.8258973 0.8531163 0.93924576
000030 a3 4b 66 3f e3 be 5d 3f a8 93 4f 3f 02 64 48 3f
       0.8995916 0.86619395 0.8108468 0.782776
000040 ad 4e 15 3f 26 68 e1 3e
       0.58323175 0.4402477

encoder.1.bias f4 [18]
000000 8c 7d b5 3b 18 a1 31 bc de c4 6f bc 4e f3 6d bc
       0.005538648 -0.01084163 -0.014634339 -0.01452334
000010 75 8f 19 bc a0 e8 77 3b 3d d0 07 bd 1b 8e 78 bd
       -0.009372582 0.0037827864 -0.033157576 -0.060682397
000020 a4 6f be bc 03 cb cd 3d 52 f2 1d 3b 7c f6 3a bd
       -0.023246594 0.10048487 0.0024100733 -0.045645222
000030 e7 1a ac 3b d4 da 50 bd a6 37 c4 3c 97 f1 e5 bc
       0.0052522304 -0.05098994 0.023952316 -0.0280693
000040 69 a4 06 bc 7b 4d 56 3c
       -0.008217909 0.013079996

encoder.1.running_mean f4 [18]
000000 f1 07 6d 3f 29 09 2f bf bd 01 e4 3d 1d 68 bc 3f
       0.9259024 -0.6837335 0.11133144 1.4719273
000010 59 3a 26 bf 62 21 3e bf 26 78 30 bf 08 8a 77 be
       -0.6493278 -0.7426969 -0.6893333 -0.24173748
000020 65 f0 24 bf 56 3b 15 3f f9 a8 8e 3f fd 8b 35 bf
       -0.6442931 0.58293664 1.1145316 -0.7091673
000030 6a d8 46 3e 84 1e 46 bf 6e e0 82 3d 4d ef 46 3f
       0.19418493 -0.77390313 0.06390463 0.77708894
000040 0e 89 28 be ca 61 2d 3f
       -0.16458532 0.6772734

encoder.1.running_var f4 [18]
000000 67 c3 32 3b 68 bf ac 3a 9e 33 c6 3a 93 b7 0a 3b
       0.0027277113 0.0013179602 0.0015121584 0.0021166548
000010 47 36 20 3b 10 07 2c 3b 63 b8 30 3b 55 88 50 3b
       0.0024446414 0.0026249327 0.0026965372 0.0031819541
000020 08 7e fd 3a 9b a1 2d 3b 14 18 11 3b f5 51 5d 3b
       0.0019339928 0.002649403 0.0022139596 0.0033770774
000030 5a 56 94 3a 4d 79 00 3b d7 86 df 3a 3c a4 ee 3a
       0.0011317239 0.001960355 0.0017053735 0.0018206905
000040 2b c2 fa 3a c6 02 ff 3a
       0.0019131353 0.0019455783

encoder.3.weight f4 [9, 18, 5]
000000 9e d5 f9 3b 21 00 e3 bc cd 95 b8 3d 75 54 71 bd
       0.007624342 -0.027710022 0.09012947 -0.058918435
000010 5f 3e 59 3d 21 61 02 bd 14 09 e5 bc b1 af 04 3d
       0.053037997 -0.03183091 -0.02795843 0.032394115
000020 26 04 17 bd 44 fb 92 bc 49 47 24 bd 3a 86 10 3c
       -0.03686919 -0.017942078 -0.040107045 0.008821065
000030 ef da 31 3d 50 06 3e 3c a1 54 66 3c 31 1d 6c 3c
       0.043421682 0.011598185 0.014058263 0.014411257
000040 92 b8 27 bd 75 ad 2c 3d ba 60 8d 3c 44 89 61 bc
       -0.040947504 0.04215761 0.017258037 -0.013765637
000050 1f d4 ec 3d bf 32 30 bd e9 17 0d bd 74 de 93 bc
       0.115638964 -0.043017145 -0.03444663 -0.01805041
000060 6e 9a 03 bd b8 da a5 3d 73 24 16 3d bb 2d 2d bd
       -0.032129698 0.08098358 0.036655854 -0.04227994
000070 46 df 98 3c d5 19 dc 3b ed 7a 73 3c 98 77 43 3c
       0.018661153 0.0067169466 0.014860851 0.011930369
000080 d9 6d 00 bc ed f4 91 bc 24 0d 98 3c 61 d2 9b 3d
       -0.00783869 -0.017816985 0.018560953 0.07608486
000090 df 1c 8d bd ce b8 86 3d 17 25 90 bc 77 b5 bb bc
       -0.06890272 0.065782174 -0.01759581 -0.022913678
0000a0 8d 09 d4 bd 02 f8 fe 3b 77 25 bb 3c 98 04 1c bc
       -0.10353384 0.0077810297 0.022845013 -0.00952258
0000b0 86 48 cd 3c c5 c1 47 3c 91 c9 75 bd d4 e3 b6 bd
       0.025058996 0.012192194 -0.06000668 -0.089301735
0000c0 b2 48 84 bd 8a 27 bb 3c 5b 2d a4 3c c7 0d 77 3d
       -0.06459178 0.022846002 0.020041158 0.060315873
0000d0 be 46 18 bd 50 6c b8 bb c9 05 9d 3c ca 5e 45 3d
       -0.03717684 -0.005628146 0.019167798 0.0481861
0000e0 b3 23 0d bd 97 3c e8 bc fa f3 ab 3d 75 f9 9a 3b
       -0.034457874 -0.028349204 0.08396144 0.0047294446
0000f0 3f 63 1c bd 39 6a 8f 3d e8 ed 8f bc 72 47 d3 bc
       -0.038180586 0.07002682 -0.017569497 -0.025790904
000100 ad 86 c1 bc 4f 07 4c bd 88 68 9f 3c 5f f5 0c 3c
       -0.023623789 -0.049811658 0.019459024 0.008603423
000110 78 ad d6 bc a1 24 36 3d cb 2c 8a bc 10 f4 25 bd
       -0.026205763 0.044468526 -0.016867062 -0.04051596
000120 e1 53 4f 3b ee 1f ca 3d 7d 5a 18 bc 8b c7 3a bd
       0.003163569 0.09869371 -0.009298918 -0.045600455
000130 21 b9 13 3d 33 4a f3 3b be 82 14 3d 5d 64 d8 bb
       0.036065225 0.0074246167 0.036257498 -0.006603761
000140 2a ff 08 bd d9 b6 99 bc 1d 24 88 3d 87 71 59 bb
       -0.03344647 -0.018763946 0.06647513 -0.003317924
000150 cc b0 bb bb ae be 38 3c 00 18 dd 3d 79 a6 1b bd
       -0.005727863 0.01127593 0.10795593 -0.038000558
000160 bb fe 38 bd 96 1c 44 bd 1e f6 c7 bd b0 39 0a bd
       -0.045164805 -0.047878824 -0.0976374 -0.03374642
000170 cf 0f 3f 3d 9a 05 65 ba 0b fd e7 bd e2 60 0c 3d
       0.046645936 -0.00087364914 -0.11327561 0.034272082
000180 fb ee 8d 3d 50 c2 e0 3c 45 4f 53 3d a2 ca 17 bd
       0.069303475 0.027436405 0.05158927 -0.03705848
000190 3a c4 d0 bb db dd 25 3d a2 8b fa 3c 8b c8 4e bc
       -0.0063710483 0.04049478 0.03058416 -0.012621055
0001a0 80 65 3d bd 7e 40 98 bd 06 ac 1e 3d e9 72 4b bd
       -0.046239376 -0.07434176 0.038738273 -0.049670134
0001b0 1d b1 0c bd ab 5c f8 bc 3d d1 bb bb e6 14 9c 3c
       -0.034348596 -0.030317625 -0.0057317303 0.019052934
0001c0 74 d2 3c 3d 4c 4d 9a 3c bf e2 3e bb fb fd 73 bd
       0.04609914 0.018835686 -0.002912685 -0.059568387
0001d0 70 a5 60 3d 7b 61 ca 3d 76 5e a5 bd 00 dc 3c 3d
       0.054845273 0.09881874 -0.080746576 0.046108246
0001e0 45 7c be 3c b3 e4 c0 3c ac 8d da bc 76 a3 5f bc
       0.023252616 0.023546552 -0.026678883 -0.013649812
0001f0 e9 6b 17 3c dc 28 84 bd f0 a3 fd 3d d6 7e b8 3d
       0.009242036 -0.06453106 0.12384784 0.09008567
000200 2f b8 a9 3d 6f dd af bd 10 ce 78 3c 68 c9 e9 3d
       0.08287083 -0.08587157 0.015185848 0.11415368
000210 c7 39 8d 3d 94 b5 c7 bd 06 90 20 3b 24 2b e7 3d
       0.06895786 -0.0975143 0.0024499907 0.11287525
000220 cb 79 a7 bd 71 ab b0 3c 22 d8 95 bc 60 10 96 3d
       -0.08177527 0.021566125 -0.018291537 0.07327342
000230 cb a3 18 3d b8 48 0c bc d3 60 8b 3b 7e 6d b9 3d
       0.03726558 -0.008562259 0.0042534857 0.09054087
000240 44 77 9f 3c ca f3 b1 bd a6 a7 0c 3d 4c 50 e1 bd
       0.01946605 -0.08689077 0.03433957 -0.110016435
000250 ad 93 0a 3d dd 77 9e 3d 5c 89 0b 3d f2 74 97 bd
       0.03383224 0.07737706 0.034066543 -0.073953524
000260 e2 5c f6 3c 2f 47 1b bc 2d b5 29 bb 37 1a c5 bc
       0.030073587 -0.009477421 -0.0025895343 -0.024060352
000270 bd 9a d4 bd d0 ea 22 3d 68 d8 87 bd a5 ac 96 bd
       -0.103810765 0.039774716 -0.06633073 -0.07357148
000280 9a 94 8b bd f2 df ca bc 32 b8 a7 3a c3 b5 ad bb
       -0.06815453 -0.024764989 0.0012795983 -0.0053012087
000290 6c 71 48 3d 37 59 3d 3b 6e 85 df 3c f7 35 f0 bb
       0.048936293 0.0028892288 0.027285304 -0.007330652
0002a0 46 d0 0b be 30 e6 94 3d 8c ff 6b 3d e7 0f 30 bd
       -0.13653669 0.07270467 0.057616755 -0.042983916
0002b0 c1 5c a6 bc e8 df 90 3e c7 67 ab bc ad 6c 2f 3b
       -0.0203079 0.28295827 -0.020923508 0.0026767657
0002c0 43 30 8e bd bc c6 39 3e 7c 35 8d 3c 29 77 09 be
       -0.06942799 0.18142217 0.017237417 -0.13424362
0002d0 eb ca ce bc 9d ec 12 bd d0 67 74 3c d8 8c 87 bd
       -0.025243243 -0.035870183 0.014917329 -0.06618661
0002e0 bf d7 d5 3d d2 09 a2 bc 86 ae 50 bc 26 58 d4 3d
       0.10441541 -0.019780073 -0.012736922 0.103683755
0002f0 ef 1c 84 3d 79 23 3d bd 81 87 9c 3d 80 41 a0 3d
       0.06450831 -0.046176407 0.07643033 0.07824993
000300 b0 a9 42 3d 47 24 0a 3d 95 9d 49 bd 4a a7 f2 ba
       0.047525108 0.033726003 -0.049222548 -0.0018512991
000310 4f ae 8a 3c 12 91 84 3d 62 58 cb 3d 0a a6 a1 3c
       0.01692882 0.064729825 0.09928967 0.019732494
000320 5a fd ac bb d0 f7 d6 bc e3 f8 4a bc 2d df 71 bd
       -0.0052792253 -0.026241213 -0.012388441 -0.059050728
000330 a8 47 d2 3c d3 58 c4 3c 45 14 cb 3a 17 15 8d bb
       0.025668934 0.023968136 0.0015493712 -0.0043054926
000340 80 c8 ee bc 22 5d db 3c 06 96 8e bc 9e af 80 bc
       -0.02914834 0.026777808 -0.017405521 -0.01570874
000350 e6 a6 c9 bc 47 2d 79 3c c3 67 24 bd 45 af c3 bb
       -0.024615716 0.015208549 -0.040138017 -0.0059718215
000360 ca 6b c4 bd 3c 08 11 3d 2a d8 c3 3d 47 04 68 bc
       -0.09590872 0.035408244 0.095627144 -0.014161176
000370 d5 94 06 3d 10 7b 4c 3e 8c d0 5f be e0 53 a9 3d
       0.03285678 0.1996882 -0.21856898 0.08267951
000380 ae 09 72 3d cf 9b d0 bc a3 77 73 3b e5 69 21 3d
       0.059091263 -0.02546492 0.0037150166 0.03940763
000390 1f 9e 9c bc 1b d3 8d 3d 60 c1 5a bd 75 e7 1a bc
       -0.019118367 0.06925031 -0.053407073 -0.009454598
0003a0 b5 98 84 bd fa e4 b1 3d 43 4a e9 bc 09 58 32 bd
       -0.06474439 0.08686252 -0.028477794 -0.043540988
0003b0 fd 51 25 bd 23 c1 fe bc 1e 76 c1 3b 39 6b 6f 3d
       -0.040361393 -0.031097954 0.0059039732 0.058451865
0003c0 c5 2d 03 3d b2 76 55 3d da 90 fb ba 3c 30 e2 bc
       0.03202607 0.05211515 -0.0019192949 -0.02761089
0003d0 56 4f a7 3d 18 ef 17 3d 96 15 14 3e 65 99 d2 bd
       0.08169429 0.037093252 0.1446136 -0.10283164
0003e0 ab d1 a8 bd ca 23 2a bd 3b 8f a2 bc 86 0c 5f bd
       -0.08243116 -0.041538037 -0.019843688 -0.054455303
0003f0 94 f5 35 3d 85 64 89 3d b6 8d c9 bc 2d d4 50 3d
       0.044423655 0.06708626 -0.024603706 0.050983597

encoder.3.bias f4 [9]
000000 6f 3f 71 3d 12 37 9c 3c 0a db 18 3d b8 f6 02 bd
       0.058898386 0.019069228 0.037318267 -0.03197357
000010 7a 0b bc bd 23 32 3b bd 61 5f b6 bd 58 f3 fb bd
       -0.091818765 -0.04570211 -0.08904911 -0.123022735
000020 b3 39 2d bd
       -0.042291354

encoder.4.weight f4 [9]
000000 80 91 6e 3f 7c 84 e6 3e b3 eb 3a 3f 7f 41 2c 3f
       0.93190765 0.45022953 0.730159 0.6728744
000010 ef dc dd 3e 5a fe 3f 3f dd 3f 17 3f 6e 2b 47 3f
       0.4333262 0.74997485 0.5908182 0.77800643
000020 38 08 55 3f
       0.83215666

encoder.4.bias f4 [9]
000000 7a 22 5d bd fc 16 33 bd 7c 4e 38 bc 1a 71 55 bd
       -0.053987958 -0.04372309 -0.011249181 -0.052109815
000010 b7 13 3a bd 43 b5 09 bd ac e1 c4 bc 76 b8 97 bd
       -0.045428958 -0.03362013 -0.02403339 -0.0740823
000020 e8 1e 64 bd
       -0.055693537

encoder.4.running_mean f4 [9]
000000 d3 cf 6a 3d a7 72 fb 3d 80 30 13 3e fe 49 59 bd
       0.057327103 0.122777276 0.1437397 -0.05304908
000010 09 9c ab bd 31 c6 ae bd e3 f4 61 bd c6 76 a8 bd
       -0.08379371 -0.08533896 -0.055165183 -0.08225779
000020 f6 d7 ac bd
       -0.08439629

encoder.4.running_var f4 [9]
000000 cc ee a7 3e 80 b8 fb 3e 48 bf 50 3f 21 40 cf 3e
       0.32799375 0.491642 0.8154187 0.40478614
000010 c7 7d f9 3e 5d 7d c4 3e 92 32 2b 3f 22 27 04 3f
       0.48728773 0.38376895 0.6687404 0.5162221
000020 87 6f 1a 3f
       0.6032643

encoder.6.weight f4 [9, 9, 7]
000000 1b fb 2e bc c8 87 14 bd 43 f0 01 bc f4 e4 8e 3d
       -0.010679985 -0.036262304 -0.007930818 0.06977263
000010 28 72 45 3d 9f a2 73 bd 00 80 28 3c e1 2e b1 bb
       0.04820457 -0.05948126 0.010284424 -0.0054071997
000020 09 9c fa bc d6 c2 d6 3c 64 0c 16 3d 32 88 86 3d
       -0.030591981 0.026215952 0.03663291 0.06568946
000030 25 01 a0 3a f4 93 a1 bd 47 96 8d 3c b9 80 81 bd
       0.0012207372 -0.07889548 0.017283572 -0.0632338
000040 6d 1c 91 3d 4e 28 42 bd 1e ca 91 3d 59 e8 14 be
       0.070855 -0.04740172 0.07118629 -0.14541759
000050 18 c6 be 3d ff aa a0 3c c4 d4 56 3d fc 50 66 3c
       0.09315127 0.019612787 0.052449003 0.014057394
000060 8d a3 83 3b 40 ab 8b bd ae 5c 6a bd 61 4c b7 bd
       0.0040172995 -0.06819773 -0.057217292 -0.08950115
000070 b5 17 e5 bb 55 5f 5d 3b 8f ea 11 bd 36 bf 8e 3d
       -0.0069913515 0.0033778746 -0.035624083 0.06970064
000080 cf 02 03 3e d7 f7 1b 3d 0c e6 00 bd c0 97 44 bd
       0.1279404 0.038078155 -0.03146939 -0.047996283
000090 2c 69 8c 3d d7 f9 03 bd b9 78 b9 bd 24 0b 2a 3e
       0.068559974 -0.032220688 -0.09056229 0.16605812
0000a0 c6 4c d2 3d ff 2e 06 bc 47 a4 0b 3c 25 41 c1 bd
       0.102685496 -0.008189916 0.0085230535 -0.094362535
0000b0 f5 4e 2d 3e f3 29 ab 3d 58 d1 f9 bd 1f b8 fb 3d
       0.16924651 0.083576106 -0.12198132 0.12290978
0000c0 15 7f 4b bd b3 4a 30 3d 51 d1 76 3c 63 b4 a0 3b
       -0.04968174 0.04303999 0.015064553 0.0049043163
0000d0 73 cb af 3b 64 68 b2 3c 7f 28 48 bc 01 1e 84 3c
       0.005364829 0.021778293 -0.012216686 0.016127588
0000e0 cd 20 8e bb 6d 2c 1f 3d 86 76 7e bc 24 89 7a bc
       -0.0043374063 0.038860727 -0.015531188 -0.015291486
0000f0 f3 9a 1d bd 11 84 20 3c a5 58 2a 3d 6a 91 d4 3c
       -0.03847785 0.009797112 0.041588444 0.025948245
000100 54 16 0e be 62 3c d3 bd 7a b3 2d bd 59 e6 1c 3d
       -0.13875705 -0.103142515 -0.04240749 0.038305614
000110 49 53 09 be d9 63 6c bd f7 c5 c1 bd 5d 0a 0e 3d
       -0.13410677 -0.05771241 -0.09461587 0.034677852
000120 f1 b3 fe 3d 56 90 26 3d 8d 6a 20 3c 06 80 12 3d
       0.12436665 0.040664993 0.009791029 0.035766624
000130 13 c7 84 bd b1 e0 1e bd db 91 b9 bd 50 a0 2d 3c
       -0.06483283 -0.0387885 -0.09061023 0.0105973035
000140 62 b0 0f bd 8f 06 0d bd ac f4 50 3c a1 6f 18 bd
       -0.03508032 -0.034430083 0.012753647 -0.037215833
000150 45 f1 eb 3c c4 ef 69 bd 84 63 dd 3c b9 21 57 bc
       0.02880157 -0.057113424 0.027024992 -0.013130599
000160 fe dc f6 bc 7b 27 c8 3c 05 53 97 bc 5a 7f 2e bd
       -0.030134674 0.024432888 -0.018472204 -0.04260192
000170 d6 e7 26 be 68 5c 2d bd ec 02 bb bd 8c 42 31 bd
       -0.16299376 -0.042324454 -0.09131417 -0.043276355
000180 a0 fc 25 bc a0 0c de bc 57 24 48 bd 17 2a 3b 3d
       -0.010131031 -0.02710563 -0.04886278 0.045694437
000190 e2 aa 39 3d 2d b0 ac 3d 7e db 41 bd b8 31 ea 3d
       0.045328982 0.0843204 -0.047328465 0.11435264
0001a0 d1 a3 60 3e c9 84 49 3b f1 37 3f bc 7b 8f 77 3b
       0.21937491 0.0030749312 -0.011671052 0.003777473
0001b0 31 d9 5c 3d 42 33 38 bd e2 c2 e4 bd 64 ed f1 bd
       0.053918067 -0.04497076 -0.111699834 -0.11812857
0001c0 a2 d6 f0 bd 82 88 83 bd 1e bb cc bc 43 dd c7 bd
       -0.11759688 -0.06422521 -0.024991568 -0.09758999
0001d0 ea 47 62 bd c9 cb c6 bd 75 23 fe bb 30 05 1e bd
       -0.055244364 -0.09706838 -0.0077556917 -0.038579166
0001e0 a8 73 26 bd 0e eb 41 3e 11 b2 48 3d 01 54 9f bb
       -0.040637642 0.18937322 0.048997942 -0.004862309
0001f0 8f 7a d5 3d 5d 74 46 3d cc ad 1c bd 9f a9 f4 3d
       0.10423767 0.048450816 -0.038251683 0.11946415
000200 30 de c2 bd 5c c2 91 bd b3 1a a4 bd e4 26 c9 3d
       -0.09515035 -0.07117149 -0.08012905 0.09821871
000210 b2 c2 e7 bb e6 05 73 3d ec f2 43 be 91 30 40 bd
       -0.00707277 0.059331797 -0.19135636 -0.046921317
000220 f6 77 fb 3d 0d 28 fa bd fa e9 21 3d 9c 6c 19 3c
       0.1227874 -0.1221467 0.039529778 0.009364273
000230 9c 62 c2 3c 83 0c 8f bd 3a d7 8b 3c 90 96 cb 3c
       0.023728661 -0.06984808 0.017070401 0.024852067
000240 b0 fc d2 3d 1d af a3 bc fa 32 fb bc a2 66 93 3d
       0.103021026 -0.019980961 -0.030663956 0.0719731
000250 c3 af aa 3c 8e 29 c2 bd 9d 40 80 3c 29 26 07 3d
       0.020835763 -0.09480582 0.01565581 0.032995377
000260 8a d9 b7 3d 35 ff 33 bb e8 bc cc 3d fc 81 fd 3d
       0.08977039 -0.0027465348 0.099969685 0.12378308
000270 7c 10 2d be e3 86 2d bc 6b c5 d4 bc 17 5c ab bc
       -0.1690082 -0.0105912415 -0.025973042 -0.020917935
000280 37 36 3b bd e2 de bc bd d1 d5 cd 3d e7 5d b0 3c
       -0.045706 -0.09222199 0.10050548 0.021529151
000290 7e cc cf bd bc 74 e8 bc 7b d0 a3 bd c3 f4 6a bd
       -0.10146426 -0.028375976 -0.07998749 -0.05736233
0002a0 44 59 0c 3d 0c c5 0f bd 80 b2 88 3a 9b c1 e0 3c
       0.034264818 -0.035100028 0.0010429174 0.027436068
0002b0 cc 48 c9 3d ab c2 3e bd da 8e 54 3d c9 ff b8 3d
       0.09828338 -0.04657237 0.051894046 0.09033162
0002c0 b3 cc 63 3d 83 55 b1 bd 88 02 ba 3d 2a 34 9a bd
       0.05561514 -0.08658888 0.09082514 -0.07529481
0002d0 eb 2d 88 3c 73 3e d8 3c aa 5b c5 bc 8c 67 82 3d
       0.016623458 0.026396966 -0.02409156 0.06367406
0002e0 8f d8 48 bd 11 19 9b 3a 96 31 8c 3d a0 8a 0a bd
       -0.04903465 0.0011833032 0.06845395 -0.03382361
0002f0 7a 2b 78 3b 0a d9 d1 3b 41 f6 86 bc 42 e5 42 bc
       0.003786771 0.006404047 -0.016474845 -0.01189548
000300 87 5e a5 3d 49 a9 16 3e ea 8b e8 bd 5f 72 f3 bd
       0.0807467 0.14713015 -0.113548115 -0.11887049
000310 a7 ee 2c 3d f2 83 93 bd 9a 95 59 bd 84 89 e9 3d
       0.042219784 -0.07202901 -0.053121187 0.11403182
000320 01 f2 ad bb 7c 65 9e bb e6 ef 1a bd 42 f1 45 3d
       -0.00530839 -0.004833875 -0.03782644 0.048325785
000330 2d 3f 08 bd e6 ee a7 3d 43 85 84 bd 9a 13 2e 3a
       -0.033263374 0.08199863 -0.0647073 0.0006640494
000340 04 6c 9e 3d ab 4b 37 3d 73 9a f1 3d a4 53 0f 3c
       0.07735446 0.044749897 0.11797037 0.008747969
000350 39 28 8d 3d c3 7d 55 3c 0d d3 35 3d a1 0e d3 bc
       0.068924375 0.013030472 0.044390727 -0.025763812
000360 86 fd 40 bd cc d5 b6 bc 20 cc 3b be ed dd a8 3d
       -0.04711678 -0.022318743 -0.18339586 0.08245454
000370 8a ee f0 bd d7 5d 44 3d ca a5 3e bb 0f e6 53 3c
       -0.11764248 0.047941055 -0.0029090517 0.012933268
000380 3d 02 dd bd 9c 69 b2 bd 61 1f 97 bc d8 19 c7 3c
       -0.107914425 -0.0871155 -0.01844758 0.024304315
000390 eb c2 d2 3b c4 ce 65 bd 06 1e 5a bd 1e be d6 3c
       0.0064319274 -0.05610539 -0.05325129 0.026213702
0003a0 89 86 6a be da 92 b0 3c 70 1f 1a bd b9 f5 15 3e
       -0.22902884 0.0215544 -0.037627637 0.14644517
0003b0 89 6d 0a bd 7f c7 ee bb 7d e3 ef 3c d8 7a c0 bd
       -0.033795867 -0.0072869654 0.02928328 -0.093984306
0003c0 27 5d a2 3d 97 de af bc 46 fc e7 3d 8a c5 20 bd
       0.07927924 -0.021468444 0.11327414 -0.039250888
0003d0 60 20 61 bd 25 38 ab bb 3d 97 92 3d db 60 1e bd
       -0.054962516 -0.005225199 0.07157753 -0.038666587
0003e0 ec c4 da ba 3e 9f b3 bd 62 be 84 bc 6d 00 83 3c
       -0.0016690767 -0.087706074 -0.016204063 0.015991414
0003f0 7b 08 31 3c 47 10 d2 bd 37 a7 24 3d ca 47 7b bd
       0.010805245 -0.10257011 0.04019853 -0.06134776

encoder.6.bias f4 [9]
000000 8b 80 c1 3d 08 fd 15 3c b9 87 b4 bd 82 99 b2 3d
       0.09448346 0.009154566 -0.088149495 0.087206855
000010 11 db 64 bd 2d f8 1f 3d 3d 9c 9c 3d e6 f1 bd 3d
       -0.05587298 0.03905504 0.076469876 0.09274654
000020 5f 4a a0 bc
       -0.019566713

encoder.7.weight f4 [9]
000000 69 5a 16 3f 43 c6 4e 3f 82 9d 3f 3f 13 65 d2 3e
       0.58731705 0.80771273 0.7484971 0.41092739
000010 ae 49 14 3f 1f 89 4c 3f 09 7c 0c 3f 31 15 dc 3e
       0.57924926 0.7989673 0.5487676 0.42984918
000020 d1 76 6e 3f
       0.9315005

encoder.7.bias f4 [9]
000000 02 eb c3 bc 9f 3b 46 bd 91 cb 2a 3b b0 53 e4 3b
       -0.023915771 -0.048396703 0.0026061276 0.006967984
000010 bf df c9 3a cb 55 f3 bc 62 9e 84 3d e0 a2 b8 3b
       0.0015401765 -0.029703995 0.064755216 0.0056346506
000020 29 e7 cc ba
       -0.0015632856

encoder.7.running_mean f4 [9]
000000 1b 8f de 3d 1d 27 2d 3d ad 73 f0 bd 97 c0 9a 3d
       0.10867139 0.04227363 -0.117408134 0.07556265
000010 3f 6f f6 ba 09 d1 c8 bc 76 8a e2 3d 6b 66 de 3d
       -0.0018801464 -0.024513738 0.110615656 0.108593784
000020 9d c2 5c bc
       -0.013474134

encoder.7.running_var f4 [9]
000000 06 7e 43 3f cb 2c 86 3f 72 a2 2c 3f f9 3a c6 3e
       0.7636417 1.048242 0.6743537 0.38716868
000010 4d 2d 56 3f 2e 46 e8 3e c9 8f 43 3f c2 06 0d 3f
       0.83662874 0.45366043 0.76391274 0.55088437
000020 69 22 4f 3f
       0.8091188

decoder.0.weight f4 [9, 9, 7]
000000 2f 8e 54 bc 4a 83 6a bd df 92 1d 3d 19 4b b9 bd
       -0.012973352 -0.057254113 0.038470145 -0.09047527
000010 87 60 a9 3d bf e7 02 3e 1f b0 9e 3c 0e 34 2e 3d
       0.08270364 0.12783717 0.01937109 0.042530112
000020 a0 05 ce bd 9c a5 6c 3e 03 9e 79 3c 20 b6 31 bd
       -0.10059667 0.2311005 0.015235427 -0.04338658
000030 4a b9 6d 3b 9f 6f 87 3d c7 5d 22 bc 59 c2 4d bb
       0.003627377 0.06613087 -0.009910054 -0.0031396358
000040 dd 10 b9 3d a3 e7 8d bd 60 44 0e be 6d 7a 12 3d
       0.090364195 -0.06928947 -0.1389327 0.035761286
000050 03 7a b1 bd 3e ec 04 bd 7d 44 a6 bd e5 ce e5 3d
       -0.0866585 -0.03245186 -0.08118532 0.112211026
000060 22 85 5e be 0e d5 52 3e a1 d8 a9 bd ed fa f2 bd
       -0.21730474 0.20589086 -0.08293272 -0.118642665
000070 64 70 3b bd b7 31 1e bd 75 41 9a 3d 31 59 00 bd
       -0.04576148 -0.03862163 0.07532016 -0.03133506
000080 7a 79 16 3d d6 91 b6 3d 42 ba 07 bd 82 2b 36 bd
       0.036736943 0.08914535 -0.033136614 -0.044475086
000090 b0 92 04 3d 7a 44 58 3d d7 c9 0f 3d c7 3c 09 bd
       0.032366455 0.05279968 0.0351046 -0.033505227
0000a0 4d 3b b9 bd 27 3c bb 3a 7d a0 49 bd 1e 77 55 3c
       -0.09044514 0.0014284895 -0.04922532 0.013028888
0000b0 8a 77 57 bd dd c8 90 bc 86 61 66 3e 79 a9 0a be
       -0.052604236 -0.017673904 0.2249814 -0.13541211
0000c0 e0 87 ed bb 94 c5 fb 3b b3 62 04 bd 87 98 78 3c
       -0.0072488636 0.0076834653 -0.03232069 0.015173084
0000d0 6a cf 21 3d c3 3e 29 3d 2e 02 4e bd 06 92 15 be
       0.039504446 0.04131962 -0.050295047 -0.14606485
0000e0 c0 78 ae bc e2 40 a6 3c 05 44 10 bd b1 e5 19 3e
       -0.021297812 0.02029461 -0.03522112 0.15029027
0000f0 d9 fc 90 bd 6d 79 07 3c 2a 38 76 bd 9b 67 42 bb
       -0.07079477 0.008268696 -0.060112156 -0.0029663804
000100 af b4 4c 3d c3 87 71 3d 13 86 5c 3b 93 f8 51 bc
       0.049977 0.058967363 0.003364925 -0.012815612
000110 7d 85 5c bd 4c fb 95 3c d7 7a 96 bc 20 5f 7c bd
       -0.05383824 0.018308304 -0.018369121 -0.061614156
000120 3b 73 96 3d d5 ff 23 3d a8 8a aa bd ea 70 dd 3c
       0.07346197 0.040038902 -0.08327228 0.02703138
000130 f6 85 39 3d c7 02 95 bd 51 ca 34 bd 83 d8 58 bc
       0.04529377 -0.0727592 -0.044138256 -0.013235214
000140 cc ea 2d 3d d8 01 86 3b e9 ce e8 bc 98 5e 2d 3d
       0.042460248 0.0040895753 -0.028418975 0.04232654
000150 8b cf 45 3d 30 51 f4 3d 99 f3 a8 3d f6 ff 82 3d
       0.04829363 0.11929548 0.082495876 0.06396477
000160 cb 85 51 3c fa af 95 bd 49 11 32 bd 54 dc 2e bd
       0.012788246 -0.073089555 -0.043473516 -0.04269059
000170 cb 92 42 3d d3 73 12 3d 18 c6 a0 bd 70 2c a6 bd
       0.047503274 0.03575499 -0.078502834 -0.081139445
000180 13 84 58 3c 2c 32 f6 3b f2 4a 3d bc aa de cb 3c
       0.013215083 0.007513305 -0.011553513 0.024886448
000190 04 f6 1d 3d fb 26 87 3c 5e d6 e9 3d 0d bc 27 3d
       0.038564697 0.01649808 0.114178404 0.040950824
0001a0 70 5c 25 bd 0c a8 ca 3c 0d 9e e0 bb 93 bf 87 ba
       -0.04037136 0.024738334 -0.0068547786 -0.0010356776
0001b0 bf 6a c1 3c de 71 43 3c ad 92 44 3c 01 d7 74 3d
       0.02361047 0.0119290035 0.011997861 0.059775356
0001c0 77 b3 e2 bb fe 34 32 bd 84 de 63 3c 0b 87 dc 3d
       -0.0069183665 -0.04350757 0.013908032 0.10767945
0001d0 99 61 53 ba 1a 6b 8a bd 64 92 f6 3d 3a 95 e1 bd
       -0.00080635544 -0.06758709 0.120396405 -0.11014791
0001e0 4d 41 ec 3c 14 18 11 bc 4e ad 39 bd db 78 5e 3c
       0.028839732 -0.008855838 -0.04533129 0.013578619
0001f0 73 89 3b 3d 92 4c 29 bd 72 29 a0 bb 58 16 93 3d
       0.04578538 -0.04133279 -0.004887753 0.07181996
000200 68 cd ce bd 7a a8 17 3e 28 ab 0a 3d 2c 63 55 3d
       -0.10097772 0.14810362 0.033854634 0.05209653
000210 b5 af 61 bd e2 6a bf 3c a8 4b 1a 3d 01 8e ca bd
       -0.055099208 0.023366395 0.037669808 -0.09890366
000220 c8 8f ee 3c 29 7c eb 3b 95 7a e1 3c ee 52 ea bb
       0.029121295 0.007186432 0.027524272 -0.0071509993
000230 6b c9 70 ba e9 9f 9c 3d be 64 81 3d be ec 3b 3e
       -0.0009185287 0.07647688 0.06318043 0.18352029
000240 7f fa 8e 3d 8e e6 85 3d 5a 1d e5 3c ef 1d 4e 3c
       0.06981372 0.065381154 0.027968097 0.012580379
000250 54 3a 53 3b 99 65 16 3d 51 54 eb 3a 35 fd b2 bd
       0.0032230811 0.036717985 0.0017954205 -0.08739702
000260 86 de b9 3d 98 1b 3e bd 61 36 48 3d 65 3c b8 bc
       0.09075646 -0.046413034 0.048879985 -0.022489736
000270 9f 68 d3 3d cc 35 c3 bd cf 9f ba bd bd da 3d bd
       0.10322689 -0.09531745 -0.09112512 -0.046351183
000280 d3 17 85 3d 6b 91 df bb fa c6 25 3d 71 28 f1 3d
       0.06498685 -0.006822755 0.040472962 0.11775292
000290 63 3f 2b be a0 2d de 3d 9f b1 a8 bd b4 16 4f bd
       -0.16723399 0.10848546 -0.082370035 -0.05055876
0002a0 c0 fe a8 3c ea 5e 09 3d d9 d6 e4 bd d8 b8 48 bd
       0.020629287 0.033537783 -0.111737914 -0.049004406
0002b0 12 5f e4 ba 0e 7f 89 3c 6e 8a e6 3c 92 68 90 bc
       -0.0017423353 0.016784217 0.02814218 -0.017627988
0002c0 bd 02 e0 bd d6 23 06 3c df 25 bf bd ec 7a a5 3d
       -0.10938022 0.008187255 -0.09333395 0.08080086
0002d0 d0 ef 44 3d 0d d6 fb bb ec b7 d3 bc 61 7e a4 bd
       0.048080266 -0.007685429 -0.025844537 -0.08031917
0002e0 5d 21 18 bc 5a 81 9e bc 29 2b 5b bd b3 79 18 3d
       -0.009285298 -0.019348789 -0.053507958 0.037225436
0002f0 38 d3 d2 bc 83 71 a9 bb 88 f7 e3 bc fe a2 07 be
       -0.025735483 -0.0051710024 -0.027827993 -0.1324577
000300 d8 35 bc bc 9b 95 88 3d ca 16 61 3d 05 7e 83 bd
       -0.022974893 0.0666916 0.054953374 -0.06420521
000310 58 9b b7 3d 6a 1b 9e bd f9 e3 45 bd 97 8e 3f be
       0.08965176 -0.077200726 -0.048313115 -0.18706737
000320 50 8d 02 3e 51 3f b2 bd f9 e9 54 ba 92 ce 82 3c
       0.12749219 -0.08703483 -0.0008122023 0.015967641
000330 ed f7 ee ba c0 4b cf bd 0d c5 e1 bc 1d d1 2f 3d
       -0.0018231847 -0.1012187 -0.027559781 0.042924035
000340 e8 1b ac 3d 66 51 88 3d fe 15 82 3b c2 4d 19 be
       0.0840376 0.066561505 0.003969907 -0.14971069
000350 ae be 81 bd b8 f2 65 3e 93 45 bb 3c 23 3d 30 3d
       -0.063351974 0.22455871 0.022860324 0.043027055
000360 b4 9c 41 3d 7e 4c 91 bc be 30 34 bd 35 bc 39 bd
       0.047268584 -0.01773667 -0.043991797 -0.045345504
000370 a9 14 e8 3d d5 22 9d 3d 22 e3 a9 bc 3f 43 a4 bd
       0.113320656 0.07672659 -0.020738188 -0.08020639
000380 44 b6 4f bc d7 e5 96 bc b7 cc eb 3c ee 67 0c 3d
       -0.012677733 -0.018420143 0.02878414 0.034278803
000390 05 20 7f 3d 9f fd a8 3b 5d 1a 5c 3d 64 e7 2c bd
       0.062286396 0.005157187 0.05373608 -0.04221286
0003a0 94 46 cb 3c 6c ea f0 bd 3d 0c 2c 3c 6b 57 4e bd
       0.024813928 -0.117634624 0.010500965 -0.050376337
0003b0 30 f3 b7 3d 89 5e 8e bc 71 aa a7 3c 40 71 51 3d
       0.08981931 -0.017379062 0.020467015 0.051133394
0003c0 6c 83 c6 3b b8 51 8a 3c 89 76 8e 3d 3a 70 ec bc
       0.006058147 0.01688467 0.069562025 -0.028862108
0003d0 a9 f8 b8 bc 54 16 3d bc 83 ad 88 3d 40 90 58 bd
       -0.022579508 -0.011540968 0.0667372 -0.052871943
0003e0 1f 3e 1f 3e 83 c3 d2 bc 93 0a b0 3b 0c 79 70 3d
       0.15551041 -0.025727993 0.0053723543 0.05870919
0003f0 0d 79 a3 3d d1 fb 79 bd ac f5 8e bd bc 47 75 3d
       0.07982073 -0.061031166 -0.06980452 0.059882864

decoder.0.bias f4 [9]
000000 ec 14 f8 bc 30 2e 94 bd 45 ed ac 3d 96 96 5a 3d
       -0.030283414 -0.07235372 0.08443693 0.053366266
000010 fb 4f 77 3d 8a c0 85 bc 7e 8f b0 3d c0 f2 68 bd
       0.06037901 -0.016327161 0.08621119 -0.05687213
000020 bf 1e a0 bc
       -0.01954591

decoder.1.weight f4 [9]
000000 8e 1b 2b 3f 3c ea 03 3f f7 42 ec 3e 82 aa 1a 3f
       0.6683892 0.5152929 0.4614484 0.60416424
000010 03 65 6f 3f 83 73 02 3f ff 4b 27 3f 83 ed 62 3f
       0.93513507 0.50957507 0.65350336 0.88643664
000020 3c 1c 29 3f
       0.6605871

decoder.1.bias f4 [9]
000000 a9 24 9e bc 7d 04 76 bc ec 94 10 bd 0f 3b a5 bb
       -0.01930459 -0.0150157185 -0.035298273 -0.0050424407
000010 f4 53 9c bd 69 af 75 bc 69 d5 8a bc 6e c5 0b bd
       -0.076332 -0.014995434 -0.016947465 -0.03412383
000020 5a fd 91 bd
       -0.07128401

decoder.1.running_mean f4 [9]
000000 aa ed 67 bd 67 6a b7 bd a9 30 59 3d fd 94 a8 3c
       -0.05662314 -0.089558415 0.05302492 0.020578856
000010 d4 d2 5f 3d 54 ec 83 bd 8d 5b 08 3d 1b a4 87 bd
       0.05464442 -0.064415604 0.033290435 -0.066230975
000020 4f 12 45 3c
       0.012028291

decoder.1.running_var f4 [9]
000000 c8 db 6b 3e 6d 8b 49 3e 16 56 7f 3e 05 b8 87 3e
       0.23033059 0.19682093 0.24935183 0.26507583
000010 9c 0f fb 3d 35 4f 67 3e c6 25 6d 3e 02 3f d1 3e
       0.122588366 0.22588809 0.2315894 0.40868384
000020 9c f0 87 3e
       0.26550758

decoder.3.weight f4 [9, 18, 5]
000000 a7 39 46 3d ef 27 16 3a 5a 23 2d bd 90 57 b6 bd
       0.048394825 0.00057279965 -0.042270042 -0.0890342
000010 f2 c7 e5 bc 0f b7 52 bd ab 29 57 bd 77 bb 98 bc
       -0.028049443 -0.05144411 -0.052529972 -0.018644078
000020 72 08 d5 bd ff 98 6f 3d 68 18 b8 bc 94 f6 1a bd
       -0.104020014 0.058495518 -0.022472575 -0.03783281
000030 85 3c 1f bd 64 f1 0e 3d d9 51 a2 3c b9 09 84 3d
       -0.038876075 0.034898177 0.019814419 0.06447167
000040 62 76 6a bd c1 01 01 bc 80 79 e1 3c 85 47 2e bd
       -0.057241805 -0.007873953 0.027523756 -0.042548675
000050 00 24 6b 3d 4b 5d e8 3d cd 88 87 bd b5 9d 1d 3d
       0.05740738 0.11345919 -0.066178896 0.03848048
000060 6c 52 bd 3d 82 5e 98 bd 33 93 4a bc 90 f5 57 bd
       0.09244236 -0.07439901 -0.012364197 -0.05272442
000070 a1 d2 f3 bc 45 9d 54 3c bb aa e2 3c 98 3a 5e bd
       -0.029763522 0.012976949 0.027669301 -0.054255098
000080 67 54 83 bd ce f7 19 bd 61 10 18 3d 54 17 b7 3d
       -0.06412583 -0.03758984 0.037124995 0.08939996
000090 a7 91 d1 bd 43 8e 26 3d e2 7f 68 3d 8f 6f df bd
       -0.10232859 0.040663015 0.056762584 -0.1090995
0000a0 53 c0 2b 3d 84 b7 f8 3d e7 26 6f bd 31 ed c5 bd
       0.04193146 0.12144378 -0.05838671 -0.09664381
0000b0 31 85 00 3d 4f 02 b5 bc f4 25 19 be 13 3e be bd
       0.03137702 -0.022095827 -0.14955884 -0.092891835
0000c0 55 a1 4a 3d e5 3c 13 be 40 ad e0 3c 2e ba 7a 3d
       0.049470264 -0.14378698 0.027426362 0.06121271
0000d0 4b 61 1f bd 09 93 a2 bd a0 05 0a 3d 1d 8a 55 bd
       -0.038911145 -0.07938201 0.03369677 -0.05213367
0000e0 7b e3 21 3d 19 64 ce bd f1 61 9a 3d 99 89 9f 3c
       0.039523583 -0.10077686 0.07538212 0.019474791
0000f0 bd f0 0e 3c 05 9e 95 3d 7f 52 24 bd ee 18 24 be
       0.008724389 0.073055305 -0.040117737 -0.16025135
000100 36 0f a6 3d 5c 70 cf bd da 03 1c bc 81 b3 1e bd
       0.0810837 -0.10128853 -0.009522403 -0.038745407
000110 79 5b 2d 3c 54 75 7e bd 86 23 cf 3c ac 13 8d bb
       0.010580891 -0.06212361 0.025285494 -0.0043053236
000120 e1 0d 88 3d f5 e7 81 bc ff c3 dc 3c a1 de 74 bd
       0.06643272 -0.015857676 0.026948927 -0.059782628
000130 ee 99 2d 3c 17 8a 04 3d 12 d7 74 bd ca 04 e4 3d
       0.010595782 0.032358255 -0.05977542 0.11133726
000140 2d a9 84 bd 6a e3 a5 3c 3a 12 ea 3d a7 03 bb bc
       -0.0647758 0.020250041 0.11429258 -0.02282889
000150 cb 65 0b bd aa 36 8e 3d 37 17 e8 bc 83 cb 09 3d
       -0.034032624 0.0694402 -0.028331382 0.03364135
000160 00 7e c4 bc d0 25 5e bd a1 d4 81 3d cb 45 48 3d
       -0.023985863 -0.05423528 0.06339384 0.048894685
000170 0d f0 18 3d 33 44 17 bd e9 48 db 3c 2a 12 a8 bb
       0.037338305 -0.036930274 0.026768165 -0.0051291184
000180 24 4c 88 3c 31 43 94 bc e0 8f 76 bd b1 44 83 3d
       0.01663787 -0.018098446 -0.060195804 0.06409586
000190 75 05 36 3d a9 a3 c2 bc 9d ee 8d bd 9b d8 aa 3c
       0.044438798 -0.02375968 -0.069302775 0.020855239
0001a0 e1 13 c7 3c e7 31 41 bd e7 a8 8f bb bc 56 8f bd
       0.024301471 -0.04716673 -0.0043841484 -0.06998965
0001b0 66 9b 4a bd 5e c2 12 bd 98 34 70 3d e8 2a f7 3d
       -0.049464606 -0.035829894 0.058643907 0.120687306
0001c0 1d d7 aa 3d 39 19 08 3e f2 14 ce bc ba 47 b3 bd
       0.08341811 0.13290872 -0.025156472 -0.08753915
0001d0 d8 06 c4 bd 15 d7 6b bd 69 f2 b9 bd 17 a6 60 bc
       -0.09571618 -0.057578165 -0.09079439 -0.013711474
0001e0 18 6a a8 3d 68 8b 37 3b 4c 87 fc 3d ec 36 a3 3d
       0.08223361 0.0028006677 0.12330493 0.0796946
0001f0 9a 2b 9f 3c 5b e5 83 bd fe d9 34 bd 81 81 54 bd
       0.01942997 -0.064402305 -0.044153206 -0.051881317
000200 75 15 90 3d 18 71 cd 39 03 5c 7f bd 1d 9b 05 3d
       0.070353426 0.00039184908 -0.06234361 0.03261863
000210 4e a5 0c ba 09 2e 72 bd bf 4c 10 bc 41 f7 5d bd
       -0.00053652085 -0.059125934 -0.00880736 -0.054190878
000220 7e 7e 18 3d 94 77 ff bc 41 93 cb ba b3 3d d4 bc
       0.037230007 -0.031184949 -0.0015531556 -0.025908327
000230 63 8b 37 bc 45 28 8b 3c 86 ca 84 3d be 5e 24 bc
       -0.011202666 0.016986975 0.06483941 -0.010032354
000240 c5 17 4c bc e3 62 83 3d 20 8f 6f bd 2c e8 ab 3d
       -0.012456839 0.064153455 -0.058486104 0.08393893
000250 00 7a d6 bc 06 d6 19 bd 9b 22 f8 bd 70 f5 ff bd
       -0.026181221 -0.037557624 -0.121159755 -0.12497985
000260 f9 e6 38 3d a2 92 3c 3d ee 23 b5 bd bd 5c 2d bd
       0.045142148 0.046038277 -0.08844744 -0.04232477
000270 46 b6 dc 3d 3a 77 82 3d 9d a0 c5 bd 28 c4 0f bd
       0.107769534 0.06370397 -0.09649775 -0.03509918
000280 4c 00 d6 3b 71 4f aa bd 88 d9 9c 3d 25 3f 06 3d
       0.006530797 -0.083159335 0.07658678 0.032775063
000290 80 0b 7c 3c bd 80 05 be a5 4e 96 bc 4f c9 3c 3d
       0.015383601 -0.13037391 -0.018348048 0.04609042
0002a0 42 0f 8c 3d 67 ce 23 bd 2a 59 d4 bd ee c5 c4 bd
       0.06838848 -0.039991762 -0.10368569 -0.096080646
0002b0 39 e9 76 3d bb c2 07 bd ca 30 82 3d 1e be 98 3d
       0.060281012 -0.033144694 0.06356962 0.07458137
0002c0 a5 0b c4 3d a8 77 2e 3d ce 56 b1 bd 2b 09 5b 3d
       0.095725335 0.04259458 -0.08659135 0.05347554
0002d0 a9 67 c7 bb bb 58 d3 3c 70 77 2e bc 2e 54 2d bc
       -0.0060853553 0.025799146 -0.010648593 -0.010579152
0002e0 8b 5a ed 3c 6d e8 6e bd d8 7c be 3c ed 62 3d 3d
       0.028973838 -0.058327127 0.02325289 0.04623692
0002f0 af 71 fd 3c 77 94 b9 bb 1d d7 16 bd 2b 30 36 bd
       0.030937998 -0.0056634503 -0.03682624 -0.04447953
000300 92 a5 39 bd 1d e6 69 bd 92 c0 84 bd dc 44 92 3b
       -0.045323916 -0.05710422 -0.06482042 0.004463775
000310 19 4c f6 bd 9b ac 68 bd 8e 0c 35 3d 84 3e 35 3d
       -0.12026233 -0.056805234 0.044201426 0.044249073
000320 3d 7d 01 bd 8e 49 35 3c 72 00 98 bd cd cb f2 3d
       -0.031613577 0.0110649 -0.0742196 0.11855278
000330 c9 13 88 3d cc 60 9d bc 13 7d 00 bb af 2c da bd
       0.06644399 -0.019211195 -0.00196058 -0.10653054
000340 03 29 95 b9 5b ed 35 3d 26 37 dd bc cf e2 38 bd
       -0.0002845005 0.044415813 -0.027003836 -0.045138177
000350 85 b1 87 3d f9 cf 34 bc 11 bb 9c 3c fb 04 9e 3d
       0.06625656 -0.011035913 0.019132169 0.07715794
000360 7e 35 d3 bd e8 a9 1f be 8b 20 7e 3c bb 2a 0f 3c
       -0.10312937 -0.15592158 0.015510689 0.008738215
000370 5d 60 4c 3c c3 9c ac 3d d0 1e 43 bd 31 14 c4 3d
       0.012474147 0.084283374 -0.047636807 0.09574164
000380 3f 28 e7 3c 58 68 3c 3d 81 05 ea bc ef ac 29 3d
       0.028217433 0.045997947 -0.028567078 0.041424688
000390 ac b1 66 3d 0c 66 d5 bc c2 94 b8 3a 5f de b0 bc
       0.056321785 -0.026049636 0.0014082419 -0.02159041
0003a0 43 23 e2 bc e4 2b 1f 3d 3f a1 2e bd e6 6b 09 3e
       -0.027604705 0.038860217 -0.042634245 0.13420066
0003b0 5c 8d a1 bb 56 88 85 3d 3c e1 1a 3d a0 0a 1f bd
       -0.0049301814 0.06520145 0.037812456 -0.038828492
0003c0 f7 a6 49 3b bf 99 7f be 26 5f bf bd 81 e2 a4 3d
       0.0030769685 -0.24960993 -0.0934432 0.08051015
0003d0 a7 38 87 3d 7f 05 a7 bd 52 72 a3 bd 8c d0 bf 3c
       0.066026025 -0.08155345 -0.07980789 0.023414873
0003e0 5b 43 0b 3d ea 03 90 3d 66 14 a2 3c f9 8f 2b bd
       0.033999782 0.070319965 0.019785117 -0.04188535
0003f0 6e 2f 09 bd dc 22 5d 3d 9e 13 f5 3c 1c f0 07 bb
       -0.033492498 0.053988323 0.02991658 -0.0020742482

decoder.3.bias f4 [18]
000000 48 2f b1 3d 7b be 6c 3d 0d f5 bf bd 98 50 cc bc
       0.08651596 0.057798844 -0.093729116 -0.024940774
000010 ac ee 99 bc 04 ff 36 3c c9 1f 23 bd e4 45 e2 bd
       -0.018790565 0.011169199 -0.039825235 -0.11048487
000020 d7 e3 d1 bd 20 ac ad bd 85 58 69 bd dd 49 82 3d
       -0.10248535 -0.08480096 -0.056969184 0.063617446
000030 94 d2 c3 3d 42 b1 c7 bc ee 10 82 3c eb af ec bc
       0.09561649 -0.024376515 0.015877213 -0.028892478
000040 e4 ae 7a 3d cc 66 87 bd
       0.061201945 -0.06611404

decoder.4.weight f4 [18]
000000 34 74 81 3f 0b cc 62 3f 9d 80 2b 3f 36 f6 72 3f
       1.0113587 0.88592595 0.66993123 0.9490694
000010 cb fe 5c 3f 3b 63 62 3f e0 17 72 3f 35 ca 47 3f
       0.86326283 0.88432664 0.9456768 0.7804292
000020 90 2b 64 3f 47 50 5c 3f 1c ff 7b 3f e9 c4 1e 3f
       0.8912897 0.86059994 0.9843614 0.6201921
000030 e9 3f 25 3f a8 b8 50 3f 4a c9 61 3f 39 50 55 3f
       0.64550644 0.81531763 0.8819777 0.83325535
000040 3e 8d 47 3f 0b 89 60 3f
       0.77949893 0.8770911

decoder.4.bias f4 [18]
000000 63 d2 be bb 39 70 0f 3b 82 5b 69 bd 62 da 83 bc
       -0.00582342 0.0021886958 -0.056972034 -0.016095344
000010 7e 18 a3 bd db d1 6a bd 61 6b 3d 3d fc 1f 4c bd
       -0.07963656 -0.05732904 0.046244983 -0.04983519
000020 9f 83 4b bd c3 dd a8 b9 4f ed 80 bd 9a 33 36 bd
       -0.04968607 -0.00032208682 -0.06295263 -0.044482805
000030 ed 6c 3f bd 2d 3c 04 bc f3 ea 2f bd b7 e5 00 3d
       -0.04673474 -0.008070988 -0.042948674 0.031469073
000040 ee 53 11 bd 05 af 64 bd
       -0.035480432 -0.055830974

decoder.4.running_mean f4 [18]
000000 14 25 4b 3c 9e e7 75 3d 34 50 ef bd 7d 5a 9e bd
       0.012398977 0.06003534 -0.116852194 -0.07732103
000010 eb 88 21 bc 74 f7 c3 bb d6 d4 98 bd 9f 8a 1a be
       -0.009859304 -0.0059804264 -0.0746247 -0.15091942
000020 c2 cc 08 be 86 09 36 bd 3f a3 86 bd 43 b9 a8 3c
       -0.13359359 -0.044442676 -0.065741055 0.020596152
000030 42 43 82 3d 29 2b dc bc ac 16 8e bb 49 c4 28 bc
       0.06360485 -0.02687605 -0.004336199 -0.010300704
000040 2f 98 03 3d 41 4d ae bd
       0.032127555 -0.08510829

decoder.4.running_var f4 [18]
000000 e5 7a 9d 3e c5 94 7c 3e e8 2e 78 3e 8a 86 19 3e
       0.30757824 0.24666126 0.24236643 0.14992729
000010 34 e8 cd 3e 8d 8f 93 3e 79 8c 82 3e 4d c1 ea 3e
       0.4021622 0.28820458 0.25497797 0.45850602
000020 46 a5 9f 3e eb 74 db 3e 25 1a 47 3e d9 47 be 3e
       0.3118078 0.4286264 0.19443567 0.3716419
000030 42 db 89 3e 44 ab 84 3e b0 1e 8c 3e 68 87 44 3f
       0.26925093 0.25911915 0.27367163 0.76769114
000040 b8 b9 89 3e f9 c4 6c 3e
       0.26899505 0.23122014
