trained_models/E16E:BA3B:ECE2:79A2.pt (torch, 49335 bytes, 36 tensors)

encoder.0.0.weight f4 [18, 36, 5]
000000 6c fc 9c 3d 76 17 84 be 20 e6 78 3a 53 28 90 3d
       0.07665333 -0.2579915 0.00094947405 0.07038941
000010 c4 38 90 3d 30 cd b9 3d f2 34 a0 be 13 62 84 3d
       0.07042077 0.090723395 -0.31290394 0.06464019
000020 82 a5 a6 3d b4 62 49 3d a4 70 29 bc 7b 7b 48 3d
       0.08137037 0.049166396 -0.010341797 0.048945885
000030 61 b1 d0 bc 3f f5 29 bd d5 61 a5 bd 65 fd d7 3d
       -0.025475206 -0.04149365 -0.080753006 0.10546378
000040 db 9f d3 bd 1f da cc bc 18 64 13 3c 19 76 c7 bc
       -0.103332244 -0.025006352 0.008996032 -0.024348306
000050 58 f8 b1 3d 3e e0 3c bd 74 5a dc 3c ea 8e 7f 39
       0.08689946 -0.04611229 0.0268986 0.00024371935
000060 a6 91 be bc 00 a5 d0 3d 55 bf 36 bd 44 5e fa bc
       -0.02326281 0.10187721 -0.044616062 -0.030562527
000070 89 63 57 bd 2e 44 42 bb 2c 92 86 3d 61 78 8a bd
       -0.05258516 -0.002964269 0.06570849 -0.06761242
000080 34 92 09 bc f3 b3 0d bc 15 5f 17 bb d1 e0 3b 3e
       -0.008396674 -0.00864886 -0.0023097445 0.1834748
000090 3c 6b 02 be 30 6e b1 bc a0 97 a8 bc 27 92 86 3b
       -0.12736219 -0.021658987 -0.020580113 0.004106778
0000a0 19 96 29 3e 00 8e 2d bd 8a 3d aa b9 30 2a 20 3c
       0.16561164 -0.04237175 -0.00032470777 0.009775683
0000b0 e3 a8 4c bd 56 dd 48 3e 84 49 78 bd 21 65 9d bb
       -0.04996575 0.19615683 -0.060616985 -0.0048033153
0000c0 f2 5e 6e bc df b6 f0 bb 42 91 a2 3d 37 03 e2 3c
       -0.014549004 -0.0073460187 0.07937862 0.027589424
0000d0 91 1a 8f bc 7f a8 ff bc 24 5c 81 bd da eb 37 3e
       -0.017468723 -0.031208275 -0.063164026 0.17961064
0000e0 82 f1 30 bd b9 1f c7 bb 5b a9 66 3d 08 03 8f bd
       -0.04319907 -0.0060767797 0.056313854 -0.06983
0000f0 ff 33 38 3e b6 f3 98 b9 74 e4 c0 3c 75 52 0e bc
       0.17988585 -0.00029173278 0.023546435 -0.0086866515
000100 93 6c 25 bd c4 21 0e 3e c1 1e 8e bd 10 3b e9 bc
       -0.040386748 0.13880068 -0.069394596 -0.028470546
000110 5e ff 84 bd 88 70 30 3b e9 3d 0b be d6 81 87 be
       -0.0649402 0.0026922543 -0.13597836 -0.26466244
000120 d5 01 29 bd 5c fa 1a bd d4 4e b9 3a bc 38 33 be
       -0.041261513 -0.037836418 0.0014137872 -0.17502111
000130 8f 4c 4d be 88 ce 4f 3c ad d1 8e 3d 36 b6 88 3d
       -0.20048736 0.012683518 0.06973586 0.06675379
000140 09 22 21 be 91 41 a1 be 9a 0a 3b 3d e0 7b ce 3d
       -0.1573564 -0.31495336 0.045664407 0.10082221
000150 83 75 12 bc b5 bb 75 bd dd bd 56 bd ef 24 26 3d
       -0.00893915 -0.059993464 -0.05242716 0.040562566
000160 bb 8c 16 3e 80 f0 09 3d 0e 8c 7e 3d bc 57 10 3c
       0.14702122 0.033676624 0.062145285 0.00880998
000170 0c 65 b0 3c 3c 38 c7 3c a5 16 ea bc 75 e5 f7 3c
       0.021532558 0.024318807 -0.02857525 0.03026078
000180 5b 6e 81 3d a4 51 8c 3d 20 75 c1 3c fd d4 ff bc
       0.06319877 0.06851509 0.02361542 -0.03122949
000190 c6 55 e7 3d 40 b9 a6 3d f6 90 dc bc 0e 13 2d 3d
       0.11295657 0.081408024 -0.026924592 0.0422545
0001a0 82 fa 26 3b a7 f9 0a 3e c1 e4 43 3d 77 05 a1 3d
       0.0025478904 0.13571797 0.04782558 0.078623705
0001b0 8f 83 d3 bc 49 5b 37 bd b2 01 0c 3e c5 b5 b7 3d
       -0.025819568 -0.04476479 0.13672522 0.08970217
0001c0 15 49 8e 3d a4 bf a8 ba d1 2e b7 bc 69 85 ec 3d
       0.06947533 -0.0012874496 -0.022361191 0.115488835
0001d0 f2 4a 6c 3d 77 c9 86 bc 90 18 7d 3d 39 f3 46 3b
       0.05768866 -0.016453488 0.061791003 0.0030357374
0001e0 db 17 34 3e d7 3b db 3d 6c 06 de 3c 7c 7b a3 bc
       0.17587225 0.10704773 0.027102672 -0.019956343
0001f0 10 bc 3b 3c ba 6c e0 3d 6d 97 d5 3d 5a ca 98 bc
       0.011458412 0.10958238 0.10429273 -0.018651176
000200 52 5b 22 ba a8 45 55 bd 6b 9a 04 3e 27 21 98 3d
       -0.00061934174 -0.052068383 0.12949531 0.07428198
000210 42 b9 28 bd 65 a2 f8 b9 8b 4e 0d bd ee 64 f4 3d
       -0.0411923 -0.0004742324 -0.034498733 0.11933313
000220 9e bf 65 38 43 95 87 3b b8 53 8b bd c7 e4 83 3b
       5.4776312e-05 0.0041376664 -0.068030775 0.004025075
000230 96 b1 e0 3d 31 76 27 3d 40 53 80 3d 1d 61 b7 bc
       0.10971372 0.0408842 0.06265879 -0.022385174
000240 f7 10 7c bc e9 ed 03 3e 18 83 47 3d 39 ca a9 3b
       -0.015384904 0.12883724 0.048709005 0.0051815775
000250 e8 e2 14 bd 0d 01 cc bb 8a 61 25 3e a0 6e 1b 3c
       -0.036349207 -0.006225711 0.1615049 0.009486824
000260 70 76 25 3d 97 a9 d9 bc 62 45 ce bb 41 4b 24 3e
       0.040396154 -0.026570125 -0.006294892 0.16044332
000270 91 b9 70 3d 22 46 f3 3c 70 b0 0e bd 0a 75 16 bd
       0.05877072 0.029696528 -0.034836233 -0.03673271
000280 21 c2 16 3e 52 b4 b2 3d 59 7b 80 3c 2b cf fe bc
       0.14722492 0.087257996 0.015683817 -0.031104645
000290 59 b8 52 bc 78 e2 3b 3e 91 3a 68 3d 3a c6 9d 3d
       -0.012861335 0.1834811 0.05669648 0.07703824
0002a0 93 a1 9f bd b5 77 ee ba 73 9b 06 3e 4f b9 47 bc
       -0.0779449 -0.0018193634 0.13145237 -0.012190177
0002b0 29 b1 2b 3d 27 09 b3 3c 5f 80 71 bd db 68 04 3e
       0.041917 0.02185495 -0.058960315 0.12930624
0002c0 ae 0a d2 bd 23 88 d2 3d e1 07 34 3d 63 1c 80 3d
       -0.10255943 0.10279872 0.043952826 0.06255414
0002d0 8d 9b 40 3d 3e cb b5 3c 04 3e e8 bc 15 93 06 3c
       0.047023345 0.02219164 -0.028349884 0.008213778
0002e0 8e ea 26 3d 4a bc a9 bc 7d e2 8b 3c 70 08 aa bc
       0.040751033 -0.020719666 0.017075771 -0.020755976
0002f0 58 67 0b bd 6b 3f f9 3c 03 eb fd 3c a5 62 40 3c
       -0.034034103 0.030425748 0.030995851 0.011742269
000300 81 8f 7b 3c e4 19 ca 3c 60 4c 89 3d b6 df 24 bb
       0.015354038 0.024670549 0.067040205 -0.0025157756
000310 ee f3 4b 3d 28 60 3a bc 74 0a e2 3b 6e 5c 1a 3d
       0.049793176 -0.0113754645 0.0068982188 0.037685804
000320 61 a8 e0 bc 1f be bd 3c 52 3b 61 bd 1a ae 4a 3d
       -0.02742404 0.023161946 -0.054988213 0.049482442
000330 46 8e 81 3d d9 14 27 3d 7d 3e 28 3a 00 d8 cb ba
       0.06325965 0.040791366 0.0006418003 -0.0015552044
000340 ef f6 b7 bc 32 0d 00 3d ec 86 8a 3c f9 e8 32 3d
       -0.022456614 0.031262584 0.016910039 0.04367921
000350 a6 47 3a bd c4 d9 87 3a 14 e2 33 bc ba 3d 1c 3c
       -0.045478486 0.0010364582 -0.010979194 0.009536201
000360 4d 90 24 3d be ce 6e bc 36 60 5e 3d 30 3b 8d 3d
       0.04017668 -0.014575658 0.054290973 0.06896055
000370 96 51 1a 3d f6 dc 23 3d 1f a3 2f 3d 87 eb 3f 3d
       0.037675463 0.040005647 0.042880174 0.046855476
000380 4c 18 87 3d c1 ff 02 bd 47 3c 60 3d fa 08 10 3b
       0.06596431 -0.031982187 0.054744985 0.0021978007
000390 dd da 86 3d 09 f4 96 3c 13 e2 ef 3c e7 aa 68 3d
       0.065847136 0.018426912 0.029282605 0.05680361
0003a0 bc c2 72 3b 99 2b d8 3c 47 37 4d 3c ff 65 a5 3c
       0.003704234 0.026387976 0.012525386 0.020190237
0003b0 76 d9 61 3d b8 b8 57 3c 6c 7b 3a bd 0d 9e 14 3d
       0.055139028 0.013166599 -0.04552786 0.03628354
0003c0 e1 7e 68 3d 23 44 14 bc dd c2 24 bd cb f5 5b 3d
       0.056761626 -0.009049448 -0.0402249 0.053701203
0003d0 57 8d bb 3d af 57 23 3d e4 58 21 3d 6d 1a 22 bd
       0.09157818 0.039878543 0.039391413 -0.039575983
0003e0 2c 64 fd bc 38 6d 43 bc aa 95 ca 3c 1c 47 54 bd
       -0.030931555 -0.011927895 0.024729569 -0.051825628
0003f0 dc be 88 bc 11 8f 2a bd 98 e6 e1 3c 15 09 22 3d
       -0.016692571 -0.041640345 0.027575776 0.039559443

encoder.0.0.bias f4 [18]
000000 6c a6 b8 3d 8a 8b 5a bd 6e ad 4a 3d 62 2c 07 bd
       0.090161175 -0.05335573 0.0494818 -0.03300131
000010 89 37 92 bb 5e a6 85 3d 19 38 79 bc d2 62 9f 3d
       -0.0044621867 0.06525873 -0.015211129 0.0778252
000020 ed c0 2e bc 70 62 a0 3c 02 d3 b8 bc 0a da 93 bd
       -0.010666114 0.019578189 -0.022561554 -0.07219322
000030 df 6f 71 bd 2c 82 72 3d 44 02 24 3d 79 b2 51 3d
       -0.05894458 0.059206173 0.040041223 0.051195595
000040 62 72 ec 3c c0 c8 87 3a
       0.028863136 0.0010359511

encoder.0.1.weight f4 [18]
000000 fb 3e 8b 3f cf 1d 4d 3f c9 48 72 3f 95 f3 88 3f
       1.0878595 0.8012361 0.9464231 1.0699335
000010 34 2e 71 3f 75 97 70 3f 76 11 52 3f f9 ce 92 3f
       0.94211125 0.93981105 0.82057893 1.1469413
000020 94 df 66 3f 9a 25 40 3f 60 a4 63 3f 30 6d 88 3f
       0.90184903 0.75057375 0.8892269 1.0658321
000030 ad 04 2d 3f a5 04 55 3f d4 97 5b 3f c1 61 77 3f
       0.6758526 0.8321021 0.85778546 0.96633536
000040 df 91 78 3f 3b f7 6b 3f
       0.9709758 0.9217412

encoder.0.1.bias f4 [18]
000000 c6 3b 03 bd d8 d1 16 bd f0 e7 1a bd 28 d5 1a bd
       -0.032039426 -0.036821216 -0.03781885 -0.037800938
000010 7f 0f ca bb 2b 68 e3 3b 30 04 07 bc 1b 34 1b bd
       -0.006166398 0.006939908 -0.0082407445 -0.03789149
000020 63 26 d9 ba bf 3d 49 bd 7a 0a ae bd 0a 44 96 bd
       -0.0016567226 -0.04913115 -0.08498092 -0.07337196
000030 f3 b4 b2 bc 04 9d 3c bc 12 e7 85 3a bf 1c 2e bd
       -0.021814799 -0.011512045 0.0010215959 -0.042507883
000040 46 2b d2 3c 76 1c 34 bc
       0.0256554 -0.010993114

encoder.0.1.running_mean f4 [18]
000000 79 08 29 bf f9 dd 27 bf 5d 24 a3 be 86 e5 a0 3e
       -0.66028553 -0.6557308 -0.3186368 0.31425112
000010 da a0 2f bf 30 67 4c bf cc ed 8e 3f 36 16 61 bf
       -0.68604815 -0.7984495 1.116632 -0.87924516
000020 90 af 42 3e 63 9b 9f be 79 c9 2f be df 37 0b bf
       0.19012284 -0.31173238 -0.171667 -0.5438213
000030 17 ae e6 bd d6 48 15 bf 27 85 c8 3e 11 3f 5a 3e
       -0.11263674 -0.58314264 0.39164087 0.2131312
000040 30 33 6d bf 53 8a 76 3e
       -0.9265623 0.24076204

encoder.0.1.running_var f4 [18]
000000 9f f2 b8 3a 5f ad 62 3a 88 00 a2 3a be 35 91 3a
       0.0014110393 0.000864705 0.0012359777 0.0011078638
000010 9e 20 aa 3a 69 b7 c9 3a c7 49 e5 3a 00 11 d9 3a
       0.0012979691 0.0015389743 0.0017493301 0.0016560853
000020 2e 19 42 3a a4 9a ce 3a eb 9b 42 3a a0 0f 92 3a
       0.0007404265 0.0015762639 0.0007423746 0.0011143573
000030 c0 12 ba 39 7c 12 c0 3a dc 4d 64 3a 73 ed 34 3a
       0.00035490654 0.0014653946 0.0008709112 0.0006901838
000040 8d aa 02 3b ad ef 05 3a
       0.0019938082 0.0005109262

encoder.1.0.weight f4 [9, 18, 5]
000000 61 d3 83 3b 6e fc 90 3c 2d 9a 35 3e 04 b2 d3 bd
       0.004023001 0.017698493 0.17734595 -0.10336688
000010 a4 40 8f 3a 4e b3 9b 3c 55 c6 20 3e bd 46 a0 3d
       0.0010929299 0.019006398 0.15700658 0.07825992
000020 3c 8b 67 bd bd 26 83 3d f1 67 05 3c 6d be 40 bd
       -0.05652927 0.06403873 0.008142457 -0.047056604
000030 77 96 25 3d e2 02 26 bd e6 3f 3e bc eb c1 02 3d
       0.040426698 -0.040530093 -0.011611914 0.031923216
000040 b1 c8 e1 bc 18 51 40 3e 29 88 0d 3b a2 73 80 bd
       -0.027561517 0.18780935 0.002159605 -0.06272055
000050 0f 7d 5d 3d 40 6b f6 bd fa 0e 15 bd f7 d4 1a bd
       0.054074343 -0.12032175 -0.036391236 -0.037800755
000060 2d 0a a8 bb 9b 59 37 bd fc b0 f9 3c 89 56 cf 3c
       -0.005128166 -0.04476319 0.0304799 0.025309818
000070 85 f0 4d bd af 39 9b bd b4 38 a9 3c 80 5c bb 3d
       -0.050278205 -0.07579362 0.020656921 0.09148502
000080 4f dc fd 3d 54 10 b2 ba 96 4f 7d 3d 34 c5 aa bd
       0.12395536 -0.0013585188 0.061843477 -0.08338395
000090 1f 7f c3 bd 1f 7f c9 3c b3 a9 f1 3d 24 f8 10 bd
       -0.09545731 0.024596749 0.11799946 -0.035392895
0000a0 66 b2 c2 3c 40 ff 1f bd 9d d1 31 bd 99 ca 6c 3c
       0.023766708 -0.039061785 -0.043412793 0.0144526
0000b0 00 d4 68 3d 75 55 7e 3d ae 93 23 3e 34 f1 c9 3d
       0.056842804 0.062093217 0.15974304 0.09860459
0000c0 30 9b a9 3d 35 ed f0 ba 0a 8f 29 3d 7e 47 7f 3d
       0.08281553 -0.001838124 0.04139618 0.06232404
0000d0 9d 48 75 3d d4 69 ed 3c b1 f4 9f bd 96 7c 86 bd
       0.059883703 0.028981127 -0.07810343 -0.06566732
0000e0 2b d2 ff bc 67 0e 7c bd 4d d3 82 3d dd 7c a7 bd
       -0.031228146 -0.061537173 0.06387959 -0.08178113
0000f0 46 8c 78 bb d0 2d c5 3c fb 18 0f bc 4a 19 6b 3d
       -0.0037925406 0.024069697 -0.008733983 0.057397164
000100 52 cc 9b 3c d8 10 e4 bd fb 8e da bc 68 aa 1b be
       0.019018326 -0.11136025 -0.026679507 -0.15201724
000110 c3 75 13 3b 69 8f ea 3c 67 e7 d6 bc d0 30 6e bc
       0.0022500611 0.028632836 -0.026233388 -0.014538005
000120 45 ed 09 3d c5 39 23 3d da 83 99 bd 3d 41 81 bd
       0.033673543 0.039850015 -0.07495852 -0.06311271
000130 06 08 b6 bd e5 52 49 3d 8c aa b3 bd 22 f9 91 3d
       -0.08888249 0.04915132 -0.087727636 0.071275964
000140 64 4e fc 3c 91 c9 67 3d e7 56 28 3d f8 6b 87 bd
       0.030799098 0.056588713 0.0410985 -0.0661239
000150 30 ca 06 3d 31 c3 04 3c dc de 13 3d da 30 8a bc
       0.032907665 0.008103178 0.036101207 -0.016868997
000160 b9 98 0b bc ea 97 ae bc c6 95 ca bc 35 44 e8 bd
       -0.008520299 -0.021312673 -0.02472962 -0.113411345
000170 a7 34 8b bd f0 06 ba 3c c8 2d df 3d 0d e5 c2 3a
       -0.06797152 0.022708386 0.10897404 0.0014869288
000180 d0 de 8d 3d 68 76 cc bd ee 81 85 b9 72 20 90 bc
       0.06927264 -0.09983522 -0.00025464542 -0.017593596
000190 f4 14 45 3d d3 04 92 bd 1d f6 66 bd 66 71 dc bc
       0.048115686 -0.071298264 -0.056387056 -0.026909541
0001a0 3c 4a f9 3c 23 50 70 bc 50 cb 30 bc 29 49 9c 3d
       0.030430906 -0.014667544 -0.010790661 0.07631142
0001b0 6f 66 5e 3d ed b3 a4 3d 55 92 e3 3c 0d 7d 98 bd
       0.054296907 0.080421306 0.027779737 -0.074457265
0001c0 c6 aa 2b bd da f3 8f 3a d5 21 12 bd 68 c9 be bd
       -0.04191091 0.0010982708 -0.035676796 -0.09315759
0001d0 de 24 0c 3d 07 8e 05 bd 29 f6 da 3d 18 25 83 bd
       0.034214847 -0.03260615 0.106914826 -0.064035594
0001e0 9e 0b 4c 3c 3e f7 70 3d 21 78 c6 bb 6a cc d1 3c
       0.012453942 0.05882954 -0.006056801 0.025610168
0001f0 ad 75 78 3d 19 39 b0 3c 52 42 f8 bc c9 26 e9 bd
       0.0606591 0.021511601 -0.030305061 -0.11384351
000200 59 29 cb 3d 08 5d 6b 3c 0b db 4b 3d 27 30 ba bd
       0.09919996 0.014365442 0.049769443 -0.090912156
000210 5a 1b 31 3c 45 0b 2c bd 3c ae 05 bd aa db 94 3c
       0.010809744 -0.042002935 -0.032636866 0.01817115
000220 bd ec b7 3d 92 b6 80 bd 1c a3 50 ba d4 1b c3 bd
       0.08980701 -0.062848225 -0.00079588755 -0.09526792
000230 18 0b aa bd 2d 17 9e bd a4 00 6f bd a4 cb 37 3d
       -0.08302897 -0.07719264 -0.05835022 0.04487194
000240 d4 4c 63 bd ca 2f 3e 3b 79 72 e5 bd 9b 7f e0 bc
       -0.05549319 0.0029020184 -0.112034746 -0.027404597
000250 40 a5 0c bd 0d 3e 3e bd 33 43 74 bd 89 95 48 bd
       -0.034337282 -0.046445895 -0.0596344 -0.048970733
000260 0d 1e af 3d a7 69 9c bd fc af 48 3b 34 c9 7b bb
       0.085506536 -0.07637339 0.0030622473 -0.0038419487
000270 2c 68 fd 3c 27 c4 15 3d 22 c2 c8 bc 86 49 40 3c
       0.030933462 0.03656402 -0.024506632 0.011736279
000280 61 dc 42 3c d3 7d 4b bd 3d 52 9f 3c 5b 02 8f bd
       0.011893363 -0.049680542 0.019448394 -0.06982871
000290 83 8d 9f 3d 70 7e 65 bd 72 61 38 3c 7f e6 ef 3d
       0.07790663 -0.056028783 0.0112537015 0.117138855
0002a0 86 aa 97 bc 85 ac 48 3d 96 ac 5a 3d 60 ab 56 bd
       -0.01851393 0.048992652 0.053387247 -0.05240953
0002b0 79 85 d7 ba b9 8a 8c 3a 4f 16 75 bc 6e 91 3d bd
       -0.0016442976 0.0010722495 -0.014958932 -0.04628127
0002c0 fd ce 2f 3d f5 b5 8e 3b 67 ee 2c 3d 1d 1a a3 bd
       0.04292201 0.004355187 0.042219546 -0.07963965
0002d0 d5 9b 21 bd 56 64 a6 bc a6 b5 04 bd 00 af 1a ba
       -0.039455254 -0.020311516 -0.032399796 -0.0005900711
0002e0 f5 85 93 bd 6b 72 a7 3c 16 7d 6f bd ef 38 c7 bd
       -0.07203285 0.0204403 -0.0584689 -0.09727656
0002f0 5e 60 bd 3b 00 9d fb bc d0 9a 71 bd 1c 2a 65 3c
       0.00577931 -0.030714512 -0.05898553 0.01398709
000300 a8 a8 a5 bd 3e 75 9d bd f9 c2 67 b8 56 05 17 3d
       -0.08088809 -0.07688378 -5.5256274e-05 0.036870323
000310 ce ce a0 3d 70 62 1a bd 4e 00 15 bd 03 ca 0d 3c
       0.07851945 -0.037691534 -0.036377244 0.00865412
000320 cb a9 a4 3d 05 0d f9 3c eb c4 48 3c c5 b6 94 3c
       0.08040198 0.030401716 0.01225398 0.018153558
000330 83 d8 d7 3d 74 90 3e 3d 3f 27 94 bd ba 20 24 3c
       0.10539343 0.04652448 -0.07234048 0.010017568
000340 89 4a 50 3a 3d 6e 97 3b f7 df 21 bd dd 70 05 be
       0.0007945677 0.0046212957 -0.03952023 -0.13031335
000350 9c af 83 bc 66 29 d3 bc 39 04 d1 3d cc c6 af bd
       -0.016074948 -0.025776576 0.102058835 -0.08582839
000360 14 31 2a bc 68 f6 c6 bd a2 1f 0b 3d ca 3e 90 bd
       -0.010387678 -0.09714967 0.033965714 -0.07043226
000370 f9 82 56 bd 91 5c c4 3c e3 18 91 bd f4 8e 31 3c
       -0.052371 0.02396992 -0.07084825 0.010837305
000380 6a c2 bc bc 8e 45 83 bd 7e 22 db bd e9 19 bd bc
       -0.023041923 -0.06409751 -0.10699938 -0.023083644
000390 99 64 05 bc 51 48 ab 3c 84 93 08 3e ea 2d 4d 3c
       -0.00814166 0.020908507 0.13337523 0.012523154
0003a0 20 28 e1 bc c6 e3 96 3d e0 70 b2 bc 16 cc 0c 3d
       -0.027484953 0.07367663 -0.021782339 0.03437432
0003b0 c1 aa 14 3d 0f 6b a4 bd 59 97 e7 bd 34 39 31 bd
       0.036295656 -0.08028232 -0.11308164 -0.043267444
0003c0 64 ff af 3d a6 1d a4 3b 7f 8b 39 3d 95 24 90 3c
       0.08593634 0.005008417 0.04529905 0.017595569
0003d0 ab 24 53 3d 7e 80 17 bd b9 61 2d bd b1 97 40 bb
       0.05154864 -0.036987774 -0.042329524 -0.002938729
0003e0 50 ad 97 3d a4 83 09 bc 0c 50 1b bd 5d 29 dd bd
       0.074061036 -0.008393202 -0.037918136 -0.10798905
0003f0 cd b0 43 bd c0 46 6d bc 92 48 62 bd e1 6c 8d bd
       -0.047776032 -0.0144822 -0.05524499 -0.06905533

encoder.1.0.bias f4 [9]
000000 57 3c ed bc 57 b9 8c 3d db bb 19 bd a1 9f bd 3c
       -0.028959436 0.06871288 -0.03753267 0.023147406
000010 4d 9d 13 3d 9f c1 c3 3c 64 89 7e bd 9e 10 b9 bd
       0.036038686 0.023896037 -0.062142745 -0.090363726
000020 7e a9 f2 3d
       0.11848734

encoder.1.1.weight f4 [9]
000000 93 fd 28 3f 9d ff 5f 3f f7 41 47 3f 39 99 36 3f
       0.66011924 0.8749941 0.7783503 0.7132755
000010 98 00 88 3f 75 36 fa 3e 0b fc 65 3f 10 cb 49 3f
       1.0625181 0.48869672 0.8983771 0.78825474
000020 b3 4d 5f 3f
       0.87227935

encoder.1.1.bias f4 [9]
000000 5c 8a 68 bc 5c 77 35 bc ff 7b 10 bd 10 f3 12 bb
       -0.014193144 -0.011075821 -0.035274502 -0.0022422709
000010 0b e2 c2 bd 7f 15 a8 bd 32 e8 1e bc 3c 5f 07 be
       -0.095157705 -0.08207225 -0.009698914 -0.13219923
000020 38 36 99 bc
       -0.018702611

encoder.1.1.running_mean f4 [9]
000000 59 e5 11 be d6 a5 d6 3c 54 c6 67 bd 04 39 d3 bd
       -0.14247645 0.026202124 -0.056585625 -0.10313609
000010 19 8f c5 3d ce ef 9f 3d 13 9a d9 bc 3c b4 95 bc
       0.09646434 0.07809411 -0.026562726 -0.018274419
000020 b0 c5 38 3d
       0.045110404

encoder.1.1.running_var f4 [9]
000000 2d 59 1a 3f 84 01 ac 3f 31 2e ba 3e 28 2d 44 3f
       0.6029232 1.3437963 0.36363366 0.766314
000010 cb b0 0f 3f a9 82 a8 3e ef 96 f4 3e 44 dd 10 3f
       0.5612914 0.32912186 0.47771403 0.56587625
000020 f2 e1 e5 3e
       0.44898945

encoder.2.0.weight f4 [5, 9, 5]
000000 93 30 d7 3d 7f 10 98 bd 65 c5 f2 3d b7 82 bb bd
       0.10507312 -0.074250214 0.11854056 -0.09155791
000010 f0 f3 b1 bc 01 71 b7 bd 15 98 8d 3d a0 cc 09 3d
       -0.021722764 -0.08957101 0.06913773 0.03364241
000020 fe fb 97 bd 31 fb d9 3c ee c5 c0 3c 50 56 85 bc
       -0.074211106 0.026609035 0.02353188 -0.016276509
000030 11 76 75 3d 8d 23 33 bd 37 cd 9b bd 6d 82 12 bd
       0.05992705 -0.043735076 -0.07607501 -0.035768915
000040 58 ad 19 3d 7d ba ed 3d 21 c5 17 bd 83 8a 14 be
       0.03751883 0.116078354 -0.03705323 -0.14505963
000050 ef 6a a8 3d 5b 1f 61 bd 11 ba 0d 3e b8 a3 be bd
       0.08223521 -0.054961544 0.1384051 -0.093085706
000060 5f c3 c7 3d 27 7f 91 3d 08 a0 b1 bc 3b c3 2c bd
       0.09754061 0.071043305 -0.021682754 -0.042178374
000070 8b 18 92 3a ba ab 46 3d ad 00 aa bd 17 68 c3 3c
       0.001114623 0.048503615 -0.0830091 0.023853345
000080 25 b0 28 3d 5e a3 bf 3d 05 3d 81 3d 8a b4 e3 3b
       0.04118361 0.09357332 0.06310467 0.006949012
000090 2c 21 c5 3d a5 92 2c 3e 82 74 05 3e 61 b0 df bd
       0.09625468 0.16852815 0.13032725 -0.109223135
0000a0 bb 1b 50 bd d2 80 3e 3e bd 4f e3 bd 13 30 a3 3d
       -0.050807696 0.18603829 -0.11099193 0.07968154
0000b0 d5 3f c0 3c f2 56 8a 3d 57 46 92 3b c5 42 c0 bd
       0.023467937 0.06754865 0.0044639516 -0.09387735
0000c0 97 0e a6 3d 9d 29 81 b9 c6 d7 db bc 79 70 c0 bd
       0.081082515 -0.00024635802 -0.026836287 -0.093964525
0000d0 07 0c f4 bd 71 51 1f bd 85 35 5b bd 5d 27 be 3c
       -0.119163565 -0.038896028 -0.053517837 0.02321213
0000e0 9e 76 7d bd e7 83 af 3d 19 61 fc bc 9e 93 53 3d
       -0.0618807 0.0857008 -0.030808019 0.05165445
0000f0 77 13 a2 3c 71 53 39 3d fc ea 14 bb f0 50 cc 3d
       0.019784672 0.04524559 -0.002272307 0.09976375
000100 6d 04 13 3a a9 f2 b5 3c 31 1a cf 3d 08 25 86 bd
       0.00056082645 0.022210436 0.101124175 -0.06550032
000110 e7 0d 90 3d 97 42 ea 3b ea 7a 3d bd 93 0c 01 bd
       0.07033902 0.0071490514 -0.046259798 -0.031506132
000120 6d 7a e8 3d de 3b e3 bd c2 11 85 3d 6e 7f be bd
       0.11351476 -0.11095403 0.06497528 -0.09301649
000130 50 94 8f 3d 1f 3f 00 3e ea 50 e2 bd 9b 1d 52 3d
       0.0701071 0.12524079 -0.110505894 0.051297765
000140 1d c4 5a 3d ff 54 58 3c 78 ad 2b 3e 8f 63 30 bd
       0.053409684 0.013203858 0.16765392 -0.043063696
000150 90 81 a8 3d c0 a2 5c 3d 40 11 b3 bc 7b b5 79 3d
       0.08227837 0.053866148 -0.021858811 0.06096409
000160 50 b6 8e bc 7d 8d 76 bd b9 33 b7 bd 10 c2 a6 3d
       -0.017420918 -0.060193527 -0.08945412 0.08142483
000170 88 c5 41 3d 8f bc 12 bd 9e 29 a0 3c d1 e1 f2 bc
       0.04730752 -0.035824355 0.019551095 -0.029648693
000180 1b af c9 3a 2a 3c 64 bd e3 ce f9 bd 7d 1c 47 3d
       0.0015387269 -0.05572144 -0.12197664 0.048611153
000190 a2 3f 28 bd d5 75 f3 3d 60 a7 5f bb 77 25 79 bd
       -0.04107631 0.11887709 -0.0034126863 -0.060826745
0001a0 e2 7f 1a bd db f6 ad bc 7e 05 29 bd dd 15 36 3d
       -0.037719615 -0.021235874 -0.041265003 0.044454444
0001b0 8f 04 0a 3e f8 3d d4 bd 56 da 15 bc 6f bf 07 3e
       0.13478301 -0.10363382 -0.009146294 0.1325662
0001c0 9a 39 a3 3d 5e cd 81 bd 80 91 30 3c 73 b6 5f 3d
       0.07969971 -0.06337999 0.010776877 0.054617357
0001d0 51 9d 16 3e 6c 73 f0 bd 77 1f db bb 9b 68 94 bd
       0.14708449 -0.11740765 -0.0066871005 -0.072465144
0001e0 fd b8 44 3d c9 46 9c bd 8b 60 88 3d 8d 6b 63 bd
       0.04802798 -0.07630689 0.06659039 -0.05552249
0001f0 53 05 5a bd 76 2a d5 bb 7e 26 19 3e 3e fc 4c bd
       -0.053227734 -0.006505306 0.1495609 -0.050045244
000200 94 d8 19 be 2f 7a a9 bd 42 5f b5 3d b6 11 c8 bd
       -0.15024024 -0.08275258 0.088560596 -0.09769003
000210 d2 2c 37 3d 48 27 b2 3d f7 0a 35 bc 17 d0 1c bd
       0.04472048 0.086988986 -0.0110499775 -0.038284387
000220 48 29 f4 3b 71 eb 08 be dd 3d 75 bd 7c 81 37 bd
       0.00745121 -0.13371064 -0.05987345 -0.04480122
000230 3a 78 be 3d de 4c e5 3d 06 72 07 be 8e df db 3d
       0.09300275 0.11196302 -0.1322709 0.10735999
000240 49 a1 9b 3d b7 11 dc 3d 5f 94 87 3d c2 bd 9c 3d
       0.07599122 0.10745566 0.066200964 0.07653381
000250 cc f1 f0 bd 4c fc 13 3d 23 89 8d bd 25 c1 75 3d
       -0.11764869 0.03612928 -0.069109224 0.05999865
000260 fb 8e 84 3d 37 71 12 bc a3 a4 a4 3d bd 46 03 3e
       0.06472584 -0.008938125 0.080392145 0.12819953
000270 32 b5 61 3e 0d 08 6a 3e 26 bb 8c 3d 5b 3c 82 3d
       0.22041777 0.22854634 0.06871633 0.06359168
000280 b7 58 f0 3d f3 4a 91 3d 7f 72 87 3d 0c 50 19 3c
       0.11735671 0.070943736 0.06613635 0.009357464
000290 ca 4e 79 3c 30 aa 96 bd 20 1a 8f bd e3 2e a4 bd
       0.015216539 -0.073566794 -0.06987405 -0.080167554
0002a0 a7 cd 56 bd ed 25 be bd a5 8a 17 3e 14 4b 2a 3e
       -0.05244222 -0.092845775 0.14798982 0.16630203
0002b0 09 ba 59 3e c1 55 d9 3c 32 37 66 3e db 88 7c bd
       0.21262373 0.026530148 0.22481993 -0.061653953
0002c0 23 c8 dd bd f3 68 48 3d f3 76 e3 3c 76 65 9a bd
       -0.10829189 0.048928212 0.02776668 -0.075388834
0002d0 38 ac 6c 3d 34 b7 95 bd bc de de 3c b3 b0 11 3e
       0.057781428 -0.07310334 0.027205817 0.14227562
0002e0 94 65 00 3e b5 ef 4b 3d fd 03 89 bd 4e 47 86 3d
       0.12538749 0.04978915 -0.06690214 0.06556569
0002f0 d4 26 ce 3d 55 ee 0a 3c 52 4b 8f 3d b1 4b 18 3d
       0.100659996 0.008479674 0.06996788 0.03718156
000300 80 23 18 be 56 4e 4a 3d 63 72 f8 3c 82 5b 66 bd
       -0.14857292 0.049391113 0.030327981 -0.056239612
000310 85 c7 98 3c 45 e9 15 bc 03 e4 b2 3d e5 50 67 3d
       0.018649826 -0.009149854 0.08734896 0.05647363
000320 48 f7 bd 3b 4e 5d c6 bd 96 28 45 be 83 d7 8b bd
       0.0057973005 -0.09685765 -0.19253764 -0.06828215
000330 07 99 eb bd cf cc db 3d e5 6f 4d 3c f4 ca a2 3d
       -0.11503797 0.107324235 0.012538885 0.079488665
000340 ec a0 25 bc 7c 29 0f be ac db c6 bd b9 4d dd 3d
       -0.010109168 -0.13980669 -0.09709868 0.1080584
000350 8b 34 d2 bd c1 7f ff bb fe 72 d8 bc 6b 5f bb bd
       -0.10263928 -0.007797212 -0.02642202 -0.09149059
000360 b2 e4 56 ba 34 76 5a bd 68 f7 01 be 20 7a 9f bd
       -0.00081975304 -0.053335384 -0.12692034 -0.07786965
000370 29 e2 03 bd 5c ee ca 3b 68 3b 41 be 4b 9c b8 bc
       -0.032198105 0.0061929654 -0.18870318 -0.022535464
000380 08 bf 8c 3d
       0.06872374

encoder.2.0.bias f4 [5]
000000 24 90 bd 3d 75 fb b2 bd 58 14 56 bd e8 86 6c be
       0.09256008 -0.08739368 -0.052265495 -0.23098338
000010 25 d7 ad 3c
       0.021220753

encoder.2.1.weight f4 [5]
000000 18 ec 49 3f f3 50 50 3f 7f f8 5a 3f 96 e7 8a 3f
       0.78875875 0.8137352 0.85535425 1.0851924
000010 65 17 59 3f
       0.8480132

encoder.2.1.bias f4 [5]
000000 90 1b f8 bc af 3a 41 bd 24 2f b5 bc 29 b7 36 be
       -0.03028658 -0.047175106 -0.022117205 -0.17843308
000010 72 66 93 3c
       0.017993186

encoder.2.1.running_mean f4 [5]
000000 9e 26 91 3d 67 53 de bd 65 15 f4 bd 75 40 19 be
       0.07087444 -0.108557515 -0.11918143 -0.14965995
000010 37 2a 07 3d
       0.032999244

encoder.2.1.running_var f4 [5]
000000 30 f5 54 3f 32 d7 b5 3e a3 c2 23 3f 79 1a ba 3e
       0.83186626 0.35515743 0.6396887 0.36348322
000010 59 9b 59 3f
       0.85002667

decoder.0.0.weight f4 [5, 9, 5]
000000 61 2a a9 bd ee fb d0 3c e7 47 10 3d 48 9a 66 3d
       -0.08260036 0.025510754 0.03522482 0.056299478
000010 76 31 67 bd 12 37 d8 bc 8c 6d eb bd de 78 f5 3b
       -0.056443654 -0.026393447 -0.11495504 0.007491215
000020 15 e4 84 3d 48 f0 88 bd f3 7a 58 3d 6a df 25 be
       0.06488816 -0.06686455 0.05285163 -0.16198507
000030 29 86 2d 3d 12 b7 0a 3d 90 ef d6 3c 8f ac be bd
       0.042364273 0.033865996 0.02623728 -0.09310257
000040 da ab 9c ba 69 1d 78 bc e5 ab 77 bc 9d bd 62 bd
       -0.0011953071 -0.015143731 -0.015116666 -0.05535661
000050 00 88 70 bc a9 7d 9c 3d 3d 25 3f 3d a8 4d 0b 3d
       -0.014680862 0.07641155 0.046666373 0.034009606
000060 c7 92 de 3d f5 ec e9 3d 51 17 30 bb a8 7e 0b 3e
       0.10867839 0.11422149 -0.0026869366 0.13622534
000070 ea 9b b8 bd 65 ff 4a bc 12 64 cc bc 67 2f 92 bd
       -0.09014113 -0.012389992 -0.024950061 -0.071379475
000080 41 01 15 3d 88 9c f8 3c cf ef 6a bd 6c f0 39 bd
       0.03637815 0.030348077 -0.057357606 -0.0453953
000090 5a 9a ad bd 6f 6a 9f bc b2 60 5c 3d 3c 8f 06 3e
       -0.08476706 -0.019459931 0.053803153 0.13140577
0000a0 dd 3b 04 3e 1f f7 48 3d f4 5a a7 bd 81 59 a5 bd
       0.12913461 0.049063798 -0.08171645 -0.08073712
0000b0 f2 cc fb bc 51 78 a0 bd ac 68 d5 bc 00 ef 53 3d
       -0.030737374 -0.078354485 -0.026050888 0.0517416
0000c0 bf a7 d2 3d 0d de 21 be ca 36 4a 3c ab 49 29 3d
       0.10285901 -0.15807362 0.012342164 0.04133002
0000d0 7f aa e3 bc 5d 81 92 bd d7 ad 9c 3b 2f 51 18 3e
       -0.02779126 -0.0715358 0.0047814655 0.14874719
0000e0 7b 0f dd bb 1a 31 a9 3d 2b e7 82 bd 6e 63 b1 3d
       -0.00674623 0.082613185 -0.06391748 0.08661543
0000f0 7f fa e1 3b a7 40 bb bd f6 45 16 3b 59 c5 73 bd
       0.0068963165 -0.09143191 0.0022929884 -0.059514377
000100 52 78 27 3d c9 a7 dc bd 37 40 bd bd 42 0b c2 bd
       0.04088623 -0.1077419 -0.09240764 -0.094748035
000110 7f 85 f8 3d 70 f8 43 3d 15 0f e5 3c a5 08 ad 3c
       0.12134837 0.04784435 0.027961293 0.021122286
000120 00 6d 25 bc e8 f6 6f 3d 47 a7 66 bd 65 df a5 3c
       -0.010096788 0.058585078 -0.05631187 0.020248124
000130 d4 3f 04 bd 5f f4 bc bc 48 1f 05 3d 66 d4 20 3d
       -0.032287434 -0.023065744 0.032500535 0.03926506
000140 5b c5 61 3c 56 b7 da 3d 98 9b a7 3d 49 21 6e bc
       0.013779963 0.106795 0.08183974 -0.014534303
000150 6f 22 04 3d 18 4e 99 bc b0 54 96 bd 12 04 ba bd
       0.0322594 -0.018713996 -0.073403716 -0.090828076
000160 2f e2 ee 3d 14 bc 04 3d 06 00 94 3d ea e5 0f be
       0.11664235 0.032405928 0.07226567 -0.14052549
000170 e8 9b 14 be a5 5b d4 bd 89 26 aa 3c 19 96 5a 3d
       -0.14512599 -0.10369042 0.020770328 0.0533658
000180 97 59 02 3e ed ca 8c bd 14 bc 14 be b6 a3 62 3d
       0.12729488 -0.068746425 -0.14524871 0.05533191
000190 c2 8c b9 3d aa e9 9d bd 95 3a 0a 3e 14 17 9f bd
       0.090600505 -0.077105835 0.1349891 -0.07768074
0001a0 01 2e 67 bd 01 fb 6d 3c f4 cf fb bd a4 4d bb 3d
       -0.056440357 0.014525176 -0.12295523 0.09145668
0001b0 16 5d d7 3d c5 a4 42 3c 2b cd e5 bd 2d ef 7f bd
       0.105158016 0.011880104 -0.11220773 -0.062483955
0001c0 58 a4 32 bd 2f c5 ee 3d d2 a0 c5 3d 98 da 12 3e
       -0.04361376 0.116587035 0.09649815 0.143412
0001d0 0e ef df bd a9 18 38 3d 8c 1b eb bc 9a c7 80 3d
       -0.10934268 0.044945393 -0.028699659 0.06288071
0001e0 c1 d3 ab 3d c1 03 bf bd e1 99 12 3e 5f ab c8 bc
       0.08389998 -0.09326888 0.14316513 -0.024495779
0001f0 b0 6e 80 bd df 73 58 3d f3 e8 a0 3c fa 63 8c 3d
       -0.06271112 0.05284488 0.019642329 0.068550065
000200 06 e1 21 3e e8 be 89 bc 29 8f d4 3d 3c da 33 bd
       0.15808496 -0.016814664 0.10378868 -0.043909296
000210 5f db 1d be 80 ab 48 bc 93 1a 04 3e 5d c6 1b 3d
       -0.15415715 -0.01224792 0.12900762 0.03803097
000220 dc 51 72 bd 3a 64 9b bd 39 0a 7b 3d 6a 16 c3 bc
       -0.0591601 -0.07587476 0.061289046 -0.023814399
000230 9d 5f af 3d 13 34 a7 3d 9b ac 04 3e c0 15 0c bd
       0.08563159 0.08164229 0.12956469 -0.03420043
000240 8f c9 eb bd 27 b5 b0 3d 1f f1 99 3c d9 55 9a 3d
       -0.115130536 0.08628302 0.018791733 0.075359054
000250 cb a5 93 bd 5f b5 82 bd 73 38 82 bd 52 69 f7 bd
       -0.07209357 -0.0638225 -0.06358423 -0.12080635
000260 f8 01 9e 3d 64 8d ba 3d 96 7b f2 3c 60 94 07 be
       0.07715219 0.09108999 0.029599946 -0.13240194
000270 af bb 82 bb 36 74 c9 bc 7b a6 50 bd 29 0f 42 3d
       -0.003989659 -0.024591547 -0.05094002 0.04737774
000280 44 40 c4 3d 87 d9 86 bd 12 4a ad bd ff d2 09 3d
       0.0958257 -0.06584459 -0.084613934 0.033648487
000290 3e 1a 41 3d b0 73 7b bd bd c0 28 bd 25 a2 b8 3d
       0.047144167 -0.061389625 -0.041199435 0.090153016
0002a0 45 a1 8d 3d 10 2d dd 3c e7 89 51 bc 12 2d 8b 3d
       0.06915525 0.026999027 -0.012789226 0.06795706
0002b0 c7 d7 9c bc d2 61 13 3d d2 b5 26 3d 58 01 82 3d
       -0.01914586 0.03598196 0.04070074 0.063479125
0002c0 b3 ad a5 bd 1c 55 1f be f1 64 04 be 38 7d c5 3d
       -0.08089771 -0.1555981 -0.12929131 0.09643024
0002d0 ff 2f 2f bc 11 b0 f1 bc 05 b0 11 39 ab af 95 3d
       -0.0106925955 -0.0295029 0.0001389385 0.07308897
0002e0 42 01 02 be 1d a4 bc bc 1c 49 6c bd 4d 54 94 bd
       -0.12695792 -0.023027474 -0.05768691 -0.072426416
0002f0 be 75 37 3d f9 ff 68 3d 73 27 1e 3c d2 af 33 3c
       0.044790022 0.05688474 0.00965296 0.010967212
000300 3a 85 83 3d c5 b6 af 3d 87 3b 0f 3d f6 36 6c 3d
       0.06421895 0.085797824 0.03496888 0.057669602
000310 9a bb 28 bd 30 dd 1e 3c 0d a9 ab bd 74 cc 75 3c
       -0.041194536 0.00969629 -0.08381853 0.015002359
000320 1e 3e fc 3d cb 9d 88 bc cb 17 11 3e 0f cb 04 3e
       0.123165354 -0.016676804 0.14169233 0.12968086
000330 1a 24 ae bd 35 8b 4e bd 69 56 08 3c 24 e1 14 3e
       -0.085029796 -0.050425727 0.008321383 0.1453901
000340 09 11 b4 3c 15 7f 33 bd de 1c c2 bc ef e3 f5 bc
       0.02198078 -0.043822367 -0.023695406 -0.030015914
000350 0d fd 5f bc 0a e4 be bd 0e 0e f4 3c 74 ec 3e 3d
       -0.013671172 -0.09320839 0.029791858 0.046612218
000360 c1 6a 80 bd a9 4d 73 3d 2f c8 8f bc a1 00 12 bd
       -0.06270362 0.059400234 -0.01755151 -0.03564513
000370 50 49 33 bd c3 ba 1a 3d f5 6a a2 3d 2d 6c 64 3d
       -0.043771088 0.037775766 0.07930557 0.055767227
000380 72 40 20 b6
       -2.387937e-06

decoder.0.0.bias f4 [9]
000000 5d 2d 8b 3d 5f f7 b0 bb 38 8a e1 bc 4c 49 87 bd
       0.06795762 -0.0054005827 -0.027531728 -0.06605777
000010 9e 6d fe 3c 71 dc db 3d f7 52 d6 bc 76 a2 5c 3d
       0.031058129 0.10735405 -0.026162608 0.053865872
000020 ad 5a 0d be
       -0.13804121

decoder.0.1.weight f4 [9]
000000 47 bc 67 3f a4 ad 71 3f f2 d2 39 3f 33 a1 5f 3f
       0.90521663 0.9440558 0.725875 0.87355345
000010 69 5e 4e 3f 58 4d 55 3f 1c b5 4c 3f 2d a2 4f 3f
       0.8061281 0.8332114 0.7996385 0.81106836
000020 d4 3d 81 3f
       1.0096993

decoder.0.1.bias f4 [9]
000000 be 88 d1 bc 6e 91 08 bd cd a2 36 bb 37 09 c0 b9
       -0.025577899 -0.033341818 -0.0027868033 -0.0003662796
000010 0e 8f 80 bd be 91 45 bd 11 74 c3 bc 59 93 eb bc
       -0.062772855 -0.048234694 -0.023859056 -0.028756784
000020 f2 e6 e2 3c
       0.027698014

decoder.0.1.running_mean f4 [9]
000000 63 24 e6 3d 3c f2 6a bd 8d 86 43 bd 86 19 10 be
       0.11237409 -0.05735992 -0.04773574 -0.14072236
000010 0f d4 cc 3d 38 a4 ab 3d bc af b9 bd 84 04 9c 3c
       0.100013845 0.083809316 -0.09066722 0.019045122
000020 3d 85 f9 bd
       -0.12183616

decoder.0.1.running_var f4 [9]
000000 c3 ba 95 3e 04 83 76 3e 4d b9 0b 3e 54 79 76 3e
       0.2924405 0.24073416 0.13644905 0.2406972
000010 d6 a9 5c 3e b1 05 21 3e 16 02 28 3e a0 d7 9a 3e
       0.21549162 0.15724827 0.16407046 0.30242634
000020 7e 15 e7 3e
       0.45133585

decoder.1.0.weight f4 [9, 18, 5]
000000 20 de 43 3d 52 9a 4d bd e1 b1 cc bc 70 03 1b 3c
       0.047819257 -0.050196 -0.024987163 0.009461269
000010 84 d5 1c be 01 8e be bc 3f 4e b0 3d 2c 99 ae 3c
       -0.15315825 -0.023261072 0.08608674 0.021313272
000020 02 ea de 3d bb 4f 15 3e 8e 97 9d b9 aa e1 1d bd
       0.10884477 0.14581196 -0.0003005829 -0.03854529
000030 af d2 fa 3d 0e 97 19 bd 54 ca 01 be 56 08 2c bd
       0.12247216 -0.037497573 -0.12674838 -0.042000137
000040 fa 56 94 3c bd 3f dd 3c c5 cc 8d bd 1e f8 c8 3d
       0.01810788 0.027007932 -0.06923822 0.098129496
000050 8a 01 8f 3c 45 a5 0f 3c 06 88 82 bc 19 e6 bb bc
       0.017456789 0.008767431 -0.015934002 -0.022936868
000060 a7 ac 5e 3d 18 d3 03 be 30 16 0e bc 33 a5 15 3e
       0.054363873 -0.12873495 -0.008672282 0.146138
000070 28 04 49 bc 12 5d a7 bc 37 13 da 3d ff 82 06 be
       -0.012269057 -0.020430122 0.10648196 -0.13135909
000080 a4 72 8c 3c f3 eb 5d 3c 23 96 eb 3b 26 e0 cb 3d
       0.017144509 0.013545024 0.0071895286 0.09954862
000090 c3 b8 92 3c 66 b2 aa 3c fe 3f 84 bd b7 92 a3 bd
       0.017910367 0.02083702 -0.06457518 -0.07986968
0000a0 f1 04 43 bd ee ab 95 bd 35 21 0e 3c 5e bc 2c 3d
       -0.047612134 -0.073081836 0.008674909 0.04217183
0000b0 82 cc 38 3c 3d 3d 03 bd 0a e3 27 3d 25 d5 98 bd
       0.011279227 -0.032040823 0.040988006 -0.07462529
0000c0 91 80 dc 3d 46 6b 98 3d d5 9a 6e bd de 5c 11 bc
       0.107667096 0.07442336 -0.058253128 -0.008872239
0000d0 63 31 a2 bd 4f d2 3b bb e9 9d c8 3d 02 40 19 bd
       -0.07919576 -0.002865929 0.09795744 -0.03741456
0000e0 70 a3 a7 3d b2 6c 79 3d 23 65 0f bd 9a ef 13 bd
       0.0818547 0.060894676 -0.03500856 -0.036117174
0000f0 fc 51 74 bc 7f d3 96 bd 84 0b d2 bd b2 62 5e bd
       -0.014912125 -0.073645584 -0.10256103 -0.054293342
000100 6a da 96 3b 30 5a b0 3d 84 98 18 bd 5a f4 fc bb
       0.0046036737 0.08610952 -0.037254825 -0.0077195587
000110 bd da 36 3d a5 45 bf 3d 90 6f 95 bd a2 09 b6 bd
       0.0446422 0.093394555 -0.072966695 -0.08888556
000120 94 df 42 3d 1f 10 71 3d 8f 53 83 3d 29 eb f6 3d
       0.047576502 0.058853265 0.06412422 0.12056572
000130 cd ee 0f 3d 92 f6 92 bc a4 64 28 3e f8 b1 25 3d
       0.035139848 -0.01793984 0.16444641 0.040452927
000140 4c 00 00 bd 9a 93 d4 3c 97 34 8b 3c d8 0b a7 bd
       -0.031250283 0.025949288 0.01699285 -0.08156556
000150 3f bc 11 bd dc 20 c5 3d d2 b0 69 bc cf da d6 3c
       -0.035579916 0.09625408 -0.014263349 0.026227383
000160 ca 69 24 3d bc d0 49 3d c1 2a c1 3c fe 35 87 bc
       0.04013995 0.04927133 0.023579957 -0.016505238
000170 d8 67 5d 3d 49 88 67 bc f2 ed 60 3d 07 35 86 3d
       0.05405411 -0.014131614 0.054914422 0.06553083
000180 66 d1 15 3d f1 03 82 3d 9d 68 d8 3c da 65 7d 3d
       0.03657665 0.06348408 0.026417071 0.06186471
000190 a4 1c 4c bd 60 d1 d8 3d 72 7c b1 3d 60 c5 d7 3c
       -0.049832 0.1058681 0.08666314 0.026339233
0001a0 e4 53 95 bd bf f0 57 3d 90 ab 4e 3d 32 e7 e2 3d
       -0.072913915 0.052719828 0.050456583 0.11079253
0001b0 62 1d ae bd 17 bb 77 bc 1c f7 6e 3c 17 cb 40 3d
       -0.08501698 -0.015120289 0.014585283 0.04706868
0001c0 e5 6d a7 bc 00 4f 32 3d e8 b5 b6 bd e8 a0 91 bd
       -0.020438144 0.04353237 -0.089214146 -0.071107686
0001d0 98 0c bb bc 4b b3 68 3d 66 cf 97 3d b4 e9 91 3d
       -0.022833154 0.056811612 0.07412605 0.071246535
0001e0 89 3e 27 3d 78 c5 79 3d 81 4e be bd 49 b0 20 3d
       0.040831123 0.060979337 -0.09292317 0.03923062
0001f0 a5 84 01 3c 0e 2e 4e 3d 86 e1 b1 3c 2d a0 d3 bd
       0.00790516 0.05033689 0.021713983 -0.103332855
000200 b5 9a 5e 3d c9 20 59 bd a5 dc 33 3d 7b 98 2c 3d
       0.05434676 -0.053009782 0.043911595 0.042137604
000210 50 e5 db bd 0d 45 98 3d 24 f6 92 bd 3d b8 bb bb
       -0.10737097 0.074350454 -0.07175854 -0.00572875
000220 f5 13 b0 3d 7d 1b 6d bd 6e 90 5e bd fb 8f aa 3c
       0.085975565 -0.057887543 -0.054336958 0.020820608
000230 ad b9 a7 3d 3a 7a 8a 3d d8 44 d6 bb 9f df 64 3d
       0.08189712 0.06761594 -0.0065389685 0.055877324
000240 15 64 bc 3d 59 75 31 bd 97 3e 92 bd 7a 4b 27 3d
       0.09198777 -0.043324802 -0.07140844 0.040843464
000250 19 70 06 3d e9 3e 51 3c fd 45 4e 3d 5b ea 11 3d
       0.03282175 0.012771347 0.050359715 0.03562389
000260 f1 cb b9 3d ae c8 56 3d ea 5b ff 3b 25 d7 41 bd
       0.09072102 0.052437477 0.0077929394 -0.04732432
000270 81 04 53 bd e6 64 da bd f8 b3 4c bc 0b 86 40 bc
       -0.051517967 -0.10663776 -0.01249408 -0.011750708
000280 08 33 bf bc 2d 71 f8 bc 0c 38 82 3d 14 ed c2 bd
       -0.023339763 -0.030327404 0.06358346 -0.09517875
000290 6f 6f 6b 3d a1 e8 c6 3c c3 b8 f1 3a 7e 52 86 3d
       0.05747932 0.024280848 0.0018441904 0.06558703
0002a0 e1 39 06 bc 1e 49 a4 3d 26 5d e5 3c a5 8c 9e 3d
       -0.00819251 0.080217585 0.027998518 0.077416696
0002b0 35 3f 68 3d 80 b6 fd 3d 2f c1 9f 3d f9 d4 99 bd
       0.056700904 0.12388325 0.07800519 -0.075113244
0002c0 25 5f 12 3d e0 f1 88 3d 08 ba ae 3c 4d fc 80 bd
       0.03573527 0.06686759 0.021328941 -0.062981226
0002d0 07 f6 de 3c 40 72 e8 bd b5 8a c3 bb 34 5b 3d 3c
       0.027216924 -0.113499165 -0.005967463 0.011557389
0002e0 d7 41 1d bd 56 67 2c 3d 53 0e 71 3d 3e 02 81 bb
       -0.038392868 0.042090736 0.05885155 -0.003937035
0002f0 dc 4f df bc fe 27 cf 3d 61 52 c4 bc e9 c6 b2 bd
       -0.02725976 0.1011505 -0.023965063 -0.08729345
000300 54 c0 a1 3d 87 71 15 bd d2 d6 bd 3d a3 08 3b 3d
       0.07898012 -0.03648522 0.09269489 0.045662533
000310 5a 75 f3 3d a2 1d 7f 3d c1 ec 02 3e 1a 8f 2e 3d
       0.118876174 0.06228412 0.12785627 0.04261694
000320 57 33 e6 bd 90 22 79 bc d2 e0 24 bb 00 79 c8 3d
       -0.11240261 -0.015205994 -0.0025158417 0.09788704
000330 d7 80 14 3d 99 e9 ba 3d d8 7f 30 bd 42 a7 f3 bd
       0.036255684 0.091265865 -0.04309067 -0.11897136
000340 ec 0a c5 bd a1 c7 c1 3b 8d 60 4c 3b 51 67 ad 3d
       -0.09621224 0.00591369 0.0031185478 0.08466972
000350 cd 38 cb 3c 61 8b 34 bd c7 de ea bd 52 21 03 bd
       0.024807358 -0.044078235 -0.11468273 -0.0320142
000360 12 9e b6 bd 54 9e a5 bd 8c 3c 50 3d 7f 84 85 3d
       -0.08916868 -0.08086839 0.050838992 0.06519412
000370 06 92 bd bc 5b 21 4f bd d3 84 8e 3d 15 3a 8f 3d
       -0.023140918 -0.05056892 0.06958928 0.069935
000380 2d 7f 44 3d af e8 91 bd 24 1e cf 3d 82 2d 19 bc
       0.047972847 -0.07124459 0.10113171 -0.009349229
000390 cc fc 45 bc b1 13 5a 3d 22 88 c4 bd 19 d4 a6 3c
       -0.012084197 0.053241435 -0.09596278 0.020364808
0003a0 2a 07 e3 bc 33 63 0e 3d bc f8 8c 3d 2f 28 82 bd
       -0.027713377 0.034762572 0.0688338 -0.06355321
0003b0 c5 98 c4 3d bd 29 b1 3d 22 bd 8b bd ce ff bf bc
       0.09599451 0.08650539 -0.068231836 -0.023437407
0003c0 cb 3c 37 3d 7d 3c 23 bd 45 bf 10 bd e1 12 af 3a
       0.04473571 -0.039852608 -0.03533866 0.0013357067
0003d0 a8 e0 8c 3d 98 08 9f bc 53 9a ce 3b 85 cd a4 3c
       0.06878787 -0.019413278 0.006305018 0.02011753
0003e0 3e 6b 41 bd c9 c0 ba 3b cf 65 45 3d e7 42 69 bc
       -0.047221415 0.0056992513 0.048192795 -0.014237142
0003f0 97 ed bd 3c 36 dd 90 bd 6a 85 5f 3d 30 10 2a bd
       0.02318458 -0.07073443 0.054570593 -0.041519344

decoder.1.0.bias f4 [18]
000000 86 24 c4 3d c7 62 ae bd 09 9d a8 3c 05 de 31 3d
       0.09577279 -0.08514934 0.020582693 0.043424625
000010 fc 1a 7f 3c bc 34 54 3d 9d e2 10 3d 0b a5 48 bd
       0.015570398 0.051808104 0.035372365 -0.048985522
000020 cf 64 84 3d 1b 28 be 3c ab 74 08 be 56 bb 4b bb
       0.0646454 0.023212483 -0.13325755 -0.0031087003
000030 66 26 a6 bd b0 e4 18 bb 70 b9 28 bd 68 a6 2f bd
       -0.08112793 -0.0023329668 -0.041192472 -0.042883307
000040 e0 f4 52 bc ff 66 0f 3d
       -0.012875766 0.035010334

decoder.1.1.weight f4 [18]
000000 0e 7f 64 3f 1e b1 60 3f d3 bb 41 3f a3 ec 4e 3f
       0.8925637 0.8777026 0.7567722 0.8082983
000010 25 e9 43 3f 85 01 42 3f 78 0a 3e 3f eb 88 40 3f
       0.76527625 0.7578357 0.74234724 0.7520892
000020 f4 0e 79 3f d6 a1 4b 3f 8a 1d 7f 3f 6f e4 64 3f
       0.9728844 0.7954382 0.9965445 0.8941106
000030 83 5b 62 3f ce 4e 67 3f 56 73 7a 3f cb b8 29 3f
       0.88420886 0.9035462 0.9783224 0.66297597
000040 60 54 7a 3f 99 58 62 3f
       0.97784996 0.8841644

decoder.1.1.bias f4 [18]
000000 16 42 c0 bc a1 70 3f bd e2 70 f3 bc fb d9 f5 bc
       -0.023469012 -0.04673827 -0.029716913 -0.030011168
000010 79 4f bb bd b6 e9 fc bc 55 0f 1b bd d8 5c dc bc
       -0.091460176 -0.03087316 -0.03785642 -0.02689974
000020 f0 32 0e bc 60 9f 53 bd 0a 54 eb bd d0 5d 80 bc
       -0.008679137 -0.051665664 -0.114906386 -0.015669733
000030 59 f3 41 bd 95 ca 25 bc 54 8e fc ba cb 43 55 bd
       -0.047351215 -0.0101191 -0.0019268491 -0.052066606
000040 d1 81 c4 bd 08 04 17 bd
       -0.09595073 -0.03686908

decoder.1.1.running_mean f4 [18]
000000 22 46 82 3d 2c 98 ee bd db 97 66 bc 11 3d ef 3b
       0.06361033 -0.11650118 -0.014074291 0.007300981
000010 2e 8b 1f 3d ba 76 e2 3c 75 bb 01 3d 24 be 47 bc
       0.03895109 0.027644504 0.031672914 -0.012191329
000020 36 12 af 3c 89 57 72 3c e1 30 c2 bd 27 44 1a bc
       0.021370988 0.014791378 -0.09481979 -0.009415663
000030 7c 09 96 bd fa b9 88 3d df 49 93 bd c3 8b 07 bd
       -0.07326028 0.06676097 -0.07191824 -0.03309227
000040 86 bd ff 3c ba 0a dc 3c
       0.031218302 0.026860584

decoder.1.1.running_var f4 [18]
000000 a8 23 6c 3e e8 ef 0e 3e 4c 7b 19 3e 66 f3 21 3e
       0.23060477 0.13958704 0.1498844 0.15815505
000010 e3 32 1d 3e f4 b9 96 3e f8 ff af 3d d8 3d ee 3d
       0.15351443 0.29438746 0.08593744 0.116328895
000020 02 21 10 3e 84 fa 9b 3d 39 67 91 3d 34 6f df 3d
       0.14075091 0.076161414 0.07099766 0.10909882
000030 c2 a0 be 3d ec f5 37 3e 86 72 17 3e df fd 75 3e
       0.09308006 0.17964906 0.14789781 0.24022625
000040 4b 2d 61 3e ac eb 0f 3e
       0.21989934 0.14054745

decoder.2.0.weight f4 [18, 36, 5]
000000 a1 5d 82 3d c6 9f dd 3d 1a 5d d1 3d 77 81 e5 3d
       0.063655145 0.1082149 0.10222836 0.11206334
000010 99 79 53 3d 84 6a 07 3e 39 7a ee 3c 98 d3 8e 3d
       0.051629636 0.13224226 0.029111015 0.06973952
000020 5e 8f 1c bc 27 c5 85 3d de 8b 82 bc e1 dc a6 bd
       -0.009555666 0.065317445 -0.015935834 -0.08147598
000030 70 2d 84 bc bd d4 bf 3c 12 5b 9b bd 84 57 90 bd
       -0.016134948 0.023416871 -0.0758573 -0.07047942
000040 1a bc 89 3c 39 45 a1 bd 1c a6 40 bd da 29 fe bb
       0.016813327 -0.07874531 -0.047033414 -0.007756454
000050 d4 64 7e 3d 08 fa 02 3d 6f 8c 14 3d 8e 73 9b 3b
       0.062107876 0.03197673 0.03626674 0.004744
000060 cb fd 00 3c 20 3e 30 3d 08 e1 84 bd ba cf ee bd
       0.007873009 0.043027997 -0.06488234 -0.116607144
000070 23 24 a1 bc b3 b6 65 3d bb d9 65 3d 56 9f 42 bd
       -0.019670552 0.05608244 0.056115847 -0.047515236
000080 8f 30 1a bd b8 0c 45 bd 73 29 70 ba 8e f0 c4 3c
       -0.037643965 -0.048107833 -0.000916145 0.024040487
000090 2b cc 05 bd 25 47 f4 bd c7 08 5b bd 10 77 2c 3d
       -0.032665413 -0.11927632 -0.053475168 0.042105734
0000a0 f4 15 e9 3c 6f 2b 63 3d a6 b4 bf bc b9 fd 0c bd
       0.02845285 0.055461343 -0.02340157 -0.034421656
0000b0 82 12 88 bc a1 0f b0 3d a9 f5 a3 3d cf a7 a4 bd
       -0.016610388 0.08596731 0.0800584 -0.080398194
0000c0 60 dd a6 bc 1d 41 10 3d f2 46 91 bd 98 e5 35 3c
       -0.020369232 0.035218347 -0.0709361 0.011102103
0000d0 25 55 04 be 58 25 db bc 12 eb 4b bc 0d ed 1c bd
       -0.12923105 -0.026751205 -0.012446182 -0.038312007
0000e0 be 4e a6 3d 87 5d 51 be d4 37 50 bd 22 fb 58 bd
       0.08120488 -0.20445834 -0.05083449 -0.052973874
0000f0 6c 4d 45 bd b4 3d 37 3d 22 10 52 3c 1b cd 08 3e
       -0.04816954 0.04473658 0.012821229 0.13359492
000100 50 be 28 3d d1 57 db bd 1e 56 cc ba f6 14 c8 bd
       0.04119712 -0.10710109 -0.001558963 -0.09769623
000110 5c 07 7c 3c a9 b0 10 3d fd 44 32 bd fc 6f ba 3c
       0.015382614 0.035324726 -0.043522824 0.022758476
000120 41 40 93 bb 2b c1 a7 3c a1 4a 4a 3d 27 a1 21 3d
       -0.0044937436 0.020477852 0.049387578 0.039460327
000130 aa 5e 74 3c 41 0b e6 3c fe a8 fc 3b 41 32 75 bc
       0.014915148 0.028081538 0.007710575 -0.014965595
000140 2c a0 5b 3d aa 25 9b bd 6b 84 2e bd e3 d6 69 bd
       0.05361955 -0.07575543 -0.042606752 -0.057089698
000150 6b a9 9e bd eb fd 96 3d 50 41 5c 3d 11 cc 31 bd
       -0.07747158 0.0737265 0.053773224 -0.043407504
000160 cd 16 f7 bd fd 50 3b bd c5 a4 86 3d 0c 7d cf 3c
       -0.12064896 -0.045731533 0.06574396 0.025328182
000170 8e 79 4e bc 66 1d 75 bd 7a 2f b9 bc 2d 31 8f 3d
       -0.012602223 -0.05984249 -0.022605646 0.069918014
000180 f9 1f 2d bb 76 50 a8 bd b5 3b 23 bd 8c 9f b6 bd
       -0.0026416762 -0.08218472 -0.039851863 -0.0891715
000190 3d 5d e9 bc 24 82 5c bd 5b 4b c8 bd 13 76 b2 3c
       -0.028486842 -0.05383505 -0.09779998 0.021784818
0001a0 35 08 9c 3c 71 20 9b 3d bb ad 17 bd 2c 21 99 bc
       0.019046882 0.07574547 -0.037030917 -0.018692575
0001b0 34 b2 1e bd 50 88 cc bc b1 b8 45 bc a3 42 80 bd
       -0.038744166 -0.024967343 -0.01206796 -0.0626271
0001c0 6b ee 69 3d b5 6d 9f bc e6 a0 58 bc 02 11 7f bc
       0.05711214 -0.019461492 -0.013221955 -0.01556802
0001d0 18 be f7 3c 35 c3 23 bd 17 7f 8e bd e9 d0 df bc
       0.030242011 -0.039981086 -0.06957834 -0.027321296
0001e0 0a bf 80 bc 0b 78 8d bc 29 45 3c 3c 84 66 9d bc
       -0.015716095 -0.017269155 0.011491098 -0.019213922
0001f0 2b 07 f7 bc 39 20 36 3c f8 1f a4 bd 25 60 c6 bd
       -0.030154785 0.011116081 -0.0801391 -0.09686307
000200 c3 17 29 be 35 4b 81 bd ce b2 b1 3c 7b 12 36 3b
       -0.1651297 -0.06313173 0.021691706 0.0027782011
000210 d7 6f 13 bc 27 bd 03 3c 0e 97 b7 bc 87 7e 38 bd
       -0.008998833 0.008040703 -0.022410896 -0.04504254
000220 39 35 b9 bd 08 f0 b9 3d c2 8b eb 3c 30 6a 59 3d
       -0.090433545 0.090789855 0.028753165 0.053079784
000230 01 1a 45 bc 15 67 5c bd 85 8e ba 3c 42 77 13 bd
       -0.012030126 -0.053809244 0.022773037 -0.036002405
000240 0d bf 90 3d d0 08 6a bd 8a a6 71 bd 0b ce 91 3d
       0.0706769 -0.05713731 -0.058996715 0.07119378
000250 47 d4 28 3d f7 c6 83 bc 50 65 b4 bd d3 f4 ce bd
       0.04121807 -0.016086085 -0.08808386 -0.1010529
000260 bc 8d 8b 3c 61 b4 31 bd 08 94 d5 bc 2c 34 26 bd
       0.017035358 -0.043384913 -0.026071563 -0.0405771
000270 b3 1d cd bd 13 68 bf bc 85 99 9c bd 4c 1e 42 3d
       -0.1001543 -0.023365056 -0.07646469 0.047392175
000280 23 e8 e5 bb 5e 5e 80 bd 52 ee 00 bd da a9 04 be
       -0.0070161982 -0.06267999 -0.03147728 -0.12955418
000290 37 a6 0a bd da 77 c1 bc 7f ef 9a bd aa 64 16 3d
       -0.03384992 -0.02361672 -0.075652115 0.036717094
0002a0 14 f5 e4 bd 20 36 1c bb 82 85 d6 bc 2f 70 1f bc
       -0.111795574 -0.0023835972 -0.026186708 -0.0097313365
0002b0 4d 3d 9d bc 3c 72 68 3e a6 5e 41 3d 98 55 58 3d
       -0.01919427 0.22699827 0.047209404 0.052816004
0002c0 3b dd 6f 3d 0d 67 44 3d 9a 97 b8 3d d5 4b ec 3d
       0.05856059 0.04794984 0.09013291 0.11537901
0002d0 6c 8e ba bd 5c 8d 2f bd 9c ec d6 bd 6e 3a e3 bd
       -0.09109196 -0.04285942 -0.104943484 -0.11095129
0002e0 50 e4 c9 bd cc 9e ec bd f6 9b d9 bd b6 92 82 bd
       -0.09858 -0.115537256 -0.1062545 -0.06375639
0002f0 23 d5 a8 bd 6f e4 37 bd 68 29 43 3d 0e ed 18 3d
       -0.082437776 -0.044895586 0.04764691 0.037335448
000300 23 c4 10 3d b0 e8 e8 3d 87 38 07 bd 26 e9 6a 3d
       0.0353433 0.113725066 -0.033012893 0.057351254
000310 4a dd 7a 3d dd 66 32 3d 43 a4 11 bc 68 02 f1 bb
       0.061246194 0.04355513 -0.008889261 -0.007355023
000320 8f fb 3b bc 96 b6 bb 3d 14 3c ea 3d 8a 44 3f 3d
       -0.01147355 0.09165685 0.1143724 0.046696223
000330 02 db 1b 3d e6 8a ab 3d 2f 6c 1b 3d 9e 1b 9b 3c
       0.03805066 0.08376102 0.03794497 0.018934067
000340 d5 20 6a bd 17 6e 92 3c c7 70 99 3d d6 3c c8 3d
       -0.057160217 0.01787476 0.07492214 0.097772285
000350 c9 6b 65 3d 19 89 8f 3c 1a 76 b3 3c 97 3a 04 3d
       0.056010995 0.017521428 0.021906901 0.032282438
000360 5e 66 9c 3d 5b 74 53 bb 32 3f a9 3b 26 fa ae 3d
       0.076367125 -0.0032265398 0.005165004 0.08543806
000370 ed 48 da 3c 75 75 c0 3d 90 fa 82 3d cd 63 ee 3c
       0.026646102 0.09397403 0.06395447 0.029100323
000380 d8 e4 50 3d 5d a5 1d bd 16 9e 5a 3d ba 36 73 3d
       0.050999492 -0.03848778 0.05337342 0.059378363
000390 37 18 78 bd f4 17 f6 bc c0 56 9c ba 9e 88 2b 3d
       -0.060569968 -0.030040719 -0.0011927709 0.041878335
0003a0 db 7a c0 3c 1c a4 79 3d 88 ea 3f 3c 2d 4f b2 3d
       0.023496082 0.060947523 0.011713631 0.08706508
0003b0 3a 1a 60 3d 8a 96 f6 3d 34 55 88 3d dc 87 8c 3c
       0.05471251 0.12040432 0.06656876 0.017154627
0003c0 76 98 de bd 39 d8 8c bc b0 8f 3e bc 78 ef 0e bd
       -0.10868923 -0.017192947 -0.011630937 -0.034896344
0003d0 c2 ea 25 bb f0 27 9c 3d 81 ec 94 3d 12 81 e8 3d
       -0.0025316929 0.07624805 0.07271672 0.11352743
0003e0 70 6b 92 3d 92 6e 29 3c 28 f6 7c 3d 3e ca 0d 3d
       0.07149398 0.010341303 0.06175819 0.0346167
0003f0 a2 12 7e 3d f2 02 bc 3c cf e5 8a 3d 8e f1 8b bb
       0.06202949 0.022950623 0.06782114 -0.004270739

decoder.2.0.bias f4 [36]
000000 50 dc 92 3d 99 f0 2a bd 14 a8 85 bd 03 74 1d bd
       0.071709275 -0.041733358 -0.06526199 -0.038440716
000010 7c 57 73 bd 17 c4 c8 bd e1 e9 77 bb e8 ed cb bc
       -0.059409603 -0.09803026 -0.0037828612 -0.024893716
000020 ee ce d2 bc 85 57 0b bd e6 9a dd bd 3e 89 71 bd
       -0.025733437 -0.034019012 -0.1082056 -0.058968775
000030 70 70 ee bd f4 b8 e7 bd f6 6a cb 3d 74 01 14 3e
       -0.116425395 -0.11314574 0.099325106 0.1445368
000040 5e d0 1b 3e 87 ec 7a 3d 04 5a be 3c 10 4d 58 3b
       0.15216205 0.061260726 0.023236282 0.0033004917
000050 72 f7 2b bd 0d 38 e2 bd 6b 7e a6 bd cc 47 1c be
       -0.04198403 -0.11045847 -0.08129581 -0.15261763
000060 b7 9f 04 be 77 ee 3f be 46 14 b3 bd fd bf a9 bd
       -0.12951551 -0.18743311 -0.08744101 -0.08288572
000070 b9 87 2a be a3 92 01 be 95 18 1b bd d8 69 37 bd
       -0.16653337 -0.12653594 -0.03786524 -0.044778675
000080 e4 95 19 bc 0f d0 de bd d4 d0 ea bd bd c9 7f bd
       -0.009374116 -0.10879528 -0.11465612 -0.062448252
