trained_models/EFC7:5F24:4FBD:FFE3.pt (torch, 115321 bytes, 24 tensors)

encoder.0.weight f4 [36, 36, 7]
0	0xbb20eb7d	-0.0024554424
1	0xbd48a3db	-0.04898439
2	0x3d91cb53	0.07118859
3	0xbd0ca2f9	-0.03433511
4	0xbd93682a	-0.07197602
5	0x3d01832d	0.03161924
6	0xbc78e86e	-0.015192134
7	0x3b904f59	0.00440399
8	0xbbf49636	-0.0074641956
9	0xbc8d4e56	-0.017249268
10	0x3cae25bc	0.021258228
11	0x3c676ea5	0.014125501
12	0x3cc5794f	0.024105696
13	0x3b1fa5ea	0.0024360367
14	0x3cfb84b9	0.030702936
15	0x3d2f8205	0.042848606
16	0x3ce3a571	0.02778885
17	0x3cde994b	0.027172705
18	0x3ca82173	0.020523762
19	0x3bb37f05	0.0054777884
20	0x3bb0dcfd	0.0053974376
21	0xbd0c0455	-0.03418382
22	0x3ca66672	0.020312522
23	0x3d54451c	0.05182372
24	0x3d2c05aa	0.04199759
25	0x3e0392a4	0.12848908
26	0x3cbc79ad	0.023007238
27	0x3b99f886	0.0046988158
28	0xbcc4a531	-0.02400455
29	0x3c410dec	0.011783104
30	0x3bc4caae	0.0060056066
31	0x3cf6b048	0.030113354
32	0x3d5e949a	0.054340936
33	0x3c52f1dd	0.0128750475
34	0xba92c294	-0.0011196905
35	0xbc26a0cc	-0.010170173
36	0xbb5abb34	-0.0033375742
37	0x3c03bf82	0.0080412645
38	0x3caa8ad1	0.020818146
39	0x3d12069d	0.03565084
40	0x3bc77129	0.006086488
41	0x3a4f6ef8	0.0007912959
42	0xbca9ea90	-0.02074173
43	0x3b45a357	0.0030157173
44	0xb9795fa5	-0.00023782121
45	0x3d0ffdee	0.035154276
46	0x3d5f9b9f	0.05459177
47	0x3c86f8d0	0.016476065
48	0xbace9ef3	-0.0015763923
49	0xbd21b8a7	-0.03948274
50	0xbc0e611f	-0.008690148
51	0x3c743b99	0.014906787
52	0x3d5dbc8c	0.05413489
53	0x3d9ac085	0.075562514
54	0x3cb702a1	0.02234012
55	0xbaf42b2e	-0.0018628591
56	0xbc1290a5	-0.008945619
57	0x3a2de0be	0.00066329155
58	0x3d2141e8	0.039369494
59	0x3d6a7eb3	0.057249736
60	0x3d8236c5	0.06358103
61	0x3cca1983	0.024670368
62	0xbae08414	-0.0017129206
63	0xbca21778	-0.019786581
64	0xbd1a4e8c	-0.037672564
65	0xbc8648ce	-0.016392138
66	0x3d369942	0.04457975
67	0x3d10d232	0.035356708
68	0x3cb7963f	0.02241051
69	0xbc3b3909	-0.011427172
70	0x3b0a3074	0.002108601
71	0xbbb54315	-0.0055316784
72	0x3c2aebeb	0.010432224
73	0x3d305209	0.043046985
74	0x3cca0a55	0.02466313
75	0x3b35929b	0.0027705792
76	0xbc2fbad5	-0.010725697
77	0xbc87ff3e	-0.016601201
78	0xbc9c9c50	-0.019117504
79	0x3c090075	0.008361925
80	0x3d0347d6	0.03205093
81	0x3d7250c7	0.059159067
82	0x3c700d37	0.014651588
83	0xbc74cd31	-0.0149415
84	0xbd10258e	-0.035192065
85	0xbd795a8b	-0.060877364
86	0xbc9381c9	-0.018006222
87	0x3c8cd40c	0.017190956
88	0x3d025b1a	0.031825162
89	0x3c38169e	0.011235861
90	0xbc6960a2	-0.01424423
91	0xbc030f6d	-0.007999283
92	0xbb0c5f1c	-0.0021418994
93	0x3c805340	0.015664697
94	0x3d8d066f	0.06885993
95	0x3d3ceb9e	0.04612314
96	0x3c394b19	0.011309409
97	0xbb93a3db	-0.004505617
98	0x3d764f90	0.06013447
99	0x3c7e0e40	0.015506327
100	0x3d8686d6	0.06568687
101	0x3c2901cd	0.010315371
102	0x3da0d8c5	0.078538455
103	0xbd43e5e8	-0.047826678
104	0x3c58119a	0.01318779
105	0x3d14195b	0.036156993
106	0x3df0e92f	0.11763226
107	0x3d513db1	0.051084224
108	0x3da9380c	0.08262643
109	0xbc76d2ea	-0.015064934
110	0x3d4b7fc4	0.049682394
111	0x3c14c940	0.009081185
112	0x3d0f9190	0.03505093
113	0x3e41c32a	0.18922105
114	0xbdbb2ae8	-0.09139043
115	0xbd9bf4ac	-0.07615027
116	0xbdc437d5	-0.095809616
117	0x3cb60f94	0.022224225
118	0xbdb3b249	-0.087742396
119	0xbd0bd047	-0.034134176
120	0x3c262896	0.010141512
121	0x3ea1103a	0.31457692
122	0xbd26f9c6	-0.040765546
123	0xbd6dabc0	-0.05802512
124	0x3c04b0b5	0.008098771
125	0x3d81caf7	0.063375406
126	0x3d9b96f4	0.075971514
127	0x3bbbe63a	0.0057342323
128	0x3e63cce5	0.2224613
129	0xbd67568c	-0.056479022
130	0xbbb1c831	-0.005425476
131	0x3be9b9f0	0.007132761
132	0x3d24c681	0.04022837
133	0xbccb721b	-0.024834683
134	0xbc13bf5d	-0.0090177925
135	0x3dd2ff2a	0.10302575
136	0xbd3c4f4b	-0.045974057
137	0xbde1ebf9	-0.11031336
138	0xbc5851f7	-0.013203136
139	0x3ccae7a7	0.024768664
140	0xbd57bae0	-0.052668452
141	0xbcaf0260	-0.021363437
142	0xbd24bcb5	-0.040219028
143	0xbc8acb9d	-0.016942794
144	0xbc1fb796	-0.00974836
145	0xbb9dcc02	-0.0048155794
146	0x3c99514d	0.018715525
147	0xbc75c9bf	-0.015001713
148	0xbc8a3163	-0.016869253
149	0x3b571d01	0.0032823684
150	0x3b78316e	0.003787126
151	0x3c8b4809	0.017002122
152	0x3b49dae4	0.0030800635
153	0x3be6c29d	0.0070422427
154	0xbcd60cff	-0.026129244
155	0xbd1e48a1	-0.038643483
156	0xbca125cd	-0.019671345
157	0xbcd829ed	-0.02638718
158	0xbcc7e4dc	-0.02440112
159	0xbbefdec7	-0.0073202583
160	0xba9f2368	-0.0012141289
161	0xbe07544f	-0.13215755
162	0xbd645c61	-0.055752162
163	0x3d3e3dfb	0.046445828
164	0xbd093cc8	-0.03350523
165	0x3da38c74	0.07985774
166	0xbc5107b2	-0.012758182
167	0x3cbcce90	0.023047715
168	0xbc647f89	-0.013946422
169	0xbd388542	-0.04504896
170	0xbc307ca4	-0.010771904
171	0xbc7a4d7e	-0.015277265
172	0xbc4a8784	-0.012361411
173	0xbc46707c	-0.012111779
174	0xbc235a24	-0.009970222
175	0xbcb8b7d2	-0.02254859
176	0xbd1cff83	-0.038329612
177	0xbd122cd2	-0.035687275
178	0xbc90ddce	-0.01768389
179	0xbc8c9477	-0.017160637
180	0xbb891a9b	-0.00418408
181	0xbba54a3d	-0.0050442503
182	0xbd174818	-0.03693399
183	0xbd29aed7	-0.041426506
184	0xb8b3eca0	-8.57946e-05
185	0xba7ff701	-0.00097642845
186	0x3c72df24	0.014823709
187	0xbba83e10	-0.0051343516
188	0xb894a4c5	-7.087881e-05
189	0xbd515067	-0.05110207
190	0xbd81784a	-0.063217714
191	0xbbf53e06	-0.0074842004
192	0xbb3b5ae5	-0.0028588113
193	0xbbbb18c2	-0.0057097385
194	0xbc62eab7	-0.013849906
195	0xbadfc57d	-0.0017072406
196	0xbd08c1df	-0.033388015
197	0xbd46da9d	-0.04854833
198	0xbc8617ed	-0.01636883
199	0xbc57d19b	-0.013172532
200	0xbb0b1d5f	-0.0021227223
201	0xbc2f9db9	-0.010718756
202	0xbb86a8e3	-0.0041094883
203	0xbd264d4f	-0.04060107
204	0xbd0e8835	-0.034797866
205	0x3c8ace7c	0.016944163
206	0xb9583d36	-0.00020622168
207	0x3caa977f	0.020824192
208	0xbc2b4cae	-0.010455294
209	0xbb407840	-0.002936855
210	0xbd316dbe	-0.04331755
211	0xbd2d3bf8	-0.04229352
212	0xbd2733ab	-0.04082076
213	0xbc4bf213	-0.012447852
214	0xbc164468	-0.009171583
215	0xbc817bfb	-0.015806189
216	0xbbf11f6a	-0.007358481
217	0xbdbdb7bd	-0.09263561
218	0xbd198ce1	-0.03748787
219	0xbdb3755a	-0.087626174
220	0xbd1a6ca0	-0.03770125
221	0xbb4704d5	-0.003036787
222	0xbca18233	-0.019715404
223	0xbce8c481	-0.028414013
224	0xbbfddfb0	-0.007747613
225	0xbc87e00a	-0.016586322
226	0x3d14958a	0.036275424
227	0xbc9c5975	-0.019085625
228	0x3c92dd80	0.017927885
229	0xbc87bf21	-0.01657063
230	0xbbfbc552	-0.0076834345
231	0xbd02eb27	-0.03196254
232	0xbceb42fb	-0.028718462
233	0xbbb32ab9	-0.0054677394
234	0xbc30d98c	-0.010794055
235	0xbb954b11	-0.0045560678
236	0xbc7f45be	-0.015580593
237	0xbb112f3c	-0.0022153398
238	0xbcc0525d	-0.023476774
239	0xbd6439d6	-0.05571922
240	0xbc39f143	-0.011349025
241	0xbb0a803e	-0.0021133567
242	0xbcdd9d79	-0.027052628
243	0xbb57d397	-0.0032932514
244	0xbc109749	-0.008825132
245	0xbd2afec2	-0.041746862
246	0xbe55b76f	-0.20870756
247	0x3daf9c86	0.08574776
248	0xbb88132e	-0.004152677
249	0xbe02f872	-0.12790087
250	0xbb63fae9	-0.0034787005
251	0x3b949496	0.0045343144
252	0xbd48a3da	-0.048984386
253	0xbd963d35	-0.07335893
254	0xbbe84c18	-0.007089149
255	0x3c11484d	0.0088673355

encoder.0.bias f4 [36]
0	0x3d161650	0.036642373
1	0x3d2fe3f7	0.042942014
2	0xbb8432c3	-0.0040343716
3	0xbe092af3	-0.1339529
4	0xbd128140	-0.035767794
5	0x36af179c	5.218155e-06
6	0x3c842f1f	0.01613575
7	0xbc088a9e	-0.00833383
8	0xbddf8a44	-0.10915044
9	0xbdb2b250	-0.08725417
10	0x3d43f356	0.047839485
11	0xbcc4afdf	-0.024009643
12	0xbe06f77c	-0.13180345
13	0x3db09aa0	0.086232424
14	0x3dcd683d	0.100296475
15	0xbd91b7b4	-0.07115117
16	0x3a6adf96	0.00089597085
17	0xbd44609c	-0.047943696
18	0x3de92676	0.11384289
19	0xbcfcd9c5	-0.03086556
20	0xbd76eff9	-0.06028745
21	0xbd8e234d	-0.06940327
22	0xbc121ab3	-0.008917498
23	0x3d2597b0	0.040427864
24	0xbbb98962	-0.0056621293
25	0xbd4bbfdc	-0.04974352
26	0xbe0f29bf	-0.13980769
27	0x3c18a3d6	0.009316405
28	0xbdcf0d2a	-0.10109933
29	0xbb67c244	-0.0035363594
30	0x3d1c719b	0.03819428
31	0x3cc2b600	0.023768425
32	0xbd705352	-0.05867321
33	0x3c794661	0.015214534
34	0xbcbb53c9	-0.0228671
35	0x3d06ac32	0.032879062

encoder.1.weight f4 [36]
0	0x3f49e6d5	0.78867847
1	0x3f607761	0.8768216
2	0x3f7c22ec	0.98490787
3	0x3f8ee3cf	1.1163272
4	0x3f47e08c	0.78077006
5	0x3f0f869d	0.5606478
6	0x3f1db7e5	0.61608726
7	0x3f788686	0.97080266
8	0x3f434517	0.762773
9	0x3f56180d	0.8363045
10	0x3f5ffe1b	0.8749711
11	0x3f803e3f	1.0018996
12	0x3f258971	0.64662844
13	0x3f6e8dff	0.9318542
14	0x3f7ca91b	0.98695534
15	0x3f9040cd	1.1269776
16	0x3f7b3d80	0.98140717
17	0x3f928798	1.144763
18	0x3f5301b1	0.82424456
19	0x3f883c20	1.0643349
20	0x3f6de0cf	0.92921156
21	0x3f8d83be	1.105583
22	0x3f79ffab	0.97655743
23	0x3f402efe	0.75071704
24	0x3f5338ef	0.8250875
25	0x3f8839b6	1.0642612
26	0x3ec7f864	0.39056695
27	0x3f6fd8ed	0.9369038
28	0x3f8e3e41	1.1112748
29	0x3f6a67bd	0.9156454
30	0x3f594ab7	0.8487963
31	0x3f4dc2dd	0.8037546
32	0x3f747c2a	0.9550196
33	0x3f58fde6	0.8476242
34	0x3f8c75fe	1.0973508
35	0x3f49e7de	0.78869426

encoder.1.bias f4 [36]
0	0x3d152fb9	0.036422465
1	0xbd970f9c	-0.07376024
2	0x3d03df20	0.03219521
3	0xbe2521ce	-0.16126177
4	0x3d17c54d	0.037053395
5	0xbe1537a1	-0.14572002
6	0xbcb731b3	-0.022362566
7	0xbd9d14d2	-0.07669987
8	0xbe1ffe25	-0.15624292
9	0xbe3064ef	-0.17226003
10	0x3c94c89e	0.018162068
11	0xbdb96955	-0.090532936
12	0xbe5558da	-0.20834675
13	0x3d52f074	0.051498845
14	0x3d9cc274	0.076542765
15	0xbe1f3b4d	-0.15549965
16	0xbdaabf15	-0.08337227
17	0xbdacbd07	-0.084344916
18	0x3d831b47	0.06401687
19	0xbdcfa98f	-0.101397626
20	0xbdbc70ec	-0.09201226
21	0xbe175e00	-0.14781952
22	0xbdfda1ac	-0.12384352
23	0xbc9e1ccd	-0.019300843
24	0x3cebdcfe	0.0287919
25	0xbdd59ea7	-0.10430651
26	0xbe41d2bd	-0.18928047
27	0xbdc0be29	-0.0941127
28	0xbe1c1acf	-0.15244602
29	0x3cfe9847	0.03107847
30	0x3d186ef6	0.037215196
31	0xbe03b0cd	-0.12860413
32	0xbdd8542e	-0.10562931
33	0x3da9c498	0.082894504
34	0x3d67b40e	0.056568198
35	0x3bbfb42d	0.005850336

encoder.1.running_mean f4 [36]
0	0x3f488e49	0.7834211
1	0xbfa6310f	-1.2983721
2	0x3fbf3f90	1.4941273
3	0xbf8b8e05	-1.0902716
4	0x3faa369a	1.3297913
5	0xbf9b7700	-1.2145691
6	0xbff26710	-1.8937702
7	0xbf049b2e	-0.51799285
8	0xc00cae6e	-2.1981463
9	0xc0214cda	-2.5203156
10	0x3dfd3ddc	0.12365314
11	0xbf7d93b6	-0.99053514
12	0xbfe9bcd3	-1.826075
13	0x3fabac13	1.3411888
14	0xbe1f22c2	-0.15540603
15	0xbfa143da	-1.2598832
16	0xbfa2ff90	-1.2734241
17	0xbf2ba125	-0.6704276
18	0x403003a6	2.7502227
19	0xbfa2b7f3	-1.2712387
20	0xbfb1a3f5	-1.3878161
21	0xbf416626	-0.7554649
22	0xbfc341b9	-1.5254432
23	0x400c441b	2.1916568
24	0x3fa850e0	1.3149681
25	0xbf3e17e0	-0.7425518
26	0xbf996f8f	-1.198717
27	0xbf117e11	-0.5683299
28	0xbf5547b9	-0.83312565
29	0xbe199f56	-0.15002188
30	0x3fd3917d	1.6528774
31	0xbf9b3ed7	-1.2128552
32	0xbf99e041	-1.2021562
33	0x3fd5892e	1.6682489
34	0x3f0cb1db	0.54958886
35	0x3fb92bce	1.4466493

encoder.1.running_var f4 [36]
0	0x3ca72d55	0.020407358
1	0x3cef991d	0.029247815
2	0x3d04270f	0.03226381
3	0x3cd08ae8	0.02545686
4	0x3d1336d3	0.035940956
5	0x3cdbc77b	0.026828518
6	0x3ca66a25	0.020314286
7	0x3ca41346	0.020028722
8	0x3cb73adc	0.022366934
9	0x3c8c16b0	0.017100662
10	0x3c6cd462	0.014454933
11	0x3cc6bef1	0.02426097
12	0x3cdbda3c	0.02683746
13	0x3ce33968	0.027737334
14	0x3c4019cb	0.0117248995
15	0x3ca8c42a	0.02060135
16	0x3c9f25a7	0.019427134
17	0x3c85808d	0.01629665
18	0x3d04b2d5	0.03239711
19	0x3caaa780	0.020831823
20	0x3ccc4b93	0.02493838
21	0x3cc24e77	0.023719056
22	0x3cd920f6	0.026504975
23	0x3d115983	0.035485756
24	0x3ce61926	0.028088164
25	0x3cb68e92	0.02228478
26	0x3c8881a9	0.01666339
27	0x3c5c22f1	0.013436065
28	0x3ca4b1ee	0.020104375
29	0x3cba3936	0.022732358
30	0x3ccb78cc	0.024837874
31	0x3ca073d9	0.01958649
32	0x3c9e4dd1	0.019324215
33	0x3ce6ccc6	0.028173815
34	0x3cec3b17	0.02883677
35	0x3c28b081	0.010295988

encoder.3.weight f4 [36, 36, 7]
0	0xbc1728f9	-0.009226077
1	0x3c189620	0.009313136
2	0xbd9bb66e	-0.07603155
3	0x3d874042	0.06604053
4	0xbd0e544a	-0.034748353
5	0xbcd22ea2	-0.025657002
6	0x3d04e0a4	0.032440796
7	0xbd7cea61	-0.06174696
8	0xbcfe8b7e	-0.031072374
9	0x3da8c56d	0.08240781
10	0x3d069501	0.032856945
11	0x3da38f04	0.079862624
12	0xbcfa5039	-0.030555831
13	0x3c1efe21	0.009704144
14	0xbc23c608	-0.009995945
15	0x3d77a036	0.060455523
16	0xbe5adc81	-0.21373178
17	0x3e489c28	0.19590819
18	0xbd9ee7ce	-0.07759057
19	0xbc3d0707	-0.01153732
20	0xbb2f6a93	-0.0026766404
21	0x3d11ddfb	0.035612088
22	0xbcf095e8	-0.029368356
23	0x3cb63468	0.022241786
24	0x3d8a894a	0.06764467
25	0xbce2b108	-0.027672306
26	0x3c72b98f	0.014814748
27	0xb84652b1	-4.728389e-05
28	0x3c1aba24	0.009443793
29	0x3c07167c	0.008245107
30	0x3e0b0c3e	0.13578889
31	0x3cc967d6	0.024585646
32	0x3daed890	0.085374
33	0xbc2ae0a4	-0.010429535
34	0x3afb07e4	0.0019152132
35	0x3c5b218f	0.0133747
36	0xbc6385be	-0.013886867
37	0x3c984e8e	0.018592145
38	0x3db0dc02	0.08635713
39	0x3e1342cf	0.14380954
40	0xbcdb34e5	-0.02675862
41	0xbbd9f7e3	-0.006651865
42	0xbb277b9e	-0.002555586
43	0x3d379df5	0.044828374
44	0xbd76359f	-0.06010973
45	0x3d23a990	0.03995663
46	0xbda0cede	-0.07851957
47	0x3c611142	0.013737025
48	0xbc7f709e	-0.015590815
49	0x3b779ca0	0.0037782565
50	0xbc32b8ab	-0.010908286
51	0xbc420233	-0.011841345
52	0x3d20468f	0.03912979
53	0xbd72d004	-0.05928041
54	0xbd432a73	-0.047647905
55	0xbb717dba	-0.003684862
56	0xbd1ce4b9	-0.038304064
57	0xbd305e6c	-0.043058798
58	0x3cadbfa2	0.021209542
59	0xbbe3d722	-0.006953136
60	0xbd5bc0ac	-0.053650543
61	0xbc688ad1	-0.014193253
62	0xbbc43131	-0.0059873094
63	0x3d3ea7bf	0.046546694
64	0xbd561a49	-0.05227116
65	0xbcb7fec8	-0.022460356
66	0xba0cc739	-0.00053702627
67	0x3d94ff0e	0.0727521
68	0xbd51132d	-0.051043678
69	0x3b2517bd	0.002519115
70	0x3a6e0774	0.000908009
71	0xbd310bde	-0.043224208
72	0xbcf3e577	-0.029772503
73	0x3d11cae4	0.035593882
74	0xbc315434	-0.010823298
75	0xbc68db76	-0.01421248
76	0xbb440d55	-0.0029915173
77	0xbc577025	-0.013149296
78	0x3d2d7924	0.042351857
79	0xbc3c943d	-0.011509952
80	0x3c603445	0.013684337
81	0x3bec1b67	0.007205415
82	0x3d054b7f	0.0325427
83	0xbb239dfb	-0.002496599
84	0xbbb2aedf	-0.005452975
85	0x3c6fd656	0.014638504
86	0xbd4514d5	-0.04811557
87	0x3d25df2b	0.040496033
88	0xbd28d82b	-0.04122178
89	0xba956290	-0.0011397172
90	0xbc4a4b1e	-0.012347011
91	0x3d1ef5aa	0.038808502
92	0xbc45e432	-0.012078332
93	0x3e0c7a81	0.13718607
94	0x3ccadd2e	0.02476367
95	0xbd0c6208	-0.034273177
96	0xbd74b290	-0.059740603
97	0xbbd7d60b	-0.006586795
98	0xba60f2c8	-0.0008581099
99	0xbcf551d2	-0.029946242
100	0xbcd8a56b	-0.026446065
101	0xbd06dad5	-0.03292354
102	0xbd81827e	-0.063237175
103	0xbc834c77	-0.016027672
104	0x3cca810a	0.024719734
105	0xbc95a0f4	-0.018265225
106	0xbd215715	-0.03938969
107	0xbc4ba2e4	-0.012428973
108	0x3ccc467b	0.024935951
109	0x3d5dd984	0.054162517
110	0xbcd0c071	-0.025482388
111	0xbc24a694	-0.010049481
112	0xbb3f25c8	-0.0029166806
113	0xbd7ec295	-0.062197287
114	0xbddf0511	-0.10889638
115	0x3e0fe6d1	0.14052893
116	0xbdeeaca3	-0.116540216
117	0x3bcfd2e7	0.00634228
118	0xbc15be11	-0.009139554
119	0x3c4a4f18	0.012347959
120	0xbcf0895a	-0.02936237
121	0xbdaadd3d	-0.08342979
122	0x3d6cf69a	0.057852365
123	0x3cd42eb2	0.025901172
124	0xbd6ddd8c	-0.05807261
125	0xbb2cae72	-0.0026349095
126	0x3bbf2023	0.0058326884
127	0x3cf8e006	0.03038026
128	0x3cca4815	0.024692575
129	0xbd99332c	-0.074804634
130	0x3c60ba62	0.013716312
131	0x3cbb5be9	0.022870975
132	0x3be006fa	0.006836769
133	0x3d0dc55d	0.03461205
134	0xbd93ca65	-0.07216338
135	0x3d407874	0.046989873
136	0x3d263297	0.04057559
137	0xbcd68e00	-0.026190758
138	0x3d1235cb	0.035695832
139	0x3c050499	0.008118772
140	0x3ad8bda8	0.0016536014
141	0x3bf4e3fe	0.007473468
142	0x3d0bb4ee	0.034108095
143	0x3d8a5b8c	0.067557424
144	0xbcd1ddab	-0.025618395
145	0xbcd5e90f	-0.026112108
146	0x3c45c7af	0.012071534
147	0xbd66782d	-0.056266952
148	0x3d45278b	0.048133414
149	0xbce31f6c	-0.027724944
150	0xbc7199e8	-0.014746167
151	0x3d00bb81	0.031428818
152	0xbb29d822	-0.0025916179
153	0x3c9e78c1	0.01934469
154	0xbc371934	-0.0111754425
155	0x3c9a95f9	0.01887034
156	0x3cd6f9c9	0.026242154
157	0x3e1d2636	0.15346608
158	0xbd3714c7	-0.04469755
159	0x3cd18a5f	0.025578676
160	0x3b9b8974	0.0047466103
161	0x3b351931	0.0027633423
162	0xbcdf9a2a	-0.02729519
163	0xbd2d0be1	-0.042247657
164	0x3d070daa	0.032972015
165	0xb9fecd71	-0.0004859972
166	0x3baf7e6f	0.005355648
167	0x3c634d1e	0.013873367
168	0x3b838658	0.0040138178
169	0x3c218a69	0.00985966
170	0x39bfbafa	0.00036569667
171	0x3c6bfa91	0.014403001
172	0xbd1eb330	-0.038745105
173	0xbc38f60b	-0.01128913
174	0x3ca34e28	0.019934729
175	0x3cfe2b17	0.031026406
176	0x3ada84a2	0.0016671608
177	0xbbb9c25e	-0.0056689223
178	0x3d4d42cc	0.05011253
179	0xbbf99d93	-0.0076176613
180	0x3cefafa9	0.029258566
181	0x3d0a6478	0.03378722
182	0xbcd48780	-0.025943518
183	0x3cacbe89	0.021086948
184	0x3cc53269	0.024071889
185	0x3c954369	0.01822062
186	0xbca7d675	-0.020488003
187	0x3d55a770	0.052161634
188	0x3d3e9eed	0.046538282
189	0x3ce1d0a5	0.02756531
190	0x3b978c8f	0.00462491
191	0x3d8e9bda	0.0696332
192	0xbd914435	-0.070930876
193	0x3d8e4a71	0.06947792
194	0x39da59e4	0.00041647174
195	0xbbda5fba	-0.0066642435
196	0x3c9e14dc	0.019297056
197	0x3c393f9b	0.011306669
198	0x3c56d9da	0.013113463
199	0x3d39ae3f	0.04533219
200	0xbce0f193	-0.027458942
201	0xbc35069d	-0.01104894
202	0xbcab47b9	-0.020908223
203	0xbaa16734	-0.0012314082
204	0xbda460be	-0.080262646
205	0x3db90ced	0.090356685
206	0xbd575bce	-0.052577786
207	0x3b8288f9	0.0039836136
208	0x3d49a322	0.04922784
209	0xbc4717c1	-0.0121516595
210	0xbb30b4e0	-0.0026963279
211	0xbd6f0ecd	-0.058363724
212	0x3d4c5189	0.049882445
213	0x3d71a475	0.05899473
214	0xbd931f1f	-0.0718367
215	0xbac03167	-0.001466316
216	0xbb589422	-0.0033047278
217	0x3ca5bf55	0.020232836
218	0x3d13f505	0.03612234
219	0x3d35bd71	0.04437012
220	0xbdc7d51b	-0.097574435
221	0xbd0cdd40	-0.034390688
222	0x3d3ef776	0.046622716
223	0x3a7f9dd8	0.00097509986
224	0x3c74d0f9	0.014942401
225	0x3de408c5	0.11134485
226	0xbd36ecda	-0.044659473
227	0xbe15bd16	-0.14622912
228	0x3cfa521a	0.030556727
229	0x3c8927d0	0.016742617
230	0x3c5ddd84	0.013541583
231	0x3c0f9968	0.008764602
232	0xbdb03fa7	-0.08605891
233	0x3e0ac32f	0.13551019
234	0xba8025e9	-0.0009776923
235	0x3d7a6ee2	0.061140902
236	0xbce2e9e7	-0.027699424
237	0x3c634ea0	0.013873726
238	0x3cbb983f	0.022899745
239	0xbd8036f9	-0.06260485
240	0xbe032454	-0.12806827
241	0xbe4aaf5d	-0.19793458
242	0xbd70d7df	-0.05879962
243	0x3c9419c6	0.018078696
244	0x3baf3858	0.005347293
245	0xbcbe4be2	-0.023229543
246	0x3d1e5abc	0.03866075
247	0x3d3d1503	0.046162616
248	0x3c2ad892	0.010427611
249	0x3d1de85c	0.038551673
250	0xbd2bc16d	-0.041932512
251	0x3c39fdf0	0.011352047
252	0x3a302844	0.0006719867
253	0xbcae86ef	-0.021304576
254	0x3a428329	0.0007420057
255	0x3e0ba3b7	0.13636671

encoder.3.bias f4 [36]
0	0xbc2ef5ca	-0.010678718
1	0xbc2fdb87	-0.010733492
2	0x3d809ff0	0.06280506
3	0xbcbd458d	-0.023104453
4	0x3d153165	0.03642406
5	0x3d0bb5aa	0.034108795
6	0xbd58601f	-0.052826043
7	0xbc02d919	-0.00798633
8	0x3d38d6ac	0.045126602
9	0xbd073269	-0.03300706
10	0xbc9bc0b1	-0.01901278
11	0xbd0715c1	-0.03297973
12	0x3d55b3cc	0.05217342
13	0x3d230455	0.039799053
14	0xbc80de6d	-0.01573106
15	0x3bd7c459	0.0065846858
16	0x3d87330b	0.066015325
17	0xbcff55eb	-0.031168899
18	0x3c5f5e5f	0.01363334
19	0x3d310466	0.043217085
20	0x3c02703c	0.007961329
21	0x3c3d7fe8	0.01156614
22	0xbce37d54	-0.027769722
23	0x3d4a6f5a	0.0494226
24	0x3d1a8713	0.037726473
25	0xbd49f6c2	-0.049307592
26	0xbd544128	-0.05181995
27	0xbb829c49	-0.003985916
28	0xbc48b8d2	-0.012251096
29	0xbd3c6292	-0.04599244
30	0x3d4bd25c	0.04976116
31	0xbd149ceb	-0.03628246
32	0xbcf584ee	-0.029970612
33	0x3c8d2630	0.017230123
34	0x3d84fdd5	0.06493727
35	0xbd3737b7	-0.04473087

encoder.4.weight f4 [36]
0	0x3f4737d2	0.7781955
1	0x3f3db351	0.7410174
2	0x3f68e3bd	0.909725
3	0x3f6b4b29	0.9191156
4	0x3f468658	0.7754874
5	0x3f43a937	0.76430076
6	0x3f25ba1a	0.64737093
7	0x3f859712	1.0436728
8	0x3f6445d4	0.8916905
9	0x3f71202c	0.94189715
10	0x3f4ca3f4	0.7993767
11	0x3f52739b	0.8220765
12	0x3f664b7d	0.89958936
13	0x3f4297f7	0.7601313
14	0x3f634a77	0.887855
15	0x3f4aa51f	0.79158205
16	0x3f563f1c	0.8369005
17	0x3f2d2ba0	0.6764469
18	0x3f4b823c	0.79495597
19	0x3f512997	0.81704086
20	0x3f3bd761	0.7337552
21	0x3f6c84b1	0.9238997
22	0x3f3822af	0.7192792
23	0x3f6521d5	0.8950475
24	0x3f2b9df6	0.67037904
25	0x3f3d9383	0.7405321
26	0x3f26a711	0.65098673
27	0x3f57f119	0.8435226
28	0x3f2bc57f	0.6709823
29	0x3f3f9c8d	0.7484825
30	0x3f70dd4f	0.9408769
31	0x3f620323	0.88286036
32	0x3f3a835c	0.7285669
33	0x3f5fd343	0.87431735
34	0x3f57c037	0.8427767
35	0x3f4e173c	0.805042

encoder.4.bias f4 [36]
0	0x3cfe5536	0.031046491
1	0x3d1a56a7	0.037680294
2	0x3c823dc3	0.01589859
3	0x3cd92e03	0.026511198
4	0x3d2457e8	0.040122896
5	0xbbd675bb	-0.0065447963
6	0x3c7b0666	0.01532135
7	0x3c87b1f2	0.016564343
8	0x3cd75f36	0.026290517
9	0x3d1880d9	0.037232254
10	0xbd3902a5	-0.045168538
11	0x3d06afae	0.032882385
12	0x3ca0ac6b	0.019613465
13	0x3d5bc6f3	0.05365653
14	0x3d2bf8be	0.041985266
15	0xbd3dd374	-0.046344236
16	0x3d07adf7	0.03312489
17	0xbc6a44e5	-0.014298652
18	0x3d2ac045	0.04168727
19	0x3d4107da	0.04712663
20	0x3d84730c	0.06467256
21	0xbb8ba62d	-0.004261753
22	0x3cc55e08	0.02409269
23	0x3d5c03b6	0.053714477
24	0x3d562ce0	0.05228889
25	0x3bd39c45	0.0064578378
26	0x3ca498fb	0.020092478
27	0x3bc498da	0.0059996666
28	0x3d1426bf	0.036169764
29	0xba187fce	-0.0005817384
30	0x3d1f63f1	0.03891367
31	0x3a9bede4	0.0011896458
32	0xbcfe7548	-0.031061783
33	0x3cb8651b	0.022509148
34	0x3c60621c	0.013695266
35	0xbca319c8	-0.019909754

encoder.4.running_mean f4 [36]
0	0x3d4cbe26	0.049986027
1	0x3d8028d8	0.0625779
2	0x3dbbc074	0.09167567
3	0x3ce47fef	0.027893035
4	0x3dd92bf3	0.10604086
5	0x3cecdcda	0.028913904
6	0x3ce5753e	0.028010007
7	0x3cfa0b80	0.030523062
8	0x3c35b564	0.01109061
9	0xbda17086	-0.0788279
10	0xbb9e9ac3	-0.0048402264
11	0xbd90a012	-0.07061781
12	0x3df2f4aa	0.11863072
13	0xbdcb70fc	-0.099336594
14	0x3a02c6b8	0.0004988718
15	0x3de164a0	0.11005521
16	0x3e149642	0.14510444
17	0xbe02252f	-0.12709497
18	0x3bd1935e	0.0063957414
19	0x3d9a2062	0.07525708
20	0xbd00f143	-0.031480085
21	0x3b32154a	0.0027173334
22	0xbda283e7	-0.079353146
23	0x3d909a67	0.070607
24	0xbd363f44	-0.04449393
25	0x3c65303b	0.01398855
26	0x3bce01ce	0.006286836
27	0xbbc84be5	-0.006112563
28	0x3de9e93d	0.1142144
29	0x3c995522	0.018717352
30	0x3d206c09	0.03916553
31	0xbd4dfce3	-0.05029
32	0x3dc0e87c	0.09419343
33	0xbd81f504	-0.06345561
34	0x3daac452	0.083382264
35	0x3c187656	0.009305557

encoder.4.running_var f4 [36]
0	0x3fb6f5e4	1.429379
1	0x3faa55f5	1.3307482
2	0x40068f97	2.102514
3	0x3ffd7fa3	1.9804577
4	0x3fb523c5	1.4151541
5	0x3fd3f1d6	1.6558177
6	0x3fae2c9e	1.3607366
7	0x403d3537	2.956373
8	0x40680cd2	3.6257825
9	0x403fdf46	2.9980025
10	0x3fea6d96	1.8314693
11	0x402b1c65	2.673608
12	0x3fc4cbd0	1.5374699
13	0x3feecc7a	1.8656151
14	0x3ffae65e	1.9601552
15	0x3fcf8c96	1.6214778
16	0x4000af28	2.0106907
17	0x3ffb8f02	1.9653018
18	0x3fbd1a99	1.4773742
19	0x3fc7d102	1.5610659
20	0x3ffc0ff1	1.9692365
21	0x3fe4c164	1.7871518
22	0x40006b4f	2.0065496
23	0x40012108	2.017641
24	0x40184494	2.3791857
25	0x3fd06a0f	1.6282367
26	0x3fc01c26	1.500859
27	0x4034791e	2.8198924
28	0x3fe43d96	1.7831295
29	0x3fdf9e90	1.7470264
30	0x40257930	2.5855217
31	0x3fdf88e3	1.746365
32	0x4000378b	2.00339
33	0x4032218f	2.7832983
34	0x3fea3838	1.8298407
35	0x3fb1c355	1.3887736

decoder.0.weight f4 [36, 36, 3]
0	0xbd413f7b	-0.04717968
1	0x3ca33a36	0.019925218
2	0x3da77c4b	0.08178004
3	0xbc8a219f	-0.016861735
4	0x3dc835dd	0.097758986
5	0x3d482459	0.04886279
6	0xbb895d1f	-0.004192009
7	0xbdeb1a65	-0.11479644
8	0x3e0274be	0.12739846
9	0xbd2c3f9b	-0.042052846
10	0x3c77e003	0.015129092
11	0x3c1d0b67	0.009585238
12	0xbd026281	-0.031832222
13	0x3c1b64a9	0.0094844485
14	0xbd10c2dc	-0.035342082
15	0xbb445ecc	-0.002996373
16	0xbc16bb43	-0.00919992
17	0x3cb850cc	0.022499464
18	0xbc732023	-0.014839205
19	0x3c707f9a	0.01467886
20	0x3cae16c5	0.021251092
21	0xbd95f33c	-0.07321784
22	0xbccf4822	-0.02530295
23	0x3d3484fe	0.044072144
24	0x3d6cfcbd	0.057858218
25	0x3c12e6b4	0.008966137
26	0xbda00138	-0.078127325
27	0x3d8ba40f	0.06818401
28	0xbcba97f5	-0.022777537
29	0x3dcfbe3e	0.10143708
30	0xbc322da5	-0.01087514
31	0xbd2c8c05	-0.04212572
32	0x3d4a4f5e	0.049392097
33	0xbd80dbb4	-0.06291905
34	0xbdcd3efd	-0.1002178
35	0x3d32de61	0.04366911
36	0xbdcded44	-0.100550205
37	0xbaa75a8b	-0.0012768073
38	0xbda2d426	-0.0795062
39	0xbc19f62c	-0.009397071
40	0x3d9e7ac3	0.07738259
41	0x3db2951c	0.087198466
42	0x3a9a915a	0.0011792586
43	0xbe1a27a1	-0.1505418
44	0x3e47dbcb	0.19517438
45	0xbc1c5477	-0.009541622
46	0x3d17ae83	0.03703166
47	0xbd27c8be	-0.040962927
48	0xbd4fa2e7	-0.050692465
49	0x3c81e3c0	0.01585567
50	0x3c087278	0.008328073
51	0x3cd5d091	0.026100429
52	0x3e11dd59	0.14244594
53	0xbd3e8dff	-0.046522137
54	0xbd2cfdf5	-0.04223438
55	0xbdd68a11	-0.10475553
56	0x3d09bfaa	0.03363005
57	0x3bc81b7a	0.006106791
58	0x3c7cbfd6	0.015426597
59	0xbd8647d0	-0.06556666
60	0xbc18cf78	-0.009326808
61	0xbc96f800	-0.018428802
62	0xbb58981c	-0.0033049649
63	0xbda737ca	-0.08164938
64	0x3d77b7f9	0.060478184
65	0xbce4ce4e	-0.027930405
66	0x3c3cd879	0.0115262205
67	0x3c2083c3	0.009797039
68	0xbc0a90a4	-0.008457337
69	0xbd675658	-0.05647883
70	0x3c81db76	0.015851717
71	0x3d09c3d4	0.033634022
72	0x3d043b14	0.032282904
73	0xbcbda200	-0.023148537
74	0x3d6531df	0.055955764
75	0xbca53d70	-0.020170897
76	0x3e23d73b	0.16000073
77	0x3ce47f81	0.02789283
78	0xbc10513f	-0.008808433
79	0x3de948dd	0.11390851
80	0xbc83fa56	-0.01611058
81	0x3dd4ec6c	0.103966564
82	0x3c84352d	0.016138637
83	0xbba600fd	-0.005066036
84	0x3d760531	0.060063545
85	0x3d5ba49c	0.05362378
86	0x3d65be87	0.056089904
87	0xbd0ce7ee	-0.034400873
88	0x3d5e389d	0.05425321
89	0xbd9b8c00	-0.07595062
90	0xbd5479ba	-0.0518739
91	0xbe064bf6	-0.13114914
92	0x3dafe8c7	0.08589321
93	0xbdbca71a	-0.092115596
94	0xbd58c443	-0.052921545
95	0x3c1f3625	0.009717499
96	0x3da81580	0.08207226
97	0xbb2167f4	-0.0024628611
98	0x3b7a792e	0.0038219201
99	0x3d3a0861	0.045418147
100	0x3b74b0cf	0.0037336831
101	0xbd191ee1	-0.037382964
102	0x3d82c8ea	0.063859776
103	0x3de0a6a8	0.10969287
104	0x3d8f5c01	0.0699997
105	0xbc7d7c05	-0.015471463
106	0xbca215a9	-0.019785719
107	0xbbbabfd0	-0.0056991354
108	0x3cdc15f2	0.026865933
109	0x3c7205c2	0.014771881
110	0xbde6ebe0	-0.11275458
111	0x3db92a84	0.09041312
112	0x3ca703be	0.020387527
113	0x3cfc3fce	0.030792143
114	0x3d02e414	0.031955793
115	0x3d2f98ce	0.042870335
116	0x3ca38b95	0.019964019
117	0x3c90a623	0.017657345
118	0xbd1b3d0f	-0.037900027
119	0xbd487191	-0.04893643
120	0x3cc21d1d	0.023695523
121	0x3bae554b	0.0053202263
122	0xbd5ae4bd	-0.053440798
123	0x3c8a0707	0.016849054
124	0x3c072ec8	0.0082509
125	0xbce4b9d1	-0.027920635
126	0xbcc721f8	-0.02430819
127	0x3d631358	0.05543837
128	0xbd76327a	-0.060106732
129	0x3dc64646	0.09681372
130	0xbd93a47a	-0.07209106
131	0x3c3c0323	0.011475357
132	0x3e071b63	0.13194041
133	0xbce4fe0b	-0.027953168
134	0x3c33e317	0.010979435
135	0xbc6cee5e	-0.014461128
136	0x3de5fccc	0.11229858
137	0xbb412766	-0.0029472946
138	0x3cf12ad4	0.029439367
139	0xbd5628a4	-0.05228485
140	0x3adaa10e	0.0016680078
141	0xbd02346d	-0.03178828
142	0xbdd785cc	-0.105235666
143	0x3c144ee7	0.009052015
144	0xbd3bad7d	-0.04581975
145	0xbe1dcb43	-0.1540957
146	0xbcbac0b8	-0.022796974
147	0x3dabb280	0.083836555
148	0x3c96f0ba	0.018425334
149	0xbd81d295	-0.063389935
150	0x3c23f831	0.010007904
151	0x3ba55156	0.0050450964
152	0x3cf5dccf	0.030012516
153	0xbd94760d	-0.07249079
154	0xbbfa2ae4	-0.0076345075
155	0x3d8a44c9	0.06751401
156	0xbd2e2fd8	-0.042526096
157	0x3cda89c3	0.026677018
158	0xba95f3de	-0.0011440476
159	0x3d5dd804	0.054161087
160	0xbc86ec3a	-0.016470063
161	0xbe0ae1b1	-0.13562657
162	0x3c5741f7	0.013138286
163	0xbde0ad77	-0.10970586
164	0xbd3c968f	-0.04604202
165	0xbde00072	-0.10937585
166	0xbdae0919	-0.08497829
167	0xbc112fa5	-0.008861457
168	0xbca8c47f	-0.02060151
169	0xbd2f1178	-0.04274127
170	0xbd09caf2	-0.03364081
171	0x3d6f3d0f	0.05840784
172	0x3c98eb38	0.018666849
173	0x3b29b191	0.0025893191
174	0xbd818368	-0.06323892
175	0x3b303693	0.0026887998
176	0xbdee7789	-0.11643893
177	0x3cd73eb4	0.026275016
178	0xbd8426be	-0.06452702
179	0x3ba964e2	0.005169497
180	0xbcf486c6	-0.029849421
181	0x3d6e0721	0.058112267
182	0x3d372589	0.04471353
183	0xbb823a72	-0.0039742524
184	0x3b164dbf	0.0022934524
185	0x3bb0ce36	0.005395676
186	0xbcca71ca	-0.024712462
187	0xbce76efb	-0.028251162
188	0xbd838cfa	-0.064233735
189	0xbc8d4eff	-0.017249582
190	0xbcc4a4ae	-0.024004307
191	0xbae90356	-0.0017777483
192	0xbda423dd	-0.08014653
193	0x3bad01fb	0.005279777
194	0xbd8b85bf	-0.068126194
195	0x3cb3306b	0.021873673
196	0x3d5ca951	0.05387241
197	0xbc56dae6	-0.013113713
198	0x3d89dce1	0.067315824
199	0x3d48cedc	0.0490254
200	0x3d8e12ff	0.06937217
201	0xbcbe9b17	-0.023267312
202	0xbd82ce98	-0.06387061
203	0x3d706276	0.05868765
204	0x3cf758e4	0.030193754
205	0xbd971c16	-0.07378404
206	0xbde679cd	-0.112537004
207	0x3c225107	0.009907014
208	0xbc93784a	-0.018001694
209	0x3c3b9511	0.011449114
210	0x3daa87fd	0.08326719
211	0x3d818814	0.06324783
212	0xbd37a3d9	-0.04483399
213	0xbddc3a13	-0.10753264
214	0x3d366626	0.04453101
215	0x3e3bfeef	0.18358968
216	0xbc0cee9c	-0.008601811
217	0xbc45df24	-0.012077127
218	0xbd754ac2	-0.059885748
219	0x3dab96aa	0.08378346
220	0x3daf4c82	0.085595146
221	0x3c08564c	0.008321356
222	0x3c207c13	0.009795207
223	0x3e0fc1f6	0.14038834
224	0x3dedd2f2	0.116125
225	0x3d5b543a	0.05354712
226	0x3d5c9830	0.053856075
227	0x3d4f0ba4	0.05054821
228	0x3cf8cef8	0.030372128
229	0x3d765507	0.060139682
230	0x3d329253	0.043596577
231	0x3d9b3af8	0.07579607
232	0xbd3fa37e	-0.046786778
233	0xbbc8a7fb	-0.0061235405
234	0xbd017196	-0.031602465
235	0x3dc00e22	0.093776956
236	0x3b6589d7	0.0035024786
237	0x3baa6bd7	0.005200844
238	0xbd7dbee2	-0.06194962
239	0x3ce67064	0.028129764
240	0x3b75aa72	0.0037485627
241	0xbdbc9a7f	-0.09209155
242	0x3d328514	0.043583944
243	0xbd2b8a36	-0.041879855
244	0xbdc6de89	-0.09710414
245	0xbcf880f3	-0.030334925
246	0xbcd160b4	-0.025558807
247	0xbdc3d2c5	-0.095616855
248	0x3d56ebd8	0.052471012
249	0x3ca034ef	0.01955649
250	0x3dc91035	0.09817544
251	0x3d1293c6	0.03578546
252	0xbd508c8d	-0.05091529
253	0x3e065280	0.13117409
254	0x3dd6f7f4	0.10496512
255	0x3e055e41	0.13024236

decoder.0.bias f4 [36]
0	0x3c23855c	0.009980526
1	0xbd0b9f9f	-0.034087773
2	0x3e0d3fde	0.13793895
3	0xbb779e9d	-0.003778375
4	0x3dc0f0c0	0.094209194
5	0x3d8fc264	0.07019499
6	0x3d0e768c	0.034781024
7	0x3d11c1de	0.035585277
8	0x3dd9a025	0.10626248
9	0x3c8c6c74	0.017141558
10	0x3d4759b5	0.048669536
11	0xbdd3b9ef	-0.103381984
12	0xbb1d4e61	-0.0024003016
13	0x3d56a8c3	0.052407037
14	0x3ceeaaef	0.029134242
15	0x3c869cda	0.016432215
16	0xbde944af	-0.113900535
17	0x3d8ef494	0.06980243
18	0x3df6dbc5	0.120536365
19	0x3c3f0961	0.011659951
20	0xbdf697c9	-0.120406695
21	0xbb0eafb8	-0.0021772217
22	0x3c8ee0b0	0.017441124
23	0xbd438ffd	-0.04774474
24	0xbc6fe56c	-0.014642101
25	0x3d939360	0.07205844
26	0x3cae2fe5	0.021263072
27	0xbdab4d97	-0.083644085
28	0x3d6145bd	0.05499815
29	0xbdc610bf	-0.09671163
30	0x3cd0a407	0.02546884
31	0x3d704734	0.058661655
32	0xbdf679df	-0.12034964
33	0x3bd21aa3	0.0064118668
34	0x3da70895	0.08155934
35	0xbd4f29d9	-0.05057702

decoder.1.weight f4 [36]
0	0x3f77f881	0.9686356
1	0x3f7ba415	0.98297244
2	0x3f8c5535	1.0963503
3	0x3f6fa3b6	0.9360918
4	0x3f627820	0.88464546
5	0x3f4fe02d	0.8120144
6	0x3f7a05f6	0.97665346
7	0x3f546aa3	0.82975215
8	0x3f65288f	0.8951501
9	0x3f6f4d9f	0.93477815
10	0x3f575c35	0.8412507
11	0x3f7477a6	0.9549507
12	0x3f716677	0.94296974
13	0x3f78315d	0.9695032
14	0x3f7df2f0	0.9919882
15	0x3f660e10	0.8986521
16	0x3fa7ff79	1.3124839
17	0x3f756383	0.9585497
18	0x3f8ead3e	1.1146619
19	0x3f7aff7d	0.98046094
20	0x3f9861e2	1.1904871
21	0x3f6245ce	0.88387764
22	0x3f4bffa9	0.7968698
23	0x3f65e059	0.8979545
24	0x3f728468	0.94733286
25	0x3f90d498	1.1314878
26	0x3f75d223	0.9602377
27	0x3f662478	0.89899397
28	0x3f7e8f8b	0.9943778
29	0x3f8b9407	1.0904549
30	0x3f82d88e	1.0222337
31	0x3f589f8d	0.84618455
32	0x3f5b77bf	0.85729593
33	0x3f8b291e	1.0871923
34	0x3f79dafe	0.9759978
35	0x3f85fe7c	1.0468287

decoder.1.bias f4 [36]
0	0x3ccc9832	0.024974916
1	0xbdc9f8e0	-0.09861922
2	0x3df8e3a6	0.121527955
3	0xbd8cec8e	-0.06881057
4	0x3dc2e68b	0.09516629
5	0xbc93094a	-0.017948765
6	0x3d49ba64	0.04925002
7	0xbc1ff538	-0.009763055
8	0xbb92d996	-0.0044815047
9	0x3ce60942	0.028080586
10	0xbd7c6dad	-0.061628032
11	0xbcdbf471	-0.026849957
12	0xbdadc76c	-0.08485302
13	0x3d3d66f1	0.04624075
14	0x3ca18569	0.019716935
15	0x3cb5e628	0.022204474
16	0xbc51c97c	-0.012804385
17	0x3ba98d3a	0.005174306
18	0x3d8198be	0.063279614
19	0xbce99056	-0.028511208
20	0xbd49627d	-0.04916619
21	0x3c8c3a1e	0.017117556
22	0xbd4d3f50	-0.050109208
23	0xbdea34b6	-0.11435835
24	0x3d96d344	0.073645145
25	0xbb72c228	-0.0037041996
26	0x3b3c7d0f	0.0028761064
27	0xbd5bed40	-0.053693056
28	0xbd1ab6d8	-0.03777203
29	0x3d1d0d8a	0.03834299
30	0x3e027596	0.12740168
31	0x3cdeae8f	0.027182845
32	0xbd1a3a79	-0.03765342
33	0x3c9490f3	0.018135523
34	0x3c5f1287	0.013615257
35	0xbd3f9ff9	-0.04678342

decoder.1.running_mean f4 [36]
0	0x3d14401e	0.03619396
1	0xbd6fa8b7	-0.05851051
2	0x3cca0493	0.024660384
3	0x3cc11385	0.023568878
4	0x3d7d0625	0.061773438
5	0x3d1fd439	0.03902075
6	0x3db757b7	0.08952277
7	0x3dd6ad0f	0.10482227
8	0x3df5d77e	0.120039925
9	0x3a97f984	0.0011594747
10	0x3d2d8b31	0.04236907
11	0xbd02709a	-0.031845666
12	0x3d8e5a1b	0.0695078
13	0xbc09c637	-0.0084090745
14	0x3ded5888	0.115891516
15	0x3d838766	0.064223096
16	0xbe03c866	-0.12869415
17	0x3d342568	0.043980986
18	0x3dca51ce	0.09878884
19	0x3d9680b4	0.07348767
20	0xbe3ce1ba	-0.18445483
21	0xbd6485c3	-0.055791628
22	0x3d0840d3	0.033264946
23	0x3af55506	0.0018717356
24	0xbc884109	-0.016632574
25	0x3e23bde9	0.15990414
26	0xbccf8e1e	-0.025336321
27	0xbd8a38d4	-0.0674912
28	0x3d28d5ba	0.04121945
29	0xbe160202	-0.14649203
30	0x3d5cae24	0.05387701
31	0xbcbcf8e2	-0.023067895
32	0xbd5b83b5	-0.053592402
33	0xbd969958	-0.07353467
34	0x3d04aa9e	0.032389276
35	0xbd227f16	-0.03967198

decoder.1.running_var f4 [36]
0	0x3ecc9914	0.3996054
1	0x3f07f8e3	0.53114146
2	0x3f492f1a	0.78587496
3	0x3f152283	0.58255786
4	0x3ebcfae2	0.36910158
5	0x3ea73efd	0.32665244
6	0x3ef06cea	0.46958095
7	0x3f32d8e5	0.69862205
8	0x3eca89a4	0.39558136
9	0x3f4ad6db	0.79234093
10	0x3f003015	0.5007337
11	0x3eb9f200	0.36317444
12	0x3f378ae4	0.71696305
13	0x3f484c44	0.7824137
14	0x3f51728c	0.8181541
15	0x3f293a65	0.6610473
16	0x3f4ee8ba	0.8082386
17	0x3e987a0e	0.2978062
18	0x3f251949	0.6449171
19	0x3edc5650	0.430346
20	0x3ed2facc	0.41206968
21	0x3ea7135b	0.32631955
22	0x3ecb0dec	0.3965906
23	0x3f7e15b0	0.9925184
24	0x3f867cea	1.0506871
25	0x3f6214a6	0.88312757
26	0x3f0f7d33	0.56050414
27	0x3ebe7872	0.37201267
28	0x3f5806ff	0.84385675
29	0x3fb454ab	1.4088339
30	0x3f71b270	0.944129
31	0x3f4e648e	0.80622184
32	0x3ebd5bdf	0.36984155
33	0x3ec332d1	0.38124707
34	0x3ed5dfe1	0.4177237
35	0x3ec1b22c	0.37831247

decoder.3.weight f4 [36, 36, 3]
0	0x3e2d0151	0.16895033
1	0x3eaf225f	0.3420591
2	0x3d924421	0.07141901
3	0x3cb1ed5f	0.021719633
4	0x3e24ed7d	0.1610622
5	0x3d328f53	0.043593716
6	0xbd161178	-0.036637753
7	0xbd36282f	-0.044471916
8	0xbc5991bc	-0.013279375
9	0x3ca77678	0.020442232
10	0x3d4a947a	0.049458005
11	0xbdb3ad31	-0.08773268
12	0x3c8ed59e	0.017435845
13	0xbd1a88ab	-0.037727993
14	0xbdb382ae	-0.087651595
15	0x3ca49717	0.020091577
16	0x3cb5a60b	0.022173902
17	0x3d15c598	0.036565393
18	0x3c735c97	0.014853618
19	0xbcf7fb0b	-0.030271074
20	0xbd85e30d	-0.06537447
21	0x3ce3d777	0.027812703
22	0x3c6e6bb7	0.014552048
23	0xbd43ab60	-0.047770858
24	0x3d51b074	0.05119367
25	0x3cb565fa	0.022143353
26	0x3ba35a7d	0.0049851523
27	0x3ca9de30	0.02073583
28	0x3d5e2f2f	0.054244217
29	0xbcba6d5d	-0.022757227
30	0xbc83c2a2	-0.01608402
31	0x3af3c9c7	0.0018599563
32	0x3ce0d774	0.027446486
33	0x3d8b1507	0.0679112
34	0x3dc73483	0.09726813
35	0x3c801a38	0.015637502
36	0x3e085891	0.13315035
37	0x3e412eed	0.18865557
38	0x3e222613	0.15834837
39	0xba9431c0	-0.001130633
40	0x3d1254e3	0.035725486
41	0x3d8346ab	0.06409963
42	0x3c4d9b89	0.0125492895
43	0xbdc35996	-0.095385715
44	0xbd31ac71	-0.043377344
45	0xbc6c1e8e	-0.014411582
46	0x3d999f4e	0.07501088
47	0xb9dca5f1	-0.00042085306
48	0x3d33774b	0.04381494
49	0x3e0c3d48	0.13695252
50	0xbb132b5b	-0.0022456262
51	0xbb805433	-0.0039162873
52	0x3c86309a	0.016380597
53	0xbdec2a38	-0.1153149
54	0xbd80b719	-0.06284923
55	0x3c59d626	0.013295686
56	0xbd71cf85	-0.059035797
57	0xbdc2ba91	-0.09508241
58	0xbd885fcd	-0.066588975
59	0xbc1d9469	-0.009617903
60	0xbceeca97	-0.029149337
61	0xbdb31cd4	-0.08745733
62	0xbd9901ab	-0.07471021
63	0x3d587d91	0.052854124
64	0xbd1d2904	-0.038369194
65	0xbdbb3ab8	-0.09142059
66	0xbd2325f4	-0.039831117
67	0xbe00d7cf	-0.12582324
68	0xbde6b12c	-0.112642616
69	0x3de77b23	0.11302783
70	0x3b14e997	0.0022722238
71	0xbd7c84e1	-0.06165016
72	0x3d8b74d1	0.0680939
73	0xbd171497	-0.03688487
74	0xbdb9c626	-0.09070997
75	0x3c2bb2e8	0.010479666
76	0x3d0049cd	0.031320382
77	0xbd5bd8eb	-0.053673666
78	0xbd37d2eb	-0.04487888
79	0xbd9a2723	-0.07526996
80	0xbd064019	-0.032775972
81	0x3d420816	0.047370993
82	0xbb33990f	-0.0027404462
83	0x3cfdd397	0.030984683
84	0x3c85df2d	0.01634177
85	0xbda26740	-0.079298496
86	0xbd64de9f	-0.05587637
87	0x3c452d30	0.012034699
88	0xbdabf37c	-0.0839605
89	0xbd592a02	-0.053018577
90	0xbc9d7f30	-0.019225687
91	0xbe3acda9	-0.18242516
92	0xbdc98701	-0.09840203
93	0xbd9d9966	-0.07695274
94	0xbce1164e	-0.027476456
95	0x3d06db8c	0.03292422
96	0x3cf2d865	0.0296442
97	0xbe08d595	-0.13362725
98	0xbdd6fe83	-0.10497763
99	0xbc94e2fa	-0.018174637
100	0xbd542e69	-0.051802073
101	0xbd4c6d14	-0.049908713
102	0xbcf8d085	-0.030372867
103	0xbdda2910	-0.10652363
104	0xbca3c068	-0.019989207
105	0x3d5ebc15	0.054378588
106	0x3e3ec824	0.18631035
107	0x3e032449	0.1280681
108	0xbd32fc37	-0.043697562
109	0xbbadd877	-0.0053053456
110	0x3dbf290b	0.09334
111	0xbd8af458	-0.06784886
112	0xbda3d96d	-0.08000455
113	0xbd65ca19	-0.05610094
114	0xbd88fab4	-0.06688443
115	0x3d5cb883	0.0538869
116	0x3c9a6827	0.018848492
117	0xbd2b9c2d	-0.041896988
118	0xb99db256	-0.00030078244
119	0xbd4407a8	-0.047858864
120	0x3d8c5c6f	0.06853568
121	0x3d37487e	0.04474687
122	0x3d081fd8	0.033233494
123	0x3c604245	0.013687675
124	0x3d58aba1	0.052898053
125	0x3ae5a15c	0.0017519402
126	0x3dc5ea99	0.096638866
127	0x3d697830	0.056999385
128	0x3cec9ff9	0.028884875
129	0x3d9d3af0	0.07677257
130	0x3cfa00f1	0.030518027
131	0x3ca51265	0.020150373
132	0x3c45efc3	0.012081089
133	0x3d811980	0.06303692
134	0xbc54aa5a	-0.012980068
135	0x3d032b82	0.032023914
136	0x3dc37425	0.09543637
137	0x3d7079d6	0.05870994
138	0xbd40ca46	-0.047067903
139	0x3e10c4b0	0.1413753
140	0x3d9063b5	0.070502676
141	0x3d27e901	0.040993694
142	0x3e5a5139	0.21320046
143	0x3e195e9b	0.14977495
144	0xbe2df7a4	-0.16988999
145	0x3d2f68c1	0.04282451
146	0x3d511ec0	0.051054716
147	0xbd7561fc	-0.0599079
148	0x3de8501c	0.11343405
149	0x3a3ccf5f	0.00072025316
150	0xbd37c0a1	-0.04486144
151	0x3d59688f	0.05307823
152	0xbbd04480	-0.006355822
153	0xba6c9107	-0.00090242963
154	0xbd88ccc7	-0.06679683
155	0xbca67db6	-0.020323616
156	0x3d8bd9e8	0.06828672
157	0x3c8b6120	0.017014086
158	0xbcb28f3f	-0.02179682
159	0x3e3fe66e	0.18740246
160	0xbe0aaa6e	-0.13541576
161	0xbe7742d2	-0.24146584
162	0x3d26bc29	0.040706787
163	0xbd0451e4	-0.03230466
164	0x3e7021dd	0.23450418
165	0x3d58259b	0.05277024
166	0xbd41e4b8	-0.047337264
167	0x3d932c48	0.0718618
168	0x3e09d84a	0.13461414
169	0xbd32f296	-0.04368838
170	0xbd283c2e	-0.041073017
171	0x3d76cf6c	0.060256407
172	0xbdbca4b4	-0.09211102
173	0x3d6f8e5d	0.058485378
174	0xbc117dfc	-0.008880135
175	0xbca1efc1	-0.019767644
176	0x3e324b29	0.17411484
177	0x3d534a45	0.0515845
178	0xbc377986	-0.011198407
179	0xbd4662a6	-0.048433922
180	0xbe02a117	-0.12756763
181	0xbd887b24	-0.06664112
182	0x3dd4b284	0.10385612
183	0xbd16a30f	-0.0367766
184	0xbe0015ab	-0.12508266
185	0x3d0dcfbd	0.034621943
186	0x3d06bb33	0.03289337
187	0xbbcad9e0	-0.0061905235
188	0x3ca17e51	0.019713553
189	0xbc8ad59b	-0.016947558
190	0xbe0fd5d2	-0.1404641
191	0xbc296d92	-0.010341065
192	0x3c7a36c1	0.015271843
193	0xbdb88ae6	-0.09010868
194	0x3d80ebfd	0.06295011
195	0x3d209519	0.03920469
196	0xbdba1259	-0.09085531
197	0x3cd76a10	0.026295692
198	0xbd1cfebd	-0.038328875
199	0xbe09530c	-0.13410586
200	0x3d44df9d	0.048064817
201	0xbdc9787d	-0.098374344
202	0xbb3026f8	-0.0026878696
203	0x3ce0edef	0.027457206
204	0xbc8ef56c	-0.01745101
205	0xbc8ea356	-0.017411869
206	0x3cbd6bb8	0.023122653
207	0xbd83e5c6	-0.0644031
208	0xbe06f75a	-0.13180295
209	0x3cbdd213	0.02317146
210	0x3d087626	0.0333158
211	0x3e11dd01	0.14244463
212	0x3d42be11	0.047544543
213	0x3e61f04a	0.22064319
214	0x3ead7d06	0.33884448
215	0xbe634f74	-0.22198278
216	0x3dd9c426	0.106331155
217	0xbcb77243	-0.022393351
218	0xbd19ea95	-0.03757723
219	0x3d679d5b	0.05654655
220	0xbd0e2731	-0.034705345
221	0xbdaa042d	-0.08301578
222	0xbd6e493e	-0.058175318
223	0xbd62e53c	-0.055394396
224	0x3b97bd2c	0.0046307053
225	0xbba2d63a	-0.0049693855
226	0xbd211449	-0.039325986
227	0xbd7c1094	-0.061539248
228	0xba8aae8d	-0.0010580585
229	0xbcd20d3c	-0.025641076
230	0xbcab8a36	-0.020939928
231	0xbd41bdea	-0.047300257
232	0xbc1502e6	-0.009094929
233	0x3d0b3150	0.033982575
234	0x3c8da059	0.017288374
235	0xbce33489	-0.027735012
236	0x3c1dba6e	0.009626968
237	0xbd024a99	-0.031809423
238	0xbd811c17	-0.06304186
239	0xbc440dd8	-0.011966191
240	0xbd95ab7a	-0.07308097
241	0xbd77d793	-0.060508322
242	0xbd289a97	-0.041163053
243	0xbaba813f	-0.0014229192
244	0xbce90248	-0.02844347
245	0xbc12cd2c	-0.00896005
246	0xbd70a3a6	-0.058749817
247	0xbd96de3d	-0.07366607
248	0xbbccc334	-0.006248856
249	0xbd9af885	-0.075669326
250	0xbe296915	-0.16543992
251	0xbdd26abc	-0.10274264
252	0xbdb4e34b	-0.08832415
253	0xbdd6a115	-0.10479943
254	0xbe0d0eb1	-0.13775136
255	0xbd86ea79	-0.06587691

decoder.3.bias f4 [36]
0	0x3c453edd	0.012038914
1	0xbd308f28	-0.043105274
2	0xbc5bc537	-0.013413719
3	0xbd7739fa	-0.060358025
4	0xbde34338	-0.11096805
5	0xbdbbb4f6	-0.09165375
6	0xbe47689f	-0.19473504
7	0xbdaf82e6	-0.08569889
8	0xbdca913b	-0.09890982
9	0xbde180a3	-0.11010864
10	0xbdaefdee	-0.08544527
11	0xbdeb9580	-0.11503124
12	0xbe75384e	-0.2394726
13	0xbe3a9969	-0.18222584
14	0x3e1a7ea4	0.15087372
15	0x3e8f2df3	0.27964744
16	0x3d68bb20	0.05681908
17	0x3d78a3d3	0.06070311
18	0xbd23deca	-0.04000739
19	0x3a118346	0.00055508723
20	0xbdc9e801	-0.09858704
21	0xbda30a6c	-0.07960972
22	0xbdf0e169	-0.117617436
23	0xbe399712	-0.18124035
24	0xbe6841a7	-0.22681294
25	0xbe3d7e64	-0.18505245
26	0xbe52446d	-0.20533915
27	0xbdec05f5	-0.11524574
28	0xbe1a34f2	-0.1505926
29	0xbe04dd5a	-0.12975064
30	0xbe3eb2be	-0.18622872
31	0xbe03ca71	-0.12870194
32	0xbc9261a0	-0.017868817
33	0xbdade1a9	-0.08490307
34	0xbd4176fb	-0.04723261
35	0xbe178140	-0.14795399

decoder.4.weight f4 [36]
0	0x3f4c51a8	0.798121
1	0x3f2b84ec	0.669997
2	0x3f1400d8	0.5781379
3	0x3f0ce017	0.55029434
4	0x3f163313	0.58671683
5	0x3f0a53dd	0.54034215
6	0x3f2990eb	0.6623675
7	0x3f365a64	0.71231675
8	0x3f56c8e1	0.83900267
9	0x3f3807f5	0.7188714
10	0x3f2e4175	0.6806863
11	0x3f5ff52f	0.87483495
12	0x3f5cc1b1	0.8623305
13	0x3f293a0b	0.6610419
14	0x3f6be3e9	0.9214464
15	0x3f928950	1.1448154
16	0x3f1ed659	0.6204582
17	0x3e98ce70	0.29845
18	0x3ef0b0ca	0.4700988
19	0x3f1e2506	0.61775243
20	0x3f33bdea	0.7021166
21	0x3f33955b	0.70149773
22	0x3f4268bd	0.7594107
23	0x3f041b81	0.5160447
24	0x3f68a8a1	0.9088231
25	0x3f4c583b	0.7982213
26	0x3f53eed3	0.8278629
27	0x3f5a5d28	0.85298395
28	0x3f4e1c49	0.8051191
29	0x3f47e376	0.7808145
30	0x3f3efbe5	0.7460311
31	0x3eeb97da	0.4601429
32	0x3f3a2ae4	0.72721696
33	0x3f4620f9	0.7739406
34	0x3f45d239	0.772739
35	0x3f0c956c	0.549155

decoder.4.bias f4 [36]
0	0xbe08a965	-0.13345869
1	0xbe66bd2f	-0.22533105
2	0xbde5fa45	-0.11229376
3	0xbe44cba7	-0.19218312
4	0xbe2f19c1	-0.17099668
5	0xbe788fb7	-0.24273573
6	0xbe6e7680	-0.23287392
7	0xbe844aea	-0.25838405
8	0xbe5ba23a	-0.21448603
9	0xbe9de2f9	-0.3083723
10	0xbe8ec80c	-0.27887
11	0xbe8fff75	-0.28124586
12	0xbea2053d	-0.31644621
13	0xbe7d85a1	-0.24758007
14	0x3e7c4701	0.24636461
15	0x3eb5c7d3	0.35504016
16	0x3de09fb5	0.10967962
17	0xbdc9b4dc	-0.09848949
18	0xbe0c8cea	-0.1372563
19	0xbe32081d	-0.17385907
20	0xbe3bb39b	-0.18330233
21	0xbe62a9ef	-0.22135137
22	0xbe77ec26	-0.24211177
23	0xbe491a58	-0.19638956
24	0xbea58e89	-0.32335308
25	0xbe93e7b4	-0.28887713
26	0xbe914e79	-0.28380182
27	0xbea154b0	-0.31509924
28	0xbe957d62	-0.29197222
29	0xbe8eb2f5	-0.27870908
30	0xbe6b22d0	-0.22962499
31	0xbe3fabf6	-0.18717942
32	0xbe24be7b	-0.16088288
33	0xbe76bb4a	-0.24094883
34	0xbe667350	-0.22504926
35	0xbe654767	-0.22390519

decoder.4.running_mean f4 [36]
0	0xbcbdd7b2	-0.02317414
1	0xbd2a8deb	-0.04163925
2	0xbd5816a1	-0.052755956
3	0xbd3d53a1	-0.046222333
4	0xbdbdb4ac	-0.09262976
5	0x3cfc4b5c	0.030797653
6	0xbe301e82	-0.17199138
7	0xbc21b29e	-0.009869246
8	0xbd1bc7a1	-0.038032178
9	0x3b01700c	0.0019750623
10	0x3c1afb02	0.009459259
11	0xbd1eaea1	-0.038740758
12	0xbddac5cd	-0.10682259
13	0xbe09da6f	-0.13462232
14	0x3d0bc3be	0.03412222
15	0x3d895f26	0.06707601
16	0xbcd8afb4	-0.02645097
17	0xba786041	-0.0009474792
18	0xbd9ad9bd	-0.075610615
19	0x3cccab24	0.02498395
20	0xbd9c3b3b	-0.07628485
21	0xbd48a4d8	-0.048985332
22	0xbd36be2b	-0.044614952
23	0xbe15cb76	-0.14628395
24	0xbdfb1685	-0.12260155
25	0xbd9f0894	-0.07765308
26	0xbdcc1df9	-0.09966654
27	0x3c771def	0.01508282
28	0xbd8cd19a	-0.06875916
29	0xbd58d14d	-0.05293398
30	0xbe11098b	-0.14163797
31	0xbdc57186	-0.096407935
32	0xbd103e2f	-0.035215553
33	0xbd440414	-0.04785545
34	0x3ccf8816	0.025333446
35	0xbdc3e957	-0.095659904

decoder.4.running_var f4 [36]
0	0x3f132e91	0.5749293
1	0x3ef20f89	0.47277477
2	0x3e14f50d	0.14546604
3	0x3e018817	0.1264957
4	0x3e17c422	0.14820912
5	0x3dfc913a	0.12332387
6	0x3eaca2b7	0.33717892
7	0x3e51d8f8	0.20492923
8	0x3e4434e4	0.19160801
9	0x3e76f475	0.2411669
10	0x3e648046	0.22314557
11	0x3ef7bbd0	0.48385477
12	0x3ed24b81	0.4107323
13	0x3e76784c	0.24069327
14	0x3e6fac7c	0.23405641
15	0x3ec495a4	0.38395417
16	0x3e6503c3	0.22364716
17	0x3e48de60	0.1961608
18	0x3dc16096	0.094422504
19	0x3dbfec04	0.09371188
20	0x3e97bca4	0.2963611
21	0x3f0a8379	0.5410686
22	0x3f1deee1	0.61692625
23	0x3bd57eeb	0.006515374
24	0x3f1425ec	0.57870364
25	0x3e787078	0.24261653
26	0x3e8f633d	0.280054
27	0x3e9458a9	0.28973892
28	0x3f17197b	0.59023255
29	0x3f02fc52	0.5116626
30	0x3ee6eb7d	0.45101538
31	0x3c1bbe8c	0.009505879
32	0x3ecf6f1a	0.4051445
33	0x3eb38b36	0.35067147
34	0x3f3e436a	0.74321616
35	0x3e944477	0.28958485
