trained_models/F06D:D524:BFD6:232E.pt (torch, 254297 bytes, 52 tensors)

encoder.encoder.0.0.weight f4 [36, 36, 7]
000000 1d eb 7c bd ce e7 6b bc e2 3e b4 bd 54 77 92 bc
       -0.06174766 -0.014398528 -0.088010564 -0.017879166
000010 a0 d7 b3 bd 80 02 84 3c c6 3f 8a bd 1f b5 a9 3d
       -0.087813616 0.016114473 -0.06750445 0.08286499
000020 9e ac 7a 3d 05 ff 86 bc ea f3 b6 bc e6 d9 47 ba
       0.061199777 -0.016479025 -0.022333104 -0.0007623717
000030 f7 2d ba 3c e2 75 31 bd 37 dc 8b 3d af e1 ad 3d
       0.022726996 -0.043325312 0.06829112 0.08490311
000040 f9 58 79 bc 39 b6 4a bc f6 15 c3 bb a4 ab e4 bb
       -0.015218967 -0.012372547 -0.0059535457 -0.006978469
000050 28 5c 10 bc 22 d6 d8 ba 29 22 54 3d f3 78 f6 3c
       -0.008811034 -0.0016543309 0.05179039 0.03008697
000060 b3 38 1b 3d 3e 50 df bc ad 0f 76 3d 4c cc 15 3c
       0.03789587 -0.027259942 0.060073543 0.009142946
000070 b8 27 24 3d 39 21 4a bd 66 1e 0f 3d e2 10 77 3d
       0.04007694 -0.04934809 0.0349411 0.060318835
000080 71 b2 29 3d 81 51 23 3c 3b db fb 3c 51 23 98 3c
       0.04142994 0.0099681625 0.030744186 0.018571528
000090 89 78 ca 3b eb 5d 48 3d aa 49 9f bc e2 10 66 bb
       0.0061789197 0.048917692 -0.019444305 -0.0035105278
0000a0 ea a9 2d bd f6 4e 4f bd c9 73 f4 bc 60 3e 5e 3d
       -0.04239837 -0.050612412 -0.029840367 0.054258704
0000b0 36 09 4b bc 55 f8 2d 3c b0 e2 c6 bc 3a 95 13 bd
       -0.012392333 0.010618289 -0.024278015 -0.036030985
0000c0 ff d2 9a bb ca b1 92 bc dc 20 55 bd f9 de 45 3c
       -0.0047248597 -0.017907042 -0.05203329 0.012077087
0000d0 69 2e 7a 3d ad f9 0b 3d 99 bd 83 bd f1 4a 77 3a
       0.061079416 0.034173656 -0.06432647 0.00094334694
0000e0 6f 39 0f 3d 3a 83 fa 3c 68 44 e3 3c f5 fd 7a 3d
       0.034966882 0.030580152 0.02774258 0.06127735
0000f0 7e 51 6a 3d bf be 5f 3d 9d 56 0d bd b1 9e c8 3b
       0.057206623 0.05462527 -0.03450643 0.006122433
000100 95 83 3e 3d f7 c6 21 bd 82 d1 8b ba 9d bb 3c bd
       0.046512205 -0.03949639 -0.0010667297 -0.04607736
000110 2f 67 0f 3c 9a 63 ce bc 9f 89 f4 bb 9b 38 41 bd
       0.008752628 -0.025193978 -0.007462695 -0.047173124
000120 63 da 90 bd 5d d0 08 bd 88 6b ee bc 5c 61 4c 3c
       -0.07072904 -0.033401836 -0.02910401 0.012474384
000130 bf 2b 52 3d c7 9c 80 bd be 2c 5c bd ef 03 01 3d
       0.05131125 -0.06279903 -0.053753607 0.031497892
000140 0e 2c fb bc 99 6c 46 bd 2d 75 83 bd f7 dd 0d bd
       -0.030660655 -0.04844341 -0.06418834 -0.03463551
000150 47 b9 ec 3b 1a b3 12 bd 42 b8 58 bd de f5 86 3c
       0.007224235 -0.035815336 -0.052910097 0.01647466
000160 10 70 9f 3c 4c 98 72 bc 32 71 9a bc 33 25 80 3d
       0.019462615 -0.014806818 -0.018852804 0.06257095
000170 19 61 ec 3a bc 94 54 bc 9b 3b 99 3d 1d db c1 3c
       0.0018034308 -0.012974914 0.07482072 0.023664052
000180 d6 e7 e7 ba c1 c6 f2 3c 8f 92 e0 3a 65 56 2d bc
       -0.0017692994 0.029635789 0.0017133522 -0.01057968
000190 30 14 1e 3d 5e b5 26 bd d3 96 01 bd 7c f7 93 3d
       0.03859347 -0.04070031 -0.031637978 0.07224938
0001a0 27 ef 82 3d 61 2b 9d 3c af 6e 89 3d 99 f3 d3 3c
       0.06393271 0.019185724 0.06710564 0.025872992
0001b0 da 46 cf bc a6 84 95 3d 56 98 7d bc 04 b2 8f 3d
       -0.02530234 0.07300691 -0.015478214 0.07016376
0001c0 8b 5d 3a 3b 5f 2c 98 bc 6b 7e 8d bc c9 9b 92 ba
       0.0028437104 -0.018575845 -0.017272195 -0.0011185344
0001d0 72 25 5d 3d 75 2f 16 bd 73 74 4f 3d 5b b3 8c 3d
       0.05399079 -0.036666352 0.050648164 0.06870147
0001e0 d8 8a 2a 3d ee 93 77 3c 57 90 e5 bb 10 63 eb 3c
       0.041636318 0.015110953 -0.007005732 0.02873376
0001f0 2f 6f 6d 3d 17 7b 3a 3d cb 80 95 3d fb a4 32 3d
       0.05796736 0.045527544 0.07299956 0.04361437
000200 d4 5a 84 3c 26 8c 95 3d 1a 00 cb bc 1f 13 3b 3d
       0.016156591 0.07302122 -0.024780322 0.045672532
000210 f7 7f 4e 3d 6c ce 94 3d f9 76 c2 3d 5a ea 5f 3d
       0.050415006 0.07265934 0.094953485 0.054666854
000220 38 38 0b 3d 15 f1 bb 3d 25 1e ef 3d 23 33 19 3d
       0.03398916 0.09176842 0.116756715 0.037402283
000230 9d ac 50 ba 89 d5 68 3d 20 86 92 3d 3b 9d ae 3c
       -0.00079602917 0.056844268 0.071544886 0.021315208
000240 c7 c4 28 3d ed 29 72 3d ae b3 93 bc cc 49 f5 bc
       0.041203286 0.059122015 -0.018030014 -0.029942416
000250 49 2d 5f 3c 00 5c 25 3d c7 5d 36 bd 8e 30 16 3c
       0.013621637 0.04037094 -0.044523027 0.00916685
000260 94 d7 1d 3d 29 76 b5 3b 4b 08 e6 bb 5f 35 b6 3c
       0.03853567 0.0055377674 -0.0070200316 0.022242246
000270 7a 0d 44 3d 3b 38 09 bd ce 87 64 3d da ad f8 3c
       0.047864415 -0.03350089 0.055793576 0.030356336
000280 9e 8e 00 3c 2f 72 d1 bc fc 5b d8 3c 45 ba 03 bd
       0.007846503 -0.025567142 0.026411049 -0.032160062
000290 22 e7 5c bd da 07 12 3d 1c 6e fc ba b8 78 bc 3c
       -0.053931363 0.03565202 -0.0019258889 0.023006782
0002a0 14 10 3c bd 20 43 22 3c 01 6e 0b 3d 3b 20 46 bd
       -0.04591377 0.009903699 0.034040455 -0.04837058
0002b0 81 87 c0 bb 7f 5e b3 3b 7b af 85 bd 33 1c 9f bc
       -0.0058755283 0.0054739113 -0.06527611 -0.019422626
0002c0 a7 2c c2 3a db 26 94 bd e5 79 49 3c dd 6e 2a bc
       0.0014814333 -0.072339736 0.012297128 -0.010402408
0002d0 06 dd d5 bc ae cc 81 bd 13 d4 6a bd e7 a2 05 3c
       -0.026106369 -0.06337868 -0.057331156 0.008156515
0002e0 fd e4 83 bd 14 a5 41 bd a4 ab 12 bd 1d 6c 9f 3c
       -0.064401604 -0.04727657 -0.03580822 0.019460732
0002f0 a0 11 05 bd 49 9a 85 bd 66 55 03 bc 8e 05 a2 bc
       -0.03248751 -0.06523568 -0.008015966 -0.01977804
000300 ed b9 f2 3c 4a 76 b8 bc a0 6e 1e bd cf 61 26 3d
       0.029629672 -0.022517342 -0.03867972 0.04062062
000310 9e b2 12 3c 9b 64 a1 bc 49 a9 c1 3c 0f 3c 65 bd
       0.0089537185 -0.019701293 0.023640292 -0.05596548
000320 d0 4e 07 3d a7 04 43 bd c0 d2 28 bd d4 0f 15 bd
       0.033034146 -0.04761186 -0.04121661 -0.036392048
000330 30 42 53 3d d9 bf 17 bd 4b 1b 86 3c 59 a6 ff bc
       0.051576793 -0.037048195 0.016370436 -0.03120725
000340 d0 45 11 3d c2 a9 11 3d 66 10 04 bd 6c 87 30 3c
       0.03546697 0.035562284 -0.0322422 0.010774475
000350 40 5a d7 3c ac d1 71 bc 5e c7 13 3c 7e 48 00 3d
       0.026288152 -0.014759462 0.009019701 0.031319134
000360 3c f3 63 3d 74 00 6a bd 08 e6 70 bd f5 f4 3e 3d
       0.05565189 -0.05712934 -0.058813125 0.046620328
000370 95 27 88 3c d5 a5 14 3c 8c 50 bc bb b1 b0 83 bc
       0.016620437 0.009072741 -0.0057469066 -0.016075464
000380 57 bb 64 bb fe 4e 1c bd 82 54 b8 ba 8b 37 56 3c
       -0.0034901702 -0.03816127 -0.0014063271 0.013074766
000390 75 14 20 bd e6 41 81 bc 49 b6 00 3d 28 b6 46 3b
       -0.03908201 -0.015778493 0.03142384 0.0030320976
0003a0 f9 2f 8a 3c ac 17 28 bd fc 0f 73 bc 31 e8 15 bd
       0.016868578 -0.0410382 -0.014835354 -0.036598388
0003b0 7a af c4 bc 47 70 38 bd bb 0c 77 bd ac 30 b2 3a
       -0.024009455 -0.04502895 -0.060314875 0.0013594828
0003c0 c8 67 e3 bc c3 bd 7b 3c 76 62 84 bc 59 bc ca bc
       -0.027759448 0.015365067 -0.016160231 -0.024748014
0003d0 c8 d2 0a 3d e6 05 ac 3d 04 d0 91 3d 0d 93 a9 bc
       0.033892423 0.083995625 0.07119754 -0.020700002
0003e0 bb 13 cd 3d d4 4f 55 b9 75 17 01 3d fa 3b 33 3d
       0.10013529 -0.00020343001 0.03151651 0.04375837
0003f0 5b 03 be bd fa 98 25 be e7 47 18 be 26 d6 71 be
       -0.09277984 -0.16171637 -0.14871179 -0.23616847

encoder.encoder.0.0.bias f4 [36]
000000 f4 0e 0b bd 06 03 33 3d 49 41 5c bd 16 a5 18 3d
       -0.033949807 0.043704055 -0.0537732 0.037266813
000010 c2 7b 86 bd 14 98 76 bc 6e 70 31 3d 2a c7 58 bd
       -0.06566574 -0.015050907 0.043320112 -0.052924313
000020 eb 53 81 3b 99 f4 82 bd 64 50 89 3d c8 38 94 bd
       0.0039467714 -0.063943096 0.067047864 -0.07237393
000030 ec 28 b8 bc eb e1 94 3a be fc 9e 3c 17 ec 3e 3d
       -0.02248045 0.0011358833 0.019407626 0.04661187
000040 da 2f 79 3d df 7b 8d bd d4 d1 06 bd 5c 72 38 3d
       0.06083665 -0.06908392 -0.03291495 0.045030937
000050 b0 9f 73 bd 0b 4b de bc 38 f3 95 bc 65 55 64 3d
       -0.05947846 -0.027135393 -0.018304452 0.0557455
000060 48 ec 8b bc c3 61 a4 bc 7c 6b 4e 3d c0 4e bc bc
       -0.017080441 -0.020066148 0.050395474 -0.02298677
000070 ff 27 06 3d af 6e d7 3c 1f a6 af bc b0 6a 93 bd
       0.032752987 0.026297895 -0.021441517 -0.071980834
000080 f7 6c a8 3c 7d 15 99 3d db 73 4c bd 59 76 1b bd
       0.020559771 0.07474802 -0.049915176 -0.037954662

encoder.encoder.0.1.weight f4 [36]
000000 d5 d9 6f 3f cc 64 60 3f 69 06 76 3f 3f 76 53 3f
       0.9369176 0.87653804 0.9610353 0.82602304
000010 84 2c 5c 3f 68 5c 61 3f f8 4d 76 3f e9 1d 51 3f
       0.86005425 0.88031626 0.9621272 0.81686264
000020 1d f7 46 3f db 86 4e 3f d7 01 20 3f 5d 8c 69 3f
       0.77720815 0.80674523 0.6250281 0.912298
000030 77 80 73 3f 3b 45 8e 3f b2 d8 0a 3f 3c f9 33 3f
       0.95117897 1.1114877 0.542369 0.70302176
000040 e8 9e 58 3f 4a 61 66 3f 21 b6 61 3f 4c 0d 57 3f
       0.8461747 0.899922 0.8816853 0.84004664
000050 31 28 44 3f 52 36 59 3f b3 eb 70 3f 7c bf 84 3f
       0.7662383 0.8484851 0.9410965 1.0370936
000060 bb b5 8e 3f 81 af 3c 3f 6b 89 58 3f 2e ae 77 3f
       1.114921 0.737053 0.84584683 0.9675015
000070 3e 0b 51 3f 85 6d 88 3f d4 26 35 3f 36 75 5e 3f
       0.8165778 1.0658423 0.7076237 0.868976
000080 36 fc 84 3f c5 b5 59 3f 60 f3 5a 3f a4 51 71 3f
       1.0389469 0.85042983 0.8552761 0.942652

encoder.encoder.0.1.bias f4 [36]
000000 ef c6 7d 3b 2d 11 a1 bc 87 0b 5c bc 3d 53 4a bc
       0.003872331 -0.01966151 -0.013430483 -0.012348947
000010 d4 c2 db ba 6f c4 14 bd 02 e5 81 bc c7 7a 76 bc
       -0.0016766437 -0.036320146 -0.01585627 -0.015043921
000020 d9 25 56 bc 55 41 22 bd 4f 5f a3 bb f1 de 0d bd
       -0.013070547 -0.039613087 -0.004985727 -0.03463644
000030 1e 5c 4d bc 4e 1f a2 bc da 7d 39 bc f7 52 d6 bc
       -0.0125341695 -0.019790318 -0.011321509 -0.026162608
000040 7b ab 72 bc 6b 03 d6 bc 0a a6 71 bc e2 36 a7 bc
       -0.014811392 -0.026124677 -0.014749059 -0.020411912
000050 92 ea 9a bc 86 fd e8 bc d3 c9 07 bb ba 03 9c bc
       -0.01891068 -0.028441202 -0.0020719662 -0.019044746
000060 eb 17 af 3b 89 25 38 bd f6 25 b5 bc 40 a2 bd bc
       0.0053434274 -0.04495767 -0.022112828 -0.023148656
000070 21 7a ab bc 35 24 c5 3c e4 9e 80 bc 71 6c 0d bd
       -0.020932259 0.024065116 -0.015700765 -0.034527246
000080 99 7a 02 bd 16 87 64 ba 1c fe b1 bc b1 e7 b9 bc
       -0.0318552 -0.0008717639 -0.021727614 -0.022693487

encoder.encoder.0.1.running_mean f4 [36]
000000 a6 cb 6d 3f b9 79 17 bf 07 7d a8 3c 01 90 4d 3f
       0.9288887 -0.5917011 0.02056743 0.8029786
000010 12 29 cc 3b f1 12 17 bf b8 9c 15 bf 5c 0a 90 be
       0.006230482 -0.5901328 -0.5844226 -0.28132904
000020 a3 c1 6f 3f 09 96 80 3e e6 2f 06 3f 1c f8 55 3f
       0.9365484 0.25114468 0.5241684 0.8358171
000030 7d 4e 37 bf 32 33 ff be 8d 17 1a 3f 4a 6b 37 3f
       -0.7160414 -0.49843746 0.60192186 0.71648085
000040 20 e8 ee be 00 b2 3f 3f 25 33 fb be e3 e5 3f 3f
       -0.46661472 0.7488098 -0.49062458 0.74960154
000050 84 8b ba be 90 b7 ba be f4 e7 65 bf c5 d5 d3 be
       -0.36434567 -0.36468172 -0.8980706 -0.4137403
000060 d2 ea 88 3e d4 61 e9 3e 5c 6c 0e 3c 67 be 83 3f
       0.26741654 0.4558245 0.008692827 1.0292481
000070 27 fa 56 3e 66 92 97 be fc fb 32 3f bc b4 af be
       0.20993863 -0.2960388 0.6991575 -0.34317577
000080 b3 6d a2 3e 90 d9 19 bf 75 66 06 bf fa bc 57 3f
       0.3172432 -0.600976 -0.5250009 0.8427273

encoder.encoder.0.1.running_var f4 [36]
000000 fc 9d 91 3b ad 2f b5 3b 43 d4 48 3b 2a dc 85 3b
       0.004443882 0.005529365 0.0030644096 0.0040850835
000010 2a 66 a6 3b 2e d8 92 3b 70 c2 52 3b 9a d4 70 3b
       0.005078097 0.004481337 0.003215935 0.0036747814
000020 fc 04 c4 3b b9 91 f6 3a 8c 91 2b 3b ac b9 be 3b
       0.0059820395 0.0018811739 0.0026179282 0.0058204737
000030 e5 fc 86 3b 4d 07 f3 3a 42 d2 80 3b 32 15 6c 3b
       0.004119503 0.0018541605 0.0039313147 0.0036023376
000040 55 ef d1 3b 64 fc 4e 3b 23 cd b6 3b fb fb 2a 3b
       0.0064067044 0.0031583542 0.0055786534 0.0026090133
000050 93 19 b0 3b 33 cc 24 3b 00 f8 28 3b 8b e5 7c 3b
       0.0053741424 0.0025146126 0.0025782585 0.0038588967
000060 4a 15 53 3b 18 bf 30 3b fc 1d a9 3a 3b ab 23 3c
       0.0032208734 0.002696937 0.0012902613 0.009989555
000070 06 b1 94 3b cd 74 cc 3a 6a aa 38 3b 53 ee 75 3b
       0.0045377044 0.0015598774 0.0028177747 0.0037526086
000080 5c 63 b9 3b db b8 b0 3b d2 cd b5 3b c3 5b 89 3b
       0.0056575965 0.0053931302 0.0055482173 0.004191847

encoder.encoder.1.backbone.0.0.weight f4 [36, 36, 3]
000000 6c 76 81 3d c5 05 13 3d 45 8e 79 3c e5 99 93 bd
       0.06321415 0.035894174 0.015231674 -0.072070874
000010 69 02 35 3d 26 0f fb bc 7b d4 cb 3d 28 76 f2 bc
       0.04419175 -0.030646872 0.09952637 -0.029597357
000020 e0 66 87 3d ae d1 9d bd 22 75 f9 bc 95 16 c0 bb
       0.06611419 -0.07706009 -0.030451361 -0.005862067
000030 35 90 36 3d 10 0e 9c 3d a9 6d 91 bd 74 d7 4b 3c
       0.04457112 0.0761987 -0.07100994 0.012441505
000040 59 c6 73 3c da cf b8 bd 1d 28 14 3d af 5d 05 3d
       0.014878833 -0.090240195 0.036171068 0.032560047
000050 e2 75 fb 3c 18 b6 92 bc fc 23 84 3c 5e af 8d 3d
       0.03069586 -0.017909095 0.01613044 0.06918214
000060 b0 9a 1b bd 6a 21 9b bb d7 aa 45 bc b9 ab 39 bc
       -0.03798932 -0.004734208 -0.012064657 -0.011332446
000070 85 39 90 3d 21 d8 2c 3d 21 de 83 bd 1e 69 54 bc
       0.07042221 0.042198304 -0.06438852 -0.012964515
000080 6f ab e3 bb fb 4a 04 be ae a0 93 bd a1 e9 af bb
       -0.0069479267 -0.12919228 -0.072083816 -0.005368427
000090 be f0 fa 3d 61 4e bd 3d 84 40 91 3d 34 7e 5b 3d
       0.12252949 0.09243465 0.070923835 0.053587154
0000a0 c3 20 c5 3d 44 f7 af 3d c5 09 89 bd ea 8d e7 bc
       0.096253894 0.08592084 -0.066913165 -0.028265912
0000b0 19 ab 41 3c 28 4c 80 bd e0 13 4d 3d 12 c9 b6 3c
       0.011820578 -0.06264526 0.050067782 0.022312675
0000c0 7c 4f cf bb 99 36 e2 3c b7 0a af 3d 93 6f f5 bd
       -0.006326614 0.027613925 0.085469656 -0.11984172
0000d0 9b f2 e9 bd 3a 6e 8e bd cd d1 92 3d 54 a9 6c 3d
       -0.114232264 -0.06954618 0.071689226 0.05777867
0000e0 e4 f4 80 3d f0 ff 3f 3c 49 45 1b 3d 8a 7f 4d bd
       0.06296709 0.011718735 0.037907872 -0.05017046
0000f0 31 7e 9a 3a 4b f4 19 3d 12 5a 26 3d 06 b5 0d bd
       0.0011786876 0.03758649 0.04061324 -0.034596466
000100 db de 7b bd 18 a7 8f bd d1 00 91 3d b0 38 41 3d
       -0.06149183 -0.070142925 0.07080234 0.047173202
000110 0b 5f be 3c 34 d8 86 3d 60 b0 6f 3d 06 62 0c bd
       0.02323868 0.06584206 0.058517814 -0.03427317
000120 c8 62 c7 3d a0 f8 38 3d d4 99 80 bc 45 74 34 3d
       0.09735638 0.045158982 -0.015698351 0.044056196
000130 c9 88 c9 bd e3 8f 06 3d a8 87 a3 3c 07 12 6c bc
       -0.09840543 0.032852065 0.019962147 -0.014408595
000140 2a 3b 8f 3d 87 9f d0 3c 93 a4 12 3d cd 19 40 bd
       0.069937065 0.025466694 0.03580148 -0.046899606
000150 58 bb f7 3c 5c be 57 bd ca 4e bc 3c ab fa 82 bd
       0.0302407 -0.052671775 0.022986788 -0.06395467
000160 8f 73 e2 bd d4 f6 96 b8 80 6a 0f 3d 55 96 43 bd
       -0.11057197 -7.198533e-05 0.035013676 -0.04775079
000170 48 4b 52 bd 6f 21 9d bb bc 09 16 bd 94 af d8 bc
       -0.051341325 -0.0047952454 -0.036630377 -0.02645091
000180 72 9c 42 bc 1a 52 97 bd dc e5 68 b8 5b ae ee 3a
       -0.01187812 -0.073887065 -5.5527184e-05 0.0018209921
000190 e1 5d 0f 3d 44 82 90 bd ea e4 95 bb c8 57 b6 39
       0.03500164 -0.07056096 -0.004574408 0.00034779147
0001a0 cb 7d 0b 3e 6c bd d6 bd d1 84 cf 3c d2 d9 81 3c
       0.13622205 -0.10485348 0.025331886 0.015850935
0001b0 2c 64 4f 3d 9d e7 24 bd 1b a4 bd bd f9 ad 5c 3d
       0.05063264 -0.040259946 -0.09259816 0.05387685
0001c0 d8 ff 09 bd e0 42 d4 3d 43 1e 54 3d 43 af d8 3d
       -0.033691257 0.10364318 0.051786672 0.105803035
0001d0 f2 61 06 bc 99 b7 dd bc 13 62 6d bd c2 02 c3 3d
       -0.008202063 -0.027065085 -0.05795486 0.095220104
0001e0 2a 1c af bd 44 d1 e9 3c 96 d1 9e bd e8 0d f4 3c
       -0.08550294 0.028542168 -0.07754819 0.029791787
0001f0 15 39 07 bd dd 2b 4f bd 33 e6 3b 3d 04 6a a8 3d
       -0.033013422 -0.05057894 0.045873832 0.08223346
000200 59 2d 9d 3d 3e a0 34 bd 86 d1 be bd fd 30 c8 bd
       0.07674665 -0.04409813 -0.09317307 -0.09774969
000210 a8 79 05 bc c9 b4 0f be e5 b5 8b bd 36 7b c0 bc
       -0.008146681 -0.14033808 -0.06821803 -0.023496252
000220 c3 ae 9f 3d c0 d7 ca bc ef f6 bf 3d 76 1e bc 3d
       0.07797005 -0.02476108 0.09373271 0.091854975
000230 cb b1 74 3c 1a 53 a0 bc 33 8b 8c bc f9 6b b3 bd
       0.014934967 -0.019570876 -0.01715622 -0.087608285
000240 14 dd 74 3d a0 f5 92 3c a7 80 b1 3d 52 02 4c 3d
       0.05978115 0.017939389 0.086671166 0.0498069
000250 ef 93 a5 bd 58 06 18 3d d4 bf db bd d2 06 96 bd
       -0.08084857 0.037115425 -0.10729948 -0.073255196
000260 c7 70 ba 3d 63 ee 5c 3c fe 84 08 be 1f 8b 20 bd
       0.09103542 0.01348457 -0.13331982 -0.039195176
000270 01 57 b4 3d 29 4a b8 bc 35 c9 c8 3c b8 6a 58 3c
       0.08805657 -0.0224963 0.024510005 0.0132090375
000280 52 4f 7c bd a7 69 a9 3c 7a 9a db 3b 90 13 a8 bd
       -0.061599083 0.020680262 0.0067017647 -0.08206856
000290 f5 3a c7 bd b4 dd 89 3d 53 1d f1 3d 0f d0 46 3d
       -0.09728042 0.0673174 0.11773171 0.048538264
0002a0 6d 6c 9a bd e6 fe 6d bd 9e 8a 0d bd 81 8c 3f 3d
       -0.07540212 -0.05810442 -0.034556024 0.046764854
0002b0 e0 6e 64 3d 55 d5 95 3d 7a 26 11 3d 59 00 c4 3b
       0.0557698 0.073160805 0.035437085 0.0059814868
0002c0 d0 4f 4f bd a8 35 02 3d 4c d7 a9 bd 9b 45 c1 3c
       -0.050613225 0.03178945 -0.08293018 0.02359276
0002d0 a0 81 89 3d a4 46 a2 bc 88 33 a2 3b 75 7e b2 3d
       0.06714177 -0.019809075 0.0049499907 0.08715526
0002e0 f5 db 5f bd 18 36 00 bd d8 8c 85 3c aa 90 5c bd
       -0.054653127 -0.031301588 0.016302511 -0.0538489
0002f0 40 dd ab bd b2 67 85 bc 3c 97 a1 3d f5 3c 1a bc
       -0.083918095 -0.016284797 0.07890174 -0.009413947
000300 58 6d b7 3d 35 15 4c 3d ee 1e a5 3d 16 1f 90 bb
       0.089564025 0.049824912 0.0806254 -0.004398237
000310 f4 ba 4a 3c e9 9d 55 bd c4 85 15 bd 8f d7 af bd
       0.012373675 -0.052152548 -0.036504522 -0.085860364
000320 df 00 f2 bd 92 b8 8f 3c db b5 2b 3c a9 2b 77 bd
       -0.118165724 0.017544065 0.010480369 -0.060344372
000330 80 b4 70 bd b9 00 b6 3d 50 80 87 3d 3b 86 5e 3d
       -0.05876589 0.088868566 0.066162705 0.05432723
000340 e6 3d cf bd c3 77 e7 bd a4 69 12 be be 03 9f bd
       -0.10119228 -0.113021396 -0.14298111 -0.07764386
000350 48 d4 c7 bc 34 08 d0 bc 10 10 07 3d 7f 8a 11 bd
       -0.024393216 -0.025394537 0.032974303 -0.03553247
000360 3f 48 08 3d 9e 0f e8 bc c1 b0 a3 bc 29 9d ca 3c
       0.033272024 -0.02832776 -0.019981744 0.024733143
000370 0d ba 52 bb dc 85 bb bd 92 46 de 3b 65 e7 e9 3c
       -0.0032154352 -0.09156391 0.006783315 0.02855272
000380 0a 74 95 3d 51 30 4a 3b f7 76 4d bd d5 97 c3 3b
       0.07297523 0.0030851553 -0.05016228 0.0059690275
000390 20 fd 9d 3c 85 25 88 bd 54 ca 6a 3c 71 40 c3 3c
       0.019285738 -0.06647781 0.014330465 0.023834439
0003a0 f7 b4 a7 3c 94 e1 5c 3d 29 fa c0 3d c3 7d a0 3d
       0.020472033 0.053926066 0.09422714 0.07836487
0003b0 4b d9 d1 bb e7 8a 4d bd fa b5 24 bd 99 fb 80 3d
       -0.006404077 -0.050181296 -0.04021261 0.062979884
0003c0 13 45 a1 3d da 97 a9 bc d5 6a 1f bd 19 29 9f 3d
       0.07874503 -0.020702291 -0.038920242 0.07771511
0003d0 43 80 1c 3c 22 95 52 3a 6f 56 85 bd fb b7 10 bb
       0.009552064 0.0008033087 -0.065106265 -0.0022082317
0003e0 d5 fb fd bb 45 e6 e6 3c 0e 57 c4 3b 98 c9 33 3d
       -0.007750968 0.028185973 0.005991823 0.043893427
0003f0 3b 6c 2c 3b d1 91 04 3c 4d 8f 4a bc a1 92 e5 3c
       0.0026309628 0.008091406 -0.012363267 0.02802402

encoder.encoder.1.backbone.0.0.bias f4 [36]
000000 b3 29 d0 bd 97 94 8a ba 7b e2 9a 3d 77 83 d7 bc
       -0.101642035 -0.0010572848 0.07562729 -0.026307805
000010 2f ab b1 3c 78 2f a2 bd e6 24 f5 bc 9c fd a6 bd
       0.021688072 -0.0791921 -0.029924821 -0.08153841
000020 16 26 6e bc bc 13 c3 3d 9c d7 5a bd c8 97 c1 bd
       -0.014535448 0.095252484 -0.053428277 -0.09452778
000030 6d 6a 83 bc 90 b0 95 3c 73 5f 64 bd 7e 40 83 3c
       -0.016041959 0.018272668 -0.05575509 0.016021963
000040 07 06 1f 3c 6b b8 1f 3d 45 7e 4a bd e6 2c 06 3d
       0.009706027 0.038994234 -0.049436826 0.032757662
000050 73 4d 94 bd 54 62 ac bc fe 3f b1 bd 86 72 85 3c
       -0.07241335 -0.02104298 -0.08654784 0.01628996
000060 10 46 34 bd 6f 68 ce bc 7e 4c 86 bd 85 d1 0f 3d
       -0.04401213 -0.025196282 -0.065575585 0.035111923
000070 12 51 48 bd 4f 37 8b 3d 76 8c fd 3c 8e 39 4c bd
       -0.04890544 0.06797659 0.030950766 -0.049859576
000080 cf 02 7e bd 9a 35 7d bd 8c 59 38 bc 6f af 16 bd
       -0.062014397 -0.061818697 -0.011251818 -0.0367884

encoder.encoder.1.backbone.0.1.weight f4 [36]
000000 56 1d 7b 3f 28 24 71 3f d7 55 5b 3f f6 52 80 3f
       0.9809164 0.94195795 0.85677856 1.0025318
000010 dc f9 61 3f d1 2b 52 3f d8 80 6a 3f 21 f8 4c 3f
       0.8827188 0.8209811 0.9160285 0.80066115
000020 f4 7a 66 3f 73 50 78 3f 4f 93 79 3f b8 95 66 3f
       0.9003136 0.96997756 0.974904 0.900722
000030 ab 29 72 3f f8 11 51 3f 09 f5 6a 3f bf ba 71 3f
       0.9459483 0.81668043 0.91780144 0.94425577
000040 59 8d 66 3f db f7 73 3f 96 df 64 3f a6 49 52 3f
       0.9005943 0.9530007 0.89403665 0.8214363
000050 f9 92 4b 3f 32 92 56 3f 81 e7 62 3f de 35 77 3f
       0.7952114 0.83816826 0.88634497 0.9656657
000060 f3 b1 6c 3f e3 8d 66 3f 44 32 2c 3f 7d e9 68 3f
       0.9245903 0.9006025 0.672642 0.90981275
000070 b4 32 66 3f c0 ff 55 3f 22 2c 67 3f cd bd 61 3f
       0.89921117 0.8359337 0.90301716 0.8818024
000080 50 38 69 3f 80 ce 6b 3f 9c d5 76 3f ec 3a 55 3f
       0.9110155 0.9211197 0.9641969 0.8329303

encoder.encoder.1.backbone.0.1.bias f4 [36]
000000 47 5a d0 bb e0 91 c8 bb 60 4e 89 bc bc 8d 3c bd
       -0.006358418 -0.0061209053 -0.016761005 -0.046033606
000010 80 23 20 3c a0 ca 35 bd df d2 e5 bc c5 01 c3 bb
       0.009774089 -0.04438269 -0.028054653 -0.0059511387
000020 a9 32 04 bd 2e cc ee 3b 3f 76 fb bc 39 db 50 bd
       -0.032274876 0.0072875237 -0.030696033 -0.050990317
000030 e4 a6 2c bc 3c 1e 38 ba e6 70 98 bd 2e 5b 86 bc
       -0.010537837 -0.0007023548 -0.07443409 -0.0164009
000040 ef b6 09 bd 66 78 63 bd 60 72 15 bb 5d 00 bf bb
       -0.033621725 -0.055534743 -0.0022803769 -0.0058289007
000050 c4 48 38 39 f9 53 19 3b 30 56 bb bc f5 48 bc bc
       0.00017574715 0.0023396 -0.022868246 -0.022984007
000060 fd 07 5f bc ab 1b 88 bd 4b ff b2 bc ca 73 6d bc
       -0.013612744 -0.06645902 -0.021850249 -0.014492938
000070 ef f0 0b bd b8 51 24 bc a4 8b d6 bb 8d 99 3f bc
       -0.03416532 -0.010029249 -0.006547408 -0.011694324
000080 d0 78 e7 bc de 92 e2 bc 28 cf 99 bb 5b a3 7a bc
       -0.02825585 -0.027657922 -0.0046938844 -0.015297736

encoder.encoder.1.backbone.0.1.running_mean f4 [36]
000000 9a aa 80 bd 87 a8 14 3d f6 55 b1 3d 47 5a 04 be
       -0.0628254 0.036293533 0.08658974 -0.12925063
000010 43 8a c1 bd 5b 63 3a be 5b 43 85 bc f8 04 53 bd
       -0.094501995 -0.18201964 -0.01626747 -0.05151841
000020 b5 27 e1 bc 61 f0 85 3d ba 54 de bd b6 6d 86 bd
       -0.027484754 0.06539989 -0.10856004 -0.065638945
000030 a9 a4 9f 3b dc 4b 7f 3d 39 8e 0a 3d 5a 7d 40 3d
       0.004871924 0.062328205 0.03382704 0.046994545
000040 85 70 79 3b c9 bd 26 3e c5 dd 9b bd 47 f1 9e 3c
       0.0038061452 0.16283335 -0.076106586 0.01940216
000050 39 8c 1b bd ac c6 9f bd 7c e7 ad bd 93 c2 8b 3d
       -0.037975524 -0.078015655 -0.08491418 0.068242215
000060 3d 83 a0 3b 61 79 4c bc a6 79 e7 ba 7f b3 6c 3c
       0.0048984573 -0.012480111 -0.0017660155 0.014447092
000070 ad 5b c8 3d cd d7 76 3d 6a 1c bc 3d 6d 5b c7 bd
       0.09783111 0.060264397 0.09185107 -0.09734235
000080 bd dd 42 bd 9f bf 9e bc e7 bd d5 bd 04 d7 9c bd
       -0.047574747 -0.019378481 -0.104366116 -0.076581985

encoder.encoder.1.backbone.0.1.running_var f4 [36]
000000 6b d9 22 3e 8d da a0 3e bb 9a b9 3d 10 92 53 3e
       0.15903251 0.3141674 0.090627156 0.20661187
000010 a9 06 30 3e 2c 1f 88 3e 9d f2 ab 3e 82 ee 42 3e
       0.1719004 0.26586282 0.33583537 0.19036296
000020 96 14 77 3e a2 e0 87 3e 7e 29 ad 3e 84 23 5b 3e
       0.24128947 0.2653857 0.3382072 0.21400267
000030 42 ad ac 3e 9e 32 64 3e 46 a6 33 3e 36 04 ac 3e
       0.33725935 0.22284934 0.17543897 0.33596963
000040 79 ab f3 3d ad 7b 3c 3e 5e d3 83 3e eb c8 b4 3e
       0.1189794 0.18406554 0.25747198 0.35309538
000050 d4 84 a9 3e 09 00 97 3e 12 0f ee 3d a5 a1 88 3e
       0.33109152 0.29492214 0.11623968 0.26685825
000060 fc 0a e3 3d b1 6f c4 3d 9a 9f 2b 3e 5a 06 63 3e
       0.110860795 0.09591616 0.16760102 0.22170392
000070 1f 5d 90 3e fe 4d d1 3e c3 fb b9 3e a2 4c 06 3e
       0.28196046 0.40879816 0.3632489 0.1311517
000080 7d 69 94 3e c9 22 a2 3e 2f 99 23 3e 1e 1b 5a 3e
       0.2898673 0.31667164 0.15976404 0.21299407

encoder.encoder.1.backbone.1.0.weight f4 [36, 36, 3]
000000 75 7d a0 bd 54 b5 85 3d db 42 c8 3d c2 fc 94 bd
       -0.07836429 0.06528726 0.09778377 -0.07274772
000010 09 29 b0 bd e7 89 a7 bd 2d e0 80 bd 74 d5 95 3d
       -0.08601577 -0.081806 -0.06292758 0.073161036
000020 2e ae 2c bd 9e 02 3f bd 73 9c e9 3c 6f 03 34 3d
       -0.0421583 -0.046633355 0.028516984 0.043948587
000030 b4 3e 8e 3d 04 3e 9b 3d fc 81 84 3c 39 0d 4e 3d
       0.069455534 0.07580188 0.016175263 0.05030558
000040 c9 7f 21 bd 1a 50 cb bd 33 14 e0 3d 30 e8 a6 bc
       -0.039428506 -0.099273875 0.10941353 -0.020374388
000050 68 2f fa bd 77 8e ae 3b 5e 07 be 3c 8a cb 8b bd
       -0.12216073 0.0053270417 0.023196872 -0.06825931
000060 ad 9f d0 bc 02 2c db bd a5 b5 fd 3c f1 b9 1c bc
       -0.025466764 -0.10701753 0.030970404 -0.009565816
000070 af 4e 48 3d 50 34 ea 3c 12 df 26 bb a4 1e 2f bd
       0.048903164 0.028589398 -0.002546255 -0.04275383
000080 c4 c0 97 3d 7f 6c 88 3b 0c 63 a9 3c cb 04 f5 bc
       0.07409814 0.0041633244 0.020677112 -0.029909512
000090 7c 48 31 3b 4a d6 bd bc f9 eb 5b 3c 09 c5 16 bc
       0.002705126 -0.02317347 0.0134229595 -0.00920225
0000a0 2a 47 e4 3c b6 1e 3e bc 13 7e 8e 3d c2 18 42 bc
       0.027865965 -0.011604002 0.069576405 -0.011846723
0000b0 f5 2c 0c bc 86 ce 53 bd b3 ec fa 3c 3b 8f 97 bd
       -0.0085556405 -0.051710628 0.030630445 -0.07400366
0000c0 d9 9f 0e bc f8 92 cf 3c a8 a9 d2 bc 68 79 97 3d
       -0.008705103 0.025338635 -0.025715664 0.07396203
0000d0 db 2f 3e 3d 5f b8 82 3c 2e d3 20 bd cb 55 47 3c
       0.046432357 0.015957056 -0.039263897 0.012166451
0000e0 81 b4 3c 3c 60 16 73 bc 3c cf 0a 3d 49 52 a4 3d
       0.011517645 -0.014836878 0.03388904 0.08023507
0000f0 18 38 b1 3d 30 8a 46 bd 57 81 b1 3b 5e 64 4f 3c
       0.08653277 -0.04847163 0.00541703 0.012658207
000100 31 e1 9a bc 25 ed fd bc 64 0d 68 bd a8 d5 e2 bd
       -0.018906208 -0.030996868 -0.056653395 -0.11075908
000110 24 7b 3d 3d bb 5f 1f 3d 97 f0 e7 bc 21 5f a7 3d
       0.046260014 0.038909655 -0.028312964 0.08172441
000120 1c cc 67 bd 48 0a 65 bd d3 54 76 3c dc b9 b2 3c
       -0.05659114 -0.055918008 0.015034872 0.02181714
000130 a2 b9 74 3d 08 2c 45 bd e5 eb 81 3c f0 34 d0 bc
       0.059747346 -0.048137695 0.015859554 -0.025415868
000140 5d 89 98 bc ae 0c 5b bd f8 9c e1 3d 9c 94 69 3c
       -0.018620187 -0.05347889 0.110162675 0.014256623
000150 bc 1f 74 bd 90 b4 f4 ba 08 a8 9a 3c a1 ef 9d 3d
       -0.059600577 -0.0018669534 0.018878952 0.07711721
000160 16 d5 ce 3b dd 18 7d bd f7 1a 2d bd 23 dc 61 bb
       0.006312023 -0.06179129 -0.042262044 -0.0034463487
000170 1f b5 d2 bd 53 14 20 bd 96 27 fe 3c 8d a6 f4 3c
       -0.10288452 -0.039081883 0.031024735 0.029864574
000180 af e7 66 bc 64 91 29 bd 5d dd 2f 3c aa 31 64 bd
       -0.014093324 -0.04139842 0.010733929 -0.055711426
000190 88 df 83 bc 49 f0 4d 3d 60 54 9a bd 92 b2 2e 3c
       -0.016097799 0.050277982 -0.075356245 0.010662692
0001a0 9d c3 b5 bb 6d 8d 81 bc 5b 44 2c 3d fe ff 5f ba
       -0.0055470006 -0.015814507 0.042057376 -0.0008544921
0001b0 db 55 e7 3c 35 87 6f 3c 33 2b 8d 3d b0 de 36 3c
       0.028239181 0.014619638 0.06893005 0.011161491
0001c0 4d 20 c5 bd 86 38 c4 bd cd 7c 35 3b eb 9e 8f bd
       -0.096253015 -0.095810935 0.0027692795 -0.07012733
0001d0 56 8b 2a bd c2 29 9c 3d e8 5a 85 3d 4a 57 bb 3d
       -0.041636787 0.07625152 0.065114796 0.091475084
0001e0 cd b8 98 bd 11 a7 88 bd df aa cd 3b 61 8c a3 bc
       -0.07457123 -0.066724904 0.006276473 -0.019964399
0001f0 52 f6 0f 3c ea 90 56 3b 3d 69 a2 bd 5b 64 8d bd
       0.008786755 0.0032740184 -0.07930229 -0.06903907
000200 ec b7 05 3d cd 36 0f 3e 2c 9e f9 3d 5c 8c 2b bd
       0.032646105 0.13985749 0.12188372 -0.041881904
000210 bb 28 a7 3c f3 00 6b bc 94 7e 54 3d a0 7b 34 bd
       0.020405164 -0.014343488 0.051878527 -0.04406321
000220 ba c4 99 3d 1f 84 b1 3d fc 7a 99 bd c5 9d a0 3c
       0.07508226 0.08667778 -0.074941605 0.01960648
000230 47 04 2e bc 9c 2b d4 bb fa 25 e8 bb 82 d5 cb bd
       -0.010621137 -0.006474925 -0.0070846053 -0.09952833
000240 46 09 06 bd 55 89 e1 bd ab cd a8 3c 58 64 03 ba
       -0.032723688 -0.11012522 0.020605883 -0.0005012206
000250 32 f8 1d bd b6 29 00 3d 6a 52 bb 3d d2 bd c8 bc
       -0.038566776 0.03128978 0.091465786 -0.024504576
000260 02 0e 8d bd 0b b8 2c 3d f2 cf 14 3c 82 2d b0 3c
       -0.068874374 0.042167705 0.009082781 0.021506075
000270 59 67 34 3c cc 22 ff bd 1b be 7b bd 10 8f 54 bd
       0.011010968 -0.12457809 -0.061460596 -0.051894248
000280 c5 e2 82 3a c2 00 83 3d 28 25 75 bd f4 bd 1e 3d
       0.0009985795 0.06396629 -0.059849888 0.038755372
000290 e5 05 9d bd 7e 02 7e bd a9 b8 ac 3b 59 65 3e 3d
       -0.0766714 -0.062014095 0.0052710366 0.04648337
0002a0 83 ab 13 bd d0 e0 99 3d e1 ff 96 3c 18 51 6b 3c
       -0.03605224 0.07513583 0.01843256 0.014362596
0002b0 74 9d 48 bc 6d ca af 3c b4 36 a1 3d b5 fc 87 bd
       -0.012244571 0.021458829 0.07871762 -0.06639997
0002c0 76 2d de 3c c6 3b 29 3d 13 13 ca bc 05 4c 99 3c
       0.027121287 0.04131677 -0.024667298 0.018713007
0002d0 ee aa d7 bd c8 7a 9b bd 1f 19 47 bd fc 62 78 3c
       -0.10530649 -0.07591778 -0.04860794 0.015160318
0002e0 7d 8c 09 3e b5 ff f1 bc 02 85 19 3c 33 3f c3 3d
       0.13432498 -0.029540876 0.00937009 0.09533539
0002f0 3a 4b 1d bd f8 2e 2b bd 0f 04 a0 bd 9d 3d 62 bd
       -0.03840182 -0.04179284 -0.07813274 -0.05523454
000300 53 f4 c9 3d 41 87 8c bd 19 a1 46 3c 23 0b 9a 3d
       0.09861054 -0.06861735 0.01212337 0.075216554
000310 f6 e5 18 bc 1e 6c 71 3d f4 f7 a1 bc ad 3e 7c bb
       -0.009332171 0.058941 -0.019771554 -0.0038489506
000320 57 5c ca 3c e8 23 b9 bd 35 02 8f 3c a6 6a 64 3c
       0.024702234 -0.09040052 0.017457107 0.013941443
000330 84 eb 0c 3d c9 ca 00 bd 3e 0d d7 bd 7a af bb 3c
       0.034404293 -0.03144339 -0.105005726 0.022910822
000340 f8 56 f3 bd f9 34 74 bc e0 e7 a6 3c 72 c2 26 3d
       -0.11881822 -0.014905208 0.020374238 0.04071278
000350 79 88 d1 3c 79 1a 65 bd d8 29 2a bb 5e d4 96 bd
       0.02557777 -0.05593345 -0.0025964882 -0.073647246
000360 bc ea 96 3d 4b 24 c5 3d 59 2e cd 3d dc 1c 98 bd
       0.07368991 0.09626063 0.10018606 -0.074273795
000370 00 e4 96 3d 4c 5b 19 3d 6b d0 b0 3d 4b d0 9c bd
       0.07367706 0.037440583 0.086335026 -0.07656916
000380 51 6e e3 3b 5e 9e 24 3d 00 54 59 bc c0 73 10 3c
       0.006940641 0.040190093 -0.013264656 0.008816659
000390 40 46 5f bc be 4f 33 3d 2c 68 bd bc df c9 08 3d
       -0.013627589 0.04377722 -0.023120962 0.033395644
0003a0 78 92 e5 3d 6b 8a 99 3d 8b 0c e5 3c 89 e5 6e 3c
       0.11209577 0.07497104 0.027960083 0.014581093
0003b0 0b 9e db 3d 3f 4a af 3d 6c 90 dc 3c 52 bf cc bd
       0.10723504 0.08559083 0.026924334 -0.09997429
0003c0 6b 94 77 bd 5e ba 16 bd 36 96 bb 3d 7a a4 8d bc
       -0.060444277 -0.036798827 0.0915951 -0.017290343
0003d0 d0 31 22 3d c4 d6 b6 bc 49 98 95 bd 5d 26 20 bd
       0.039598286 -0.022319205 -0.07304437 -0.039099086
0003e0 d9 df 88 bc b4 6e 70 bd ce 81 41 bd 31 85 83 3d
       -0.016708301 -0.058699325 -0.047242932 0.064218886
0003f0 0c c2 eb 3d 8b 40 b9 bc 3a 53 b2 3d f5 17 78 bd
       0.11511621 -0.022613784 0.087072805 -0.060569722

encoder.encoder.1.backbone.1.0.bias f4 [36]
000000 21 9e c1 3d 7c b1 9a bd dc 95 7a bd 92 90 7e bd
       0.09453989 -0.07553384 -0.061178073 -0.06214959
000010 16 9c e8 bd 17 f8 51 3c 05 56 aa bd bd d1 ac 3d
       -0.11357896 0.012815497 -0.08317188 0.08438442
000020 46 79 bb bd 28 df 5d bd 66 2a b4 3c c7 4b fe bd
       -0.091539904 -0.054167897 0.021992873 -0.12416797
000030 f6 63 01 3e 24 18 9b bd 90 1a e0 3d fe 68 f2 3c
       0.12635788 -0.07572964 0.109425664 0.02959108
000040 3d 13 0b be b1 aa 4f 3d 81 1c a5 3d c8 33 bb bd
       -0.13581558 0.050699893 0.08062077 -0.09140736
000050 d1 a9 63 bc 93 b2 a2 bd 80 a6 de 3c ae 75 cd 3d
       -0.013895468 -0.079442166 0.027179003 0.10032211
000060 c2 82 a7 3d ae fc 85 3d 62 bd 79 bd 34 b9 4d 3c
       0.08179237 0.065423355 -0.060971625 0.012556363
000070 56 01 b6 bd 86 e4 a7 bd 89 5d 9d bd f0 74 21 be
       -0.088869736 -0.08197884 -0.07683856 -0.15767264
000080 d9 0a a6 bd 1c 63 3d be 0c 66 a3 3d 55 f2 00 3d
       -0.08107538 -0.18494838 0.07978448 0.031481106

encoder.encoder.1.backbone.1.1.weight f4 [36]
000000 ed 41 58 3f 50 20 6e 3f 05 64 72 3f 2f b1 53 3f
       0.84475595 0.93018055 0.9468387 0.82692236
000010 34 09 75 3f c5 01 5f 3f 84 4b 7b 3f 8f 4e 6d 3f
       0.9571717 0.87112075 0.981621 0.92697996
000020 44 41 4a 3f 52 df 69 3f 8e 17 5c 3f 6f df 67 3f
       0.7900584 0.91356385 0.8597344 0.9057531
000030 d6 7b 6a 3f ff 40 6e 3f 30 bf 63 3f 82 16 6e 3f
       0.9159521 0.93067926 0.88963604 0.93003094
000040 9d 9a 5b 3f 2a 30 72 3f c6 a1 71 3f 90 a4 76 3f
       0.85782796 0.9460474 0.9438747 0.9634485
000050 fe fa 66 3f 1f 29 66 3f 7c 0f 6c 3f c0 55 77 3f
       0.90226734 0.89906496 0.9221113 0.9661522
000060 b5 39 64 3f 5a 34 69 3f bc e5 71 3f 10 19 6a 3f
       0.89150554 0.9109551 0.9449117 0.9144449
000070 81 6f 59 3f cf 76 74 3f 59 68 7d 3f c7 69 6e 3f
       0.84935766 0.9549379 0.98987347 0.93130153
000080 82 33 6f 3f 2c a0 7f 3f 69 9d 70 3f 58 11 7d 3f
       0.9343797 0.9985378 0.9399019 0.9885459

encoder.encoder.1.backbone.1.1.bias f4 [36]
000000 35 2c 35 bb b0 91 7b bc 66 30 0a bd c8 1f 06 be
       -0.0027644758 -0.015354559 -0.033737563 -0.13098061
000010 e3 07 a9 bd d7 14 41 3c 3f 3e 48 bc f4 6b 95 3c
       -0.082534574 0.011784754 -0.012221872 0.018239953
000020 14 d3 55 bd af d6 d5 3c 1e a6 74 bd 51 58 5d bd
       -0.052203253 0.026103346 -0.059728734 -0.054039303
000030 5e 37 a3 3c a8 d9 09 3c 95 03 9c 3c 37 4b d0 bc
       0.019923862 0.00841371 0.019044677 -0.02542649
000040 d1 7d 93 bd 13 3e 5f 3c d3 07 c3 bb 26 c5 aa bc
       -0.07201732 0.0136256395 -0.0059518605 -0.02084596
000050 1b e9 f4 ba 4e 60 d3 ba 11 f4 9c bc 4c 35 b1 3c
       -0.0018685193 -0.0016126723 -0.019159349 0.02163186
000060 cb e3 ed bb 42 56 bf 3c 64 57 fb b7 ea 33 83 bd
       -0.007259821 0.02335656 -2.9962226e-05 -0.06406386
000070 85 7e 04 bd 79 f2 74 bb 76 d6 2a bc de ea e6 bd
       -0.03234722 -0.003737597 -0.010427108 -0.11275266
000080 65 d0 09 bc 58 18 f5 bd ec 9b 55 bc d1 ac 8f bd
       -0.0084115015 -0.11967534 -0.013037663 -0.07015384

encoder.encoder.1.backbone.1.1.running_mean f4 [36]
000000 99 fb 04 3d 89 12 9c bc bf 62 34 bd aa 7a e2 3d
       0.032466505 -0.019051807 -0.044039484 0.110585526
000010 e9 14 4e bd 1e fe b9 3c 39 9c 91 bd 83 5a 65 3d
       -0.05031291 0.02270418 -0.07109875 0.05599452
000020 d3 ee da b9 63 25 9e bc 12 b5 53 3d 3b c5 21 be
       -0.00041758138 -0.019304937 0.051686354 -0.15797894
000030 f0 80 dc 3d b3 64 d6 bd ad 13 fd 3d 56 6b fb 3c
       0.107667804 -0.104684256 0.123572685 0.03069083
000040 de a4 ae bd 54 6c dd bc 33 91 7d 3d b1 f3 23 be
       -0.0852754 -0.027029194 0.06190605 -0.1601093
000050 4b 52 39 bd fa 8a f1 bd c2 4f a4 bc c0 76 13 3e
       -0.045244496 -0.11794086 -0.020057563 0.14400768
000060 83 7c d1 3d 4d a2 e5 3a 4f 7e 1a be 3f f4 ab 3d
       0.10228827 0.0017519683 -0.15087245 0.083961956
000070 94 fd b2 bd b6 04 c5 bd 7b ec aa bd 60 7f 6d bd
       -0.087397724 -0.09620039 -0.08345886 -0.057982802
000080 c6 12 ec bd cf cd 78 bd 33 f0 47 bd 79 aa 0b 3e
       -0.11527018 -0.06074315 -0.048813056 0.13639249

encoder.encoder.1.backbone.1.1.running_var f4 [36]
000000 46 28 37 3e d8 b1 d9 3e 35 ad 83 3e fa b3 94 3e
       0.17886457 0.42518497 0.25718084 0.2904356
000010 ea d9 2d 3e d3 48 64 3e 4c 39 4e 3e 67 d3 90 3e
       0.16977659 0.22293405 0.20139045 0.28286287
000020 9f a7 3d 3e ef ea 43 3e 2b 56 47 3e fd a4 e5 3e
       0.18520974 0.19132589 0.19466464 0.4485244
000030 1b fb af 3e bd 40 b1 3e d7 cc 6a 3e a3 d3 ed 3e
       0.34371266 0.34619704 0.22929703 0.46450529
000040 6e 13 93 3e 2d e4 01 3e 7a 74 ad 3e 98 57 e6 3e
       0.2872576 0.12684698 0.33877927 0.44988704
000050 4c d3 98 3e 34 e0 8c 3e 4b 0d 98 3e a0 ea d8 3e
       0.29848707 0.27514803 0.29697642 0.42366505
000060 f8 96 21 3e 85 2a 6d 3e db 14 9a 3e a8 67 4a 3e
       0.15780246 0.23160751 0.30094036 0.19766104
000070 59 4e 8d 3e 99 ce f3 3e d7 13 af 3e 98 35 9f 3e
       0.27598837 0.4761856 0.34194824 0.31095576
000080 48 2c cb 3e dd d6 02 3f 76 57 92 3e 61 53 8f 3e
       0.3968222 0.51109105 0.28582352 0.279933

encoder.encoder.1.downsampling.weight f4 [36, 36, 7]
000000 42 40 62 bd 1c 7a 7b bd dc 6d 78 bb ae 96 19 bd
       -0.055237062 -0.06139575 -0.0037907278 -0.037497215
000010 52 d7 a6 bd 74 fe 4d 3d fe dd 51 bd 94 dc 95 3b
       -0.08146538 0.050291494 -0.0512371 0.004573414
000020 63 28 f9 bc e4 97 9c bc dd fd 4f bd 9c 58 9f bd
       -0.030414766 -0.019115396 -0.050779212 -0.07780573
000030 88 1f 80 3c 8c 78 58 3c de 25 ac bc a5 d0 dd bc
       0.015640035 0.013212334 -0.02101415 -0.027077029
000040 cf 60 32 3c db 03 15 3d ab c4 3e 3c 69 34 b7 3c
       0.010887339 0.03638063 0.011643569 0.022363858
000050 2c 89 d8 bc 37 7b 86 bd 19 87 ad bb 0a 69 57 bc
       -0.026432596 -0.0656647 -0.005295646 -0.013147602
000060 00 e1 b5 3d e6 b9 81 bd a7 99 29 3e b5 f4 bc bd
       0.08880806 -0.063342854 0.1656252 -0.09226362
000070 e2 4b 08 3d 83 ed 18 3d 0e 8c 53 3d a1 ad c4 bc
       0.033275492 0.037335884 0.05164724 -0.024008574
000080 89 8a 72 3d 64 6f 12 3d d9 2c ae bd 9f 15 07 bc
       0.05921415 0.03575076 -0.08504648 -0.008244901
000090 e1 42 e9 bc aa ee b4 bd 2c 7a 16 3d 03 91 23 3b
       -0.028474273 -0.08834584 0.036737606 0.002495826
0000a0 f6 f2 aa bb 56 f2 ab bc 05 71 19 3c 09 17 89 3d
       -0.0052169515 -0.020989578 0.009365325 0.06693847
0000b0 a1 e7 fb bc c7 ba 26 3b 14 82 4c 3c 65 92 3a 3d
       -0.030750098 0.0025440918 0.012482185 0.04554977
0000c0 68 d9 85 3a c2 50 bf bb 2c 38 04 bc 31 d3 c7 bc
       0.0010211887 -0.0058384845 -0.008070033 -0.024392696
0000d0 56 35 95 3c 70 27 2f bc 27 3f 38 3c 2d 7b 7f 3c
       0.01821391 -0.010690555 0.011245525 0.015593332
0000e0 87 fd a8 bc f8 0f 65 bd 7a ea e3 3d 49 9c 2a 3c
       -0.020628704 -0.055923432 0.11128707 0.010413238
0000f0 30 f0 10 bd 7a 44 40 bd 85 45 c9 bb 1c b5 b5 bb
       -0.03538531 -0.046940304 -0.0061423206 -0.0055452716
000100 a5 bf 30 3b 18 65 8c 3d 61 69 80 3c bf aa 33 bd
       0.0026969698 0.068552196 0.015675249 -0.043864008
000110 05 a0 56 3d 2a 08 75 bd 59 d9 2c bc 04 e8 9f 3d
       0.0523987 -0.05982224 -0.010549867 0.07807925
000120 d2 b1 90 3c 20 5f fa bc 41 7a 9b bd ea 27 5b bc
       0.017662916 -0.030562937 -0.075916775 -0.0133762155
000130 fc 33 95 3d a5 52 a2 bd e8 f3 5c 3c 1e 42 4c bd
       0.07285306 -0.079259194 0.013485886 -0.04986774
000140 06 0c 2a bd 78 18 fc bc 7f 48 34 3d c0 89 25 3d
       -0.041515373 -0.030773386 0.04401445 0.04041457
000150 7b 18 d3 bc 76 c5 55 3d bf 48 c4 3a 07 cf 6a 3d
       -0.02576851 0.052190267 0.0014975293 0.057326343
000160 4b 6a 58 3d 0d aa 2a 3c d1 be ae 3c fa 13 68 3c
       0.052835744 0.01041652 0.021331223 0.014164919
000170 7e 79 df 3c 2f 4a 00 3d fc 06 aa 3c 5c a0 3e 3d
       0.027279612 0.031320747 0.020755284 0.04653965
000180 f3 2b 27 bd 03 40 07 bd d6 65 01 3d 54 3e c6 bc
       -0.040813398 -0.03302003 0.03159126 -0.024199642
000190 15 51 78 bc 20 50 84 39 e0 78 31 bd bd e1 a5 3d
       -0.01515605 0.000252367 -0.043328166 0.08099697
0001a0 1b d0 03 bd 78 b0 96 3a 41 81 36 bd 08 59 82 bd
       -0.032180887 0.0011496684 -0.04455686 -0.063646376
0001b0 f0 9c 92 3d 9c df e3 bc 8d f8 0a 3d 95 d0 41 3d
       0.0715884 -0.027816586 0.033928443 0.04731806
0001c0 af 2b 1e 3d c0 98 8f bd 86 91 6f bd 85 39 0b 3e
       0.03861588 -0.070115566 -0.05848839 0.1359616
0001d0 74 27 46 3e 9e 61 da bd 0c 7f 68 bd 7c 36 c1 3c
       0.19350988 -0.1066315 -0.056761786 0.02358555
0001e0 e5 ae 25 3c 4b 49 07 bd 11 8b ef 3c 3c 2c 77 3c
       0.010112499 -0.033028882 0.029241117 0.01508623
0001f0 0b 78 52 3d e6 ac 7f bc 9e 81 1c bd 3b ea 62 bd
       0.051384013 -0.015605187 -0.03820955 -0.05539916
000200 3b f6 07 3d 10 b3 9b bc 2c d5 fe 3a 99 aa 98 3c
       0.033193808 -0.019006282 0.0019442192 0.018636035
000210 61 31 0a bd c8 f4 4b 3a 6f e2 08 bc f7 a6 18 3b
       -0.033738498 0.00077803107 -0.008354767 0.0023292878
000220 2b 65 47 bd 0e 47 8f bc 05 0f 52 bd 14 b2 ff bc
       -0.048680466 -0.017489936 -0.051283855 -0.031212844
000230 7b fc 80 bc 0b 9f 35 3d 9e 3a b9 bc 71 bc 0d bd
       -0.015745392 0.04434113 -0.022610959 -0.03460354
000240 30 71 9b bc 78 ea 80 bb 80 c7 f5 3c 68 7c 10 bc
       -0.01897487 -0.003934201 0.030002356 -0.008818723
000250 7f 4e 31 3c c5 43 1c 3d fd 29 c9 bc 3f 85 0a bc
       0.010821938 0.038150568 -0.024556154 -0.00845462
000260 05 9c 17 3d a8 34 80 bc 3e 61 01 bd ed 7d 90 3d
       0.037014026 -0.015650108 -0.031586878 0.070552684
000270 23 9e d4 bc c6 ad b5 bd cb 67 8e bd 49 78 40 3c
       -0.025954312 -0.08871035 -0.06953391 0.011747428
000280 19 f3 0b bd 81 38 48 bd 24 3e 14 bd cc 7d 02 bc
       -0.034167383 -0.04888201 -0.036192074 -0.007964563
000290 36 de 4e bd c4 53 ae bc 76 58 60 bd 39 55 fa bb
       -0.050504886 -0.021280177 -0.054771863 -0.007639554
0002a0 09 c0 ed 3c 71 fb 3d 3c bf af fd 3c 5a 47 40 3d
       0.029022234 0.011595593 0.030967591 0.046943046
0002b0 0f eb bd bb c8 44 8a 3c 77 81 dd bc df f5 47 bd
       -0.0057958434 0.0168785 -0.027039273 -0.048818465
0002c0 18 b3 96 3d d3 9d 22 b9 a6 00 37 bd 98 28 55 3d
       0.07358378 -0.00015508318 -0.044678353 0.052040666
0002d0 73 57 e8 bc 67 1b 63 3c 13 b0 12 bc 83 c1 b0 3c
       -0.028362012 0.013861514 -0.008953112 0.021576649
0002e0 d7 e3 d1 3c 0a f8 81 3b b4 62 fe bb b5 29 82 3c
       0.025621338 0.003966336 -0.007763231 0.015889028
0002f0 89 45 0c 3c 7b a6 8f bd 45 4e 6b 3d 85 6c ec 3c
       0.0085615 -0.070141755 0.05744769 0.02886034
000300 49 13 b5 3b 26 16 bc bc cb 82 09 bb 28 cb f4 3a
       0.0055259806 -0.02295978 -0.00209825 0.0018676268
000310 2e 23 62 3c d8 23 21 bc 75 31 7e 3d 1a e0 e5 3d
       0.013802333 -0.009835206 0.062058885 0.112243846
000320 58 61 b6 bd 95 4c c6 bd 7a 31 ab 3c 0b 42 89 3c
       -0.089052856 -0.096825756 0.020897616 0.016755125
000330 6b 80 60 bc f3 6a 49 bd ee c2 ad bd 61 a2 c1 3d
       -0.013702492 -0.04917426 -0.084844455 0.094547994
000340 d8 09 e1 3b af db 21 3d 45 06 3c 3d 1b 53 87 bc
       0.0068676285 0.039516147 0.045904417 -0.01651912
000350 5e 15 4c bd cb 4a d8 3b 28 da df 3c 5d 0b 61 3d
       -0.049825065 0.006600713 0.027325705 0.054942477
000360 28 69 8b bd 4f 3b 8d bc 7b cf 29 bd 3d 5f 01 bb
       -0.06807166 -0.017240195 -0.041457634 -0.0019740604
000370 0a a3 e7 bc de b5 04 bd 26 42 24 3e f5 36 10 3c
       -0.028275985 -0.032400005 0.16040859 0.008802165
000380 a2 79 de 3d d5 4b 81 3a 1e 6b 17 3c 12 a4 c4 3b
       0.10863043 0.0009864519 0.009241847 0.006001004
000390 74 5a b6 3c eb 4d 43 3d 7c 3b 05 3d 66 d0 4d bb
       0.022259928 0.04768173 0.03252743 -0.0031404733
0003a0 7f 72 8c 3d 2e 9e 00 3e fc d4 07 bd 4b f2 02 3d
       0.06857776 0.12560341 -0.033162102 0.03196935
0003b0 40 4b d9 bd f8 85 c7 bd 34 e4 87 bd d8 d6 0e bd
       -0.10610056 -0.097423494 -0.06635323 -0.03487286
0003c0 88 65 a8 ba 37 37 ac bc 92 a8 c3 bc b1 a4 94 bd
       -0.0012847641 -0.021022422 -0.023884092 -0.07257975
0003d0 6f f7 96 bd 59 88 74 3d 64 18 d9 bb 35 0e 96 3b
       -0.07371413 0.059700344 -0.006625222 0.0045793303
0003e0 93 d0 34 bd 79 08 fc bc c6 1e 06 3c 74 16 2b 3d
       -0.044144224 -0.030765759 0.008186048 0.04176946
0003f0 32 cf 1a bd 07 57 d8 3b 12 9a 3a 3d 98 cc 80 3d
       -0.037795253 0.0066021713 0.04555709 0.06289023

encoder.encoder.1.downsampling.bias f4 [36]
000000 b0 5b 7f 3d 45 91 58 bd 21 4b c1 3c 6b 28 84 3c
       0.0623433 -0.052872915 0.023595395 0.016132554
000010 37 52 22 bd 11 e0 0b bd 62 89 33 bc 20 0b 72 bd
       -0.039629187 -0.034149233 -0.010958048 -0.05909264
000020 81 31 ba bd 33 42 24 bc 37 b8 1f 3d d1 02 6c 3d
       -0.09091473 -0.010025549 0.03899404 0.057619873
000030 7b 56 c0 bc cd 7b 89 bd 91 f9 a7 bc 9b bc ad bd
       -0.023478737 -0.06713066 -0.020504745 -0.08483239
000040 90 a0 10 3d a5 0e ef bb 52 99 f1 3c c9 9a ff bb
       0.035309374 -0.007295447 0.029492054 -0.0078004343
000050 f0 11 0a 3a 62 b0 7d 3d 0b 26 39 3d 0d 49 b0 bd
       0.0005266955 0.06193579 0.045202296 -0.08607683
000060 f5 df d5 3c db 06 91 3d fe c6 7f bc 17 4a 96 3d
       0.026107768 0.07081386 -0.015611408 0.0733835
000070 77 e8 64 3c 44 9f b0 bb bd 24 cb bc c8 bd 80 3d
       0.01397144 -0.0053900797 -0.024797792 0.06286198
000080 df c1 72 bd 4d 29 dc 3c 14 26 22 bd 2e b6 be bc
       -0.05926692 0.026875162 -0.039587095 -0.02328023
