trained_models/F3CB:F27E:7494:1DD7.pt (torch, 231221 bytes, 48 tensors)

encoder.0.0.weight f4 [36, 36, 7]
0	0x3d337092	0.043808527
1	0xbc389614	-0.01126625
2	0x3d8d2b26	0.068929955
3	0x3d5adb52	0.053431816
4	0x3d592129	0.05301014
5	0x3d5b78ba	0.05358193
6	0x3c24df55	0.010063012
7	0x3d8dfd04	0.069330245
8	0xbb51cf81	-0.003201455
9	0x3d530f14	0.05152805
10	0x3c887487	0.016657127
11	0x3d3ddb9e	0.04635202
12	0x3d43165b	0.04762874
13	0x3d0af4f8	0.033925027
14	0x3c89c0f3	0.016815638
15	0xbcafb483	-0.02144838
16	0x3d1f754b	0.03893022
17	0x3d3de585	0.046361465
18	0x3da600e2	0.08105637
19	0x3c65e964	0.014032695
20	0x3cb4ba2c	0.02206143
21	0x3a21c95a	0.00061716663
22	0x3d5e3ee3	0.054259192
23	0x3d23b1b6	0.0399644
24	0xbbb2957b	-0.0054499484
25	0xbcc17435	-0.023614982
26	0xbb965c61	-0.004588649
27	0x3c384c2d	0.0112486305
28	0xbcce204a	-0.025161881
29	0x3d3a6e5f	0.045515414
30	0xbd715599	-0.058919523
31	0x3d2dfe5a	0.042478897
32	0xbd2c2761	-0.042029742
33	0x3d094ae7	0.033518698
34	0x3d16d49b	0.03682385
35	0xbd12b9fc	-0.0358219
36	0x3d6493b2	0.055804916
37	0x3c72d46a	0.014821151
38	0x3d1d76f3	0.038443517
39	0xbd2120a3	-0.039337765
40	0x3cc61eed	0.024184668
41	0x3c3fdd82	0.011710526
42	0xbca1cd27	-0.019751145
43	0x3d0acf85	0.033889312
44	0x3d1d5068	0.03840676
45	0xbc2a4f4c	-0.010394882
46	0x3c1e4d2a	0.009661952
47	0x3ab3c496	0.0013715203
48	0x3d8b723a	0.06808896
49	0x3d9009ae	0.07033096
50	0x3d50803a	0.050903536
51	0xbce6e12a	-0.028183538
52	0x3d20390f	0.039116915
53	0xbcfcae14	-0.030844726
54	0xbbe3c508	-0.006950978
55	0x3c54452c	0.012955945
56	0x3cfa805f	0.03057879
57	0xbcd4f37a	-0.025995005
58	0xbbe2ed83	-0.0069252863
59	0x3cca7062	0.024711791
60	0x3a8b2fec	0.001061914
61	0x3bcd83a1	0.006271795
62	0x3d8a5caa	0.067559555
63	0xbd491bdc	-0.049098834
64	0x3d823358	0.06357449
65	0x3d3dff8a	0.04638628
66	0x3ceb3c3a	0.028715242
67	0xbd00f01d	-0.03147899
68	0x3c9cf3b5	0.019159177
69	0x3d90c1da	0.07068224
70	0x3b3cadc5	0.0028790098
71	0x3c0df3d9	0.008664095
72	0x3d42297d	0.047402848
73	0x3c839aa8	0.016064957
74	0x3d3b39b2	0.04570932
75	0x3bed6643	0.0072448566
76	0xba96b61c	-0.0011498365
77	0xbcc6d770	-0.02427265
78	0x3d8600fd	0.06543157
79	0x3cb21577	0.02173875
80	0xbd0249f1	-0.031808797
81	0x3d3f662d	0.0467283
82	0x3b966ba6	0.0045904694
83	0xbc0ac7a5	-0.0084704505
84	0x3d850b09	0.064962454
85	0xbd2dbfde	-0.042419307
86	0xbce43854	-0.02785889
87	0xbce78999	-0.028263854
88	0x3d01958a	0.031636752
89	0x3d852f02	0.06503107
90	0xbbd10fb8	-0.0063800476
91	0x3d0a5553	0.033772778
92	0x3cbd0486	0.023073446
93	0x3af73300	0.0018859804
94	0x3cebc812	0.028781924
95	0x3d8bbc3f	0.068230145
96	0x3abf684d	0.0014603228
97	0x3be26cce	0.006909943
98	0x3d5bcbc4	0.053661123
99	0x3d094f19	0.0335227
100	0xbbc8e0a1	-0.0061302935
101	0x3d53b801	0.05168915
102	0x3bc0821d	0.0058748857
103	0xbd439898	-0.047752947
104	0x3c858f8e	0.016303804
105	0x3d36f2d3	0.04466517
106	0x3d887c21	0.06664301
107	0x3c25fba9	0.010130801
108	0xbb4276c8	-0.002967285
109	0xbd49f2cc	-0.049303815
110	0xbc0c65fc	-0.008569237
111	0xbd864144	-0.06555417
112	0x3d32e370	0.043673933
113	0xbb847b28	-0.0040430017
114	0xbc87252a	-0.016497213
115	0xbc966e57	-0.018363161
116	0x3cba76a5	0.022761652
117	0x3c2b202a	0.01044468
118	0xbce0bc71	-0.027433606
119	0x3d11ec27	0.035625603
120	0x3d77dac4	0.060511366
121	0xbd1a3c83	-0.037655365
122	0x3bc59586	0.0060297875
123	0x3d0b150c	0.03395562
124	0xbbfde246	-0.007747921
125	0xbd031a77	-0.03200766
126	0xbdac605b	-0.08416816
127	0x3cd62987	0.026142849
128	0xbd1aa46c	-0.03775446
129	0xbc7f7657	-0.015592179
130	0x3cf61698	0.03004007
131	0x3d4ee13b	0.050507765
132	0x3d9a45b3	0.07532825
133	0xbd75cf0f	-0.06001192
134	0xbd0f45e5	-0.034978766
135	0xbc816d73	-0.01579926
136	0xbcecc73a	-0.028903592
137	0xbccc2b4a	-0.024922986
138	0x3d620f85	0.05519058
139	0x3c60c908	0.013719805
140	0xbd8c99a5	-0.06865243
141	0x3c03e0ab	0.0080491705
142	0xbd144340	-0.036196947
143	0x3cf0808e	0.029358175
144	0xbba9a43e	-0.00517705
145	0x3d99bb0b	0.07506379
146	0x3d7512e2	0.05983246
147	0x3d0ceb24	0.034403935
148	0x3d3a9eb8	0.045561522
149	0xbd0a40f0	-0.033753335
150	0x3cca96ed	0.02473017
151	0xbca65f84	-0.020309217
152	0x3d2e0326	0.04248347
153	0x3d916fae	0.07101379
154	0x3bf881a8	0.0075838156
155	0x3d564823	0.05231489
156	0xbc1a4889	-0.009416708
157	0xbd2d2a24	-0.042276517
158	0x390813a0	0.00012977282
159	0x3d92876e	0.071547374
160	0xbc9f1846	-0.019420754
161	0x3d03985a	0.032127716
162	0xbc8df24f	-0.017327456
163	0xbcadf381	-0.021234276
164	0xbc521350	-0.012821987
165	0xbc1aa9e3	-0.009439918
166	0x3c919f05	0.017776022
167	0x3d936b9f	0.071982615
168	0xbd57d827	-0.052696373
169	0x3d2ae33d	0.041720618
170	0x3c927a37	0.017880542
171	0xbcd7e3a6	-0.026353668
172	0xbcee1ae3	-0.029065555
173	0x3d92a155	0.07159678
174	0x3d7a4897	0.061104383
175	0xbc1f3363	-0.009716841
176	0xbc5c7c2a	-0.013457337
177	0x3d5f89d7	0.054574814
178	0x3d545668	0.051840216
179	0x3b8cd25b	0.0042975373
180	0x3da56cda	0.080774024
181	0x3d0c5de3	0.034269225
182	0x3c85f8ad	0.01635393
183	0x3d45a41f	0.04825222
184	0x3d30fb2e	0.043208294
185	0xbd109d76	-0.035306416
186	0xbd4577b3	-0.048209857
187	0x3bfb546d	0.0076699764
188	0x3ceac846	0.028659951
189	0xbd0b989a	-0.03408108
190	0xbd371ea3	-0.04470695
191	0x3cc1f6d5	0.023677269
192	0x3c74ba78	0.014937036
193	0x3c079fb3	0.008277821
194	0x3d27df6a	0.04098455
195	0x3d1deac5	0.03855397
196	0x3d067de5	0.032834906
197	0x3caa1097	0.020759864
198	0x3d272cd3	0.040814232
199	0x3c8de726	0.017322134
200	0x3b881969	0.0041534198
201	0x3c926c9b	0.017874053
202	0x3d0fcc40	0.035106897
203	0x3c86182f	0.016368954
204	0xbbacb757	-0.0052708793
205	0x3bdd3121	0.0067502414
206	0x3d02144b	0.031757634
207	0x3d63dc0e	0.055629782
208	0x3d0ad9c5	0.033899087
209	0xbc09af2e	-0.0084035825
210	0x3d329d41	0.043607
211	0x3b89bb92	0.0042032683
212	0x3d66857b	0.05627964
213	0x3cb9ed51	0.02269617
214	0x3d909990	0.0706054
215	0x3db54809	0.0885163
216	0xbc1bbd23	-0.009505543
217	0xbc88c7a1	-0.016696753
218	0xbc8e1384	-0.01734329
219	0xbd1310c6	-0.03590467
220	0xbd1d8a13	-0.038461756
221	0xbb90dc79	-0.0044208136
222	0x3da60534	0.08106461
223	0xbca7dc6c	-0.020490848
224	0xbd943ad9	-0.07237787
225	0x3cc7a067	0.024368478
226	0xbc620b1c	-0.013796594
227	0xbc698ec9	-0.014255234
228	0x3be02dff	0.0068414207
229	0xbbf219be	-0.0073883226
230	0x3d1590f9	0.03651521
231	0xbd102194	-0.035188273
232	0xbd668cc2	-0.05628658
233	0xbb84274b	-0.0040330044
234	0x3d6e45e0	0.058172107
235	0x3c76c237	0.015060953
236	0x3da06edf	0.07833647
237	0x3d4b8aab	0.04969279
238	0xbd406a5d	-0.046976436
239	0x3d2badbb	0.04191373
240	0x3cd52fed	0.02602383
241	0xbce758bc	-0.028240554
242	0x3d7cb246	0.061693452
243	0x3d8c95ac	0.06864485
244	0x3d9fb79e	0.07798694
245	0x3b072a83	0.0020624704
246	0x3c6676c6	0.014066404
247	0xbd448068	-0.04797402
248	0xbc2ee0b3	-0.01067369
249	0x3d1b272a	0.037879147
250	0x3da2e92e	0.07954632
251	0x3cdf3f98	0.027252004
252	0x3c4d5423	0.012532267
253	0x3d2b44f0	0.04181379
254	0x3cf7d27e	0.030251738
255	0x3de6b7fa	0.112655595

encoder.0.0.bias f4 [36]
0	0x3cd5a82a	0.026081163
1	0x3ccdb892	0.025112424
2	0x3b08e4e7	0.002088839
3	0x3cea8f0d	0.028632665
4	0xbd598fee	-0.053115778
5	0x3c8ed74d	0.017436648
6	0x3d234ab9	0.039866183
7	0xbc8ce243	-0.017197734
8	0x3d7c286c	0.061561987
9	0x3c167dd3	0.009185272
10	0xbc92e889	-0.017933147
11	0xbd7d727a	-0.06187675
12	0x3c275e49	0.01021535
13	0xbd47534d	-0.048663426
14	0x3a2da6e0	0.00066242926
15	0xbd82f457	-0.063942604
16	0x3d76f6fa	0.06029413
17	0x3c07cbc9	0.008288332
18	0xbd8d6f41	-0.069059856
19	0xbd813763	-0.06309392
20	0x3d1d61af	0.038423236
21	0xbd3095be	-0.043111555
22	0xbd1d88e1	-0.038460616
23	0xbd89ffa6	-0.06738214
24	0x3d0a774d	0.03380518
25	0xbc73a48e	-0.014870776
26	0x3cc62b89	0.024190681
27	0x3d4297bd	0.04750799
28	0x3d2c000f	0.041992243
29	0xbd063d50	-0.032773316
30	0x3cc83e95	0.024443904
31	0xbc518240	-0.012787402
32	0xbc9a1b11	-0.018811734
33	0x3d62932f	0.055316146
34	0xbd28b552	-0.041188546
35	0x3d250ffd	0.04029845

encoder.0.1.weight f4 [36]
0	0x3f7ab6d2	0.9793521
1	0x3f30f2d9	0.69120556
2	0x3f7bcb95	0.98357517
3	0x3f6146e0	0.8799877
4	0x3f4ba4bb	0.79548234
5	0x3f842bb3	1.0325836
6	0x3f580e56	0.84396875
7	0x3f8547a3	1.0412487
8	0x3f3f8a0d	0.74820024
9	0x3f94d551	1.1627599
10	0x3f776d83	0.96651477
11	0x3f79f35f	0.9763698
12	0x3f86cd43	1.0531391
13	0x3f11a3b9	0.56890446
14	0x3f8f3bb9	1.1190101
15	0x3f6d3efb	0.92674226
16	0x3f81a2f6	1.0127857
17	0x3f3a0cc2	0.72675717
18	0x3f5e59d5	0.8685582
19	0x3f828979	1.0198203
20	0x3f75ed59	0.9606529
21	0x3f846013	1.034182
22	0x3f7830a1	0.969492
23	0x3f8b8c02	1.0902102
24	0x3f6e63c5	0.93120986
25	0x3f2cf802	0.6756593
26	0x3f4b1b0b	0.7933814
27	0x3f95f2a3	1.1714672
28	0x3f020fec	0.50805545
29	0x3f5a152a	0.85188544
30	0x3f586681	0.8453141
31	0x3f38a501	0.72126776
32	0x3f6ff158	0.93727636
33	0x3f77b73d	0.96763974
34	0x3f86bf12	1.052706
35	0x3f83e1b8	1.0303259

encoder.0.1.bias f4 [36]
0	0xbc635a03	-0.013876441
1	0xbc8f6223	-0.01750285
2	0xbcbf09fc	-0.02332019
3	0xbd1cad1c	-0.038251027
4	0xbcd7d402	-0.02634621
5	0xbbd7301d	-0.006567015
6	0xbc979b1f	-0.018506585
7	0xbce6b976	-0.028164607
8	0xbcda26c4	-0.026629813
9	0x3cf5062f	0.029910175
10	0xbc88e264	-0.016709514
11	0xbcb479b1	-0.022030683
12	0xbd250533	-0.04028816
13	0xbcffc388	-0.031221166
14	0xbd1b5c62	-0.0379299
15	0xbbb2fc94	-0.0054622386
16	0xbc96ad24	-0.018393107
17	0xbc8147c6	-0.015781295
18	0x3ba01bd5	0.0048861303
19	0xbdc8a561	-0.097971685
20	0xbcd08f5a	-0.02545898
21	0xbd9b196f	-0.075732104
22	0xbcfcaa69	-0.030842977
23	0xbd245813	-0.040123057
24	0xbbd04d2c	-0.006356856
25	0xbcc6be5b	-0.02426069
26	0xbc980114	-0.018555202
27	0xbc7fc946	-0.015611952
28	0xbcdbd55e	-0.02683514
29	0xbcd9dc8e	-0.026594426
30	0xbcbb084a	-0.022831101
31	0xbd341db5	-0.043973643
32	0xbc00c93b	-0.007860477
33	0xbce17ee8	-0.027526334
34	0xbd723ade	-0.05913817
35	0xbd0b2e8e	-0.033979945

encoder.0.1.running_mean f4 [36]
0	0xbf969740	-1.1764908
1	0x3f808be6	1.0042694
2	0x3fd4f39f	1.6636847
3	0x3fab508a	1.3383954
4	0x3f35934a	0.7092787
5	0x3eefb239	0.4681566
6	0x3facbd77	1.349532
7	0xbf602689	-0.875588
8	0xbf38fb2c	-0.7225826
9	0xbf487486	-0.783028
10	0xbfa3f6f7	-1.2809743
11	0x3f601f8e	0.8754815
12	0xbf47fd14	-0.7812054
13	0x3f0722af	0.527873
14	0xbf38e568	-0.72225046
15	0xbefc8e11	-0.49327138
16	0xbf410bb1	-0.75408465
17	0xbf617e8d	-0.88083726
18	0x3f240a1b	0.6407792
19	0xbf3955da	-0.72396624
20	0xbf9428fc	-1.1575007
21	0xbe7c751f	-0.24654053
22	0x3fab4e65	1.3383299
23	0xbf85c440	-1.0450516
24	0x3e0725a7	0.13197957
25	0x3f072d5e	0.528036
26	0xbe26048e	-0.16212675
27	0x3d0393dd	0.032123435
28	0x3f251c17	0.64495987
29	0x3f0e8414	0.55670285
30	0xbfb89e91	-1.4423391
31	0xbf1a29a1	-0.6021977
32	0xbf4f4036	-0.80957353
33	0x3f9a7ad6	1.2068737
34	0x3eca76e0	0.3954382
35	0xbf258191	-0.6465083

encoder.0.1.running_var f4 [36]
0	0x3b41e4f7	0.0029585937
1	0x3b7247b9	0.003696902
2	0x3b40174e	0.0029310766
3	0x3b09a917	0.0021005326
4	0x3aaf893c	0.001339234
5	0x3a8f578f	0.0010936129
6	0x3b3909ff	0.0028234718
7	0x3b4517c2	0.0030073975
8	0x3b3353c2	0.0027363156
9	0x3b0fab59	0.00219222
10	0x3b5b9a9c	0.0033508902
11	0x3ab64375	0.0013905602
12	0x3b164b8d	0.0022933215
13	0x3ad638fc	0.0016343887
14	0x3b316c83	0.0027072735
15	0x3aceb994	0.0015771859
16	0x3b34e359	0.002760133
17	0x3b41ebfe	0.0029590125
18	0x3b36304c	0.0027799783
19	0x3b235d76	0.0024927533
20	0x3b5d96de	0.0033811848
21	0x3b1968d7	0.0023408437
22	0x3b3d6116	0.002889698
23	0x3b696fb7	0.0035619566
24	0x3af451d1	0.0018640106
25	0x3b115d66	0.0022180914
26	0x3b07db9c	0.0020730263
27	0x3b1daceb	0.0024059366
28	0x3a9adcb1	0.0011815039
29	0x3a85523e	0.0010171605
30	0x3b60b1c7	0.003428565
31	0x3a69590c	0.00089015136
32	0x3aba1f8f	0.0014200079
33	0x3b3d561b	0.0028890434
34	0x3a873584	0.0010315632
35	0x3b26b79f	0.0025439037

encoder.1.0.weight f4 [36, 36, 7]
0	0xbcdac1d7	-0.026703758
1	0xbcc6ac29	-0.024252014
2	0x3ba875dd	0.0051410035
3	0x3ceff3b1	0.029291006
4	0x3bbb4300	0.005714774
5	0x3c454f74	0.012042869
6	0x3d67e7dc	0.056617603
7	0x3cff6502	0.031176094
8	0x3d52b0d2	0.05143816
9	0x3d097c40	0.03356576
10	0xbcdb5e63	-0.026778406
11	0x3cf7cb29	0.030248241
12	0xbcbba254	-0.022904553
13	0xbd688b62	-0.05677355
14	0x3d584968	0.05280438
15	0x3d38de2e	0.045133762
16	0x3c176750	0.00924094
17	0x3c87256a	0.016497333
18	0xbcb52b42	-0.022115353
19	0xbd57246c	-0.05252497
20	0x3a8a36e9	0.0010544929
21	0x3cf6f696	0.030146878
22	0x3b3bb3cd	0.0028641105
23	0x3b9f53ce	0.004862285
24	0xbc95a387	-0.018266452
25	0xbce3a9e2	-0.027790967
26	0xbd5ce659	-0.053930614
27	0xbd3d3d06	-0.046200775
28	0x3c7ef369	0.015560963
29	0x3b9622d2	0.0045817876
30	0x3cf927b3	0.030414438
31	0xbc9b9526	-0.018992018
32	0xbd2ca8e0	-0.04215324
33	0xbceed430	-0.029153913
34	0x3b857c05	0.004073622
35	0x3bc9c839	0.0061579016
36	0xba63327d	-0.0008666886
37	0x3bde98a8	0.0067931004
38	0x3a0983fa	0.00052458013
39	0x3cdfb5c5	0.027308354
40	0x3c007d82	0.007842423
41	0x3dd2dfbd	0.10296581
42	0x3d54d214	0.05195816
43	0x3cbef836	0.023311716
44	0x3ca6ffde	0.020385679
45	0xbd2b431e	-0.041812055
46	0x3beeb1c0	0.007284373
47	0xbca0eb47	-0.019643439
48	0x39a3d3df	0.0003124764
49	0x3d212fd7	0.039352264
50	0xbba1c469	-0.004936744
51	0xbd83ba21	-0.06431986
52	0x3c0a8d0a	0.008456478
53	0x3bcb5e4c	0.0062063094
54	0x3ce068ec	0.02739378
55	0xbcb149e8	-0.021641687
56	0x3cb765ca	0.022387404
57	0x3d0d7c5d	0.03454243
58	0xbcf3475f	-0.029697118
59	0xbd9155d4	-0.070964485
60	0xbd6502d2	-0.055910893
61	0x3de35e86	0.11102013
62	0xbc623011	-0.013805405
63	0xbd53f1fc	-0.051744446
64	0xbd52ce17	-0.051466074
65	0x3c4d76b0	0.012540504
66	0x3d0a4569	0.0337576
67	0x3ce727f4	0.028217293
68	0xbad9c6fb	-0.0016615087
69	0x3cb55e66	0.02213974
70	0xbd312e89	-0.04325727
71	0xbd788fec	-0.06068413
72	0x3ba602fa	0.005066273
73	0xbc14a013	-0.009071368
74	0xbd1eea2f	-0.038797554
75	0x3cb4b452	0.02205864
76	0x3d312c1a	0.04325495
77	0xbd8a3fdf	-0.06750464
78	0xbcd4e2bb	-0.02598702
79	0x3cecdf16	0.02891497
80	0xbb1e6af7	-0.0024172643
81	0xbcb0f1a8	-0.021599606
82	0x3c86643f	0.016405223
83	0xbb529b13	-0.0032135888
84	0xbc23cb6a	-0.009997228
85	0xbbb35fda	-0.005474073
86	0xbd23e776	-0.04001566
87	0x3c5c21bb	0.013435776
88	0xbca2002e	-0.019775476
89	0xbcb53a63	-0.022122568
90	0x3d948944	0.07252744
91	0xbcc99b2b	-0.024610123
92	0xbbb3ed6c	-0.0054909494
93	0x3d32cc3d	0.043651808
94	0x3d412e9e	0.0471636
95	0x3b91aa4e	0.0044453507
96	0xbd37723e	-0.044786684
97	0xbd48b11d	-0.048997033
98	0xbc47c7e1	-0.012193651
99	0x3c2d7095	0.010585924
100	0xbca19cc1	-0.019728066
101	0x3d1e048f	0.038578566
102	0xbcba7273	-0.022759652
103	0x3d67d7e7	0.056602385
104	0x3dac78de	0.08421491
105	0xbe1b3afa	-0.15159217
106	0x3d1d9b79	0.03847835
107	0x3e7c7873	0.24655323
108	0x3cec472f	0.028842537
109	0x3b590367	0.00331136
110	0x3e97cbf2	0.29647785
111	0xbe3c7311	-0.1840327
112	0x3b78ac36	0.0037944443
113	0xbc59869b	-0.013276721
114	0x3d207f61	0.039183978
115	0x3d426ef9	0.047469113
116	0xbc955364	-0.01822824
117	0x3d861fab	0.06549009
118	0xbced7918	-0.028988406
119	0xbd3e5447	-0.046467092
120	0xbd1ea23f	-0.03872895
121	0x3d85ccd2	0.06533207
122	0x3cd776b4	0.02630172
123	0xbd31a0e9	-0.043366347
124	0x3c407522	0.011746677
125	0xbc8d5d87	-0.017256511
126	0xbd23d184	-0.03999473
127	0xbb756f4a	-0.0037450367
128	0x3d58dfd2	0.052947827
129	0x3cab4a10	0.02090934
130	0xbd643896	-0.055718027
131	0xbcd6ac1f	-0.02620512
132	0x3ad842e6	0.001649943
133	0x3acc800c	0.0015602126
134	0x3d2d8e8f	0.042372283
135	0xbc5c717b	-0.01345479
136	0xbce328db	-0.027729442
137	0x3cc091a6	0.02350695
138	0xbd0b3723	-0.03398813
139	0x3c9fc915	0.019505063
140	0xbd24e2ec	-0.040255472
141	0xbd57cd8e	-0.052686267
142	0x3b0a949b	0.0021145705
143	0x3d3872ee	0.04503148
144	0x3b381a5f	0.002809189
145	0x3d18043d	0.037113417
146	0x3cdbd187	0.026833309
147	0x3c42fdaf	0.011901303
148	0x3db41e1c	0.087948054
149	0xbc2bcb86	-0.0104855355
150	0x3d3dff99	0.046386335
151	0x3c399dc2	0.011329116
152	0xbcdbb1e6	-0.026818227
153	0x3d500b0d	0.05079179
154	0xbade69e4	-0.0016968814
155	0xbcdca60b	-0.026934644
156	0x3c6d7051	0.01449211
157	0x3d0b746d	0.03404658
158	0x3b6d6135	0.003622127
159	0x3cac9203	0.021065718
160	0x3c5b63d7	0.013390503
161	0x3cc0e3ea	0.023546178
162	0xbd939848	-0.0720678
163	0xbbe3b425	-0.006948965
164	0x3d81bc7d	0.063347794
165	0x3d53c058	0.051697105
166	0x3c80b5e8	0.01571174
167	0xbc90d59e	-0.017679986
168	0xbc8b380c	-0.016994499
169	0xbd66869f	-0.05628073
170	0x3c9c0551	0.019045504
171	0xbc314fbf	-0.010822236
172	0xbd094db6	-0.033521377
173	0xbd019226	-0.03163352
174	0xbd152c97	-0.036419477
175	0x3cf1688f	0.029468803
176	0x3d9ad8a8	0.07560855
177	0x3da192bd	0.07889316
178	0x3d546223	0.051851403
179	0x3c1ed9f5	0.00969552
180	0xb8a20701	-7.7260665e-05
181	0xbd8aa358	-0.067694366
182	0x3c8bd13c	0.017067544
183	0x3d45b6eb	0.048270147
184	0xbd5702cf	-0.052492913
185	0xbd31b3fe	-0.043384545
186	0x3c0d56a9	0.008626618
187	0xbd67dbc3	-0.056606065
188	0x3c40c3a8	0.011765398
189	0x3c8d2360	0.017228782
190	0x3d115b47	0.03548744
191	0x3ce2c0ed	0.027679885
192	0xbbc730d9	-0.006078821
193	0xbd12d196	-0.035844408
194	0xbd590fb0	-0.052993476
195	0x3d436267	0.047701266
196	0x3cca9ecc	0.024733923
197	0xbd1edb0c	-0.038783118
198	0xbcc33b48	-0.023831978
199	0xbd1539ac	-0.036431953
200	0xbbef0340	-0.0072940886
201	0x3bcafd73	0.0061947643
202	0xbc276ad0	-0.010218337
203	0x3a0e069a	0.0005417854
204	0xbb66d450	-0.0035221763
205	0x3c5eb326	0.013592517
206	0x3ca80cfa	0.020514
207	0xbccca4bd	-0.024980897
208	0xbd434090	-0.047668993
209	0xbb68dec7	-0.0035533176
210	0xbd13e366	-0.036105536
211	0x3a31ab34	0.00067775254
212	0xbcf3b8cd	-0.029751206
213	0xbd3d7e09	-0.046262775
214	0xbcf340af	-0.02969393
215	0x3cd0f73d	0.025508517
216	0x3c8fd6dd	0.01755851
217	0xbca67703	-0.020320421
218	0xbc5258d2	-0.012838559
219	0x3c80a6e3	0.015704578
220	0x3c0ecb17	0.008715413
221	0x3cdfac42	0.027303819
222	0xbb5a534c	-0.003331381
223	0x3d19fd94	0.037595347
224	0xbb03ed39	-0.002013041
225	0xbd205ed9	-0.039152954
226	0xbd0b5992	-0.034020968
227	0xbc520640	-0.012818873
228	0xbca2cb3d	-0.019872302
229	0x3d93a29c	0.0720875
230	0x3dc108c4	0.094255
231	0x3c54e917	0.012995026
232	0x3d1879ae	0.037225418
233	0xbd47749f	-0.048695203
234	0x3ccd2284	0.025040872
235	0x3ba33dc5	0.0049817287
236	0x3ce47470	0.027887553
237	0xbc488e6e	-0.012240989
238	0x3d26818f	0.0406509
239	0x3d988f42	0.07449199
240	0xbd41d0d0	-0.04731828
241	0x3cd6c629	0.026217537
242	0x3b587a2c	0.0033031804
243	0x3c137ec7	0.009002394
244	0xbd3d5d9f	-0.046231862
245	0xbd22914a	-0.03968934
246	0xbd1a6844	-0.03769709
247	0xbc3b358d	-0.011426342
248	0xbc3a3c02	-0.011366846
249	0x3d0c7a39	0.034296248
250	0xbc2e5768	-0.010640956
251	0x3d0963e9	0.033542547
252	0x3caf90df	0.021431385
253	0xbcd92928	-0.026508883
254	0x3994f68f	0.0002841246
255	0x3ce283e0	0.027650774

encoder.1.0.bias f4 [36]
0	0xbc022d73	-0.007945406
1	0x3c75471c	0.014970567
2	0xbd043367	-0.032275584
3	0x3d3b5a37	0.045740332
4	0xbcdaf616	-0.026728671
5	0xbce4fba5	-0.027952025
6	0x3d458427	0.048221733
7	0x3d7f1eef	0.06228536
8	0x3c3d1ff9	0.011543267
9	0x3d7a9024	0.06117262
10	0x3d037066	0.032089613
11	0xbc67e29f	-0.014153152
12	0xbd55cb77	-0.052195992
13	0xbd921951	-0.07133735
14	0xbdbad65c	-0.09122917
15	0xbd3dda22	-0.046350606
16	0x3d2de635	0.04245587
17	0xbd2443ee	-0.040103845
18	0xbcd11fa5	-0.025527785
19	0xbcf4be43	-0.02987588
20	0x3cda08e8	0.026615575
21	0xbd118145	-0.03552367
22	0xbbc66137	-0.0060540694
23	0xba59353c	-0.00082858256
24	0xbd7537ed	-0.059867788
25	0x3cf16250	0.029465824
26	0xbd270364	-0.040774718
27	0xbd844754	-0.06458917
28	0xbcf7e592	-0.030260835
29	0xbca71ec5	-0.020400414
30	0xbd0abd5e	-0.033872
31	0xbd63e73a	-0.055640437
32	0xbc9a83fb	-0.018861761
33	0xbc925f43	-0.01786769
34	0x3cd951a6	0.02652819
35	0xbd1528fe	-0.036416046

encoder.1.1.weight f4 [36]
0	0x3f3aea88	0.73014116
1	0x3f5d5791	0.8646174
2	0x3f7b59a2	0.98183644
3	0x3f55cb41	0.83513266
4	0x3f6ece99	0.93283993
5	0x3f670581	0.90242773
6	0x3f7bee06	0.9841007
7	0x3f1b6334	0.60698247
8	0x3f31c340	0.6943855
9	0x3f42b259	0.76053387
10	0x3f51fa7c	0.82022834
11	0x3f669802	0.90075696
12	0x3f6cc7b2	0.9249221
13	0x3f3c0e14	0.7345898
14	0x3f68533b	0.90752
15	0x3f4b98c6	0.7952999
16	0x3f2f0230	0.6836271
17	0x3f7c2098	0.98487234
18	0x3f332d34	0.6999085
19	0x3f4dfe33	0.80466
20	0x3f26bb5b	0.6512963
21	0x3f7bbb6f	0.98332876
22	0x3f34e60a	0.7066351
23	0x3f2e96f6	0.681991
24	0x3f74cd99	0.9562622
25	0x3f7379e9	0.95107895
26	0x3f38fbb1	0.7225905
27	0x3f448282	0.7676164
28	0x3f2bacfa	0.67060816
29	0x3f8bf0fe	1.093292
30	0x3f755af9	0.9584194
31	0x3f748b37	0.95524925
32	0x3f53601c	0.82568526
33	0x3f3fe2db	0.7495553
34	0x3f3e31e1	0.7429486
35	0x3f72d599	0.94857174

encoder.1.1.bias f4 [36]
0	0xbd103259	-0.035204265
1	0xbc5c2c6b	-0.013438324
2	0xbd95cc03	-0.07314303
3	0xbce720ba	-0.028213847
4	0xbc540d08	-0.01294256
5	0xbd1ea8fc	-0.038735375
6	0xbd50fdb2	-0.051023193
7	0xbcc30194	-0.023804463
8	0xbceff43b	-0.029291263
9	0x3d1e17ff	0.038597103
10	0xbd12c1b8	-0.035829276
11	0xbd07f5de	-0.03319346
12	0x3c04c913	0.00810458
13	0xbcd72b92	-0.026265893
14	0xbd8b27f9	-0.067947336
15	0xbb24757c	-0.002509444
16	0xbcc5e662	-0.024157707
17	0xbd73d4c6	-0.05952909
18	0xbd1fb6c7	-0.03899267
19	0xbcf5e91d	-0.030018384
20	0xbd176e38	-0.036970347
21	0xbcaf6fb4	-0.021415569
22	0xbd055f16	-0.032561384
23	0xbbf6f701	-0.0075367694
24	0xbcbc742f	-0.02300462
25	0xbc794d29	-0.01521615
26	0xbc9675a1	-0.018366637
27	0xbcea911c	-0.028633647
28	0xbccc4a09	-0.024937646
29	0xbdc9a312	-0.09845556
30	0xbcf6c7f3	-0.03012464
31	0xbb814c32	-0.003945851
32	0xbcce3bc1	-0.025174977
33	0xbc5938f7	-0.01325821
34	0xbc14517e	-0.009052632
35	0xbae587b4	-0.0017511756

encoder.1.1.running_mean f4 [36]
0	0xbcb3c2af	-0.021943418
1	0xbd5dd082	-0.054153927
2	0xbcf9ca07	-0.030491842
3	0xb8014d34	-3.0827898e-05
4	0x3d4e5e7c	0.050383076
5	0x3b8f851f	0.004379883
6	0x3db5fce7	0.08886128
7	0x3e0842ff	0.13306807
8	0x3b83e364	0.00402491
9	0xbdb4c10a	-0.08825882
10	0x3d9fd523	0.078043245
11	0xbce443b5	-0.027864316
12	0xbe182f74	-0.14861852
13	0xbd8bbb65	-0.06822852
14	0xbd2d2afc	-0.04227732
15	0xbdb872f3	-0.090063
16	0x3d9fb3c0	0.077979565
17	0xbc3b3946	-0.011427229
18	0xbc72ea7e	-0.014826415
19	0xbc20a526	-0.009804999
20	0x3d809529	0.0627845
21	0x3b32147f	0.002717286
22	0x3c9aab63	0.018880552
23	0x3cb48e5f	0.022040544
24	0xbd12d9ad	-0.035852123
25	0xb9b73ced	-0.00034949873
26	0xbcc14cf7	-0.02359627
27	0x3d3779ef	0.04479402
28	0xbbbf1c55	-0.005832235
29	0x3d51b33a	0.051196314
30	0xbd45f8d4	-0.048333004
31	0xbe44b7d4	-0.1921075
32	0x3bf767fe	0.0075502386
33	0xbd74e5bb	-0.0597894
34	0xbd1142a4	-0.035463944
35	0xbc817946	-0.015804898

encoder.1.1.running_var f4 [36]
0	0x3f122a55	0.57095844
1	0x3f3d82cc	0.74027705
2	0x3f6b68c2	0.9195672
3	0x3f7acde0	0.9797039
4	0x3f8c9f22	1.0986063
5	0x3f8c872f	1.0978755
6	0x3f19659d	0.59920675
7	0x3f2ecaf1	0.68278414
8	0x3ef2e25b	0.4743832
9	0x3f23fad5	0.64054614
10	0x3f886589	1.0655986
11	0x3f2c9cb6	0.6742662
12	0x3f81d48b	1.0142988
13	0x3f8c9932	1.0984251
14	0x3f4208e7	0.75794834
15	0x3f149f5d	0.5805567
16	0x3f2f6c4a	0.6852461
17	0x3f093ce5	0.5360854
18	0x3f61c253	0.8818714
19	0x3f83dda4	1.0302014
20	0x3f725cc2	0.9467279
21	0x3f4171b1	0.75564104
22	0x3f4262e1	0.7593213
23	0x3f88ddd2	1.0692694
24	0x3f18c2bb	0.59672135
25	0x3f766e6f	0.9626226
26	0x3f339f66	0.701651
27	0x3ed4a65f	0.4153318
28	0x3f469183	0.77565783
29	0x3f3281a6	0.6972908
30	0x3f9aa814	1.2082543
31	0x3e9fdf99	0.3122528
32	0x3f4a15de	0.78939617
33	0x3f64d148	0.8938184
34	0x3f1cca03	0.61245745
35	0x3efeda4d	0.49775925

encoder.2.0.weight f4 [36, 36, 7]
0	0x3c74948e	0.014927996
1	0xbc532260	-0.012886614
2	0xbc91b9db	-0.017788818
3	0x3d552b54	0.052043274
4	0xbc543707	-0.012952573
5	0x3d22a129	0.039704476
6	0x3b9b76ed	0.0047444017
7	0xbc56675c	-0.013086166
8	0xbd76d2db	-0.06025968
9	0x3c453032	0.012035416
10	0x3d4f8dde	0.050672404
11	0x3b2ad7e3	0.002606862
12	0x3d5472e6	0.05186739
13	0xbd43b088	-0.047775775
14	0xbcaed078	-0.02133964
15	0x3d81b35c	0.06333038
16	0x3d39e417	0.04538354
17	0x3d865c6a	0.06560595
18	0x3d030059	0.031982753
19	0xbc8bc8f2	-0.017063592
20	0x3c92c107	0.017914308
21	0xbd225d66	-0.039639853
22	0xbd972a69	-0.07381136
23	0xbcc82337	-0.024430854
24	0xbd4a0ab1	-0.049326602
25	0xbd221bbd	-0.039577235
26	0xbd8eda4c	-0.069752306
27	0xbdd1f896	-0.10252492
28	0xbd2a165f	-0.04152524
29	0x3bfd6c26	0.0077338396
30	0xbcceb800	-0.025234222
31	0xbdb0e897	-0.08638113
32	0xbd31d1c5	-0.043412942
33	0xbd5217ef	-0.051292356
34	0x3d0e995d	0.034814227
35	0xbc8e4df8	-0.017371163
36	0xbd46c9d7	-0.048532333
37	0xbbd8f1c8	-0.0066206194
38	0xbb9abbaf	-0.0047220807
39	0x3c9800d6	0.018555086
40	0x3cae8701	0.02130461
41	0x3b04f0b6	0.0020285076
42	0x3caca0ed	0.02107283
43	0x3d67ad16	0.056561552
44	0x3d5e9d5b	0.054349285
45	0xbc4d507b	-0.012531395
46	0xbcc265d1	-0.02373019
47	0xbc10ba06	-0.008833414
48	0x3caf7bc8	0.021421328
49	0x3d135d09	0.035977397
50	0x3cc50255	0.024048964
51	0x3bed1e79	0.0072362986
52	0x3d888fc1	0.06668044
53	0xbcdcc6ca	-0.026950259
54	0x3d8483b0	0.0647043
55	0x3c68070b	0.014161835
56	0xbbfe88d9	-0.0077677784
57	0x3cce7654	0.025202908
58	0xbd513572	-0.05107636
59	0x3c2cf12a	0.010555545
60	0xbc5b64d1	-0.013390736
61	0x3cbed3c4	0.023294337
62	0xbd143151	-0.036179844
63	0xbd622eb5	-0.055220325
64	0xbdcce121	-0.100038774
65	0xbd2e4578	-0.04254672
66	0x3ba83d29	0.005134244
67	0x3cc72d73	0.024313664
68	0xbd6f70c2	-0.058457144
69	0xbcea1188	-0.028572813
70	0xbdee0bce	-0.11623345
71	0x3d0ea734	0.034827426
72	0x3bc6fb2b	0.006072422
73	0x3c1b2640	0.009469569
74	0x3d4e44d3	0.050358605
75	0x3bc0fce4	0.005889522
76	0xbd85f6ca	-0.06541212
77	0xbc784c27	-0.015154875
78	0x3d451ab2	0.04812116
79	0xbc94d7cf	-0.018169312
80	0xbc8160ea	-0.015793283
81	0x3d3a3e8f	0.045469817
82	0xbc07f9cd	-0.008299303
83	0x3d4e3339	0.05034182
84	0xbc7caa20	-0.01542142
85	0xbd3f912e	-0.046769314
86	0x3d7d8121	0.061890725
87	0x3c148c93	0.009066719
88	0x3d85d032	0.06533851
89	0x3cbfaff4	0.02339933
90	0x3cf7a37d	0.030229324
91	0x3d2dd4ae	0.042439155
92	0x3d2ed8d4	0.042687252
93	0x3b336b0a	0.0027377033
94	0xbd0f7f13	-0.035033297
95	0x3d50a32b	0.05093686
96	0xbdab85f9	-0.08375163
97	0x3d04ab58	0.03238997
98	0xbd593e83	-0.05303813
99	0x3cbcf8e7	0.023067905
100	0x3d16f8d2	0.036858387
101	0x3cec8aac	0.028874718
102	0xbc7aa5dd	-0.015298334
103	0x3dafea8e	0.0858966
104	0x3d841c22	0.064506784
105	0xb996adc3	-0.00028739692
106	0xbcdd0129	-0.026978092
107	0x3d3c4995	0.04596861
108	0xbd18a8a0	-0.03727019
109	0xbd2edb53	-0.042689633
110	0xbc24d6c6	-0.010060972
111	0xbce7871c	-0.028262667
112	0xbc6f9fa1	-0.014625461
113	0x3a8428b8	0.0010082936
114	0xbd086b40	-0.033305407
115	0x3d678d2f	0.056531128
116	0x3d568934	0.05237694
117	0xbd67d97b	-0.05660389
118	0x3ab60330	0.0013886448
119	0x3bf90aea	0.007600178
120	0x3d7d30ef	0.061814245
121	0x3cedfa14	0.02904991
122	0x3ca787ba	0.020450462
123	0xbc6732bf	-0.01411122
124	0x3d4490ae	0.04798954
125	0x3cdcb3b7	0.026941163
126	0x3d01f2e3	0.031725775
127	0xbc996bd8	-0.018728182
128	0x3d2e1c8a	0.042507686
129	0x3d0636c4	0.032767072
130	0xbce2ea0e	-0.027699497
131	0x3d693df8	0.056943864
132	0xbd01e244	-0.031709924
133	0x3cbb8afc	0.022893421
134	0xbd85244c	-0.06501064
135	0x3d25bd1d	0.040463556
136	0xbce898a1	-0.028393092
137	0xbcc3e124	-0.023911066
138	0x3b429a22	0.002969392
139	0x3d8b32e5	0.06796817
140	0x3d49f3d9	0.049304817
141	0xbd083b4c	-0.033259675
142	0xbcc39086	-0.023872625
143	0xbcde05f5	-0.02710245
144	0x3be33c25	0.00693466
145	0x3aa9e428	0.0012961673
146	0x3d589520	0.05287659
147	0x3d9b6b59	0.07588834
148	0x3d887b9a	0.066642
149	0x3d392776	0.04520365
150	0x3d0c8597	0.03430709
151	0xbcba3c77	-0.02273391
152	0xbd214186	-0.03936913
153	0x3d29f16d	0.041490007
154	0xbc2afc08	-0.0104360655
155	0xbc1f7c23	-0.009734186
156	0xbd2913a3	-0.041278493
157	0x3bed9378	0.0072502457
158	0xbca71c44	-0.02039922
159	0x3c80648b	0.015672943
160	0x3b169f92	0.0022983295
161	0xbd5dd5ba	-0.054158904
162	0xbd81851c	-0.06324217
163	0xbd232d18	-0.039837927
164	0xbd956c06	-0.072959945
165	0xbd5a9de9	-0.05337325
166	0xbd047eca	-0.032347478
167	0xbd8018e9	-0.06254751
168	0x3d840f32	0.06448211
169	0x3ce0f5b8	0.027460918
170	0xbd2810f3	-0.04103179
171	0x3d89d3e3	0.06729867
172	0x3d5356db	0.051596504
173	0xbd26df80	-0.04074049
174	0xbc646ef0	-0.013942465
175	0x3d79ba5a	0.060968734
176	0x3cd14ceb	0.025549373
177	0x3c9793b7	0.018503053
178	0xbc9502cf	-0.018189816
179	0xbc3db0c3	-0.011577788
180	0x3c87255b	0.016497305
181	0x3b264167	0.0025368573
182	0x3c7b9696	0.015355727
183	0xbb8597db	-0.0040769405
184	0x3cdb7e46	0.02679361
185	0xbc75386b	-0.014967064
186	0xbd3d1249	-0.046160016
187	0x3c5c8929	0.013460436
188	0x3c97bfe3	0.018524116
189	0x3d2791c5	0.0409105
190	0x3da8aca7	0.08236056
191	0x3c6d0ab3	0.014467883
192	0xbcd0dd2b	-0.025496086
193	0x3d487f79	0.048949692
194	0xbd0797f6	-0.033103906
195	0x3c9e3c79	0.019315945
196	0x3d6f9ad6	0.058497272
197	0xbbb58c0d	-0.005540377
198	0x3d7212a5	0.059099812
199	0xbd5f12c4	-0.054461256
200	0xbd90e726	-0.07075338
201	0xbc5d0929	-0.0134909535
202	0x3b9547e3	0.0045556887
203	0x3c92321c	0.01784616
204	0x3c75ae03	0.014995101
205	0x3d77d637	0.060507026
206	0x3d1420d9	0.03616414
207	0xbc7adfc4	-0.015312139
208	0x3d7150dc	0.058915004
209	0x3d42de3c	0.04757522
210	0xbcd5ff1f	-0.026122628
211	0x3d1703f9	0.036869023
212	0xbca15f5e	-0.019698795
213	0xbd272d23	-0.04081453
214	0xbd14f2ae	-0.03636425
215	0xbc6a002f	-0.01428227
216	0x3cad95a8	0.021189526
217	0xbd789f6c	-0.06069891
218	0xbd156f79	-0.03648326
219	0x3c48d2bd	0.012257275
220	0x3c6fdb45	0.01463968
221	0x3c9b9860	0.018993556
222	0xbd33ba24	-0.04387869
223	0xbdb25244	-0.08707097
224	0x3c53bb91	0.012923137
225	0x3d3b5299	0.04573307
226	0x3d5eb05d	0.054367412
227	0x3d52a92b	0.051430862
228	0x3c9dc386	0.019258272
229	0xba05bac2	-0.00051013764
230	0x3d88b40f	0.066749685
231	0x3ad02731	0.001588082
232	0x3c63c69a	0.013902331
233	0x3d9f6a22	0.07783915
234	0x3d8f868e	0.07008086
235	0x3a45d850	0.00075471867
236	0x3ae929d0	0.001778895
237	0xbd152a23	-0.036417138
238	0xba6ce99a	-0.0009037495
239	0xbd8c99cf	-0.06865274
240	0x3d80c9d2	0.06288494
241	0xbcc975c9	-0.024592297
242	0x3c005284	0.007832173
243	0xbd1fd317	-0.03901967
244	0x3d022c0c	0.031780288
245	0x3ba2be3b	0.004966525
246	0x3d16446d	0.03668635
247	0xbd02e9c2	-0.03196121
248	0xbba7c388	-0.0051197447
249	0xbcb899e5	-0.02253432
250	0xbcffd9cc	-0.031231783
251	0x3c1e1c9a	0.009650374
252	0xbdff76a2	-0.12473799
253	0x3aab2302	0.0013056698
254	0xbd13d789	-0.036094222
255	0x3d24aacf	0.04020196

encoder.2.0.bias f4 [36]
0	0xbd89e338	-0.06732792
1	0x3d0f1b79	0.03493831
2	0x3da3146a	0.07962878
3	0xbb226e94	-0.0024785148
4	0x3d939b1c	0.07207319
5	0xbcb5a180	-0.022171736
6	0x3cefa175	0.029251793
7	0x3d622fea	0.055221476
8	0xbd1a19ef	-0.03762239
9	0x3d47ddda	0.04879556
10	0x3c3b1ef2	0.011420952
11	0x3d5cf794	0.053947046
12	0x3c5d581f	0.013509779
13	0x3cc7293d	0.024311656
14	0xbda16639	-0.078808255
15	0xbd8a5cb8	-0.06755966
16	0xbc8ba38b	-0.017045757
17	0x3db2024a	0.08691843
18	0xbd9c1066	-0.07620315
19	0xbd1e4234	-0.038637355
20	0x3d2b0e6f	0.04176181
21	0xbcb29425	-0.021799156
22	0x3c600b13	0.013674515
23	0xba037c79	-0.0005015801
24	0x3d0b6596	0.034032427
25	0x3d5e6422	0.054294713
26	0x39063470	0.0001279877
27	0x3c6d988d	0.014501703
28	0x3cf82c5b	0.030294588
29	0xbc24c072	-0.010055648
30	0x3cb7d8a3	0.022442168
31	0x3d3eca7b	0.04657982
32	0x3d03ea6d	0.032205988
33	0xbcb5b845	-0.022182593
34	0x3c99d39a	0.018777657
35	0x3c4399e3	0.011938545

encoder.2.1.weight f4 [36]
0	0x3f4d8f1f	0.8029651
1	0x3f26f27c	0.6521375
2	0x3f352de9	0.7077318
3	0x3f201b25	0.6254142
4	0x3f19b978	0.6004863
5	0x3f698b86	0.9122852
6	0x3f589b57	0.8461203
7	0x3f41bbb1	0.7567702
8	0x3f1415f5	0.57846004
9	0x3f6bfd21	0.9218312
10	0x3f2a68c0	0.66566086
11	0x3f530b00	0.8243866
12	0x3f70a896	0.9400724
13	0x3f1f62e9	0.622603
14	0x3f57f315	0.8435529
15	0x3f6ae881	0.9176102
16	0x3f4e6f88	0.80638933
17	0x3f1d648f	0.61481565
18	0x3f22e23b	0.6362645
19	0x3f65f1ec	0.8982227
20	0x3f73ff75	0.9531167
21	0x3f2a7237	0.6658053
22	0x3f3ea7dd	0.7447489
23	0x3f41b9c6	0.7567409
24	0x3f148c99	0.58027035
25	0x3f611e96	0.87937295
26	0x3f563e0e	0.8368844
27	0x3f147220	0.5798664
28	0x3f14f219	0.5818191
29	0x3f2026de	0.62559307
30	0x3f5ef9f9	0.8710018
31	0x3f1802b1	0.59379107
32	0x3f448001	0.7675782
33	0x3f4af740	0.79283524
34	0x3f479da9	0.77974945
35	0x3f419d2f	0.7563047

encoder.2.1.bias f4 [36]
0	0xbdaedc26	-0.08538084
1	0xbd297dca	-0.041379727
2	0x3a3c2bba	0.00071781466
3	0xbcd0f1db	-0.02550595
4	0x3b3e772e	0.0029062736
5	0xbd6b353f	-0.057423826
6	0xbc45d5e7	-0.012074924
7	0xbc5406eb	-0.0129411025
8	0xbd3d1ee0	-0.046172023
9	0xbd46f6c6	-0.048575185
10	0xbd024125	-0.031800408
11	0xbcb675e0	-0.022273004
12	0xbd135719	-0.035971735
13	0xbd7ee42c	-0.06222932
14	0xbd4d2c59	-0.05009112
15	0xbcdcde58	-0.02696149
16	0xbd3c085a	-0.045906402
17	0xba90a035	-0.0011034074
18	0xbd3fae75	-0.046797235
19	0x3b89f206	0.0042097596
20	0xbc05102b	-0.0081215305
21	0xbd22af53	-0.039717983
22	0xbd1adca0	-0.03780806
23	0x3c98f62e	0.018672075
24	0xbc86c64c	-0.016451977
25	0xbbfb5c04	-0.007670881
26	0xbd28ca98	-0.041208833
27	0xbb6e16c3	-0.0036329485
28	0xbb8d8f4c	-0.004320061
29	0x3a09fadf	0.0005263518
30	0xbce44600	-0.02786541
31	0xbcbabaeb	-0.022794208
32	0xbc69b257	-0.014263711
33	0xbcd7f5b8	-0.026362285
34	0xbc904297	-0.017609878
35	0xbb0a6c60	-0.0021121725

encoder.2.1.running_mean f4 [36]
0	0x3bbe99c8	0.005816672
1	0xbd8e2e28	-0.06942397
2	0x3de8639c	0.11347124
3	0xbd2838a3	-0.041069638
4	0x3de63895	0.11241261
5	0x3db699f7	0.08916085
6	0x3da29464	0.079384595
7	0x3dcc8543	0.09986355
8	0xbd083bec	-0.03326027
9	0x3de27594	0.110575825
10	0x3da9d3a0	0.082923174
11	0x3d4de5d4	0.05026801
12	0x3dca35b1	0.09873522
13	0x3d7c19a8	0.061547905
14	0xbdbe4e11	-0.09292234
15	0xbd651cdd	-0.05593573
16	0xba7a90e0	-0.0009558331
17	0x3d5e898d	0.054330397
18	0x3d79f4c8	0.061024457
19	0xbdb902ea	-0.09033759
20	0x3db6f2cf	0.08933031
21	0x3cd1bbd4	0.025602259
22	0x3d2d2d78	0.04227969
23	0xbbd9dcca	-0.0066486346
24	0x3e0752ed	0.13215227
25	0x3d44f825	0.04808821
26	0xbd49a4ad	-0.049229313
27	0x3d2b3122	0.041794904
28	0x3dd951b0	0.10611284
29	0xbe078ade	-0.13236567
30	0x3d318505	0.043339748
31	0x3d15aeeb	0.036543768
32	0xbd4bf4a2	-0.049793847
33	0xbbb15d40	-0.0054127276
34	0xba127ae5	-0.0005587771
35	0x3d2950f7	0.04133698

encoder.2.1.running_var f4 [36]
0	0x3fa92161	1.3213311
1	0x3f808361	1.0040094
2	0x3f4daf67	0.8034577
3	0x3f611640	0.87924576
4	0x3f8d249e	1.10268
5	0x3f7ac2cc	0.97953486
6	0x3f770b76	0.96501863
7	0x3fe5ef84	1.7963719
8	0x3f517a28	0.8182702
9	0x3ee708da	0.4512394
10	0x3f742a11	0.9537669
11	0x3f4babd4	0.79559064
12	0x3f9278a0	1.1443062
13	0x3f2783ee	0.65435684
14	0x3f0c5b06	0.5482639
15	0x3fc469e1	1.5344812
16	0x3f0e4b5c	0.5558374
17	0x3f586bf7	0.8453974
18	0x3f64d02b	0.8938014
19	0x3f7f2620	0.9966755
20	0x3f763a18	0.96182394
21	0x3f23fab7	0.64054435
22	0x3f79f12a	0.9763361
23	0x3f904094	1.1269708
24	0x3f7a0e16	0.97677743
25	0x3f8adcd7	1.0848645
26	0x3f382592	0.7193233
27	0x3f660ee9	0.898665
28	0x3f0d3495	0.5515836
29	0x3fbb2812	1.4621603
30	0x3f51b271	0.81912905
31	0x3f710516	0.94148386
32	0x3f871cc4	1.0555654
33	0x3f9601d0	1.1719303
34	0x3f6e4c07	0.9308476
35	0x3f53f9ff	0.8280334

encoder.3.0.weight f4 [36, 36, 7]
0	0xbdbe1786	-0.092818305
1	0xbd9edf85	-0.07757477
2	0xbdb05e70	-0.086117625
3	0xbcaf5885	-0.021404514
4	0xbcaf71de	-0.0214166
5	0xbbb01ada	-0.0053742947
6	0xbdbaee0d	-0.09127436
7	0xbce43818	-0.027858779
8	0x3b4a67e1	0.003088467
9	0x3c335d0a	0.010947475
10	0xbd145843	-0.036216985
11	0xbdbcb849	-0.09214837
12	0xbb77d13c	-0.0037813922
13	0x3da065a7	0.07831889
14	0xbc4a8e51	-0.012363032
15	0x3b6f1055	0.003647824
16	0x3d46776d	0.048453737
17	0xbe1857a9	-0.1487719
18	0x3db7787f	0.0895853
19	0x3c822fee	0.015891995
20	0xba36b9bc	-0.00069704256
21	0xbbb5fc30	-0.0055537447
22	0x3d3514d5	0.04420932
23	0xbd924a01	-0.071430214
24	0xba705c05	-0.00091689854
25	0x3e05dfa4	0.13073593
26	0xbdbfb653	-0.093609475
27	0x3ca497c1	0.020091893
28	0x3d60e0db	0.05490194
29	0xbc26deb8	-0.010184936
30	0xbcc52172	-0.0240638
31	0xbd578762	-0.052619345
32	0xbc46526c	-0.012104612
33	0x3c98d493	0.01865605
34	0xbcab5aa6	-0.020917248
35	0xbc8cdfed	-0.01719662
36	0x3d8984f6	0.067148134
37	0x3c446318	0.011986516
38	0x3d8a1dbc	0.06743953
39	0x3d012e8e	0.03153854
40	0x3b555d01	0.0032556655
41	0x3c891c93	0.016737258
42	0x3d28a884	0.041176334
43	0xbcdb5963	-0.026776021
44	0xbd833144	-0.06405881
45	0xbda9134d	-0.082556345
46	0x3e1da337	0.15394293
47	0x399f8fe5	0.00030434053
48	0xbcb9a931	-0.022663685
49	0xbc3d13bc	-0.01154035
50	0x3d99a70f	0.07502567
51	0x3ccba528	0.024859026
52	0xbd207b3a	-0.039180018
53	0xbccd856a	-0.02508803
54	0xbdcd1ba7	-0.1001504
55	0x3a98bfde	0.001165386
56	0x3c2d4884	0.010576371
57	0x3d967598	0.07346648
58	0x3d944555	0.072397865
59	0xbc42b2c0	-0.011883438
60	0x3d6b387f	0.057426926
61	0xbdcf9b07	-0.10136991
62	0xbd2999d9	-0.041406486
63	0xbae2ae18	-0.0017294316
64	0x3b94c6cd	0.0045403005
65	0xbd208b7a	-0.039195515
66	0xbb65a763	-0.0035042397
67	0x3b8a0d7a	0.0042130323
68	0x3c1017cc	0.008794736
69	0xbc4ef055	-0.012630542
70	0x3c32f1cd	0.010921908
71	0x3d7b3a66	0.06133499
72	0x3ce910bf	0.028450368
73	0x3cb03565	0.021509835
74	0xbd99185a	-0.07475348
75	0x3d9e3dcd	0.07726631
76	0x3d041b78	0.03225276
77	0xbc3648eb	-0.011125783
78	0xbc125061	-0.008930297
79	0x3bbcbb45	0.005759629
80	0x3d2091dd	0.039201606
81	0xbd818f89	-0.06326205
82	0xbb285c57	-0.0025689804
83	0xbbd15d67	-0.0063893083
84	0x3b4e5f74	0.003149
85	0xbd06f062	-0.03294409
86	0xbcf61096	-0.030037206
87	0xbd332c09	-0.043743167
88	0x3c2c1d8b	0.0105050905
89	0xbd0d3ec4	-0.034483686
90	0xbca6af1f	-0.020347176
91	0xbc858794	-0.0163
92	0x3d31bd5e	0.043393485
93	0x3d817c56	0.06322543
94	0xbd411f2f	-0.04714888
95	0xbe219faf	-0.1578357
96	0xbb895b9a	-0.004191828
97	0x3ce0f2a4	0.02745945
98	0x3cd587f8	0.026065812
99	0xbc928f13	-0.017890489
100	0xbcd98f55	-0.026557604
101	0x3d7543e5	0.059879202
102	0x3cfab45d	0.030603582
103	0x3d3fa9f3	0.046792936
104	0xbd491554	-0.049092606
105	0x3bc9bac9	0.0061562997
106	0x3c191e70	0.009345636
107	0x3d182d95	0.037152845
108	0x3d621300	0.0551939
109	0x3c8b3566	0.016993236
110	0x3c908bae	0.01764473
111	0xbd3f696e	-0.046731405
112	0x3c15f959	0.009153687
113	0x3c6ae4b7	0.014336756
114	0xbc88651b	-0.016649773
115	0xbbd8d5da	-0.00661729
116	0xbbc389df	-0.0059673632
117	0x3d8b5e37	0.068050794
118	0x3c5ca4cf	0.013467028
119	0x3ae9f3c8	0.0017849142
120	0x3d43984a	0.047752656
121	0x3c8afc8e	0.01696613
122	0xbd12eb30	-0.035868824
123	0x3ce79b26	0.028272223
124	0xbd67a78d	-0.056556273
125	0xbd18a13e	-0.037263148
126	0xbda1869d	-0.078870036
127	0xbca18c3d	-0.019720191
128	0xbd86d1ce	-0.06582986
129	0x3c4fab5a	0.012675131
130	0x3d382a3d	0.044962157
131	0xbd075b93	-0.033046316
132	0xbd09590e	-0.033532195
133	0xbd3f86e4	-0.0467595
134	0xbda9c7af	-0.0829004
135	0xbcaefb7b	-0.02136015
136	0x3d473274	0.0486321
137	0x3d208e5b	0.03919826
138	0xbb46f861	-0.0030360448
139	0xbcb6df8f	-0.022323398
140	0xbcc29355	-0.023751894
141	0x3d507941	0.050896887
142	0xbc1318d3	-0.0089780865
143	0x3c789383	0.015171888
144	0xbcd8d4e8	-0.02646871
145	0x3c4f7c15	0.012663861
146	0xbc09cee4	-0.008411143
147	0xbaaa17dc	-0.0012977081
148	0xbc387e00	-0.0112605095
149	0xbc5d0986	-0.01349104
150	0xbdeeefe3	-0.116668485
151	0xbd9508cd	-0.07277069
152	0x3ccedf7d	0.025253052
153	0x39b86f71	0.00035178245
154	0xbd06564e	-0.03279715
155	0xbbb97ef5	-0.0056608864
156	0x3d925f41	0.071470745
157	0x3d8deeb5	0.069302954
158	0xbd4603cf	-0.048343476
159	0xbc108734	-0.008821297
160	0xbcfc0e5a	-0.030768562
161	0x3cd41b61	0.025891962
162	0x3d7025bc	0.058629736
163	0xbbfd23d8	-0.00772522
164	0x3caa9ea6	0.020827603
165	0x3be3d670	0.006953053
166	0x3c7f7b38	0.0155933425
167	0x3d4cca6d	0.049997736
168	0xbd5f6e7f	-0.054548737
169	0xbb4dd842	-0.0031409417
170	0xbd28e27e	-0.041231625
171	0x3de7e436	0.11322825
172	0x3d80f512	0.062967435
173	0x3b757e3d	0.0037459277
174	0x3cbd40a2	0.023102108
175	0xbc91eabf	-0.017812131
176	0xbd5c2536	-0.053746425
177	0x3c518f80	0.012790561
178	0x3cf2f0c7	0.029655827
179	0xbd458e30	-0.048231304
180	0xbd1b365c	-0.037893638
181	0xbc33c4e7	-0.010972238
182	0x3cea3720	0.028590739
183	0x3dad2771	0.084547885
184	0x3c8bb1e0	0.01705259
185	0xbbf8926b	-0.0075858138
186	0x3cad4a38	0.021153554
187	0x3b8841fc	0.0041582566
188	0xbc779da9	-0.015113273
189	0xbce2d42e	-0.027689066
190	0xbd577ae1	-0.05260742
191	0x3d23de0c	0.040006682
192	0x3d51c99f	0.05121767
193	0xbb0b7a0f	-0.002128247
194	0x3c4c9c2e	0.012488408
195	0x3c5203c7	0.012818283
196	0x3c9c6d1b	0.019094994
197	0x3d51a03b	0.0511782
198	0xbd7aeba8	-0.061259896
199	0x3c1d8fda	0.009616816
200	0x3baa3de9	0.0051953685
201	0xbd4a7f4e	-0.049437813
202	0x3d45ef5f	0.048323985
203	0xbc2de871	-0.0106145
204	0x3b89aa03	0.004201175
205	0xbdd9447b	-0.10608765
206	0x3bdedfdc	0.0068015885
207	0x3d147035	0.03623982
208	0xbd7ac3f8	-0.061222047
209	0xbda67ae8	-0.08128911
210	0xbd2d068e	-0.04224258
211	0xbd148e91	-0.036268774
212	0x3c93873c	0.01800882
213	0x3ca9739c	0.02068501
214	0xbd25f979	-0.04052112
215	0xbd0e335c	-0.03471695
216	0x3cc1a4f9	0.023638235
217	0xbbe97efd	-0.007125734
218	0xbd2e9327	-0.042620804
219	0x3dcab70a	0.09898193
220	0x3bea4323	0.0071491166
221	0xbdddb16d	-0.10824857
222	0x3d7ac999	0.061227415
223	0xbc8c3b79	-0.017118203
224	0x3ca9492b	0.020664772
225	0x3d1556dc	0.03645979
226	0x3c9e003d	0.019287223
227	0x3cf87dbf	0.030333398
228	0x3d1d5b4b	0.038417142
229	0xbcf972ba	-0.030450214
230	0x3ca8e51f	0.020617066
231	0xbcabc819	-0.020969437
232	0xbcf86c18	-0.03032498
233	0x3d6a0524	0.05713381
234	0xbc0adb21	-0.008475096
235	0x3dee5123	0.11636569
236	0x3d374ff3	0.04475398
237	0xbbe650c2	-0.00702867
238	0x3b4d0961	0.0031286108
239	0x3b666b7d	0.0035159283
240	0xbcb1143c	-0.021616094
241	0xbd3a039f	-0.04541361
242	0x3d537793	0.051627707
243	0xbd0dca53	-0.03461678
244	0x3cdbb5c6	0.026820075
245	0xbcc6f541	-0.024286868
246	0xbd1aa4b5	-0.037754733
247	0x3c962dd6	0.018332403
248	0x3c63243f	0.013863622
249	0x3daa0589	0.08301837
250	0x3abaac39	0.0014242
251	0xbcb9857f	-0.022646664
252	0x3d8585b5	0.06519643
253	0xbc90cf7a	-0.017677058
254	0xbd4dfb52	-0.050288506
255	0xbceab17e	-0.028649088

encoder.3.0.bias f4 [36]
0	0x3da4626c	0.08026585
1	0xbd08258f	-0.033238944
2	0xbbc28a83	-0.005936922
3	0xbd39512c	-0.045243427
4	0x3cdd5b48	0.027021065
5	0x3b2071e0	0.0024481937
6	0xbd1ba592	-0.037999697
7	0xbce3d9a7	-0.027813746
8	0x3d834d06	0.064111754
9	0x3d63cee1	0.055617217
10	0xbd4a45dc	-0.04938303
11	0x3d6b6834	0.057472423
12	0xbc3ba192	-0.011452096
13	0x3c63fc7a	0.013915176
14	0xbce67c4c	-0.028135441
15	0xbd30814b	-0.043092053
16	0xbdbe9b84	-0.09307006
17	0xbc3883a9	-0.011261859
18	0xbc6fbb7d	-0.014632103
19	0xbd2a4fc8	-0.04157999
20	0x3d718d0f	0.058972415
21	0x3d1f9966	0.03896465
22	0x3bdf943e	0.006823092
23	0xbcf8b0f6	-0.030357819
24	0x3d1290b0	0.035782516
25	0xbb8d0ac7	-0.0043042633
26	0xbcdaf533	-0.026728248
27	0xbbdf8c1b	-0.006822122
28	0x3cfc6932	0.03081188
29	0xbd0c0221	-0.034181718
30	0xbc91f628	-0.017817572
31	0xbd898de8	-0.067165196
32	0xbd19b730	-0.037528217
33	0xbc132c6d	-0.00898276
34	0x3ca64ec2	0.020301227
35	0xbd2865b3	-0.041112613

encoder.3.1.weight f4 [36]
0	0x3f380167	0.7187714
1	0x3f00704b	0.50171345
2	0x3f3067b6	0.6890825
3	0x3f6ae5c4	0.91756845
4	0x3f2e65d7	0.68124145
5	0x3f6b471b	0.91905373
6	0x3f7d369e	0.98911464
7	0x3f191776	0.59801424
8	0x3eca3965	0.39496914
9	0x3f053e90	0.5204859
10	0x3f456e4a	0.7712141
11	0x3f440bcc	0.765805
12	0x3f6b7fb1	0.91991717
13	0x3f177230	0.5915861
14	0x3f056b50	0.5211687
15	0x3f49e5a8	0.7886605
16	0x3f53f1e1	0.8279095
17	0x3f2f1da3	0.684046
18	0x3f2362ab	0.6382243
19	0x3f52d001	0.8234864
20	0x3f212b59	0.6295677
21	0x3f490dc7	0.7853665
22	0x3f4636fd	0.77427655
23	0x3f6e016e	0.9297093
24	0x3f18cd10	0.596879
25	0x3f2fd2f5	0.6868127
26	0x3f2f25d6	0.6841711
27	0x3f67ed1b	0.9059617
28	0x3f10dfae	0.5659131
29	0x3f17b413	0.59259146
30	0x3f4df395	0.804498
31	0x3f4e45bc	0.80575156
32	0x3f5b7745	0.85728866
33	0x3f1df531	0.6170226
34	0x3f0bfb2a	0.5468012
35	0x3f2122e2	0.6294385

encoder.3.1.bias f4 [36]
0	0x3c987ac5	0.018613229
1	0xbc657a72	-0.014006244
2	0xbc3e4df3	-0.011615264
3	0xbbece91c	-0.0072299372
4	0xbb58d6dc	-0.003308705
5	0xbd577a93	-0.05260713
6	0x3cb48bc1	0.022039296
7	0xbd335cc1	-0.04378963
8	0x3d10beee	0.035338335
9	0x3d09bc07	0.033626582
10	0xbd01f17a	-0.03172443
11	0x3c127507	0.008939034
12	0x3b2ef76f	0.0026697775
13	0xbcc8d76c	-0.024516784
14	0xbcbcd7fe	-0.023052212
15	0xbd07ef77	-0.033187356
16	0xbc3502c4	-0.011048023
17	0xbcf01784	-0.029308088
18	0xba90ae09	-0.0011038195
19	0xbbc5abeb	-0.006032457
20	0x3d106874	0.035255864
21	0x3a006d52	0.00048991025
22	0x3d02fcf1	0.031979505
23	0x3caeb7f6	0.021327954
24	0x3c99c8ee	0.018772569
25	0xbb9e013a	-0.0048219236
26	0x3c7a1083	0.015262726
27	0xbd01918b	-0.03163294
28	0x3d84c926	0.064836785
29	0x3c58c6a8	0.013230957
30	0xbc215468	-0.009846784
31	0xbc25b063	-0.010112855
32	0xbceaa350	-0.028642327
33	0xbb315b1f	-0.002706237
34	0x3b8d032b	0.004303356
35	0xbbaa525d	-0.0051978067

encoder.3.1.running_mean f4 [36]
0	0x3d47110d	0.048600245
1	0x3d855b73	0.06511583
2	0x3d42d578	0.04756686
3	0xbdf6a0fc	-0.12042424
4	0xbccc509e	-0.024940785
5	0x3dac3a45	0.084095515
6	0x3cff9af6	0.03120182
7	0x3c64c0ac	0.013961952
8	0x3dd4b9e6	0.1038702
9	0x3da3f8b9	0.080064245
10	0x3cfc2f50	0.03078428
11	0x3e2726d6	0.16323408
12	0xbd45fa06	-0.048334144
13	0x3d3aeaa2	0.04563392
14	0x3cb94785	0.022617111
15	0xbde811f3	-0.113315485
16	0xbd8d9d28	-0.06914741
17	0xbd46232e	-0.048373394
18	0x3cb2cef0	0.021827191
19	0xbd7f02e0	-0.0622586
20	0x3dc681b2	0.09692706
21	0x3d614275	0.05499502
22	0x3ddc201f	0.10748314
23	0x3c9c97ba	0.019115318
24	0x3d289d5b	0.04116569
25	0x3d6b9658	0.057516426
26	0x3db6c1e7	0.08923703
27	0xbdb0be05	-0.08629993
28	0x3d652354	0.055941895
29	0xbd6fc46f	-0.058536943
30	0x3da525a5	0.08063821
31	0x3cf70b74	0.030156828
32	0xbd92c4a2	-0.07166411
33	0x3bd3f354	0.006468216
34	0x3ce42493	0.027849471
35	0xbc63be48	-0.013900347

encoder.3.1.running_var f4 [36]
0	0x3ff031d0	1.8765202
1	0x3f8aba9f	1.0838202
2	0x40034983	2.0513618
3	0x40096c73	2.1472442
4	0x3fbd51c4	1.4790578
5	0x3fedf55c	1.8590503
6	0x3fe04b55	1.752299
7	0x3fd86117	1.690463
8	0x3f5404ae	0.8281964
9	0x3fab98da	1.3406022
10	0x3fa47025	1.2846724
11	0x3f853c40	1.0409012
12	0x3fc76d35	1.5580202
13	0x3fbf4dd4	1.4945626
14	0x3f481d7f	0.7817001
15	0x3fdc1074	1.7192521
16	0x3f8b0dd0	1.086359
17	0x3ffc3651	1.9704076
18	0x3fe0b161	1.7554132
19	0x3fbb8272	1.4649184
20	0x3fb6b9bd	1.4275433
21	0x3fd60b6e	1.6722238
22	0x3f70393e	0.93837345
23	0x3f96542d	1.1744438
24	0x3fcc506a	1.596204
25	0x3fa0105b	1.2504991
26	0x3fa9fa70	1.3279552
27	0x4007b62f	2.1204946
28	0x3fc6a7fa	1.5520012
29	0x3fcc8270	1.5977306
30	0x3f9889e6	1.1917083
31	0x3f87db4a	1.0613797
32	0x3fb53e9b	1.4159731
33	0x3f5c9646	0.861668
34	0x3f850b32	1.0394042
35	0x3f70af24	0.94017243
